Yahtzee/Models/version_3_model_15.pt (torch, 92194 bytes, 11 tensors)

policyHead.0.weight f4 [128, 50]
00000000: 7db6 01be 2c8d 0bbe 6ca7 44bd 0381 c7bb
00000010: c7d1 0d3d ab4b 05bc 717e a63d 3474 01bd
00000020: 8933 7fbd 1e5f 9e3d d811 983c 97bf 153e
00000030: f253 60bd dfd9 b33c a692 95bd b08c 07be
00000040: 6d4a 833d 4f3b 273d 31d8 e6bb 45f8 c63c
00000050: 07bd 1fbd 1ce1 803d 9591 a43c 74b0 0a3d
00000060: 2933 a73d d17a 193d 29ba f73d 2f67 073e
00000070: 91a2 16bd 7335 c2bd 49bd 85bd 8492 cb3a
00000080: 371f 183e 16a3 e93d a205 283e dc8c 56bd
00000090: ae72 303d 7a2f 273d 2e44 52be 919a 19bd
000000a0: ea61 51be 32c3 bcbe 201d cebc 9bf1 fcbc
000000b0: 8491 9a3c 6945 2cbd 0a04 a33d 5957 eb3d
000000c0: b004 b8bd 9f0b 08be 0d1a 213d 28ba 62be
000000d0: 3f6a 1a3e ab8a 6c3c b73d 84bd d4bd c1bb
000000e0: 1ca1 14be 1e1e 98bd d34c bd3d 524c 14bd
000000f0: 823d dcbd d58b 4c3e ff46 363d 013a 5bbc
00000100: 6290 d5bd dbcc 5b3d 2b63 e2bd 2422 1cbe
00000110: 0183 b63c 06d8 f43d e8d5 57bd bf46 b6bc
00000120: 016a 3bbd 5318 00be 9c0d 2cbd 99d2 a33d
00000130: 61ef 0abe ab1a 103e 48a1 a63b bdbc b63c
00000140: f0d5 8abd db1f 9bbd 59e1 56bd 4272 42be
00000150: 4aae 553e 736f 83bd 567b 35be 2824 b23d
00000160: 7252 38bd 19d3 5aba 7a41 dbbd e227 86bc
00000170: 0a74 cfbb 84bf 0d3e 23bb b6bc 324c 193e
00000180: 6030 67bd 0224 873c 8945 b03d ed67 2fbe
00000190: 5cb0 703d 23dd 2a3e 849c 88bd 7fd8 16be
000001a0: 103e e43d 6f70 dabd 326a 05bd e26e fe3b
000001b0: 6b57 66bd 38ab 0a3e fd08 31bb e601 8b3d
000001c0: b529 cabd ab7c 84bd fbec 79be 9985 813d
000001d0: 9811 95bd 1107 4c3e 4913 1b3c 0011 31be
000001e0: 08c3 b2bd f237 a4bd 2f19 083d ba9c 353d
000001f0: 0628 503b be83 04be cd45 ba3d 5dbe db3b
00000200: f0da df3c d123 00be 5a67 f13d d16f 0cbe
00000210: a570 61bd 8e85 47be 5d81 4dbd 5364 0ebe
00000220: 29df b83b 22b3 08be c298 47be 568c dd3d
00000230: 518b 153e dd20 303d 1e98 7fbe 7b70 343d
00000240: 3cac 0fbe 379b 91bc 1148 203e cacb b43d
00000250: bc53 5bbe 9fc1 4d3c e44b d13b d9a1 ebbd
00000260: b11f f03d 16f5 003d e591 c53b cdea ec3d
00000270: 3013 18bd 5734 a13d 8b78 03bd ff8b c33d
00000280: e7e0 3c3c d6b6 9cbd 4597 82be 3882 c63d
00000290: be23 f4bc e068 dbbd ac45 fb3d c82d 66be
000002a0: be0f c13c 9548 acbe bfba e6bd 134d ebbd
000002b0: 4fc6 03be d6ba 0fbd eec7 833d a5cc 083e
000002c0: c1ed 86bd 504c 98b9 c46f a93d 894d 0abe
000002d0: 138b d83c 5ed6 dcbd 6c39 17bd dd7d 50be
000002e0: 857d 7abd 0b31 0c3d fb12 23be 3f02 c7be
000002f0: 3a50 c1bc 9869 0c3d 1ae1 1c3e ebc2 a3bc
00000300: 0f45 463c 428f 56be 3ac6 b33d 1aff 78bb
00000310: d585 d23d a516 bcbd e8dc ec3d e53d 6d3d
00000320: f6d7 edbd 8c72 7bbd 9ea8 5abe d4e6 dc3d
00000330: eb6f b03d c142 003d a97b 89bb cb10 063d
00000340: 9417 09be f36f 63bc 1e10 ce3d 5267 363d
00000350: d8a0 f33d 052f a8bd 43e1 953d 3629 42bd
00000360: d3aa 2cb8 6107 463d cd76 bebd 18d0 7bbd
00000370: b672 0f3e 585a bbbd dc36 09bd 91d2 7cbd
00000380: d8cc 86bc 8b74 d33a d368 f3bd 228a c3bd
00000390: ec97 773d 808f db3d 6b51 0e3d 9c58 003d
000003a0: 38a7 883d 348d d0bd 227d 753d 9668 223d
000003b0: 51ca df3b 4f82 c3bd bedf 49be fb7a b73d
000003c0: cf10 803c ce89 b13d 4072 67bc 7b49 783d
000003d0: 77be 30be dfe2 4cbe a771 513e 8eb6 0a3d
000003e0: f033 c1bd bd79 ae3d 6d68 863c d5e8 2abe
000003f0: 99aa 333e 32b1 87be 45c9 043e e58c 65bd
-0.1266727 -0.13628072 -0.04801123 -0.0060883774 0.034623887 -0.008135716 0.081295855 -0.03160496
-0.062305007 0.07732986 0.018563196 0.14623867 -0.054767556 0.021954475 -0.073033616 -0.13237262
0.0641068 0.040828045 -0.007044815 0.024288306 -0.03899863 0.06292936 0.02008895 0.033859685
0.08164055 0.037470642 0.12096054 0.13222955 -0.03677613 -0.09482851 -0.06530244 0.0015531336
0.14855658 0.11408059 0.16408399 -0.052380428 0.043078117 0.04081676 -0.20533821 -0.03750092
-0.20447508 -0.36867672 -0.025160372 -0.030876925 0.018868215 -0.042058382 0.07959755 0.114912696
-0.08985269 -0.13285683 0.039331485 -0.22141325 0.15079592 0.014437358 -0.06457084 -0.005912522
-0.14514583 -0.074276194 0.09243169 -0.036205597 -0.10753919 0.19975217 0.0445013 -0.013380528
-0.104279295 0.053662162 -0.11054071 -0.15247399 0.022279264 0.11955266 -0.05269423 -0.022250531
-0.04575539 -0.12509279 -0.042005166 0.07999153 -0.13567878 0.14072673 0.005085144 0.022306794
-0.067790866 -0.07574435 -0.052461002 -0.18988898 0.20867267 -0.064177416 -0.1772283 0.086983025
-0.0450005 -0.0008347496 -0.10705848 -0.01637644 -0.0063309716 0.13842589 -0.02230603 0.14970472
-0.05644262 0.016496662 0.08607013 -0.17129488 0.05876194 0.1668592 -0.06670478 -0.14731024
0.1114465 -0.10665976 -0.03257198 0.007764683 -0.056235712 0.13541877 -0.0027013414 0.067874715
-0.09871236 -0.06469091 -0.24406807 0.0632431 -0.07278746 0.1992457 0.009465047 -0.17291641
-0.087286055 -0.08018483 0.033227142 0.04433892 0.0031762137 -0.1294088 0.09095345 0.0067060427
0.027326077 -0.12513663 0.11787291 -0.1371453 -0.055039067 -0.19484541 -0.0501722 -0.13905458
0.005641837 -0.13349584 -0.19491866 0.108177826 0.14603926 0.04300009 -0.24960372 0.044052582
-0.14030546 -0.017774208 0.15652491 0.08827932 -0.21418661 0.01255837 0.0063872207 -0.11505479
0.11724795 0.031483732 0.006029355 0.11568222 -0.037127674 0.07871311 -0.03209738 0.095481865
0.01152823 -0.07652061 -0.25506034 0.09692806 -0.0298022 -0.10713363 0.12269148 -0.22478402
0.023567077 -0.33649126 -0.11266088 -0.1148931 -0.12868617 -0.03509029 0.06434618 0.13359316
-0.06588317 -0.00029048556 0.08273271 -0.1350614 0.026433503 -0.10783075 -0.036919996 -0.20360513
-0.06115486 0.03422646 -0.15925209 -0.388689 -0.023597825 0.03428039 0.15320244 -0.019990405
0.012101426 -0.20953086 0.08778043 -0.003799385 0.10279433 -0.091840066 0.11565572 0.057920355
-0.11613457 -0.061388537 -0.21353385 0.107862145 0.08615097 0.03131366 -0.0041956496 0.03273086
-0.133879 -0.013881671 0.10061668 0.044532128 0.11895913 -0.08212093 0.07318356 -0.047402583
-4.1167088e-05 0.04834688 -0.09300003 -0.06147775 0.14008602 -0.09148091 -0.033499584 -0.06172425
-0.016455099 0.0016132755 -0.11885228 -0.09547831 0.06044762 0.1072073 0.034745615 0.031334504
0.066725194 -0.10183182 0.05993379 0.039650522 0.006829538 -0.09546339 -0.19714257 0.089590035
0.015633015 0.08668862 -0.01412636 0.06061695 -0.17260157 -0.2000842 0.20453511 0.033865504
-0.094337344 0.085193135 0.016407216 -0.16690381 0.17545547 -0.26502377 0.12967403 -0.05604257

policyHead.0.bias f4 [128]
00000000: b14d 143d 6875 a43c 4e95 f83d 5c38 a3bd
00000010: f4b9 5bbd 15e3 c8bd 7fd7 56bd e0d3 563c
00000020: 1ab7 87bd 39b2 b0bc 6825 843d cc01 27be
00000030: df24 c43d 8797 19be 4505 b53d 955b 5abc
00000040: 93b7 b23d 4555 6d3c e8fb 0d3e 020b cdbd
00000050: a4d3 07be f053 313b cecf 1fbe fc80 f33d
00000060: a6c9 1fbc 6c0a c13b 36fb e6bd 4286 35bd
00000070: 794b ca3d 39e0 543c ddd3 193e 6731 c03d
00000080: 9f49 19bd 80e4 1dbe eed4 b5bd 67fb 8b3d
00000090: eb48 51be ac8d cfbd 3de6 c5ba e5dd 7d3a
000000a0: 6162 f8bc 6963 13bd ccff b3bc 4b9d c13c
000000b0: bf72 d03c 8331 f4bd a47e e3bd 9c30 303e
000000c0: 3276 70ba af9d 2cba 11f9 833d 28b0 07be
000000d0: ab2a 823d bc6b ddbb 7b56 37bd 2f7b 773d
000000e0: 7ec4 bf3c 114a ef3c ad3b 8bbb 0e60 82bd
000000f0: 0a08 07be 8629 61bc 5248 ce3d 0918 cabc
00000100: 18bd 893d f221 773d 91c6 b13d 394d 10bd
00000110: ee49 27be 5c98 993c 7350 28be 56c5 1cbe
00000120: b407 edbd 362e 813c d9e0 fc3d 4e58 81bd
00000130: 709d 063e 4b35 3dbe d7e9 d63d c5e7 0dbd
00000140: b5fa ec3d dc3e 503d cfb0 e03c 4554 343c
00000150: 3c80 19be efdd c93d 640e 94bd 447a c3bc
00000160: 314e c3bd 8acf 63bd 2e8d f53d da86 43be
00000170: c12e 1a3d 0c4b 813d f338 01bd f92e 05be
00000180: 842f c1bb b57a f9bc b4dc 943d 96f5 52bd
00000190: 6bfe d43d 578d d2bd 4eb4 bebd d432 08be
000001a0: 92ba 5bbd 9417 bcbd 93a6 86bd 5501 013c
000001b0: a267 c53c 4db7 da3d eb93 743d cbbe e83c
000001c0: a059 b7bd df95 d53c 7846 1f3d 14fc ae3c
000001d0: 28dd a73d 3609 7d3d b5fa 463b 43ce 7e3b
000001e0: 5432 9d3d 3ac4 783d 6085 17be c960 09be
000001f0: 8f4a 8ebd 7c2b bbbd cf04 0f3d 23cf 0ebe
0.036206905 0.020075515 0.121378526 -0.07969734 -0.053644136 -0.098089375 -0.052451607 0.013112038
-0.06626721 -0.021569358 0.06452447 -0.16309279 0.09577345 -0.1499921 0.08838896 -0.013327499
0.0872642 0.014485662 0.13865626 -0.10011865 -0.13264328 0.0027058087 -0.15606615 0.11889836
-0.009752667 0.005891135 -0.112783834 -0.04431749 0.098776765 0.012992912 0.15022226 0.09384423
-0.037423726 -0.15419197 -0.08878504 0.068350606 -0.20437972 -0.10134444 -0.0015098524 0.0009684249
-0.030320348 -0.035983477 -0.02197256 0.023634573 0.02544534 -0.11923506 -0.11108139 0.17206043
-0.0009172886 -0.0006584776 0.0644399 -0.13250792 0.063557945 -0.0067572277 -0.04476021 0.06042021
0.023409124 0.029210122 -0.0042490573 -0.06365977 -0.1318666 -0.01374281 0.10072388 -0.024669664
0.0672552 0.060335107 0.08680452 -0.035229895 -0.16336796 0.018749408 -0.16436939 -0.15309653
-0.11573735 0.015769105 0.12347574 -0.06315671 0.13145995 -0.18477361 0.1049382 -0.03464486
0.11571256 0.050841197 0.027428059 0.01100642 -0.14990324 0.098567836 -0.07229307 -0.023862012
-0.09536398 -0.055617847 0.119898185 -0.1909441 0.037642244 0.06313142 -0.03154845 -0.130062
-0.005895557 -0.03045402 0.07268658 -0.05150374 0.10400089 -0.10280865 -0.09311734 -0.1330064
-0.053644724 -0.09184185 -0.0657474 0.007873853 0.024097268 0.10679493 0.059711378 0.02841129
-0.089526415 0.02607244 0.038885564 0.021360435 0.08196479 0.061776362 0.0030361835 0.0038880266
0.07675615 0.06073401 -0.14796972 -0.13415827 -0.06947815 -0.09139153 0.034916695 -0.13946204

policyHead.2.weight f4 [64, 128]
00000000: 390e 18be 9a05 51be 4076 723e bd57 0bbe
00000010: e33a 163d afe3 ebbc 58ed a33d ac45 223e
00000020: 52e4 683e 93c1 8c3d 0427 07be ac7d 403e
00000030: 6570 90be 076c 92be 08b5 90be ce56 42bd
00000040: d2e3 b2bd 3bd6 433e bbfd a63c 7e6a e3bc
00000050: 7dca b9be 589c 83be d689 62be 52d3 b5bc
00000060: 20ac 2e3d d345 253d a113 243d dc31 f5bd
00000070: 7bbb 623c c953 a8bd 2fc9 c2bd 8690 993d
00000080: af9d 80bd 786e 663d 78eb 37be 9d97 b43d
00000090: e64a 7a3d b558 33be 7b78 c0bd 148e 0b3e
000000a0: 43dc 4f3e ec94 2b3d 2724 603e 9a16 c33d
000000b0: 0ad3 453e bf5d ef3c ee00 a53d 558b 1cbd
000000c0: 5fa7 efbd f45e 123e 4396 44bd 987b aabe
000000d0: a704 b9bd 1562 223e 81a6 29bd b9cf a3be
000000e0: 15c0 0b3e 5e39 08be 4693 523e 235b e7bd
000000f0: 2f7c 5abd 40fb b23d 9ef7 943c 03e3 c43d
00000100: fe39 323d a26b ef3d 4252 9a3d dba1 313e
00000110: c66a 813e f588 b139 0e03 adbd 02a5 e73c
00000120: 3d3f 59be 63ec b4bd 20e7 2abc 56ba cb3b
00000130: 2d82 183e ed92 49be 4aa4 253e 7452 f73c
00000140: 752c cebc 78a2 263d 5e95 4ebe 1323 883d
00000150: 37f0 a4be 8f11 efbd 72d0 7fbe fdc4 8bbd
00000160: 6de5 a6bc 92de 803d e83d 713e 7a41 94bd
00000170: 3f43 67be 5141 863d 031a 07bd ecb4 82bd
00000180: 42bd 1e3d 3aae c7bd c827 4e3e b10e 373e
00000190: 9e26 e03d 06da dfbd add8 9dbe 5aed 5b3d
000001a0: e40f 93bd ca53 79be 3e5c 063d e748 dc3c
000001b0: c50c 303e 6208 2d3d 8037 00be ff58 30be
000001c0: f132 143e 5427 7ebe 35e8 e53d 7edb 7fbe
000001d0: a441 04bc 5f32 05bd 5973 9b3d 56dd 1a3e
000001e0: 5a23 bfbe 13f3 01be 1356 ad3d dbf8 0f3e
000001f0: 0bb4 22be c391 0cbe 86af 403d c64a 363d
00000200: 10fc c23d f05e 993c 4236 e23d d984 c73c
00000210: aee9 79bd 4e7f 813e da95 13bd 5e99 243a
00000220: 6bdb 6f3c 6999 843c 9e5d 873d 9a0e 273d
00000230: 1813 2a3d 30dd 0cbe a4f6 ab3d 19d0 a8bd
00000240: bbd1 a43d 9ee2 a73d 5f8b 25be 879d c2bb
00000250: acf4 52b8 55e9 a03b e9fe 2ebe 8ef7 bdbc
00000260: d636 573d 2e86 03be c2e5 b03d dea8 7e3e
00000270: 3518 223e 8da2 ee3d 60e3 f43c 92c3 1d3e
00000280: 184b db3c 8c77 8b3d 2582 8dbd 4299 7f3d
00000290: 38e6 b13c abf2 c6bd ab90 92bd 82b6 543d
000002a0: 4267 22bc 41fd fc3d bf26 adbd 842b 373c
000002b0: 818f 523d aa34 32be 3702 33bc beb3 113e
000002c0: 9106 e13d fd15 b33d af00 b13d ab30 c03d
000002d0: 4799 b3bc 58c1 183d 2a14 15be aaeb 463d
000002e0: 957e 68bd 1cfd 443d edd0 10be fbe0 e93d
000002f0: 2e40 bb3c 1b71 673d c776 03bd 3c00 9dbd
00000300: b671 023d b85e e4bd 18ee 2c3b 0c6e 833d
00000310: 62c0 453e a4f8 083e ae2e 04be 5bc9 003d
00000320: 93cf a9bd 4e78 b93d eb1b ed3d e56b 313d
00000330: 97b6 0abd e097 133e 361a 5fbd 1396 1b3d
00000340: 7e12 033b da87 bc3d 9622 4abd 1938 6d3d
00000350: 8c5d 19bc 682c fa3d 74ab 45bd 3cd0 5a3e
00000360: 6e1f c73d 1691 40bc a36f 083e 8b89 0e3d
00000370: 3117 3bbd 0c33 133e d6d5 3d3d 9ba0 213c
00000380: 42f6 abbd a475 163e 5a84 fe3d 02d5 8c3c
00000390: 4cb8 d4ba 2b8e c1bd 8c02 a33c 201f 8dbd
000003a0: f500 053d ade3 18be 8e49 8e3c 4d8c b23d
000003b0: 0a54 353d f933 593e 9c5c 5b3d b95f d6bc
000003c0: 4095 c2bd 0f88 2c3e be88 3bbe f024 31be
000003d0: 9b48 6c3b b194 183e b32b 1c3b f6e6 c63d
000003e0: b871 80bc 23ea 5dbd fe69 263e 36cf 093d
000003f0: 9315 033d bcf7 923d fefe 9b3c eda1 933b
-0.14849176 -0.20412293 0.23677921 -0.13607688 0.036677253 -0.028795091 0.08004254 0.1584689
0.22743347 0.06872859 -0.13198477 0.1879794 -0.2821075 -0.28598043 -0.28263116 -0.047446065
-0.087348595 0.19124691 0.02038466 -0.02776074 -0.362873 -0.25705218 -0.22122893 -0.022195492
0.04264462 0.040349793 0.040057782 -0.119724005 0.013838644 -0.08219106 -0.09511029 0.07498269
-0.06280076 0.056257695 -0.17960918 0.088179804 0.061106585 -0.17514308 -0.0939798 0.13628417
0.20298867 0.04189007 0.21888791 0.09525795 0.19318786 0.029219506 0.08056818 -0.038218815
-0.117018454 0.14294034 -0.047994863 -0.3329742 -0.090340905 0.15857728 -0.041418556 -0.31994417
0.13647492 -0.13303134 0.20563993 -0.1129668 -0.053341087 0.087393284 0.01818448 0.096136115
0.043512337 0.11690451 0.07535221 0.17346899 0.25276774 0.00033862112 -0.08447848 0.028276924
-0.2121553 -0.0883415 -0.010431081 0.0062172813 0.14893408 -0.19684954 0.16175953 0.030190684
-0.025167683 0.040682286 -0.20174167 0.06647315 -0.3221452 -0.11673271 -0.2498186 -0.06824682
-0.02037307 0.06292452 0.23558772 -0.07239051 -0.22584246 0.06555427 -0.03298379 -0.06382164
0.03875471 -0.09750028 0.20132363 0.17876698 0.10944866 -0.109302565 -0.30829373 0.053693153
-0.07180765 -0.24348369 0.032802813 0.026890231 0.17192371 0.042244323 -0.12521172 -0.1722145
0.14472558 -0.2481969 0.112259306 -0.24986073 -0.008072291 -0.03251874 0.0759036 0.15123495
-0.3733166 -0.12690382 0.08463683 0.14059775 -0.15888993 -0.13727479 0.047042392 0.044504903
0.09520733 0.018722028 0.11045505 0.024355339 -0.06101387 0.25292438 -0.03603158 0.0006278957
0.014639716 0.016186433 0.06609653 0.04078541 0.041522115 -0.13756251 0.08396652 -0.082428165
0.080478154 0.08197521 -0.16166447 -0.005939189 -5.029577e-05 0.004910628 -0.17089428 -0.023189332
0.05254253 -0.12844154 0.08637573 0.24869105 0.15829547 0.11652098 0.029893577 0.15406635
0.026769206 0.06809911 -0.06909589 0.062402017 0.021716222 -0.09714254 -0.071564995 0.051931866
-0.009912314 0.12352992 -0.08454656 0.0111798085 0.051406387 -0.17402902 -0.010925821 0.14228722
0.109875806 0.08744428 0.086427085 0.09384283 -0.021923674 0.037293762 -0.14558473 0.04856459
-0.056761343 0.048092946 -0.14142199 0.11419865 0.022857752 0.05650435 -0.032095697 -0.0766606
0.031846724 -0.11150879 0.0026387032 0.06417474 0.1931167 0.13376099 -0.12908432 0.031442028
-0.08291545 0.090561494 0.115775906 0.043315787 -0.033865537 0.14413404 -0.054468356 0.03798492
0.0020000036 0.09205599 -0.04934939 0.057914827 -0.009360682 0.12215501 -0.048259214 0.21368498
0.097227916 -0.011753341 0.13323836 0.03479914 -0.045676414 0.14374942 0.046346508 0.0098649515
-0.08396579 0.14693314 0.12427588 0.017191414 -0.0016229241 -0.094509445 0.019898675 -0.06890702
0.032471616 -0.14930601 0.017369058 0.087181665 0.0442696 0.21211232 0.053555116 -0.026168691
-0.095011234 0.16848777 -0.18313882 -0.17299247 0.0036054018 0.14900471 0.0023829758 0.09712021
-0.015679225 -0.05417837 0.1625137 0.033644877 0.032002997 0.07176158 0.019042488 0.004505387

policyHead.2.bias f4 [64]
00000000: 522e 1e3e a31d 073e dd59 05bd ca29 763d
00000010: 16ed 71bd 37e7 03bd 8cdf e7bd 1661 acbd
00000020: 21f4 04bc 7286 8fbd 6a51 8b3c c1b2 d5bd
00000030: 1710 b43c 5d0e 9f3d e5fa 1d3c 4944 48bd
00000040: b660 45bb 89ec 53bc 81cb 193d de3a e4bd
00000050: d567 523b d444 55bd ec76 a33d cdbd 17bd
00000060: 6ec7 f239 9512 84bd 9ba3 1dbe 3323 9cbd
00000070: b28f f4bc 866f 7dbd 1e07 cabb a180 b0bd
00000080: 0c69 7cbc 2fc1 a6bd 38db e2bd cc86 d4bd
00000090: ac6f 84bc 93ff 8b3d 90b9 1bbd 0571 783d
000000a0: fa0c 483d 86d0 80bb d85d f53c 2b02 02bc
000000b0: 9793 58bd 9264 043d 60f3 9f3d afa9 603e
000000c0: 5253 bd3c 39c1 2e3d 147f 8e3c a4d2 57bc
000000d0: 161d 5c3d a6bb 8ebd cbd1 c33c e4d3 0f3e
000000e0: f859 bfbc a3c7 843c e207 2c3d 2efc f73d
000000f0: 0ac8 543d e88a 383d a571 a93d 6c9e 233c
0.15447357 0.131949 -0.032556403 0.060098447 -0.059063993 -0.032202926 -0.11321935 -0.08416955
-0.0081148455 -0.07008065 0.017006595 -0.10434485 0.021980328 0.077664115 0.009642337 -0.048893247
-0.0030117459 -0.012934812 0.037547592 -0.111440405 0.0032105346 -0.052067593 0.07981667 -0.037046243
0.00046306424 -0.06448857 -0.15394442 -0.07623901 -0.029853676 -0.061873935 -0.006165399 -0.08618284
-0.0154059045 -0.081423156 -0.11076969 -0.10377273 -0.01616653 0.06835856 -0.038018763 0.06065466
0.0488405 -0.003931108 0.029951975 -0.007935087 -0.052875128 0.032322474 0.07810092 0.21939729
0.02311102 0.04266474 0.01739458 -0.013172779 0.053738676 -0.06969385 0.023903748 0.14045674
-0.02335833 0.016208475 0.041999705 0.12108646 0.051948585 0.045054346 0.08273629 0.009986501

policyHead.4.weight f4 [26, 64]
00000000: 5e19 9f3d 1fa5 023e de2e ebbc 3510 713e
00000010: df51 7ebe 4905 053e d8fb adbd 05a3 6a3d
00000020: 5183 0abe 1438 debc 1184 083e e8db b8bc
00000030: 705f 12be bad1 1bbd 6e9b 293d 8563 eabd
00000040: c316 38bd b487 c23b 5d3e 42be 2178 81bb
00000050: 62b7 883b 87a6 10bc 431d 383e 59cd b73d
00000060: 9934 593e 3e3a 7cbe 8263 28be e8ed 1ebe
00000070: a9a1 14be b2f1 a63d 679d 67bd 920a 94be
00000080: 8c70 893d 17dc f1bd 124a 70bd 8521 41bd
00000090: b56c c3bd e5e8 b63e 73b9 ddbd 4617 cdbd
000000a0: af58 1c3e a647 6bbd 5d9f e0bd d424 1e3d
000000b0: 609b 9a3c 4d25 923e 7a37 8d3e e79d cabc
000000c0: cdb8 78be 5a0a bd3d 1665 ce3d e389 6abe
000000d0: df62 e23d b415 9f3c fed1 02bc 4101 44bb
000000e0: 2437 d23d 1af9 0dbe 569b 193e 89d9 03be
000000f0: 0c1c 12be c413 13be 89f6 50bd c9e8 f3bd
00000100: 6a11 e93d 895f 783e 7413 433c 0389 703e
00000110: 3b30 f1bd 26bc 773b 0198 d93d 2c24 b5bb
00000120: 9828 113e 5bb0 f339 b468 62bd bc25 0dbe
00000130: ce91 963d 2c0f 303e e518 333e fd95 d43c
00000140: f9d2 363c 4d15 6bbd 4604 f03d 1694 763c
00000150: 17d8 53bd c0c2 89bc ea95 f8bd fe98 ed3d
00000160: c39d df3d 150d 8bbd 51c3 abbd 870c 203d
00000170: a4d1 31bd 4551 0fbe 04c1 20be 008b 11be
00000180: 8849 3c3d 7b2c ecbd a64c a73d 86ea fd3c
00000190: 7bbf 86bd e02a 6abd 67f8 d43d e8e5 fb3d
000001a0: 1f74 343d 13a9 343e fad3 c1be 1c71 99bd
000001b0: b068 9fbd 5241 3abe f532 20be b489 fe3d
000001c0: 535c 873d 8290 9dbd 79e5 b73d 555f ec3c
000001d0: 3287 33be 34f0 2cbd 82a2 83be 21d0 b53d
000001e0: 50ff 633d f3da 8bbd f80f 08bd bd51 d23d
000001f0: 3bbc 7abd 2dd7 84be c31c 8e3d 92ec ae3d
00000200: d86a 09bd 43b3 ce3d 392c e0bd c755 af3d
00000210: 70cd 0dbe a5f3 3abe d987 cb3d b396 00bc
00000220: 27e6 c63b 424e 48be 3ae4 0bbc dce7 f2bd
00000230: aee0 093d bb3a 4dbd 4f23 b43d 2bed 4b3d
00000240: 5117 4fbd d4d6 4abc 89c1 81bd 9f69 ff3d
00000250: 2475 eebc 8e82 71bd 2acb 523d 7521 ebbd
00000260: d7e8 1e3e 4409 6e3d c868 063e 0175 b4bd
00000270: 24e6 d4bd 1873 1d3e efc9 fe3c f2ec 9fbe
00000280: d193 b1be 1ccb b2bd 6ce3 00be 7b34 bdbd
00000290: 537b 493d bc64 9ebe f457 193d 8b12 bcbb
000002a0: cf08 4f3e ebe9 193e ceb6 2abe e639 86be
000002b0: f412 8d3d e6b9 91bc 162a fe3d 5683 7c3e
000002c0: 9e31 ddbd 2e09 d6bd 6e2d 67bd 870d 093e
000002d0: 666b 3e3d 57a6 b53b 0e87 a03d 7fa1 ed3d
000002e0: 24f1 89bd 7825 843c 582a 44bd 8fc1 703d
000002f0: ed46 0bbe 3c5a 813e 1f1a 04bc a7da 4abd
00000300: e62f 0c3e 4cbd d33d a043 3ebe a057 833c
00000310: 8790 81bc 0f7d dfbd 8849 d1bc c1f0 843c
00000320: e6fd ba3d ab09 1c3d df62 7ebe cbc8 5a3c
00000330: 620d 103e ce9c 1dbe 518c bc3c 4067 8fbd
00000340: 0351 8c3d 9f9a 093d 7e06 cd3d 15e1 8bbd
00000350: edd4 7abe 0167 54be 7f55 78bd c71a c63d
00000360: 89d0 f23d 6e49 21be 640f 3bbd 06b7 173c
00000370: 3313 1cbd 89fa 45be c027 573e 7047 a53d
00000380: 270f e2bb 9c58 e9bd 79dd 64be 6f42 67bc
00000390: 51e1 0bbe d350 bfbc 7089 873d 712b 143c
000003a0: b71e 473c da22 59be 4f39 cf3e e7a7 ffbd
000003b0: 59df d13d 0f97 6d3b 1711 9bbc 8a5d 87bc
000003c0: 6049 e6bd 4c6a 6dbe 5199 813e 8378 27be
000003d0: e4e9 26be 7e06 47be bfd8 023e fed5 abbd
000003e0: ec38 76be 294f 72be 9cf7 cc3d 196d a33d
000003f0: 0317 d5bd d7ce db3d ba41 5cbd 318b 6dbe
0.0776851 0.12758301 -0.028708871 0.23541339 -0.24835919 0.12990297 -0.08495301 0.057284374
-0.13526656 -0.02712635 0.1333163 -0.022565797 -0.14294219 -0.038041808 0.041407995 -0.11444763
-0.044943582 0.005936587 -0.18969102 -0.003951088 0.0041722516 -0.008828766 0.17979912 0.08974714
0.2121147 -0.24631593 -0.16444209 -0.15520442 -0.14514793 0.081515685 -0.056546595 -0.28914315
0.0671092 -0.11809557 -0.05866439 -0.047151107 -0.095422186 0.3572456 -0.10826387 -0.10014205
0.15268205 -0.057441376 -0.10967896 0.03860934 0.018872917 0.28544083 0.27581388 -0.024733497
-0.24289246 0.0923049 0.10077874 -0.22904162 0.110540144 0.019419529 -0.007984636 -0.0029907974
0.102644235 -0.13864556 0.15000662 -0.12875952 -0.14268512 -0.14363009 -0.051016364 -0.119096346
0.113802746 0.24255194 0.011906493 0.23489766 -0.11776777 0.0037801354 0.106246956 -0.0055279937
0.14175642 0.00046479967 -0.055275634 -0.13783926 0.07352029 0.17193288 0.17489965 0.025950426
0.011158698 -0.05739336 0.11719565 0.015049955 -0.05171975 -0.016816497 -0.12137969 0.116014466
0.109187625 -0.067896046 -0.08386863 0.039074447 -0.04341282 -0.13995846 -0.1569863 -0.1421318
0.045968562 -0.115319215 0.081689164 0.030995619 -0.06579491 -0.057169795 0.103989415 0.122997105
0.044056054 0.17642622 -0.37857038 -0.07492277 -0.077836394 -0.1818898 -0.15644439 0.124286085
0.06609406 -0.07693578 0.08979315 0.028854052 -0.17532042 -0.042221263 -0.2570992 0.08877588
0.055663407 -0.068288706 -0.033218354 0.102694966 -0.061214667 -0.25945416 0.069390796 0.08541216
-0.03354916 0.10092785 -0.10945935 0.085612826 -0.138479 -0.18257006 0.0993802 -0.0078484295
0.0060699168 -0.19561103 -0.0085383 -0.1186063 0.033661537 -0.050104838 0.08795797 0.049786728
-0.050559346 -0.012380321 -0.06335742 0.124713175 -0.029108591 -0.058962397 0.051463284 -0.11480991
0.15518509 0.058114305 0.13125908 -0.08811379 -0.10395458 0.15375936 0.031102149 -0.31235462
-0.34683087 -0.08730146 -0.12586755 -0.092385255 0.049189877 -0.3093623 0.037437394 -0.005739515
0.20218204 0.15030639 -0.16671297 -0.26216048 0.06888381 -0.017788839 0.12410371 0.24659476
-0.10800479 -0.1045097 -0.05643981 0.13384067 0.046489142 0.005543511 0.0783826 0.116030686
-0.06735447 0.016131148 -0.047891945 0.05877834 -0.13601275 0.25264156 -0.008062868 -0.04952493
0.13690147 0.1033884 -0.18580484 0.016032994 -0.015815986 -0.10912525 -0.025547758 0.016228082
0.091304585 0.038095158 -0.24842404 0.013353537 0.14067605 -0.15391847 0.023016127 -0.07002115
0.06851389 0.033594724 0.10011004 -0.0683004 -0.24495287 -0.20742418 -0.06062841 0.09673076
0.11856181 -0.15750667 -0.045668975 0.009259945 -0.038104247 -0.19333853 0.21011257 0.08070266
-0.006898779 -0.11393854 -0.2235011 -0.01411496 -0.1366017 -0.02335397 0.06618011 0.00904356
0.012153319 -0.21204701 0.4047341 -0.12483197 0.10247678 0.0036253368 -0.018929048 -0.016524095
-0.11244464 -0.2318508 0.25312284 -0.16354565 -0.1630016 -0.1943607 0.12777995 -0.08390425
-0.24045151 -0.2366301 0.10008165 0.07979793 -0.1040478 0.10732811 -0.05377362 -0.23197629

policyHead.4.bias f4 [26]
00000000: cbfc d7bd 11e1 cc3d 5fa7 07bc f780 043e
00000010: b3dc 45bc 7e72 0c3d 5f38 e4bb 5e21 9abd
00000020: 79ca 983d 5527 5cbc 933e d53d 5507 b6bd
00000030: 5c08 ecbb 0918 1dbc a1d5 8dbd 1416 423c
00000040: 39ca aebd bf1c 0abe dcf4 08bc 8bbc c7ba
00000050: db09 833d 2e84 efbc 7d9e 96bd 2ec1 253d
00000060: a33c 953d 2189 5abd
-0.10546263 0.100038655 -0.0082796505 0.12939821 -0.012076545 0.034288876 -0.006964728 -0.075258955
0.074604936 -0.013437112 0.10412326 -0.08888117 -0.007203145 -0.00958825 -0.06925512 0.011846084
-0.08534665 -0.13487528 -0.00835916 -0.0015238685 0.06398364 -0.029237833 -0.07354448 0.040467434
0.07286956 -0.053353433

valueHead.0.weight f4 [64, 50]
00000000: 071e 2bbd 06f7 b9bd 0965 b63b f731 00bd
00000010: 8d7c 1bbd 7ac7 4fbc a4c2 0cbe ce32 15bd
00000020: 18c9 353e b565 8bbe dc53 08be 6130 993d
00000030: 04ae 6f3e 2507 bb3b 179a 6fbe eb29 75bb
00000040: b880 0a3e 460b 2fbe afb7 0dbe 6127 83be
00000050: 08ce b13d 029d abbd f02c ebbd 1895 69bd
00000060: a80a b9bd 03cf 85bd 2d2c e5bd 21aa fd3d
00000070: 8dab 8dbb 4fef f9bd f4b6 523d 6c2a 39bd
00000080: ad93 6dbc f589 ddbd c389 083e da22 603b
00000090: d2de 89bd 5dca cc3d da56 983d 2ad3 89bd
000000a0: 4c14 bb3d f685 993d 7824 a9bb a069 ed3c
000000b0: 5bc5 c9bd b1a7 28be f086 16be 8dd0 06be
000000c0: dfd6 a73d 50d3 13bd f69b 25bd 063d 57bc
000000d0: e058 68be 122a ce3d 2744 00bd 4ba1 403d
000000e0: 10b5 3ebe c795 803e e3d2 66bd 7ce7 aebd
000000f0: 2321 be3b 25e0 65be 726f 7d3d 9c97 04bc
00000100: 1621 9a3d c712 0a3e 4c89 a4bc e1d8 f6bc
00000110: 5a03 d03d facb 813c 8e00 7f3d 7770 b3bc
00000120: 8501 443d 4995 f33d fc7b cc3c a27e 0abe
00000130: 63d0 c4bd ee13 0d3e f546 63bc a5d0 11bd
00000140: 91a8 003e 7d69 c43d 3476 ee3d ba42 1bbd
00000150: 9252 cf3d c004 04bd 9e40 d63c 903a 213e
00000160: b8fb 16be 973b f3bd 956b 163e 714a aebd
00000170: 67ec 2d3e 21c9 b9bd 3cb8 00be bab0 91bc
00000180: 019e e93d 891b 3ebe 95f7 66bd 6407 773e
00000190: a8c0 0abb 9dd9 0abe f1bf 353e cf2a c2bc
000001a0: 0ed5 563d 51be ddbd 68d8 46bd 7808 343d
000001b0: 54e4 9bbd d229 233d 633b 9d3b 6caa e438
000001c0: 4304 213d 021d 313e 4d3c 9fbc 13f2 09be
000001d0: 130e 403e ca5a ecbd 306c a1bc ca1b 033e
000001e0: 6adf e43c 9793 6d3d e06c 923d cd8f fa3d
000001f0: 11f3 bebb 0b8d 8a3d 1be1 9abd 2719 0ebe
00000200: f867 b03d b7b7 c5bc 51d9 413b 9f0e 293c
00000210: eaf7 bdbd 5946 ce3d b6aa 9fbd 2a0b 07be
00000220: c47f 073e ce67 503c e115 09bc d97d febc
00000230: c6b8 1f3d 6380 58bb 209a ee3d 230b 7a3c
00000240: 4741 24be 7fb6 4fbe 7316 77be 9ae2 063e
00000250: 56ef 1abe d800 3b3e 1af2 913d a988 74bc
00000260: 295f 2abe ed09 3f3e a403 993d 7f5e 08be
00000270: b2be f93c 2a4d b5bd 59eb 013d 6ec8 22be
00000280: bda0 0c3e cb16 a5bd ea31 a7bd f738 543e
00000290: 065d 01be 3f10 f0bc a0de 3cbe bdad 23be
000002a0: 73a5 23bc 4d14 263e defc 3ebc efbc 03be
000002b0: 26f5 01bd 6c42 02bc b72f 803b 3238 bc3d
000002c0: c4cf 013e 92f9 f8bd 9a0e f9bd 7df6 c2bc
000002d0: 15b4 203d 5eba d5bd 7789 a13d 89d5 1a3c
000002e0: dbe8 1dbe 6b73 06bc d944 82bc b6bd a4be
000002f0: 78a6 9bbe cec8 c43d fa8d 553d 9bf6 46be
00000300: 66c2 c5bb b1b2 343d 1688 89bd 4edb 8a3d
00000310: ae16 e0bc 9c55 5ebd 0a93 c5bd 986d 7fbe
00000320: 8c35 7d3d eade 583d 2cfc 2c3c efab e63d
00000330: dcf7 303e 4c81 0e3e 204e 403d 0586 113d
00000340: a431 8d3c 1480 6ebd fc80 f0bd 34b1 5f3e
00000350: cf6e 21bd 3193 e5bd 892c a4be 1949 c3bd
00000360: c476 b5bd 54ad 803e caa7 87be 67f8 ad3c
00000370: dc79 103e 9b34 d6bd e5b6 9fbd ecfb f1bd
00000380: 7f92 823c a8b7 09be 78cb 07be 8111 6f3d
00000390: dfeb 263d b9e4 0cbe 71c6 f2bd 9c88 543d
000003a0: 7900 9f3d 20ea be3d dbdc f53c 7fbd eabd
000003b0: 2efc 5e3d 9b47 1bbe 3c7f 62bd 4bf5 883d
000003c0: f44e a03d 6013 3dbe 4ed5 f0bc b0bc ddbd
000003d0: 4518 63be ee0f 8f3d 4772 323e 6f0b f8bc
000003e0: a3c7 2abd 9790 913d 8a0d 29bd 2f03 f3be
000003f0: 4c4d 9b3e 153b 04bd 0559 333e 4661 01be
-0.041776683 -0.09080319 0.0055662435 -0.03129765 -0.037960578 -0.012681836 -0.13746125 -0.036425404
0.17752492 -0.27226034 -0.1331324 0.07479931 0.23406225 0.005707639 -0.23398624 -0.0037409018
0.13525665 -0.17094144 -0.13839601 -0.2561598 0.086818755 -0.08379556 -0.114831805 -0.057026953
-0.09035236 -0.06533625 -0.111900665 0.12385965 -0.004323429 -0.122038476 0.05144401 -0.045206472
-0.014500541 -0.10817329 0.13333802 0.003420046 -0.06731953 0.09999535 0.074384406 -0.067297295
0.09134731 0.07496254 -0.005161818 0.02898103 -0.09852096 -0.16470219 -0.14699912 -0.13165493
0.0819528 -0.036090195 -0.04043194 -0.013137108 -0.22690153 0.10066618 -0.031314995 0.04702882
-0.18623757 0.2511427 -0.05635346 -0.08540246 0.00580229 -0.22448786 0.06187386 -0.008092787
0.07525842 0.13483725 -0.020085 -0.030132713 0.10156889 0.015844334 0.06225639 -0.021904213
0.04785301 0.11893708 0.024961464 -0.13524869 -0.09610059 0.13777134 -0.013871898 -0.03559937
0.12564303 0.09590433 0.11643639 -0.037905432 0.10123171 -0.032231092 0.026153859 0.15744996
-0.1474446 -0.118766 0.14689477 -0.08510292 0.16984712 -0.090715654 -0.1257028 -0.017784465
0.1140709 -0.18565191 -0.056388456 0.24123913 -0.002117196 -0.13559575 0.17749001 -0.023702053
0.05244928 -0.108273156 -0.048546225 0.04395339 -0.076119095 0.039834805 0.004798339 0.00010903631
0.039310705 0.17296222 -0.019437933 -0.1347125 0.18755369 -0.11540754 -0.019704908 0.1280357
0.027938563 0.05800208 0.071496725 0.12234459 -0.0058273156 0.06765183 -0.07562467 -0.13876782
0.086135805 -0.024135454 0.0029578994 0.010318427 -0.092758015 0.100720115 -0.077962324 -0.13187853
0.13232332 0.0127200615 -0.008367033 -0.031065868 0.038994573 -0.0033035509 0.11650491 0.015261444
-0.16040526 -0.2028446 -0.24129657 0.13172379 -0.15130362 0.1826204 0.07126255 -0.01492516
-0.16637863 0.1865613 0.074713975 -0.13317297 0.030486438 -0.088526085 0.031718586 -0.1589677
0.13733192 -0.08060988 -0.08163817 0.20724855 -0.12633142 -0.029304622 -0.184443 -0.15984245
-0.009988177 0.16218682 -0.011656968 -0.12865041 -0.031727932 -0.0079504065 0.003911938 0.09190406
0.12676913 -0.12156977 -0.12160988 -0.023799175 0.03923424 -0.10435937 0.078875475 0.009450325
-0.15420859 -0.008206229 -0.01590197 -0.32175988 -0.30400443 0.09608613 0.052137353 -0.1943001
-0.006035137 0.044115726 -0.067154095 0.0678011 -0.027354565 -0.054280862 -0.09647186 -0.2494415
0.061818644 0.052946962 0.010558169 0.112632625 0.17282051 0.1391651 0.046949506 0.0355282
0.017235585 -0.058227614 -0.11743352 0.21844941 -0.039412316 -0.11209715 -0.32065228 -0.09535427
-0.08860543 0.2513224 -0.264952 0.021236612 0.14108986 -0.104592524 -0.07798556 -0.118156284
0.015938995 -0.13448966 -0.13261211 0.058366302 0.040752288 -0.13759126 -0.11854256 0.051888093
0.07763762 0.093219995 0.030012539 -0.11461925 0.054439716 -0.15164034 -0.05529712 0.06687411
0.07827559 -0.18464422 -0.029398587 -0.10827005 -0.22177227 0.0698546 0.17426406 -0.03027889
-0.041694295 0.071076564 -0.041272677 -0.47463366 0.3033241 -0.032282908 0.17514427 -0.12634763

valueHead.0.bias f4 [64]
00000000: f97e 513d 21b7 4b3c bb83 04be 9e5e a03d
00000010: b1a5 a3bd bc25 343e c028 5a3c cf39 333e
00000020: 820b 1f3c d482 34bd e52a 6dbc f747 593d
00000030: eab4 4b3d d493 4abe 52e1 02be 4660 4c3d
00000040: 3d88 c43c 13db 35bd 3b2c 07be 1250 b3bd
00000050: c4a7 26be f4c0 b4bd d8ff bfbd b940 b4bc
00000060: c7cd 90bd 1a6f 573c fe08 003e 7947 a7bc
00000070: f78c 84bd 6041 bd3d 2623 b1bd 74d7 c4bd
00000080: cbcf 9c3c b74f 8d3d c4c5 593d b381 87bc
00000090: de93 a33c 50a1 05be a3d4 a33d 72c1 5dbe
000000a0: fafe 86bd 9eaa e23d 5ad2 183e 0cf6 2cbe
000000b0: 6d50 0cbe 6754 01be f1a7 6fbd e72b ddbd
000000c0: df09 be3d ad9b f6bd 46ca a7bd 3084 68bd
000000d0: 6aad 6a3d 7ce2 463d ad53 d8bb e695 dbbd
000000e0: 5823 a9bd 0157 1cbd e13a a33d eeac 0fbe
000000f0: d372 0abe be04 2bbc d28f c13d 8544 05bd
0.05114648 0.012433798 -0.12940876 0.07830547 -0.079905875 0.1759252 0.01331538 0.17502521
0.0097073335 -0.04407008 -0.014475559 0.053047147 0.04973308 -0.19782954 -0.12781265 0.0498965
0.023990745 -0.04439838 -0.13200466 -0.087555066 -0.16274935 -0.088258654 -0.0937497 -0.022003518
-0.07070499 0.013149047 0.1250343 -0.020419823 -0.064721994 0.09240985 -0.08649282 -0.09611407
0.019142052 0.0689997 0.05316712 -0.016541338 0.01996797 -0.13049817 0.079995416 -0.21655825
-0.06591602 0.11067699 0.14923993 -0.16890734 -0.13702555 -0.12629853 -0.05850977 -0.10799389
0.092792265 -0.120414115 -0.081928775 -0.05676669 0.057294287 0.048555836 -0.006601772 -0.1072195
-0.082586944 -0.03816891 0.07970215 -0.14030811 -0.13520364 -0.010438142 0.0945126 -0.03253605

valueHead.2.weight f4 [32, 64]
00000000: 361d 10be 3c22 c9bd c8bb 3b3d db4d 87be
00000010: e152 523b 2b47 20bd d4f8 a13d 18ce ee3b
00000020: f431 0dbe b9a9 a4bd 6ab0 81bc a1e7 29be
00000030: f4df 16be 5a1b 06be 7368 3bbd dda5 30bd
00000040: 8ad2 853d 6c4d 373e 8554 d43d a16c 893d
00000050: b967 9abe d305 7f3c d162 fabd 9092 edbc
00000060: 65d9 4ebd 0cec 943d 94ac 2abd 9dd9 23be
00000070: 6799 32be 8db2 543d 7554 8bbd 013c 51bd
00000080: c20e 86bd f498 383d 8bbd b63d 935c be3c
00000090: f9d1 9dbd 8fa9 30bd d548 89bb 41b7 9bbd
000000a0: b68f 4c3d d4c9 1bbe b327 32be 016b 2d3e
000000b0: 893f 543d 76a8 a1bd d309 a83d 16b0 a23d
000000c0: 72cb 32be a236 d23d 567c b0bc dd17 81be
000000d0: 6dae d8bc 6452 16be 80f1 1abe 3d53 0abe
000000e0: e3a0 51bd 86da dbbd bb0a 733d ca61 2cbe
000000f0: 6723 63be 779f 913e dbd1 563d 44e7 d5bd
00000100: 2f1c 79be 1708 89be e206 fabd b787 33be
00000110: 8abf e8bd 5d6f 393b a064 cd3d e9a0 57bd
00000120: ec22 2ebe 0ec5 bc3c 67aa 2dbe 7457 b83c
00000130: 48a8 65be a596 c33d 95cb 95bd 48b2 a3be
00000140: 72dc afbc edf7 a8bc 71b0 a5be 2ce2 2c3e
00000150: dbcc 083d 163c 2a3e b5b2 afbd 4257 8e3d
00000160: 55a6 c3bd 1f42 55bd 7061 0cbd 845e 773d
00000170: 7afb 9cbc c4de e2bd b64f 90bd 120e 853c
00000180: 4f63 a23c e1eb 18bc 6374 d5bc b77f b03d
00000190: ca2f 2ebe cb13 f2bd 7040 14be ecb6 213e
000001a0: f0d9 91bb ba52 70bd 29a7 e33c 211f b03b
000001b0: bcc8 da3c 02bb 92be e260 65bd b18f 0ebe
000001c0: 435d 903e 355b c8bc 672f 2f3c 5ab8 3f3d
000001d0: 3073 a6be c5e5 eebd 1feb acbd a635 2b3e
000001e0: ce12 983d 0e38 82be c655 84be 1e56 2bbe
000001f0: d90d 1b3e ab20 a8bd 230d 66be 9436 4bbd
00000200: 041e 29be 31ad f1bd fe35 813d 2952 f3bd
00000210: a235 0bbe 3fd5 b43e 69de 90bd 5047 35be
00000220: 0e8a 5e3d 0612 2b3e 5ab3 8dbd b221 aebd
00000230: a37f ea3d 1e27 1f3d c193 3b3e d6b2 babd
00000240: fc08 9dbd 67cf ab3d 6fe3 983e a237 fdbd
00000250: 0691 a13d 162d 613d f7ac 68be 5daa 443e
00000260: d81e d7bc 98f7 3d3e f729 65be bf15 47be
00000270: 545c 9d3d 1c64 9fbd 98dd f93c c753 7a3e
00000280: 8f80 d33d d4b8 4fbd 433e fcbd acf8 2b3d
00000290: e060 833d 3228 1f3e 08e7 2ebe b4f5 c63d
000002a0: a981 073e 0fdf 10be bb40 ecbd 97dc 12bd
000002b0: bbc4 abbd b09c 0abe cdf5 803b 6df7 473e
000002c0: 921a 2f3e 2530 81bc 9c9d 06bd 511c 093e
000002d0: f88d c4bd 67c1 96bc c0c3 e53d cc44 f0be
000002e0: 5819 24be f245 88bd 17f0 f23d 7954 9ebd
000002f0: aba4 5bbe fe9d fd3d 7297 1c3d 6856 023e
00000300: 2394 85be 70f0 95bc 0221 45bb 9435 babe
00000310: 0f6b d53d 6aa7 8abd 62d0 093c 7e75 b7bb
00000320: ea13 20be 1b7a 10bd d768 63bd 0156 8a3d
00000330: 8168 32bd 6cd4 4dbe 231a 7e3d 26b1 15be
00000340: 74db eebd 0c62 fd3d fd42 f7bc 0d89 ad3d
00000350: 2fee d63d 3a67 aa3d 9dc1 5abe 715c f0bc
00000360: 1c07 a6bd 866c 83bd 0b30 b0be b2fa 36bd
00000370: d93d 0bbe fd0d ddbb 25f7 84bd 617b 063d
00000380: 5682 9abe e805 cf3d 075a 1abb 23ff b6bd
00000390: 0638 1fbe 582d 1c3e e9f3 9e3d 0366 393e
000003a0: babb c6bc 1bae 073d beb7 18bd 8735 6b3d
000003b0: 1ff6 083c b177 87be 556f 583c ac43 d5bd
000003c0: f6a9 85be 314f c0bd 5031 f93d 2018 09bd
000003d0: 4634 7bbc fe24 e33d 3b87 b6be 436c febc
000003e0: 6ea1 d03d 5fd1 2dbe 5ee4 70bd d711 4bbe
000003f0: 919e a9be afd9 3f3e 031e 703e aa0d 9d3d
-0.14073643 -0.09820983 0.04583338 -0.26426587 0.0032092857 -0.03913037 0.07908788 0.007287752
-0.13788587 -0.080401845 -0.015831191 -0.16592266 -0.14733869 -0.13096371 -0.045753907 -0.04312693
0.06534298 0.17900628 0.10367683 0.067101724 -0.3015726 0.015565353 -0.12225879 -0.02900055
-0.050500292 0.07271585 -0.04166849 -0.16000982 -0.17441331 0.05192809 -0.06803218 -0.051082615
-0.065457836 0.045067742 0.08922871 0.023237502 -0.07706065 -0.043130454 -0.0041895905 -0.07603312
0.04994174 -0.1521371 -0.17397957 0.1693535 0.051818404 -0.078934595 0.08204999 0.07943742
-0.1746042 0.10264327 -0.021543663 -0.2521352 -0.02645036 -0.14679867 -0.15131187 -0.13508315
-0.051178824 -0.107350394 0.059336405 -0.16834179 -0.22181474 0.28441975 0.052446228 -0.10444501
-0.24327157 -0.26763985 -0.12208344 -0.1753224 -0.11364658 0.0028295137 0.10028958 -0.05264369
-0.17005509 0.023043182 -0.16959535 0.022502638 -0.22427475 0.095502175 -0.07314221 -0.31971955
-0.021467421 -0.020626033 -0.32361177 0.16883153 0.03339849 0.16624483 -0.085790075 0.06950237
-0.0955321 -0.05206501 -0.03427261 0.06039287 -0.019162882 -0.110776454 -0.07046454 0.01624206
0.019822745 -0.009333582 -0.026056474 0.0861811 -0.17010418 -0.118201815 -0.14477706 0.15792435
-0.004451029 -0.058672644 0.02778967 0.0053748046 0.026707046 -0.286583 -0.056000598 -0.13922001
0.28196153 -0.024457553 0.010692454 0.04680667 -0.32509756 -0.11664919 -0.08443283 0.16719684
0.07425462 -0.2543339 -0.2584669 -0.1673207 0.15142001 -0.08209356 -0.22465949 -0.049612597
-0.16515356 -0.11800612 0.06309126 -0.11880905 -0.13594678 0.35318944 -0.07073671 -0.17702985
0.054330878 0.16706094 -0.06918974 -0.085025206 0.11450126 0.038855664 0.18318082 -0.091161415
-0.07667729 0.08389168 0.29861018 -0.12364127 0.07888989 0.054974638 -0.22722231 0.19205613
-0.026259825 0.18551481 -0.2237929 -0.19441889 0.07683626 -0.07782766 0.030501172 0.24446021
0.10327255 -0.050713375 -0.12316563 0.0419852 0.06414962 0.15542677 -0.17080319 0.09714833
0.13233055 -0.1414759 -0.11535784 -0.035854902 -0.08387133 -0.13536334 0.0039355517 0.19527979
0.1709998 -0.015770027 -0.03286515 0.13389708 -0.09597391 -0.018402768 0.11218977 -0.46927488
-0.16025293 -0.06653966 0.118622 -0.07730956 -0.21449535 0.1238365 0.038230367 0.12728274
-0.26089582 -0.018303126 -0.0030079489 -0.36369002 0.104208104 -0.06770213 0.008411499 -0.005598723
-0.15632597 -0.0352727 -0.055519905 0.06754685 -0.043556694 -0.20100564 0.062036645 -0.14618358
-0.11662951 0.123722166 -0.03018331 0.08473406 0.10494649 0.0832047 -0.2136292 -0.029340954
-0.08106825 -0.064171836 -0.34411654 -0.044672675 -0.13597812 -0.0067460523 -0.064924516 0.032832507
-0.30177563 0.101085484 -0.0023552196 -0.08935382 -0.15548715 0.15251672 0.07761366 0.1810532
-0.024259437 0.033125024 -0.037284605 0.057424095 0.008359461 -0.26458505 0.013210137 -0.10413298
-0.26106232 -0.093901046 0.12167609 -0.033470273 -0.015332287 0.1109104 -0.35650048 -0.031057483
0.1018704 -0.169744 -0.058811538 -0.19831024 -0.3312879 0.18735383 0.23448949 0.07668622

valueHead.2.bias f4 [32]
00000000: 5368 863d f8f9 3a3d a605 e83c d2e8 84bd
00000010: 9b2a b53d c4ca 433d a798 31bd 8599 06be
00000020: 03ba 313e 0dd7 33bd 7547 4f3d f71d 6ab9
00000030: 19ca f13c 57f2 66bd 2592 3c3d 9eb1 923c
00000040: 9eae 1f3d 161a 14bd 0977 333d 648f 24bc
00000050: 50eb ef3d f460 9ebd dc2c 80bd 4957 883b
00000060: e290 88bd 17a0 45bd 50e1 a33d f02d 91bd
00000070: 021c f3bc 6379 fa3c 56de c13d 59c7 f8bd
0.06562867 0.045648545 0.028323006 -0.064897195 0.08846017 0.047800794 -0.04335847 -0.131445
0.17356114 -0.04390626 0.050605256 -0.00022327142 0.029515313 -0.056383457 0.04603781 0.01790696
0.038984887 -0.03615769 0.043814693 -0.010043953 0.11714804 -0.07733336 -0.06258556 0.004160796
-0.06668259 -0.048248377 0.08001959 -0.0708884 -0.029676441 0.03057546 0.09466235 -0.121473975

valueHead.4.weight f4 [1, 32]
00000000: 5c48 3ebe d824 953e 81ae 59be fa71 a3be
00000010: 33a9 893c ae6a 873e 0543 97be f560 413e
00000020: 9f40 12bf 4ad0 f6be 3be4 043e c764 93be
00000030: 4b8b cfbd 672a 88be 45bb 8a3e 27fd 6f3e
00000040: c385 b4be 8cb7 8e3e ac0e 2e3e 78f7 d7be
00000050: bede 2abe b802 903e 9e4e 8c3e c503 febe
00000060: ac65 1b3f 1b35 f33e 2fb6 ca3d 1799 b6be
00000070: e806 9ebd d078 1abe af46 63be 7e46 d83e
-0.1858229 0.29129672 -0.21257974 -0.31922895 0.016804313 0.26448578 -0.2954332 0.18884642
-0.57129854 -0.48205787 0.12977688 -0.28787825 -0.1013399 -0.2659485 0.27096 0.23436414
-0.35258302 0.2787441 0.16997784 -0.4218099 -0.16686532 0.28127074 0.2740373 -0.4961225
0.60702014 0.47501454 0.0989803 -0.35663673 -0.07716161 -0.15085149 -0.22194932 0.4224128
