Yahtzee/Models/version_2_model_11.pt (torch, 92194 bytes, 11 tensors)

policyHead.0.weight f4 [128, 50]
00000000: b5e5 4bbd e8d2 e8bd afd6 503d 2657 82bd
00000010: e2dc 32be 921e e03d fa35 dc3b 2ccb 80bc
00000020: 3df1 51bd 95d6 7abe 6410 b1bd b9c3 f83d
00000030: f96f 47be c2a2 86be 2a34 04be f84f e33d
00000040: fe24 a0be 35a6 e33d 6406 19be b48f 88bd
00000050: 9835 083e 86ed 3d3d f7a7 a93c 6f99 8bbd
00000060: aa09 e2bd 8da0 0d3e 591e 1ebd b948 83bc
00000070: 600e 7ebd 81b9 3d3d d156 f6bd ef71 083e
00000080: 0c9b 00be 7f68 443b 65e2 26be 81b0 933c
00000090: 10f9 2ebe dc91 51be e3cb 29be 3237 eb3d
000000a0: 1597 e2bd 026b 4bbe 7731 b3bd fdf7 a83d
000000b0: 614f b2bd 5b6d bcbe dcf2 37be 4807 76bd
000000c0: 3dd6 43be c91c 4f3d 54b4 cb3d 4ba9 383d
000000d0: c1fa 10bd 8701 873d 69ef 4fbd eba2 d4bd
000000e0: 8742 f43d 9547 c2bb 9b64 87bd f956 4fbe
000000f0: 9138 e03d 6f13 bd3d afde b1bc 5653 f43b
00000100: d4b9 c83d 4a00 d3bd f64c 6abe 973c b53d
00000110: df28 d1bd f939 093e e451 e03d 42f6 613d
00000120: 8bbd 17bd e918 b7bd 4560 f1bc 9352 09bd
00000130: 7e63 b7bd b1db 733c 9e70 35bd 8559 e6bd
00000140: e0f0 44bd 96db 2ebd 00a9 8fbd 9ce1 363d
00000150: c163 e53c 931c 02be be61 62be 1bd8 4cbe
00000160: 631b f8bd 1983 663d a1cc febd e1d5 33ba
00000170: 9252 41be def5 e63b 3d62 58be 573c 14be
00000180: 91fe e0bd d0fd 0cbe e6e7 82bd ef7e 24be
00000190: fe02 8fbb 772c 01be c5f6 1fbe dd5d 1bbe
000001a0: dc68 713e e646 ecbd 6330 96bc 6d4f 67be
000001b0: 4ad3 003e a33d 70be 1988 f5bd 86ed 4fbe
000001c0: 472b 9f3d 11ef 76be f38d 36bd a437 c1bd
000001d0: ebb3 cbbd cafd 78be 4dfc dbbd e582 d33d
000001e0: 0603 a73c 104b cdbd dc2f 5ebc 880d 373c
000001f0: f1e0 bbbd beff f93d 2d81 933d c9db 873d
00000200: 468d 2c3d 6361 0c3d 4448 cebd 8456 84bd
00000210: d56b 21bc 779e b73d eaf9 f8bd 427a e8bd
00000220: bd73 8cbe 45da a8be ab3b f2be 000b 0dbe
00000230: 584b d4bd c0c2 c0bd c4b8 c1be 3d3f 5dbd
00000240: 59e0 b5bd 942f 51bc 4cc1 5abe 3fe4 edbd
00000250: 949d a3be 7da4 97bd d75a a03d 6ab3 0d3d
00000260: 667a 1ebc 44d8 26bd 81fe 6b3d a0ab 80bd
00000270: e02b e3bc 5f33 1ebd 5843 e23c 14b6 46be
00000280: 737b 0fbe 854f bcbd e741 75bd cde7 59be
00000290: 611b 2dbe 5be5 dbbd 7918 383d f53d 50be
000002a0: d651 a73d d7fa 33be 102f 9abd eaed 653c
000002b0: c079 0e3e b210 c73d 2b10 aa3d 4426 a6bd
000002c0: 66c3 1dbd 3f31 0cbe dfaa f53d bcea 933d
000002d0: a02c 7c3b 3152 9dbc 2233 2cbe 83ab 8cba
000002e0: f07c f2bd 06eb 7f3c 58ba 2e3d fbbd 83bd
000002f0: dad5 54be b93a 653d 29fd 22be c550 bcbd
00000300: 73c6 e6bd d1fe b7bc f035 efbd 3427 71bd
00000310: ec1f aebd 31a0 d3bd 0f53 9f3c 6538 113e
00000320: 7f9f 443c 93b9 adbe 5444 4cbe a075 70be
00000330: 8374 143e ff35 40bd 1457 0f3d ba42 83bb
00000340: 1ee7 e33d 43db c7be 20eb 89bd 3f63 8fbe
00000350: e788 0dbe 8975 ff3b 7f55 ba3c 056a c4bc
00000360: 92ef 453d e17e 2cbe f0af a5be 3746 d03d
00000370: a925 70bd f319 9abd 7122 a23d 64e9 cc3d
00000380: d442 773d 92a6 a03d 1f0c bf3c 1343 073e
00000390: b993 0b3e 86fb dfbc 4784 c63d e5c2 103e
000003a0: 2013 5d3d 5010 0bbd 5c15 18be 62f7 ebbd
000003b0: 4659 14be 41e3 63bc 38f7 06bd fbdd 0a3d
000003c0: c7e5 34be 68de b0be d6b1 febc ab84 003e
000003d0: a0b6 20bd c07c ebbd df5f d53d 9932 073e
000003e0: 82bb 243d 8fbc 4bbe 5f14 f63d 02fb 31bd
000003f0: 2698 723b 3209 053d 87eb 35bd f6e5 dfbc
-0.049779613 -0.11368352 0.05098599 -0.063642785 -0.17467073 0.10943331 0.0067203017 -0.01572188
-0.051255453 -0.24495919 -0.086457044 0.12146706 -0.19476308 -0.2629605 -0.12910524 0.11099237
-0.31278223 0.11115686 -0.14943844 -0.06668034 0.13301694 0.046369098 0.020709975 -0.068163745
-0.110369995 0.13830777 -0.03860316 -0.016025888 -0.062025428 0.04631949 -0.12028278 0.13324712
-0.12559146 0.002996951 -0.162973 0.0180285 -0.17087197 -0.20465797 -0.16581683 0.11485137
-0.11063973 -0.19865039 -0.08749669 0.08250425 -0.087065466 -0.36802182 -0.17963737 -0.060065538
-0.19124694 0.05056456 0.09946504 0.045083325 -0.035395388 0.06592088 -0.05076543 -0.10382637
0.119267516 -0.0059289434 -0.06610986 -0.20248021 0.10948289 0.09232222 -0.02171263 0.0074562235
0.09801069 -0.103027895 -0.22880921 0.08849447 -0.10212874 0.13401021 0.109531194 0.05516649
-0.037045997 -0.08940298 -0.02946485 -0.033526015 -0.089545235 0.0148839215 -0.044296853 -0.11247543
-0.04808128 -0.042689882 -0.07014656 0.04464875 0.028001668 -0.12706213 -0.22107598 -0.20004313
-0.121145986 0.05627737 -0.124413736 -0.00068601785 -0.18879154 0.0070483526 -0.21131225 -0.14476143
-0.10986055 -0.13768697 -0.06391887 -0.16064046 -0.0043643704 -0.12614618 -0.15621479 -0.15172525
0.23575157 -0.1153696 -0.01833362 -0.22588892 0.125806 -0.23461013 -0.11988849 -0.20305452
0.077719264 -0.24114634 -0.044568967 -0.09434441 -0.09946426 -0.24315563 -0.10741482 0.103277005
0.020387184 -0.10024083 -0.013561215 0.01117266 -0.091737635 0.12206982 0.07202373 0.066337176
0.042126916 0.034272563 -0.10072377 -0.06461814 -0.009852369 0.08965772 -0.12157042 -0.11351444
-0.2743205 -0.32979026 -0.47311148 -0.13773727 -0.10365933 -0.094121456 -0.37836277 -0.054015387
-0.088806815 -0.012767691 -0.213628 -0.116158 -0.3195616 -0.074044205 0.07829826 0.03459493
-0.009672737 -0.04073359 0.05761576 -0.06282735 -0.027730882 -0.03862321 0.027620003 -0.19405395
-0.14011936 -0.09194855 -0.059877302 -0.21279831 -0.16904975 -0.107371055 0.044945214 -0.20336135
0.08169906 -0.17576157 -0.07528508 0.014033774 0.13913631 0.09719981 0.08303865 -0.08112767
-0.038516425 -0.13690661 0.11995482 0.072225064 0.0038478747 -0.019204231 -0.1681638 -0.0010732267
-0.11840236 0.015619999 0.04265818 -0.0643272 -0.20784703 0.055964205 -0.15916885 -0.09195093
-0.1126832 -0.022460373 -0.1168021 -0.058875278 -0.08502182 -0.103332885 0.019448785 0.14181669
0.012000917 -0.33930644 -0.1994794 -0.2348237 0.1449757 -0.046926495 0.034995154 -0.004005757
0.111280665 -0.3903447 -0.067343 -0.28005406 -0.13821755 0.0077959937 0.022745846 -0.023976335
0.048324175 -0.16845275 -0.32360792 0.101696424 -0.058629666 -0.07524481 0.079167254 0.10005453
0.060366467 0.07844271 0.02332121 0.1320918 0.1363057 -0.027341615 0.09693199 0.14136846
0.053973317 -0.033951104 -0.14851898 -0.11521794 -0.1448718 -0.013909162 -0.03295061 0.033903103
-0.17665778 -0.34544683 -0.031090658 0.12550609 -0.039236665 -0.114984035 0.104186766 0.13202895
0.040217884 -0.19896148 0.12015604 -0.04345227 0.0037016957 0.032479472 -0.04441407 -0.027331334

policyHead.0.bias f4 [128]
00000000: 0bb0 a0bd 84db 6ebe 78a4 8cbe abab 66bb
00000010: 9eb0 bbbd d0f6 2ebe 5e95 09bd e123 93be
00000020: 4e91 5f3e 5fc1 28be 0189 10be b373 f3bd
00000030: 303f 2ebc 04ca 39be f003 12be fa88 abbe
00000040: 6a84 b8bd dd8c 72bc f648 99bd ff3a 28be
00000050: 0448 32be 2ba7 993e 5fc6 94be 62b2 2dbe
00000060: 0097 4abe 97b8 09be 3b51 15be b325 84be
00000070: 8a9f c1bd 88d8 45be 5a69 66be 9b77 98be
00000080: 3eaf 87be 57a4 9ebd ad02 7dbe cb90 a4bc
00000090: e933 a5bd 6e0b 18be 15d7 08be 6f1c a73b
000000a0: f652 36be 6041 b5bd cd4a 92be b622 3bbd
000000b0: b58f edbd 8795 f9bd df23 70be d322 f5bc
000000c0: ca75 82be 85a2 4fbd 5f7e 14be 7ff7 36bd
000000d0: 4cf1 92be 18e8 c73d 94c0 43bd 0381 693e
000000e0: c30e 80be 2f55 fcbd 7fc3 d2bd ae79 35bd
000000f0: 2f72 4cbe 25a8 2bbe c00e 893d 6bd8 5ebd
00000100: 0f37 eebc e25c 03be 22c2 55be 3514 1abe
00000110: 672e 84ba c9a1 70be 441d 6cbe 5536 d33e
00000120: 06a1 c539 1901 c4be 3863 3ebe 0727 82be
00000130: 7294 b3bd 164d ecbd 0e0d 99bd eea8 3dbd
00000140: afdd aabd 2fd2 e1be 6302 d0bd 98f0 96bc
00000150: 6e51 1b3d c228 dabd d597 c6bd 149d 0dbe
00000160: 23a0 01bc 8c21 76be 30b1 a6bc db3b 06be
00000170: 102b f5bd 7815 d53e f7f2 2ebe 46f7 3abd
00000180: 86da dd3d 2e52 3cbe f6fd 56be b5dd 53be
00000190: 6ac9 d9bd 07f2 1dbe 92c0 22be c433 6abe
000001a0: de87 ad3c 9043 3cbe 9808 93be 0c27 90be
000001b0: db86 09be 7824 63be f37b 0bbe a38c 22be
000001c0: fe6e 40be 25ea 803d b1c4 c9bd bfbe 5a3e
000001d0: 130a 48bd 393d 73bd 99cc 02be 821e a0be
000001e0: 9c91 2ebe 0a91 20be ecc0 a7bd 62d6 13be
000001f0: 018b f6bd 2e08 36bd 781a 67be 87d7 1fbd
-0.078460775 -0.23325926 -0.2746923 -0.0035197537 -0.091645464 -0.17086339 -0.033589713 -0.2873831
0.21832773 -0.16480015 -0.14114763 -0.11887302 -0.010635182 -0.18143469 -0.14259315 -0.33502942
-0.09009631 -0.014804092 -0.07484619 -0.16428755 -0.17410284 0.30010352 -0.29057595 -0.16962579
-0.19784164 -0.13449322 -0.14581768 -0.25810012 -0.09454258 -0.19320881 -0.22501126 -0.29778752
-0.26500887 -0.07746189 -0.24708052 -0.020088574 -0.08066542 -0.1484811 -0.13363297 0.005099825
-0.17805085 -0.0885036 -0.28572693 -0.0456874 -0.115996756 -0.12186723 -0.23451184 -0.029923832
-0.2548049 -0.0506921 -0.14501332 -0.044669624 -0.2869972 0.09761065 -0.04779108 0.2280312
-0.25011262 -0.12320935 -0.10291194 -0.044305496 -0.19965433 -0.16763361 0.066922665 -0.05440561
-0.029078988 -0.128284 -0.20874837 -0.15046771 -0.001008463 -0.23499216 -0.23058039 0.4125239
0.0003769474 -0.38282087 -0.18592536 -0.254204 -0.08768548 -0.115381405 -0.07473193 -0.046303682
-0.08343064 -0.4410567 -0.10156705 -0.01842527 0.037919454 -0.10652305 -0.096969284 -0.13829452
-0.007911715 -0.24036235 -0.020348161 -0.1310877 -0.11971104 0.41617942 -0.17084871 -0.045645975
0.10832696 -0.18390724 -0.20995316 -0.20690043 -0.1063412 -0.15424357 -0.15893772 -0.2287131
0.02118295 -0.18385148 -0.28717494 -0.2815479 -0.1343035 -0.2218188 -0.13621502 -0.15873961
-0.1879234 0.062946595 -0.09851969 0.21361826 -0.048837733 -0.05938456 -0.1277336 -0.31273276
-0.17047733 -0.15680328 -0.08191094 -0.1443725 -0.12038232 -0.044441395 -0.22568691 -0.039023902

policyHead.2.weight f4 [64, 128]
00000000: ea89 2abd 6993 4abc e168 bebd 1b9b c8bd
00000010: 1d8a 8ebd f124 943d b0f4 19be da0b 83bd
00000020: 435a 863c fdbc a4bd 44ce 10be 1926 01be
00000030: 73cc 113d 3f8a e1b8 dd26 9bbd f019 60be
00000040: 7f7b ff3c b6e5 68bd c8fc 8f3d f2cb 56bd
00000050: 0a40 35bd 87d8 bcbc cf0e d5bd 453d 603e
00000060: 8579 c73d 1222 90bd ef0e cd3d b2d1 d1bd
00000070: c88f 873d 7f4d 033e b4b9 993d 981c e5bd
00000080: e4c6 2abd 75d0 593d c4b6 1bbc 9b45 b7be
00000090: b812 943d 50ad 203d 4ade 34be 2d72 53bc
000000a0: 2d6d 013e 44c1 213d 624a e8bc b056 653d
000000b0: 9890 03be 637c 22be 752e 92bd 4a64 4fbe
000000c0: 7d65 01bd f484 0c3e 4956 68bd 79cd 82be
000000d0: e88b 77bd 86c3 fdbd 9137 51bd 0e60 273e
000000e0: d319 d9bd 27a1 6f3d cfb2 9abd 9c2b 53ba
000000f0: 6e1d bb3d 7945 9dbd 3cf5 33bd 9859 2bbc
00000100: d983 7cbd 3ce4 983c 7e9f 89be 3f98 cc3c
00000110: 55e8 ec3d d9a4 93bd 8f4d 88be 0766 aabe
00000120: a613 e1bd 4b96 9abd f62f 97bd 66cb 87bd
00000130: 3e04 983d e48c b43d 6a45 9fbd 5856 19be
00000140: b2c4 2abe 53e5 05be f1be 33be 29fd 37bd
00000150: 2e0b 29bd 2780 b3bd 1ec4 f9bd 730b 96bd
00000160: 0ecf f33d 8d62 4dbe 4244 19be 41b8 113d
00000170: 64a7 bdbd ed93 94bd 7b69 4ebd 01bc b03d
00000180: 9053 b5be f452 debd bd17 26be 87ac 543c
00000190: 2320 3dbe 99d0 67be b288 a83d 7182 fd3c
000001a0: 3135 f2bd ea41 223d 9d51 bbbd 607b 07bd
000001b0: 5e2d ddbd 9d5c 33be 3216 853d 76c4 ad3c
000001c0: 1e44 86bd a4b8 0ebe d20e 663e 9067 37be
000001d0: 96e6 203d 86b3 91bd e4b5 533d fe3d a43e
000001e0: 8ae6 55be 1ebc bc3e b7cd 10bd 765b 6fbc
000001f0: 9518 5bbd 74e0 30ba 612c d03c f8ee dd3b
00000200: 4c00 e6bc 82a1 c63d 0ec2 02bc c22c 69bc
00000210: 70e7 37bd 0010 4dbd 8aaa e1bc fef5 f7bd
00000220: 5688 f0bd 5928 d83c f088 ee3c 2f25 b43c
00000230: a425 e93c a98a 73bd 59e1 e5bd c29d f5bd
00000240: e046 ff3d 80ba 87bc b757 97bb 8a9c 6dbe
00000250: 5187 bb3d 9230 71be 982d 90bd d5cc 6d3d
00000260: 7b3c cf3c c0c7 813e bee5 293d b5bc 5dbe
00000270: 1355 2abd 89e2 52bd e2f0 093d c790 36bd
00000280: 68f8 eb3c 1658 d13d 2719 bb3d 1ae5 a43d
00000290: 0e43 86bc c3a5 70bd 3141 793e cec4 243e
000002a0: 9a17 a8bb 1247 21bd e745 c43d 8a89 e53d
000002b0: 29e4 bfbc 9f2d 6ebe 33f6 223e 52af b3bd
000002c0: 4650 4c3e 8ced 2fbc d9e4 9bbd e5f1 49bd
000002d0: df15 8c3e 8451 d7bd 6a4f f4bc 7b32 07be
000002e0: d82f 93bd 3f65 9cbc d764 17be eaf8 2bbd
000002f0: 645e 893d 5cc5 043d 74d1 623c c175 09be
00000300: eb9b aa3b aa7c d2bd 9522 85bd 0fbd d6bd
00000310: 0483 d3bd fc9f f4bd 5969 67bd f2d6 67be
00000320: aa56 b73b 76ea 0cbd 6510 08be 41df 6d3d
00000330: 8d0b 99bc 4149 19bd 62f8 25be 4718 aabd
00000340: 7fa4 7d3d 2be8 933d 6d0c 85be 2ca2 2fbc
00000350: 6673 083c a97a 0abe 1fdf ccbd 73e9 9fbe
00000360: 51dc 173d ca8a abbc 3cf3 f73c 467e 00bb
00000370: c223 11be c8c4 2d3c 8f03 c13d 6173 17be
00000380: 5d91 bfbd 961f bbbd 28f8 9cbe 9fb5 8bbc
00000390: a5ab 18bd c09b 68be 637f f63d 7800 0ebd
000003a0: 73c6 c8bd e293 b2bd 104e 3cbe bf47 e7bd
000003b0: 0ef9 b8bc ee26 52be 816c bd3d 0772 b43d
000003c0: f259 543d ce1d 84be 9516 1b3e 8e41 87be
000003d0: 5b16 d73d 7dcd 7e3d 8237 99bd 9b75 19bf
000003e0: 2e24 a8bd 8100 d13c a634 f33d 4c1b e3bd
000003f0: 1ded 06be 1bc7 e83d 0982 573e 948f eb3d
-0.04163543 -0.012364247 -0.09297348 -0.09795209 -0.06959937 0.072336085 -0.15034747 -0.06398745
0.016400462 -0.08043859 -0.14141184 -0.1261219 0.03559537 -0.000107545864 -0.07575772 -0.21884894
0.031186817 -0.056859694 0.07030636 -0.05244059 -0.044250526 -0.023052467 -0.10403215 0.21898372
0.09739975 -0.070377484 0.10012614 -0.10245074 0.06619221 0.12822531 0.07506123 -0.111870944
-0.041693583 0.053177316 -0.009504024 -0.35795292 0.07230133 0.039227784 -0.17662922 -0.01290564
0.12639304 0.039490953 -0.028355781 0.055990875 -0.12848127 -0.15867762 -0.07137767 -0.20253101
-0.031590927 0.13722593 -0.056722913 -0.25547388 -0.06043616 -0.12390809 -0.051078383 0.16345236
-0.10600629 0.058503296 -0.07553636 -0.00080555095 0.09136473 -0.076792665 -0.043935046 -0.0104583725
-0.061649177 0.018663518 -0.26879495 0.02497494 0.11567751 -0.072091766 -0.26621673 -0.33280966
-0.10990076 -0.07548197 -0.07382195 -0.06630592 0.07422684 0.08815935 -0.077769116 -0.14974344
-0.16676596 -0.13075761 -0.17553307 -0.044919167 -0.041270427 -0.087646775 -0.121956095 -0.073264025
0.11904727 -0.20057125 -0.14967445 0.03557611 -0.09260443 -0.07254777 -0.050393563 0.08629609
-0.35415316 -0.10855666 -0.16219993 0.012980587 -0.1846929 -0.22638167 0.082291976 0.030945988
-0.11826552 0.03961364 -0.09146426 -0.033076644 -0.10799669 -0.17515798 0.06498374 0.021211844
-0.06555961 -0.13937622 0.22466591 -0.179106 0.039282404 -0.071143195 0.051687136 0.32078546
-0.20888725 0.36862272 -0.035352435 -0.014609208 -0.05349024 -0.00067473133 0.025411787 0.006772872
-0.028076313 0.09698774 -0.007980837 -0.0142318625 -0.04489845 -0.050064087 -0.02754714 -0.12107466
-0.11744754 0.026386427 0.029118031 0.021990387 0.028460331 -0.05945841 -0.11224622 -0.119929805
0.1246469 -0.016568422 -0.0046186107 -0.23204246 0.09156669 -0.23553684 -0.07039946 0.05805667
0.025297394 0.2534771 0.041478865 -0.21654017 -0.04158504 -0.051485572 0.03367699 -0.044571664
0.028804973 0.10221879 0.09135657 0.0805151 -0.016389396 -0.058751833 0.24341275 0.160907
-0.0051297667 -0.03937442 0.09583645 0.11207874 -0.023424225 -0.2325959 0.1591423 -0.08773674
0.19952497 -0.010737788 -0.076120086 -0.049302954 0.27360436 -0.10513595 -0.029823024 -0.1320285
-0.0718686 -0.019091247 -0.14784561 -0.04198543 0.06707457 0.03241478 0.013843883 -0.13423826
0.005206575 -0.10277684 -0.065007366 -0.10485279 -0.103277236 -0.11944577 -0.05649695 -0.22640589
0.005595048 -0.034403287 -0.13287504 0.05807424 -0.018682266 -0.037423376 -0.16208032 -0.08305412
0.061924454 0.07222017 -0.25986043 -0.010719817 0.008328294 -0.13523354 -0.100034945 -0.31232795
0.037075344 -0.020940203 0.03026735 -0.0019606515 -0.14173797 0.010605998 0.09424507 -0.14790107
-0.09353898 -0.09136884 -0.30658078 -0.017054377 -0.037273068 -0.22715664 0.12036016 -0.034668416
-0.09803476 -0.08719613 -0.18389153 -0.11292981 -0.022579696 -0.20522663 0.09249211 0.088108115
0.05184359 -0.2580399 0.15145333 -0.26417202 0.10502311 0.062207688 -0.074812904 -0.59945077
-0.08210026 0.025512936 0.11875276 -0.11089191 -0.13176389 0.11366101 0.21045698 0.11501995

policyHead.2.bias f4 [64]
00000000: bde1 0cbe 2a01 04be a5ce cbbd b637 aebe
00000010: f63a 39be a099 ecbd 9d28 84be cca0 13be
00000020: 1cc4 54be 2f0b 87bd 481b 79bd 09ad 8bbd
00000030: 438d 5fbd c4d2 eebd bf08 e6bd 6715 eebd
00000040: 041e 403b 632d d8bc 23de 2fbe 7cc4 1ebe
00000050: 4c01 5cbe 0469 d0bd a212 73be 758d 4bbe
00000060: ec73 77bd 29b9 3fbe 08e8 1ebe eabf 7fbd
00000070: 8531 abbc e757 f0bd d730 52bd 451a 3dbe
00000080: bc4c 05be 32b9 4abe e294 16be bd29 17be
00000090: 6d52 d7bd 5603 0cbd 4c55 24be 967f 3dbe
000000a0: 3829 c0bd 7c08 a2be f10c d8bd dbf1 54bd
000000b0: b827 0abe 71e2 8dbd e987 16be 74c1 99bd
000000c0: 80e3 c6bd 56ff 02be f61a 28be 54df 4fbd
000000d0: 72a1 28be 573b 3dbe 7c43 03be 61ab b7bb
000000e0: 59b4 b0be 8b5f 0abe 7012 34be a442 e0bd
000000f0: 59c3 10be 6dd4 b9bc 5f0c 17be 0a62 81bd
-0.13757987 -0.12891069 -0.09951524 -0.3402688 -0.18088898 -0.11552739 -0.25812235 -0.14416808
-0.20777935 -0.0659393 -0.060817033 -0.06820113 -0.054578077 -0.11661294 -0.11232137 -0.11625176
0.0029314766 -0.02638883 -0.17174582 -0.1550464 -0.2148487 -0.1017628 -0.23737577 -0.1987818
-0.060413286 -0.18722977 -0.155182 -0.062438883 -0.020897636 -0.11735516 -0.05131611 -0.18467052
-0.13017553 -0.19797209 -0.14705232 -0.14762016 -0.10513768 -0.03418287 -0.16048163 -0.18505701
-0.09382862 -0.31647098 -0.105493434 -0.051988464 -0.13491714 -0.06927956 -0.14700283 -0.075076014
-0.09711361 -0.12792715 -0.16416535 -0.05075009 -0.16467836 -0.18479668 -0.12818712 -0.0056051468
-0.34512594 -0.13513009 -0.17585158 -0.10950211 -0.14137019 -0.0226843 -0.14750813 -0.063175276

policyHead.4.weight f4 [26, 64]
00000000: 4318 ec3d 975a 2abd d056 4cbd 97b7 9e3d
00000010: 68cd 69bd 97f9 fb3c e605 afbc f1bd 81bb
00000020: ea04 5abe f1ab c03d 0633 ab3c 4ed7 77bd
00000030: 1165 0c3d cd41 2f3e b159 71bd 381b 033d
00000040: 9b23 633d 8e43 dcbd 798f 28be 3d4d 81bd
00000050: 644a 5ebe f4e3 05bd 6242 5bbe 72b9 48bd
00000060: ccec acbd cdb2 5cbe 5e49 003d 8c5a 4fbe
00000070: b3c5 95bd ad5d c5bd 3568 d4bb e4d6 233e
00000080: 0dce 2bbd 4199 eabc cc86 1bbe 059d 41bd
00000090: f782 e8bb e507 31be 402b a7bd ba62 fd3b
000000a0: 83c0 7abd 7420 3fbd 6e3e fabd c4ce e439
000000b0: f7d0 9cbc a2a9 8dbc 90d5 9c3c ecb5 c8be
000000c0: 856d 0bbe f77a f63c 3fa9 b0bc 31cc 2fbe
000000d0: 767e 913e 8291 a23c 13dc 4abd 8db5 0ebe
000000e0: f429 a43e bbc2 01be 698e ec3d a089 223d
000000f0: d972 e9bd 8f8f 93be dd51 c53c 278c b9bd
00000100: e664 b8bd 93ce 80bd 64c5 b8bb 1d6c 95bd
00000110: ad15 753c 22bc 88bb ad35 94be 3214 2abe
00000120: c5ee 6cbd 0e20 963d d5b6 37be e133 6a3b
00000130: 5b04 79bc a71e 053e d58b 08bc dcb8 4b3d
00000140: e9b8 39bd f851 923c 826b 7d3d 9785 0cbe
00000150: be29 2abe 0820 aebc 1df4 bebd cf0a 75be
00000160: ddb4 153c 6d3e e8bc c42a b7bd 038e 183d
00000170: 04fa 343c fe3d 80bd 9830 cdbd 6b28 3f3e
00000180: cda2 49be 80f9 65be 63ca 303e f230 9d3d
00000190: f08c 8dbc c339 9abd ab70 f7bd ebdb 8a3d
000001a0: ec96 373e 260b 9ebe a663 1fbc ddd9 80bc
000001b0: 5f88 83bd da44 5cbd ae3a c23c 9a50 babe
000001c0: aa18 22be 000b 543d d42a 923d 5af2 b83a
000001d0: 3f6d afbe 97f2 53bd c164 7bbd ce87 bc3c
000001e0: 78b0 313e 56e0 70be 50ea 1ebe 999a 15be
000001f0: 5029 933d cdca e83d 4934 a4bd f909 c23c
00000200: 3bc6 55bd b3b3 bd3b 4ca2 a7bc 327e 563e
00000210: 172a a13d d2a4 94bd d885 5bbe 26da e13d
00000220: 22c8 253d 2f64 b33d 0e06 c9bb a5fb 94bc
00000230: b29b 673d ded7 57be d90a 093d 43ed 1bbd
00000240: ecc4 a63c 8be1 38be 821a 38bd c0b8 adbd
00000250: bfe9 33be c6a6 0cbe 1d1d 84be 6a12 4cbe
00000260: c081 94bd d32b 66bc a7df 88bd f813 2f3e
00000270: a9c5 5c3d d9b3 15be c3e3 edbd 48c4 02be
00000280: ab42 93be b73c a9bd f7ec bcbd 4fdd 483d
00000290: 76a4 1dbd fe3c 97bc 4dce 173d 430f 3e3e
000002a0: 1764 f53b 7e83 87bd fee7 04bc 3fc0 913d
000002b0: 8bf2 b9bd 5845 313b 8658 8c3c 39b9 2b3e
000002c0: 2b1d 673e 3447 b7bd fefb 493e 9004 41bd
000002d0: 3cb6 2c3d 2572 2a3d 1d38 22be 369c afbd
000002e0: 8273 e9bd 72da 443e 6469 933c 3b0b 523d
000002f0: b02d bcbd 2e3a a6bd 4883 ba39 528e 7e3c
00000300: 1043 76be 396e c5bd 74c5 02bd c1eb 6a3c
00000310: 1f84 41be fb9c a43c 89a6 3fbe 5ccc 61bd
00000320: f328 f93c 8419 29bd 9d6c efbc 291b d1bd
00000330: bec0 223c d2da 85bd f54d eebd 9afd 44bc
00000340: 0979 91bd a713 3abd 63e2 01be cd35 683c
00000350: 9a73 d0bd 815d 733d 8d11 223d 0ef1 22be
00000360: af04 f7bd 7eca 51be 1452 fabd e1bf 8bbe
00000370: ef30 47be d5c8 a8bd d9dd 0bbe ef36 823e
00000380: 91f6 debd eebf 463c 1075 183d 619c 6abd
00000390: 4082 e6bd 7240 073c c824 16bd 99fc 49bd
000003a0: 1a4f 54be 3c50 56be 9c14 eebd 1c89 bebd
000003b0: 20e2 823d 62ed 89bd 70b9 babc 3e82 78be
000003c0: a1c3 a8bd 9dc4 37bc 284a 51bd b953 a13c
000003d0: 85ef ccbc f172 93bd 9076 a93c f5be 92bc
000003e0: 897a 2fbe 3cd1 f83d 6fd6 b13d d6b1 ca3c
000003f0: fe83 24be 7b0e 9ebe 326b 4d3d c60b 98bc
0.11528065 -0.0415903 -0.04988748 0.07749861 -0.057080656 0.030758662 -0.021365117 -0.0039594104
-0.21290937 0.09407795 0.020898353 -0.060508065 0.034276072 0.17114945 -0.058923427 0.03200838
0.055453878 -0.107550725 -0.1646098 -0.0631356 -0.21708065 -0.032688096 -0.21412042 -0.04900498
-0.08443603 -0.21552582 0.03131997 -0.20249385 -0.07313099 -0.09637008 -0.006482149 0.15999943
-0.041944552 -0.02863753 -0.1518814 -0.047268886 -0.0070956904 -0.17288168 -0.08162546 0.0077327164
-0.06121875 -0.04666181 -0.12218939 0.000436416 -0.019142611 -0.017292801 0.019144803 -0.39201295
-0.13615997 0.030087931 -0.021565078 -0.17167737 0.28416795 0.019844774 -0.049526285 -0.13936444
0.32063258 -0.1267194 0.115506 0.03968203 -0.113988586 -0.28820464 0.024086887 -0.09059935
-0.0900362 -0.06289401 -0.005638765 -0.072960116 0.014958781 -0.004172818 -0.289472 -0.16609266
-0.057844896 0.07330333 -0.17940839 0.0035736489 -0.015198792 0.12999974 -0.00833412 0.049736843
-0.04534236 0.017861351 0.061870106 -0.13722835 -0.16617486 -0.021255508 -0.09323905 -0.23929904
0.009137359 -0.02835008 -0.08943704 0.037244808 0.0110459365 -0.06261824 -0.10019034 0.18667762
-0.1969101 -0.22458458 0.17264704 0.07675351 -0.017279118 -0.075305484 -0.120820366 0.06780227
0.17928666 -0.3086788 -0.009728348 -0.015728885 -0.06422495 -0.0537766 0.023709621 -0.3638962
-0.15829721 0.051768303 0.07137075 0.0014110312 -0.34263036 -0.051745024 -0.061375383 0.023013975
0.17352474 -0.23523077 -0.1551907 -0.14609756 0.07185614 0.11366806 -0.08017785 0.023686396
-0.052191 0.005789244 -0.020463131 0.20946577 0.07869356 -0.072579995 -0.21437776 0.11027937
0.040474065 0.08759343 -0.006134755 -0.0181864 0.056544967 -0.2107844 0.03345761 -0.038068067
0.020357572 -0.18054788 -0.044947155 -0.08482504 -0.17569636 -0.13735494 -0.25803462 -0.199289
-0.0725131 -0.014048534 -0.06683283 0.17097461 0.05389944 -0.14619388 -0.11615708 -0.12770188
-0.287618 -0.082635336 -0.09224885 0.04903918 -0.03848692 -0.0184617 0.037061978 0.1856051
0.0074887383 -0.06616877 -0.008111952 0.07116746 -0.090794645 0.0027049389 0.017132055 0.16769876
0.2256972 -0.08949128 0.19725034 -0.04712349 0.04216598 0.041612763 -0.15841718 -0.08574717
-0.113989845 0.19223955 0.01799459 0.05128024 -0.09188402 -0.08116566 0.00035574497 0.0155368615
-0.2404902 -0.09640164 -0.031926587 0.014338435 -0.18898056 0.020094385 -0.18715872 -0.055126533
0.030415034 -0.0412841 -0.029226596 -0.102102585 0.009933649 -0.06535877 -0.11635963 -0.012023354
-0.07103164 -0.0454289 -0.12684016 0.014172983 -0.10178299 0.059415344 0.03956752 -0.15912268
-0.1206144 -0.20487401 -0.122226864 -0.2729483 -0.1945226 -0.08241431 -0.13658847 0.25432536
-0.108868726 0.012130721 0.037221014 -0.05727804 -0.11255312 0.008255111 -0.03665617 -0.04931316
-0.207333 -0.20929044 -0.11625025 -0.09303495 0.06390786 -0.0673473 -0.022793502 -0.24268433
-0.08240438 -0.01121631 -0.05109611 0.019693242 -0.025016556 -0.07199658 0.020686418 -0.017913321
-0.17136587 0.12149283 0.08683478 0.024743002 -0.16065976 -0.30870423 0.050151058 -0.018560302

policyHead.4.bias f4 [26]
00000000: e425 983e 27ef 913e f799 b93e 0e64 913e
00000010: 38e2 803e faa3 993e 8f03 913e fce8 9a3e
00000020: 75f8 953e cf39 9a3e d207 9c3e ddc5 71be
00000030: 7248 82be 23a4 a5be 2f29 50be 4a41 babe
00000040: ae82 bbbe 5f62 e2be 4eb2 43be 336d afbe
00000050: 7f38 b6be 1db8 c3be 067e c7be c71d c7be
00000060: cd54 e5be 2efb b6be
0.29716408 0.2850277 0.36250278 0.28396648 0.2517259 0.30007917 0.28323027 0.30255878
0.2929112 0.3012223 0.30474716 -0.23610635 -0.25445896 -0.3235179 -0.2032821 -0.36377937
-0.36623138 -0.44215676 -0.19110987 -0.34263 -0.35589978 -0.38226405 -0.38963336 -0.38889906
-0.4479126 -0.3573851

valueHead.0.weight f4 [64, 50]
00000000: 65f7 6d3d 7b45 88bf b727 c63e de12 d8be
00000010: 798d b43e ed00 9b3c af36 93be 17d0 47bf
00000020: 8731 3a3f 9e24 4cbf c5d9 5f3d 37b9 0fbf
00000030: c4e8 0ebf f87d cd3e 6842 ba3e 8b47 8dbd
00000040: 0328 993d 2d29 5a3d 48be 9dbd 0fc1 a4be
00000050: 04ef ad3c 7c60 a53c b4b7 283d 2c61 a5bd
00000060: 06da aa3d c38a 0a3e 2641 f4bd 1e41 2d3d
00000070: a182 a83d f124 e33d 69b0 edbc 2f82 3ebd
00000080: bf41 7a3f 040f a3be cbcd 04be f66e 643e
00000090: d180 37be 1973 12bd 72a3 21bf c522 873b
000000a0: b962 c0be c76c 60bf 38dc 863e 1daa 7c3d
000000b0: 72b5 6dbf 6807 1fbf bf28 093e 57bf 903b
000000c0: 19a8 903e d98d 13bf 0eb0 02be 2f9d a53f
000000d0: bc93 a0bf c08e 0ebe 23a1 9a3d 30d3 46bd
000000e0: 3536 0dbf b7a3 143f 4200 053d 3f4b 993e
000000f0: 6eab 98bd c201 3cbd a917 07be 10f3 033f
00000100: 0906 86bd ea8c c73d fac6 a8bd 74b3 c9bf
00000110: 9638 db3f 91f7 d03d c018 fa3d 2b0d a2bd
00000120: d320 803d 05f4 97bd 773c 3c3d ec5a 3c3d
00000130: d62d aabd 2ee3 0abe 9c05 c53d e718 87bc
00000140: 5a20 543d 43a7 c5bb 8b77 70bd 93d9 203f
00000150: 983e 30be 1c75 b2be c925 4a3f 7738 903f
00000160: 10a1 54be 2728 fa3d 17bd 323f af6b 393f
00000170: 3ea8 e33e dc28 c43e 4779 7cbd 4c03 0b3d
00000180: 21c1 c3be e4ed 053f e928 b0be 53a5 79be
00000190: a807 063e 1abb a73b a65e d1bd 9892 3dbe
000001a0: 3d88 93bc 0124 a23d 9713 3dbd 1cbe 893d
000001b0: a897 cbbd acc7 e9bd c748 3bbd d681 433d
000001c0: db06 debc da9f 9fbd 797e c3bd 1870 15bc
000001d0: 87bc 03be e064 3c3d 047a 4cbd aa17 39be
000001e0: 3fd6 b5bc a238 09be 9106 d3bc 1e0a 7e3c
000001f0: 24d5 fabd 5ee4 543d bdc8 f03d 8ef7 c7bd
00000200: 8aab e2bd ee41 113b b362 89bd 3c7f 99bd
00000210: 8076 013e 63bd 6c3d 1d4d 0c3b 8e79 773b
00000220: 2a12 09be 7a62 84bd 7f62 17be 464d 933b
00000230: 5f46 d1bd 69b5 8b3d 7fc8 17be 6315 c9bd
00000240: 5d27 6fbd aba9 3bbe 7299 e1bd 5deb 68bd
00000250: a874 ff3d 4e2d 85bd 1b70 75bc 3bf4 fb3e
00000260: af6a 8ebe b3e0 8bbe d7bc a0be 847c 51bd
00000270: 69ac 24bf eccb 1a3e ef27 ee3d e6fa aebe
00000280: f014 04bd 3261 1abf 0233 cd3d 1903 613e
00000290: ff8c c7be c998 0a3e 9d8e 623e 9a8d b83e
000002a0: c81a 2bbe df20 63bf 965a 95bd 5e84 073d
000002b0: a5e5 6d3d 6a4e ad3d 4107 ccbb 041a 0b3e
000002c0: 8e5c ebbd 5726 fabc d1be d43d d4ef 3f3c
000002d0: 54e1 253d cd63 8fbd d04c 9ebe 9b65 c8be
000002e0: 1c38 e4bd 5449 f7be 80f5 dabe de1b d9be
000002f0: f3ba 99be d8ab 97bd 0811 833f 1335 6ebf
00000300: 67eb 453e 5936 4cbf 903f 8b3d a0f3 babe
00000310: 665c 8ebe 7a9f f1be f458 e33e e7d5 08bf
00000320: 1537 0fbe e044 56bd 8422 f5be 3e27 e1be
00000330: 4582 1e3e ebdb 0c3e 7082 3abe ae1f 07bf
00000340: 9b0a c7be f871 b03e 96e2 a7bd 0599 a7be
00000350: 845c 6abe dce1 eabd f206 c43c fca1 243d
00000360: 9bef d1be 5271 fdbe b9c2 253d 53cb 853e
00000370: 74f9 0f3e 344a 76bd 60ff 363c 4fae 94bb
00000380: 9aea adbc cbd0 68bd 6f9f 48bc 73fa de3d
00000390: 9d58 113d 21c8 f53c b0ca fa3c e99c 99bd
000003a0: 4708 903d 54bf ccbe 4f06 86be d207 cebd
000003b0: 877c 09be 4a39 99be f345 afbe a638 97bd
000003c0: 29cb 843e ba23 8bbe 1f66 30bf 0a7f 5bbe
000003d0: 038b d4bd 3b58 8a3d a4f2 54be 200a 9fbe
000003e0: eaeb 43bd 0d49 3ebe ed0a e8bd c4de ca3e
000003f0: 8ff0 d63c b99f 39be 8800 adbd c30b 65bd
0.058097262 -1.0646204 0.38702175 -0.42201895 0.35264185 0.01892134 -0.28752658 -0.78051895
0.7273182 -0.79743373 0.05465104 -0.5614199 -0.5582392 0.4013517 0.3637879 -0.06898411
0.07478335 0.053261925 -0.07702309 -0.32178542 0.021232136 0.020187609 0.041190818 -0.08075175
0.08342366 0.13529496 -0.119264886 0.04229843 0.082280405 0.110910304 -0.029014783 -0.04651087
0.9775657 -0.31847394 -0.12969129 0.22307953 -0.17920233 -0.035754297 -0.6314002 0.004124018
-0.3757532 -0.8766598 0.2633989 0.06168567 -0.9285499 -0.62120676 0.1339445 0.0044173407
0.28253248 -0.5763832 -0.12762472 1.2938594 -1.2545085 -0.13921642 0.07550266 -0.048541248
-0.5516084 0.5806231 0.03247095 0.2994022 -0.074545726 -0.045900114 -0.1319262 0.5154276
-0.0654412 0.09743674 -0.08241077 -1.575789 1.7126644 0.102034695 0.12211752 -0.07912668
0.06256261 -0.0741959 0.0459561 0.045985147 -0.08309524 -0.13563225 0.096202105 -0.016491367
0.051788665 -0.006031902 -0.058707755 0.6283199 -0.17211378 -0.34854972 0.78963906 1.1267232
-0.20764565 0.1221469 0.6981978 0.7242994 0.44464296 0.38312423 -0.061639097 0.03393869
-0.38233283 0.5231612 -0.34406212 -0.24379472 0.13088858 0.00511874 -0.10223131 -0.18512952
-0.0180093 0.079170235 -0.04616126 0.067257136 -0.099410355 -0.114150375 -0.045723703 0.047731243
-0.027102878 -0.07794161 -0.09545607 -0.0091209635 -0.12864886 0.04599464 -0.04992105 -0.18075433
-0.022196887 -0.1340051 -0.025759967 0.015505342 -0.122476846 0.0519756 0.11757038 -0.09764014
-0.11067875 0.0022164541 -0.067082785 -0.07494971 0.1264286 0.0577978 0.0021408268 0.0037761661
-0.13385835 -0.064640954 -0.14783667 0.0044952957 -0.102185 0.068217106 -0.14822577 -0.09818532
-0.05838715 -0.18326442 -0.110155955 -0.056865085 0.12473422 -0.06502782 -0.014980341 0.4920977
-0.27815768 -0.2731987 -0.31394073 -0.051144138 -0.6432558 0.15116853 0.116287105 -0.34175795
-0.03224653 -0.6030456 0.100194946 0.21973838 -0.3897476 0.13534845 0.22124715 0.36045533
-0.16709435 -0.8872203 -0.072926685 0.03308522 0.058080334 0.08462222 -0.0062264507 0.13584143
-0.11492263 -0.03053586 0.10387958 0.011714894 0.040498093 -0.07001457 -0.30917978 -0.3914002
-0.111435145 -0.48298132 -0.42765427 -0.42404073 -0.30025443 -0.074058235 1.0239573 -0.93049735
0.1932808 -0.7977043 0.06799233 -0.36513996 -0.2780487 -0.47191983 0.44403803 -0.5345139
-0.13985856 -0.052311778 -0.47877896 -0.43975252 0.15479381 0.13755767 -0.1821382 -0.52782714
-0.3887528 0.3446195 -0.08197515 -0.32733932 -0.22886854 -0.114688605 0.023929093 0.040193543
-0.41003117 -0.4950052 0.040468905 0.26131687 0.14060003 -0.06012936 0.011169285 -0.0045373808
-0.02123003 -0.056839745 -0.012245043 0.10887613 0.0354849 0.030002655 0.030614227 -0.07500631
0.07032829 -0.39989722 -0.26176688 -0.10060085 -0.1342641 -0.2992652 -0.34233055 -0.07383852
0.2593625 -0.27175695 -0.68905824 -0.2143518 -0.10378077 0.0675511 -0.20795685 -0.31062412
-0.047832407 -0.18582554 -0.11330209 0.39623082 0.026237754 -0.18127336 -0.08447367 -0.05591942

valueHead.0.bias f4 [64]
00000000: ecf8 19be 6ad8 aa3e 14ea 4dbe 923f c8be
00000010: 56ad 96be 7f08 89be ee95 2bbe 2548 d7be
00000020: 61aa bbbe 27cd 8ebe 6827 74be 93dc 00be
00000030: bdae afbe f79c c5be 24bf 41be 6540 d9bd
00000040: 923a cbbd 4e6a f4bd 967e 29bc e521 f33d
00000050: b679 80be 468c 86be 8e5e fcbd d9f9 5cbe
00000060: f14e 36be 195a 31be 44e1 dfbc f90c 87be
00000070: 186e 0c3d f829 74be c5fb 95be 3bbc 4e3e
00000080: 7003 37be aac9 e0be 9733 31be 036b a1bc
00000090: c0cf 4a3e b77d be3b 44ee 65be 848e 95bd
000000a0: da66 04bf 3964 d8be 1d01 28bd 4624 bebe
000000b0: 969b 94bd c16c 9dbd 9405 bbbd 34d6 d9be
000000c0: 6d97 78be 6466 7f3e c5ae 60bc 78d8 113d
000000d0: 7113 62be 3ef4 59bd 8926 79be 648d a6be
000000e0: 9e41 67bd 2d9e 9bbe 757b 88be aff5 7c3d
000000f0: f522 09bf c984 c7be 0c98 50be 8c37 3dbe
-0.15036362 0.33368236 -0.20108825 -0.39111 -0.2942912 -0.26764295 -0.16756412 -0.4204723
-0.36653426 -0.27890894 -0.23843157 -0.12584142 -0.34313002 -0.38596317 -0.1892057 -0.106079854
-0.09923281 -0.119343385 -0.010345122 0.11871699 -0.25092858 -0.26278895 -0.123227224 -0.21579684
-0.17803551 -0.17319526 -0.027329095 -0.26377085 0.03428468 -0.23844135 -0.29293647 0.20188992
-0.17872405 -0.43903857 -0.17304836 -0.019704347 0.19805813 0.005813326 -0.22454172 -0.07302573
-0.5171944 -0.42263964 -0.041016687 -0.3713705 -0.07256238 -0.07686759 -0.09131923 -0.42546237
-0.24276514 0.24941403 -0.013713543 0.03560683 -0.22077729 -0.053211443 -0.24331106 -0.32529747
-0.05645906 -0.30394116 -0.2665669 0.06175774 -0.53568965 -0.38968495 -0.20370501 -0.1847822

valueHead.2.weight f4 [32, 64]
00000000: ec18 acbe a17f 08be 3d8b ae3d 4826 a4bd
00000010: 2641 4bbd 1cf2 aebd f198 01bf a1dc 6dbd
00000020: e747 603e 6db4 a53c 9602 edbc 5977 afbc
00000030: aa4d 0cbe 32f0 eebd 457a 04bd c2db 8fbc
00000040: 698d 7dbe 49c7 4b3e 4713 39be cffc fbbd
00000050: e560 d63d 9b63 0fbe 4b5c b83c f94c 1d3e
00000060: 53c1 7cbd 5992 82bc bc7b 30be 09e6 123d
00000070: d908 81be ab45 37be 15a3 06be 946a e5bd
00000080: a0ba 843d ecab 9dbd 5bbe a23d e5cd c93d
00000090: 0ab8 073e 15de f53d 2d1b 55be 1d76 0bbd
000000a0: 4a7a 183e 9057 84bc 93e5 183d de22 83bc
000000b0: ceb6 66be 249b 1c3d 7637 83bd e180 85bd
000000c0: d40a 18bf 27e6 05bf 8bfb ccbd 14d3 abbe
000000d0: 896e 77bd e40e 503d 9efd 803e 8c1a b0bc
000000e0: 87e7 1ebe b8cf 6abe c1e4 803c f97f 6dbe
000000f0: 2f09 e4bd 80b8 c23d d4fd f1bd 0860 67be
00000100: 51cc 763d 482f f1bc 0b12 e83d 4764 d93c
00000110: d32d 953d d536 82bd 8ed2 48bd a61c 17be
00000120: 3222 97bb 6141 983b eb77 b03d 8d0a 7dbc
00000130: a817 4fbe 0081 b9ba 75b1 9cbc b747 b73d
00000140: d14e c9bd abf4 41bd fe9b 3cbd 58c7 afbe
00000150: 7e6f 143c bb85 60be a7e2 313b 7098 b8bd
00000160: 96ec 173c dc98 4a3d 1fa3 e83d 282c 83be
00000170: 03e4 a1bd f7e0 2b3e 33ff 4fbd afe2 c5bd
00000180: ba9d 07be 2ad7 ad3d 8e2d e0bc 5181 b73d
00000190: 5713 afbd 13bd a4bd 9a5e e33d 25e7 023b
000001a0: 6b5a b83d 93f9 75bd a319 813d 3ee4 2cbe
000001b0: a21f 1abe a3e0 02bd f163 edbd b789 d4bc
000001c0: cfc7 9dbd 8f2d 43be 1e96 683d c9f9 0dbe
000001d0: 0c15 a23a 7c63 9abd 6b9f 5c3d a078 d83c
000001e0: 6f36 87bd 2afe f4bc d38b 10be 47de 19be
000001f0: bbd1 11bd 7f4e 3fbd e7b0 fcbc 0668 0fbe
00000200: d140 cebe bd8b c8bc 07c7 673d e462 20bc
00000210: a575 7ebc 1823 cdbe 4af5 5abe cb23 1c3e
00000220: c530 093f a322 053e 750d 5ebd 9cea acbd
00000230: c2e4 6cbd 58ae 053f 4999 653c 7dcb 93be
00000240: 70df c4bc d158 813b 3909 94be 7691 12bf
00000250: e26b 2f3e 4438 2bbe f706 0cbe c6fc 1a3e
00000260: 52c0 19be d486 87be 7607 d9bd 39c6 3f3f
00000270: 2daa bfbf b6d2 2e3d 429f a8bd 9515 c1bf
00000280: d2a7 003d e8b9 99be c432 08bd d0e2 febd
00000290: af8a c2bd e1db 6cbc 494b f9be 3332 37bf
000002a0: c3a6 583f b364 5cbe e7f7 253d adba 83bd
000002b0: 7eea 0fbe 9f87 21be a167 913d 1572 87be
000002c0: de13 52bf 359d 17bf 1945 e73d 728e 893c
000002d0: f4eb b5be 7c22 f3bd 319a f73d ada3 0abe
000002e0: 3ab6 443d dd60 703f 2014 4abf ef2f 5abf
000002f0: 684a 28be 390d b63e 3a4e 46be 063f cb3e
00000300: 2aee 343e 70f6 3dbe 4a30 d23d a018 8b3d
00000310: 718c 5a3d ac2a e1bd 62f4 01be adb8 d7bd
00000320: b1ed 7f3e a79b 263d f268 2a3d 4589 453d
00000330: 26ce 1abe 26b8 1fbd 2305 28be b509 4c3d
00000340: 3aa2 953d d5a5 0dbd 00e5 1ebc c6e4 05be
00000350: 0f5e 0cbe 01df 22be c2e6 b0bb 23bb 17be
00000360: 136e 9abd c7f0 32bc 4d4a a43b 1931 333e
00000370: 66d0 95be 509d 4cbe 4f7a 7cbe 8a9c 03bf
00000380: 9070 5e3c 29dc f1bd c76d 9d3c f6d3 3cbb
00000390: 8686 7cbe 69e1 b23d b479 123e 4882 55bd
000003a0: ea16 2dbe d092 1cbe f5b3 e53d 23be 00be
000003b0: 9229 a6bc 218e 983d def2 b23d 4597 1c3e
000003c0: e570 5fbd d500 b3be 71c2 67bb bbce 72be
000003d0: 72d9 a43d 1967 eb3c deba 48be 7748 23be
000003e0: d7b5 9cbd a3d9 17be 3ec0 d5bd 2162 43be
000003f0: 1d9a 4e3e c22e b2be e324 f2bc d9d3 b2bd
-0.33612764 -0.13329937 0.08522651 -0.08015114 -0.049622677 -0.085422724 -0.50623995 -0.058071736
0.21902429 0.020227635 -0.028931897 -0.021419214 -0.13701501 -0.11666907 -0.032343168 -0.017560843
-0.24760975 0.1990024 -0.1807376 -0.12304079 0.104677 -0.1400284 0.022504946 0.15361394
-0.061707806 -0.015938925 -0.17234701 0.03586391 -0.25202063 -0.1789767 -0.13148148 -0.11201969
0.064809084 -0.07698807 0.07946464 0.098537244 0.13253799 0.120052494 -0.20811148 -0.03404819
0.148904 -0.016155034 0.037328314 -0.016007837 -0.22530672 0.03823389 -0.06407063 -0.06518722
-0.5939152 -0.5230431 -0.100089155 -0.33559477 -0.06040815 0.05079545 0.25193495 -0.021497034
-0.15518008 -0.22930801 0.015734078 -0.23193349 -0.11134564 0.09507847 -0.11815992 -0.22595227
0.060253445 -0.02944149 0.113315664 0.026537074 0.07284131 -0.06358115 -0.049028926 -0.14757022
-0.0046122307 0.0046464656 0.086166225 -0.01544441 -0.20223868 -0.0014152825 -0.019127587 0.089492254
-0.09829486 -0.047352474 -0.046047203 -0.34331775 0.009059785 -0.21926014 0.0027143152 -0.0901345
0.009272715 0.049462184 0.11359238 -0.25619626 -0.07904818 0.16785036 -0.050780486 -0.09662377
-0.13243762 0.08488305 -0.027365472 0.08960212 -0.08548611 -0.080438755 0.11102028 0.0019974199
0.09001621 -0.060052466 0.06303718 -0.16883942 -0.1505113 -0.03195251 -0.11591328 -0.025944574
-0.07704126 -0.19060348 0.056783788 -0.13864817 0.0012365892 -0.075385064 0.05386297 0.026424706
-0.06602179 -0.029906351 -0.14115839 -0.15026198 -0.035600405 -0.04670572 -0.030846072 -0.14004526
-0.40283826 -0.024480695 0.05658629 -0.009789202 -0.015530978 -0.40065837 -0.21382633 0.15248029
0.5359004 0.13001494 -0.054212052 -0.08443186 -0.057835348 0.5221915 0.014013597 -0.28866187
-0.024032325 0.0039473553 -0.28913286 -0.57253206 0.17130998 -0.16720682 -0.13674532 0.15135488
-0.1501477 -0.26470053 -0.10597126 0.7491184 -1.4973809 0.04268142 -0.08233501 -1.5084711
0.031410046 -0.30024648 -0.03325154 -0.12445605 -0.09499108 -0.01445672 -0.4869025 -0.7156097
0.8462946 -0.21522789 0.04051962 -0.0643209 -0.14054295 -0.15774392 0.07099844 -0.26454225
-0.82061565 -0.59224254 0.11292476 0.016791556 -0.3553158 -0.11871812 0.120899566 -0.13539
0.048025347 0.938978 -0.7893696 -0.8522939 -0.16434634 0.35556963 -0.19365779 0.3969652
0.17668977 -0.1855104 0.10263117 0.06791806 0.05335659 -0.10994467 -0.12690881 -0.10533271
0.24993016 0.040675785 0.04160399 0.048226614 -0.15117702 -0.038993977 -0.1640821 0.049813945
0.07306333 -0.034581978 -0.009698153 -0.13075551 -0.13707756 -0.15905382 -0.005398602 -0.1481748
-0.07540526 -0.010921664 0.00501374 0.17499198 -0.29260558 -0.19981885 -0.24656032 -0.51410735
0.013576642 -0.1180957 0.019217385 -0.0028812862 -0.24660692 0.087344 0.14304239 -0.0521262
-0.16903272 -0.1529038 0.11215965 -0.12572531 -0.020283494 0.07448984 0.087377295 0.1529208
-0.054551024 -0.34961572 -0.00353637 -0.23711674 0.08049287 0.028735684 -0.19602534 -0.15945612
-0.07651871 -0.14829116 -0.10437058 -0.19080402 0.20175977 -0.34801298 -0.029558605 -0.08731813

valueHead.2.bias f4 [32]
00000000: df4c a7be 1bf8 30bd aca9 2abf 3c61 acbe
00000010: f8a4 0ebe ced7 20bf 548a 3fbf 42d4 fbbe
00000020: 353f acbd a44c 60be 0dcb f3bd bff9 5fbd
00000030: 2e26 39be 0501 91be 4eae 85be 878b 28be
00000040: 8620 44be 4d87 62be 5c9e b8be ce69 9fbe
00000050: 665b e1be 5bf9 dabe b779 8bbd eaf8 52be
00000060: e4f1 1ebe 2a6b f7be 5e94 cbbd 9d80 2bbe
00000070: c71c 75be e574 02bf c697 07be ed8f c0be
-0.32675835 -0.04320536 -0.6666515 -0.33667934 -0.13930118 -0.6282929 -0.74820447 -0.49185377
-0.08410493 -0.21904236 -0.11903963 -0.054681536 -0.1808097 -0.2832109 -0.26109546 -0.16459475
-0.19153032 -0.22121926 -0.3605832 -0.3113541 -0.44015044 -0.42768368 -0.06810325 -0.20602766
-0.15521961 -0.48323947 -0.09940408 -0.16748281 -0.23936759 -0.50959617 -0.1324149 -0.37609807

valueHead.4.weight f4 [1, 32]
00000000: 57b8 7cbc c8d9 413c 9ef1 36be 88b1 333d
00000010: 870b 313c 2ef4 cb3d ab4b 963e 7d8e 0c3e
00000020: 1703 303c 72ed d8bc 513f 573d 2cdd 74bc
00000030: 0bbe c5bc a0cd 053d 1140 7f3e f6b6 4dbc
00000040: 3042 2e3b 015f 27bc 38a7 0c3f 4620 1dbd
00000050: eee7 4bbe 2539 76be 093e 993c c997 6b3a
00000060: 333b 8c3d 8ae4 d2bd 0e91 2a3e c1bc 9cbe
00000070: c253 23be 6fe1 8fbd dbbb 98be 6f50 193e
-0.015424809 0.011831708 -0.17865607 0.04387048 0.010805971 0.09958683 0.29354605 0.1372623
0.010742924 -0.02648041 0.052550618 -0.01494531 -0.024138471 0.032666802 0.24926783 -0.012555828
0.0026589744 -0.010215522 0.54942656 -0.038360856 -0.19912693 -0.24045236 0.018706338 0.00089871563
0.06847229 -0.102974966 0.16656896 -0.30612758 -0.1594992 -0.0702542 -0.29830822 0.14972089
