Yahtzee/Models/version_2_model_5.pt (torch, 179602 bytes, 12 tensors)

policyHead.0.weight f8 [128, 50]
000000 ab 72 49 92 b6 7c a9 bf 4f fe 22 0d 5d 1a bd bf
       -0.049779610974586795 -0.11368352480621378
000010 d4 89 8c de d5 1a aa 3f 2c cf bc ce e4 4a b0 bf
       0.050985988060591986 -0.06364278838446741
000020 bc c1 6e 4e 9c 5b c6 bf f1 15 51 32 d2 03 bc 3f
       -0.17467073278159073 0.10943330505786954
000030 10 f7 9b 3a bf 86 7b 3f 80 63 43 86 65 19 90 bf
       0.006720301616722116 -0.015721880264070176
000040 18 8a 52 9f 27 3e aa bf 9c db 1f a9 d2 5a cf bf
       -0.05125545329908138 -0.2449591947367623
000050 9f 83 d1 8c 0c 22 b6 bf ef 9c 3f 1f 77 18 bf 3f
       -0.08645704687070442 0.12146706116583393
000060 02 8f 51 2d ff ed c8 bf bc b5 6b 3a 58 d4 d0 bf
       -0.19476308548757265 -0.2629604883685166
000070 22 33 3c 33 85 86 c0 bf ad 73 ea 07 ff 69 bc 3f
       -0.1291052341624886 0.11099237387902745
000080 4b 91 6a bc 9f 04 d4 bf de b0 55 a9 c6 74 bc 3f
       -0.31278222465541167 0.11115686067722971
000090 93 e0 ad 7a cc 20 c3 bf 5a f1 a3 8d f6 11 b1 bf
       -0.14943843832202627 -0.06668034513490309
0000a0 a5 fa d8 06 b3 06 c1 3f 26 ce b3 c0 b0 bd a7 3f
       0.13301694712022996 0.046369098208654244
0000b0 c7 48 98 d5 fe 34 95 3f dc 06 cb ec 2d 73 b1 bf
       0.02070997408561295 -0.06816374808388609
0000c0 a4 a1 f9 32 35 41 bc bf fd d1 ca 93 11 b4 c1 3f
       -0.11036999220380622 0.1383077594415595
0000d0 14 56 13 23 cb c3 a3 bf fe 38 6b 23 17 69 90 bf
       -0.03860316088836782 -0.016025888001245818
0000e0 34 2b 81 f4 cb c1 af bf 1b 4a da 2b 30 b7 a7 3f
       -0.06202542648005363 0.04631948981581876
0000f0 b4 47 a5 16 da ca be bf af 29 f9 da 3d 0e c1 3f
       -0.12028277447578156 0.13324711982779777
000100 b4 41 32 80 61 13 c0 bf c8 d9 6d e5 0f 8d 68 3f
       -0.12559145698152252 0.0029969511483003176
000110 3c 70 d7 94 4c dc c4 bf d1 0f 4c 2c 10 76 92 3f
       -0.16297299640325658 0.01802850027435438
000120 45 46 32 01 22 df c5 bf 6f 1e f6 71 3b 32 ca bf
       -0.17087197359482978 -0.2046579653217466
000130 af e0 7c 5e 7c 39 c5 bf a4 96 d2 3f e6 66 bd 3f
       -0.16581682790434146 0.11485137041253296
000140 71 74 d6 93 e2 52 bc bf 6b 79 db 33 60 6d c9 bf
       -0.1106397257739944 -0.19865038425536893
000150 18 77 20 da 2e 66 b6 bf c0 19 5d af ff 1e b5 3f
       -0.08749668908464192 0.08250425368632985
000160 8f 45 f7 20 ec 49 b6 bf ee 33 10 5c ab 8d d7 bf
       -0.0870654659732024 -0.36802181234889886
000170 19 8a 9c 84 5b fe c6 bf d9 b9 06 f3 e8 c0 ae bf
       -0.17963737464113264 -0.060065536180775765
000180 b4 47 6e ae c7 7a c8 bf 66 8d 2e 21 99 e3 a9 3f
       -0.1912469484055329 0.05056456117679424
000190 8e e0 ea 8e 8a 76 b9 3f 63 99 1d 59 29 15 a7 3f
       0.09946504582592494 0.04508332455479793
0001a0 6a c7 d4 19 58 1f a2 bf ef 15 10 e7 30 e0 b0 3f
       -0.03539538684198258 0.06592088357145774
0001b0 02 1f 9e 10 ed fd a9 bf 58 4c 96 6d 5d 94 ba bf
       -0.050765426901362445 -0.1038263695284497
0001c0 e3 7e b8 e5 50 88 be 3f 4d c6 d9 ad f2 48 78 bf
       0.11926751717009725 -0.005928943600893866
0001d0 5f 9a b0 6b 93 ec b0 bf c5 8a 62 11 df ea c9 bf
       -0.06610986117503036 -0.2024802050483087
0001e0 46 56 a6 18 12 07 bc 3f df cb f8 e6 6d a2 b7 3f
       0.10948289014626153 0.09232222451173254
0001f0 2c 36 41 df d5 3b 96 bf 8c 77 6c b3 6a 8a 7e 3f
       -0.02171262908114195 0.007456223297394159
000200 c0 b8 07 8c 3a 17 b9 3f 5a 8a c0 47 09 60 ba bf
       0.09801069182114741 -0.10302789689789318
000210 94 b1 fe b7 9e 49 cd bf 0c 96 58 e2 92 a7 b6 3f
       -0.22880920395017468 0.08849447275186878
000220 d5 d4 32 e9 1b 25 ba bf d7 a9 fc 2a 3f 27 c1 3f
       -0.10212873881649227 0.13401021574948288
000230 00 f2 76 7f 3c 0a bc 3f 18 75 02 3f c8 3e ac 3f
       0.1095311938469834 0.05516649026069781
000240 d0 cb ed 57 b1 f7 a2 bf 7a e1 a5 1c 1d e3 b6 bf
       -0.03704599569655154 -0.08940298032201169
000250 c7 ec fa 9f 08 2c 9e bf ea 57 7a 5d 52 2a a1 bf
       -0.029464850201048855 -0.033526014243008564
000260 5c 8c 93 b6 6f ec b6 bf d5 ec e9 1d 76 7b 8e 3f
       -0.08954523284369159 0.014883921420951665
000270 5c ca 8f b2 13 ae a6 bf 0e 81 c8 a6 30 cb bc bf
       -0.044296851679878485 -0.112475434034881
000280 0f e7 6a f5 1b 9e a8 bf 7b 03 84 b3 72 db a5 bf
       -0.04808127756900948 -0.04268988076547139
000290 d6 dd 76 f3 1f f5 b1 bf e4 52 32 87 33 dc a6 3f
       -0.07014655775025544 0.04464875245426983
0002a0 ee 6c c4 24 78 ac 9c 3f e7 2d a4 6d 92 43 c0 bf
       0.028001668209168544 -0.12706213334637015
0002b0 50 a8 69 b9 37 4c cc bf 94 97 09 6e 03 9b c9 bf
       -0.22107597878795326 -0.2000431334774332
0002c0 54 39 1d 5e 6c 03 bf bf 36 e6 de 16 63 d0 ac 3f
       -0.12114598558148276 0.05627736715491631
0002d0 39 12 d8 1c 94 d9 bf bf 65 f2 ad 1d bc 7a 46 bf
       -0.12441373542976288 -0.0006860178503838686
0002e0 f8 20 2d 47 52 2a c8 bf 96 e5 25 bd bb de 7c 3f
       -0.18879154658703334 0.007048352579994163
0002f0 63 57 2c 97 47 0c cb bf d3 75 fc d0 8a 87 c2 bf
       -0.21131224519256894 -0.1447614212456033
000300 59 43 41 29 d2 1f bc bf 2f 2e e3 ff b9 9f c1 bf
       -0.10986054904175314 -0.1376869677973089
000310 3b de 6a b2 fc 5c b0 bf 35 c9 ad e5 dd 8f c4 bf
       -0.06391887050528393 -0.16064046587741534
000320 33 58 8b b3 5f e0 71 bf d6 43 ab e5 8e 25 c0 bf
       -0.004364370187166999 -0.1261461850577052
000330 45 74 d0 ae d8 fe c3 bf 16 be 18 aa bb 6b c3 bf
       -0.1562147954545329 -0.15172525220394623
000340 26 82 69 8b 1b 2d ce 3f ad 66 3e c6 dc 88 bd bf
       0.23575157458528045 -0.11536960449157148
000350 72 33 cd 50 0c c6 92 bf 3c c7 91 a5 ed e9 cc bf
       -0.018333618575798245 -0.22588892540403005
000360 3e 3d 4d 47 69 1a c0 3f 8a dc f3 55 b4 07 ce bf
       0.12580600720910157 -0.234610120743785
000370 f8 5e f1 21 03 b1 be bf 0a 26 59 b0 b0 fd c9 bf
       -0.11988849238093369 -0.20305451021913284
000380 0e 69 47 d6 68 e5 b3 3f c4 42 46 22 e2 dd ce bf
       0.07771926146907424 -0.2411463420253509
000390 ed 5c 8d 50 be d1 a6 bf 21 66 b6 84 f4 26 b8 bf
       -0.044568965275795104 -0.09434440841723603
0003a0 99 45 87 5a 7d 76 b9 bf d0 7b 4d 3e b9 1f cf bf
       -0.0994642587677589 -0.24315562765238363
0003b0 f5 aa 21 9f 89 7f bb bf bb ea c3 9d 5c 70 ba 3f
       -0.10741481909796476 0.10327700473491579
0003c0 f3 4a d9 cc 60 e0 94 3f 68 1f ce 08 62 a9 b9 bf
       0.02038718462274409 -0.10024082865686312
0003d0 00 0b 13 79 fb c5 8b bf 28 54 3d 08 b1 e1 86 3f
       -0.01356121505012231 0.011172659934951382
0003e0 a7 13 1b 2e 1e 7c b7 bf 65 f2 f4 b7 f7 3f bf 3f
       -0.09173763871792905 0.12206981888898268
0003f0 19 64 32 ac 25 70 b2 3f a8 80 c1 15 79 fb b0 3f
       0.07202372983955775 0.0663371732821384
000400 2a ce 9d cb a8 91 a5 3f fd 88 0c 5d 2c 8c a1 3f
       0.04212691770126427 0.0342725623688853
000410 4f af 52 85 08 c9 b9 bf 45 c6 93 7f d0 8a b0 bf
       -0.1007237744803977 -0.06461814036063014
000420 2d c2 19 ac 7a 2d 84 bf e8 82 55 d8 ce f3 b6 3f
       -0.009852369668096628 0.08965771466820238
000430 44 e2 e7 4b 3d 1f bf bf a8 44 97 4e 48 0f bd bf
       -0.1215704260174642 -0.11351444166872915
000440 3a f1 31 9c 77 8e d1 bf 98 e5 ec 92 48 1b d5 bf
       -0.2743205094664237 -0.32979025219136693
000450 3e f2 19 54 75 47 de bf 17 f3 24 fb 5f a1 c1 bf
       -0.4731114693929931 -0.13773727190882631
000460 80 10 86 fe 6a 89 ba bf 91 ac f2 0e 58 18 b8 bf
       -0.10365933145482309 -0.09412145962658004
000470 46 91 46 84 18 37 d8 bf 50 ce e1 95 e7 a7 ab bf
       -0.37836277883095126 -0.0540153856717579
000480 8f 76 a5 25 0b bc b6 bf 69 e5 fa 8c f2 25 8a bf
       -0.08880681676006418 -0.01276769154297837
000490 c6 6b 1b 7a 29 58 cb bf 08 cc 6a d0 87 bc bd bf
       -0.21362799131642712 -0.11615799749669986
0004a0 4d d6 d3 87 b2 73 d4 bf 77 80 9e 9a 8f f4 b2 bf
       -0.3195616079750366 -0.07404420399552857
0004b0 db 4f 49 e7 5a 0b b4 3f a2 23 5b 4c 6d b6 a1 3f
       0.07829826494827279 0.03459493214683752
0004c0 cb 37 4a c0 4c cf 83 bf 89 8f 0e 76 08 db a4 bf
       -0.009672736757490604 -0.04073358956455226
0004d0 7e 5a 44 14 d0 7f ad 3f 7f 8f cb f0 73 15 b0 bf
       0.05761575934791539 -0.06282734516895337
0004e0 da b3 b3 05 7c 65 9c bf ee 38 7e d0 6b c6 a3 bf
       -0.027730882499714095 -0.03862320823746922
0004f0 d4 7f e1 f6 6a 48 9c 3f 95 fe fe 78 c2 d6 c8 bf
       0.027620002096568744 -0.19405394466410955
000500 fc 71 f2 50 6e ef c1 bf fc 2c e7 a1 f0 89 b7 bf
       -0.14011935188763391 -0.09194854691229531
000510 5a 07 89 d1 3c a8 ae bf 67 14 81 95 f9 3c cb bf
       -0.05987730081370897 -0.21279830741892455
000520 81 13 27 1f 6c a3 c5 bf fa 2a 38 58 ab 7c bb bf
       -0.16904975434422556 -0.10737105277818762
000530 2c b5 d2 2f 0f 03 a7 3f a7 57 56 98 be 07 ca bf
       0.04494521578576846 -0.20336134374946122
000540 ca e4 8d c7 3a ea b4 3f d9 97 f3 da 5a 7f c6 bf
       0.08169906017237163 -0.17576156321518857
000550 43 05 d5 f8 e1 45 b3 bf 42 8a f1 41 bd bd 8c 3f
       -0.07528507542612765 0.014033773970543287
000560 12 19 e2 06 38 cf c1 3f 0d 31 d7 36 16 e2 b8 3f
       0.1391363175973273 0.09719981039888044
000570 81 b9 79 58 05 42 b5 3f cd ca 20 8d c8 c4 b4 bf
       0.08303864870115342 -0.08112767644415016
000580 7f aa c7 c8 6c b8 a3 bf d4 9d 25 d6 27 86 c1 bf
       -0.03851642561842982 -0.136906604350982
000590 3b bc 10 e5 5b b5 be 3f e7 64 ee 79 57 7d b2 3f
       0.1199548181764251 0.07222506262623406
0005a0 ca 1d 8b 03 94 85 6f 3f 94 4c 0d 1f 46 aa 93 bf
       0.0038478747268048995 -0.01920423092390118
0005b0 0c 29 f3 32 64 86 c5 bf 58 9d ad 5f 70 95 51 bf
       -0.16816380012307552 -0.0010732266807396886
0005c0 23 2e 94 f7 9d 4f be bf b0 30 5b bf 60 fd 8f 3f
       -0.11840235990910535 0.015619998779037608
0005d0 bb 56 bd fc 4a d7 a5 3f 64 61 ed 59 bf 77 b0 bf
       0.04265817961883785 -0.06432720132341313
0005e0 fb ce 44 4d bb 9a ca bf 73 02 c9 1f 57 a7 ac 3f
       -0.20784703514947708 0.055964205389050024
0005f0 2d b2 20 1b a5 5f c4 bf 83 4a 66 93 18 8a b7 bf
       -0.1591688520869793 -0.0919509277212374
000600 d3 d0 94 66 ce d8 bc bf d9 4e 5f 13 da ff 96 bf
       -0.11268320087839649 -0.02246037238349072
000610 bd 5d 38 f8 bd e6 bd bf 59 0a 35 81 e6 24 ae bf
       -0.1168020945555019 -0.058875277778970676
000620 25 89 df 71 fd c3 b5 bf 6f f0 70 26 06 74 ba bf
       -0.08502182035548296 -0.10333288610940071
000630 23 cf 4a ec 61 ea 93 3f e7 79 42 9f 0c 27 c2 3f
       0.019448785826809655 0.14181669021941376
000640 cd 50 34 e4 ef 93 88 3f fa 20 da 66 32 b7 d5 bf
       0.012000917579407045 -0.3393064503111557
000650 75 76 36 8c 8a 88 c9 bf 49 a8 de 0e b4 0e ce bf
       -0.19947940679860535 -0.23482371069013855
000660 3e 6d 45 8d 1c fc c0 3f 84 0b 39 e8 bf 06 a8 bf
       0.1326938333321354 -0.04692649564505927
000670 34 10 ba 71 e2 ea a1 3f fe b9 1a 66 4c db 9e bf
       0.034995151884715275 -0.03013343213268093
000680 50 d2 ee 7b 12 67 bd 3f 15 4e 66 62 68 fb d8 bf
       0.11485400701241955 -0.3903447113927723
000690 34 f9 f4 02 64 3d b1 bf 15 0d ed e3 67 ec d1 bf
       -0.06734299728575338 -0.2800540662612588
0006a0 56 c4 84 da 1c b1 c1 bf 30 e1 58 4a b5 ac 87 bf
       -0.1382175509438947 -0.011559883433719692
0006b0 10 1c 1c ee af 4a 97 3f 9d c3 ed a6 40 8d 98 bf
       0.022745846660679858 -0.023976335705302543
0006c0 20 e4 ea 42 f2 bd a8 3f 9d c7 55 47 d2 da c4 bf
       0.048324175518651424 -0.1629278992000395
0006d0 90 a1 77 fd fd b5 d4 bf 10 c8 43 2f a1 bc b2 3f
       -0.3236079192415895 0.073190759696246
0006e0 4d d3 4c 15 b5 04 ae bf 8c 76 7e 64 3e 43 b3 bf
       -0.058629664278135075 -0.07524480775324544
0006f0 95 ad f4 2d 4e 44 b4 3f 56 c7 04 87 2c 9d b9 3f
       0.07916725751845484 0.10005453392366567
000700 1b ba 69 8d 5a e8 ae 3f 21 ae fe 4a d2 14 b4 3f
       0.06036646820290433 0.07844271021775075
000710 16 60 5f d0 83 e1 97 3f b7 66 38 68 62 e8 c0 3f
       0.02332120856576133 0.1320918091667431
000720 2e 85 e8 15 77 72 c1 3f f6 c7 9d c0 70 ff 9b bf
       0.13630570001354542 -0.02734161544453425
000730 0d af ae d1 88 d0 b8 3f fc 19 6f a3 5c 18 c2 3f
       0.09693198317716796 0.14136846523452096
000740 57 fd b6 3f e1 37 b1 bf dc 92 a9 08 0a 62 a1 bf
       -0.06725890927827059 -0.03395110469572213
000750 2d bc ba 7d ab 02 c3 bf fe 3a 7d 45 ec 7e bd bf
       -0.1485189784920932 -0.11521794029725282
000760 0e af 07 bc 28 8b c2 bf f4 38 ea 89 58 83 9d bf
       -0.1448717992892558 -0.028821357171687503
000770 1f b9 2e fc e6 de a0 bf 5e 01 40 69 bf 5b a1 3f
       -0.03295060947799499 0.03390310439863485
000780 bb c3 3a ed b8 9c c6 bf ff c0 de f7 cc 1b d6 bf
       -0.17665778716539457 -0.3454468174559366
000790 57 6a 9f ca da 21 a6 bf 03 6b 78 65 95 10 c0 3f
       -0.0432270405142005 0.12550609068497218
0007a0 e8 ca da 04 d4 16 a4 bf 2c 17 95 f9 97 6f bd bf
       -0.039236665337190335 -0.11498403399772589
0007b0 32 98 3a 6a b6 68 b7 3f 12 e8 62 96 8e 9c be 3f
       0.09144153684118875 0.11957636996785961
0007c0 63 72 69 42 70 97 a4 3f ea 55 3c e0 91 77 c9 bf
       0.040217884165689076 -0.19896148156173804
0007d0 9b 7f e0 e9 8b c2 be 3f e1 a1 55 43 60 3f a6 bf
       0.12015604457746891 -0.04345227071718561
0007e0 cf 30 2e 4f 78 89 73 3f 5f fb d7 3b 26 a1 a0 3f
       0.00476977344341041 0.032479471974503175
0007f0 3f 07 4c ed 70 bd a6 bf e9 61 cd c1 be fc 9b bf
       -0.044414071051518615 -0.027331333712341453

policyHead.0.bias f8 [128]
000000 52 13 87 51 01 16 b4 bf fa d6 c3 75 70 db cd bf
       -0.07846077194615234 -0.23325925588840574
000010 74 62 d8 04 8f 94 d1 bf 07 78 1b 67 75 d5 6c bf
       -0.27469230149430435 -0.0035197537443840718
000020 f1 91 7d 5d dd 18 ba bf 73 53 05 c8 d7 d3 c5 bf
       -0.10194190533145055 -0.17052743212357377
000030 f2 d0 1e be ab 32 a1 bf fa df 79 23 7c 64 d2 bf
       -0.033589713056615525 -0.28738311256847704
000040 96 b9 79 b7 8e 25 c3 3f 30 2f 26 ef 2b 18 c5 bf
       0.14958366354717317 -0.16480015923695523
000050 b0 18 95 16 20 11 c2 bf a3 b5 ee 6b 76 6e be bf
       -0.14114762404114378 -0.11887302527494241
000060 55 25 e0 02 e6 c7 85 bf c5 b7 4c 8d 40 39 c7 bf
       -0.010635182345157071 -0.18143469714544672
000070 ae 52 04 01 7e 40 c2 bf 8e d4 9e cd 27 c9 c0 bf
       -0.14259314584400812 -0.131138778114892
000080 05 e7 9f 4b 8d 10 b7 bf 6f d9 0c a9 9b 51 8e bf
       -0.09009631248764201 -0.014804092499258485
000090 a8 15 4d c8 1e 29 b3 bf 86 b2 d7 86 e8 e2 95 bf
       -0.07484619512714252 -0.021373399000298686
0000a0 98 43 92 71 00 49 c6 bf f5 66 13 1e 8c 9b c9 3f
       -0.1741028360889032 0.20005942791504308
0000b0 6c 7a 80 e2 cb 98 d2 bf 42 64 99 12 47 77 c9 bf
       -0.2905759536678605 -0.19895256431735403
0000c0 40 46 88 29 8f 31 c9 bf 99 41 5c ef 12 37 c1 bf
       -0.19682492759652526 -0.1344932240249477
0000d0 a8 6f 6f 7e c7 09 c2 bf 09 c5 ec 50 b6 84 d0 bf
       -0.140923439727769 -0.2581001081735655
0000e0 cf 3b a1 4e f1 33 b8 bf cd 01 79 0d 11 bb c8 bf
       -0.0945425812690097 -0.1932088199410046
0000f0 db 22 57 3a 2b cd cc bf 08 07 d3 d1 03 4f a8 bf
       -0.2250112566819301 -0.047477836001702356
000100 03 bb 6b af 54 3f b1 bf ae 2c fe d8 8a d4 b3 bf
       -0.0673726013444416 -0.07746188924481842
000110 ae 72 58 98 55 a0 cf bf 0d f4 e2 f5 1c 0e 90 bf
       -0.2470805162310134 -0.015678837306712313
000120 fd d2 9c 28 7d a6 b4 bf 7c 93 3b c5 6d 01 c3 bf
       -0.08066541902082842 -0.14848110323432795
000130 2d e2 ff a9 e2 1a c1 bf 4e b5 04 02 47 cd 80 3f
       -0.1336329774928954 0.008204035519691868
000140 47 db a0 b7 5a c1 c7 bf a8 a9 49 04 2c a8 b6 bf
       -0.1855882069227965 -0.08850360016518855
000150 bf 4a fe 98 59 49 d2 bf 5c 79 fe b3 56 64 a7 bf
       -0.2857269281459302 -0.045687398406914353
000160 93 1e 3a 91 f6 b1 bd bf 69 9b cc e9 b0 32 bf bf
       -0.11599675221997989 -0.12186723430623449
000170 47 94 46 27 b8 65 cb bf 8a 54 ce 01 b4 6a 9e bf
       -0.21404172818907538 -0.029703915224292866
000180 06 78 36 3c b9 4e d0 bf 1d 47 ff c9 7b 4e 9a bf
       -0.25480490570214476 -0.025690015987328885
000190 5c b3 89 4f b4 83 c2 bf bf 9a a6 43 5e 05 89 bf
       -0.1446442974442118 -0.01221727031663755
0001a0 16 46 37 8c 29 5e d2 bf 73 b5 0d e8 c3 1e b1 3f
       -0.2869972104354884 0.0668756906067836
0001b0 3e b6 02 45 b5 36 a5 bf 83 ee a4 72 9d d7 b0 3f
       -0.0414330145589301 0.06579002427036511
0001c0 c8 d0 3f 68 d8 01 d0 bf 3e c8 ae df a5 8a bf bf
       -0.2501126306590433 -0.12320934973720996
0001d0 9b 7f b3 ea 6f 58 ba bf b3 84 89 ce 35 af a6 bf
       -0.10291194419869358 -0.0443054976101477
0001e0 57 cb 47 e3 45 8e c9 bf 71 d3 c8 ab 04 75 c5 bf
       -0.1996543273704343 -0.1676336134711636
0001f0 9b fb af b1 d3 46 b3 3f 19 29 ef 5f 0d db ab bf
       0.07529948318550199 -0.054405611000747985
000200 42 c6 3c dc e1 c6 9d bf 39 92 61 43 cd 94 88 3f
       -0.029078988139366276 0.01200256692772782
000210 b3 ad 47 39 44 b8 ca bf ce 61 91 97 86 42 c3 bf
       -0.20874836727976528 -0.1504677047803526
000220 46 ac c9 d6 cc 85 50 bf 4e 9d 5f ac 9c 7e cd bf
       -0.001008462942219139 -0.23042639176058305
000230 3d ec 9d 74 a8 83 cd bf 05 be 86 90 33 a3 d3 3f
       -0.23058038419898877 0.3068360244169244
000240 3a 1e 04 bf 20 b4 38 3f b5 18 05 12 23 80 d8 bf
       0.0003769473978682856 -0.3828208614326159
000250 13 7d 59 ff 66 cc c7 bf 4e a1 e5 ba bb 89 cb bf
       -0.1859253641914412 -0.21514078737096515
000260 0f 5c 26 45 8e 72 b6 bf 0a ae 0f 7f 61 f8 c0 bf
       -0.08768548191288537 -0.13257998184359138
000270 f1 36 6d be a1 21 b3 bf 88 4d e7 f6 b4 55 b3 bf
       -0.07473193072402375 -0.07552653339307913
000280 43 1b 22 fd 5b 5e b1 bf 40 c8 ec e4 45 3a dc bf
       -0.06784605913172208 -0.44105670314741374
000290 35 0f 34 15 dc e0 9d bf 4e 0f 25 f0 12 de 92 bf
       -0.029178084177160463 -0.018425269992135278
0002a0 45 f3 6c b1 2d 6a a3 3f 91 e1 94 41 18 45 bb bf
       0.03791945257987676 -0.10652305222618554
0002b0 a2 94 0c 7f 73 95 ad 3f 47 e6 e1 62 b0 23 bf bf
       0.0577808468426977 -0.12163832105752546
0002c0 3e 38 89 6a 04 34 80 bf 8b 7f 60 ef a5 2e d0 bf
       -0.00791171503183474 -0.25284717919020555
0002d0 0d 4e 90 75 97 d9 99 bf 9c d5 b9 66 7b c7 c0 bf
       -0.025244108725088355 -0.13108770862497188
0002e0 42 2f 67 75 16 aa c0 bf 0b 4b 57 57 c6 86 d5 3f
       -0.13019066555568243 0.3363509991587967
0002f0 1c 4f d8 df 5e de c5 bf 89 0f 66 d3 5f 6f a9 bf
       -0.17084871225289866 -0.04967784362364031
000300 93 cc 55 21 94 1d b1 bf f2 c3 22 b0 45 8a c7 bf
       -0.06685758413168434 -0.18390723324185348
000310 f8 a7 27 cc be df ca bf c4 89 22 a5 b6 7b ca bf
       -0.20995316475392634 -0.20690043509701017
000320 44 e7 d7 a3 d6 50 c1 bf 13 6a 4e 1c b4 81 b7 bf
       -0.13527949333347966 -0.09182286921569753
000330 79 6b 91 44 12 58 c4 bf 16 9a 08 82 78 46 cd bf
       -0.15893772457169655 -0.2287130961351102
000340 dd c3 86 f6 ee 16 a3 3f d5 2a 79 f2 6b 6e c5 bf
       0.03728434333186901 -0.16743230189816552
000350 86 d4 d4 86 d9 c6 c0 bf f8 d4 f5 61 b0 98 ca bf
       -0.13106841167033084 -0.20778469832627144
000360 f4 37 ce 56 db 30 c1 bf 88 96 a8 03 8f 64 cc bf
       -0.13430349100639172 -0.22181880644454943
000370 3b f7 40 60 7e 6f c1 bf 79 25 a5 65 94 51 c4 bf
       -0.13621501636401398 -0.15873961413516804
000380 6c 1f 86 f3 10 06 c3 bf 19 c7 cd 7d 0e 02 b0 3f
       -0.14862262621704347 0.06253138133413606
000390 ef d9 56 14 96 38 b9 bf 50 50 64 80 83 e2 c2 3f
       -0.09851968761981998 0.14753764886029552
0003a0 1d c5 97 38 01 92 94 3f 71 cc 17 10 a7 67 ae bf
       0.020088213996079952 -0.059384556498024994
0003b0 58 f7 b9 23 93 59 c0 bf d8 94 bb f3 db f6 cf bf
       -0.12773360485510454 -0.24972104455006305
0003c0 fa f4 27 46 09 23 c4 bf d3 c7 12 43 21 12 c4 bf
       -0.15731922078695232 -0.15680328154627307
0003d0 f1 56 9d 73 1d f8 b4 bf 72 90 17 46 cc 7a c2 bf
       -0.08191093514082205 -0.14437249586547157
0003e0 d5 52 0a 62 1f 7a bd bf a0 ea 81 b5 05 c1 a6 bf
       -0.11514469283640534 -0.044441393286395625
0003f0 1e 47 dd ce 0a 82 bb bf 06 b7 95 ed f0 fa a3 bf
       -0.10745303678893633 -0.03902390384869929

policyHead.2.weight f8 [64, 128]
000000 48 b4 35 40 3d 51 a5 bf 47 a6 02 2b 6d 52 89 bf
       -0.04163543137369935 -0.012364247202941615
000010 a0 f5 64 17 1c cd b7 bf c2 84 90 54 63 13 b9 bf
       -0.09297347613479312 -0.09795208754123322
000020 e4 71 22 99 43 d1 b1 bf d6 d8 d6 20 9e 84 b2 3f
       -0.06959936607967837 0.07233608533610733
000030 5a 79 28 f0 95 3e c3 bf 2c a1 54 4b 7b 61 b0 bf
       -0.15034746386022385 -0.0639874514496383
000040 43 33 a7 69 48 cb 90 3f a8 4b c2 a6 9f 97 b4 bf
       0.01640046257834916 -0.08043859311355439
000050 35 6b 19 8c c8 19 c2 bf 95 d2 52 18 c3 24 c0 bf
       -0.14141184654985187 -0.1261218899504867
000060 ae 4c 30 52 8e 39 a2 3f 8d 69 03 dc 47 31 1c bf
       0.035595366986080776 -0.00010754586310516273
000070 df e0 9b ad db 64 b3 bf 67 e3 01 fc 3d 03 cc bf
       -0.07575772274492774 -0.21884894185111678
000080 82 37 95 ee 6f ef 9f 3f 52 06 e2 bf b6 1c ad bf
       0.031186818062728168 -0.05685969440766016
000090 65 5c ff 0c 99 ff b1 3f b0 11 1e 47 7e d9 aa bf
       0.07030636374780526 -0.05244059198506379
0000a0 80 73 99 34 01 a8 a6 bf 99 5c 0c ed 10 9b 97 bf
       -0.04425052420695064 -0.02305246779277734
0000b0 e0 12 c4 d3 d9 a1 ba bf 0d 5f 63 a4 a8 07 cc 3f
       -0.10403214855257259 0.21898372675672598
0000c0 4d 9f 3c 93 30 ef b8 3f 01 9c dd 45 42 04 b2 bf
       0.09739974589012697 -0.07037748532967215
0000d0 a5 44 5a ec dd a1 b9 3f bf 65 11 4d 36 3a ba bf
       0.10012614269568816 -0.10245074636022532
0000e0 d1 76 c4 06 f9 f1 b0 3f 64 b1 51 eb af 69 c0 3f
       0.06619221129627852 0.12822531690779748
0000f0 66 32 eb 7a 36 37 b3 3f e5 3f aa 0f 93 a3 bc bf
       0.0750612306685042 -0.11187094814727024
000100 52 95 8d 85 dc 58 a5 bf 80 06 dc a9 0e 3a ab 3f
       -0.04169358377729772 0.05317731688957128
000110 de a5 80 74 d8 76 83 bf 1c 94 ea 59 b3 e8 d6 bf
       -0.009504023604750719 -0.3579529169167601
000120 c1 e6 ff f6 56 82 b2 3f a4 bd 60 fb a9 15 a4 3f
       0.07230132608665497 0.039227783141878164
000130 a4 b1 2b 3e c9 9b c6 bf 62 0f 97 92 45 6e 8a bf
       -0.17662921462705328 -0.012905639206003353
000140 b0 30 f3 ab a5 2d c0 3f 50 ca 54 75 28 38 a4 3f
       0.12639304061884138 0.03949095184579632
000150 d3 85 68 34 4c 09 9d bf e2 ed b7 0e d6 aa ac 3f
       -0.028355780314205447 0.0559908764807593
000160 1b 63 fa fd 12 72 c0 bf 4b 96 a6 56 8c 4f c4 bf
       -0.12848126794121914 -0.15867761832230295
000170 76 ef 0b 92 ce 45 b2 bf fb c3 6b 3e 89 ec c9 bf
       -0.07137766900626538 -0.20253100917719266
000180 81 c0 11 a9 af 2c a0 bf 0b 45 91 7a 9e 90 c1 3f
       -0.031590928448054896 0.13722592339267012
000190 29 a3 cd 17 c9 0a ad bf fd 3e 38 12 af 59 d0 bf
       -0.056722911983177866 -0.25547386912602105
0001a0 87 df ce 0f 7d f1 ae bf ba 3f cb ce 70 b8 bf bf
       -0.06043616121263456 -0.12390809105568126
0001b0 51 ec 55 24 f2 26 aa bf 29 12 90 b6 01 ec c4 3f
       -0.051078383384230215 0.16345235265920735
0001c0 b7 bc 43 69 3a 23 bb bf bd ba da d6 24 f4 ad 3f
       -0.10600628919540865 0.058503295161576464
0001d0 c5 a2 b4 dc 59 56 b3 bf 41 ec c7 82 73 65 4a bf
       -0.07553636205978893 -0.0008055509584318292
0001e0 06 4e 58 bf ad 63 b7 3f 40 60 91 1d af a8 b3 bf
       0.09136472627169931 -0.07679266425964304
0001f0 03 f4 f8 77 a7 7e a6 bf 8c 9e 3f f0 32 6b 85 bf
       -0.04393504466541034 -0.010458372074892773
000200 6f 93 0b 1a 7b 90 af bf 48 59 cb 80 87 1c 93 3f
       -0.06164917653021617 0.01866351817701542
000210 65 5e 93 c4 ef 33 d1 bf 0b 1f cc e1 07 93 99 3f
       -0.2687949580845042 0.02497494044931074
000220 2e ba 7f a7 0a 9d bd 3f 8c ac f2 14 9b 74 b2 bf
       0.11567751492814501 -0.07209176312851379
000230 9b 4a 6e e6 b1 09 d1 bf 3e 2e 2b e0 c0 4c d5 bf
       -0.266216731100181 -0.33280965701553444
000240 b9 f1 7b b2 74 22 bc bf 10 80 ec 60 c9 52 b3 bf
       -0.10990075452350014 -0.07548197380356236
000250 c4 90 13 b4 fe e5 b2 bf a7 1a 78 b3 6c f9 b0 bf
       -0.07382194420239602 -0.06630591756411751
000260 63 23 07 c2 87 00 b3 3f ab 33 8d 74 9c 91 b6 3f
       0.07422684180268173 0.08815934987542444
000270 40 c9 c6 4d ad e8 b3 bf f7 54 8a 04 cb 2a c3 bf
       -0.07776911877480064 -0.1497434398812982
000280 19 ae 0d 33 96 58 c5 bf 34 41 60 5f aa bc c0 bf
       -0.16676595204204217 -0.1307576146796322
000290 75 cb 9c 13 de 77 c6 bf a9 d3 32 26 a5 ff a6 bf
       -0.17553306539192773 -0.0449191674355583
0002a0 0b 23 42 b2 65 21 a5 bf dc 5c 83 ee 04 70 b6 bf
       -0.041270425806095266 -0.087646778326746
0002b0 c5 f8 8a b9 83 38 bf bf 62 4e 72 60 6e c1 b2 bf
       -0.12195609359602873 -0.07326402525569045
0002c0 f3 1a a4 ca e1 79 be 3f 99 18 6c 97 51 ac c9 bf
       0.11904727170267985 -0.20057124990143363
0002d0 aa bd 01 36 88 28 c3 bf a8 fa 44 21 08 37 a2 3f
       -0.14967444073725505 0.03557610899087155
0002e0 27 e5 db 77 ec b4 b7 bf 34 35 f9 96 7d 92 b2 bf
       -0.09260442663425704 -0.07254776893497167
0002f0 af ce cd 66 2f cd a9 bf de 62 3d 17 80 17 b6 3f
       -0.05039356355601165 0.08629608695390398
000300 cb 23 75 02 72 aa d6 bf 6f 57 82 76 5e ca bb bf
       -0.3541531585693149 -0.10855665581979478
000310 29 7d b1 92 f7 c2 c4 bf 1c 23 a7 e8 90 95 8a 3f
       -0.16219992316016743 0.012980587100984979
000320 fd 41 30 6f 04 a4 c7 bf 25 7d f9 12 13 fa cc bf
       -0.18469291142584146 -0.2263816683434722
000330 0c 56 aa 36 16 11 b5 3f 79 9e 60 16 4e b0 9f 3f
       0.08229197344402212 0.030945987811860285
000340 26 35 30 1d a6 46 be bf 04 10 4a 4b 3d 48 a4 3f
       -0.11826551640134095 0.03961364311274454
000350 38 37 b6 a1 33 6a b7 bf 0b c6 d3 ff 6b ef a0 bf
       -0.09146425912896639 -0.033076643923674785
000360 40 a5 b0 ba ab a5 bb bf a4 1d d6 99 93 6b c6 bf
       -0.10799668605672696 -0.17515797626059026
000370 e9 7a 7a 40 c6 a2 b0 3f 9e 91 d7 b2 8e b8 95 3f
       0.06498374056034674 0.021211843171742843
000380 27 cd a9 c1 83 c8 b0 bf 14 87 fa 71 14 d7 c1 bf
       -0.06555961111171325 -0.13937621655809862
000390 b7 91 a1 43 da c1 cc 3f b8 13 02 05 f2 ec c6 bf
       0.22466591169644598 -0.17910599941765581
0003a0 11 d2 1b cd d2 1c a4 3f 8a 42 7f b3 70 36 b2 bf
       0.03928240541236872 -0.07114319212201728
0003b0 3c 96 5f 72 bc 76 aa 3f 05 8c 6c cc bf 87 d4 3f
       0.05168713470611094 0.32078547442705513
0003c0 00 c0 2d 35 d1 bc ca bf ea 28 8a b9 83 97 d7 3f
       -0.2088872441922831 0.3686227142249111
0003d0 3b 84 bd ec b6 19 a2 bf ef 32 c8 c0 6e eb 8d bf
       -0.0353524364461539 -0.014609208353272033
0003e0 3f b1 33 a4 12 63 ab bf a9 93 90 77 0e 1c 46 bf
       -0.053490240616016475 -0.0006747313156024631
0003f0 68 7a 60 1d 8c 05 9a 3f b3 b0 65 02 df bd 7b 3f
       0.02541178635885402 0.006772872095421589
000400 60 de 95 75 09 c0 9c bf ac 00 44 3f 30 d4 b8 3f
       -0.028076312829823258 0.0969877390343778
000410 de 41 73 c3 41 58 80 bf d5 eb 49 30 98 25 8d bf
       -0.007980836655776476 -0.014231862043052526
000420 9e 30 6d fe ed fc a6 bf 7b 8b 8f f9 ff a1 a9 bf
       -0.04489845019142645 -0.050064086164431885
000430 44 41 a1 46 51 35 9c bf 84 49 8d c5 bf fe be bf
       -0.02754714006033622 -0.12107466290516383
000440 56 2c e7 ca 0a 11 be bf 79 cf 23 28 0b 05 9b 3f
       -0.11744754270255106 0.026386427235550045
000450 32 0b ab 0f 1e d1 9d 3f 97 84 38 d1 a5 84 96 3f
       0.029118032175357196 0.021990385908911305
000460 03 d7 49 8f b4 24 9d 3f e7 54 9d 2b 55 71 ae bf
       0.02846033215106215 -0.059458409856839194
000470 6f 9f 15 16 2b bc bc bf c0 33 2b 41 b8 b3 be bf
       -0.11224622048541531 -0.11992980567011013
000480 12 cd 9f 03 dc e8 bf 3f ec 0b 2a fb 4f f7 90 bf
       0.12464690292818073 -0.01656842203602686
000490 c6 8a 1a dd f6 ea 72 bf 21 ce 54 32 91 b3 cd bf
       -0.004618610678934492 -0.23204245526868397
0004a0 45 f4 15 20 ea 70 b7 3f b1 e8 a1 30 12 26 ce bf
       0.09156668933242525 -0.23553683638221437
0004b0 bf 41 b8 04 b3 05 b2 bf 63 2d 59 a5 9a b9 ad 3f
       -0.07039946427563047 0.058056671795010194
0004c0 1d 6e c9 6b 8f e7 99 3f 0f 36 a0 fc f7 38 d0 3f
       0.025297394708429722 0.2534770934151717
0004d0 71 72 a9 b8 b7 3c a5 3f e4 c0 81 ab 96 b7 cb bf
       0.041478863994346755 -0.21654017805440795
0004e0 38 07 73 63 a2 4a a5 bf 65 e1 d9 19 51 5c aa bf
       -0.041585039748964936 -0.051485571294452005
0004f0 b4 41 99 40 1c 3e a1 3f e9 aa 37 ed 18 d2 a6 bf
       0.03367698944623801 -0.04457166572304578
000500 2f 1a e9 00 0d 7f 9d 3f b5 8d b7 b1 02 2b ba 3f
       0.028804972820831217 0.10221878851694195
000510 0e 80 ec ee 24 63 b7 3f fc 91 51 32 a3 9c b4 3f
       0.0913565715131883 0.08051509836656828
000520 ec e9 27 b2 61 c8 90 bf f8 88 34 66 b8 14 ae bf
       -0.016389395235799784 -0.05875183341619733
000530 5d 55 30 12 26 28 cf 3f 86 f2 dd b1 99 98 c4 3f
       0.24341274154782414 0.160906993722069
000540 33 cd 95 36 f3 02 75 bf df 20 b3 4e e2 28 a4 bf
       -0.005129766513493994 -0.03937442026796289
000550 ff 58 af d8 bc 88 b8 3f 62 8c 19 41 31 b1 bc 3f
       0.09583645143661455 0.11207874144888444
000560 bf 38 29 2c 85 fc 97 bf e3 9f 37 e6 b3 c5 cd bf
       -0.023424225635886083 -0.23259590855673115
000570 78 9d 12 58 c6 5e c4 3f 3e 95 9c 41 ea 75 b6 bf
       0.15914229679513503 -0.08773674108359317
000580 ec 6e 1e ce 08 8a c9 3f 29 60 97 86 b1 fd 85 bf
       0.19952497543714942 -0.010737788123989915
000590 1b 78 c6 24 9b 7c b3 bf 40 6e e5 94 3c 3e a9 bf
       -0.07612008712610001 -0.04930295293408138
0005a0 ca ff 83 ec bb 82 d1 3f 2e fb e4 71 30 ea ba bf
       0.2736043748591298 -0.10513594418169411
0005b0 73 bf 45 3a ed 89 9e bf 00 48 ed 6c 4f e6 c0 bf
       -0.029823023492496725 -0.13202851122565562
0005c0 28 f5 47 fc fa 65 b2 bf da 28 a4 d5 a7 8c 93 bf
       -0.07186859759527364 -0.019091246046664213
0005d0 9c 11 54 d3 9a ec c2 bf a9 6f 0b 39 1d 7f a5 bf
       -0.14784560507554267 -0.041985429013691906
0005e0 1e 1d 4b 89 cc 2b b1 3f 73 8a 22 77 ab 98 a0 3f
       0.06707456924333541 0.03241477803500894
0005f0 e8 79 5d 78 2e 5a 8c 3f 18 7d 27 29 b8 2e c1 bf
       0.013843882606747251 -0.13423826226696955
000600 6c cc b0 5a 7d 53 75 3f 4b ad 9d 38 95 4f ba bf
       0.0052065750742712295 -0.1027768386099314
000610 d1 b2 fd 98 52 a4 b0 bf f1 7f 9b e4 a1 d7 ba bf
       -0.06500736460811686 -0.10485278922305931
000620 ae 04 60 73 60 70 ba bf d9 38 cb 8b ff 93 be bf
       -0.10327723328375057 -0.11944577372489408
000630 77 5f 3a 15 2b ed ac bf d8 d1 90 4c de fa cc bf
       -0.056496950475035605 -0.2264058946472136
000640 70 27 80 4d d5 ea 76 3f 1c c8 d4 cd 4e 9d a1 bf
       0.005595048154654822 -0.03440328848445537
000650 33 9f 95 ad 0c 02 c1 bf ac 60 71 2c e8 bb ad 3f
       -0.1328750464992879 0.05807424108997003
000660 30 65 ac a8 71 21 93 bf 42 c1 41 1c 28 29 a3 bf
       -0.018682266159065708 -0.03742337555820764
000670 36 2a 78 45 0c bf c4 bf 07 33 ad d9 08 43 b5 bf
       -0.1620803202825571 -0.08305411638611924
000680 50 e3 7b ee 8f b4 af 3f ba 7f 55 59 05 7d b2 3f
       0.06192445551091075 0.07222016745572449
000690 66 79 17 98 8d a1 d0 bf 2f a6 eb 8e 45 f4 85 bf
       -0.25986041882233335 -0.01071981756600157
0006a0 70 d0 59 b6 6c 0e 81 3f e9 76 1c 25 55 4f c1 bf
       0.00832829410067168 -0.13523353874273106
0006b0 0b 50 84 e6 e3 9b b9 bf 0e 91 15 53 2e fd d3 bf
       -0.10003494623043722 -0.31232793916412127
0006c0 d1 b7 16 18 8a fb a2 3f 5d c6 b8 35 59 71 95 bf
       0.03707534355213194 -0.020940202621380844
0006d0 64 d2 3a 78 67 fe 9e 3f c4 df b5 cd c8 0f 60 bf
       0.030267349923365564 -0.0019606515831433764
0006e0 3c 0b 2a 47 78 24 c2 bf 98 fb 5d f3 98 b8 85 3f
       -0.14173797106567487 0.01060599796960364
0006f0 e4 75 f9 e6 71 20 b8 3f 58 aa 97 26 6c ee c2 bf
       0.09424507035279067 -0.14790107616802817
000700 e5 52 85 96 2b f2 b7 bf 6a 91 5c c3 f2 63 b7 bf
       -0.09353897499870419 -0.09136883992738878
000710 d0 86 ef 04 05 9f d3 bf 97 e3 cd d5 b3 76 91 bf
       -0.30658078653332854 -0.017054376530242967
000720 84 7f 2f 9f 74 15 a3 bf 10 d9 55 fb 77 13 cd bf
       -0.03727306788618903 -0.22715663692697108
000730 fb 9e 12 65 ec cf be 3f 49 e3 2c fb 0e c0 a1 bf
       0.12036015956493522 -0.03466841522317183
000740 16 09 3a 6e ce 18 b9 bf 4e 68 c5 47 7c 52 b6 bf
       -0.0980347651584775 -0.08719612838959387
000750 9f 71 8b fe c1 89 c7 bf 62 3d 3a e0 f7 e8 bc bf
       -0.18389153412762213 -0.11292981361679247
000760 c8 79 73 c3 21 1f 97 bf ec 6c 1f c5 dd 44 ca bf
       -0.022579696230303786 -0.20522663235792693
000770 43 83 2e 1f 90 ad b7 3f 3f 42 07 de 40 8e b6 3f
       0.0924921108367132 0.08810811443914533
000780 c5 09 2e 38 3e 8b aa 3f e6 22 74 c5 b9 83 d0 bf
       0.05184359012402554 -0.25803989679893247
000790 44 4f 52 92 d2 62 c3 3f 34 50 11 ca 31 e8 d0 bf
       0.15145332474332396 -0.26417202695052144
0007a0 3b 2c d7 6b cb e2 ba 3f 0b 61 08 92 af d9 af 3f
       0.10502311117959177 0.062207686020146445
0007b0 f8 01 7b 3e f0 26 b3 bf 68 ee 7d 57 b3 2e e3 bf
       -0.07481290364649584 -0.599450751192717
0007c0 b7 3c 0e c9 85 04 b5 bf ff 1f c7 23 10 20 9a 3f
       -0.08210025938591313 0.025512935813623013
0007d0 50 20 7d b3 94 66 be 3f 1f 46 45 7b 69 63 bc bf
       0.1187527597622886 -0.11089190730606234
0007e0 76 a0 4c a4 a3 dd c0 bf 2a fb 26 60 e3 18 bd 3f
       -0.13176389238765623 0.11366101357905892
0007f0 76 4d 83 22 41 f0 ca 3f fc 52 7b 75 f2 71 bd 3f
       0.21045698342514257 0.11501994484144612

policyHead.2.bias f8 [64]
000000 9c 83 53 9b 37 9c c1 bf 48 6e 48 3d 25 80 c0 bf
       -0.1375798710278361 -0.12891068928080274
000010 d1 fa 4e aa d4 79 b9 bf 6d 61 c1 c1 f6 c6 d5 bf
       -0.09951523931429597 -0.3402687923567303
000020 a1 cf dd c3 5e 27 c7 bf 53 af 59 06 34 93 bd bf
       -0.18088898242751575 -0.11552739291226759
000030 68 4a 5d ab 13 85 d0 bf e8 29 d5 7d 19 74 c2 bf
       -0.2581223653298026 -0.1441680778901422
000040 5a a8 fe 8b 83 98 ca bf d0 94 f6 ed 65 e1 b0 bf
       -0.2077793534820696 -0.06593930301331175
000050 6f c7 e0 f5 68 23 af bf 49 5b de 1f a1 75 b1 bf
       -0.06081703187409359 -0.06820113208810342
000060 70 df 8b 63 a8 f1 ab bf ac 47 49 8d 58 da bd bf
       -0.05457807746091603 -0.11661294412013373
000070 57 8b 4c e5 17 c1 bc bf bc 7b 9c dd ac c2 bd bf
       -0.11232137058372636 -0.11625175867491938
000080 23 0f 0d 80 c0 03 68 3f eb 38 2d 6e ac 05 9b bf
       0.002931476571036999 -0.026388830399178536
000090 c3 ed 95 63 c4 fb c5 bf 09 2e 93 7b 8f d8 c3 bf
       -0.17174582350331322 -0.15504640134746264
0000a0 80 c7 07 8f 29 80 cb bf ae ea 23 7d 20 0d ba bf
       -0.21484870418458613 -0.10176280074294183
0000b0 52 f0 61 48 54 62 ce bf d7 98 da 92 ae 71 c9 bf
       -0.2373757699423345 -0.19878179712868047
0000c0 fb 09 dc 85 7d ee ae bf 3f 76 77 95 60 b5 c4 bf
       -0.06041328677203591 -0.1617851953332536
0000d0 33 91 af ff 00 dd c3 bf 84 99 0c 60 68 8b a4 bf
       -0.1551820038286081 -0.04012609646297263
0000e0 5e 7a bb 9e 30 66 95 bf d8 f4 5b db fc 0a be bf
       -0.02089763611626904 -0.11735515933465324
0000f0 81 11 58 e2 1a 46 aa bf 0a 8c b5 af 48 a3 c7 bf
       -0.05131610882748117 -0.18467053012418005
000100 38 d7 0a 8b 97 a9 c0 bf 5b ff 6f 43 26 57 c9 bf
       -0.13017553605248522 -0.1979720906529064
000110 f2 66 f4 34 9c d2 c2 bf e5 ce 6e ac 37 e5 c2 bf
       -0.14705231271437175 -0.14762016219685062
000120 e3 d2 17 9c 4d ea ba bf 15 b9 4c b5 6a 80 a1 bf
       -0.10513768254152071 -0.03418286765223592
000130 95 a0 c8 09 35 74 c1 bf b1 24 53 ce f2 af c7 bf
       -0.13635886171073666 -0.1850570208974083
000140 6f 78 9d 48 17 1a b4 bf eb 4f 66 b3 42 cd c7 bf
       -0.07852311632947971 -0.18595155486821055
000150 c8 c1 87 27 9e 01 bb bf 69 b9 b9 62 3b 9e aa bf
       -0.10549343552680235 -0.05198846416611753
000160 e0 69 cc 00 f7 44 c1 bf 42 54 c3 27 4e bc b1 bf
       -0.13491714037884517 -0.0692795607640884
000170 37 dd 09 19 fd d0 c2 bf 7d 33 b6 70 2e 38 b3 bf
       -0.14700282785973126 -0.07507601024390272
000180 91 1c 07 0e 70 dc b8 bf 6c 25 1e cb ea 5f c0 bf
       -0.0971136125800618 -0.1279271594797068
000190 78 66 3a c3 5e 03 c5 bf d8 f0 db 7f ea fb a9 bf
       -0.16416534931777327 -0.05075009165554584
0001a0 e9 30 6b 46 2e 14 c5 bf ab 95 76 e1 6a a7 c7 bf
       -0.16467836798108884 -0.18479667672106123
0001b0 b4 f6 73 73 6f 68 c0 bf ca 60 5d 2a 6c f5 76 bf
       -0.1281871141181249 -0.005605146905360134
0001c0 87 11 a2 33 14 db c5 bf 46 c4 a4 54 f1 4b c1 bf
       -0.1707482578386925 -0.13513008721341374
0001d0 4b 63 6e 05 4e 82 c6 bf c5 c5 15 70 54 08 bc bf
       -0.17585158600993575 -0.10950210319949523
0001e0 7a 97 8e 27 6b 18 c2 bf 5a 92 2f a6 8d 3a 97 bf
       -0.14137019568914494 -0.022684300678422843
0001f0 8a 12 00 e3 8b e1 c2 bf 21 61 1f 45 41 2c b0 bf
       -0.1475081308746165 -0.06317527711451422

policyHead.4.weight f8 [26, 64]
000000 9e 61 57 61 08 83 bd 3f 24 b9 4a eb 52 4b a5 bf
       0.11528065086839098 -0.04159030077186035
000010 6b 3a 57 fe d9 8a a9 bf 48 45 31 e8 f2 d6 b3 3f
       -0.049887478158429165 0.07749860924493135
000020 23 d4 25 0d ad 39 ad bf 41 77 0d d6 32 7f 9f 3f
       -0.05708065782065599 0.03075866157029528
000030 4e 24 be c6 bc e0 95 bf 54 be fb 18 be 37 70 bf
       -0.021365117674154548 -0.0039594102561149765
000040 1e 97 ea 41 9d 40 cb bf c4 c8 3f 22 7e 15 b8 3f
       -0.21290937155316042 0.09407795272980751
000050 04 65 c2 b8 60 66 95 3f 17 be 23 c4 e9 fa ae bf
       0.02089835288697818 -0.060508065407585736
000060 b3 b7 52 2f a2 8c a1 3f 16 e0 a2 95 39 e8 c5 3f
       0.03427607371973753 0.1711494427343047
000070 ef a1 ae 2d 36 2b ae bf dd 38 a3 f7 66 63 a0 3f
       -0.05892342860835586 0.032008378724286614
000080 20 29 6c 6f 73 64 ac 3f 7f 7b 73 cc 71 88 bb bf
       0.055453879691486074 -0.10755072823984156
000090 96 e5 a0 2a ef 11 c5 bf ff 4c ff 9b a7 29 b0 bf
       -0.16460980969877131 -0.06313560064818445
0000a0 8b e4 81 87 4c c9 cb bf 3e cb ef 86 7e bc a0 bf
       -0.21708065620967817 -0.03268809697319462
0000b0 c1 6b 7e 31 4c 68 cb bf d8 8f be 35 2e 17 a9 bf
       -0.21412041107836724 -0.049004978237718155
0000c0 85 b6 41 7c 99 9d b5 bf c2 5a 73 09 55 50 c9 bf
       -0.08443602832422854 -0.19776404344039206
0000d0 d6 68 cc bf 2b 09 a0 3f 40 97 73 f9 8b b3 ca bf
       0.031319968378925075 -0.20860433273554158
0000e0 fe a8 9c 53 b6 b8 b2 bf 89 db b9 91 b5 ab b8 bf
       -0.0731309847002741 -0.09637007529987164
0000f0 6b 2c f9 98 06 8d 7a bf 39 3d dd 81 dc 7a c4 3f
       -0.006482148906410061 0.1599994310476889
000100 0e f7 5c a1 c1 79 a5 bf ae 39 95 16 28 53 9d bf
       -0.0419445523716445 -0.028637529733993076
000110 56 df 29 85 d9 70 c3 bf b0 e4 9e a2 a0 33 a8 bf
       -0.1518813991749492 -0.04726888642421423
000120 30 5c f1 d3 5e 10 7d bf 2d 43 79 ae fc 20 c6 bf
       -0.007095690175524402 -0.17288168448660582
000130 25 43 b6 8b 37 9f b2 bf 22 9a 65 3b 57 ac 7f 3f
       -0.0727419582456262 0.007732716322016249
000140 58 cd 42 0c 58 18 b2 bf 23 ef 83 61 cf 1a ca bf
       -0.07068395900096414 -0.20394317876331866
000150 04 a7 69 c9 cd 47 bf bf df 4c 06 85 d8 99 3c 3f
       -0.12218938987066613 0.0004364160168048424
000160 b8 67 60 e0 1e 9a 93 bf a9 37 27 4f 34 b5 91 bf
       -0.019142610974178104 -0.017292802172782427
000170 cc f9 eb 08 b2 9a 93 3f 13 ac 84 78 bd 16 d9 bf
       0.01914480380491472 -0.3920129467903177
000180 c6 bc bf a0 b0 6d c1 bf 77 4f 12 df 5e cf 9e 3f
       -0.1361599717051602 0.030087931027608286
000190 0d 0d 2a d6 27 15 96 bf 55 f8 ff 2e 86 f9 c5 bf
       -0.021565077253865406 -0.17167737288395082
0001a0 7e f9 57 b1 ce 2f d2 3f 29 52 45 34 30 52 94 3f
       0.2841679317351903 0.01984477347407868
0001b0 e1 a1 dd 59 82 5b a9 bf a5 23 3d 93 b1 d6 c1 bf
       -0.04952628466600451 -0.13936443032642135
0001c0 44 61 25 d0 92 10 b5 3f ee bd 76 59 57 38 c0 bf
       0.08228414136590795 -0.12671939724303577
0001d0 b1 75 ca 1b cd 91 bd 3f 35 70 f7 0b 34 51 a4 3f
       0.11550599983680489 0.039682032070885866
0001e0 cb 28 83 17 5b 2e bd bf 11 03 99 d0 f1 71 d2 bf
       -0.1139885837939431 -0.28820462580556333
0001f0 f6 53 8a 90 3b aa 98 3f a9 a1 d0 d1 84 31 b7 bf
       0.024086886117021998 -0.0905993473285266
000200 a1 2e c2 c7 9c 0c b7 bf 7e 1e 52 55 d2 19 b0 bf
       -0.09003620030324068 -0.06289400656725694
000210 3c f1 5f 73 ac 18 77 bf b1 5f 48 9a 83 ad b2 bf
       -0.005638764987449026 -0.07296011463802078
000220 c5 33 0d 98 b5 a2 8e 3f 5c 9d fd 37 84 17 71 bf
       0.014958780958886817 -0.004172817687368404
000230 06 04 9b a1 b5 86 d2 bf 40 94 36 3a 86 42 c5 bf
       -0.2894720152071958 -0.16609266130868328
000240 a2 48 21 a9 d8 9d ad bf 6b 51 d9 cd 01 c4 b2 3f
       -0.057844896932367065 0.07330333018882633
000250 14 c2 51 a6 da f6 c6 bf ed 6e 82 27 7c 46 6d 3f
       -0.1794083892923629 0.003573648919042208
000260 cd 14 79 68 8b 20 8f bf a0 23 b8 d4 d4 a3 c0 3f
       -0.015198792577516685 0.12999973665889986
000270 58 cb e0 aa 7a 11 81 bf 5c 33 a4 76 1b 77 a9 3f
       -0.00833412012079797 0.04973684142360099
000280 93 f5 67 28 1d 37 a7 bf 67 42 b4 f4 3e 4a 92 3f
       -0.04534236067045607 0.01786135071330577
000290 c3 e4 66 3d 70 ad af 3f f8 78 df d7 b2 90 c1 bf
       0.061870105262138896 -0.13722835102721098
0002a0 21 47 fd c3 37 45 c5 bf b6 cb aa f1 00 c4 95 bf
       -0.16617486066621104 -0.021255507230943237
0002b0 c4 92 41 a1 83 de b7 bf 86 1d 92 e3 59 a1 ce bf
       -0.09323904692571278 -0.23929904567578947
0002c0 68 80 c9 a0 9b b6 82 3f 6f 1c 2a 31 19 bf 91 bf
       0.00913735947068535 -0.017330545068514554
0002d0 96 a2 ed 8a 58 e5 b6 bf 45 7b 7a 58 8e eb 9d 3f
       -0.08943704025080942 0.029218887472434635
0002e0 60 79 6f 70 40 9f 86 3f 48 22 5d c3 bf 07 b0 bf
       0.011045936042077542 -0.06261824149726991
0002f0 4b 7b 57 f0 12 a6 b9 bf e8 8f 8c 64 0d e5 c7 3f
       -0.1001903378268995 0.18667762193319892
000300 83 c6 c1 a3 59 34 c9 bf ae 30 96 01 30 bf cc bf
       -0.19691009994453532 -0.22458458020662903
000310 ef 5d 80 61 4c 19 c6 3f 30 ab aa 49 1e a6 b3 3f
       0.1726470447617738 0.07675351427557753
000320 7e 15 44 06 9e b1 91 bf 72 84 c0 65 38 47 b3 bf
       -0.017279118664210717 -0.07530548557453345
000330 b0 f7 ab e1 6b ee bc bf 04 32 81 6f 7d 5b b1 3f
       -0.11301302203716435 0.06780227634698838
000340 78 af cf 82 a1 0a c6 3f db 23 09 ee 28 60 ca bf
       0.1721994293906126 -0.20605956671559408
000350 ba 93 7b b3 74 ec 83 bf da 6a 47 92 3b 1b 90 bf
       -0.00972834751832773 -0.01572888450923924
000360 9d 5f 29 ef 0b 71 b0 bf bd 8e c1 48 9b 88 ab bf
       -0.06422495449930783 -0.05377660048614306
000370 f9 38 e5 b7 55 47 98 3f e8 f8 60 4a 13 4a d7 bf
       0.023709620808681973 -0.3638962007861566
000380 cb 82 2a 4c 15 43 c4 bf 7c d1 cc 07 60 81 aa 3f
       -0.1582972165970403 0.0517683038255283
000390 91 f9 2a 70 5a 45 b2 3f ef 10 f8 46 4b 1e 57 3f
       0.07137074697945979 0.0014110312584998915
0003a0 16 f5 d6 ec a7 ed d5 bf 16 a4 ec e5 52 7e aa bf
       -0.3426303685080979 -0.05174502426809384
0003b0 36 92 e5 26 98 6c af bf 4b ea ef b3 f9 90 97 3f
       -0.061375384090557025 0.023013974769108974
0003c0 a1 b9 8e b6 e5 3a b1 bf b4 33 a4 ba 0a 1c ce bf
       -0.06730495173426344 -0.23523077119207658
0003d0 c0 83 83 f5 49 dd c3 bf 20 f3 c5 2c 53 b3 c2 bf
       -0.15519070137000135 -0.14609756170457278
0003e0 6a 2c 45 02 2a 65 b2 3f d4 10 7e a8 59 19 bd 3f
       0.07185614161896728 0.11366806377015176
0003f0 52 96 4c 10 89 86 b4 bf c2 97 a1 13 3f 41 98 3f
       -0.08017784736565517 0.023686395238108345
000400 51 05 14 6b c7 b8 aa bf d2 8b ee 6c 76 b6 77 3f
       -0.05219100172144898 0.005789244270007781
000410 e9 a3 bf 81 49 f4 94 bf b8 cf 5e 37 c6 cf ca 3f
       -0.020463131469941862 0.2094657678950378
000420 a9 ef 1d d0 42 25 b4 3f 46 d6 52 41 9a 94 b2 bf
       0.07869355755786835 -0.07257999510587707
000430 57 ff db 0e bb 70 cb bf 22 7b 6b b3 44 3b bc 3f
       -0.214377767806577 0.11027936344497083
000440 fe 7f 61 3d 04 b9 a4 3f 89 77 6a d9 85 6c b6 3f
       0.040474064343243285 0.08759342725758591
000450 2d d0 a3 b3 c1 20 79 bf 26 2f df 91 74 9f 92 bf
       -0.006134754798257131 -0.0181863988907899
000460 37 65 74 41 76 f3 ac 3f 88 d7 82 c1 fb fa ca bf
       0.0565449671650619 -0.21078440617355576
000470 13 75 91 29 5b 21 a1 3f bc 52 a5 50 a8 7d a3 bf
       0.03345761187004306 -0.03806806549497341
000480 f1 ab 3e 74 9d d8 94 3f 75 0e a4 57 31 1c c7 bf
       0.020357570858020983 -0.18054787425363697
000490 d6 16 26 4a 50 03 a7 bf a2 32 e1 01 18 b7 b5 bf
       -0.044947156001439545 -0.08482503934755894
0004a0 84 db 29 d7 37 7d c6 bf ad 98 cf c9 d8 94 c1 bf
       -0.17569635396986538 -0.13735494474457735
0004b0 0c 1a b2 94 a3 83 d0 bf d6 df 58 3a 4d 82 c9 bf
       -0.258034606180815 -0.1992889914415616
0004c0 f4 d9 cd fe 37 90 b2 bf c8 dc 2d 02 e5 e9 aa bf
       -0.07251310320666687 -0.05256572391129449
0004d0 2a 1f e2 e7 f4 1b b1 bf b6 eb 97 13 52 49 c6 3f
       -0.0668328348275479 0.17411256748877485
0004e0 5c 21 a5 1a b5 98 ab 3f 67 7b 56 1d 7b b6 c2 bf
       0.05389944029099311 -0.146193875622852
0004f0 bb a9 16 6c 78 bc bd bf 93 5a 80 0f 89 58 c0 bf
       -0.11615708006744445 -0.12770188576606198
000500 ea 49 b0 6d 55 68 d2 bf 8d 5f 6f d3 96 27 b5 bf
       -0.2876180239847189 -0.082635332698713
000510 7f ad 73 e0 9e 9d b7 bf 95 cd 26 ed a9 1b a9 3f
       -0.09224884967595946 0.04903918285290413
000520 7f a6 d0 b5 8e b4 a3 bf 4a 8e 1d b7 9f e7 92 bf
       -0.03848691911146051 -0.01846170001171136
000530 35 e2 71 42 6e 4b b2 bf 62 9b e9 5c e8 c1 c7 3f
       -0.07146348116101182 0.1856050923990678
000540 45 61 66 3e ab a6 b1 bf 9b 9b 3f 9b 64 07 cd 3f
       -0.06894941590724553 0.2267881162690316
000550 25 2c 05 cc ff 9c 80 bf d2 c2 97 ef 07 38 b2 3f
       -0.008111952222540417 0.0711674652045631
000560 25 4d 49 5a 51 3e b7 bf af 54 2f f0 aa 28 66 3f
       -0.09079464391952692 0.0027049387585785438
000570 b2 75 33 b7 10 8b 91 3f 5b 8a d8 29 27 77 c5 3f
       0.017132054502203516 0.16769876044516505
000580 2a 6a a3 61 a5 e3 cc 3f e9 a2 6a 85 e6 e8 b6 bf
       0.22569720523354536 -0.08949127919425916
000590 bb 3c 3e c4 7f 3f c9 3f 01 3c 4e 03 92 20 a8 bf
       0.19725033838446912 -0.04712349214889145
0005a0 be f8 81 7c c7 96 a5 3f a4 47 d9 98 44 4e a5 3f
       0.04216597933644682 0.041612762125296215
0005b0 32 1d 4b a9 03 47 c4 bf cf 16 de b2 86 f3 b5 bf
       -0.15841718450813286 -0.08574716441043083
0005c0 7f de ed cc ac 40 c5 bf 46 a2 0b 43 4e 9b c8 3f
       -0.16603622442538676 0.19223955415442812
0005d0 8e ed 2d 7d 2c 6d 92 3f f2 9d cc 51 67 41 aa 3f
       0.017994589939446075 0.05128023980642728
0005e0 a3 a9 b1 06 b6 85 b7 bf 51 d6 99 c0 45 c7 b4 bf
       -0.09188401854922872 -0.08116565658732468
0005f0 11 d6 47 09 69 50 37 3f 24 64 33 38 ca d1 8f 3f
       0.00035574497567778066 0.015536861267195397
000600 e5 6c 2c f1 61 c8 ce bf 9b 2f 9b 1c c7 ad b8 bf
       -0.24049019123126594 -0.09640163849252163
000610 5d 4f 02 79 ae 58 a0 bf e0 1d 1c 2f 78 5d 8d 3f
       -0.03192658641014987 0.014338435113599723
000620 18 79 48 d0 83 30 c8 bf cc ba 35 5b 9f 93 94 3f
       -0.18898055715630657 0.020094385091790554
000630 1a 19 b3 1a d1 f4 c7 bf da 12 f1 77 8b 39 ac bf
       -0.18715871623698704 -0.055126531974144036
000640 3b 78 9f 60 1e 25 9f 3f b3 db 23 8d 30 23 a5 bf
       0.03041503395785859 -0.04128410075093516
000650 0c 0a 92 a7 93 ed 9d bf ca c8 92 18 65 23 ba bf
       -0.029226595976533473 -0.10210258340774483
000660 a9 2d a4 c8 17 58 84 3f f2 97 dd 34 5a bb b0 bf
       0.00993364888247224 -0.0653587702814489
000670 95 34 c4 9d be c9 bd bf fc 89 07 4a b3 9f 88 bf
       -0.11635962821692865 -0.012023354241084576
000680 91 3a 13 15 21 2f b2 bf e2 66 38 e4 74 42 a7 bf
       -0.07103163494614707 -0.04542889867680146
000690 fb 99 58 53 4c 3c c0 bf da 34 fa a0 b9 06 8d 3f
       -0.12684015340455787 0.01417298338426536
0006a0 88 bc 34 48 73 0e ba bf fd b3 26 16 b0 6b ae 3f
       -0.10178299439279404 0.05941534300232119
0006b0 18 cc 8a 9b 31 42 a4 3f 79 92 ea b5 21 5e c4 bf
       0.03956751846035206 -0.15912267096168245
0006c0 fd 71 64 e0 95 e0 be bf b0 0d ee b2 70 37 be bf
       -0.12061440208749015 -0.11803345077901528
0006d0 f8 a2 d7 80 42 4a bf bf e0 ee 99 b6 b3 a6 d1 bf
       -0.1222268642956229 -0.27579968292387314
0006e0 ed c4 56 d2 1d e6 c8 bf 04 22 1f 95 1a 19 b5 bf
       -0.19452259798484964 -0.08241430416740775
0006f0 f2 23 c0 28 bb 7b c1 bf ef d0 c1 ef dd 46 d0 3f
       -0.13658847322247386 0.2543253747346758
000700 19 b9 2c 14 d2 de bb bf db 3e 29 b8 fd d7 88 3f
       -0.10886872284456607 0.012130720312739587
000710 40 80 cc 07 a2 0e a3 3f 95 16 9e 23 8c 53 ad bf
       0.03722101540756784 -0.057278041217654486
000720 fb 35 6c fd 47 d0 bc bf c8 75 86 3e 0e e8 80 3f
       -0.1125531190593491 0.008255111010664687
000730 a6 9e b9 3c bf 5a c5 bf 2e 5b 4c 19 93 3f a9 bf
       -0.16683187928287174 -0.04931316074196555
000740 57 5c 70 41 d5 c9 ca bf 12 54 39 34 ad 8a cc 3f
       -0.20928445525416592 0.22298207330700898
000750 7d fd 13 87 93 c2 bd bf 12 cb ae 89 23 d1 b7 bf
       -0.11625024841122485 -0.09303495513340135
000760 a5 50 69 f0 43 5c b0 3f 21 0b 00 30 ac 3d b1 bf
       0.06390785808008788 -0.0673472993076243
000770 6d 01 89 f8 2d 57 97 bf 08 49 4d b5 47 10 cf bf
       -0.022793501181014465 -0.2426843295348322
000780 10 ce 5f 15 74 18 b5 bf da 77 a6 a8 93 f8 86 bf
       -0.08240438005287154 -0.011216310104654004
000790 6e d9 8d 00 45 29 aa bf 9c 69 75 24 77 2a 94 3f
       -0.05109611160053161 0.01969324264551063
0007a0 8f 74 5a 94 f0 9d 99 bf bb b1 eb 1b 5e 6e b2 bf
       -0.02501655488469062 -0.07199657613427395
0007b0 01 17 68 f4 d1 2e 95 3f 20 2f b8 99 de 57 92 bf
       0.02068641714324482 -0.01791332066754514
0007c0 2f ba 24 11 a9 7a 31 3f f9 7b 80 7e 27 1a bf 3f
       0.0002667105446957666 0.1214928325502881
0007d0 9e 7a 06 e1 cd 3a b6 3f e8 b1 b1 b4 3a 56 99 3f
       0.08683478111059137 0.02474300124997511
0007e0 e2 f2 01 cc 7f 90 c4 bf 28 a8 3c 52 cf c1 d3 bf
       -0.16065976582822034 -0.3087042143912435
0007f0 7a 04 f4 3d 66 ad a9 3f dc 60 86 ba 78 01 93 bf
       0.05015105730309073 -0.018560301193787918
