Quixx/diffRules/Models/version_4_model_3.pt (torch, 241938 bytes, 11 tensors)

policyHead.0.weight f4 [128, 122]
000000 7a d6 6a bd 7d 4c 62 3d 25 bf 8f 3c 1e 63 be bb
       -0.057333447 0.055248726 0.0175472 -0.0058101555
000010 cb f6 40 bd 6f b6 5a bd 73 69 6d bc 1e 07 28 bd
       -0.04711036 -0.05339664 -0.014490473 -0.041022412
000020 8c 3c 83 bd a1 61 cd 3d 98 d9 3b 3d 9a c4 03 3d
       -0.06408033 0.10028387 0.04586181 0.032169916
000030 4e f7 9a 3d 38 95 89 bd ac 20 0b bd a2 67 83 3d
       0.07566701 -0.06717914 -0.033966705 0.06416251
000040 9f e7 b7 3c 81 e6 ca bc e7 6f 8d 3c f7 ae 60 bc
       0.022449313 -0.024768116 0.017265273 -0.01371359
000050 29 f7 92 3c 70 05 8d 3d 4f 90 6f bd e2 42 2c bd
       0.01794012 0.06885803 -0.058487233 -0.042055972
000060 55 08 8c bd 88 3b ec bd b6 07 e1 3d c9 01 28 bd
       -0.06837527 -0.11534792 0.10987799 -0.041017327
000070 d1 2a e8 3d 08 1b eb ba 45 67 71 3c 67 2e 90 bd
       0.113362916 -0.0017937133 0.014734094 -0.070401005
000080 f3 8e 26 3d 11 5a 35 bd aa 33 04 3e 35 aa 4e 3d
       0.04066367 -0.044275347 0.12910333 0.05045529
000090 e8 c9 6d 3d 94 72 a1 3d ba 6a 24 3c b0 0c 53 3d
       0.05805388 0.07883182 0.010035211 0.05152577
0000a0 7c cb 6b bd b7 fb 96 bc 41 43 f5 3b 6b f4 85 bd
       -0.057567105 -0.018430574 0.007484824 -0.0654076
0000b0 8b b7 a7 bd ad 67 52 bd 26 15 67 3d 35 b8 27 3d
       -0.08189305 -0.051368404 0.056416653 0.040947158
0000c0 f7 94 86 3d 68 8f 82 bd 9d 5a e3 bd 49 d7 f3 3d
       0.065713815 -0.06375009 -0.111012675 0.11906297
0000d0 2b 27 ce 3d 45 06 a7 ba ec 94 44 3d 6e b4 c7 3d
       0.100660644 -0.0012742957 0.047993585 0.09751211
0000e0 7b 46 70 3d 68 98 32 3d a4 74 0a 3c a2 fe 80 3d
       0.058660965 0.043602377 0.008450661 0.06298567
0000f0 8f ce 88 3d 72 fc 1d 3c 51 ac 6e bd af 70 fb 3c
       0.06680023 0.009642707 -0.058269802 0.03069338
000100 c7 60 cc 3d 48 56 91 3d 68 25 28 3d a4 72 9b bb
       0.09979396 0.07096535 0.0410513 -0.004743891
000110 4f e8 dc bc 18 70 c7 bd 28 c6 21 3d 7c 82 a3 3d
       -0.026966242 -0.09738177 0.039495617 0.07983872
000120 8b d3 1d bd cd 01 34 3d df 5b 7a 3d 33 5e 0a bd
       -0.03853182 0.04394703 0.06112277 -0.03378124
000130 02 38 46 bd 03 0c 0e 3c ab 29 df 3b f0 97 2a bd
       -0.048393257 0.008669856 0.006810387 -0.041648805
000140 bb fb 0e 3d ba 93 94 bd 75 ee 32 3d c5 8d 05 bd
       0.034908038 -0.07254739 0.04368444 -0.032605905
000150 07 18 03 bb a2 ee 9a bd 8b ed 6b bd c5 e1 d2 bd
       -0.0020003335 -0.07565047 -0.057599586 -0.10296968
000160 86 14 3c bc 2d 7c 96 3d c1 f6 81 3d 42 24 a1 bd
       -0.011479503 0.073479034 0.06345893 -0.07868244
000170 28 12 27 bd 33 ee 7b bd 1f f0 0c bd 98 bb ad bb
       -0.0407888 -0.06150646 -0.034408685 -0.005301904
000180 36 36 af ba 05 64 04 ba fa d2 28 bc 01 91 f4 3c
       -0.0013367597 -0.00050503045 -0.010304207 0.0298543
000190 ff 0f 57 bd 84 54 35 bd cc 65 a9 bd 59 a6 09 3c
       -0.05250549 -0.044270054 -0.08271369 0.008401477
0001a0 99 07 8f 3d 4f 70 84 bd 93 6e 7a 3d 4f cd b8 3d
       0.06983871 -0.06466734 0.061140608 0.090235345
0001b0 8f af ae 3d 47 e0 29 bd 82 00 91 3d b3 c0 ae 3d
       0.08529579 -0.041473653 0.07080175 0.08532848
0001c0 5d 46 2e 3d b3 ad f4 bb 94 00 84 3d ec 98 f4 bc
       0.042547572 -0.0074669956 0.06445423 -0.029858075
0001d0 05 f6 2e 3c 3f 16 a5 3c 42 70 8f bd 0e 8a 22 3c
       0.010678773 0.02015221 -0.07003833 0.00992061
0001e0 ed ca 29 bd be 8e 2d 3d aa 8e a9 bd a5 6e 88 bc
       -0.04145329 0.042372458 -0.08279164 -0.016654322
0001f0 d5 f7 7a 3d 8a 10 49 bc 73 24 2b 3d 68 2e ab bd
       0.061271507 -0.01227201 0.041782808 -0.08358461
000200 1e db a7 3d e6 5d 40 bd 04 91 ec bc 77 e1 5f 3d
       0.0819609 -0.04696455 -0.028877743 0.05465838
000210 7c c3 9a 3d 69 cd d2 bd 37 d1 23 bd c4 99 5b 3d
       0.07556817 -0.10293085 -0.039994445 0.05361344
000220 ec ef 5d bd 08 86 70 bc 66 58 0d bd fc ea 91 3d
       -0.054183885 -0.014680393 -0.03450813 0.07124898
000230 81 43 e5 bd 09 56 66 3d 3d cf 28 bb 78 e7 d1 3d
       -0.11194516 0.056234393 -0.002575829 0.10249227
000240 26 30 78 bd 48 19 d1 bd 84 fa db bc 97 65 89 3d
       -0.060592793 -0.102099 -0.026852854 0.0670883
000250 ad e8 9a 3d a7 f2 85 3d 40 e0 96 bd 89 73 e5 b9
       0.07563911 0.06540423 -0.07366991 -0.00043764364
000260 74 14 25 3d a4 1c 17 bd 4f 61 23 bd b2 fd 4e 3c
       0.04030271 -0.03689255 -0.039887723 0.012633728
000270 2d 05 08 bb ba 1e 8b bc f8 76 9d bd 33 39 01 bd
       -0.0020755038 -0.016982425 -0.07688707 -0.03154869
000280 1b 33 88 bd 10 75 26 3c 5e e2 a8 bd 37 7f 80 3d
       -0.066503726 0.010159746 -0.08246301 0.06274264
000290 7f 6b b5 bd 8f 24 4a 3d 67 de 85 3d 32 6d a7 3d
       -0.08858394 0.04935127 0.065365605 0.08175124
0002a0 f3 06 e4 bb f5 9a 56 bd 74 3b e8 bd f0 47 7d 3c
       -0.006958836 -0.052393872 -0.11339465 0.015459046
0002b0 7e e1 89 3d 01 d5 94 3d 8c 84 05 3b 1a ae a5 3b
       0.06732462 0.0726719 0.0020373194 0.005056155
0002c0 20 d1 f1 3c b6 1f ae bc 07 ab 84 3b d1 04 76 3d
       0.029518664 -0.021255355 0.0040487084 0.060063187
0002d0 38 5c 03 bb 98 80 3d bc f6 51 36 bc 4a 49 54 3c
       -0.002004398 -0.011566304 -0.011127939 0.012956927
0002e0 36 80 51 3c a6 52 4e 3d 79 fa 07 3d cc 61 85 bd
       0.0127869155 0.05037179 0.033197854 -0.06512794
0002f0 f4 b3 7f bd a2 82 0b bd 9b 58 90 3a 2a d7 74 3d
       -0.062427476 -0.034060128 0.0011012735 0.05977551
000300 a6 df 19 3d ec e8 32 bd 34 68 24 3d ad 91 85 3d
       0.037566803 -0.043679163 0.04013844 0.06521926
000310 bf 05 98 bc 7b a5 d7 3d c2 de 86 3d 32 9a a4 3c
       -0.018557427 0.1052961 0.065854564 0.020093057
000320 28 a3 ac bc ee ff 1b 3d a3 76 cf bd d9 44 30 bd
       -0.021073893 0.03808587 -0.1013005 -0.04303441
000330 ae ea 88 3d ee a5 2a 3d 31 99 ca 3b c9 1b 1e 3c
       0.066853866 0.04166215 0.0061828126 0.009650179
000340 55 c7 02 bc 13 8f c2 bc 87 8e c5 3d 7b ba 3f bd
       -0.007982095 -0.023749864 0.096463256 -0.0468087
000350 f5 fa c7 3b 2b 82 aa 3b 41 39 93 bb 6f 2e 12 bd
       0.0061029145 0.0052035055 -0.004492909 -0.035688814
000360 c8 ed 65 bd 1c a7 98 3d 07 ad c1 bd 38 74 aa bc
       -0.05613497 0.074537486 -0.094568305 -0.02080737
000370 55 23 ee 3c ac 9f 16 3c 56 53 65 bc d9 89 3d 3d
       0.029069582 0.009193342 -0.01399692 0.04627404
000380 e8 75 a0 bb 49 62 f4 3c 74 3d 91 3c e0 66 f7 3c
       -0.004896868 0.029832022 0.017729498 0.030200422
000390 8c 1b 96 3b 5c 53 be 3d 34 7b 07 bb 44 27 8f bd
       0.0045809206 0.09293243 -0.00206728 -0.06989911
0003a0 1e fa d0 3d 45 53 5b 3d 32 c7 df bc 3b 4e eb bb
       0.10203956 0.05354621 -0.027316663 -0.0071809567
0003b0 9e f2 62 bd f8 dd 2a 3d 37 9f 32 3c 4d 63 83 bd
       -0.05540716 0.041715592 0.010902218 -0.064154245
0003c0 37 03 21 bd 66 b7 4c bd 31 2b 63 3d b3 45 21 3d
       -0.039309707 -0.04997959 0.055461112 0.03937311
0003d0 76 bd 94 3c 2f f5 f2 3c af 7d 30 3b 70 fb 52 3d
       0.018156748 0.029657928 0.0026930382 0.05150932
0003e0 d6 5a b1 bd b3 a8 e0 3d 1d c8 85 bd e5 d4 1f bd
       -0.08659904 0.10969677 -0.06532309 -0.03902139
0003f0 de 97 d7 bd e1 d8 7b 3d 82 b9 a9 3c c7 1c 96 3c
       -0.10527013 0.06148613 0.02071834 0.018324269

policyHead.0.bias f4 [128]
000000 27 3a a5 3d d9 47 52 bd cc 51 bf 3d aa 01 86 3d
       0.08067732 -0.05133805 0.093417734 0.06543286
000010 8b 71 74 3b fd d9 29 bc 3f 39 95 bd 0f 73 8f 3a
       0.0037299122 -0.010366914 -0.072863095 0.0010944324
000020 16 79 a2 3c 0a 66 ea 3c dc 6f c5 3c dc 83 89 bd
       0.019833129 0.02861311 0.02410119 -0.06714603
000030 1e 02 e2 3d f3 f8 90 3b 23 c7 a3 3b 2a f5 64 3d
       0.1103556 0.0044242083 0.004998104 0.05589787
000040 b7 38 01 bd dd 0c 92 bc 1c ce b6 3d 93 60 ef bc
       -0.031548228 -0.0178284 0.08926031 -0.029220855
000050 c5 fb db 3d 9c d9 38 3d ee 43 4a bd f3 21 5e bd
       0.107413806 0.045129403 -0.04938119 -0.054231595
000060 39 f9 a2 3c 04 50 37 3d 80 1a 4f 3d 04 fb 8f 3d
       0.01989423 0.044754043 0.05056238 0.07030299
000070 e6 28 37 3c 8c 7c 03 3d be d3 d6 39 39 4e 87 3c
       0.011179185 0.0321012 0.0004097502 0.016516792
000080 d3 43 9e 3d 3b ec 0e 3d a5 c1 1d bd b6 12 bd 3d
       0.0772778 0.034893256 -0.038514752 0.092320845
000090 4d 35 cd 3d 8e 6c b9 3d c1 8a 1d bd f1 da bf 3d
       0.10019932 0.09053908 -0.038462404 0.09367932
0000a0 af 55 74 bd 8c 9c 98 3d 4e c9 16 3d 8e ca d5 3d
       -0.059652027 0.07451734 0.036813073 0.10439025
0000b0 8a dd 37 3d c7 06 50 bd 3c 67 ad bb 65 6f 81 bd
       0.04488901 -0.050787713 -0.0052918475 -0.06320075
0000c0 df ff a6 3d 14 99 ce 3d c6 2c 9e bd cd 24 e0 3c
       0.08154272 0.10087791 -0.077233836 0.027361298
0000d0 e9 39 b2 3d 0f 60 16 3c 4b b5 96 3d 1f dc a0 bd
       0.08702452 0.009178176 0.07358798 -0.07854485
0000e0 f2 50 dd bc db 82 81 bd e6 07 98 3c 53 3e 96 3d
       -0.027016137 -0.06323787 0.018558454 0.07336106
0000f0 91 2f 80 bb a1 5e 39 bd 09 b8 8d bd 87 34 b9 bd
       -0.0039119204 -0.04525626 -0.069198675 -0.09043222
000100 99 dc d2 3d bc b9 34 3d 20 e5 6c bd b3 08 bc 3d
       0.10295982 0.044122443 -0.057835698 0.09181347
000110 7e f6 b7 3d 80 8f b4 3d b6 75 e0 3d 57 3d 25 bd
       0.089825615 0.08816433 0.109599516 -0.0403417
000120 a1 46 9c 3d 40 07 45 3d 9c 42 14 bd bb 03 8c 3d
       0.07630659 0.048102617 -0.036196336 0.06836649
000130 50 2b 1e bd aa 59 71 3d 56 87 b6 3d 30 c7 03 bd
       -0.038615525 0.0589234 0.08912532 -0.032172382
000140 7d 89 62 3d e0 9c f2 3c d5 3e 52 bb be b0 98 3c
       0.0553069 0.02961582 -0.0032080908 0.018638965
000150 66 fb 3a 3d 85 ed 51 bd 15 29 12 bd 27 5a 00 3d
       0.04564991 -0.051251907 -0.03568371 0.031335976
000160 2c 21 f5 3d 2b 31 30 bd 46 38 6d 3d 1d 5d 94 3c
       0.11969218 -0.04301564 0.057914995 0.018110806
000170 d4 c5 df 3c e4 73 0e bd 46 7b 15 3d 6d 3a 6d 3d
       0.027316011 -0.03477849 0.036494516 0.057917047
000180 53 ef aa 3c 94 29 d6 3d b0 2f 0b bd 34 5c 21 bd
       0.020866072 0.10457149 -0.033981025 -0.039394572
000190 78 fa e9 3c b4 bf 84 3d 40 3b 81 3d 38 78 ef 3d
       0.028561816 0.06481877 0.06310129 0.11692852
0001a0 6c a4 b2 3d 5c 93 7a bd 8d 3c 97 bd 92 31 24 3d
       0.08722767 -0.06117569 -0.07384596 0.040086336
0001b0 22 96 43 3d 2b 26 e5 bc 98 43 40 3d 52 f7 68 3b
       0.0477506 -0.027972301 0.046939462 0.0035547805
0001c0 4f f4 52 3d 6e f2 91 bc 77 d0 07 bd c2 3b 7b 39
       0.051502522 -0.017815795 -0.033157792 0.00023959487
0001d0 ce 1c 98 3c 44 3c 32 bd bc 48 b3 3d ef 92 cc 3d
       0.018568423 -0.043514505 0.08754107 0.09988963
0001e0 58 9f c5 3d 7a b8 5d bb bc ce 39 bd c6 67 2b bc
       0.09649533 -0.003383188 -0.045363173 -0.010461753
0001f0 9d 48 70 bd bd 36 a9 3d e1 79 90 3d 41 a0 9f 3d
       -0.058663 0.082623936 0.070544966 0.07794238

policyHead.2.weight f4 [128, 128]
000000 a7 0f 98 bc f3 25 98 3d 74 57 5d 3c 33 96 a9 3c
       -0.018562151 0.07429113 0.01350962 0.020701503
000010 95 ce 24 bd 2f aa 40 bb 3a b1 1c bc a3 cd cc 3d
       -0.040236074 -0.0029398312 -0.0095637385 0.100001596
000020 f1 f4 42 bd 2d 02 ea bc 1a 7b 96 3d 7b 6a c3 3d
       -0.047596876 -0.02856549 0.073476985 0.09541794
000030 f6 cf ab 3d 74 a3 9b 3c 8e eb 76 3d 3c 4a 13 bd
       0.08389275 0.018998839 0.060283236 -0.035959467
000040 5e 7e f2 3d d1 a3 2b 3c 91 28 bf bc 5f 42 dd 3c
       0.11840509 0.010476069 -0.023334773 0.027009187
000050 e1 a6 af 3d 05 ee aa 3d f3 a0 55 bd cc cb 86 bd
       0.085767515 0.0834618 -0.052155446 -0.0658184
000060 62 e7 91 bd f4 ae 00 3c 0e 07 25 3d 6e 0e 1c bd
       -0.07124211 0.007854212 0.04028993 -0.0380997
000070 75 e8 85 3c d5 a8 23 bd ba 00 17 bd 4f cb ae 3b
       0.016346196 -0.039955933 -0.036865927 0.005334295
000080 c5 8e 6f 3d 7a 2f e1 bd c1 4e c0 3c 89 e9 84 bd
       0.058485765 -0.109953836 0.023475053 -0.06489856
000090 24 80 6c bd ae 66 8c 3c 8e e9 cc 3c cc 8e 17 bd
       -0.057739392 0.017138805 0.025013711 -0.037001416
0000a0 e7 85 2f bd df 1e 95 bb c3 56 33 bc 44 9a 15 bd
       -0.04285231 -0.0045507993 -0.010945979 -0.036524072
0000b0 5b 97 fc 3d 12 6a a3 3d b6 8d 94 3d a7 6f 9e 3c
       0.12333556 0.07979216 0.07253592 0.01934035
0000c0 ef 27 6a 3c f2 90 57 bd 48 5a 92 bd b6 0d d4 3c
       0.0142917475 -0.052628465 -0.07146126 0.025885444
0000d0 78 89 a8 bd 90 db e3 3c 28 23 69 3d ad 4a 46 bd
       -0.08229345 0.027814656 0.056918293 -0.04841106
0000e0 45 85 93 bd f5 9f bd 3d 4a f5 67 3d 32 4b e9 bc
       -0.072031535 0.09259025 0.05663041 -0.028478239
0000f0 67 26 a2 3c 8a 3b da bc a3 6a 48 bd db 4a 9d 3d
       0.019793702 -0.026639719 -0.04892982 0.07680293
000100 d7 9f 8a bd b7 53 da 3c 89 a4 27 3d 38 8e 21 bd
       -0.06768768 0.026651246 0.040928397 -0.03944227
000110 59 39 10 3c f9 f0 d6 bc f2 f3 51 bc 05 40 97 3c
       0.008802735 -0.026237952 -0.012814509 0.018463144
000120 ea 01 04 3c 31 c7 c5 3c d6 93 73 3d 65 06 03 bd
       0.008057097 0.024142833 0.05946716 -0.03198852
000130 d8 97 13 3c 3e 91 15 3c a8 8f 74 bd 23 e9 90 3d
       0.00900837 0.009128867 -0.059707314 0.07075717
000140 76 0d 9f 3d b3 09 d2 bc 00 ee 03 bc 28 af aa 3d
       0.07766239 -0.02563939 -0.008052349 0.0833419
000150 28 05 b5 3a 80 9a dd bc 67 d8 cc b9 be 54 3d 3d
       0.0013810741 -0.02705121 -0.00039071144 0.046223395
000160 83 fd 80 3d e1 7e 78 bd fe a7 b4 bd 1e c9 89 bd
       0.062983535 -0.060667876 -0.088211045 -0.06727813
000170 4a ab 2f bd bb 87 3f bd 4d fd 41 bc 60 9f 94 bd
       -0.042887963 -0.046760302 -0.011840177 -0.07256961
000180 30 81 80 3c e1 25 b5 bd 78 17 86 3d 05 07 92 3d
       0.015686601 -0.088451155 0.06547445 0.07130245
000190 c5 4f 9b bd c6 0b 15 3d 70 60 00 3d 60 5e dc 3c
       -0.07583574 0.03638818 0.03134197 0.02690047
0001a0 3e 14 72 bd 6d a9 cf 3d 33 75 b5 3d c8 9c 40 bb
       -0.059101336 0.10139737 0.088602446 -0.0029390324
0001b0 be 8f 28 3d 14 4f a0 3d 05 c2 cc 3d c7 ef 8c 3c
       0.04115271 0.07827583 0.09997944 0.017204178
0001c0 19 34 db 3d b8 11 45 3b af b1 45 3d b5 03 dc bd
       0.10703296 0.0030070376 0.048265155 -0.107428946
0001d0 8e 29 d9 3c c4 c7 6f bc 0c f4 38 3d e9 8f 1f bd
       0.026509073 -0.01463503 0.045154616 -0.038955603
0001e0 49 5b b1 bc 10 ec 86 3d ca 8d bf 3d 90 e0 72 bd
       -0.021649973 0.06587994 0.09353216 -0.05929619
0001f0 dd d2 91 3d a5 0a d4 3d e2 f7 8f 3d 15 14 3b bd
       0.07120297 0.10353593 0.07029702 -0.04567345
000200 d6 26 a9 3d 09 23 63 3c 5b 6b 0b 3c 96 7c 05 bc
       0.082593605 0.0138633335 0.008509482 -0.008147379
000210 af f4 23 3d f9 1e 05 bd 50 a0 3e bc a7 91 90 bd
       0.04002827 -0.03250024 -0.011634901 -0.07059031
000220 e0 c5 87 3d ce b1 93 3d 65 b7 e7 3c 4f 6e 95 bd
       0.066295385 0.07211648 0.028285692 -0.0729643
000230 41 d6 78 3c c6 df ce 3b 59 bd aa 3d c5 f2 b0 3d
       0.015187801 0.006313297 0.083368964 0.086400546
000240 39 6e b9 bd 00 c1 d4 3d 33 50 65 3d 81 c8 44 bb
       -0.090542264 0.10388374 0.055984687 -0.0030026736
000250 a7 81 a2 3d 21 93 8a bd 7f 48 fb bc 97 5d 8b bd
       0.079348855 -0.06766344 -0.030674217 -0.0680496
000260 e9 3c 30 bd be 08 05 3d 2f 38 02 bd bb 6d 25 bc
       -0.04302684 0.03247904 -0.031791862 -0.010096963
000270 1b e9 c5 3d 0b 7e 2a 3c ff 16 69 bd bf e9 10 bd
       0.09663602 0.010406028 -0.056906696 -0.035379168
000280 ed 5f f1 3c 4f 0d b0 bd b7 e9 99 bd 03 69 c4 bd
       0.029464686 -0.085962884 -0.07515281 -0.09590342
000290 3f 50 a0 bc ee db 85 bd 6f 0e a7 3d 07 0f 65 3b
       -0.019569514 -0.06536089 0.0815705 0.0034951584
0002a0 56 62 94 bd dd 84 0f bd ef 05 1f 3d 40 1f 98 bc
       -0.072453186 -0.035038818 0.038824018 -0.018569589
0002b0 fb 45 98 3c eb 26 a8 bd 82 69 97 3c 88 3d 5b 39
       0.018588057 -0.08210548 0.018482927 0.0002090839
0002c0 6c 3e 3b 3d a1 ba 71 3d 51 77 36 bd dd d2 8c bd
       0.045713827 0.059015874 -0.044547383 -0.068761565
0002d0 7f 23 b8 3d c4 c1 7d bd ec 0a 95 3d 73 20 8d 3d
       0.08991145 -0.061952367 0.07277474 0.06890955
0002e0 72 3e 93 bd 36 f5 ee bc 89 c6 ac 3d 93 b3 9f 3d
       -0.07189645 -0.02916966 0.08436305 0.07797923
0002f0 86 02 6e bd 64 3b 78 3d 31 26 8c 3d cd 9f ff bc
       -0.058107875 0.060603514 0.06843222 -0.031204129
000300 79 00 a7 bd 2f bf 79 bd 9b 32 d8 bc a5 ed 14 3c
       -0.08154387 -0.060973343 -0.026391318 0.009089862
000310 de f8 a6 3d 83 8e a0 bd 8b 04 4d 3c d3 4f 83 3c
       0.081529364 -0.07839682 0.01251329 0.016029274
000320 c4 b8 a7 3d 53 5e da 3c 3d 87 88 bd c9 2d 38 3d
       0.08189538 0.026656305 -0.0666642 0.04496554
000330 c4 4c cd 3d 0a ea 3a bb 06 6c 88 3c ac d0 8f 3c
       0.100244075 -0.0028520846 0.016653072 0.017555557
000340 fc 4c 3b 3d 03 62 b0 bd 74 c4 95 3d 75 d1 15 3d
       0.045727715 -0.08612444 0.07312861 0.036576707
000350 f2 cc 02 3d a1 d6 4d 3d 92 20 14 bd b7 d7 15 bc
       0.031933732 0.050253514 -0.036163874 -0.009145669
000360 17 d2 90 bd 43 3c ba bd 0a fd 4b bc b6 50 9d bd
       -0.070713215 -0.09093525 -0.012450466 -0.0768141
000370 a7 13 39 bd 07 ad df bd 2e 9d 83 bc 66 17 03 3c
       -0.045184758 -0.10921674 -0.01606616 0.008001184
000380 88 5b 06 bb ad 19 08 3d 26 af e9 3c 65 15 05 bd
       -0.0020501334 0.03322761 0.0285259 -0.032491107
000390 6c 94 9e 3d 42 f3 90 bd 7b df 14 3c 0b f8 8d 3d
       0.07743153 -0.07077648 0.009086485 0.06932076
0003a0 2d 5c 60 bd 34 26 f2 bb 3b 3b 14 3d b1 d8 ab 3d
       -0.054775406 -0.007389808 0.0361893 0.0839094
0003b0 dd 0f 37 3d f4 25 32 3d bf 20 a5 bd de 0d c4 3d
       0.044692863 0.043493226 -0.080628864 0.095729575
0003c0 78 e0 9e bc cb c1 b2 bd 3d c3 60 3c 87 0c 74 bd
       -0.019394144 -0.08728369 0.013718423 -0.05958226
0003d0 8d 92 b5 3c c4 53 fb 3b 7e 8a 6f 3c 60 a6 a5 3d
       0.022164607 0.0076698978 0.014620421 0.08088374
0003e0 2f da 11 bb de 8c 8e 3d 35 80 17 bd a2 70 4e 3d
       -0.0022255292 0.06960462 -0.036987502 0.050400384
0003f0 2c df f9 bb b6 37 64 bd 91 f4 5d 3d d2 6b 88 bc
       -0.007625481 -0.055717193 0.054188315 -0.016652975

policyHead.2.bias f4 [128]
000000 6f 4f 88 bd f3 87 47 ba 73 3d 7b 3d 48 1d 72 3d
       -0.06655776 -0.00076115056 0.0613379 0.059109956
000010 3b 88 79 3c fa b5 ad 3c 70 05 6f 3d df 32 43 bc
       0.015230234 0.021204937 0.058354795 -0.011913984
000020 d1 56 69 bd 55 d4 9a 3d 78 01 e7 bc 49 b9 9f bb
       -0.05696756 0.0756003 -0.028198943 -0.0048743826
000030 17 29 9f 3d 26 c0 33 bd a3 2d 2f bd 5e 30 c7 3b
       0.07771509 -0.04388442 -0.042768132 0.006078764
000040 7e 45 b6 3d 45 1e e1 bc e3 a6 8a 3d 74 00 9a 3c
       0.08899973 -0.027480254 0.06770112 0.018799044
000050 cf dd 85 3c ed a3 16 bd aa 05 9e bc 2b 3e 9d 3c
       0.016341118 -0.036777426 -0.01928981 0.019194683
000060 25 51 95 3c 17 1b 86 3c 0d 79 5d 3c 62 e5 31 bd
       0.01822717 0.01637034 0.01351763 -0.043431647
000070 8d b4 57 3d 7d 43 a3 3c 70 72 27 bc 2a 21 7b bc
       0.05266242 0.019929642 -0.010220155 -0.015327731
000080 33 43 13 3d d5 76 97 3d e9 7a 1c bd 56 96 da 3c
       0.035952758 0.07395712 -0.038203154 0.026683014
000090 91 aa 93 3c 89 a5 91 3d 0d c6 a1 bd 4c bb aa 3d
       0.018025668 0.071116515 -0.07899103 0.08336505
0000a0 07 7c 21 3d 94 16 d0 3b 62 6b a3 3c 58 fe 6f bd
       0.039424922 0.006350348 0.019948665 -0.05859217
0000b0 40 c9 0a bc 5e d5 b9 bd 55 51 ee bc 39 f9 6b 3d
       -0.008470833 -0.090739 -0.029091517 0.057610724
0000c0 e6 39 c6 3d 69 52 3f bc 7a ac b8 3d 35 8a 42 3d
       0.09679012 -0.011677363 0.09017272 0.047495086
0000d0 2f e8 e4 3c af 6c 85 3d 7e 3e 27 3d b3 1a a5 3d
       0.027942745 0.065148704 0.04083108 0.08061733
0000e0 f6 71 a8 bc 52 af 67 3d 23 a8 cd 3c 27 36 54 3d
       -0.020562153 0.056563683 0.025104588 0.051809456
0000f0 42 75 11 bd 0f db c0 bc 99 bf 54 3d 69 2f b1 bd
       -0.035512216 -0.023541955 0.051940534 -0.08651621
000100 c5 24 b7 3b bf b5 51 bd 6d ec e9 3c c8 2c 43 bd
       0.0055891 -0.051198717 0.02855512 -0.04765013
000110 63 8c 90 3d 42 4a fb bc 47 c8 01 3c 5c 20 ad 3c
       0.07058027 -0.030675057 0.007921285 0.021133594
000120 13 36 2b bd 7f ca c8 3d ad 30 86 3d 01 26 af 3d
       -0.041799616 0.09804248 0.06552253 0.085521705
000130 40 c8 49 3d 44 f3 aa 3d e0 c3 b3 3d 90 99 ae 3d
       0.04926324 0.083471805 0.087775946 0.085253835
000140 30 da e7 3c af 2c 11 bd fd 97 4e bd d7 6b 52 bd
       0.028302282 -0.035443004 -0.050437916 -0.051372375
000150 6f e7 33 bd 14 94 16 bd ad f8 9c bd 48 30 bc 3d
       -0.043921884 -0.036762312 -0.07664619 0.091888964
000160 0a 63 6c 3c 20 c2 8a 3c 5e 94 cb 3c fb 3b 61 bd
       0.01442791 0.01693827 0.02485102 -0.054988842
000170 86 31 e3 3d 42 aa 5a bd 46 9f b5 3c 3c bb df bc
       0.1109343 -0.053385027 0.022170674 -0.02731096
000180 b4 64 f9 3b 66 4e b4 bb b0 f7 a3 3d 6c 46 03 3e
       0.0076108817 -0.00550251 0.08006227 0.12819833
000190 fb 50 9b 3d 4a 4a cd 3d 38 fe 80 bd 11 6b 8a 3c
       0.07583805 0.10023935 -0.062984884 0.016896756
0001a0 69 53 1b 3d 3e 7a 62 bd df 24 86 3d 46 ec 57 3b
       0.037921343 -0.05529236 0.06550001 0.0032947226
0001b0 72 53 80 3d 9a 6f b4 3a 4e e0 1c 3d 8f e5 2c 3c
       0.06265916 0.001376617 0.03829985 0.010552778
0001c0 82 11 1c 3d 30 b8 12 3b 45 ef 83 bd 11 89 95 3c
       0.038102634 0.0022387616 -0.064421214 0.018253835
0001d0 77 86 23 3d 13 83 db 3c 0f 0a a0 3b d7 80 29 3d
       0.039923158 0.0267959 0.0048840116 0.041382637
0001e0 13 c6 83 bd ba f2 02 3d 91 bd 86 3d 2d 28 2a 3d
       -0.06434264 0.031969763 0.06579126 0.04154222
0001f0 73 6e ac 3d 84 e4 4d 3c b3 0f b6 3d 1b d1 6e 3d
       0.08419504 0.012566689 0.08889713 0.058304887

policyHead.4.weight f4 [23, 128]
000000 1e 85 6b 3c d3 75 c7 bd 9c 9d 02 3c 3a 5b b3 bd
       0.014374999 -0.0973927 0.007972147 -0.087576345
000010 f7 58 d8 3b e5 57 39 bd cf a6 c7 3c f5 f0 4e bd
       0.0066024023 -0.04524984 0.024371533 -0.050522763
000020 23 6d 1d 3d ac 53 40 bc 81 f7 c5 bd b0 f1 23 bd
       0.03843416 -0.011738699 -0.09666348 -0.040025413
000030 e3 92 69 bd 47 94 1a bc 99 2f ce 3d 83 d4 dc bb
       -0.057024848 -0.009434766 0.10067672 -0.0067392006
000040 54 dd 81 bd a6 91 b0 bd 4b 06 52 3d 4f b7 2b 3d
       -0.06341043 -0.0862153 0.051275533 0.041922864
000050 ba 53 fd bc 11 cc 1e bd 64 0e 81 bd 44 a7 17 3b
       -0.030923713 -0.03876883 -0.06301573 0.002314047
000060 37 3e 96 bd 4c 52 52 3d 47 87 14 3c 92 00 2b 3d
       -0.07336085 0.051348016 0.009065456 0.04174859
000070 2c 3c 34 bd c9 b8 03 bd 37 73 21 bc dd d2 24 bd
       -0.044002697 -0.032158647 -0.0098541295 -0.040240157
000080 ec f1 20 bd 3a 02 d1 3c 2e df 0d bd 23 79 4f bd
       -0.039293215 0.025513757 -0.03463667 -0.050652634
000090 81 0c 86 3d e9 b6 57 3b c1 d2 11 3d b5 27 e1 3d
       0.06545354 0.003291542 0.03560138 0.10993902
0000a0 6e 9c 52 bd a5 49 00 3d 0a 7c 7d bd 2b d2 2b bd
       -0.051418714 0.031320233 -0.06188587 -0.04194848
0000b0 8b 33 e4 3c 8a dd d1 bd 66 4f db bc 71 44 66 3c
       0.027856609 -0.10247333 -0.026771259 0.014054404
0000c0 90 92 9b bc 12 36 71 3d 0f 63 68 3d 4f 9e a4 3c
       -0.018990785 0.058889456 0.056735095 0.020095019
0000d0 88 7f 36 3d d3 fc 45 3d 41 fa 83 bd ca 6e 2d 3d
       0.044555217 0.048336815 -0.064442165 0.042341985
0000e0 b0 1b 5c bb fd 6d 51 3d a1 37 3f 3d 0d 7e b4 3d
       -0.003358584 0.051130284 0.04668391 0.08813105
0000f0 e1 65 b9 bd 10 57 8c bd 47 ba 6d 3c 67 17 17 bd
       -0.09052635 -0.06852543 0.014509744 -0.036887553
000100 ad 7e 8c bc 34 f5 11 3d f5 1f 56 3d ea 00 8f bd
       -0.017150247 0.035634235 0.05227657 -0.06982596
000110 14 75 bc 3d ca 5b ed 3d f9 53 63 bd 2a d1 3a 3c
       0.092020184 0.11589773 -0.055500004 0.011402408
000120 cd c2 95 3d 7c 58 52 3d ec ed 64 bc c6 ef 40 3d
       0.07312546 0.051353917 -0.013972741 0.047103666
000130 70 8f b4 3d 66 97 a7 3b ea f5 a7 3d cf 76 73 3d
       0.08816421 0.0051144836 0.08201201 0.059439477
000140 e6 8d ac bd 81 7f f7 bc 94 cc 56 bd 3e 3a 80 bd
       -0.084255025 -0.030212166 -0.052441195 -0.06261109
000150 c9 57 2c bd 92 7a 51 3d c6 02 5e bd 40 ce 05 bd
       -0.042075906 0.051142283 -0.054201864 -0.0326674
000160 92 bc c5 bc 9d eb 78 bd bf 23 ad 3c 43 8f 60 bd
       -0.024137769 -0.060771573 0.02113521 -0.054824125
000170 6a 65 39 3c d6 4e c7 bd 41 80 a1 3a f1 61 8b bc
       0.011315683 -0.09731834 0.0012321548 -0.017014476
000180 c1 29 ef 3b e9 51 4b 3c b6 a6 39 3d 4a 07 11 3c
       0.0072986786 0.012409666 0.045325004 0.0088518355
000190 dc 9f ba 3d ee 8c c7 3c 12 5f fe bc 1b 22 b7 3d
       0.09112522 0.024359193 -0.031051192 0.08942052
0001a0 05 03 9c bd fe f7 8e 3b a4 eb 6c bd c9 a5 ee bc
       -0.076177634 0.004363059 -0.057841912 -0.029131787
0001b0 e0 e0 a5 bb a6 f4 a5 3d 3d 4a 1e bd 80 12 f7 b8
       -0.0050622076 0.081033036 -0.038645018 -0.00011781324
0001c0 d5 8e a2 bc 14 be a3 bd aa 45 1d 3c 7a 32 b3 3d
       -0.019843498 -0.07995239 0.009599129 0.08749862
0001d0 04 61 c8 3c 86 14 36 3d 20 9f bf 3d 95 3e c6 bd
       0.024460323 0.044453166 0.093565226 -0.09679905
0001e0 61 1e 9b 3d c7 66 02 3c 71 dd 88 bd 84 34 67 3d
       0.07574154 0.007959074 -0.066828616 0.056446567
0001f0 a4 c4 d3 3d 3c 2c af 3d cc 37 87 3c ed 86 0a bd
       0.103402406 0.08553359 0.016506098 -0.03382008
000200 3d a6 2a 3d ec 9a 88 3c 76 d9 bf bc 07 d3 c6 bd
       0.041662443 0.016675435 -0.023419123 -0.09708219
000210 d8 01 02 3d 6b c6 27 3d c9 6b 64 3d da 25 36 bd
       0.03174004 0.04096071 0.055766854 -0.04446969
000220 b9 5b 65 3d 5c 32 c0 bd cf 77 26 3d de 6d 42 3a
       0.055995677 -0.09384605 0.040641602 0.0007416884
000230 48 6a a8 3d e8 65 1e 3c 52 a4 f9 3c 74 9c 52 3d
       0.082233965 0.009667851 0.030473862 0.051418737
000240 03 d1 96 bd ac 60 43 3d fc c7 a3 3c 10 b9 33 3c
       -0.073640846 0.047699615 0.01999282 0.010969415
000250 35 d2 72 bd b5 a4 00 bd 95 48 51 bd 68 66 12 bd
       -0.0592825 -0.031407077 -0.05109461 -0.035742193
000260 34 04 84 bb 50 78 ff bd f9 63 99 bd 7b 13 ba bc
       -0.0040288214 -0.1247412 -0.074897714 -0.022714367
000270 15 8f 55 3d 71 f4 08 be 1b e5 81 bd 5f 6f aa 3a
       0.052138407 -0.13374497 -0.063425265 0.0013003162
000280 bd 22 4a bd 7e 0c 98 3d 67 15 83 3c 74 86 8e 3d
       -0.049349535 0.07424258 0.016001416 0.06959239
000290 41 66 13 3c 44 9f 00 bc 02 d4 ab bd 1a 30 15 3c
       0.008996547 -0.007850472 -0.08390047 0.009105707
0002a0 df 97 fb 3c 60 eb 39 bd 81 91 68 bd 11 34 a1 bd
       0.030712066 -0.045390487 -0.05677939 -0.07871259
0002b0 76 6d ac bc 2c e1 13 bc e7 5e 9c bd 00 12 17 bd
       -0.021048289 -0.009025853 -0.07635289 -0.0368824
0002c0 1b 57 92 3d 3e 20 9e 3d da 91 03 3d 96 d3 b9 3d
       0.0714552 0.077209935 0.032121517 0.0907356
0002d0 07 af 94 bd a7 21 90 bd 10 5c cd bd e6 16 56 3d
       -0.07259946 -0.07037669 -0.10027325 0.05226793
0002e0 ef c3 82 3d 61 d1 16 bc 82 71 7c 3d 4f 5f 52 bd
       0.063850276 -0.009205193 0.061631687 -0.051360425
0002f0 ed f0 c2 bc 41 42 a5 ba 2a 5a 52 3d 94 2d 38 bc
       -0.023796523 -0.0012608246 0.05135552 -0.011241335
000300 05 8b 5f bd 6a f1 41 bd aa a6 74 3b b2 a6 25 bb
       -0.05457594 -0.04734937 0.0037330785 -0.002527636
000310 d7 6a e2 3c 49 52 88 3d 88 0f b0 3d 2f 98 dd bc
       0.027638836 0.0665632 0.08596712 -0.027050106
000320 f7 39 23 3d 53 ba b0 3d e1 33 8f bc 1a 8f ea bc
       0.0398502 0.086292885 -0.017480792 -0.02863269
000330 99 ae be 3d 46 86 85 bd 19 d1 0d bd 88 c1 84 bd
       0.093106456 -0.06519751 -0.03462324 -0.06482226
000340 6d 61 d7 bd 1a 84 ea 3d d5 e5 63 3d e9 0c 47 3d
       -0.10516629 0.114509776 0.055639107 0.048596296
000350 84 df 04 bd 21 5b 3d bd fa 58 9f bc c4 2c f8 3d
       -0.032439724 -0.046229485 -0.019451607 0.12117913
000360 fb 2a c8 3c c0 08 64 3c c6 ef 8c bd 82 05 61 bd
       0.024434557 0.013918102 -0.06881671 -0.054936893
000370 68 f0 2a bd e7 85 5b bd c7 dd 2a 3d d9 ff 7a bc
       -0.041733176 -0.053594496 0.04171541 -0.015319788
000380 5a cf 8a 3d 8d ec 16 bc da 2a 99 3c 95 fa ad bd
       0.067778304 -0.009211672 0.018697191 -0.0849506
000390 b8 b2 a6 bd 0f 28 6f bd 0f eb b1 3d 08 96 36 3c
       -0.08139557 -0.058387812 0.08687412 0.011144169
0003a0 f3 00 56 bd cc bb 47 3c 2b 6a 57 3d 55 73 1c bc
       -0.052247 0.01219077 0.052591484 -0.009548982
0003b0 33 20 0d bd b0 65 e1 bd 6a 78 b7 bd ba e6 56 3c
       -0.034454536 -0.110057235 -0.08958514 0.013116533
0003c0 11 fa 2f ba e5 3e e1 bc 5e 1c cd 3b fc ba ab 3a
       -0.0006712983 -0.02749581 0.006259485 0.001310199
0003d0 9d d4 21 3d e9 71 87 bc fa bb 87 3d 93 bb d9 bd
       0.039509404 -0.016533809 0.066276506 -0.1063148
0003e0 88 d7 0e bc fa 69 f8 bb 9f 49 64 bd 85 56 fe bc
       -0.008718379 -0.0075809928 -0.055734273 -0.031047115
0003f0 83 b0 a6 3d 1a f6 9c 3d 32 52 e5 bd 8b c1 66 3b
       0.08139136 0.07664128 -0.11197318 0.0035210575

policyHead.4.bias f4 [23]
000000 13 c2 87 3d 4d d3 b5 bd 56 63 93 3d c2 79 0a 3d
       0.066288136 -0.08878193 0.07196681 0.033807524
000010 9c f8 54 3d 7f 57 1d bd 60 61 7d 3d 5f 26 ad 3c
       0.051994905 -0.03841352 0.061860442 0.02113646
000020 1b 19 fa bb 20 57 00 bd b4 11 a5 bd 11 2b fe 3c
       -0.0076323873 -0.03133309 -0.08060017 0.031026395
000030 99 12 84 bd 4b d6 95 3d 85 41 60 3d c6 6e 46 3c
       -0.0644886 0.07316264 0.054749984 0.012111371
000040 ea 66 58 bd 75 7f 1b bd fc e6 30 3d d3 24 93 3d
       -0.05283252 -0.03796335 0.043189034 0.07184758
000050 1d fa c9 bb cc d6 cf bc 56 8a 06 3d
       -0.006163849 -0.025370978 0.03284677

valueHead.0.weight f4 [128, 122]
000000 14 d7 88 bd 86 6a 64 3d 1e 90 80 bd 6c e0 48 3d
       -0.06681648 0.05576565 -0.06277488 0.04904215
000010 99 f0 16 3d 37 6e cf 3d 40 ea 25 be e1 57 db bc
       0.036850546 0.10128444 -0.1620264 -0.026775302
000020 5e a9 cf 3d cb f1 af bd 50 82 8e 3d 08 f5 3b 3b
       0.10139726 -0.0859104 0.06958449 0.0028679986
000030 90 0c 2c be 9a 81 9f bd 73 a2 16 bd 8e c3 24 3d
       -0.16801667 -0.077883914 -0.036776017 0.040225558
000040 8c e1 0d bd 93 59 18 3c 0b 02 59 3d 9a 2d a0 3c
       -0.034638926 0.0092987 0.052980464 0.019552995
000050 3d 35 7a bd 53 89 a2 bd 4a f9 8a 3d b0 2a ed 3d
       -0.06108593 -0.07936349 0.06785829 0.115804076
000060 7b a1 bf bd ad 54 7a 3d a0 6b 80 bd b7 99 80 bd
       -0.09356972 0.06111591 -0.06270528 -0.06279319
000070 8b 34 bf 3d b6 24 82 3d 9e 26 83 3c ad 85 5d 3c
       0.09336194 0.06354658 0.016009625 0.01352064
000080 6f 76 57 bd 5c c1 8d bd ad 61 28 bd 8b 9e 41 bd
       -0.05260318 -0.06921646 -0.041108776 -0.04727034
000090 51 f9 b2 3c f3 6f 45 3d 8a d4 77 bd df 1a 93 bc
       0.021847399 0.048202466 -0.060505427 -0.01795715
0000a0 d8 06 20 bc 4c 2d c0 bd 68 c4 98 bd 6c 2f 09 bc
       -0.009767257 -0.0938364 -0.074593365 -0.008373123
0000b0 08 13 ac 3c b9 82 6c 3d e1 65 3b 3d fc 4e 93 3d
       0.021005169 0.057741854 0.045751456 0.071927994
0000c0 3f d7 b1 3c 68 fb 4f bc 50 c1 2d 3d 5a 87 af bd
       0.021709083 -0.012694217 0.042420685 -0.08570738
0000d0 18 c3 c9 bc c6 cc b0 bd 98 98 09 bc 19 fc b4 bd
       -0.02462916 -0.086328074 -0.008398198 -0.08837146
0000e0 ea cb 77 3d d9 89 03 3d c8 eb aa 3c 93 2d 25 3d
       0.060497202 0.032113884 0.020864382 0.040326666
0000f0 1d 87 60 bd 2e 1e 89 bd ec 3f b0 bd 7a e9 0a bd
       -0.054816354 -0.066952094 -0.08605942 -0.033914067
000100 b1 8a d0 ba c4 0a 73 bd 40 d1 9e 3d fa 8c 25 3c
       -0.0015910474 -0.05933644 0.07754755 0.010104412
000110 f9 34 b4 bd 0b b5 56 bd ba 43 2b bc 5a 17 38 bd
       -0.08799166 -0.05241875 -0.010453159 -0.044944145
000120 43 9c 2a bd 92 bd 23 bd 2c 17 8a bd db a7 82 bd
       -0.04165293 -0.03997571 -0.06742701 -0.06379672
000130 95 4b 11 3d a7 28 7a bd 10 d5 40 bd f8 61 a2 bd
       0.03547247 -0.061073925 -0.047078192 -0.07928842
000140 3a 41 8d bd e0 97 bb 3d e0 2f aa 3d 7b cb 8c 3d
       -0.068972066 0.09159827 0.08309913 0.06874748
000150 f5 39 1e bd e8 fa 30 3d 2f 2c 74 3c 04 c3 db 3d
       -0.03862949 0.043208033 0.014903112 0.10730556
000160 84 6e 79 bd 9f d5 b4 3d 70 b7 28 bd f7 0d 8b 3d
       -0.06089641 0.088298075 -0.041190565 0.06789773
000170 15 ea 97 3d 90 49 39 3d 0e 57 21 3d 68 55 30 3d
       0.074176945 0.04523617 0.039389662 0.0430502
000180 15 ed c2 3d a1 3d 08 3c 61 98 b7 bd e9 2b a8 3d
       0.09517876 0.008315475 -0.08964611 0.082115
000190 65 1b 72 bd 8e bf c3 bd e5 70 c2 bd 2f 5b 95 3c
       -0.059108157 -0.095580205 -0.09494189 0.018231956
0001a0 3a 80 51 3d 6b 58 2f bd b8 e7 46 3d 75 40 72 bd
       0.051147677 -0.04280893 0.048560828 -0.059143502
0001b0 b8 d1 11 bd 59 21 c4 bd 2a f3 59 3d 69 11 b5 bc
       -0.035600394 -0.09576673 0.053210415 -0.022103028
0001c0 92 61 6a 3c 51 84 81 3c 0c 03 be 3d 36 62 5f bd
       0.014305489 0.015810164 0.09277925 -0.05453702
0001d0 86 1f 81 bd 1a 67 b2 3d 97 54 b1 3c b2 96 80 39
       -0.06304841 0.08711071 0.02164678 0.0002452634
0001e0 27 df 78 3d e5 4d d4 3d 56 1c dc bd 14 b9 e2 3d
       0.06075969 0.1036642 -0.10747592 0.11070457
0001f0 5a 2f a4 bc ae 75 4d 3b 53 3a a7 bd 78 6d f5 3d
       -0.02004211 0.003135066 -0.08165421 0.1198377
000200 c1 2c 25 bd 2e 19 50 bd 83 0e a6 3c 54 21 c6 bd
       -0.040325884 -0.050805263 0.020270592 -0.096743256
000210 8c 1f bd bc 10 9d ac 3c 31 97 1d bd 6c 02 fa 3d
       -0.023086332 0.021070987 -0.038474265 0.12207493
000220 0c 4d f1 3c b9 cd eb bc 32 9c 05 3d d9 e8 08 3d
       0.029455684 -0.02878462 0.032619663 0.033425186
000230 76 8c 53 3d 18 88 ae 3d d4 5d 06 be 48 a3 94 3c
       0.051647626 0.085220516 -0.1312173 0.018144265
000240 5c 82 3f 3d 6f cd 7d 3d 50 47 b3 3d 02 44 5a bd
       0.04675518 0.061963495 0.08753836 -0.053287514
000250 6a 92 7c bc 43 0a c6 3a 7b 6f bf bd 59 e5 de 3c
       -0.015415767 0.0015109259 -0.09347435 0.02720897
000260 b6 6e 83 3d d6 77 cf bd 38 53 2d bd 44 5c 7a 3d
       0.06417601 -0.10130279 -0.04231569 0.061123148
000270 45 74 53 3c 7f 74 85 bd 89 c8 8c 3c 6b 9f a3 3c
       0.012906139 -0.065163605 0.017185466 0.019973477
000280 5c 1b 7d bb 52 a9 8f 3d 5c 13 3c 3d b6 8c 15 bd
       -0.0038621044 0.07014717 0.0459169 -0.036511146
000290 7b 64 fd 3c 38 db ab bd a3 8d bd 3c 85 78 92 bd
       0.030931702 -0.08391422 0.023138827 -0.071518935
0002a0 ae 28 6a bd e2 7c ee bb 58 db fd 3c ae 5b 64 3d
       -0.0571677 -0.007278071 0.03098838 0.055751495
0002b0 58 f5 49 3d 6d 13 83 3c a9 a6 6c bc da 16 ac bd
       0.049306244 0.016000474 -0.014444032 -0.08402796
0002c0 94 d2 b9 bd 51 08 c5 3c 0f 9f b9 3d 28 bd 39 bd
       -0.09073368 0.024051817 0.09063541 -0.04534641
0002d0 70 88 54 3d 33 c6 86 bc 34 b7 58 3c b9 e9 8b 3d
       0.05188793 -0.01645193 0.013227273 0.068316884
0002e0 81 25 98 bb 8b 90 ea 3c 82 e8 4f bb dd ea b4 3c
       -0.0046431427 0.028633377 -0.0031724279 0.022084648
0002f0 db 2b 1d 3c d9 b7 e2 3c 4e d9 26 3d dc 89 29 3c
       0.0095929755 0.027675556 0.04073458 0.01034781
000300 9d d4 ae bd 0c 56 94 bd bd c9 9c 3d df b8 f8 bd
       -0.085366465 -0.07242975 0.07655666 -0.12144636
000310 d6 77 60 bd 2a 60 2e bd d7 da 0d 3c 93 a8 e6 3c
       -0.054801784 -0.042572178 0.0086581325 0.028156554
000320 68 b3 64 bd 1e a8 8e bc 1e 7a a8 3d 85 2c 80 3d
       -0.055835158 -0.017414149 0.08226417 0.062584914
000330 8a 06 41 3d fa f3 84 3d 3a d8 d8 bd f4 1d 08 3d
       0.047125377 0.06491847 -0.10588117 0.03323169
000340 3b b5 76 3d f6 43 76 3c 89 a3 c5 3d 05 eb ac 3d
       0.06023143 0.015030852 0.096503325 0.08443264
000350 1d 4f 4f bc 9a fc 90 3d a0 47 c7 3c 1e f3 72 bc
       -0.012653139 0.0707943 0.024326146 -0.0148284715
000360 43 60 ef 3d d7 88 63 3d d2 f1 1a bc 05 b7 48 3d
       0.11688282 0.055550423 -0.0094570685 0.049002666
000370 28 4d d2 3c 32 81 a0 3d bc ce 81 3c 19 c4 41 3d
       0.025671557 0.07837142 0.015845649 0.047306154
000380 77 29 c6 3d 59 c9 3d bd a4 fd bf 3d 59 6b 50 bd
       0.096758775 -0.0463346 0.0937455 -0.050883625
000390 17 f9 49 3d 2a 07 83 bc bc 48 03 bd 05 ed a8 3c
       0.049309816 -0.015994627 -0.032051787 0.020620832
0003a0 32 37 4b 3d 99 0e b6 bd c7 d2 d9 3a 51 db af 3d
       0.049613185 -0.08889503 0.0016618603 0.08586753
0003b0 96 d4 a1 bc c2 74 b7 bc 2f ed 23 bd 6e ce b6 bd
       -0.01975469 -0.022394542 -0.040021118 -0.08926092
0003c0 c5 0f a3 3b c3 1e 4b bd 3d ff 8f bd 9b 4e 81 bd
       0.004976245 -0.049589884 -0.07031105 -0.06313821
0003d0 32 c5 4d 3d b1 c3 af 3d aa 1b 1e ba 00 3e 53 3d
       0.05023689 0.08582247 -0.0006031344 0.0515728
0003e0 05 18 2f 3d 00 0e ed bd 4a ac c7 bd c7 08 11 3d
       0.042747516 -0.11574936 -0.097496584 0.03540876
0003f0 4a 0f 8c bc 3e be 26 bd e4 87 52 3c 77 f5 bd bd
       -0.017097134 -0.040708773 0.012849782 -0.09275334

valueHead.0.bias f4 [128]
000000 c9 2a a9 3d 87 1e 1e 3c 8c e0 2b 3d a9 2a 49 3d
       0.08260114 0.009650833 0.04196219 0.04911295
000010 35 a5 79 3c df a8 c3 bc e8 15 4d b8 4a 21 ae 3d
       0.015237142 -0.023884235 -4.889621e-05 0.08502443
000020 77 cb 09 3c 82 6c fb 3c 0c f0 10 bd a7 bd af bd
       0.008410326 0.030691389 -0.035385177 -0.08581095
000030 fd 84 a4 3d 02 cd 90 bd a0 88 98 3d 16 5c 3d 3d
       0.08033178 -0.07070352 0.07447934 0.046230398
000040 62 cb f9 bb 9c 24 34 3c 18 39 3a 3c 15 d3 32 bd
       -0.007623122 0.0109950565 0.011366151 -0.043658335
000050 ff e7 f5 3c bf 8e 19 3d 6d a9 41 bd ba 78 1f bd
       0.03001785 0.03748965 -0.047280718 -0.038933493
000060 90 ba b3 bc b2 c6 53 bd 29 70 76 3c 31 b8 c9 3d
       -0.021939546 -0.051703162 0.0150413895 0.09849585
000070 a6 05 45 bd c9 10 99 bd 63 c1 ab bd 89 ad b2 bd
       -0.04810109 -0.07473905 -0.08386495 -0.087245055
000080 ed a6 bc 3d c0 3b 90 bd 52 e2 71 bd a1 8e 97 bb
       0.09211526 -0.070426464 -0.059053726 -0.004625157
000090 a5 16 6f bc ba fd 45 bd e4 1e 7a 3c 80 23 f7 bc
       -0.014592801 -0.048337676 0.015266154 -0.030168295
0000a0 98 b8 c7 3c f8 84 60 bd b4 68 f2 bc f8 dd 74 3b
       0.024380013 -0.05481431 -0.029590942 0.003736375
0000b0 e1 2a 45 bd d0 ad 4e bd 47 3b 7f bd bb d5 b2 3d
       -0.048136596 -0.05045873 -0.06231239 0.08732172
0000c0 43 fe 37 bd 87 21 6c 3d 59 0e 5e 3d e5 60 4b bd
       -0.044920217 0.05764916 0.0542129 -0.049652953
0000d0 ee bc 24 bb b7 9a 7b 3c 56 89 57 bd 21 01 95 3c
       -0.0025137025 0.015356711 -0.052621208 0.018189015
0000e0 30 f3 8a bd b3 d3 a9 3d 18 e9 3d 3d 24 46 09 3d
       -0.067846656 0.082923315 0.046364874 0.033514157
0000f0 7b 6d ab bd af 73 c1 3d e1 3a c8 bc 12 d8 13 3d
       -0.08370491 0.09445893 -0.024442138 0.036094733
000100 3e 36 bd 3b f9 15 6d bc b4 62 6d 3c 77 1d 8e bc
       0.0057742884 -0.014470571 0.014488865 -0.017348034
000110 33 14 03 bd 6f 0c 9b 3c 0e f6 eb bc d7 5c 8e 3b
       -0.032001685 0.018926827 -0.028803851 0.0043445635
000120 37 45 a6 bd e0 c1 9f bd e6 8b e7 bc 8f 4b 93 3d
       -0.081186704 -0.078006506 -0.028264951 0.07192146
000130 5a 85 73 bd e0 64 c2 bc 0f 5d 6a bd e0 c5 83 bd
       -0.059453346 -0.023729742 -0.057217654 -0.06434226
000140 a1 7f 9b 3d c4 b3 df 3c 15 6c 8f bd 7f 1d 2c 3d
       0.07592703 0.027307399 -0.07003037 0.042020317
000150 3a d8 8a bd 6e 9c 85 3d bc c9 1c bd 40 fb 74 bc
       -0.06779523 0.06523977 -0.038278326 -0.014952481
000160 ee 62 b3 3d ba 17 61 bd af d8 86 bc 15 22 9a bd
       0.08759104 -0.054954268 -0.016460745 -0.07526032
000170 47 b6 3b bd 69 e5 ad bc a7 6f 90 3d 95 cd 1e bd
       -0.04582813 -0.021227555 0.07052546 -0.038770277
000180 e9 e0 a7 bb f8 2c ac bc 5d 72 55 3d 08 e4 9b 3d
       -0.005123247 -0.021017537 0.05211102 0.07611853
000190 64 fb 87 bd e0 6a 36 bd fd 27 c5 bb 6c 5c 8d bd
       -0.06639746 -0.044535518 -0.00601673 -0.06902394
0001a0 ee 1f 55 bd 88 da 2c 3c c3 74 23 bd 84 8b 9e 3d
       -0.052032404 0.010550149 -0.039906275 0.07741454
0001b0 01 81 1f bd 8a e0 29 3c 9f 4b a2 bb 0b fb 62 bd
       -0.038941387 0.010368476 -0.0049528624 -0.055415194
0001c0 16 27 b0 3c f9 8a 8c 3d 68 4b 94 bd a2 ac 97 3d
       0.021503013 0.068624444 -0.07240945 0.07405974
0001d0 96 10 a8 3c 8a 59 66 bd de c0 a1 3d a7 a6 2d 3d
       0.020515721 -0.056237735 0.078981146 0.04239526
0001e0 ee 52 18 bd da 0a 69 bd c1 ed 32 bd c2 68 8e 3d
       -0.037188463 -0.056895114 -0.04368377 0.06953575
0001f0 6c 10 38 bd e8 35 3e bd 46 c4 27 3d 81 f4 25 3d
       -0.044937536 -0.046438128 0.040958665 0.04051638

valueHead.2.weight f4 [64, 128]
000000 6f aa 4e 3d af ea 57 bd 83 03 d3 bc 96 01 51 3c
       0.050455507 -0.052714046 -0.02575851 0.012756726
000010 db 97 6b bd 7e d7 78 bd d6 93 8a bd e5 1a 40 3d
       -0.057517868 -0.060752384 -0.06766479 0.04690065
000020 ac 2f 3d 3d 98 5e e2 bc f8 7b 82 bd 7c a2 7b bd
       0.04618804 -0.027632996 -0.063713014 -0.061434254
000030 95 88 9b bd b0 c4 1f 3d e9 4d 3d bd 55 d2 62 bb
       -0.0759441 0.039005935 -0.04621688 -0.003461023
000040 92 21 8e 3b 12 cb 67 bd 10 61 a0 3b fb c5 1d 3d
       0.004337498 -0.056590147 0.0048943833 0.038518887
000050 4d 41 b8 bc 38 41 9d 3c 95 1f 59 bb bb 4a a4 bc
       -0.022492075 0.019196138 -0.0033130397 -0.020055166
000060 b2 a9 fd bc cc b9 ac 3d f4 e7 b2 bc 74 aa a5 3d
       -0.030964706 0.084338754 -0.02183912 0.08089152
000070 aa 55 bd 3d 0b b5 81 3d b7 29 11 3c f6 5e a6 3c
       0.09244855 0.06333359 0.008860043 0.020308953
000080 5f 75 c2 bd 47 36 0e bd cf cb 0e bd 16 16 ce bd
       -0.09495043 -0.03471973 -0.034862336 -0.10062806
000090 71 cc 19 bd 66 6c ab 3d 32 95 06 bd e9 0f 15 bd
       -0.037548486 0.08370285 -0.032857127 -0.036392126
0000a0 e7 d5 d1 3d b1 a5 51 bd 8d 7a 3b 3d 4f b6 a8 bd
       0.10245877 -0.051183406 0.04577117 -0.082378976
0000b0 be 5e 8c 3d ab 60 8b 3c d6 33 c2 3d 70 9b b6 3c
       0.06854008 0.017013868 0.09482543 0.022290915
0000c0 2d f2 0d bd 15 90 61 3d 06 0c 91 3d 3d ea 21 3d
       -0.034654785 0.055069048 0.070823714 0.039530028
0000d0 41 02 b8 bd e3 4e a4 3c 27 db ca bd da d5 49 bd
       -0.08984805 0.020057147 -0.09905081 -0.04927621
0000e0 72 a8 9e 3d 04 b2 47 bd b4 ae ec 3b 47 7b 92 bd
       0.07746972 -0.048753753 0.0072229747 -0.071524195
0000f0 91 27 cf 3d c5 39 1e 3d 93 fe 00 bc 16 21 ed bd
       0.101149686 0.038629312 -0.007873195 -0.11578576
000100 87 e4 18 bd ba 1e 4d 3d b0 9e e0 3c 96 56 9f bd
       -0.037327316 0.05007813 0.027419418 -0.07780187
000110 39 1b 96 bd 6b 99 b3 3d 26 b6 1d be 71 7d 38 bd
       -0.07329411 0.087694965 -0.15401515 -0.045041505
000120 a3 9e 3f bd 2b 3a d9 3c 96 76 20 3c 7e 35 91 bc
       -0.046782147 0.026516994 0.009793898 -0.017725702
000130 a8 7b 8b bc b0 e9 f9 3d 52 8e b3 bd d3 e0 24 bd
       -0.017026737 0.122027755 -0.0876738 -0.04025347
000140 f7 35 2b bd c4 c9 4b bb e2 f6 65 3d 99 f8 7e 39
       -0.04179951 -0.0031095603 0.05614365 0.00024315937
000150 e5 e5 89 3c 6c 17 72 3d ef 4b 8f 3d af 68 17 bd
       0.016833255 0.059104368 0.06996905 -0.03696507
000160 7d b6 36 bd 06 e0 2e 3d bd 10 bb bd d9 b8 3f bd
       -0.044607628 0.042694114 -0.09134052 -0.046807144
000170 84 37 db 3d fe 17 43 3d be f2 1a 3d 2c dd f0 3d
       0.10703948 0.047630303 0.037829153 0.11760935
000180 7b 17 9c bd 6b 28 f3 bb 61 22 8b 3d 4a df f2 3c
       -0.07621666 -0.0074205897 0.06793667 0.029647488
000190 f3 8e 29 3d 04 92 33 3d 30 25 06 be 9b ef 30 3d
       0.041396093 0.043840423 -0.13100123 0.043197256
0001a0 fa 8c 6a ba ed 8a 13 bd 15 5d e6 bd 64 ba f2 bb
       -0.0008947399 -0.03602116 -0.11248223 -0.0074074734
0001b0 77 b8 f7 3d df 57 02 be 38 96 66 3d d5 bc 5d bd
       0.12095731 -0.12728833 0.056295604 -0.054135162
0001c0 2a 58 e8 3b d4 c5 85 bc ea ca 22 3d 16 d0 ff bd
       0.007090588 -0.016329683 0.039744295 -0.12490861
0001d0 5e be 87 3d a7 de c4 bd a5 8f aa 3d 5f 17 eb bd
       0.066281065 -0.0961278 0.08328179 -0.11479067
0001e0 ef f5 ea bc 3f b7 10 3c 45 b4 76 3d 4a 63 62 bc
       -0.028681723 0.008832752 0.060230512 -0.013817618
0001f0 e3 d8 af bd 1e d0 7c bd 15 0c 42 bc fe 0f b7 3a
       -0.0858629 -0.061721914 -0.011843701 0.0013966558
000200 ea 2b 58 ba 6d 6b 6a bd 66 0f 80 bb 42 0a a5 3d
       -0.000824629 -0.057231355 -0.0039080856 0.08058597
000210 87 67 88 bc dc 9f 24 bd a2 d4 5c 3d 6f aa aa bb
       -0.016650928 -0.040191516 0.05391372 -0.0052083055
000220 04 d8 69 3c 02 c8 52 bd c1 51 91 bd ff 70 1f be
       0.014272694 -0.051460274 -0.070956714 -0.15570448
000230 db 25 d5 3d 3a 00 10 3d 35 7a e6 bc b7 d3 05 bd
       0.10407611 0.035156466 -0.028134445 -0.03267261
000240 97 1f eb 3d 8c ed 81 3d 9d 41 af 3b d6 c5 88 3d
       0.11480635 0.063441366 0.005348398 0.06678359
000250 0c ec 60 ba f5 53 0c 3d be ea 01 3e 86 a8 d2 bd
       -0.00085800956 0.034259755 0.12687203 -0.102860495
000260 fd 20 f0 bd a4 93 70 3d 59 9d c6 3d 31 d0 b5 3d
       -0.11725042 0.05873455 0.096979804 0.088776
000270 e5 e6 c0 3d 02 a4 e8 3d 4c 83 8a 3d 64 06 34 bd
       0.0941904 0.11359407 0.06763324 -0.043951407
000280 c5 48 1e 3d e5 3a 15 3a 8e ff 12 3d b2 e6 0c bd
       0.038643617 0.0005692675 0.035888247 -0.034399696
000290 27 aa 52 3d b5 74 4e bd 90 22 32 bd 83 81 ca 3c
       0.0514318 -0.05040427 -0.043489993 0.02471996
0002a0 2d b5 7a 3d cd fa 97 3d 8d 5f 03 bd d5 38 86 3a
       0.06120794 0.07420883 -0.032073546 0.0010240326
0002b0 b4 20 60 3c f0 97 a4 bd f7 bc 81 bb 77 53 29 bd
       0.013679672 -0.08036792 -0.003959294 -0.041339364
0002c0 b1 47 b3 3c 97 54 32 3d fa 56 51 3d 5e 77 f3 bd
       0.021884771 0.043537702 0.051108338 -0.11888002
0002d0 3e 78 5e bd 81 15 a5 bd 19 2a 24 3d 42 a3 8f bc
       -0.05431389 -0.08060742 0.04007921 -0.017533902
0002e0 d1 e2 be bc ce 17 0a 3d c5 65 b8 3c 99 48 ea bd
       -0.023301514 0.03371411 0.022509465 -0.11439628
0002f0 62 e8 dd 3c 21 50 c0 3d 20 aa 8f 3c 66 02 81 bd
       0.027088348 0.093902834 0.017537177 -0.062992856
000300 97 5a d4 bd 1b 92 e1 bb 21 d5 85 3d 6a 19 9c 3d
       -0.10368841 -0.006883872 0.06534792 0.07622035
000310 f2 87 b3 bd fe 27 c8 bd e0 b0 8d 3b 25 9e ff 3c
       -0.08766164 -0.09773253 0.0043240637 0.031203339
000320 33 ad 2b 3d 65 77 8b 3d 68 fa 0e be bf 7c a2 bd
       0.041913223 0.06809882 -0.1396271 -0.0793395
000330 a6 d5 f8 3d c1 5e 6b 3d 45 60 df bd 69 3a 05 be
       0.12150125 0.05746341 -0.10907034 -0.13010563
000340 d9 9f 1d 3d 13 d4 eb bc 58 5e 7f bd 6e 55 b9 3d
       0.03848252 -0.028787648 -0.062345833 0.090494975
000350 85 6e b7 bd be 50 66 bc 4c 72 97 bd 61 3f 8f bd
       -0.08956627 -0.014057336 -0.07394847 -0.069945104
000360 f1 98 77 bd 9e e3 03 3e 21 0b 43 3d 82 8b 9a 3d
       -0.06044859 0.12879798 0.047618035 0.0754614
000370 5d a0 9d 3d 43 48 c3 bd 67 05 6d bd d5 2c ad 3d
       0.076966025 -0.09535267 -0.05786648 0.08455817
000380 f2 b4 77 3c 0f 70 88 bd 92 3d f8 3c 9f 4e a6 3d
       0.015118824 -0.066619985 0.030302797 0.081204645
000390 0d c2 9b 3d f1 b7 c3 bc af 08 ca bc 57 96 68 bd
       0.076053716 -0.023891421 -0.024662344 -0.056784
0003a0 24 71 91 3d cf 51 9c bb 5d 44 fe bd 1c ee ca 3d
       0.07101658 -0.0047704945 -0.12415383 0.09908697
0003b0 d4 57 3e bc 99 30 5a bd bf 48 80 3d 48 2e 14 bd
       -0.01161762 -0.053269003 0.06263875 -0.03617695
0003c0 05 e8 64 bd 49 3f be ba 75 b9 a0 3c da 07 c4 bd
       -0.055885334 -0.001451471 0.019619683 -0.0957181
0003d0 e9 14 f2 3c 70 6d 7a bd cc 8f ad 3d 46 8d da 3c
       0.029550986 -0.061139524 0.08474693 0.026678693
0003e0 8b cf f6 bd f8 4e b7 3d a2 d0 95 3d 68 05 48 3d
       -0.120513044 0.08950609 0.07315184 0.04883328
0003f0 cb 32 91 3d 76 9c 85 3d b0 7c 72 3d 20 ab b5 3d
       0.07089766 0.06523983 0.059200943 0.0887053

valueHead.2.bias f4 [64]
000000 f0 c9 82 3d 16 3a af 3d 5a c4 66 3d 6e ac ae 3d
       0.06386173 0.08556001 0.0563396 0.08528982
000010 de 40 90 3d 94 45 16 bd df 6c 95 bd c5 af 66 bd
       0.070436224 -0.03668745 -0.07296156 -0.05631997
000020 9c e2 ba 3c 42 5d a1 3d f5 42 90 bb e9 02 12 bd
       0.022813134 0.07879116 -0.004402513 -0.035647307
000030 79 16 6b bd d6 33 b6 3d bf 44 df bc 6f 67 b4 bc
       -0.05739448 0.08896606 -0.02725446 -0.022021977
000040 e5 fd 1d bd 2d a2 00 3d 72 a7 62 3b 4f 65 ba bc
       -0.03857221 0.031404663 0.0034584668 -0.022753386
000050 bb cc 9e 3d db 62 2e 3d 47 03 8b 3c bb 60 6b 3d
       0.07753893 0.042574745 0.016969336 0.057465296
000060 40 33 c3 3c a9 81 64 3d fd dc 4e 3d 6e 05 5b 3c
       0.023828149 0.055787716 0.05050372 0.013367994
000070 25 ef 71 bd 27 6a 44 bd cf 8b 4e 3d 00 39 74 3d
       -0.059065957 -0.047952797 0.0504263 0.059624672
000080 60 f5 90 3d 2b cb f2 bc d1 27 95 3d bc 4e ab 3b
       0.070780516 -0.029637894 0.07282985 0.0052278917
000090 52 00 ab bd 6f dd fa 3c 18 90 91 bd f4 62 17 3d
       -0.083496705 0.030623166 -0.07107562 0.036959603
0000a0 0f 9c 1a bc 35 cd 60 bd 40 f1 68 bd 51 d1 79 3d
       -0.009436621 -0.0548832 -0.0568707 0.060990635
0000b0 27 7c 54 3c 09 e6 ae 3a 90 d0 08 3d 9c f3 46 bd
       0.012969053 0.0013343702 0.033402026 -0.048572168
0000c0 be 7e 1b bd 6f 0b 40 3d 81 7c 77 3d 79 92 15 3d
       -0.037962668 0.046885904 0.06042147 0.03651664
0000d0 36 df 6c 3d 98 fe 00 3d 57 79 b8 3d 10 1c ec bc
       0.057830058 0.0314928 0.09007519 -0.028821975
0000e0 13 40 06 3c ae 3e 14 3c cb 4f 94 bd 95 42 0b 3c
       0.008193987 0.009048147 -0.07241782 0.008499761
0000f0 6c 5e b5 bc 2e 8a 53 3d e1 be 33 bd 9c c7 38 bd
       -0.02213975 0.05164545 -0.04388321 -0.045112237

valueHead.4.weight f4 [1, 64]
000000 df be 63 be 07 3a e7 bd 37 bc 0c be e6 94 4d 3e
       -0.2224078 -0.11290365 -0.13743673 0.20076331
000010 fc 2d 5e 3d a4 42 06 be dd 32 cf 3d 9b 79 66 be
       0.054243073 -0.13111359 0.10117123 -0.22507326
000020 8c e4 03 3e fc fa 07 be f1 1c 04 3e 49 ae 52 be
       0.12880152 -0.13279337 0.12901665 -0.20574297
000030 22 3e e4 bd 83 b1 e8 3d 54 03 4a 3e 07 36 ba 3d
       -0.111446634 0.11361983 0.19727832 0.09092336
000040 60 26 4c be 62 ed 23 be c3 51 24 be 9d 1d 79 be
       -0.19936514 -0.16008523 -0.16046815 -0.24327703
000050 d0 a3 09 be 74 9d 04 3e 63 d1 d4 bd 51 7c cc 3d
       -0.13441396 0.12950689 -0.103915 0.09984649
000060 e5 47 c6 bd a7 a9 9d 3e c1 cc 27 be 6c af 85 3e
       -0.096816815 0.30793497 -0.16386701 0.261104
000070 21 08 19 be 59 b5 4d 3e 93 27 1b 3e 9d 0f 1c be
       -0.14944507 0.2008871 0.15151815 -0.15240331
000080 c2 b5 09 3e 96 63 18 be ac 14 01 be 1d c2 ae bd
       0.13448241 -0.14881739 -0.12605542 -0.08533118
000090 96 e5 38 be 04 ac 99 3d a0 ed cd bd bf 2e 61 3e
       -0.1805633 0.075035125 -0.10055089 0.21990488
0000a0 3a a6 bc 3d e1 2e 92 3e 05 1a 5c 3e dd e2 11 3e
       0.09211393 0.2855139 0.214943 0.14246698
0000b0 65 e3 0b 3e 12 fb 19 be 87 ef 40 3e 55 a7 89 3e
       0.13660963 -0.15037182 0.18841372 0.26885477
0000c0 8a 9c 00 be 56 65 b0 3d 6f a1 3a 3d fa d3 81 be
       -0.12559715 0.08613078 0.04556411 -0.25357038
0000d0 62 3c 36 3e ae 08 cb bd b3 72 24 3d f0 ee 58 3e
       0.17796472 -0.09913765 0.04014845 0.21184897
0000e0 88 0e b2 bd 21 25 e4 bd 4c 53 8a be 6c 52 4c bd
       -0.08694178 -0.11139894 -0.27016675 -0.04988329
0000f0 b1 8f f1 3d aa 40 0c 3e b5 5f 8f 3e 28 29 26 3e
       0.11794985 0.13696542 0.28002706 0.16226637
