Quixx/diffRules/Models/version_4_model_2.pt (torch, 241938 bytes, 11 tensors)

policyHead.0.weight f4 [128, 122]
00000000: 752c 87bd 435a 5f3d 42ba d23c 3f98 e5bb
00000010: 3db1 fcbc a8e0 95bd bbd0 cabc e2be 02bd
00000020: 2734 66bd 06b2 bc3d 15ca 593d 9563 a03c
00000030: faac a03d 6d91 8dbd 7f25 e4bc fb9e 8b3d
00000040: 618f 1e3c 9b78 f2bc 0ea5 133d 8f16 9ebc
00000050: b3fa b93c f5fc 813d 7f90 98bd 0c3b 31bd
00000060: d22a 95bd e41c d7bd 50ee 9f3d c514 57bd
00000070: 6877 c03d 0c3d e33b 364b 4a3c 5c1a 6dbd
00000080: 5ea0 0d3d 2b3c 45bd c798 dd3d 5ec3 2a3d
00000090: a704 4a3d 394e 8d3d 00e4 efb8 cfae 443d
000000a0: 16c1 86bd 0cf1 d4bc 8d7a ac3b 3c2b 81bd
000000b0: 8bd1 a3bd 3b3d 4abd 694f 5b3d ff02 583d
000000c0: 65d6 453d f5b9 2dbd dd5f d3bd 706c da3d
000000d0: 4d60 cf3d 5ac8 b53b f242 253d 3edc ca3d
000000e0: e3ae 2f3d d080 283d f933 c43b f55d 773d
000000f0: aaf4 9d3d 6827 003d 0c35 2dbd 209b 2f3d
00000100: 1aaf cc3d f4ad 8d3d 7efc 153d 0793 acbb
00000110: 2103 09bd be05 b5bd 72e2 203d cb19 a33d
00000120: fc1b 51bd 24a2 413d 27b4 623d 9f4b 73bc
00000130: 9956 36bd 3fd2 81bb 26d0 233c 3092 b4bc
00000140: 44b8 803d 9c98 4bbd 16e8 7c3d 5a3d 8fbc
00000150: f9dc c93a e646 91bd 01cd 87bd 0f25 d2bd
00000160: fbb1 a0ba 5091 9a3d 7d88 8c3d a89c 80bd
00000170: 45e8 53bd f8ed 6ebd f14e 0abc ad90 8dbc
00000180: 3f22 94bb e735 a7ba 6819 e8bb 12b4 243d
00000190: 10c6 32bd 8100 e5bc 0f0a 87bd 444a c43c
000001a0: 35ea bb3d c290 52bd 6efc 9b3d 92a9 bb3d
000001b0: a09b ab3d 4d80 43bd ddde 853d b1ae ad3d
000001c0: 5d46 2e3d b3ad f4bb 1806 9c3d 8d7e 1dbd
000001d0: 1112 1fbb 3f16 a53c 4270 8fbd bc50 3e3b
000001e0: 3d89 24bd 11d4 353d a4fb b9bd 8680 33bc
000001f0: 158c 853d 8d5d 90bc cc56 193d 6d04 a4bd
00000200: 646b ae3d 280c 34bd a7ad 0dbd 120f 4e3d
00000210: ed78 903d 8c7c c4bd feae 5abd d04c 5a3d
00000220: 7220 66bd 752d bfbb cc9c 42bd a320 b43d
00000230: d6bd e4bd df92 543d 18f3 5bbc 8fdf d73d
00000240: e809 2bbd d1a2 e8bd ec0b 60bd 014a 6c3d
00000250: c71b 813d 48e0 723d 89a3 87bd 514f 6bbc
00000260: 6d3a 4a3d fbc6 58bd f747 12bd 12b6 b53c
00000270: 9e67 b2bc 302c 4739 5159 75bd 4f88 93bc
00000280: 476c 6fbd e054 203b 2461 a6bd 677f 7e3d
00000290: b5ef aebd 20fe 3e3d 8b25 893d 8ee5 b23d
000002a0: a3a4 95bb 7934 8cbd 2c17 debd 3932 ee3c
000002b0: 2f71 6c3d 70e2 8c3d 4206 5b3c 46c0 823c
000002c0: 4e53 7c3c 0df4 80bb 99cf a23c c27a 433d
000002d0: 88e2 6abc f94f c1bc 804e acbc c89d 4d3c
000002e0: 46eb 5f3b 6e4f 0b3d 39e1 de3c 15ce 81bd
000002f0: 210f 97bd e122 10bd 58ba d8b9 33d7 233d
00000300: 0a92 e63c 31b2 5cbd 469e fb3c 43c6 8d3d
00000310: 8a1b 08bc 4a4d d93d b7d9 783d 8215 c23c
00000320: c55b 08bd 0215 473d af28 c6bd 22b3 13bd
00000330: ea66 a03d 591e 713d 6247 ec3b 04a3 943c
00000340: feab 373b d849 1fbc 482e ce3d 9ac9 28bd
00000350: cba3 6e3c 9029 88bb d975 923b 0ced d2bc
00000360: 2762 42bd ccfc 8b3d 6fb3 bebd 5602 cfbc
00000370: 7c99 0b3d 2618 6f3c 9bfd 00bd 543e e63c
00000380: 16bf e4bc 33d9 a83b db61 2d3c ee1c a33c
00000390: 5c97 d1bb 4ba5 a93d 8a74 d4bb 7b0e 9dbd
000003a0: 1878 c53d 06b3 563d 32c7 dfbc 3b4e ebbb
000003b0: 087b 16bd c6a8 003d 82ad 0cbc 4d63 83bd
000003c0: 3703 21bd 866c 7fbd 8631 633d 542f 5a3d
000003d0: c21b a73c 8feb d13c ba62 283b 42d2 433d
000003e0: 6b81 d7bd 9ac1 f03d d833 92bd 6deb 3ebd
000003f0: 398e e0bd 1cb9 a03d 4fef ae3c 0e01 c73a
-0.066002764 0.05452944 0.02572358 -0.0070066745 -0.030846233 -0.073182404 -0.024757734 -0.03192032
-0.05620208 0.09213643 0.053171236 0.019578734 0.07845493 -0.069125034 -0.02784991 0.068174325
0.009677739 -0.029598525 0.03604608 -0.019297866 0.02270255 0.06347076 -0.074494354 -0.043269202
-0.07283558 -0.10503557 0.078091264 -0.05251004 0.09397775 0.0069347676 0.012347033 -0.057886466
0.034576766 -0.048153084 0.108201556 0.041690223 0.049320843 0.068996854 -0.000114388764 0.048018273
-0.06579797 -0.025993846 0.0052636326 -0.063070744 -0.079989515 -0.0493748 0.05354253 0.052737232
0.048300166 -0.04241367 -0.10321019 0.10665214 0.1012579 0.0055475654 0.040347047 0.09905289
0.042891394 0.04113847 0.005987641 0.06039234 0.077126816 0.03128758 -0.042286918 0.042872548
0.099943355 0.069179446 0.03661775 -0.0052665505 -0.03345025 -0.08838986 0.039278455 0.07963904
-0.05105208 0.04727377 0.055347588 -0.014849572 -0.04451618 -0.003961831 0.009998357 -0.022042364
0.06285146 -0.049706087 0.061744772 -0.01748531 0.0015400938 -0.07093601 -0.06630898 -0.102609746
-0.0012260074 0.075472474 0.068619706 -0.0627988 -0.05173518 -0.058332413 -0.008441673 -0.0172809
-0.004520684 -0.0012757153 -0.007083107 0.04021079 -0.04364592 -0.027954342 -0.065937154 0.023961194
0.09175531 -0.051407583 0.076165065 0.09163202 0.083792925 -0.04772978 0.065366484 0.08480585
0.042547572 -0.0074669956 0.0761835 -0.038450766 -0.0024272243 0.02015221 -0.07003833 0.002903982
-0.040169943 0.044391695 -0.090812 -0.010955935 0.06520859 -0.017622733 0.03743629 -0.08008657
0.08516577 -0.043956906 -0.034589436 0.05030734 0.07054315 -0.09594068 -0.05338954 0.05329591
-0.056183286 -0.0058342763 -0.047512814 0.087952875 -0.11169021 0.05189788 -0.013424657 0.10540687
-0.041757494 -0.1135918 -0.05469887 0.057687763 0.06304126 0.059295923 -0.06622989 -0.014362172
0.049372125 -0.052924138 -0.035713162 0.022181544 -0.021777924 0.0001899458 -0.059899632 -0.018009333
-0.05845287 0.0024464652 -0.08123997 0.06213322 -0.08541814 0.04662907 0.06696614 0.0873519
-0.0045667454 -0.06845946 -0.108442634 0.029076682 0.057725128 0.06879127 0.013368191 0.015960824
0.015400721 -0.003935343 0.01987438 0.047724493 -0.014336236 -0.023597704 -0.021033525 0.012549825
0.0034167334 0.034011297 0.027207004 -0.06338135 -0.073759325 -0.035189513 -0.00041337567 0.04000015
0.028145809 -0.053880874 0.03071512 0.06922581 -0.008307347 0.10610445 0.060754504 0.023691896
-0.033290643 0.04860402 -0.096757285 -0.036059506 0.07832129 0.058866832 0.007210658 0.018144138
0.00280261 -0.009722196 0.10067421 -0.041207887 0.0145654185 -0.0041553453 0.004469615 -0.025747798
-0.047456887 0.068353266 -0.09311568 -0.025269669 0.03408192 0.01459316 -0.031491857 0.028105892
-0.027923148 0.0051528453 0.010582413 0.019911256 -0.0063962173 0.0828348 -0.006483619 -0.076687776
0.09642047 0.052416824 -0.027316663 -0.0071809567 -0.036738425 0.031410955 -0.008586289 -0.064154245
-0.039309707 -0.062359355 0.05546715 0.053267792 0.020398978 0.025625018 0.0025693611 0.04780794
-0.105227314 0.117556766 -0.07138795 -0.04661124 -0.10964627 0.07847807 0.021354346 0.001518281

policyHead.0.bias f4 [128]
00000000: d35a a03d 3c65 56bd 1a53 b23d ecde 723d
00000010: 7303 ce3b 51a2 43bc cc0d 98bd ddd6 f9bb
00000020: 499e ad3c cba9 df3c d5a7 c53c 779c 91bd
00000030: a4da d63d 7f37 ab3b f070 973b 802b 603d
00000040: c9ee 28bd 9bf3 cabc c2ca ae3d 579a e0bc
00000050: 57fe c63d ea06 233d a772 41bd 03b4 82bd
00000060: acca a93c 9867 2c3d 1344 473d 76ef 893d
00000070: 289e 6d3c 2c72 fd3c 7435 3dbc 587b 783c
00000080: be22 9e3d 55bd 063d 5891 22bd 0c45 c43d
00000090: 8506 d03d c031 b53d 1fd4 26bd d8b3 b73d
000000a0: edf2 77bd fd49 903d c599 193d 7881 ca3d
000000b0: a6d8 3a3d 75de 7abd 7a3b 55bb 37de 8cbd
000000c0: 7325 a33d d952 d23d f686 8cbd 8a63 f93c
000000d0: bde1 b23d 307b 3c3b 644d 9b3d b020 9dbd
000000e0: f0d0 d5bc 9e0b 89bd a435 913c 5559 8b3d
000000f0: 36b1 87bb e0d8 3bbd 5770 8dbd d8aa adbd
00000100: 554f c63d ad19 2d3d 351e 7ebd f81a ba3d
00000110: cf1b b93d d34a b63d 3827 dc3d 7c3d 39bd
00000120: 0de5 913d 0bf4 333d 0b20 13bd c70b 853d
00000130: 9230 26bd 8cd0 693d c1ae b93d 8dac 1bbd
00000140: e551 603d 99fc 023d d1f2 b9bb 2a4c 443c
00000150: 01bd 393d 592f 57bd e85f 1abd 974c 0b3d
00000160: cbae f33d 2b5a 29bd 8185 7a3d a7cb 933c
00000170: b7af e43c f771 c6bc c1e6 163d 0562 753d
00000180: 1afa ab3c 6d19 d23d 1f92 17bd 4f83 25bd
00000190: 926f c63c c022 833d 9057 783d 5ad8 ec3d
000001a0: e0a7 b53d 8987 81bd 197c a1bd ac38 1d3d
000001b0: 0ff0 453d 87af 12bd 4a4c 393d a7a4 a13b
000001c0: 14c4 393d 3687 8dbc f2fd 18bd 2214 babb
000001d0: 607e be3c a797 3fbd 679c a83d ce7e c13d
000001e0: eea2 c03d 4d6c 27bb 2fc7 3cbd d9f2 4abc
000001f0: 00bd 7abd b8f3 a43d 028f 883d cfd7 9e3d
0.07829823 -0.05234264 0.087072566 0.059294626 0.0062870323 -0.011940555 -0.074245065 -0.0076244907
0.02119364 0.027302643 0.02412788 -0.071099214 0.10490921 0.0052251215 0.0046216175 0.054728985
-0.04124335 -0.024774363 0.08534767 -0.027417345 0.0971648 0.039801516 -0.04722848 -0.06381991
0.020726524 0.042090982 0.048648905 0.06735127 0.014503039 0.03093823 -0.011548389 0.015166126
0.0772147 0.032895405 -0.03968939 0.09583482 0.101574935 0.0884738 -0.04072964 0.08969849
-0.060534406 0.07045362 0.03750016 0.098879755 0.04561677 -0.061247308 -0.0032536671 -0.068783216
0.07966127 0.10269708 -0.06861679 0.030442972 0.087344624 0.002875995 0.075831205 -0.0767225
-0.026100606 -0.06691669 0.017725773 0.06804148 -0.0041409982 -0.045861125 -0.06906193 -0.084798515
0.096831 0.042260814 -0.062040526 0.09087175 0.09038507 0.0890099 0.10749668 -0.04522465
0.07123766 0.04393391 -0.03591923 0.06496387 -0.040573664 0.05708365 0.09066535 -0.038006354
0.0547656 0.031979177 -0.005674698 0.01198105 0.045346264 -0.05253539 -0.03768912 0.03400859
0.118985735 -0.041345757 0.061162475 0.018041445 0.027915819 -0.024224265 0.036841158 0.05990793
0.020993281 0.10258756 -0.037004586 -0.04040843 0.024223123 0.064031124 0.06063038 0.11564703
0.0886991 -0.063246794 -0.07884998 0.038384125 0.04832464 -0.035811927 0.04523877 0.004932958
0.04535301 -0.017276388 -0.037351556 -0.0056786695 0.02325362 -0.046775486 0.082329564 0.09448014
0.09406076 -0.002554673 -0.046088394 -0.012387001 -0.0612154 0.08054298 0.066679016 0.07756006

policyHead.2.weight f4 [128, 128]
00000000: f979 b4bc ebea b13d 90fe 5dba 16f8 ac3c
00000010: c100 0ebd eb07 9abb 84ec 52bc 1f45 b33d
00000020: 01d1 42bd 8eec 08bd f010 8d3d 9def ac3d
00000030: e892 9c3d 57d6 f83c 1294 903d 9462 04bd
00000040: 657d d03d 3bbe 103d cd68 99bc 6abd 073d
00000050: cd2e 953d 698f ba3d 1d39 4fbd 9eaa 6abd
00000060: 44ee 8abd 457d 2d3b eacf 3b3d 6642 dabc
00000070: bf71 d83c 15a2 0dbd 2940 80bd 8119 123c
00000080: a3fa 713d c037 cdbd c915 813c 5c17 92bd
00000090: cc9a 85bd eec6 4c3c ab42 b23c 07f5 26bd
000000a0: fae1 cfbc 229b 5b3c 1e14 44bc 48d9 24bd
000000b0: 8c49 e93d d20a aa3d 5fe1 a73d 7f7f 4f3a
000000c0: 3ae9 713c 5ba9 80bd 494a 83bd be19 273c
000000d0: 5df7 a7bd 247c 1f3d af6f 853d b89d 86bd
000000e0: 8624 98bd 724b c23d efb0 143d ef0e acbc
000000f0: 1e0d 523c 4f71 21bc 401f 38bd 2654 ac3d
00000100: add6 2fbd c032 f93c 0ce4 2a3d 6f0c abbc
00000110: f21c 763c 1839 06bd 7190 9bbb bbb0 003c
00000120: 6fe4 aa3b 94bf 693a bc01 8e3d 8ccf 11bd
00000130: a44a c43c 58e8 843c 6fad 92bd e07d 873d
00000140: e74d 9d3d bc5e aabc 01a7 153b d57e 703d
00000150: d09b 7dba a1de 9ebc fcdd 353b a7bd 063d
00000160: 1288 603d 22f7 6bbd 28b4 b5bd d277 71bd
00000170: 9bc0 09bd 0379 4cbd cf37 54bc 15eb 86bd
00000180: 2ead cc3c db6b aabd f58d 633d 1065 773d
00000190: 79b4 a6bd 9468 043d 5619 fd3c b457 753c
000001a0: 2a2f 85bd 5f42 cd3d ab27 993d 9452 2fbc
000001b0: 250c 483d 9967 a23d a452 d23d 73bc 8c3c
000001c0: 3ef8 c33d a429 e93b 7e01 f43c 6f7c babd
000001d0: 1899 cf3c d351 c3bc 8059 2f3d e746 22bd
000001e0: 9b47 b1bc c9f7 813d 09b6 b13d f57e 72bd
000001f0: 26cb 873d a937 be3d 72cb 6e3d 6415 4dbd
00000200: a193 af3d 3e41 a93c 4779 063c 3f15 0bbc
00000210: e1b5 163d a16c e3bc 43aa bdbc cba6 98bd
00000220: 4c94 683d 032f 953d 0b5f cd3c 6ff0 83bd
00000230: b954 713c 700f 383c a541 ae3d a5fc a23d
00000240: c06e abbd 271e d33d 8343 643d af9e e83a
00000250: 3f6b 8f3d 7253 89bd 02ee 19bd 321c 8bbd
00000260: 87de 17bd f8aa 393d 0eee febc eb43 57bc
00000270: 638a c03d a3e8 873c ec98 77bd 50c9 45bd
00000280: a119 da3c b843 b8bd d11b 92bd 8278 bfbd
00000290: 992f c5bc a927 8ebd deb0 a03d edd3 893b
000002a0: 1dc7 8fbd a458 e6bc 076e 3e3d 85b6 89bc
000002b0: 3002 a33c 3758 95bd bba7 293c 2a4f ecbb
000002c0: 684b 2c3d aaa1 813d ed44 47bd 8e58 8bbd
000002d0: 929b b43d 6ce9 46bd da33 973d ef9f 863d
000002e0: b7c9 95bd 0a93 febc 223d 963d ffd0 a33d
000002f0: 159e 79bd e9b9 7c3d 61ce 7c3d ed30 0cbd
00000300: afc1 aabd 4ed4 72bd bc46 12bd 316c a53b
00000310: be94 993d edf8 99bd 7a32 103c 8908 783c
00000320: f811 aa3d 803f ad3c b4f9 88bd 6eb8 393d
00000330: deb1 c43d f431 a5bb ec1b 6b3c c2a3 643c
00000340: b897 3c3d a2a5 abbd 118c 903d 4d17 0a3d
00000350: bdab d43c 8261 5a3d cc46 1dbd 49da 80ba
00000360: d496 97bd 756a aebd 1045 88bc 8de6 98bd
00000370: f3d9 27bd c908 efbd 467e abbc ada4 b23b
00000380: c9a0 ddb9 992b 0b3d d12e 373d d520 ecbc
00000390: 6f70 8b3d cd8b 8ebd 9d15 fc3b bf5d 903d
000003a0: f15d 6cbd 2a5e d2bb f658 163d d2bc 9a3d
000003b0: 9a35 413d da80 553d d065 b1bd 086f cb3d
000003c0: 7647 c3bc 2c09 b1bd 71d9 473c d619 90bd
000003d0: aaa8 ab3c 480b 593b 75a1 3b3c 6553 a53d
000003e0: f953 d7bb 565d 823d 5230 23bd 7727 353d
000003f0: bde3 97bb 9068 75bd 9dc7 4f3d 145d b2bc
-0.022030817 0.08687385 -0.0008468414 0.02111439 -0.034668688 -0.004700651 -0.0128737725 0.08753418
-0.047562603 -0.03342872 0.06887996 0.0844414 0.07645208 0.030375643 0.07059492 -0.032320574
0.10180167 0.035337668 -0.01872673 0.033139624 0.07284317 0.091093846 -0.050591577 -0.05729162
-0.06783727 0.0026472372 0.04585258 -0.02664299 0.026421426 -0.0345784 -0.062622376 0.008917213
0.059076916 -0.10020399 0.015757458 -0.07133362 -0.06523666 0.0124986 0.021760305 -0.04076102
-0.025376309 0.013403686 -0.011967687 -0.040246278 0.11390981 0.08302845 0.08197283 0.0007915422
0.014765078 -0.06282302 -0.06410653 0.0101990085 -0.08201478 0.03893675 0.065154426 -0.06573051
-0.07428841 0.09487046 0.03630155 -0.021003215 0.01282051 -0.009853675 -0.044951677 0.084144875
-0.04292934 0.030419707 0.04172139 -0.020879952 0.01502155 -0.032769293 -0.0047474434 0.007854636
0.0052152197 0.0008916792 0.069339246 -0.035598323 0.023961373 0.016224071 -0.07161986 0.066158056
0.07680874 -0.020797126 0.0022835138 0.058714706 -0.0009674402 -0.019393267 0.0027750721 0.03289571
0.054817267 -0.05760873 -0.08872253 -0.05895216 -0.03363095 -0.049920093 -0.012952759 -0.06587807
0.024984922 -0.08321353 0.055555303 0.060399115 -0.08139891 0.032326296 0.03089587 0.014974523
-0.065031365 0.10022425 0.07478269 -0.0107008405 0.048839707 0.07929916 0.10269669 0.017179703
0.09568833 0.0071155597 0.029785868 -0.09105765 0.025341555 -0.023842728 0.042809963 -0.0396184
-0.02164059 0.063460894 0.086772986 -0.059203107 0.06630544 0.0928796 0.05829949 -0.050069228
0.0857308 0.020660993 0.008207626 -0.008488952 0.036794547 -0.02776176 -0.023152476 -0.07453688
0.056782052 0.072843574 0.025069734 -0.064423434 0.014729672 0.011234149 0.085086145 0.07958344
-0.08370733 0.103084855 0.055728447 0.0017747487 0.070028774 -0.06705369 -0.037580498 -0.06792487
-0.037077453 0.045329064 -0.031119373 -0.0131387515 0.09401395 0.016590422 -0.060448572 -0.04828769
0.026623549 -0.08997291 -0.07134212 -0.09349157 -0.024070548 -0.06941158 0.07846235 0.0042061717
-0.070204 -0.028118439 0.04649165 -0.016810665 0.019898504 -0.07292216 0.0103549315 -0.0072115855
0.0420641 0.06329663 -0.048649717 -0.06804 0.08818735 -0.048562452 0.07382937 0.06573474
-0.07313865 -0.031075973 0.07335879 0.07998847 -0.060941774 0.061700735 0.061720256 -0.034226347
-0.083377235 -0.0592845 -0.03571199 0.005048298 0.074990734 -0.07518182 0.008801097 0.015138754
0.083042085 0.021148443 -0.06688252 0.0453419 0.09604238 -0.0050413553 0.014349919 0.0139550585
0.046043128 -0.08381201 0.070579655 0.033713628 0.025960797 0.053315647 -0.038397595 -0.0009830679
-0.07401815 -0.08516399 -0.016634494 -0.07465849 -0.040979337 -0.116715975 -0.020934235 0.00545176
-0.000422722 0.033977125 0.044722382 -0.02882425 0.068085544 -0.06960259 0.007693006 0.07049131
-0.057706777 -0.0064199166 0.036705934 0.07555546 0.04717026 0.052124836 -0.08661997 0.09933287
-0.023837786 -0.086443275 0.012197838 -0.07036178 0.020954449 0.0033118296 0.011452069 0.08072547
-0.0065712896 0.06365459 -0.039841004 0.04422709 -0.004635303 -0.05991417 0.050727475 -0.021772899

policyHead.2.bias f4 [128]
00000000: 0659 8ebd 2e0d 15bb 38c0 7c3d f8d8 783d
00000010: 310c 3c3c 9042 b23c 098c 813d 51a2 5bbc
00000020: f4ab 6cbd b9ea 933d 3854 d8bc 10cd a9bb
00000030: 3e7e a03d 6fbe 3dbd f415 30bd e4e5 b13b
00000040: 0640 b63d 9882 e2bc afc7 823d 5a28 833c
00000050: cb8b 6c3c 6564 19bd 4c85 b3bc 2ee2 a63c
00000060: 1de7 913c edd9 253c 5402 103c 5f7d 42bd
00000070: 36a2 5d3d 4365 933c 729f 02bc a14b 69bc
00000080: 6ed0 0c3d 9d9c 953d afe9 11bd 5665 f13c
00000090: 0e4e a23c de56 953d 2bc4 a4bd 0f1e aa3d
000000a0: 51fb 2a3d 6000 1b3b cd57 a43c 6f6d 70bd
000000b0: 7048 33bc e8aa b9bd 31ee e0bc d4b1 5f3d
000000c0: 8288 c13d 7734 56bc 357d b43d 6a6c 3f3d
000000d0: 1313 e13c 84de 883d 8bff 223d 4596 943d
000000e0: b818 afbc 0f1a 623d 93c5 d03c 8e78 423d
000000f0: 1b30 15bd 2a2c a0bc 6e6e 553d 4be5 aebd
00000100: a247 043b 81b4 45bd d19a ee3c ef25 3dbd
00000110: f916 7d3d 0dab fcbc e00b 9d3b 93aa b43c
00000120: 48f7 32bd c25b c23d d12c 833d e0cd af3d
00000130: 0438 3d3d 08be ac3d c124 b13d 90f1 af3d
00000140: 704f e33c b7cd 11bd c614 63bd 9465 5abd
00000150: 3c66 44bd 56f8 1ebd dc44 9bbd a201 bd3d
00000160: fa3d 603c a300 8e3c e44f b93c acba 5fbd
00000170: 0dad de3d 43fb 65bd d62f c23c b0e5 e3bc
00000180: 6296 013c c290 8cbb 0ed1 a33d 1b67 053e
00000190: 2b6e a13d 5292 ca3d 879c 86bd fbe6 8b3c
000001a0: b8e5 203d 6683 62bd 047b 823d 2204 9f3b
000001b0: 82e6 823d b237 1a3b 49e6 143d 07d4 733c
000001c0: 1a85 113d 7184 2d3b dfd9 87bd 6a13 a23c
000001d0: e4b6 1c3d 22d8 d53c b051 a43b 37cc 243d
000001e0: b3f2 84bd abb0 013d c825 883d e6ac 2c3d
000001f0: 35c1 a63d ebc2 4a3c ecdf ac3d 7e1d 763d
-0.069505736 -0.0022743451 0.06170675 0.060753793 0.011477516 0.021760255 0.06325538 -0.0134053985
-0.057781175 0.07222504 -0.026407346 -0.005181916 0.07836579 -0.04632419 -0.042989686 0.0054290164
0.0889893 -0.027650163 0.06385743 0.016010452 0.014437626 -0.03744926 -0.021914147 0.020371523
0.017810399 0.010122758 0.008789618 -0.047482844 0.054109775 0.017992621 -0.007972585 -0.014239223
0.03437846 0.07305262 -0.03562325 0.029467266 0.01981261 0.07291959 -0.080452286 0.083065145
0.04174358 0.0023651347 0.020061398 -0.058698114 -0.010942563 -0.09065801 -0.027457329 0.05461295
0.09449865 -0.013074032 0.08812944 0.04673425 0.027474916 0.066830665 0.039794486 0.07255224
-0.021374092 0.055200633 0.025484836 0.04747825 -0.03642283 -0.019552309 0.052107267 -0.08539828
0.0020184298 -0.048267845 0.029126557 -0.046178754 0.061789487 -0.030843282 0.0047926754 0.022053992
-0.043692857 0.09490158 0.064050324 0.085841894 0.046196 0.08434683 0.086495884 0.08590996
0.02774784 -0.035596576 -0.055439733 -0.05331953 -0.04794906 -0.03881105 -0.07581493 0.09228827
0.013686651 0.017334288 0.022621103 -0.054621384 0.108728506 -0.056147825 0.02370445 -0.027819484
0.007909389 -0.0042897174 0.079988584 0.13027613 0.07882341 0.0989119 -0.06572824 0.017077914
0.039281577 -0.055301093 0.063711196 0.0048527876 0.06391622 0.0023531732 0.03635243 0.014882094
0.035527326 0.0026476646 -0.066333525 0.019784648 0.038260356 0.026104037 0.0050146207 0.040233817
-0.06491604 0.031662624 0.06647831 0.042157076 0.0814232 0.012375574 0.08441147 0.06008672

policyHead.4.weight f4 [23, 128]
00000000: d816 593c 484f d0bd 019a c5bb 534c b6bd
00000010: de84 6a3c 3890 42bd 01bc d43c 226c 45bd
00000020: a518 1f3d 3236 52bc 4276 ccbd 6f10 28bd
00000030: 26c5 73bd 047b 41bc 0234 c83d e835 c0bb
00000040: 12e7 85bd ea07 b9bd ea3b 7b3d 02f3 253d
00000050: 3cdd 00bd 29cb 1dbd c071 6fbd 4044 173b
00000060: 3c91 97bd 98aa 433d b7f4 c3ba f6c7 243d
00000070: b6a3 44bd 7033 27bd e1ad 24bc 6df9 24bd
00000080: e81a 27bd 1ebd a53c fdcd 15bd 2011 57bd
00000090: 80c0 873d a17d 983b d283 053d 9b60 dd3d
000000a0: 9a0d 5dbd fa93 e53c ef3c 91bd e948 37bd
000000b0: 7f12 ee3c 3a43 e3bd 2daf dbbc a6aa 733c
000000c0: 68b7 a8bc 3ec9 633d 1c39 643d bc15 863c
000000d0: cf9a 3f3d 72ff 3f3d 8b4c 9dbd e93c 1f3d
000000e0: a6ab e2bb d09c 663d 493a 423d e2d9 a93d
000000f0: c499 bbbd dcb2 8bbd ace9 403c d91c 2dbd
00000100: 1902 8bbc 065c 153d 4cd9 4b3d ab45 8dbd
00000110: 8e16 bc3d dd5d cd3d 5ad8 58bd 7215 4b3c
00000120: f000 923d 0075 473d e511 82bc a38a 3e3d
00000130: 37e6 a93d 23f2 ac3b 5059 a83d f2a7 623d
00000140: 0b79 adbd 3a2e e6bc dadb 6cbd 9a4b 7ebd
00000150: ce65 27bd 621f 383d ec79 66bd 2aef 0abd
00000160: 0f55 dbbc 3910 92bd b1e5 623c 1f0e 6fbd
00000170: a4f9 393c fe77 c8bd f8f0 dc39 02df 83bc
00000180: 0002 a33b 6f91 4a3c 689a 4f3d c1f4 e93b
00000190: fca1 ab3d cc97 d33c 4c39 e5bc 4ad3 b53d
000001a0: 2870 a0bd e948 cb3b b70e 85bd a77a 02bd
000001b0: 027d 9ebb 0ffc b13d 9d51 33bd 0456 14ba
000001c0: 1bec aebc 39d4 98bd 28ff 753c ba8e ae3d
000001d0: a941 be3c 5e12 263d 15a3 c43d 2d61 c1bd
000001e0: 406e 973d f434 4c3c 4e27 8dbd f013 5f3d
000001f0: c4ec c73d 5697 9e3d 0fbb 2b3c 40af 10bd
00000200: 4dd6 543d f7f7 d33c 0623 ebbc 6627 c2bd
00000210: 9928 9b3c 6b0c 243d 3fe7 413d 42dd 35bd
00000220: 072f 333d e8a4 b5bd 5604 2f3d 04e8 1bbb
00000230: da37 a13d dc58 1a3c 26a7 2f3d f402 2e3d
00000240: 287c 91bd 7641 333d cd4a 3f3c 40d5 913b
00000250: e06f 7cbd baad 1ebd 0067 92bd aa90 33bd
00000260: 01e3 e2bb 23c8 f3bd df2a 8fbd 736f 91bc
00000270: 6d03 5b3d d359 edbd 182e 93bd ad4b c73a
00000280: 45df 75bd 28d4 a63d 002f 2b3c 4b0d 853d
00000290: 65f4 343b 0193 82bc 63e9 bcbd fffc 413c
000002a0: a5af f63c 545a 60bd 3b57 37bd ee36 afbd
000002b0: c3dd c8bc 5ecc 283b a51f a7bd cad8 fdbc
000002c0: 0ce8 963d c19b 9a3d df58 d23c b9f9 c83d
000002d0: bd68 9fbd 598b 8dbd 2ef1 c1bd d47d 813d
000002e0: 7284 5c3d d7b4 6abc c39c 653d fcd8 69bd
000002f0: 48d2 bebc 1f16 ff3a b5f4 553d da7b 5039
00000300: 2fb7 7bbd 6af1 41bd ccde 12bc a335 27bc
00000310: 9c0e db3a fe20 9f3d e0b0 9b3d 2749 10bd
00000320: 8ade 223d f072 aa3d 0756 99bc 7040 09bd
00000330: 4a67 8a3d 78c2 7bbd 7e91 13bd 2f32 86bd
00000340: 94c3 d4bd bd43 ce3d 838f 6d3d a7c1 4d3d
00000350: a8db 05bd 786c 3cbd 6258 93bc 0c84 f93d
00000360: a61d e53c c33b af3c f40f 80bd be5b 48bd
00000370: 45aa 42bd a3bc 4cbd 42f9 243d 9048 e2bc
00000380: c4ac 8c3d e0d6 10bc a665 1a3c d1e8 b1bd
00000390: 3ae8 c5bd bbd9 82bd 2789 9a3d 711c 3e3c
000003a0: 9d2c 58bd d7d6 053c 2e5f 2e3d 482c 2cbc
000003b0: 575f 18bd f819 eabd db43 aabd 9469 293c
000003c0: 99b3 bebb dc61 01bd 790f 433c 55bc 613b
000003d0: 87d6 043d 5a28 17bc 8ee6 983d 9ff9 dabd
000003e0: 8a6e 84bc a24c 85bc 687b 7dbd 17ae 2fbd
000003f0: 5ad0 953d b84b 853d 6462 cabd 17b0 c8ba
0.013250075 -0.10171372 -0.0060303216 -0.089012764 0.014313905 -0.04750082 0.025968553 -0.048198827
0.038841862 -0.012830304 -0.099834934 -0.041031297 -0.059514187 -0.011809114 0.09775545 -0.005865801
-0.06538214 -0.090347126 0.061336435 0.040514953 -0.031460986 -0.038523827 -0.05845809 0.0023081452
-0.07400748 0.047770113 -0.001495025 0.04022976 -0.04800769 -0.04082054 -0.010051222 -0.040276933
-0.040797144 0.02023178 -0.0365734 -0.052506566 0.06628513 0.004653648 0.032596417 0.10809442
-0.05396805 0.028024662 -0.070917 -0.044747267 0.029061554 -0.11096807 -0.026816929 0.014872229
-0.020595267 0.05561184 0.055718526 0.016367786 0.046778496 0.04687447 -0.07680615 0.038876448
-0.0069174347 0.05630189 0.047418866 0.08293511 -0.09160188 -0.06821224 0.011774462 -0.04226384
-0.016968774 0.036464714 0.049767777 -0.06898054 0.091839895 0.100276686 -0.052940704 0.01239525
0.07129085 0.048695564 -0.015877673 0.046518933 0.08295863 0.0052778884 0.0822016 0.055335946
-0.08470353 -0.028098214 -0.057826854 -0.062083818 -0.040868573 0.044951804 -0.056268618 -0.03391949
-0.026773958 -0.071320005 0.013848708 -0.058363076 0.011351023 -0.09788512 0.00042141206 -0.01609755
0.0049746037 0.012363776 0.050684363 0.0071397726 0.083805054 0.025829218 -0.027981423 0.08878191
-0.07833892 0.00620376 -0.06496947 -0.03185525 -0.0048366794 0.086906545 -0.043779004 -0.0005658569
-0.021352818 -0.07462353 0.015014447 0.08523317 0.023224669 0.04054486 0.09601418 -0.09442363
0.073940754 0.012463797 -0.068922624 0.054462373 0.09761956 0.07743709 0.01048161 -0.03532338
0.051962186 0.025875075 -0.028703224 -0.09480171 0.018940257 0.040050905 0.047339674 -0.04440046
0.04374602 -0.08869344 0.042728744 -0.0023789415 0.07871981 0.0094206 0.042884015 0.042483285
-0.07103759 0.0437636 0.011675549 0.00445047 -0.06163013 -0.038739897 -0.07148552 -0.043839134
-0.0069240336 -0.119034074 -0.06990599 -0.017753338 0.053470064 -0.11589398 -0.07186526 0.0015205048
-0.06002738 0.08145934 0.010448217 0.06496676 0.002761149 -0.015939238 -0.092242025 0.011840104
0.03011305 -0.054773644 -0.044760924 -0.08555399 -0.024519807 0.0025756578 -0.081603326 -0.030987162
0.07368478 0.07549239 0.025677143 0.09813256 -0.07783649 -0.06911344 -0.094698295 0.06322828
0.053837247 -0.014325342 0.056057703 -0.057091698 -0.02329363 0.0019461549 0.052235324 0.00019882564
-0.061453994 -0.04734937 -0.008964252 -0.010205659 0.0016712728 0.07769965 0.076020956 -0.035226014
0.03976301 0.08322704 -0.018717779 -0.033508718 0.06757982 -0.061464757 -0.036027424 -0.065525405
-0.10388866 0.10071514 0.05799819 0.05023351 -0.032680184 -0.04600188 -0.01798648 0.12183389
0.027968239 0.021390801 -0.06253043 -0.048915617 -0.047525663 -0.049984585 0.040276773 -0.027622491
0.0686889 -0.008840293 0.009423649 -0.08686984 -0.09663434 -0.06389185 0.07545691 0.011603461
-0.05277692 0.008168898 0.04257124 -0.010508604 -0.0372003 -0.114307344 -0.08313724 0.010340113
-0.0058197496 -0.031587467 0.011905544 0.003444453 0.03243115 -0.009225929 0.0746585 -0.10692143
-0.01616599 -0.016271893 -0.061885267 -0.042890634 0.073151305 0.06508583 -0.09882048 -0.0015311268

policyHead.4.bias f4 [23]
00000000: cd73 853d 7c97 b8bd 444a 923d 7b15 143d
00000010: 4a72 5f3d 7190 15bd bd2f 823d 5ea1 d13c
00000020: 87a0 02bc 9dc5 02bd 0ea1 a3bd 93ff d33c
00000030: ba2c 8ebd 057e 8e3d 31ef 6b3d 7494 ec3b
00000040: 0bd3 58bd f4c1 1ebd aaa7 2d3d 0a06 923d
00000050: ba16 aebb 4ea2 c5bc 40b5 973c
0.06516228 -0.09013268 0.07143071 0.036153298 0.054552354 -0.036514703 0.063567616 0.025589641
-0.007972843 -0.03192674 -0.07989703 0.025878703 -0.06942125 0.0695763 0.057601158 0.0072198454
-0.05293564 -0.038759187 0.042396225 0.07130058 -0.005312768 -0.024125244 0.018519044

valueHead.0.weight f4 [128, 122]
00000000: 7be6 b1bd d51d 843d 2998 49bd 7ef6 573d
00000010: 08e5 1b3d 3c5a bc3d f613 0ebe 7ef2 0ebd
00000020: f924 bd3d a707 8bbd 1b0b 5c3d d96c 65ba
00000030: bd7c 09be 5e22 a4bd 4459 04bd 0823 e63c
00000040: 79f7 f7bc b16b b7bb 3675 523d fed7 5f3c
00000050: 7af1 5bbd 5dd4 a6bd 6c12 893d 36b6 f43d
00000060: 4e40 b9bd 570e 8e3d f9c0 66bd 4623 73bd
00000070: 7ede b53d b648 633d 4390 8a3c dca8 763b
00000080: d013 71bd 1dd0 94bd 737c 4cbd 1277 3fbd
00000090: 9352 b73c 238e 403d 2aa2 6ebd 0258 57bc
000000a0: 2704 d13b 9072 b7bd c12a 5bbd 1746 1e3b
000000b0: 744a bc3c ee54 703d 5372 4f3d eb78 953d
000000c0: 652e dd3c 8512 bebc 163a 563d 078d bdbd
000000d0: 6070 15bd 1bba a8bd 3e8a 27bc 5e97 a5bd
000000e0: 2486 5f3d 85e0 043d da95 ad3c c7c3 253d
000000f0: 4060 4ebd 288c 6bbd 06dd 9ebd 4736 3dbd
00000100: 4eb2 a6bb 0352 7cbd 24ca 953d d58d 5f3c
00000110: 0c16 c8bd d172 7dbd 0614 8abc 4a55 4bbd
00000120: 4b09 29bd de32 19bd 4087 87bd 3266 90bd
00000130: b378 523d 08c7 80bd 9050 22bd 28f0 9dbd
00000140: ffa8 89bd 13ff b73d 3d91 a53d 6a73 853d
00000150: b287 24bd 69ec 433d 8a65 ac3c 3605 ce3d
00000160: 5137 6fbd cfbe b63d 6262 4cbd 6bb9 b53d
00000170: 996a 943d 1b92 2c3d 5bab 463d bd4d 3c3d
00000180: 7a6e b53d 8d5b 3c3c b853 c9bd 1c06 983d
00000190: 27c0 82bd a361 abbd 4194 adbd 892d cb3c
000001a0: 3b8f 4f3d 268b 39bd c506 4a3d 037a 81bd
000001b0: 2af1 f4bc 6df5 adbd 7953 803d fe10 98bc
000001c0: 9261 6a3c 5184 813c 8479 c63d 2459 78bd
000001d0: 3b89 69bd 1a67 b23d 9754 b13c ee13 173b
000001e0: 66d6 5d3d d476 e33d 5695 06be acd6 ea3d
000001f0: 0195 92bc 6cda 61bb e65d 85bd 04f3 fa3d
00000200: 60f4 b4bc 6f8b 41bd b38a 923c 0edf dbbd
00000210: 7534 29bd f137 013d 6b62 4abd 09a7 e13d
00000220: e4cb da3c 47a3 c0bc 2bfa 593d 4d5e 0f3d
00000230: 948a 863d 01fd a43d 5dcd 01be 203f dbba
00000240: 1717 353d 91ba 953d 131b 983d 31a5 69bd
00000250: 378e 84bc c901 d7bb e34d d0bd ddb6 0b3d
00000260: a13c 883d db4f b5bd f274 0fbd abb6 6d3d
00000270: b9d6 363b cac4 93bd 006e 283c e36f 5c3c
00000280: 38a9 4dbc 88af 873d bc11 163d 9bd8 28bd
00000290: 833e db3c 52a3 afbd f4e7 e23c 4157 8fbd
000002a0: acba 7ebd a10f 84bc 0883 083d 63ab 6c3d
000002b0: 9def 433d c84a 493c a459 39bc 8a81 a1bd
000002c0: befd d6bd 69ac c83c 7a13 b83d 4e25 30bd
000002d0: 3420 5e3d fba3 6abc 99b0 5c3c 0025 853d
000002e0: cfc2 f8bb 1127 9a3c 74ed 4bba 6f57 053d
000002f0: 0359 243c 5ee9 ee3c 2e04 fe3c 96ea 1d3c
00000300: cca3 bcbd cc2a 95bd a8c3 6d3d e04c e9bd
00000310: 3a94 3dbd 5493 3cbd f38a a83b ffee 083d
00000320: ff63 22bd b932 b2bc dacc a63d e94b 703d
00000330: e9ff 3e3d f2ca 8a3d 6e50 c9bd ece9 563d
00000340: a0c0 913d 032d 943c 9eb0 c63d 490c b03d
00000350: adbe b5bc eb57 803d bf99 643b e9dc d8bc
00000360: dcfd 043e 93a1 883d 0702 4dbc 658a 253d
00000370: e3a6 1a3d b920 973d 51e6 893c 24c6 153d
00000380: decb ae3d ed77 69bd 4946 a03d a088 93bd
00000390: f871 143d 5155 adbc b99a 05bd 8214 923c
000003a0: 5931 5d3d 2f02 b3bd c7d2 d93a 51db af3d
000003b0: 63aa b1bc 3faa 9ebc 0ced 1abd 6ece b6bd
000003c0: c50f a33b 40dc 39bd e9fb 90bd 49c0 85bd
000003d0: 5ef8 db3c 8354 a63d cfb9 56bc f710 7f3d
000003e0: ca63 4f3d ef1f c7bd 3eda 87bd 7035 fb3c
000003f0: 0f22 13bd 62f9 25bd dace 983c 6f74 e3bd
-0.08686539 0.064510025 -0.049217377 0.052725308 0.038060218 0.09196898 -0.13874802 -0.034899227
0.092355676 -0.06788569 0.05372153 -0.00087518763 -0.1342649 -0.080143675 -0.032311693 0.028092876
-0.030269371 -0.0055975546 0.051381312 0.013662336 -0.053697087 -0.08145974 0.06692967 0.119488165
-0.09045468 0.06936329 -0.056336377 -0.05935981 0.08880328 0.055489264 0.016914492 0.003763727
-0.058856785 -0.07266257 -0.04992337 -0.046744414 0.022378242 0.047010552 -0.05826012 -0.013143541
0.006378669 -0.08957398 -0.05350757 0.0024150664 0.02298472 0.058674745 0.050646137 0.07298454
0.026999662 -0.02320219 0.05230149 -0.092554145 -0.036484122 -0.08238622 -0.010225831 -0.080855116
0.054571286 0.03244068 0.021189619 0.04046991 -0.05038476 -0.05750671 -0.077570006 -0.04619434
-0.0050871735 -0.06160165 0.07313946 0.013644655 -0.0976983 -0.061877076 -0.016855251 -0.049641885
-0.041268628 -0.037402026 -0.06617594 -0.07050742 0.05138464 -0.06287962 -0.03962761 -0.07711822
-0.067216866 0.089841984 0.08084343 0.06516154 -0.04016847 0.04783288 0.021044511 0.10059588
-0.058402363 0.089231126 -0.049898513 0.08873256 0.072468944 0.042131525 0.04850326 0.045972575
0.08858962 0.011496437 -0.09830421 0.0742304 -0.063843064 -0.08368232 -0.08475543 0.024801986
0.050673705 -0.045298718 0.049322862 -0.063221 -0.029900152 -0.08494077 0.06265921 -0.01856279
0.014305489 0.015810164 0.09691146 -0.060631886 -0.05701564 0.08711071 0.02164678 0.002305265
0.054159544 0.11106649 -0.13142905 0.11466727 -0.017893316 -0.0034462465 -0.0651205 0.12253383
-0.022089183 -0.047252115 0.017888403 -0.10735904 -0.041309793 0.03154749 -0.049410265 0.110181876
0.02670855 -0.023515357 0.053217094 0.03500204 0.065694004 0.08056069 -0.12675996 -0.0016727187
0.044211473 0.07310975 0.07427039 -0.057042304 -0.016181095 -0.006561492 -0.10171106 0.03410994
0.06652189 -0.08853122 -0.035023637 0.058035534 0.002789898 -0.07215269 0.010280132 0.01345441
-0.012552552 0.06625277 0.036638007 -0.041222196 0.026763206 -0.08576073 0.027698494 -0.06999064
-0.062189743 -0.016120734 0.033328086 0.057780635 0.047835935 0.012285896 -0.011312876 -0.07886036
-0.10497616 0.024496274 0.0898809 -0.043004327 0.05422993 -0.014321323 0.013469839 0.06501198
-0.0075915824 0.018817456 -0.0007779219 0.032554086 0.010030988 0.029164013 0.031007852 0.009638449
-0.09210929 -0.072835535 0.05804792 -0.11391616 -0.046283938 -0.04603894 0.005143517 0.03343105
-0.039646145 -0.021752702 0.08144541 0.058666144 0.046630774 0.0677699 -0.09829794 0.05246918
0.071168184 0.01808787 0.09701656 0.08596093 -0.022185648 0.06266769 0.003488168 -0.026472526
0.12987465 0.06671443 -0.01251269 0.040415186 0.03775681 0.07379288 0.016833456 0.036565915
0.08534978 -0.056999136 0.07825906 -0.072037935 0.0362415 -0.021158846 -0.03261826 0.017832045
0.05400214 -0.08740651 0.0016618603 0.08586753 -0.021687692 -0.019368289 -0.03782372 -0.08926092
0.004976245 -0.045376062 -0.07079298 -0.06530816 0.02685183 0.08121588 -0.013105824 0.06227204
0.050632276 -0.09722888 -0.06633423 0.03066513 -0.035921153 -0.040521033 0.018653322 -0.11106192

valueHead.0.bias f4 [128]
00000000: 7bf3 a93d 9bf5 353c 8092 273d c153 4b3d
00000010: 5078 683c ac9b c6bc 7511 8d3b 9d9f ab3d
00000020: c28f 363c 5dee fc3c 3c81 16bd 0648 aabd
00000030: 080a 9a3d 7265 95bd 7208 963d ec99 553d
00000040: f488 0abc f924 1b3c 239a 5e3c beca 53bd
00000050: 1b4f 003d 6a84 2d3d 4ecf 4cbd 3e79 1cbd
00000060: 51c7 a6bc d5e5 68bd 358f 5e3c 53d8 c23d
00000070: 87e4 44bd 31af 92bd cc68 b1bd 69d4 b5bd
00000080: 12d6 b83d ea59 94bd e7eb 73bd 7fc3 e6bb
00000090: 2a92 80bc 3eb4 48bd bbe4 4b3c 94d7 e7bc
000000a0: f508 d23c 53e2 62bd e2af 04bd 6c9c 023c
000000b0: d4c8 4cbd e6c2 51bd 5092 70bd b143 b13d
000000c0: 54ae 3ebd ef1a 783d e053 623d cd67 3cbd
000000d0: aa6f a3bb 7c85 9f3c 10e6 65bd 89f8 973c
000000e0: 489c 8cbd 5473 af3d 6e97 373d 2804 023d
000000f0: c489 b0bd b84a c53d cc4d dfbc 18cb 093d
00000100: 9640 853b d2ae a6bc 8776 573c b917 5ebc
00000110: 1fa2 17bd f13c 4f3c 86ac dbbc fa4a bf3b
00000120: 6e54 a5bd 1010 a4bd 290c e9bc efb3 933d
00000130: 8fe5 75bd d32a d9bc 8c0b 5cbd c963 89bd
00000140: 52a0 9b3d 262c d03c 8a96 94bd 28b9 2b3d
00000150: ebdc 97bd 1947 8a3d fcfa 0abd 7350 33bc
00000160: 6780 b93d b250 7abd 4b5b 9cbc 1cc1 9abd
00000170: a654 26bd 0192 94bc 3764 8e3d 84b3 3fbd
00000180: f9f5 87ba 4bdf d0bc d6ff 633d 5a28 a23d
00000190: a500 7dbd df72 24bd cf32 15bc f34b 96bd
000001a0: a1a6 4ebd e22b d73b 6f10 13bd 1f36 a23d
000001b0: 81eb 24bd 65b9 243c acdc adbb 2da4 86bd
000001c0: b5cd b13c 15c9 8e3d b55d 8ebd 6507 9e3d
000001d0: 568d ad3c b1d9 71bd 9527 9b3d 79f2 233d
000001e0: 68c3 0cbd 7e90 6cbd c307 2dbd f77e 963d
000001f0: 9a4c 26bd 0371 49bd 45e2 2d3d 1d09 123d
0.08298393 0.01110592 0.040911198 0.04964042 0.014188841 -0.024244152 0.0043050596 0.08380053
0.011142673 0.03087538 -0.03674434 -0.08314519 0.075214446 -0.0729474 0.073258296 0.052148744
-0.008455504 0.009469264 0.013586554 -0.051707022 0.03132544 0.042362608 -0.05000239 -0.038201563
-0.020358713 -0.05685981 0.013583948 0.09513917 -0.048069503 -0.07162321 -0.086625665 -0.08878405
0.09025206 -0.07243712 -0.059551146 -0.007042348 -0.015694696 -0.049000017 0.01244467 -0.028301038
0.025639037 -0.05539162 -0.032394297 0.007971864 -0.049996212 -0.05121126 -0.058733284 0.08655489
-0.04655297 0.06057256 0.05525577 -0.04599743 -0.0049876766 0.01947283 -0.056127608 0.018551128
-0.06865746 0.08566919 0.04482215 0.031742245 -0.08620027 0.09633392 -0.027258776 0.03364095
0.004066537 -0.020347033 0.013150818 -0.013555461 -0.037019845 0.012648807 -0.026815664 0.0058377953
-0.08072744 -0.08010876 -0.028448181 0.07212054 -0.060033377 -0.026509678 -0.05372195 -0.06708486
0.07598938 0.025411677 -0.072552755 0.041924626 -0.07415184 0.06751842 -0.033930764 -0.010944474
0.09057694 -0.061112113 -0.0190865 -0.07556364 -0.04060807 -0.018136026 0.06952708 -0.04680206
-0.0010372988 -0.0254971 0.055663906 0.07917853 -0.061768193 -0.040148612 -0.009106352 -0.07338705
-0.05045188 0.0065665105 -0.035904344 0.07920479 -0.040263657 0.010053967 -0.005305847 -0.06574283
0.021704534 0.06971947 -0.06951467 0.07716254 0.021185558 -0.059045497 0.07575909 0.04002616
-0.03436604 -0.057754986 -0.04224373 0.07348435 -0.040600397 -0.049180042 0.042452116 0.035653222

valueHead.2.weight f4 [64, 128]
00000000: 4c34 533d 4a7c 84bd 5cd0 eebc 9328 ff3b
00000010: 5718 19bd 19c7 3abd 1178 97bd 6b40 4c3d
00000020: e8ba 283d 004d d9bc 0f3b 7ebd 6413 88bd
00000030: c71a b2bd 2a59 2c3d 83e2 e4bc b173 56bb
00000040: 9019 b9bb 564b 2dbd df4e 223c 0791 353d
00000050: dfbc 28bd 3cae b83c 7cae fcba 3850 02bb
00000060: b018 26bd a5f3 aa3d 4efb ecbc ffe9 bc3d
00000070: 5e3b d23d bbb1 813d 91c5 303c e09e e13c
00000080: 2aec b8bd 47be 1fbd 7eb1 3dbd 8ff6 c6bd
00000090: 10e9 1fbd 7f10 ba3d fb26 93bc e4d1 28bd
000000a0: b8a3 b83d 9745 51bd e5e7 2c3d 04f6 a5bd
000000b0: 672d 893d 24c3 303c e556 9f3d 4ae3 9c3c
000000c0: addb 00bd 57ec 503d 8d4f 863d 12d1 3f3d
000000d0: 54b1 9fbd 201c d53c 0c5d 9cbd 3a0b 5dbd
000000e0: a59e 853d 22cc 12bd 9e11 69ba 104b 42bd
000000f0: e29f d73d 0e0e 1a3d 207e 2ebc 4c32 c5bd
00000100: bfc8 0dbd 52a1 833d bec6 b83c 9f8a 8cbd
00000110: 9d9b 67bd 3c3f b83d 5dac 1ebe bc23 6abd
00000120: 1273 12bd 3195 f73c 4bed bf3c baa9 bbbc
00000130: e224 3cbc 8ebb db3d a511 a8bd 9fb9 0db9
00000140: 1f42 5abd ab0a 65bc add7 6f3d 370e 1abb
00000150: feaa 413c 799e 343d 510a 903d ba86 f6bc
00000160: 0638 38bd d364 913c b3d2 bbbd 8cda 16bd
00000170: 11c6 e03d 4d01 383d f919 083d 01a2 c93d
00000180: 1ffa 4fbd 470a fcba 554a 8d3d e4fd 103d
00000190: 8f41 373d 6f64 b93c 2bf4 02be 8250 1d3d
000001a0: dfa3 0bbc 3b39 c1bc 7133 d8bd d080 2ebc
000001b0: 1fa7 cb3d 1264 09be 52ab 513d 5b69 38bd
000001c0: 36c0 103c 6968 8fbc c182 033d c9d8 0dbe
000001d0: 1ce7 8a3d bcc8 c4bd f0ec aa3d d5ed c3bd
000001e0: 1354 c6bc acd4 b039 ac59 873d 8346 dbbc
000001f0: 2e23 bbbd e1c4 52bd 312c 4abc d297 5bbc
00000200: 5dbe 4f3b 0589 87bd cb6e 8cbb 4036 a33d
00000210: 2356 8dbc be0f 36bd b9bc 6a3d 7cfd 3aba
00000220: b25f 573b d5e2 45bd 09d2 8cbd 514a 21be
00000230: 8ee0 d03d fe90 a33c 130c b7bb c728 eebc
00000240: 00c1 d53d a5c9 9d3d 1b17 b33c 7747 863d
00000250: 1213 a6bc 3e8c 063d 9707 f93d 9860 bfbd
00000260: bcd2 f8bd dab5 4d3d 0178 bd3d a7e3 b23d
00000270: 5e3d e43d 75c1 e03d fd02 6b3d 1550 1cbd
00000280: 1daf 293d 205f a9bb dc88 163d 7329 d7bc
00000290: 03ee fc3c 331a 44bd 0c65 18bd 4df0 9b3c
000002a0: db53 543d ccf0 843d 4cd1 50bd f0f2 aebb
000002b0: 161b 323c 57d2 acbd 29aa 1abc 3f64 41bd
000002c0: f179 ae3c 3e19 363d 0cbc 493d b0b3 e9bd
000002d0: 521b 4bbd f427 adbd 5bb1 4a3d 5f54 08bd
000002e0: bb52 01bd 6a62 d03c 3e1b 6c3c f458 d2bd
000002f0: f91b 703c d2c9 b43d a7ab 633c 5e06 78bd
00000300: dfce d2bd b03d 27bc 0691 543d 326b ae3d
00000310: 26e1 9abd 852b cfbd 940b b23b 5672 d53c
00000320: 15c7 6a3d ebc1 793d c212 fabd 8e79 9cbd
00000330: 685c f63d b3a7 563d d866 d0bd 9a0b ddbd
00000340: d664 0c3d e3e7 0bbd f698 5ebd 678a c23d
00000350: ae10 b2bd c59a 5fbc 7be8 9cbd 4d96 95bd
00000360: 09bc 82bd ed70 d73d c4f9 263d 3231 a33d
00000370: ca4f a53d f800 c3bd 27dd 59bd b950 b23d
00000380: add1 fc3c 4182 8cbd fb69 f43c 9359 bb3d
00000390: 445e a83d bca3 0cbd 3883 e6bc 075b 72bd
000003a0: ebe9 8d3d 19a2 fb38 c3a0 dfbd 0d5a bc3d
000003b0: 4c30 05bd 18e7 5ebd 52f5 723d bd6e 99bb
000003c0: b457 3dbd 04a6 80bb 34b5 a13c 9ecd d1bd
000003d0: f452 e53c 8f96 7fbd 5c3d a33d 42d7 de3c
000003e0: 49dd 01be f8c5 b83d 7931 8f3d d627 063d
000003f0: 722a 903d 5edc 983d 5524 6f3d 0a3b a73d
0.051563546 -0.06469019 -0.029152088 0.0077868192 -0.037376728 -0.04560003 -0.07395948 0.04986612
0.041193873 -0.026525974 -0.06206804 -0.066443235 -0.086965136 0.04207722 -0.02794004 -0.0032722766
-0.0056487992 -0.042308174 0.0099065 0.044327762 -0.041195747 0.022544019 -0.0019278075 -0.001988424
-0.040550888 0.08347253 -0.028928425 0.09224319 0.1026523 0.063327275 0.010789291 0.027541578
-0.0902942 -0.038999822 -0.046311848 -0.09714996 -0.039040625 0.09085178 -0.017962923 -0.041215792
0.09015602 -0.051091757 0.04221334 -0.081035644 0.06698113 0.010788713 0.07780246 0.019151349
-0.0314595 0.05100664 0.06558142 0.046830244 -0.077974945 0.026014388 -0.07634935 -0.053965785
0.065244 -0.035839207 -0.000889087 -0.047434866 0.10528542 0.03761106 -0.010650188 -0.09628734
-0.034615275 0.06427254 0.022555705 -0.068623774 -0.05654489 0.08996436 -0.15495439 -0.057162985
-0.03575427 0.030222507 0.02342858 -0.02290808 -0.011483403 0.107291326 -0.082064904 -0.00013515957
-0.053285714 -0.013979594 0.058555294 -0.0023507008 0.011820553 0.044096444 0.07033218 -0.03009354
-0.044975303 0.017748272 -0.09171047 -0.036829516 0.10975278 0.044923116 0.033227894 0.09845353
-0.050775643 -0.0019229137 0.06898943 0.03539838 0.044740256 0.022630898 -0.12788455 0.038406856
-0.008522957 -0.02358686 -0.10556687 -0.0106508285 0.09943985 -0.1341708 0.051188774 -0.04502235
0.008834889 -0.017505841 0.03210712 -0.13852228 0.06782362 -0.096085995 0.083459735 -0.09566847
-0.024210012 0.0003372779 0.066089004 -0.026767021 -0.09137569 -0.05145729 -0.012339638 -0.013402896
0.0031699159 -0.06617931 -0.0042856685 0.07969332 -0.017252987 -0.044448607 0.057308886 -0.0007133109
0.0032863435 -0.048312027 -0.068759985 -0.15751006 0.101990804 0.019966599 -0.005586156 -0.029072179
0.104372025 0.07704476 0.021861603 0.065565996 -0.020272765 0.03284859 0.12159651 -0.09344596
-0.121495694 0.050222255 0.092514046 0.087348275 0.11144517 0.10974399 0.057375897 -0.03816231
0.041426767 -0.0051688105 0.036751613 -0.026264882 0.030875212 -0.047876548 -0.03720574 0.019035483
0.051837783 0.06491241 -0.05098085 -0.005339019 0.010870716 -0.08438557 -0.009439983 -0.047214743
0.02129838 0.044457667 0.0492516 -0.11411226 -0.0495866 -0.08454886 0.049485546 -0.033283588
-0.03157304 0.025437552 0.014410792 -0.10270873 0.014655107 0.08827557 0.013895906 -0.060552947
-0.10293364 -0.010207579 0.051896118 0.0851654 -0.07562475 -0.101157226 0.005433509 0.026055496
0.057318766 0.06097595 -0.12210609 -0.07640372 0.12029344 0.052406024 -0.10175866 -0.107932284
0.034275852 -0.03415669 -0.054345094 0.094990544 -0.08694588 -0.01364774 -0.0766153 -0.07304058
-0.06383521 0.10519586 0.04076554 0.07968368 0.08071859 -0.09521669 -0.053189423 0.08706803
0.0308617 -0.068607815 0.029835692 0.09147944 0.08221105 -0.034335837 -0.028138742 -0.05916884
0.06929382 0.00011998806 -0.10919335 0.09196863 -0.032516763 -0.054419607 0.059315987 -0.0046823905
-0.04622622 -0.0039260406 0.019739725 -0.102442965 0.027993657 -0.062399443 0.07970688 0.027202252
-0.1268207 0.090221345 0.06991858 0.032752834 0.07039346 0.07463907 0.05838426 0.08165558

valueHead.2.bias f4 [64]
00000000: 57ca 803d 5ab7 ad3d e996 613d 3b11 ab3d
00000010: 2ef2 903d d9b6 11bd c572 91bd 0085 64bd
00000020: 2d2f ce3c 28df a73d 546c 76bb ea21 18bd
00000030: 27a7 79bd 8c84 b53d 1368 b7bc 1580 a7bc
00000040: 4bcd 3cbd b74a 003d 1030 573b af32 c1bc
00000050: 37ff 9f3d 9797 123d bba2 793c f4cd 653d
00000060: d0c4 c93c 3d01 643d 9608 583d b259 283c
00000070: 53f9 81bd 9876 3cbd 8e53 3c3d de3b 703d
00000080: c3e6 8f3d f376 00bd d574 903d 7739 503b
00000090: 375d b6bd 9e7d fb3c 6743 94bd e15a 203d
000000a0: cd89 13bc 06c3 52bd 3f19 6ebd 1bb5 6d3d
000000b0: a998 643c 4c28 dfba ef9b 083d 18dd 54bd
000000c0: a90d 27bd 29f3 3c3d 07ab 813d 8b26 133d
000000d0: 8583 6d3d 468c 033d 3d4f bc3d e15b ccbc
000000e0: 7fb8 2b3c ec31 3b3c 5194 9abd fd5c e03b
000000f0: f368 97bc 71da 5d3d 8c68 47bd 1992 2abd
0.06288593 0.08482237 0.05507556 0.08352896 0.07077442 -0.035574768 -0.07101969 -0.0557909
0.02516898 0.081968606 -0.003760119 -0.037141718 -0.060950425 0.08863172 -0.022388494 -0.020446816
-0.04609422 0.031321254 0.0032835044 -0.023583738 0.0781235 0.0357891 0.015236552 0.056104615
0.02462998 0.055665243 0.052742563 0.010275291 -0.06346383 -0.046011537 0.04597812 0.058650844
0.07026436 -0.03136344 0.07053534 0.0031772533 -0.08904498 0.030699547 -0.072394185 0.03914917
-0.009005022 -0.05145552 -0.058129545 0.058034044 0.013952413 -0.0017025559 0.033351835 -0.051968664
-0.04078451 0.046130333 0.06331449 0.03592543 0.057986755 0.032116197 0.09194801 -0.024946155
0.010480999 0.0114254765 -0.0754782 0.0068470226 -0.01848266 0.0541634 -0.048683688 -0.041643236

valueHead.4.weight f4 [1, 64]
00000000: 3be3 50be 6981 d8bd 2e43 f5bd 7931 423e
00000010: 4e61 4a3d a7de f6bd 49d3 c23d f2f8 4abe
00000020: 071c fc3d 0fc6 ffbd 520a fb3d dac9 42be
00000030: e8b2 d6bd f422 e23d efb0 223e 8799 ae3d
00000040: bfab 33be 975b 18be 9dca fcbd 97b2 64be
00000050: 6d46 eebd 87d1 e93d 6850 c6bd ba01 c23d
00000060: 99cb 8ebd 8c7a 873e 77df 1bbe 9009 6e3e
00000070: abc4 f5bd 16da 2d3e a3bf 023e 1d93 17be
00000080: 66e9 c53d fc52 09be a870 e0bd 9558 a7bd
00000090: 00b3 16be fa72 8a3d d0a3 b5bd 5a72 4c3e
000000a0: bcb2 a23d f715 873e d50f 553e e27f fe3d
000000b0: 054d 023e e6dd 0fbe a0be 363e a6c8 773e
000000c0: 911b dfbd 2e50 9e3d 198f 123d b9e4 71be
000000d0: 75d8 273e 870b babd 0edc 113d 333e 433e
000000e0: dfaf 91bd c101 dabd cfa8 81be 65c7 38bd
000000f0: b070 df3d fc54 f53d 3402 5d3e 5697 1c3e
-0.20399182 -0.10571558 -0.11975704 0.18964185 0.049409203 -0.12054186 0.09512956 -0.19821528
0.12310033 -0.124889486 0.12257828 -0.19022313 -0.104833424 0.11041823 0.15887807 0.08525377
-0.17545985 -0.14878689 -0.12343333 -0.22333752 -0.116345264 0.11416917 -0.09683305 0.094729856
-0.06972427 0.26460683 -0.15221964 0.23245835 -0.12000402 0.16977724 0.12768416 -0.14802213
0.09663658 -0.13410562 -0.109589875 -0.081711926 -0.1471672 0.06760211 -0.088691354 0.19965497
0.07944247 0.26383945 0.2080682 0.124267355 0.12724693 -0.14049491 0.17846155 0.24197635
-0.1089393 0.07730137 0.035781 -0.23622407 0.16391166 -0.0908423 0.03561025 0.19066696
-0.07113623 -0.10644866 -0.25324103 -0.045112032 0.10910165 0.119791 0.21582872 0.15292105
