MachiKoro/NewVersion/Models/version_2_model_2.pt (torch, 251410 bytes, 11 tensors)

policyHead.0.weight f4 [128, 169]
00000000: 71de bcbc 6f9d f53c 026d 81bd 2710 183c
00000010: 0392 243d b9b8 853d 60de 8ebc 456a 1ebd
00000020: e3eb ee3c 05ab cfbb d793 f93d a56a c03d
00000030: 7715 eb3b d02d 49bd f1bb 323d bfcd 18bd
00000040: 4c27 503c 3db6 12bb 793c 5fbd 7b51 b6bd
00000050: aa68 ee3d 5122 333d ba29 f1bd a258 803c
00000060: 5b90 4cbd 77f8 00be 5cdc 66bd 0c57 253c
00000070: d75e d03c 28c5 8a3c 19b5 bc3c c2c7 f9bd
00000080: 136b 06bd d290 413d d7a2 30bd 90c9 64bd
00000090: c08e e9bd 06a3 9cbc 4442 f9bd 7856 1cbd
000000a0: 1759 a03c 62e6 85bc 9a42 f0bc 9497 02be
000000b0: c9be 97bc 123b 5ebd 02fe 253d c3fc ebbc
000000c0: 28d9 3fbd 5801 00be 9c68 203d 1e76 d1bd
000000d0: 9276 6f3d 7efe 2dbd 25f0 09bd 0c1a bbbd
000000e0: de14 f8bc 33a7 d1bc e593 813d 6a91 bbbd
000000f0: b0e6 223c 6f7c 02bd 9b28 4f3d 52b5 83bd
00000100: 54a9 f9bc cbd7 0e3d 6dcc 34bc 8021 a5bd
00000110: 9fa8 71bc 6ef0 2e3d d246 5bbd a1ec 6ebd
00000120: d277 08bd ff62 fdbd 8401 a8bd d3ee 333d
00000130: d215 a43b 4034 b53d c524 23bb b31e 8cbd
00000140: 8581 1dbd 83e5 3f3d 29b4 3b3e 1751 f23d
00000150: 0b40 87bd f995 63bd da2a d0bd a977 eebd
00000160: 2725 4f3d cee2 f93d 12e4 8ebd bfc0 dbbd
00000170: 323c 603c 437d 56bd 1c8a b23d bb6b 58bd
00000180: d9a3 8b3b e694 2cbc e6e4 013c 932d 8bbd
00000190: bfd1 af3d 64c9 1bbe af18 a1bd 17db 0f3d
000001a0: da06 8dbc aff1 a3bd b377 84bd e505 6bbd
000001b0: 4ff7 d2bb 3709 2a3d b16c 0f3e ccfd 6f3d
000001c0: d6d6 acbc 32ff c9bc 7996 423d 4f0f cebc
000001d0: c5d7 a3bb 97d3 3bbd c00a 933c 5e58 43bc
000001e0: c5ff 34bc 3b01 82b9 c3c8 2e3d c5bd 8c3b
000001f0: a85e 4a3c de66 5a3d d782 bdbc 424d 7d3b
00000200: de7d 8bbc 4caa 8dbc ff0d c3bc d174 b2bd
00000210: 28f8 52bc 8c5c 723d dff3 c9bd 20be e0bd
00000220: c601 8dbd a237 ed3d 1b5e 35bd 1c8a 07bd
00000230: b806 e03d d931 883d 7450 0d3c 2f66 10bd
00000240: 216e 0c3c cb7c a8bd 9e1b 093d 7a1c 553d
00000250: b66e d93b aa74 09bb aa96 78bc c3de 12be
00000260: b3c7 66bd b150 b63d 0ddb ffbc 6572 e8bd
00000270: d972 00be d78f 96bd c9a3 e6bc 5c95 84bc
00000280: 5208 8ebc a623 8c3b 2d41 b03d 21e7 cb3d
00000290: a0d0 f1bc 964a 903d a833 9ebd 9350 bb3d
000002a0: b507 a8bc df2a 13be 1d6e c93c 5084 07bd
000002b0: af85 ebbc 1b52 b9ba 75f7 6fbd a5d5 41bd
000002c0: 7789 06be 2a27 ac3d 566a 83bd e8ef e7bd
000002d0: 477a c53d 98c8 5d3b 04ef d2bd b8ba 7abd
000002e0: 6acc 49bd 90a3 a3bd 29db d9bd b701 adbd
000002f0: 745e cbbd e1d9 0f3e 76f6 dabd 92da d13c
00000300: fadf 3cbd a112 00be e37c babd 649e e3bd
00000310: 8057 fbbc 3857 1d3c 8d57 f4bd 9e28 8abd
00000320: 1e57 c2bc 107e 98bd 7650 003b 016e 673d
00000330: da61 aabd 91de 5abd 604f ec3c a7c6 38bc
00000340: 0c7f 50bd 215c 00bd a9ff 823b 1a90 ecbc
00000350: 981d 763b 9998 51bd 7eaa 88bd 6974 a8bc
00000360: 1203 c1bc 9a1e e4bd bb33 28bd d3a7 cbbd
00000370: 7116 99bb 8ae0 aa3c 39cb 463d 37ca 6dbd
00000380: e1f0 0bbc 26d8 a8bd 726a 20bd da0c 89bd
00000390: c37b afbd 8dd3 0cbe d5b2 74bc 7dfc 4fbd
000003a0: a9f4 94bd b28d 16bb 9682 a33d e864 853d
000003b0: f2ff 0dbc c299 d4bc 7681 71bd 1391 9739
000003c0: c55d 353c 8ff6 3cbd 3b1a 943c eb51 0ebd
000003d0: 34dd 88bd e2dc 09bd 9140 46bd 3e49 2e3d
000003e0: 077a 9b3d d357 0ebd cb7c a6bc 38ad b8ba
000003f0: f056 3d3d 31d2 29bd 001e 22bb d329 06bd
-0.023055287 0.029982297 -0.0631962 0.009281195 0.04017831 0.06529374 -0.017440021 -0.038675565
0.029165214 -0.006337526 0.12186401 0.09395341 0.0071741897 -0.049115956 0.043636266 -0.03730559
0.012704682 -0.0022386455 -0.05450103 -0.0890226 0.11641057 0.0437339 -0.11775537 0.015667263
-0.049942356 -0.12594782 -0.056362495 0.010091554 0.025435848 0.016939715 0.023035573 -0.12196304
-0.032816958 0.047257252 -0.043124046 -0.055856287 -0.114041805 -0.019120704 -0.12170842 -0.0381684
0.019573731 -0.016345207 -0.029328633 -0.12753135 -0.01852359 -0.054255553 0.040525444 -0.02880705
-0.046837956 -0.12500513 0.039162263 -0.10227607 0.058462687 -0.04247903 -0.033676285 -0.091358274
-0.030283388 -0.025592422 0.06327037 -0.09158595 0.0099426955 -0.03185695 0.050575834 -0.064310685
-0.03047625 0.034873765 -0.011035067 -0.0806303 -0.014749675 0.04270976 -0.053534336 -0.058331136
-0.033317395 -0.12372398 -0.08203414 0.043928932 0.005007484 0.088478565 -0.0024893743 -0.06841793
-0.038453598 0.04684974 0.18330444 0.11831873 -0.06604012 -0.055562947 -0.10164423 -0.11643917
0.05057254 0.12201463 -0.06977095 -0.10730123 0.013686227 -0.052365553 0.087177485 -0.052837115
0.0042614755 -0.010533547 0.007928109 -0.06795802 0.08584928 -0.15213543 -0.07866036 0.03512105
-0.017215181 -0.08005082 -0.06468143 -0.05737867 -0.006438173 0.041512694 0.14006306 0.05859165
-0.021098536 -0.02465782 0.047506783 -0.025153784 -0.005000087 -0.045856085 0.017949462 -0.011922924
-0.011047308 -0.0002479645 0.04267193 0.004295083 0.012351669 0.053320758 -0.023133678 0.0038650786
-0.017027792 -0.017293118 -0.023810385 -0.08713687 -0.012876548 0.05917029 -0.09860968 -0.109737635
-0.06885104 0.11582877 -0.0442792 -0.033090696 0.109387815 0.06650133 0.008625139 -0.0352537
0.008571179 -0.08226927 0.033473603 0.05202911 0.006635512 -0.0020974078 -0.01517264 -0.1434279
-0.05634279 0.089021094 -0.031232381 -0.11349944 -0.12543811 -0.07351654 -0.02815427 -0.016184501
-0.017337952 0.0042767106 0.08606181 0.09956194 -0.029518425 0.07045476 -0.077246964 0.09146228
-0.020511487 -0.14371823 0.024588639 -0.033085167 -0.028750269 -0.0014138849 -0.058585603 -0.047322888
-0.13138376 0.084059075 -0.06416766 -0.11325055 0.09642463 0.0033841487 -0.10299495 -0.061213225
-0.04926721 -0.079901814 -0.106375046 -0.08447593 -0.09930125 0.14047958 -0.1069154 0.025616918
-0.04611204 -0.12507106 -0.091058515 -0.11114195 -0.030681372 0.009603314 -0.119307615 -0.06746028
-0.023723181 -0.074459195 0.0019579208 0.056501392 -0.08319445 -0.053434912 0.028846443 -0.011277831
-0.05090241 -0.03133786 0.003997762 -0.028877307 0.003755426 -0.05117092 -0.06673144 -0.020563321
-0.023561034 -0.11138649 -0.04106496 -0.09944119 -0.0046718647 0.020859022 0.048533652 -0.058054175
-0.008541317 -0.08244352 -0.039164014 -0.06691904 -0.085685275 -0.13752575 -0.014935215 -0.0507779
-0.07273228 -0.002297264 0.07983892 0.06513387 -0.008666979 -0.025952224 -0.058961354 0.00028909053
0.01106972 -0.046133574 0.018078914 -0.03474609 -0.06682816 -0.033657916 -0.04840142 0.042550318
0.07591634 -0.034751724 -0.020323178 -0.0014089709 0.04622549 -0.04146022 -0.002473712 -0.03275473

policyHead.0.bias f4 [128]
00000000: eb51 55bc 55cd 80bc 8093 b0bd 737d 8bbc
00000010: 860a 2fbd a5fa d5bc 606d a5bc a464 bebd
00000020: 25d2 cebd 04ad e1bd c223 f2bd 5816 b8bc
00000030: f8c0 2cbd 84f9 823b 1637 b0bd 8ab9 873c
00000040: b406 d23c 9ca9 87be 9ad9 8dbd c3d2 ddbd
00000050: 7c49 4ebd 818d 7cbe 8aa0 9cbd 914f 86bd
00000060: dd79 30bd 32a6 a6bd ce7f 91bd 8b40 02be
00000070: cdfd 5fbc 5a50 40bd edae 5fbd 196f 27be
00000080: 5eae 7dbc 1a87 cabd 60d4 c3bc 984b a0bd
00000090: 14e1 7e3b 060f 99bd 6b5d f9bd fc0a d2bc
000000a0: 8ad2 de3a 5f2e 81bd 93e4 bcbd 8542 44bd
000000b0: 1c52 00be 26d8 4fbd cddc 18bc 3f04 36bd
000000c0: 1817 f4bd 38fe 3dbc ff33 4bbd d2ff cf3b
000000d0: 3514 4abd f60f 69bd f757 eebc 9ab3 e1bd
000000e0: a12b dfbd 28a8 e5bd f3dd 9dbc 6909 d7bc
000000f0: d55f 90bd d7f3 9fbd 9729 03be d1fb ccbd
00000100: b79e 4ebd 78fe 97bd 9337 0e3d 078a 3a3d
00000110: b388 cfbd 1e4d 45bd 45c7 153c a81c 3bbd
00000120: 3bd4 803c 92c3 a0bc 74b9 ffbd b25e 60be
00000130: fe85 bcbd 99dd 67be 9fcc c2bd bfed 4a3c
00000140: ed10 11bd 542b e4bc 5406 8dbb 5480 84be
00000150: 7e71 c8bc c773 7dbc 43c7 a4bd 5234 7bbd
00000160: 1fda bfbd 0b6d babd 6ea8 93bd 16ed c6bc
00000170: 49be d5bd 7616 bfbd fef6 77bd d52c cdbb
00000180: fd77 cbbe 8b9d babd f893 9abd 3ddb b1bd
00000190: 19aa 4ebd 883e d9bd 265f 1ebe 6e0b a2bd
000001a0: d769 06be 289a b2bd 7616 70bd 3a2e 9dbc
000001b0: cc4b 9cbd ed64 f8bd 49a5 3abe 3ade d2bd
000001c0: f293 fabd 8168 8ebd 1fd6 8abe b0b7 a7bc
000001d0: e5a9 0fbd 3d65 c5bd 0d14 75bd d62d f4bb
000001e0: ce31 65bd f660 283d adf6 08be 9f06 41bd
000001f0: 4d35 e6bc 3353 64bd 44e5 c2bd 9854 3e3c
-0.013020019 -0.01572291 -0.086218834 -0.017027592 -0.042734645 -0.026120493 -0.020193756 -0.092965394
-0.10098676 -0.11019328 -0.118232265 -0.022471592 -0.042176217 0.0039970297 -0.08604257 0.016567964
0.025637962 -0.2649659 -0.0692627 -0.10831215 -0.05036305 -0.24663354 -0.07647808 -0.06558145
-0.043084968 -0.08137168 -0.07104455 -0.12719934 -0.013671351 -0.04695163 -0.05461018 -0.16350974
-0.015483467 -0.0988905 -0.02390498 -0.07826918 0.0038891481 -0.074735686 -0.12176021 -0.025640003
0.0017000001 -0.06307673 -0.092232846 -0.047915 -0.12531322 -0.050743245 -0.009329987 -0.044437643
-0.11918467 -0.011596255 -0.049610134 0.006347635 -0.049335677 -0.056899987 -0.02909468 -0.110205844
-0.108969934 -0.11213714 -0.019270873 -0.026249604 -0.070495285 -0.07810181 -0.12808834 -0.10008968
-0.05044433 -0.07421583 0.03472097 0.04554179 -0.10133495 -0.048169248 0.009141748 -0.045681626
0.0157262 -0.019624505 -0.12486544 -0.21911123 -0.092052445 -0.22643127 -0.095116846 0.012385785
-0.035416532 -0.027852692 -0.004303733 -0.25879157 -0.02446818 -0.015469498 -0.08045819 -0.061329193
-0.09367775 -0.091028295 -0.0720986 -0.024282973 -0.10436685 -0.09330456 -0.060538284 -0.006261448
-0.3973998 -0.0911208 -0.07547754 -0.086843945 -0.050455187 -0.1060763 -0.15465984 -0.07912336
-0.13126312 -0.08720809 -0.05861517 -0.019187082 -0.076316446 -0.12128625 -0.18227114 -0.102962926
-0.122352496 -0.06953526 -0.27116486 -0.020473331 -0.035074133 -0.0963845 -0.059833575 -0.007451753
-0.0559557 0.041108094 -0.1337535 -0.047125455 -0.028101588 -0.055743407 -0.09516385 0.011616848

policyHead.2.weight f4 [64, 128]
00000000: 4f11 3e3c b987 ba3c 5cba 153d 75c2 713d
00000010: 9db3 1f3e 39be adbd 4d01 dcbc 6b0b 593c
00000020: 29aa 2f3e d9aa fb3d d6c0 95be 5332 a03d
00000030: f7c8 183e 7562 ed3d ad72 983d b41a 9fbd
00000040: 1f97 e53d 2378 bfbd 82d9 e0bd f432 153e
00000050: 2253 e0bd 22ae 913d c5bd 50bd 2b64 3d38
00000060: 1efe 52bb c575 a53d fb70 173e 8ac9 95bd
00000070: 2b6e 6b3c f4cd acbd bf1a d1bd c0b3 1d3d
00000080: d23e 993c fe42 003e c9b9 d53d bfdc c73a
00000090: ac53 c93c 4f64 c43c 5c31 1ebc 820b a93d
000000a0: f601 9c3d a01c da3d b5b7 373d ae0e e5ba
000000b0: 4187 e43c bff2 73bc 9df3 193e 3e75 983d
000000c0: 05ac 31bd 3ede 5bbd fe75 143e 9fdf c93c
000000d0: 0f68 85bd 2ab3 f4bd 5a67 ebbc 82d4 7a3d
000000e0: 4c6b 013d 2e42 d93d 5f61 a93d 9f7c e93c
000000f0: bbb8 d33d 1484 453d 50f9 7b3a acdd 3d3d
00000100: 24e1 b03d 2fcf 93bd 9437 b93c 9484 c13d
00000110: d940 903d 1854 fb3d 7406 a6bd 49a9 6b3c
00000120: 5d54 11bd 6af7 023e d31c f4bd b91d b0bc
00000130: e0fc 693d 7ffe d2bd 0778 9a3d d81c 053e
00000140: 112b ad3a c121 db3d 55fa 533d 8eb5 10bd
00000150: 01b4 7bbd 1ea8 77bc 80cb f2bc 6345 19bd
00000160: 793e acbc eacb 3d3d 5570 babd 707d a0bd
00000170: e4d6 18bc 5b62 0e3e 863e efbd 04ea 803d
00000180: 955d b13c 18b8 e63d 0e78 8f3c 96c0 89bb
00000190: a709 eb3d 45a5 0f3e cf06 21bc 1571 673d
000001a0: 6f01 63bd 0021 a13d 3dbe a43d 83f3 f83d
000001b0: 92a0 813d 1a75 01bd 3773 fb3c f729 eb3d
000001c0: 98a0 0fbc 6464 363d 22c9 85bd 04fa 353d
000001d0: f9d1 223c 38f8 d1bc 8b65 253d b6c6 3bbb
000001e0: 56f5 a7bd 877a 073e 0e18 a6bc 7e68 88bc
000001f0: 7b36 703d 85b1 b8bd 53ce c33c e82d 113b
00000200: 0090 9d3c d9a8 263d aaa4 c3bb f2de d4bb
00000210: 489c eabc 6c4d 5b3c 95af 4bbd 73e9 843b
00000220: 1ab1 85bc d6c3 af3b 605d 4cbe 2530 d6bc
00000230: a076 e23c 5c9e 643d 735f 21bd 92e6 08be
00000240: 8bc7 a7bd 57e0 953c 9508 9f3d 69ea 03bd
00000250: 749a 583c 4cf4 aebc 3a11 3c3c 4923 a23c
00000260: 7f5d 7b3c b34e 023d 8895 e9bb 061f a5be
00000270: efc7 a03b 3333 be3d 3172 743d b80e b53d
00000280: c9b9 2bbd 5be5 8e3d 725d 913d c026 c5bb
00000290: 54b0 433d 3fdc 2039 0de4 15bd 4ac9 0abd
000002a0: 2633 063e 0dfb 89bc 985e 9d3c e522 e13b
000002b0: ecd8 cf3d f01c bbbd 7321 7a3d cd0a 94bd
000002c0: a9e8 ddbd 3022 2bbc 5549 23bd 7807 053d
000002d0: a890 bf3d 2e25 ed3d 366a e4bd fb59 83bc
000002e0: cbd7 863d 445f 9b3d 6d36 ac3c bdd3 bebd
000002f0: 5b5b 89bc 29be d33d f6ee ae3a 3b74 0fbd
00000300: f256 a83c 5db2 203a 9be3 7bbd 572e 53bc
00000310: ebde 383c 747a 0a3d 31d3 e7bc b0dc 00bd
00000320: bded 393d 9285 cabd 5632 f53d d1e7 2d3c
00000330: b608 ee3c 46b3 edbd 88d3 02be 22ad af3c
00000340: 3298 143d f716 f2bd 9e19 aebd ba0d 89bd
00000350: e742 76bd e76a 973d e9c1 403c cf3d 9cbd
00000360: 9ee1 273d 9cef ccbd 624f f23c b0ef 9d3c
00000370: 129e a93d 4e44 e23d 7aaa db3d e0c1 27bd
00000380: a586 debd 56e2 09bc 0a56 ed3c 39e0 953d
00000390: d9d2 613d 45fc 94bd 2fd2 c23d 9920 86bd
000003a0: 12aa a93d d0b5 f83c 9e58 9ebb 5b5b 12bd
000003b0: a690 9ebb 9266 fe3c e876 db3d 48d4 5bbd
000003c0: 73ae 423d bbba cc3c bf55 81be 2340 cb3c
000003d0: fe8d 60bd 730f 62bd aeec 9dbd 62fd 493d
000003e0: e750 d2bc 741e 2c3c c569 00be f411 2bbe
000003f0: 9194 433d 5e20 4cbd 5ab6 973d fbe7 9ebb
0.011600806 0.022769796 0.03655468 0.05902334 0.15595861 -0.08483548 -0.026856089 0.013247351
0.17154755 0.12288446 -0.29248685 0.078220986 0.14920412 0.11591045 0.07443748 -0.07768765
0.11210465 -0.09349086 -0.10978986 0.14570218 -0.10953356 0.07113291 -0.05096223 4.51544e-05
-0.0032194923 0.080791034 0.14789192 -0.07313831 0.014369528 -0.0843772 -0.102101795 0.0385015
0.018706713 0.12525555 0.10435826 0.0015248283 0.02457603 0.023973612 -0.009655323 0.08254148
0.076175615 0.10649991 0.04485293 -0.0017475688 0.027896525 -0.014889418 0.15034337 0.07444237
-0.04337694 -0.053678744 0.14498135 0.024642764 -0.06513988 -0.11948235 -0.028735805 0.06123782
0.031596467 0.10608326 0.08270525 0.028501807 0.10337969 0.048221663 0.00096120406 0.04635398
0.08636692 -0.072172515 0.02260951 0.094491154 0.07043619 0.12271899 -0.081066996 0.014383622
-0.035480846 0.12789693 -0.1191956 -0.021498548 0.057125926 -0.103024475 0.07542425 0.12999284
0.0013211687 0.106997974 0.051752407 -0.035329394 -0.061450962 -0.015115766 -0.029638052 -0.037419688
-0.021025883 0.046337046 -0.09103457 -0.07836425 -0.009328578 0.13904707 -0.11681847 0.06294635
0.021651069 0.11265582 0.017513301 -0.0042038662 0.114764504 0.14027889 -0.009828283 0.056504328
-0.05542129 0.078676224 0.080440976 0.12155821 0.063294545 -0.031605817 0.030694587 0.114826135
-0.008766316 0.044529334 -0.06532504 0.044427887 0.009937757 -0.025631055 0.040380042 -0.0028652376
-0.08201091 0.13230334 -0.020275142 -0.016651388 0.058645707 -0.09018234 0.023902094 0.0022152606
0.019233704 0.04068837 -0.005970557 -0.0064963037 -0.028638974 0.013385158 -0.049727995 0.0040561496
-0.0163198 0.0053639216 -0.19957495 -0.026146004 0.027644455 0.055815086 -0.039397668 -0.13369206
-0.08192357 0.01829545 0.07765309 -0.032205973 0.013220418 -0.021356724 0.0114787165 0.019792216
0.015342115 0.031813335 -0.007128421 -0.32250232 0.0049066464 0.09287109 0.059679214 0.08840698
-0.041925225 0.0697734 0.070979014 -0.0060165823 0.04777558 0.00015340837 -0.03659444 -0.03388337
0.13105449 -0.016843343 0.019210145 0.006870615 0.101487964 -0.09136379 0.061067056 -0.072286226
-0.10835392 -0.010445163 -0.039864857 0.032477826 0.09353763 0.11579357 -0.11153071 -0.016034117
0.06584128 0.0758653 0.021022046 -0.093177296 -0.016767194 0.103390045 0.0013346362 -0.035022955
0.020549271 0.0006130094 -0.06149636 -0.012889466 0.011283617 0.033808187 -0.028298946 -0.031460464
0.04539274 -0.09888758 0.119724914 0.010614351 0.029056888 -0.11606459 -0.12776005 0.02144486
0.036277957 -0.118207864 -0.0850098 -0.06692071 -0.060122397 0.07393437 0.011764982 -0.076289766
0.04098665 -0.10006639 0.029578868 0.019279331 0.08282103 0.11048184 0.10725875 -0.040956378
-0.10865525 -0.008415779 0.02897169 0.07318158 0.05513272 -0.07274679 0.095127456 -0.06549186
0.082843915 0.030360132 -0.0048323413 -0.035731655 -0.004839021 0.031054769 0.10716039 -0.053669244
0.04752965 0.024991384 -0.25260732 0.024810856 -0.054822914 -0.055190515 -0.07711159 0.04931391
-0.025673343 0.0105053075 -0.12540348 -0.16706067 0.047749106 -0.049835555 0.07407828 -0.0048494316

policyHead.2.bias f4 [64]
00000000: 1a7f abbe 09ad 2cbe 17b6 a3bd 82fc 8bbe
00000010: d4fb 8cbc b46f b3be ae41 8cbd 9553 eabd
00000020: 1b77 6cbe 38cb 95bc b46d 71bc 1c32 c4be
00000030: db97 a3be 5c43 babe fc45 bbbe 1828 05be
00000040: 22ca 11be 3eaf 8abd 55d8 26be e052 ccbd
00000050: 5368 fbbd 20a2 00bc 0fb3 63be dc17 8cbe
00000060: 4049 dfbd 50bc 41be 1b8b dfbd 46c2 62be
00000070: ff50 d5bd 4846 edbe 79fc 0ebe 679c c7be
00000080: 8f03 f8bc d687 a6bb 6905 7ebe 0c90 e2bd
00000090: b086 c3be 907f 9abe 4d7e f5bc fb2b 98be
000000a0: b3e9 80be de8e 67be 59b1 62bd 6674 38be
000000b0: 09b7 99bd 1c6c 98be 216d 93bb c907 acbd
000000c0: f73e 44be 998f f1be 7429 e4be 7613 b5be
000000d0: cf78 3abd c148 f4bd 925d 1abe da38 d4be
000000e0: e6e9 94be 7745 a6be ffa5 25bd 849d ebbd
000000f0: c5ee 36bd 947d 35bd 953a 56be 6e69 a8be
-0.33495408 -0.16862883 -0.07993715 -0.27341086 -0.017209925 -0.3504616 -0.06848465 -0.11441723
-0.2309231 -0.018285379 -0.014735628 -0.3831948 -0.31951794 -0.36379516 -0.3657683 -0.13003576
-0.14237264 -0.06771706 -0.16293462 -0.09976745 -0.12275758 -0.007851154 -0.22236274 -0.27361953
-0.10902643 -0.18919492 -0.10915204 -0.22144422 -0.104158394 -0.46342683 -0.13963498 -0.38986513
-0.030275134 -0.005082111 -0.24806751 -0.11062631 -0.38188696 -0.30175447 -0.029967451 -0.29721054
-0.25178298 -0.22613093 -0.055344913 -0.18013152 -0.07505614 -0.2976998 -0.004499093 -0.083999224
-0.19164644 -0.4717987 -0.44562876 -0.3536641 -0.04552537 -0.11927939 -0.15074757 -0.41449624
-0.290847 -0.32474872 -0.04044151 -0.11504653 -0.044661302 -0.044309214 -0.20920785 -0.32892936

policyHead.4.weight f4 [24, 64]
00000000: 5af3 fa3d 6956 cdbd c876 32be 25f3 4e3d
00000010: 37fc d43d 29b3 3fbe 90f7 a73a 8e8d 12be
00000020: 7cb1 30bc 3f33 913c e469 583d 0131 b0be
00000030: bc2e c73d 30ba 88be e7a9 41be 9484 f9bd
00000040: 0e70 5e3e 9857 013e 51d9 a73d 4bf5 793d
00000050: 1d0e 89bd 07de a73d c540 92be 79b8 9a3d
00000060: 4045 05be 7afc f53e 68f9 103e 4d2f f23d
00000070: c976 063e 9663 adbe 85d2 b93d 5a96 643e
00000080: 4784 aabd 1ca1 27bd 0e73 943e 7ec9 7cbd
00000090: 840d bb3c 6280 0ebc cde2 1b3d 7440 883d
000000a0: e3c3 b0bd 0ada 8abe 835c ec3d 1f3e cbbd
000000b0: d5dd 53bd 9944 e33d 661c f33c 68a4 4fbd
000000c0: b0ee 663c 28e2 85be 4101 893d cd9f ccbe
000000d0: 88c2 acbd fd85 51bd da42 4e3e d97e dcbe
000000e0: ae18 3abe 881d c53d 1430 423d 9d3b 603d
000000f0: 6639 b0bc 13ae 60bd 452f ec3e 6781 843e
00000100: 64a1 0bbe eb3b 49be ce5f 693d ae4e 3bbe
00000110: af22 f43d cf5d bdbe c4a5 213e c5fc 91bc
00000120: 2f5c 2a3d 49f4 bfbd 61cc bf3d d6a1 803e
00000130: 2565 a43e 1e8b d0be 3d71 ab3e 73b0 5d3d
00000140: 2848 c9bc dd9d 043e c850 b93d 2efc 0cbd
00000150: 590f 2e3e c642 68be 28b9 5d3e 36f5 08be
00000160: fe72 08bd 7db5 08bf bc70 e63d 2535 a53e
00000170: 8793 143d 7215 75be f1ba b4bb c539 b23e
00000180: 625f edbd 32b5 dfbd 14f8 d63d 8a7a ee3d
00000190: a5c4 a2be 439c a8be d47e 7f3d cb03 ec3c
000001a0: be9a 993e abae a63e 68de 70bd b446 79bd
000001b0: f7eb 54bd 7a06 78be 4284 443d abe8 bd3d
000001c0: 03bb 7f3d 046e babe dfd9 20be cb72 e1be
000001d0: 9779 80bd cefa 15be 8f05 65be 73f3 37be
000001e0: dfad c5be 9364 fdbd c791 6f3e a1f2 563d
000001f0: ded6 133d 6bd2 a2bb 4f61 383e ed66 aa3e
00000200: c390 7e3c 9cc0 90bd feb1 123e b037 153d
00000210: 7a05 633d 1c8b 0abe 4186 24be 8468 733d
00000220: aaf6 d2bc b466 883d b469 263c b45f a5be
00000230: 44f0 22bf 545a 8ebe ba17 973e fa7a 2fbd
00000240: 7937 d7be cb0f 7fbd 7d3a d63b cc89 3a3d
00000250: 5cab cd3c c5f1 e2be bf96 4cbe e23d 903d
00000260: dde0 443d d337 59be 59bc f2bd ba38 bfbe
00000270: 4ff9 833d 5cce 83be c384 9b3c 421b 1bbe
00000280: 51ef 74bd d08c e33c a951 643e 25c4 03be
00000290: d771 7ebe 0c31 723d 1622 dabc 11c7 55bd
000002a0: 32bc 343e d47c 80be e7ed be3d e1d7 4abc
000002b0: e206 80bd 9437 24be f86d 9f3a ab97 023c
000002c0: fb83 42bd 5c37 9c3e 2c2c 3fbd 7ac6 9bbe
000002d0: 4162 ad3c 4f17 66bd ecf8 a6be a886 b8be
000002e0: 848d 8abc a5cc 253d 5ccb 8a3c 5dc4 f6b9
000002f0: a022 10be 9746 b13c c320 973e 4e68 44be
00000300: 6ff1 22be 5226 ccbd 64be 253e f502 bdbc
00000310: 3089 663c 2ca4 a6be 9b0e 253e 2cd1 21be
00000320: 850d aebd 93d4 d73c 72a2 17bd 1dbe 44be
00000330: 0dca 05be 81d1 f7be b74b 6bbe a515 363d
00000340: e1f3 4d3c e41d 0d3c 7b50 973d c769 c5bc
00000350: 32e6 24bc 5f31 50be ca71 823c 400a 9ebc
00000360: c2bf 94bc af15 fbbe 5886 39bd d560 263e
00000370: 261b 1d3d d8c8 c0be 596b 30bc 3823 5bbe
00000380: 1b19 483e 026a 353c a57c 913e 0f8a 82bd
00000390: 929a cabe b341 5dbe 9611 97bb f930 b73c
000003a0: 4938 c6be 541f d5be eded b4bd cd16 e73c
000003b0: e198 b2bd c7e5 e8be 37b4 8fbd 7253 993c
000003c0: 7329 b33d b134 b4be eb1c aabe a427 993e
000003d0: 5614 4cbd 4fe2 c73d e8b8 743e d371 1bbe
000003e0: 0178 963e 0ce2 4bbe f6ca b0bc 87d8 933b
000003f0: 9e15 84bd 884b c23d 8723 753e 2a3a bc3e
0.12253447 -0.10026247 -0.17428124 0.05052485 0.10399669 -0.18720688 0.0012814868 -0.14311811
-0.010784503 0.017724631 0.05283536 -0.34412387 0.09725711 -0.2670455 -0.18912469 -0.121834904
0.21722433 0.1263107 0.08195747 0.061024945 -0.06692145 0.08196645 -0.2856504 0.075547166
-0.13014698 0.48044187 0.14157641 0.11825428 0.1313125 -0.3386504 0.090733565 0.2232298
-0.08326011 -0.04092513 0.2899403 -0.061715595 0.022833593 -0.008697601 0.03805809 0.066529185
-0.086311124 -0.27119476 0.11541083 -0.09923958 -0.051725227 0.11097068 0.029676627 -0.0506939
0.0140949935 -0.26149106 0.06689692 -0.39965668 -0.084355414 -0.05115317 0.2014269 -0.43065527
-0.18173477 0.09624773 0.047409132 0.05474435 -0.021511745 -0.05485351 0.46129814 0.25879976
-0.13635784 -0.19651763 0.056976132 -0.18291733 0.11920678 -0.36985633 0.15785891 -0.017820725
0.04159182 -0.093727656 0.09365154 0.2512347 0.32108417 -0.40731138 0.3348483 0.054123353
-0.02457054 0.12950845 0.09048611 -0.034420185 0.16998042 -0.22681722 0.21652663 -0.1337479
-0.03331279 -0.5340193 0.11251971 0.3226711 0.036273506 -0.23933962 -0.005515449 0.348097
-0.115904585 -0.10923232 0.10496536 0.11644466 -0.31790653 -0.32931718 0.062376812 0.028810402
0.3000087 0.32555136 -0.058805853 -0.060858443 -0.051982846 -0.2422122 0.047977693 0.092728935
0.062434208 -0.3641206 -0.15708111 -0.44032893 -0.062731914 -0.14646456 -0.22365402 -0.17963962
-0.38609216 -0.12372699 0.23395453 0.052477483 0.036093585 -0.0049689314 0.1800587 0.3328165
0.015537444 -0.07067987 0.14325711 0.03643006 0.055425145 -0.13529629 -0.16066839 0.059425846
-0.025752384 0.06660214 0.0101570375 -0.32299578 -0.63647866 -0.2780329 0.2951029 -0.04284189
-0.4203451 -0.06227092 0.006537734 0.04554157 0.025106125 -0.4432508 -0.1997938 0.07043053
0.04806601 -0.21212701 -0.11852331 -0.37347966 0.06444036 -0.25743377 0.018984204 -0.15147117
-0.059798542 0.027777106 0.22296776 -0.12867792 -0.24848114 0.059128806 -0.026627582 -0.052191798
0.17649916 -0.25095236 0.0932272 -0.012380571 -0.06251313 -0.16036826 0.001216351 0.007970731
-0.047489148 0.30510986 -0.046672985 -0.30424863 0.021165015 -0.056174573 -0.32611787 -0.36040235
-0.016913183 0.040478367 0.016942672 -0.00047067078 -0.14075708 0.021640105 0.29517183 -0.19180414
-0.15912412 -0.099682465 0.1618591 -0.0230727 0.014070794 -0.32547128 0.16118853 -0.15802449
-0.084986724 0.02634648 -0.037020154 -0.19213147 -0.13065358 -0.48402026 -0.22978102 0.044454236
0.012570352 0.0086130835 0.07388397 -0.02409829 -0.010064648 -0.20331334 0.0159234 -0.019291997
-0.018157844 -0.4903998 -0.045294136 0.16247876 0.03835597 -0.37653232 -0.010767781 -0.21400154
0.19540827 0.0110726375 0.2841541 -0.06373989 -0.39571053 -0.21607094 -0.0046102507 0.02236222
-0.38714817 -0.41625464 -0.08834443 0.028209114 -0.087205656 -0.45487806 -0.07016795 0.018716548
0.0874814 -0.3519645 -0.33225188 0.29913056 -0.04982408 0.09759962 0.23898661 -0.15180139
0.2938843 -0.19910449 -0.021581154 0.004511896 -0.06449436 0.09487063 0.23939334 0.36763126

policyHead.4.bias f4 [24]
00000000: 4462 39be 7f05 3bbc a2ec 48be abd1 6cbe
00000010: 81d6 98be 587c e3bd 9dcf b0be 962f c7bd
00000020: c0a1 f3bb 2cf9 4b3d 0bef 88be 8692 15be
00000030: 9a3e babe 91f8 99be 1b52 8dbe 4f65 ebbc
00000040: 046b 85be 8068 093f 7a0e 803f 3493 d33f
00000050: e856 ddbd 5512 2ebd 61df df3e a1f8 b9be
-0.18103892 -0.011414885 -0.19621518 -0.23126857 -0.29851153 -0.11107701 -0.34533396 -0.09725873
-0.0074350536 0.049798176 -0.26744875 -0.14606676 -0.36375886 -0.30072454 -0.27601704 -0.028734831
-0.2605821 0.5367508 1.0004418 1.6529298 -0.10807592 -0.04249795 0.43725112 -0.363225

valueHead.0.weight f4 [128, 169]
00000000: cd46 283f b5e8 773f 8aa6 943e 5dd3 483f
00000010: 58e6 62be 247b a03f 9482 bfbf 6ba0 4dbf
00000020: fbf1 ee3e 15d0 13bf 2018 0e3d 25a7 873d
00000030: b83e afbe 2615 283e d37a 28bf 6d18 80bf
00000040: db66 2ebe 66cf f8be 0d74 983e da1e 4bbf
00000050: 6c2b 23be f707 bdbe ab03 71bf 2cd5 14bd
00000060: 483a 133d ae76 9d3e f3b6 2abe 7a63 5ebe
00000070: 2f02 57be f463 fabe 8773 f9bd 8d94 2bbe
00000080: e848 eabe 5964 cbbc 3ed0 49bd ea4c 39be
00000090: a87d fabc ee21 10bf 4ff5 19be 4926 ecbe
000000a0: 3acb 21be 3acb d0be c925 81be b509 debc
000000b0: 0872 043e 9536 e9bd 0f7e 8bbe ddfb 70be
000000c0: ee52 2ebe 6289 04be a4f3 bbbe 4a1d 88be
000000d0: 4870 1f3d 7c10 74bd d650 7fbe d0a0 55bd
000000e0: d62a 0abe 172c a2be 1c8e b5be 9c54 9cbe
000000f0: 7bda 1fbf f90c eabd c24a 04bd 3cac c3be
00000100: 2384 50bd 3658 813e 5839 d23f 4e84 10bf
00000110: b3f8 ff3e 755a 80bf 09b9 c5bd ed45 8ebb
00000120: 7669 dcbe 7477 083d bea8 00bf 2f03 16bf
00000130: c2e5 b9be 8384 c33e 94ca 393c ed66 69bd
00000140: 2bc1 10be 3989 7bbe f205 4d3e 148c c83e
00000150: ddd9 1abf ccee db3e e3f8 93be d894 833f
00000160: 3e82 65bd fa1e d0be b94a 7abd 20e1 a0be
00000170: 064c c43e b851 33be a034 813f 4f82 03bf
00000180: 0168 1cbe 29c2 5b3d 9b6e 6dbe 2e83 6f3e
00000190: 464b ff3d db5d fb3e 4ecc ce3e 23c0 d5be
000001a0: 4563 43bf c308 21be 76f0 83bb 3bc6 053d
000001b0: c65d 6cbd 5ef9 73bd 350e 7e3f 6bdf 26bf
000001c0: 9857 55be d80a 9a3d 1736 793d de68 54bd
000001d0: dce0 303d ca0b 993c 2877 f93c 4501 14be
000001e0: d4ca bcbc 7fc2 9cbd af43 7cbd adc2 dd3c
000001f0: db3e 913d 1410 7b3c 7177 25be 1233 ad3e
00000200: 77f2 f7be e6d1 1d3f 5963 09be aaa9 f8be
00000210: c1ea 483e f17a d2be 80c9 03bf 78e8 6bbc
00000220: b473 eabd 8dcb 9cbe 4ee1 9f3e 5d86 523e
00000230: 932b b7bd 364c 303e d722 0a3f a658 82be
00000240: dbcd 61be 0032 a3be 6ecc f4bc 5932 3dbf
00000250: 68e5 803f f7aa febe 4029 0a3f 0219 2ebf
00000260: f040 a13e 70b5 533e cd86 c2be 1c04 d9bd
00000270: e065 f63e fcc2 96be 8b09 923e 6208 773e
00000280: c041 b1be c67b bdbe 512f 5f3e 95d4 b2bd
00000290: ccb3 bb3e d3ee fd3d 2b6c 2dbf 9cf3 883e
000002a0: bac7 77bc 6da7 ebbc 88dd d7bd d4dc 183d
000002b0: 5e60 8d3d 7162 d5bd 4416 f13c 74d3 4e3c
000002c0: 3193 8b3d f8a5 813d e488 ff3d e4cb 883d
000002d0: 9e3a a93d 0cff 4e3c 9133 2abe c212 2a3e
000002e0: 5f04 0fbd ec9a fdbc f7d2 75bd ed5a 24bc
000002f0: 68c4 11be 2267 353d bcec ccbd b4a5 033c
00000300: acf1 fbbc c440 02be 5e16 2ebe a592 1abd
00000310: d8c6 c5bd 52bd c33c 3ec7 5fbd 0646 a6bd
00000320: bf32 c2bd d9d0 113d 1e44 91bc 590c 82bd
00000330: a9be 8fbc fced 48bd 5da2 11bd dc64 2abd
00000340: e820 8abd 6cf3 50bd 40d4 6dbc 0669 013d
00000350: 1717 24bd bd06 06bd 80f6 49bd 7552 abbd
00000360: 46ad ecbd 8835 40bd ba89 b0bd 5d42 03be
00000370: 7de8 cbbd b750 bcbc b9ff 7abd 8999 7dbd
00000380: b96e 7abc 7042 04bc 00fc 11bc 10c5 4dbd
00000390: c33d 24bd 235e a6bd bf48 c2bd a66a c9bd
000003a0: a886 a0bd 9753 76bd 0050 b5bc f3aa 02bc
000003b0: 6aa9 173d 53f5 f2bd 3661 913b eca1 6c3d
000003c0: 325f 843d c004 bbbc 60e0 57bd bf8d 20bd
000003d0: c12d 2c3d 1fcf a53c 83c7 adbd fcdc 3a3d
000003e0: 7e26 783d f93a a6bd 2eea 523c 388b 6d3c
000003f0: 5582 98bd 7217 1c3d 57ad 80bc 8f0a 663d
0.65733033 0.9683946 0.2903331 0.78447515 -0.22158182 1.253758 -1.4961724 -0.80322903
0.4666899 -0.57739383 0.034690976 0.06623677 -0.34227538 0.16414317 -0.65812415 -1.0007454
-0.17031424 -0.48595732 0.2977604 -0.7934395 -0.15934533 -0.3692014 -0.9414622 -0.03633611
0.035944253 0.30754608 -0.16671352 -0.21717635 -0.20996927 -0.48904383 -0.12180238 -0.16755886
-0.45758748 -0.024828123 -0.04927086 -0.18095747 -0.030577496 -0.5630177 -0.15034984 -0.4612296
-0.15800181 -0.4078005 -0.2522414 -0.027104238 0.12934124 -0.11387364 -0.27244613 -0.23533578
-0.17023823 -0.12943032 -0.3670932 -0.26584846 0.03892544 -0.059586033 -0.2493318 -0.052155316
-0.13492903 -0.31674263 -0.35459983 -0.30533302 -0.6244275 -0.114282556 -0.032297857 -0.38217342
-0.050907265 0.25262612 1.642375 -0.5645188 0.4999443 -1.0027605 -0.09654433 -0.004341832
-0.4304921 0.033317044 -0.5025748 -0.5859861 -0.36308104 0.38187036 0.011339802 -0.056982923
-0.14136188 -0.24564065 0.20021799 0.3916937 -0.60488683 0.42955625 -0.28900823 1.0279799
-0.05603241 -0.40648633 -0.061106417 -0.31421757 0.3833925 -0.17511642 1.0094185 -0.5137071
-0.1527405 0.053651962 -0.23186724 0.23389885 0.12465529 0.49095044 0.40390247 -0.4174815
-0.7632335 -0.15725999 -0.004026468 0.03265975 -0.057706617 -0.059563987 0.9924043 -0.6518466
-0.20834196 0.075215995 0.0608426 -0.05185782 0.043183193 0.01868238 0.030452326 -0.1445361
-0.023045935 -0.07654285 -0.061587986 0.027070368 0.07092067 0.015323658 -0.16158845 0.33828026
-0.48427173 0.61648405 -0.13416804 -0.48566943 0.19620802 -0.41109422 -0.5147934 -0.014398687
-0.1144785 -0.30624047 0.3122658 0.20559068 -0.08943858 0.17216572 0.5395941 -0.25458258
-0.22051184 -0.31874084 -0.029882636 -0.7390495 1.0070009 -0.4973981 0.5396919 -0.6800691
0.31494856 0.20674682 -0.3799347 -0.10596487 0.481246 -0.29445636 0.28522906 0.24124292
-0.34620476 -0.37008494 0.21795394 -0.08731953 0.36660612 0.12399068 -0.67743176 0.2674836
-0.015123302 -0.028766358 -0.105403006 0.037319973 0.06903146 -0.10419167 0.029429562 0.012623657
0.06815184 0.06330484 0.12477282 0.06679514 0.082631335 0.01263405 -0.16621234 0.16608718
-0.034916278 -0.030957662 -0.060015645 -0.010031444 -0.1423508 0.04428781 -0.10006091 0.008035112
-0.030754887 -0.12720019 -0.1700072 -0.037737507 -0.09657067 0.023893986 -0.05463337 -0.08118825
-0.09482335 0.035599563 -0.017732676 -0.063500114 -0.017546969 -0.049055085 -0.035555232 -0.041600093
-0.067445576 -0.051013395 -0.014515936 0.0315943 -0.040061083 -0.03272127 -0.049307346 -0.08365337
-0.11556487 -0.04692605 -0.08620019 -0.12818284 -0.09956453 -0.022987707 -0.061279032 -0.061914
-0.015285187 -0.008072481 -0.008910179 -0.05023676 -0.040097963 -0.08123424 -0.094865315 -0.09834795
-0.07838184 -0.06013831 -0.022132874 -0.007975328 0.0370268 -0.11863198 0.0044366373 0.05777161
0.064634696 -0.022829413 -0.052704215 -0.03919768 0.04203582 0.020240365 -0.084853195 0.045620903
0.060583584 -0.08116717 0.012873216 0.014498524 -0.07446734 0.038108297 -0.015707655 0.056162413

valueHead.0.bias f4 [128]
00000000: 88a5 6dbe 86c8 fbbc 1b66 8fbd 309c 81be
00000010: 5683 fabd c5f5 99be 8bc2 d6bc 053c 76bd
00000020: 8cfc 06be 70c3 efbd f33f 8abd 13d0 aebd
00000030: 73a4 98bd cc38 b0bd cceb b3be 94dc 12bd
00000040: c6c3 50bd f75c efbd b63e 2bbc 23ae 95bb
00000050: 4b5e 88bc 19ea b8bd 3816 18bd 56b1 6fbc
00000060: 7cc8 32bd e5b0 8ebc 9a22 9cbd e103 8fbd
00000070: 5ac7 073c aeea 9fbe c1e1 5bbc 73f5 bebd
00000080: 8fb7 bdbb ffec d2bd 597c 2fbc 6cbf aabd
00000090: 3cd1 90bd 2d97 ebbd a33b 4bbb 3cb4 09be
000000a0: f196 20be dd05 9dbd 74e2 0abe 141f e8bd
000000b0: d80e 773c ba46 c1bd 6bd4 09bd 66ed 14bc
000000c0: 5996 c8bb 4532 28bd b236 d7bc 6be3 52bd
000000d0: 851f 683d 2ca0 94be d346 81bd af1c fdbd
000000e0: 3a2e adbd 96ed e0bd 888b f63c eca5 843c
000000f0: 9952 e6bc 3c47 d4bb c996 d83c 75aa d1bc
00000100: e7a3 87be 4db2 98bd 5222 3cbd d2cc f6bd
00000110: 7ae0 49bd 3294 5bbd dd5a c63a 2cc8 22bd
00000120: 9f78 0abd b227 393a e018 8abc 1303 f63b
00000130: 8fd9 c2bd c709 88bd bb15 ee3b 34cc 17bc
00000140: 304f b4bc d425 243d ac30 113c c5d9 62bd
00000150: c67c e43c 66e7 b5bd 02e3 87bd dacb 933c
00000160: 92ce 23bd 8463 43bd d336 15be f068 373c
00000170: b2a6 f1bd 8317 f5ba f8f2 42bc e76c 29bd
00000180: 8d9f 89bd 1934 ddbc 0dd4 dbbd acdc 99bd
00000190: fd3b efbd 41c3 84bd 6e13 75bd a296 b1bd
000001a0: a763 92be fc09 33bc e154 3ebc 6310 e0bd
000001b0: e86f 05be feab c4bb 313c 03be 5449 a9bc
000001c0: 091a bebd eac7 be3b f06b 4dbd 0481 38bd
000001d0: 10d6 813c b876 22be 3f7c c2bd 5692 b1bd
000001e0: 13b9 01bd 0987 ac3c 0260 dcbd 59a6 f8bd
000001f0: c737 94bc ffed b6bd 6403 0ebd 249d 943c
-0.23207676 -0.030735265 -0.07001897 -0.25314474 -0.122320816 -0.3007032 -0.026215812 -0.060115833
-0.13182276 -0.117071986 -0.067504786 -0.08535781 -0.07453241 -0.08604583 -0.35140836 -0.03585489
-0.050967954 -0.116876535 -0.010451963 -0.004567878 -0.016646525 -0.090290256 -0.037130564 -0.0146296825
-0.043648228 -0.017418334 -0.07623787 -0.06983162 0.008287275 -0.31233734 -0.013420523 -0.093241595
-0.005789704 -0.1029911 -0.010710799 -0.08337292 -0.07071158 -0.11503444 -0.0031010888 -0.1344766
-0.1568258 -0.07667134 -0.13562948 -0.11334053 0.015079223 -0.09437318 -0.033649843 -0.009089803
-0.0061214385 -0.041063566 -0.026271198 -0.051486414 0.056670684 -0.2902845 -0.06312337 -0.123589866
-0.08456083 -0.10982816 0.03009583 0.016192399 -0.028115558 -0.0064782184 0.026439087 -0.025593976
-0.26492235 -0.07455883 -0.045931168 -0.12050785 -0.049286343 -0.053608127 0.001513328 -0.03974168
-0.03380644 0.0007063105 -0.016857564 0.0075076907 -0.09514152 -0.0664249 0.007265774 -0.009264994
-0.022010416 0.04007514 0.008861702 -0.055383462 0.027891528 -0.088820264 -0.06635095 0.01804154
-0.039991923 -0.047702327 -0.14571695 0.011194453 -0.11799373 -0.0018699024 -0.011898749 -0.041363623
-0.06719885 -0.027002381 -0.10733805 -0.07512793 -0.11681364 -0.06482554 -0.059832983 -0.08671309
-0.28591654 -0.010927673 -0.011616916 -0.109406255 -0.1303097 -0.0060019484 -0.1281593 -0.020664848
-0.092823096 0.0058221715 -0.050151765 -0.045044914 0.015849143 -0.158656 -0.09496354 -0.086704895
-0.03167064 0.021060484 -0.107604995 -0.12141103 -0.018093003 -0.08932113 -0.034671202 0.018141337

valueHead.2.weight f4 [64, 128]
00000000: 921a 2a3e 456b a6bd 1e2c 45be a645 1f3d
00000010: 77d6 733a d142 58bd 37b7 533a 19df 383c
00000020: b400 c23d 00b7 533d b7f0 c4bc c8d8 17be
00000030: 2aef 7cbc 3217 b6bc 860d f9bd 022c 3b3b
00000040: d6ff 3f3d 3f8d 5abd 333d 42be 2c03 dabd
00000050: bc2c b03d e690 29bd d83e b73d 2f6d f73d
00000060: 32e6 c0bd 0f01 f03d a2d1 d33c a29d 2e3d
00000070: 7449 eb3c e894 003d d5c0 be3d 097f 923c
00000080: 8aa6 cebd 4e79 48bd 3648 ecbb 6648 0b3d
00000090: a0cd 54bb a16d af3c 08fd 973c 794d 713d
000000a0: 62e5 3ebe 3203 433c 6e85 7c3d 46b2 e83c
000000b0: 4980 08bd de63 803d 9e94 59bd 7f18 23bd
000000c0: 5c13 dcba e41f d13d db1f 1b3d e533 193d
000000d0: 93c3 82bd 9807 993c 0f84 a83d 4dec 5c3d
000000e0: 284c 213c 83a4 d33c c3fb 6f3d 0bd2 69bc
000000f0: d336 b13d b622 f3bc 51de 0dbd 62e3 8a3c
00000100: c535 283d 0a21 0c3e 9ec0 013e 74bd 183e
00000110: 3838 8a3c 894f b9bd 409b 803b 2cff 80ba
00000120: 9a2c 333b 4412 62bc 78a0 563d 8b48 4d3d
00000130: 23e6 033d a2d6 be3a 921b 1e3e 2e7b 963d
00000140: 1375 a43d 6e98 793c 8804 2c3d d2fd 9cba
00000150: 6e53 a53c bcd0 8c3c 31fb 433d 1200 aa3d
00000160: 6ea8 a6ba 0ce2 f43c 225a 8c3d 1bb3 9f3c
00000170: 6000 73bc 581e ab3d 119b 223d 85c5 b93b
00000180: cdac 913c c04a 0a3d f34c ad3d 08da eb3d
00000190: 521d 783d 1f95 a53d 5ded 7b3c 013d bd3c
000001a0: 2a36 313d a6eb 0a3c 7ab0 883c e884 b23d
000001b0: dfe5 44bd 9e8d 1fbd d17a 3e3d c7d6 2c3d
000001c0: 5056 d83d 9214 2f3d 2645 3c3c cb48 fbbc
000001d0: 5c9a 44be 632e 7ebd ef0b dc3d 1462 563d
000001e0: 2cd4 2b3e e7a5 453d 347c fabe da4d f23c
000001f0: 82c1 ac3b 46b0 3f3b f58c 32bc 2884 d93d
00000200: 5256 35be dbd6 603d 1690 a5bd fc66 aabd
00000210: 9b3e bdbd 0318 17bd f67a b83d 0226 023e
00000220: 7ba6 e73d 4181 babd 48a7 73bc eb16 bf3c
00000230: d789 403d 8d84 de3d 9137 0dbd 3f3a 0fbd
00000240: b051 103d a5a8 e3bd 4fd6 f8bd d894 87bd
00000250: 6e65 863c 283c bbbb 4cfe 0bbd bd3a 4e3c
00000260: 5e61 b93d 47d5 c2bb d646 00bd 8a6b 8fbd
00000270: 88b6 a93d 465a 09bd 72ec 9d3d ecba 46bd
00000280: 1d5f 4fbd 5309 8b3c 8aca cc3d 2157 ba3d
00000290: b159 4dbd 39f6 22bd 4031 093e 7edc 5cbd
000002a0: 8b95 e1bd 782c a83c 16d8 ffbc 5b58 1d3d
000002b0: 5579 173d 2467 013e 61a2 f6bc 143f 263d
000002c0: bad8 073d 2099 183d 806c a6bd d62f 143d
000002d0: abe6 25be f858 8bbd 2c1b bebb 5dfd d13d
000002e0: 050d a2bd f58c 46bd a5b9 613d 4656 35bd
000002f0: 34e7 233d 2c8c bf3d 8b83 d73d 3854 2b3d
00000300: 70f7 50be 32e2 e63d 7fc6 c0bc eb6a f43d
00000310: 5f4a 683d ec2e 8f3d 2b2d 913b 43b5 b73b
00000320: fac8 5e3d 1b3a cbbc 5fb6 093e d1af 683d
00000330: 1710 35bc d141 2b3b b771 0d3e 6b6e 273e
00000340: d97a 103d ac53 593c 4081 fd3b ea2f 093d
00000350: eb52 cabd d01e 58bc 1279 333d 1028 cc3d
00000360: 0fa6 1c3d 06fc b93d 4f5c c0bc 6244 323d
00000370: 0602 53bd 0d88 8138 b2e3 413d fb12 ab3d
00000380: 6f00 3e3d e0ef 323c 4308 85bc ec2c ecbb
00000390: 438a e13c c0bc 133b 666d 103e c0a2 e93d
000003a0: 92f7 9bbd 0958 393d af37 cb3c b1ea e83d
000003b0: f35f 3bbe 6db8 4d3d f2cb 073e bcda 403d
000003c0: c913 e13d 78c0 b3bd ddf6 b1bd 4497 be3d
000003d0: 9093 cabd 1ae1 393d 1f54 8ab8 5b63 263c
000003e0: a5b2 253e 4298 4d3d 9ed2 22bf 13a3 413d
000003f0: fe6c 283c 6d85 983d 89ec b03d 3e3c 7dbd
0.16611698 -0.08125929 -0.1925511 0.03888478 0.0009301672 -0.052798096 0.00080763124 0.011283659
0.0947279 0.051688194 -0.024040563 -0.14828789 -0.0154378805 -0.022227857 -0.121607825 0.0028560166
0.046874844 -0.05335736 -0.18968658 -0.10645136 0.086022824 -0.04139795 0.08947533 0.12081372
-0.09418906 0.11718952 0.025856797 0.0426308 0.028721549 0.031392008 0.093141235 0.01788284
-0.100903586 -0.04894381 -0.0072107567 0.03400459 -0.0032471195 0.02141458 0.018553272 0.058911774
-0.1864219 0.011902617 0.061650686 0.02840532 -0.033325467 0.06269048 -0.053120248 -0.039818283
-0.0016790438 0.10211161 0.037872177 0.037403006 -0.06384959 0.018680379 0.08228313 0.05393629
0.009844817 0.025835281 0.058589708 -0.01427127 0.08653035 -0.029679637 -0.034635846 0.016954128
0.041066904 0.13684478 0.12671134 0.1491602 0.01687251 -0.09048373 0.0039247572 -0.0009841672
0.0027339817 -0.0137983 0.05239913 0.05011801 0.032201897 0.0014559815 0.15440205 0.073477134
0.08030143 0.015234096 0.04199651 -0.00119775 0.020181384 0.017189376 0.047846977 0.08300795
-0.0012714991 0.029892944 0.06853129 0.019494584 -0.014831632 0.08355397 0.039698664 0.005669298
0.017782593 0.033762693 0.084619425 0.115161955 0.060574837 0.08085083 0.015376416 0.023100378
0.043264546 0.0084790345 0.016685713 0.08716756 -0.048070785 -0.038953416 0.046503846 0.042197015
0.10563338 0.042744227 0.011491096 -0.030674359 -0.19199508 -0.062055957 0.10744464 0.05233963
0.16780156 0.04825392 -0.48922884 0.029578138 0.0052720914 0.0029249354 -0.010897865 0.1062091
-0.1770871 0.054892402 -0.08084123 -0.08320424 -0.09240457 -0.036888134 0.09007828 0.12709811
0.113110505 -0.091066845 -0.014871426 0.023326358 0.047006454 0.10865126 -0.03447682 -0.034967657
0.035234153 -0.11116151 -0.12150251 -0.066201866 0.016405787 -0.0057139583 -0.034178063 0.0125872465
0.090517744 -0.005945835 -0.031317554 -0.07002933 0.08286768 -0.033533357 0.07711114 -0.048518106
-0.050627816 0.01697222 0.09999569 0.0909865 -0.050134365 -0.039785597 0.13397694 -0.053921215
-0.11014851 0.020529017 -0.031230967 0.03841434 0.036980946 0.12637001 -0.030106725 0.0405875
0.03316567 0.037255406 -0.081261635 0.036178432 -0.16201274 -0.06804079 -0.005801579 0.10253403
-0.079126395 -0.04847427 0.055108685 -0.04427173 0.040015414 0.093529075 0.10523137 0.041828364
-0.2040689 0.11273612 -0.02353215 0.119344555 0.05671155 0.069913715 0.0044304333 0.005606325
0.054390885 -0.02480798 0.13448475 0.056808297 -0.011051199 0.002613176 0.1381291 0.16350715
0.035273407 0.013264578 0.007736355 0.03349296 -0.098790966 -0.01319094 0.043816634 0.09968579
0.038244303 0.09081273 -0.023481516 0.043522246 -0.0515156 6.176541e-05 0.047336288 0.083532296
0.046387132 0.0109214485 -0.016239291 -0.0072075035 0.027531749 0.0022542924 0.14104232 0.11407995
-0.0761558 0.045249972 0.024806825 0.11372889 -0.1829832 0.05022471 0.13261393 0.0470836
0.10990102 -0.08776945 -0.086896636 0.093061954 -0.098914266 0.04538069 -6.5960216e-05 0.010155524
0.16181429 0.050194032 -0.63602626 0.04727466 0.010279892 0.07447324 0.086388655 -0.06182503

valueHead.2.bias f4 [64]
00000000: b2eb eebe 64c0 28bf 6a14 5ebe 6737 c1be
00000010: 7855 f8bd 6cf3 3dbe 29a9 89be c238 9cbe
00000020: 6134 6dbe cac9 b3bd b22d e0b5 4bce 57be
00000030: b332 9fbe 9497 33bd da63 34bf e65f 91be
00000040: fc4a d4bd c889 a6be 4993 79be bed0 17bf
00000050: f764 c7be 32bb f7bd 7da4 15be 2ff8 bebd
00000060: 7a99 06bf d970 36be ff1c 49bd 9286 50bd
00000070: 73a7 fabd 363b 4ebf f178 23be 1472 7bbd
00000080: c3e6 11be 4549 e0be 977f 1bbd 451c 0fbe
00000090: b9ca e5be 66de d5be 2fad e0bc 50da 6fbd
000000a0: 37bc 6ebf 753e 77be 3531 8abe d27c 80bd
000000b0: c656 ebbd 45ea 8ebd e39a 8dbd b6a5 05be
000000c0: ab17 13be 64d5 65bf c141 1dbf 6cbf 89be
000000d0: 9285 95be 133e 5abe 9614 98be 7bbb 95bd
000000e0: d60f c3be 4bc1 f3bd d3df 4fbf b60c 20be
000000f0: 826b 43be d77b cebd 4ba4 f2be d989 a8bd
-0.46664196 -0.65918565 -0.21687475 -0.3773758 -0.12125677 -0.1854989 -0.2688687 -0.30512053
-0.23164512 -0.087787226 -1.67026e-06 -0.21074788 -0.31093368 -0.043845728 -0.7046486 -0.28393477
-0.10365865 -0.32526994 -0.24372591 -0.5930289 -0.38944218 -0.120962515 -0.14613529 -0.09324681
-0.52577937 -0.17816485 -0.04909992 -0.050909586 -0.1223897 -0.805591 -0.15964104 -0.06138809
-0.14248185 -0.438059 -0.037963476 -0.13975628 -0.44881228 -0.4177124 -0.02742633 -0.05855781
-0.93255943 -0.24144919 -0.26990667 -0.062738076 -0.1149116 -0.06978277 -0.06914308 -0.13051495
-0.14364497 -0.89778733 -0.6142846 -0.26903856 -0.2920347 -0.21312742 -0.29703206 -0.0731115
-0.3809802 -0.11902102 -0.81200904 -0.15629849 -0.1908398 -0.10082214 -0.4739097 -0.08229417

valueHead.4.weight f4 [1, 64]
00000000: 3da5 74bd 93a4 c33c 642c 91bc ba88 27be
00000010: e54a babc c602 c83d 357a 733d 0d47 013e
00000020: 4f75 0b3b 8c0f 11bd 4d9c 71b5 98fb 92bd
00000030: e606 b03d 13de a5bd 03eb 14bd d981 7f3c
00000040: cee0 76bd df3e 1bbd 5645 84bd a316 bd3d
00000050: c52f d0bd badc 4dbd 61c9 91ba 4e88 813d
00000060: 6229 4fbd 4fb3 aebd 57cd a23e 9bf7 26bd
00000070: 8572 3e3c 70cc 2dbd 0f23 9bbc 17e7 b7bc
00000080: ae37 93bd 05ea 173e 9398 02bc 8d69 e63d
00000090: 4b30 7f3d 09e2 32bb 06e3 0cbd 76c1 0a3c
000000a0: 0a84 31bd 810e 363d 1e42 863d 1a5a 103e
000000b0: fa74 c3bc f33d 053d d1f9 c73a e309 3a3c
000000c0: 2dc0 783c 8d06 2ebd 0cdf 31bd 5e2f 773d
000000d0: 3094 d3bc 32bd 193d 8ace c5bd 4a01 3fbd
000000e0: 7aba 41bd 809d 3d3d 35e6 1a3d 8b10 c73c
000000f0: 13a1 243d 1e51 013e 8758 2c3c c29a 5dbc
-0.059727896 0.023882186 -0.017721362 -0.16360751 -0.02274079 0.09766154 0.059442718 0.1262476
0.0021279638 -0.035415217 -9.0006944e-07 -0.07176894 0.08595066 -0.08098998 -0.036356937 0.015594923
-0.060272984 -0.037901755 -0.06458537 0.09232833 -0.10165361 -0.05025933 -0.0011122638 0.06324826
-0.050576575 -0.08530294 0.31797287 -0.04076348 0.011623983 -0.042431295 -0.018937616 -0.02244906
-0.071883544 0.14835365 -0.007970947 0.11250601 0.062301915 -0.0027295372 -0.034396194 0.008468976
-0.043338813 0.044447426 0.065555796 0.14096871 -0.02385949 0.032529783 0.0015256946 0.011354896
0.015182537 -0.042486716 -0.043425605 0.060347907 -0.025827497 0.037533946 -0.09658535 -0.04663209
-0.04729698 0.04629278 0.0378172 0.02429988 0.040192675 0.126286 0.010519153 -0.013525667
