MachiKoro/ModelsNN3/version_4_model_4.pt (torch, 242506 bytes, 19 tensors)

policyHead.0.weight f4 [128, 155]
0	0xbd089ef8	-0.03335473
1	0x3d077dcc	0.033078954
2	0x3ce981ee	0.028504338
3	0x39a40ca9	0.0003128995
4	0x3d478ce0	0.048718333
5	0xbd049d50	-0.032376587
6	0x3d1bb837	0.038017478
7	0xbdaae49a	-0.083443835
8	0x3c362967	0.0111182695
9	0x3b1e2284	0.002412946
10	0xbd8ee152	-0.0697657
11	0x3c83f46a	0.016107757
12	0x3cc321ce	0.02381983
13	0xbd02db92	-0.03194768
14	0x3ce79543	0.028269416
15	0xbcdaee8a	-0.026725072
16	0x3cb51ecd	0.022109414
17	0x3d5c9ce8	0.053860575
18	0x3d4ee696	0.050512873
19	0x3bf68543	0.0075232103
20	0xbd53a588	-0.051671535
21	0xbc4a1145	-0.012333219
22	0xbd4c9225	-0.04994406
23	0x3d21a9f3	0.039468717
24	0x3d962eac	0.07333121
25	0x3cc300b3	0.023804044
26	0xbd1e3854	-0.038627937
27	0xbdb4174e	-0.087935075
28	0xbd8ffd51	-0.07030738
29	0xbd189b59	-0.037257526
30	0x3c45288f	0.012033596
31	0x3d82c6ad	0.06385551
32	0x3c2836f6	0.01026701
33	0x3c92ff32	0.017943952
34	0x3d49886a	0.04920236
35	0xbc9599ec	-0.018261872
36	0xbd4f7132	-0.05064506
37	0xbca3f6bf	-0.020015119
38	0x3da1d460	0.079018354
39	0x3d6b78c6	0.057488225
40	0x3d3ea4f3	0.046544027
41	0xbc97ffb4	-0.018554546
42	0xbd6b319d	-0.05742036
43	0xbd463dba	-0.04839871
44	0xbd4d681a	-0.050148107
45	0x3d80b878	0.062851846
46	0xbccdc8fe	-0.025120255
47	0xbc8f8b5b	-0.017522505
48	0x3c59324b	0.01325662
49	0x3d040233	0.03222866
50	0x3d96241e	0.073311076
51	0xbc41da5e	-0.011831848
52	0x3dc33d70	0.09533203
53	0x3db22862	0.08699109
54	0x3d24e936	0.04026147
55	0x3d8f258e	0.06989585
56	0xbd0282d2	-0.03186304
57	0xbc0fabf9	-0.008769029
58	0xbdc55a63	-0.096363805
59	0x3d296f17	0.04136571
60	0x3cea4ca2	0.028600994
61	0x3d42fd6b	0.04760496
62	0xbd624763	-0.05524386
63	0x3cd2b0c5	0.025719056
64	0xbd376065	-0.044769663
65	0xbdb0b711	-0.08628667
66	0xbd45a6bf	-0.048254725
67	0x3c2d925e	0.010593979
68	0x3d7cc3b1	0.061710063
69	0xbd0cf15e	-0.034409873
70	0x3d71a73c	0.058997378
71	0x3ccb4e36	0.024817567
72	0x3cd50745	0.026004443
73	0x3d750048	0.05981472
74	0xbd02857f	-0.031865593
75	0x3c88907b	0.016670456
76	0x3d1ecc32	0.038768955
77	0xbd0e7f79	-0.034789536
78	0xbdab59d6	-0.08366744
79	0xbc3f7eae	-0.011687918
80	0x3ccc8881	0.024967434
81	0xbd5bbe36	-0.053648196
82	0x3b1b4675	0.0023693119
83	0x3db7f283	0.08981802
84	0xbc8eec68	-0.017446712
85	0xbb63dc9b	-0.0034768942
86	0xba186485	-0.00058133184
87	0x3d2e89e2	0.042611964
88	0xbd0fa43e	-0.035068743
89	0x3d8e09d5	0.06935469
90	0xbcb3b4c6	-0.021936785
91	0xbd2fc87e	-0.042915814
92	0xbd3775fd	-0.044790257
93	0xbd5462c2	-0.051851995
94	0xbcc40462	-0.023927871
95	0x3d5d6942	0.05405546
96	0xbd47fac8	-0.048823148
97	0x3c0db2b4	0.008648563
98	0xbd75a604	-0.059972778
99	0x3d5be57c	0.05368565
100	0x3bad4525	0.0052877837
101	0xbd0a3d2e	-0.03374975
102	0x3d469ced	0.0484895
103	0x3d72eb09	0.05930618
104	0x3d850734	0.064955145
105	0x3d9bd07c	0.076081246
106	0xbd16b546	-0.03679397
107	0x3ccae65d	0.024768049
108	0x3d5f342b	0.05449311
109	0x3d7d813d	0.06189083
110	0x3d984d4b	0.074366175
111	0xbd62840e	-0.05530172
112	0x3d4ae569	0.04953519
113	0xbaafb72a	-0.0013406028
114	0xbca8a1d7	-0.020584984
115	0x3b58e616	0.0033096126
116	0x3cd129d5	0.025532642
117	0x3d5845d6	0.052800976
118	0xbc83abc1	-0.01607311
119	0x3d360baf	0.044444736
120	0x3b8db155	0.004324118
121	0x3d5b9109	0.053605113
122	0xbdc515b6	-0.09623282
123	0xbd1ca969	-0.0382475
124	0xbd5aaed9	-0.053389404
125	0x3d0e19e7	0.03469267
126	0xbd05b60c	-0.032644317
127	0x3d73036c	0.059329435
128	0x3cd3add5	0.025839726
129	0xbda231d3	-0.079196595
130	0x3d4a1247	0.049333837
131	0x3d391c5a	0.045193054
132	0x3c6ab2d6	0.014324864
133	0xbae983d4	-0.0017815777
134	0x3c8714cb	0.016489407
135	0xbd9774e7	-0.07395344
136	0xbda25e66	-0.07928161
137	0x3d3fdf69	0.04684392
138	0x3cea7daf	0.028624384
139	0x3c22ebdb	0.009943928
140	0x3c1e606b	0.0096665425
141	0xbda31170	-0.0796231
142	0x3c5c36ef	0.013440832
143	0xbd33a622	-0.04385961
144	0x3ce0e7ab	0.027454218
145	0x3d7e79e1	0.06212795
146	0xbca7bf1e	-0.020476874
147	0x3c728b7f	0.014803766
148	0xbd3c329e	-0.04594671
149	0xbc19d958	-0.009390198
150	0xbb1ada4a	-0.0023628646
151	0xbd924905	-0.071428336
152	0xba952790	-0.0011379588
153	0xbc027208	-0.0079617575
154	0x3d9ed64a	0.07755716
155	0xbc1591d4	-0.009129006
156	0x3c8774ea	0.016535241
157	0xbc8cd82c	-0.017192923
158	0xbcff81a6	-0.03118975
159	0xbd282ff4	-0.041061357
160	0xbd6c66bd	-0.057715166
161	0xbb6ce08a	-0.0036144578
162	0xbd9b355c	-0.07578537
163	0x3cd13fb6	0.025543075
164	0x3d3794f2	0.04481978
165	0xbd4b62d8	-0.04965481
166	0xb9742446	-0.00023283166
167	0x3bbcf617	0.005766641
168	0x3d918df5	0.07107154
169	0xbd1c22eb	-0.038119238
170	0xbc39d67e	-0.011342643
171	0xbd7b5269	-0.06135789
172	0xbd1b3875	-0.03789564
173	0x3d9daeb6	0.07699339
174	0x3d17c9d5	0.037057716
175	0xbd6abf81	-0.05731154
176	0x3d9f0e69	0.077664204
177	0xbd22f9c7	-0.039788987
178	0xbd8488b1	-0.06471384
179	0x3d68c39c	0.056827173
180	0x3dc9daba	0.09856172
181	0xbd355fdd	-0.044280875
182	0x3d95beac	0.073117584
183	0x3b59c048	0.003322618
184	0xbd8dd3c1	-0.069251545
185	0xbd80ee01	-0.06295396
186	0x3c80323d	0.015648955
187	0x3c30bc84	0.010787133
188	0xbb5dda06	-0.0033851876
189	0x3d85c915	0.06532494
190	0x3d244296	0.040102564
191	0xbcd66574	-0.026171423
192	0xbc867abc	-0.016415946
193	0xbd03420f	-0.03204542
194	0xbd98cf3b	-0.07461401
195	0xbd474cf2	-0.048657365
196	0x3b9e31e5	0.0048277252
197	0xbcb3f3ef	-0.021966903
198	0xbd55b3b4	-0.05217333
199	0x3d0876ce	0.033316426
200	0xbb183b95	-0.0023228873
201	0x3bacde72	0.005275541
202	0xbc8c88ac	-0.017155014
203	0x3dbd2732	0.092359915
204	0x3c3ee415	0.011651059
205	0xbd00b78a	-0.031425036
206	0xbdbab4a0	-0.09116483
207	0x3dbc1c45	0.091850795
208	0xbd7df2de	-0.061999194
209	0x3d8558c9	0.06511075
210	0xbc978782	-0.018497232
211	0xbb54e547	-0.0032485293
212	0x3d03c779	0.032172654
213	0x3cb5cf14	0.02219347
214	0xbc3d45c2	-0.011552276
215	0xbd8ef06a	-0.06979449
216	0xbce9a69f	-0.028521834
217	0xbd1278e3	-0.035759818
218	0x3d363b38	0.04449007
219	0x3d5c2578	0.05374667
220	0xbd949929	-0.072557755
221	0xbd9b3b53	-0.075796746
222	0x3b25716f	0.0025244614
223	0x3d336198	0.043794245
224	0xbc42a0d4	-0.011879165
225	0xbc14c061	-0.00907907
226	0x3d8cbd4d	0.06872044
227	0x3c94ea8f	0.018178253
228	0x3d4e3590	0.05034405
229	0xbd15f959	-0.03661475
230	0xbb8a1c48	-0.004214797
231	0xbd8104ae	-0.06299721
232	0x3d8173fa	0.06320949
233	0x3dbc1f19	0.09185619
234	0xbd84c378	-0.06482595
235	0xbc6ed299	-0.014576578
236	0x3db1962f	0.08671223
237	0x3dcbc843	0.09950306
238	0xbd3b203c	-0.045685038
239	0x3ceb635a	0.028733898
240	0xbd4945fe	-0.049139015
241	0x3d6877ca	0.056754865
242	0xbb98b799	-0.0046605584
243	0xbd93cfb3	-0.0721735
244	0x3c48712f	0.012234016
245	0x3dddc622	0.108288065
246	0x3d3bb7ec	0.0458297
247	0xbd796cf6	-0.06089493
248	0x3cd5dfed	0.026107753
249	0x3d9de6f5	0.07710067
250	0x3d3ea19e	0.04654085
251	0x3cfff8ed	0.031246627
252	0xbd2d742a	-0.04234711
253	0x3d3f9511	0.04677302
254	0xbc296502	-0.010339024
255	0xbbd7e922	-0.006589071

policyHead.0.bias f4 [128]
0	0x3ce4e941	0.027943255
1	0xbd87f790	-0.06639016
2	0xbcb75213	-0.022378003
3	0xbc8022cc	-0.015641592
4	0x3d79ad7f	0.060956474
5	0xbd20e535	-0.03928109
6	0x3d0a96bb	0.033835154
7	0xbd8fcec3	-0.070218585
8	0xbd2c115a	-0.042008735
9	0x3d5658ff	0.052330967
10	0xbd7716bc	-0.060324416
11	0xbd7468b9	-0.059670184
12	0x3d80a866	0.062821195
13	0x3d1510da	0.036393024
14	0x3d47b64c	0.048757836
15	0x3cf506ed	0.029910529
16	0xbb69feb3	-0.003570479
17	0xbd38b10e	-0.045090728
18	0x3d7a4ad4	0.061106518
19	0x3d9fc3d1	0.07801021
20	0xbd344cd5	-0.044018585
21	0xbd27bba0	-0.040950418
22	0xbd8e68ec	-0.06953606
23	0xbb901e59	-0.004398149
24	0x3c972fa1	0.018455328
25	0xbd96d4d5	-0.07364813
26	0x3be27ea5	0.00691207
27	0x3d9401ba	0.07226892
28	0x3d859c1e	0.065239176
29	0xbd1bb7ea	-0.03801719
30	0xbd08ea03	-0.033426296
31	0xbd7190e0	-0.058976054
32	0xbcd78be9	-0.026311832
33	0xbb4b9710	-0.0031065382
34	0xbc7cbdee	-0.015426142
35	0x3b8e6c39	0.0043463972
36	0x3d0cfc36	0.034420215
37	0x3cab55d9	0.020914959
38	0xbd92a777	-0.07160848
39	0x3ccee966	0.025257777
40	0x3d654399	0.05597267
41	0x3cdfb222	0.02730662
42	0xbcd6d4ce	-0.02622452
43	0xbc36afcb	-0.011150311
44	0x3d0ea7fe	0.03482818
45	0x3ce81655	0.028330961
46	0x3d4ff19b	0.050767522
47	0x3cdff7a1	0.027339758
48	0x3d023c56	0.031795822
49	0x3d958a84	0.073018104
50	0xbcc8ac42	-0.024496201
51	0xbd1ef662	-0.038809188
52	0xbd33fbe4	-0.043941393
53	0xbd0d37c8	-0.034477025
54	0xbc665979	-0.014059418
55	0xbd08171a	-0.033225156
56	0xbd864efd	-0.065580346
57	0xbd39248a	-0.045200862
58	0x3d248def	0.04017442
59	0x3c1ff12e	0.009762092
60	0x3cb25a7e	0.021771666
61	0xbd68c108	-0.056824714
62	0xbd8e5eb1	-0.06951655
63	0x3d87232b	0.06598505
64	0x3cf05d34	0.029341318
65	0xbd7a5fc5	-0.06112649
66	0x3af6a165	0.001881641
67	0x3d100c1d	0.035167802
68	0xbd8664d9	-0.06562204
69	0xbd8536fe	-0.065046296
70	0xbac7ecfc	-0.0015253122
71	0xbd7869d3	-0.060647797
72	0x3d1e31f4	0.038621858
73	0x3bc61e34	0.006046081
74	0xbc1805d1	-0.0092787305
75	0xbd260748	-0.040534288
76	0xbd469cb9	-0.048489306
77	0xbc274a6a	-0.010210613
78	0xbd91de2c	-0.07122454
79	0xbd4ff6c5	-0.050772447
80	0x3dbe1405	0.09281162
81	0x3d80e0dc	0.062928885
82	0xbd844f6e	-0.064604625
83	0x3dacfa3d	0.08446167
84	0xbd28ac6c	-0.04118006
85	0x3d82e107	0.06390577
86	0x3d20a4a8	0.03921953
87	0x3b9a235c	0.004703922
88	0x3d2d5cd1	0.042324845
89	0xbceb6204	-0.02873326
90	0xbc88cf63	-0.016700452
91	0xbd7bce34	-0.061475947
92	0x3cd72b8d	0.026265884
93	0xbd813945	-0.063097514
94	0xba28af5c	-0.0006434822
95	0x3d625719	0.055258844
96	0x3cd4a6ac	0.025958382
97	0x3baf0ab5	0.0053418525
98	0x3ce566fa	0.028003205
99	0xbd3ed822	-0.04659284
100	0xbd5aa660	-0.053381324
101	0x3d85eeed	0.06539712
102	0xbd76f718	-0.06029424
103	0xbc71803e	-0.014740048
104	0x3c5701fa	0.01312303
105	0x3d9b0330	0.07568967
106	0x3c3a037d	0.011353371
107	0xbd8d12a3	-0.0688832
108	0x3d8deaab	0.06929525
109	0xbd481a3d	-0.048853148
110	0xbd7f16ef	-0.06227773
111	0xbd7844c7	-0.060612466
112	0x3d64fb50	0.055903733
113	0xbd96e7ab	-0.07368406
114	0xbc4d6430	-0.012536094
115	0xbd34edfc	-0.044172272
116	0x3da9d1f6	0.08292
117	0x3d9bcd58	0.076075256
118	0x3c8c5799	0.017131614
119	0xbd8087b2	-0.06275882
120	0xbd9b77ca	-0.07591207
121	0xbbea3416	-0.0071473224
122	0xbbee668f	-0.0072754095
123	0xbd4e1f73	-0.05032296
124	0xbd38c189	-0.045106445
125	0xbb30301c	-0.0026884144
126	0x3c6ebd3b	0.014571483
127	0xbd7cddd0	-0.061734974

policyHead.1.weight f4 [128]
0	0x3f7c5345	0.9856456
1	0x3f85c622	1.045109
2	0x3f831467	1.0240601
3	0x3f7db570	0.99104977
4	0x3f7dffb9	0.99218327
5	0x3f7d7fec	0.9902332
6	0x3f7f4c55	0.9972585
7	0x3f7d5093	0.9895107
8	0x3f8161f1	1.0108014
9	0x3f80e914	1.007113
10	0x3f87a3c8	1.0596857
11	0x3f7fe6c0	0.9996147
12	0x3f801a57	1.0008038
13	0x3f83ab76	1.0286701
14	0x3f7ceb65	0.98796684
15	0x3f827073	1.0190567
16	0x3f850152	1.0391028
17	0x3f848f3c	1.0356212
18	0x3f820e31	1.0160581
19	0x3f7e5499	0.99347836
20	0x3f839b4c	1.0281768
21	0x3f7a2f67	0.9772858
22	0x3f802f3c	1.0014415
23	0x3f8729f7	1.0559682
24	0x3f81d6f6	1.0143726
25	0x3f80d09e	1.0063665
26	0x3f7c722d	0.9861172
27	0x3f838f43	1.0278095
28	0x3f7f1d1d	0.996538
29	0x3f8258db	1.0183367
30	0x3f8550fb	1.0415338
31	0x3f85a554	1.0441079
32	0x3f80d047	1.0063561
33	0x3f7ea940	0.99477005
34	0x3f7f2f71	0.99681765
35	0x3f7ef2c9	0.9958921
36	0x3f8278b5	1.0193087
37	0x3f7d572d	0.98961145
38	0x3f813086	1.0092933
39	0x3f783edd	0.9697092
40	0x3f811f11	1.0087606
41	0x3f7ff5de	0.9998454
42	0x3f80f869	1.0075809
43	0x3f82ffd6	1.0234325
44	0x3f7e28ca	0.9928099
45	0x3f7eedd5	0.9958165
46	0x3f813701	1.0094911
47	0x3f7eeff0	0.99584866
48	0x3f7cb07b	0.9870679
49	0x3f7ef174	0.9958718
50	0x3f813ac9	1.0096065
51	0x3f7e1268	0.99246836
52	0x3f83aeea	1.0287755
53	0x3f80b4dc	1.0055194
54	0x3f7e34b5	0.99299175
55	0x3f7ef5d6	0.99593866
56	0x3f80e433	1.0069641
57	0x3f85b4be	1.0445783
58	0x3f800d2e	1.0004022
59	0x3f7b8cbc	0.9826162
60	0x3f7ffc30	0.9999418
61	0x3f81962d	1.0123955
62	0x3f826947	1.0188378
63	0x3f7e87b4	0.99425817
64	0x3f8337a7	1.0251359
65	0x3f7ead28	0.99482965
66	0x3f8363de	1.0264852
67	0x3f83a093	1.0283378
68	0x3f82b6c6	1.0212028
69	0x3f7ea322	0.9946767
70	0x3f7db892	0.99109757
71	0x3f802cb5	1.0013644
72	0x3f837b74	1.027205
73	0x3f82bfce	1.0214784
74	0x3f7ae511	0.9800578
75	0x3f814986	1.0100563
76	0x3f83cf1b	1.0297579
77	0x3f85e2c3	1.0459827
78	0x3f83f6a7	1.0309647
79	0x3f8163da	1.0108597
80	0x3f8381a4	1.0273938
81	0x3f80d01e	1.0063512
82	0x3f87d0cd	1.0610596
83	0x3f81030f	1.0079058
84	0x3f7f0a00	0.99624634
85	0x3f827896	1.019305
86	0x3f8108b1	1.0080777
87	0x3f860a56	1.0471904
88	0x3f7a1d2d	0.9770077
89	0x3f7dd437	0.9915194
90	0x3f7dd7ec	0.99157596
91	0x3f84ccbe	1.0374982
92	0x3f8262f3	1.0186447
93	0x3f80074c	1.0002227
94	0x3f852e5e	1.0404775
95	0x3f801bb5	1.0008456
96	0x3f825bdf	1.0184287
97	0x3f875b90	1.0574818
98	0x3f7c225f	0.98489946
99	0x3f7d739a	0.9900452
100	0x3f80e4b1	1.0069791
101	0x3f80f6e7	1.0075349
102	0x3f86c7c8	1.0529718
103	0x3f80fef5	1.0077807
104	0x3f7d1000	0.9885254
105	0x3f821050	1.0161228
106	0x3f7fc107	0.9990391
107	0x3f841a59	1.0320541
108	0x3f804b24	1.0022931
109	0x3f7fec3b	0.99969834
110	0x3f8289a4	1.0198255
111	0x3f846370	1.0342846
112	0x3f7ee42d	0.9956692
113	0x3f81f167	1.0151795
114	0x3f869769	1.0514957
115	0x3f81c3e5	1.0137907
116	0x3f81d4e0	1.0143089
117	0x3f7e4ce8	0.993361
118	0x3f7fa52f	0.99861425
119	0x3f7b67de	0.98205364
120	0x3f830dcd	1.0238587
121	0x3f7bda09	0.9837957
122	0x3f81ddea	1.0145848
123	0x3f8a2761	1.0793267
124	0x3f852656	1.0402324
125	0x3f81ff15	1.015597
126	0x3f7eb4aa	0.9949442
127	0x3f837848	1.0271082

policyHead.1.bias f4 [128]
0	0xb96e659f	-0.00022735306
1	0x3beb5b93	0.0071825474
2	0xbbd64a6b	-0.006539633
3	0xbbdf57f9	-0.006815907
4	0x3c11e6e9	0.008905151
5	0x3c0a2ef3	0.008434045
6	0x396e2d1f	0.00022714258
7	0xbb91c2ed	-0.004448286
8	0x3c67116b	0.014103274
9	0xbb8aa2b7	-0.004230823
10	0x3c135fac	0.008994978
11	0xbab82fb1	-0.0014052299
12	0xb9c561b8	-0.00037647574
13	0xbaf948c2	-0.0019018876
14	0x39f9fb38	0.00047680154
15	0x3b4d11fd	0.003129124
16	0xbbf8ba46	-0.007590565
17	0x3c294422	0.010331186
18	0x3c7fd55b	0.015614833
19	0xbba8d764	-0.0051526297
20	0xbbb30581	-0.0054633026
21	0xb99cc9a4	-0.00029904873
22	0x3b4ed075	0.0031557356
23	0x3ccd1c25	0.025037834
24	0x38eedd2f	0.00011389923
25	0xbac6be85	-0.001516298
26	0x3c25454a	0.010087321
27	0x3bb56021	0.005535141
28	0xbc66b4b6	-0.014081171
29	0x3bf59fba	0.0074958475
30	0x3c9731a8	0.018456295
31	0xbb9af162	-0.004728482
32	0xbb8e9622	-0.0043513933
33	0x3bbe9f97	0.0058173644
34	0x3bc728ae	0.0060778474
35	0x3bab2ede	0.005224093
36	0x3a442c80	0.00074834377
37	0xbbc53d82	-0.006019295
38	0xbae2cd53	-0.0017303623
39	0xbb96d986	-0.0046035675
40	0xbb144ca3	-0.0022628687
41	0x3ba06d5b	0.0048958487
42	0xbb8622c5	-0.0040935003
43	0x3a546590	0.0008102292
44	0x3ae470f4	0.0017428682
45	0xbb7d2815	-0.0038628627
46	0xbad1869a	-0.0015985549
47	0x3c091d2f	0.008368774
48	0xbb66c94d	-0.00352152
49	0x3bb1a3b3	0.005421126
50	0xbc3cc4ac	-0.0115215
51	0xbb7468d2	-0.0037293923
52	0xbb287959	-0.0025707094
53	0x3bb5c818	0.0055475347
54	0x3b56a674	0.0032753022
55	0xbbd50d02	-0.006501795
56	0x3bff0a94	0.0077832434
57	0x3bf20deb	0.007386913
58	0x3c1132ba	0.008862192
59	0x3ba4640c	0.0050168093
60	0xbb142f0d	-0.0022611052
61	0x3c46d653	0.01213606
62	0xbbdfbb62	-0.0068277577
63	0x3ba7ff3b	0.0051268614
64	0xbb9a94a2	-0.0047174254
65	0xbc6aaaa1	-0.014322908
66	0xbb125845	-0.0022330445
67	0x3be86e3f	0.0070932205
68	0xbb80d573	-0.003931695
69	0x3bde489c	0.006783558
70	0x3b2bad18	0.0026195701
71	0xbac41be0	-0.0014961921
72	0x3c3ccd06	0.011523491
73	0x3a42913f	0.0007422156
74	0xbad6e275	-0.0016394394
75	0x3b541d19	0.0032365976
76	0xbb942118	-0.0045205466
77	0x3af9da8c	0.0019062324
78	0x3b4f3071	0.0031614567
79	0x3b2296f0	0.0024809204
80	0x3c5a0a05	0.013308053
81	0x3b13e61d	0.0022567578
82	0x3bda31db	0.0066587753
83	0x3bcfcf97	0.0063418853
84	0xbbda2465	-0.0066571706
85	0xbbcdd95e	-0.0062820157
86	0x393b40cf	0.00017857853
87	0x3b982e21	0.004644171
88	0xbb959e8b	-0.004566019
89	0xbb139ac2	-0.0022522663
90	0x3b345699	0.0027517437
91	0x39aaf0fe	0.0003260448
92	0x3bb2017e	0.005432307
93	0x3c2f64ee	0.010705216
94	0xbbe3307c	-0.00693327
95	0xbb51983d	-0.003198161
96	0xbb890de1	-0.0041825627
97	0x3c16472b	0.009172241
98	0x3bad63b6	0.0052914275
99	0xbc61ad34	-0.013774205
100	0xbba5ab09	-0.0050557894
101	0x3b42e782	0.002974004
102	0xbba697a7	-0.0050839963
103	0x3c058c9a	0.008151198
104	0xbc07ffe1	-0.008300752
105	0x3bce627c	0.0062983613
106	0xbb1a06c7	-0.0023502575
107	0xbbda1111	-0.0066548665
108	0x3bd28f89	0.006425802
109	0xbc9bd0b2	-0.019020412
110	0xbc0cd292	-0.008595126
111	0x3c53f890	0.01293768
112	0x3b21e05c	0.002470038
113	0x3b8fcf04	0.004388692
114	0x3ac25fa0	0.0014829524
115	0xbaa9886f	-0.0012934337
116	0x3c2a6b1a	0.010401512
117	0x3ba0e1ee	0.0049097454
118	0xbb71a749	-0.0036873391
119	0xbb0f4f7b	-0.0021867442
120	0x3c075124	0.0082590915
121	0xbc1a56a0	-0.009420067
122	0x3c1cfb3c	0.009581383
123	0x3c868454	0.01642052
124	0xbb0e5248	-0.0021716524
125	0x3b13b137	0.0022536048
126	0x3a049f51	0.00050591404
127	0x3cbc3f43	0.022979384

policyHead.3.weight f4 [64, 128]
0	0xbb51e343	-0.0032026328
1	0x3d94c7bb	0.07264658
2	0xbd6093a6	-0.05482831
3	0x3d572da9	0.05253378
4	0x3da8105a	0.08206244
5	0x3d180f7a	0.037124135
6	0xbcaa1dda	-0.020766187
7	0x3d6bf5ef	0.057607587
8	0x3d1f2828	0.038856655
9	0x3da56070	0.080750346
10	0xbd90a6c1	-0.07063056
11	0xbd27d5cb	-0.040975373
12	0xbd5d61ee	-0.05404847
13	0xbcc2bfdc	-0.023773126
14	0x3b5ec550	0.003399212
15	0xbb71b5ea	-0.003688211
16	0x3b94135b	0.004518909
17	0xbc2e5614	-0.01064064
18	0xbd8a2599	-0.067454524
19	0xbb933535	-0.0044924268
20	0xbd5c1f25	-0.05374064
21	0x3dbbb052	0.0916449
22	0xbc632278	-0.013863198
23	0x3d3d2cf5	0.046185452
24	0xbc20ae93	-0.009807247
25	0x3dd1c0ae	0.10241829
26	0x3d60e858	0.05490908
27	0xbcab828f	-0.020936279
28	0xbd250ac6	-0.040293477
29	0x3dba1b9e	0.09087299
30	0xbbedf786	-0.007262173
31	0xbc7ce6c8	-0.015435882
32	0xbca096cb	-0.019603154
33	0xb7db38ea	-2.6133337e-05
34	0xbd302a85	-0.0430093
35	0xbcecc6c3	-0.02890337
36	0x3c1c381b	0.009534861
37	0x3b7c7257	0.00385203
38	0x3d3af116	0.045640074
39	0xbd050cff	-0.032483097
40	0xbd59937a	-0.05311916
41	0xbdb0ef4a	-0.08639391
42	0xbd963496	-0.07334249
43	0xbd80b3fa	-0.06284328
44	0x3ce9047a	0.028444517
45	0x3cba2fae	0.022727814
46	0x3d9c77d5	0.07640044
47	0xbd96c91a	-0.07362576
48	0xbc2e22f6	-0.0106284525
49	0xbd39777b	-0.04527996
50	0x3cbb2810	0.022846252
51	0x3d45fea7	0.04833856
52	0x39bdd502	0.00036207592
53	0xbc88cf4d	-0.016700411
54	0xbc9f8ce5	-0.019476363
55	0x3d5f5a94	0.05452974
56	0x3d715ce3	0.058926474
57	0x3d439b5c	0.047755584
58	0x3d4d6f58	0.050155014
59	0xbd6eb000	-0.058273315
60	0xbb7ba64c	-0.0038398681
61	0x3d179c4a	0.037014283
62	0xbdbd5ec0	-0.09246588
63	0x3dbafe94	0.09130588
64	0xbdba519a	-0.090975955
65	0xbd036a33	-0.0320837
66	0xbd92709d	-0.071503855
67	0xbcc7c0f7	-0.024384005
68	0x3d9c65ef	0.0763663
69	0x3ce2648a	0.027635831
70	0x3c2ef827	0.010679281
71	0x3ce68d81	0.028143646
72	0x3d86baa9	0.06578571
73	0xbc3430f8	-0.010998003
74	0xbd504986	-0.050851367
75	0x3dbf589a	0.09343071
76	0xbd1390c1	-0.03602672
77	0xbd56c1c4	-0.052430883
78	0xbdb5245d	-0.08844826
79	0xbce65ec2	-0.028121356
80	0x3d9c50e9	0.0763262
81	0x3cbc4450	0.022981793
82	0xbde6a872	-0.11262597
83	0xbd8a3df1	-0.06750096
84	0x3d9520f3	0.07281675
85	0xbc4a563a	-0.01234966
86	0xbd0410ca	-0.032242574
87	0x3d615906	0.05501654
88	0x3d827a2f	0.06370961
89	0x3d2e8e87	0.042616393
90	0x3cd9979f	0.026561556
91	0x3d9a6e56	0.07540576
92	0x3d69958f	0.057027396
93	0x3ce50046	0.027954232
94	0xbd63a7e0	-0.05558002
95	0xbdaae4fc	-0.083444566
96	0xbc914147	-0.017731322
97	0x3ccb23ba	0.02479731
98	0x3d5e46ca	0.05426673
99	0x3daaea99	0.08345527
100	0x3d0b54fe	0.0340166
101	0xbce86dc7	-0.028372658
102	0x3d47ca6d	0.048777033
103	0x3d9ec201	0.07751847
104	0x3892e537	7.004517e-05
105	0x3da75676	0.08170788
106	0xbd923eea	-0.07140906
107	0x3d460a19	0.048349474
108	0x3d1f736d	0.038928438
109	0x3cb54e8b	0.022132179
110	0xbb394104	-0.0028267512
111	0xbd18e976	-0.03733202
112	0x3d6f036b	0.05835287
113	0xbb8865e7	-0.0041625383
114	0xbcadc9f0	-0.021214455
115	0x3d2872cc	0.041125104
116	0x3d907e2e	0.07055317
117	0xbd5f8ff2	-0.054580636
118	0x3d24aec7	0.040205743
119	0xbc00b7a9	-0.007856288
120	0x3c884163	0.016632741
121	0x3cfe9064	0.03107471
122	0x3d7abd54	0.061215714
123	0xbd708ea8	-0.058729798
124	0x3d1b88f8	0.03797242
125	0xbbbb6b78	-0.0057195984
126	0xbd7a3916	-0.061089598
127	0xbdc34209	-0.095340796
128	0x3d654226	0.055971287
129	0x3d4acae1	0.049509887
130	0xbdddca05	-0.10829548
131	0x3bf965a4	0.0076109935
132	0xbd20775b	-0.039176326
133	0x3dbd5e9a	0.092465594
134	0xbd691588	-0.0569053
135	0x3c99e631	0.018786522
136	0x3d193b8d	0.037410308
137	0x3d78ee81	0.06077433
138	0xbd8fd29b	-0.07022592
139	0x3dbcc9da	0.09218188
140	0x3d600807	0.054695155
141	0xbcb56bca	-0.022146124
142	0x3cea9b0e	0.028638389
143	0xbdb3b971	-0.087756045
144	0xbca5972b	-0.020213684
145	0xbd0a0f6f	-0.033706125
146	0x3cf9f103	0.030510431
147	0x3d63d257	0.055620518
148	0xbd0bbdaf	-0.034116443
149	0xbd7dc065	-0.06195106
150	0xbda2a841	-0.07942248
151	0x3db3d507	0.08780866
152	0x3db60a96	0.08888738
153	0x3cac5523	0.02103669
154	0xbd9ba43e	-0.07599686
155	0x3c6e49ba	0.014543945
156	0xbdbe6b86	-0.09297852
157	0xbb47416c	-0.0030403985
158	0x3dce57ce	0.10075341
159	0x3a3d0ac9	0.0007211385
160	0x3dca4067	0.09875565
161	0x3cf13b9d	0.029447371
162	0x3c9b92ef	0.018990962
163	0x3d7cd175	0.06172319
164	0xbce1a92b	-0.027546486
165	0xbbaef911	-0.0053397496
166	0x3da60c2d	0.08107791
167	0xbd8e4fcb	-0.06948813
168	0x3d560ce6	0.052258395
169	0x3d6fb61f	0.058523294
170	0x3d37f76a	0.044913687
171	0x3d98d14f	0.074617974
172	0xbcc9a3ff	-0.024614332
173	0x3cbdc33b	0.023164382
174	0xbd1940fd	-0.037415493
175	0xbc16320b	-0.009167205
176	0x3d33a668	0.04385987
177	0x3dc47d66	0.0959423
178	0xbd8f705f	-0.07003855
179	0x3d4a137e	0.049334995
180	0xbdaddd63	-0.08489492
181	0x3c4ed516	0.012624046
182	0xbda0d5bf	-0.07853269
183	0x3c9bb22e	0.019005861
184	0x3c8e4ca7	0.017370535
185	0x3ce04c68	0.027380183
186	0x3d4169f0	0.04722017
187	0x3ca417a3	0.020030802
188	0x3d4e3c3b	0.05035041
189	0x3dca74f5	0.09885589
190	0x3c4c91ef	0.012485965
191	0x3c8c7006	0.01714326
192	0x3d9521df	0.07281851
193	0x3d402f75	0.04692026
194	0x3cc360ac	0.023849808
195	0x3d3a4570	0.045476377
196	0xbd1d19ba	-0.038354613
197	0xbcb93d54	-0.022612251
198	0x3d226f59	0.03965697
199	0x3d3bedb4	0.04588099
200	0x3c1031c7	0.00880093
201	0x3d955ea1	0.0729344
202	0xbd0707f6	-0.032966577
203	0xbced0654	-0.028933682
204	0xbd357610	-0.044302046
205	0x3dd2797a	0.10277076
206	0xbd213224	-0.03935446
207	0xbc81d2e9	-0.01584764
208	0x3c353964	0.011061046
209	0xbc678459	-0.014130675
210	0xbd8482e2	-0.064702764
211	0x3d8dd548	0.06925446
212	0x3d8c9611	0.068645604
213	0x3dda1073	0.10647669
214	0x3de22678	0.110424936
215	0x3bfcf2cc	0.0077193733
216	0xbd432b43	-0.04764868
217	0xbcf58ea7	-0.029975249
218	0x3d3ade2b	0.045622032
219	0xbdf8142e	-0.12113224
220	0x3d156ad3	0.03647883
221	0xbd7105f5	-0.05884357
222	0xbd8f6e02	-0.07003404
223	0xbd9ba74f	-0.07600271
224	0xbd93673d	-0.071974255
225	0x3d5d6efb	0.054060917
226	0x3c812b2c	0.015767656
227	0x3bc4a93e	0.0060016206
228	0x3dac82c8	0.08423382
229	0x3da9303a	0.082611516
230	0x3d053ca7	0.032528546
231	0x3dbe991b	0.09306546
232	0xbcb7638c	-0.022386335
233	0x3d9ec927	0.077532105
234	0x3da5695f	0.080767386
235	0x3d7d4d04	0.061841026
236	0xbd17fc03	-0.03710557
237	0xbd92e0cc	-0.07171783
238	0x3d90878d	0.07057104
239	0xbcd4dbe2	-0.025983755
240	0xbd0d7a2e	-0.034540348
241	0x3d203c0a	0.039119758
242	0xbcc60908	-0.024174228
243	0xbb06db78	-0.002057759
244	0x3d0f7ea4	0.035032883
245	0x3db8c79e	0.09022449
246	0xbcf8a1e8	-0.03035064
247	0x3d87b8a9	0.06627018
248	0xbdb0e705	-0.086378135
249	0xbd99ee2e	-0.07516132
250	0x3dba8fd0	0.09109461
251	0xbd0fea98	-0.035135835
252	0x3d899a2d	0.0671886
253	0x3dbbe64a	0.091747835
254	0xbc5aab60	-0.013346523
255	0xbd92e369	-0.07172281

policyHead.3.bias f4 [64]
0	0x3d3bb229	0.045824204
1	0x3da2798f	0.07933342
2	0xbd47dfea	-0.048797525
3	0xbc7ad7f3	-0.015310275
4	0xbda0c8cd	-0.078508
5	0xbca5068f	-0.020144729
6	0xbd86e6ad	-0.06586967
7	0x3cee0f51	0.029060038
8	0xbc6ac0b6	-0.014328172
9	0x3d4af2f9	0.049548123
10	0xbda971eb	-0.08273681
11	0xbd0f7dd9	-0.035032127
12	0xbd339974	-0.043847516
13	0xbc8abbc3	-0.016935235
14	0x3d969e32	0.07354392
15	0xbd999d79	-0.07500739
16	0xbcc4e4ce	-0.024034884
17	0xbdc2dfd3	-0.09515347
18	0xbd3c39dc	-0.045953616
19	0xbda6ea5c	-0.08150169
20	0xbd89eb3f	-0.06734323
21	0xbb7e0b23	-0.0038763962
22	0x3cc16c59	0.023611235
23	0xbd54d87c	-0.051964268
24	0xbd11d7ac	-0.03560607
25	0x3d3532ad	0.04423778
26	0xbd2a58ff	-0.04158878
27	0x3c51f8e7	0.012815691
28	0xbd97e2d7	-0.07416313
29	0x3db0ac77	0.08626645
30	0x3dae2aa1	0.085042246
31	0x3cf04940	0.029331803
32	0x3d74c7a1	0.059760693
33	0x3dba3a49	0.09093148
34	0xbc7fa6bd	-0.015603718
35	0xbd035a26	-0.032068394
36	0xbd1c4f44	-0.03816153
37	0x3d8f5f71	0.07000626
38	0xbda69527	-0.08133917
39	0x3ce6cbe4	0.028173395
40	0x3d188ef8	0.03724572
41	0x3d5b8098	0.053589433
42	0x3dced0f8	0.100984514
43	0x3cf473e9	0.029840427
44	0xbd5842f6	-0.052798234
45	0xbd21ae63	-0.03947295
46	0xbd0cf917	-0.034417238
47	0x3d8b7ab4	0.06810513
48	0xbc8d1962	-0.017224018
49	0xbdb30f77	-0.08743184
50	0x3dc97854	0.09837404
51	0x3d3fe243	0.04684664
52	0x3d6ae538	0.057347506
53	0x3daa6e90	0.083218694
54	0x3d66e0ea	0.05636684
55	0x3d6e12c7	0.058123376
56	0x3d7ca13b	0.0616772
57	0x3d406b49	0.046977315
58	0x3d304aef	0.043040212
59	0x3d8c0211	0.06836332
60	0xbd0a2e37	-0.03373548
61	0x3d11ad4e	0.035565667
62	0xbd801171	-0.06253327
63	0x3d6b10d4	0.057389095

policyHead.4.weight f4 [64]
0	0x3f808b47	1.0042504
1	0x3f8152ff	1.0103453
2	0x3f8229f1	1.016905
3	0x3f7e313d	0.9929388
4	0x3f8329f7	1.0247182
5	0x3f7fd79c	0.9993837
6	0x3f80eebb	1.0072855
7	0x3f7a9f72	0.97899544
8	0x3f7db0ee	0.990981
9	0x3f7ebcfa	0.99507105
10	0x3f83c323	1.0293926
11	0x3f8012d5	1.0005747
12	0x3f81c469	1.0138065
13	0x3f7f0281	0.99613196
14	0x3f7b907d	0.98267347
15	0x3f7fb618	0.9988723
16	0x3f7dd203	0.9914858
17	0x3f800000	1.0
18	0x3f7c53fe	0.9856566
19	0x3f7c9d79	0.98677784
20	0x3f787498	0.9705291
21	0x3f77a3a1	0.9673405
22	0x3f7ed1f2	0.995391
23	0x3f7b7518	0.98225546
24	0x3f81e3fc	1.01477
25	0x3f7ee9e0	0.99575615
26	0x3f7fff28	0.9999871
27	0x3f80124f	1.0005587
28	0x3f7e153d	0.9925116
29	0x3f7f66cb	0.99766225
30	0x3f80a0f3	1.0049118
31	0x3f80ec46	1.0072105
32	0x3f7c3d9e	0.9853152
33	0x3f7eb9fd	0.99502546
34	0x3f7a0ec9	0.9767881
35	0x3f82d1a0	1.0220222
36	0x3f777531	0.96663195
37	0x3f8094bb	1.0045389
38	0x3f8004fb	1.000152
39	0x3f800000	1.0
40	0x3f7ee571	0.9956885
41	0x3f809b72	1.0047438
42	0x3f7edc5d	0.99555
43	0x3f7c25c4	0.98495126
44	0x3f7fdd08	0.9994664
45	0x3f81ca89	1.0139934
46	0x3f806043	1.0029377
47	0x3f7f93aa	0.9983469
48	0x3f806c97	1.0033139
49	0x3f80f59d	1.0074955
50	0x3f8062db	1.0030168
51	0x3f80024b	1.00007
52	0x3f80821a	1.0039704
53	0x3f7fbf0b	0.99900883
54	0x3f82a1e2	1.0205653
55	0x3f7f9ab9	0.99845463
56	0x3f81bbbf	1.013542
57	0x3f804372	1.0020583
58	0x3f80b0a2	1.0053904
59	0x3f7b0bc5	0.98064834
60	0x3f80e13d	1.0068737
61	0x3f7de8bf	0.9918327
62	0x3f8486a9	1.0353595
63	0x3f834c70	1.0257702

policyHead.4.bias f4 [64]
0	0x3c1038d6	0.008802613
1	0x3c3217aa	0.0108699
2	0xbc46dfd2	-0.012138324
3	0x3b7fcfc5	0.0039033752
4	0xbaabfa0a	-0.0013120782
5	0xb9f3bd7c	-0.0004648975
6	0xbaf28329	-0.0018502224
7	0xbbea14e2	-0.0071436027
8	0xbc301549	-0.010747262
9	0x3b036442	0.0020048772
10	0xb990cb70	-0.00027617393
11	0x3b8bdba2	0.0042681256
12	0x3c9d95ed	0.01923653
13	0xbca11ea5	-0.019667933
14	0xbca084ac	-0.019594513
15	0xbac9cad7	-0.0015395534
16	0xbc4aa8f2	-0.012369381
17	0x00000000	0.0
18	0xbba17717	-0.0049275267
19	0xbc09da42	-0.008413853
20	0xbc83f368	-0.016107276
21	0xbaeb886d	-0.0017969735
22	0xbc536800	-0.0129032135
23	0x39a9da26	0.00032396725
24	0x3c840bbc	0.016118877
25	0xbb8ad1e5	-0.004236447
26	0x39394786	0.0001766962
27	0x3aaf494a	0.0013373282
28	0xba06279b	-0.0005117596
29	0xbac815ff	-0.0015265344
30	0x3c587371	0.013211117
31	0x3b96e111	0.0046044667
32	0x3b813f6b	0.0039443276
33	0x3593dc35	1.1016442e-06
34	0xbcabe179	-0.020981537
35	0xbbecd11f	-0.0072270776
36	0xbbb712be	-0.005586951
37	0xbc332532	-0.010934161
38	0xbc7f2109	-0.015571841
39	0x00000000	0.0
40	0xbc7a4ef8	-0.015277617
41	0xbbb290cf	-0.0054493914
42	0x3c87337c	0.016504042
43	0xbbd3a26e	-0.006458572
44	0xba0c2112	-0.0005345504
45	0x3ae5e632	0.0017539917
46	0xbbad0ce5	-0.005281078
47	0xba038599	-0.0005017161
48	0xbc3281fd	-0.010895249
49	0x3bb09e68	0.0053899772
50	0x3c1c4564	0.009538028
51	0xba1bb02b	-0.0005939032
52	0x3c7ccdfb	0.015429969
53	0x3ba1d7db	0.004939062
54	0x3bce17e8	0.006289471
55	0xbba7ff71	-0.0051268865
56	0xbb5851b0	-0.0033007674
57	0xbc64f7c0	-0.013975084
58	0xbc092746	-0.00837118
59	0xbb500fb6	-0.0031747646
60	0xbb5bd976	-0.0033546365
61	0xbbd25360	-0.0064186305
62	0x3aa531ff	0.0012603401
63	0xbbb519ca	-0.005526756

policyHead.6.weight f4 [24, 64]
0	0xbe07dab0	-0.13267016
1	0xbd584d58	-0.052808136
2	0x3d5615ca	0.052266873
3	0x3c705631	0.014668987
4	0x3d76f43f	0.060291525
5	0xbc03a262	-0.008034321
6	0x3d9e74ac	0.07737097
7	0x3c521524	0.012822423
8	0x3d65677c	0.056006894
9	0xbdc1b256	-0.09457843
10	0xba202982	-0.0006109701
11	0xbdac884a	-0.084244326
12	0xbb5f4fbe	-0.003407463
13	0x3dd0473a	0.101698354
14	0x3d81aed8	0.06332177
15	0x3dd86f79	0.10568137
16	0x3dbbe2ee	0.09174143
17	0xbdec6848	-0.115433276
18	0xbc747331	-0.014920042
19	0xbdd39544	-0.103312045
20	0xbd846338	-0.06464237
21	0xbd601f12	-0.05471713
22	0x3dd930d3	0.106050156
23	0x3c9a7ced	0.018858397
24	0x3d9e1420	0.07718682
25	0x3d986a1d	0.074421145
26	0xbdeb13a7	-0.11478358
27	0xbda414c0	-0.0801177
28	0x3d51e0bc	0.051239714
29	0xbd9a1874	-0.07524195
30	0xbd42696b	-0.047463816
31	0x3cc75822	0.024334017
32	0x3cf4a8cb	0.029865643
33	0x3d4a107e	0.049332134
34	0x3d5906c6	0.052984975
35	0xbd93e59e	-0.072215304
36	0xbd8ed44e	-0.06974088
37	0xbd2c6737	-0.04209062
38	0x3dd5dcac	0.104424804
39	0x3ce7a780	0.028278112
40	0x3d717037	0.058944907
41	0x3c436c1b	0.01192763
42	0xbd00fa5b	-0.031488758
43	0x3d9ef0a3	0.077607416
44	0xbda35226	-0.07974653
45	0xbd72ebed	-0.059307028
46	0xbc1092a6	-0.008824026
47	0xbd500712	-0.050787993
48	0x3df19407	0.11795812
49	0xbdb85dce	-0.09002267
50	0xbdcb390c	-0.0992299
51	0x3d10dd98	0.03536758
52	0xbda94941	-0.08265925
53	0x3d97614b	0.07391604
54	0xbd659dc7	-0.05605867
55	0x3d3a8345	0.045535345
56	0x3c8f9ee8	0.017531827
57	0x3db24b84	0.0870581
58	0xbc249136	-0.010044387
59	0x3cb2f238	0.021844015
60	0x39550d98	0.00020318327
61	0x3d2a7c4c	0.041622445
62	0xbe104df9	-0.14092244
63	0xbda48b86	-0.080344245
64	0x3ccc69e1	0.02495283
65	0xbda80397	-0.0820381
66	0x3d501347	0.050799634
67	0x3cb3d191	0.021950515
68	0xbd1d4253	-0.03839333
69	0xbdeab95b	-0.11461135
70	0xbc684eb8	-0.014178924
71	0xbd16d936	-0.036828242
72	0x3dd82de0	0.10555625
73	0x3d0815ea	0.033224024
74	0x3d307ac1	0.043085817
75	0xbce5c340	-0.028047204
76	0xbc0f5dc1	-0.00875038
77	0x3d4ff984	0.050775066
78	0x3d741b73	0.05959649
79	0xbd1d7c99	-0.038448904
80	0x3d112646	0.03543689
81	0x3dfb1642	0.12260105
82	0xbdac48c6	-0.08412318
83	0x3d166864	0.03672065
84	0x3d5d56d6	0.05403789
85	0x3991ec19	0.00027832462
86	0x3c1cfbf4	0.009581555
87	0xbdabc76d	-0.08387647
88	0x3c514d43	0.012774768
89	0xba171a5b	-0.000576412
90	0x3db6bf11	0.08923162
91	0xbdf402b6	-0.119145796
92	0xbd22cc89	-0.03974584
93	0x3d10978e	0.035300784
94	0x3dc18d25	0.09450749
95	0xbdcb0996	-0.09913938
96	0xbbfb0633	-0.007660651
97	0xbdd055d9	-0.10172624
98	0x3cc3f1ce	0.023919012
99	0xbb74f343	-0.003737644
100	0x3dca140b	0.09867104
101	0x3d8d35c4	0.068950206
102	0xbc73b35f	-0.014874308
103	0x3cbd46f0	0.023105115
104	0x3cace5aa	0.021105606
105	0xbc900317	-0.017579598
106	0xbd9f614e	-0.07782231
107	0xbde5d183	-0.11221602
108	0x3de07c70	0.109612346
109	0xbd9919e4	-0.07475641
110	0x3d2c72b6	0.042101584
111	0x3cb2e5e3	0.021838134
112	0xbcfcc5dc	-0.030856065
113	0xbd5b40ec	-0.05352871
114	0x3d5654e7	0.052327063
115	0x3d50dbbe	0.050990812
116	0xbc31db78	-0.010855548
117	0xbcb828b8	-0.022480354
118	0xbdc04bb9	-0.09389443
119	0x3c7422b3	0.014900851
120	0xbd004750	-0.03131801
121	0xbdda5083	-0.10659888
122	0x3e0ac975	0.13553412
123	0x3d95edd1	0.073207505
124	0x3d8085a5	0.06275491
125	0xbd981001	-0.074249275
126	0xbd2173ba	-0.039417006
127	0x3d2a1b4c	0.04152994
128	0xbd2305be	-0.039800398
129	0xbb8d823f	-0.004318505
130	0x3c940c88	0.018072382
131	0xbd96e1f4	-0.07367316
132	0xbd03f5e7	-0.032216933
133	0x3c9a0c9e	0.018804844
134	0x3d57f0cc	0.052719876
135	0x3d00c72d	0.03143995
136	0x3dbf179f	0.09330677
137	0x3b91b7be	0.0044469526
138	0xbc16285b	-0.009164895
139	0x3bc9fdd1	0.0061642905
140	0x3dc7116e	0.09720121
141	0xbcb45de3	-0.022017425
142	0x3c7c7a00	0.015409946
143	0xbd738e8e	-0.059462123
144	0xbdb2d3fb	-0.08731838
145	0x3bd271a0	0.0064222366
146	0x3ce6b187	0.028160824
147	0xbd98d363	-0.07462194
148	0x3dca4655	0.09876696
149	0xbdeaf0aa	-0.11471684
150	0x3df53ed0	0.11974871
151	0xbb89917d	-0.0041982518
152	0xbdbc9627	-0.09208327
153	0x3d0d8312	0.034548827
154	0xbc9849fc	-0.018589966
155	0x3d914082	0.07092382
156	0x3dbb209e	0.091370806
157	0xbdb0637c	-0.08612725
158	0xbdd930d5	-0.10605017
159	0xbcd6a420	-0.026201308
160	0xbbe610b2	-0.007021033
161	0x3da850bc	0.08218524
162	0x3d71315c	0.058884963
163	0xbd9db6c6	-0.07700877
164	0x3c5be310	0.013420835
165	0xbd973000	-0.07382202
166	0x3d1b0365	0.037845034
167	0xbda72354	-0.08161035
168	0x3d320824	0.043464795
169	0xbd588b22	-0.052867062
170	0xbda7d030	-0.081940055
171	0x3d2e1026	0.04249587
172	0xbb8a9ae0	-0.0042298883
173	0x3c66a1d2	0.014076667
174	0x3cb61f3d	0.022231692
175	0x3bfc8340	0.007706076
176	0x3db43d76	0.08800785
177	0x3db8d333	0.09024658
178	0x3d6e8012	0.058227606
179	0x3cf5ba7d	0.029996151
180	0xbd356805	-0.044288654
181	0xbd5a6169	-0.053315554
182	0xbda1000d	-0.07861338
183	0x3db33f0f	0.08752262
184	0x3d2c764e	0.04210501
185	0xbd13e921	-0.036111
186	0xbd0eeda3	-0.034894597
187	0xbd9924db	-0.07477733
188	0xbb2d358f	-0.0026429628
189	0xbcfcd68a	-0.030864019
190	0x3c17e88f	0.009271755
191	0xbd2cf3bb	-0.042224627
192	0xbda0bc97	-0.07848471
193	0xbdc985fc	-0.098400086
194	0x3d7b9337	0.061419692
195	0x3d818449	0.063240595
196	0xbd808477	-0.06275266
197	0x3dba260c	0.09089288
198	0xbdd05c71	-0.10173882
199	0xbd86501f	-0.06558251
200	0x3d946914	0.072466046
201	0xbd6e0fce	-0.05812054
202	0xbde24a62	-0.11049344
203	0x3c93c0a5	0.018036196
204	0x3c9a3ee2	0.018828813
205	0xba881afb	-0.0010384017
206	0xbd4cb61e	-0.049978368
207	0x3dd9465c	0.10609123
208	0xbd1ea6b5	-0.038733203
209	0x3dd5d696	0.1044132
210	0x3d5b977d	0.053611267
211	0xbd8d36cd	-0.06895218
212	0x3ddc207f	0.10748386
213	0xbdc0dafe	-0.094167694
214	0xbc2cfc0b	-0.010558139
215	0x3da37972	0.07982148
216	0xbd91035f	-0.07080721
217	0x3b4650ef	0.0030260643
218	0x3df46002	0.119323745
219	0xbda9766f	-0.082745425
220	0xbde53433	-0.11191597
221	0xbb61026b	-0.0034333717
222	0xbd98fec2	-0.07470466
223	0x3d61b70e	0.055106215
224	0xbd6e8b85	-0.058238525
225	0x3d139e6f	0.036039766
226	0x3d4dcfd8	0.050247043
227	0x3e1261d7	0.14295135
228	0xbdb1f516	-0.086893246
229	0x39b2a34f	0.0003407248
230	0x3cf056b7	0.029338224
231	0xbdfb5d2e	-0.12273632
232	0xbdf08b1a	-0.117452815
233	0xbd5c7bb2	-0.053828903
234	0xbb621e75	-0.0034503017
235	0x3d35c97a	0.044381596
236	0xbd809bc6	-0.062797114
237	0x3d97fc91	0.0742122
238	0x3df82cd3	0.121179245
239	0xbd1f381a	-0.038871862
240	0x3dbc9cd3	0.09209599
241	0xbd58b5d8	-0.052907795
242	0x3dc099f4	0.09404364
243	0x3da0585c	0.07829353
244	0xbd8f73e5	-0.07004527
245	0xbbb11a74	-0.005404765
246	0xbc06ce14	-0.008227844
247	0xba19a84c	-0.0005861565
248	0x3d696b7a	0.056987263
249	0x3d2533af	0.040332492
250	0xbdb7da9d	-0.08977244
251	0x3da35e60	0.07976985
252	0x3d3341cf	0.04376393
253	0xbd20fdb1	-0.03930444
254	0x3c5f1e74	0.0136181
255	0x3dbeebcc	0.093223184

policyHead.6.bias f4 [24]
0	0x3dcba805	0.099441566
1	0xbc0e3895	-0.008680482
2	0xbdc90f84	-0.098174125
3	0x3ca94938	0.020664796
4	0x3dc47755	0.09593073
5	0x3d928ebf	0.07156133
6	0xbd14d6a3	-0.036337506
7	0x3d3cf675	0.046133477
8	0x3d8e9b58	0.06963223
9	0x3d1bbe80	0.03802347
10	0xbce7c975	-0.028294304
11	0x3dc3302a	0.09530671
12	0xbd74af2e	-0.059737377
13	0xbcc43513	-0.023951089
14	0xbd48709e	-0.048935525
15	0x3d85ef79	0.065398164
16	0xbd96102d	-0.07327304
17	0x3d4d4c08	0.050121337
18	0x3dd60a76	0.10451214
19	0x3d672ae4	0.056437388
20	0x3cd712d4	0.026254095
21	0xbdd17bc7	-0.10228687
22	0x3d73f88c	0.059563205
23	0xbb9d1080	-0.0047932267

valueHead.0.weight f4 [128, 155]
0	0x3c0f3d6e	0.008742673
1	0xbda35d1f	-0.07976746
2	0xbc08bda2	-0.008345993
3	0xbb054d71	-0.0020340348
4	0x3c9648ca	0.018345255
5	0xbd5efd1c	-0.054440603
6	0xbd2f7cd6	-0.042843662
7	0xbc22544f	-0.009907796
8	0x3d3645c1	0.044500116
9	0xbd0305a8	-0.031987816
10	0x3d00586c	0.031334326
11	0x3a2bb6d7	0.00065503776
12	0xbd1ae011	-0.037811343
13	0xbd26dce5	-0.040738005
14	0xbd6d9f3b	-0.058013182
15	0x3c90fde9	0.017699199
16	0xbd4e2af1	-0.05033392
17	0x3d0c2d7f	0.034223076
18	0xb9d51894	-0.00040644838
19	0xbd801087	-0.06253152
20	0x3d4ab27d	0.049486626
21	0xbcf62ca2	-0.03005058
22	0xbafabe5e	-0.001913022
23	0xbcba72e7	-0.022759868
24	0x3d7a1db7	0.061063495
25	0x3bc74a5f	0.006081864
26	0xbd7f9eb0	-0.062407196
27	0xbce10a0e	-0.027470615
28	0xbd807153	-0.06271615
29	0x3d7689ed	0.06019013
30	0xbd0697ca	-0.0328596
31	0x3cf60734	0.030032732
32	0x3d7ee888	0.062233478
33	0x3d679ee1	0.056548003
34	0xbae7e06b	-0.0017690783
35	0x3d353e63	0.04424895
36	0x3db94f2c	0.09048304
37	0xbb0281fe	-0.0019913907
38	0xbc742016	-0.014900228
39	0x3d067aa4	0.032831803
40	0x3d99220f	0.07477199
41	0xbd2b2479	-0.04178283
42	0xbd26eb40	-0.040751696
43	0xbd75d111	-0.060013834
44	0x3d888e33	0.06667747
45	0xbc293d7d	-0.010329601
46	0xbcf6ba24	-0.030118056
47	0xbd7c068b	-0.061529677
48	0xbcddfac5	-0.027097115
49	0x3d0da8d6	0.034584843
50	0xbc926f3b	-0.017875304
51	0xbda3cae0	-0.0799768
52	0x3d5961b9	0.05307171
53	0x3d73a822	0.059486516
54	0xbd173fd3	-0.036926102
55	0xbd4fe5e6	-0.050756358
56	0x3d1abf40	0.037780046
57	0x3d6970ec	0.056992456
58	0x3c419e54	0.0118175335
59	0xbc638edd	-0.013889042
60	0x3d0a5727	0.03377452
61	0x3b1b393a	0.0023685233
62	0x3d68a858	0.05680117
63	0xbd4e8c86	-0.050426982
64	0x3d7a1fc4	0.06106545
65	0x3d51c7e8	0.051216036
66	0xbce1205e	-0.027481254
67	0x3d453c79	0.048153374
68	0xbd48c361	-0.049014453
69	0x3d5ca6ec	0.053870127
70	0xbc976971	-0.018482896
71	0xbd18314f	-0.0371564
72	0x3dd30aa6	0.103047654
73	0x3b144d21	0.002262898
74	0x3c298473	0.01034652
75	0x3b0aca9f	0.00211779
76	0x3d53eb21	0.05173791
77	0xbd970247	-0.07373481
78	0x3daefcf5	0.085443415
79	0x3da1f096	0.07907216
80	0x3d33d8e8	0.04390803
81	0x3c64f19e	0.013973622
82	0x3d77c4a2	0.060490258
83	0xbd022f47	-0.03178337
84	0x3c660fe5	0.0140418755
85	0x3d76a43e	0.060215227
86	0xbd5d3726	-0.05400767
87	0xbccf1a79	-0.025281178
88	0x3d7c2fd1	0.06156904
89	0x3d9c7b4f	0.07640707
90	0xbd7130c6	-0.058884405
91	0x3d5604c6	0.052250646
92	0x3d52d3e4	0.051471606
93	0x3b81037f	0.0039371843
94	0x3c4b7b24	0.012419496
95	0xbd882dec	-0.06649384
96	0x3d205020	0.039138913
97	0x3da346a0	0.07972455
98	0x3d151550	0.03639728
99	0x3c142b26	0.0090434905
100	0x3b064401	0.002048731
101	0xbd02485e	-0.031807296
102	0xbc9dc500	-0.019258976
103	0xbd837b3e	-0.06419991
104	0xbd309705	-0.043112773
105	0xbd1532c2	-0.03642536
106	0x3d34b0ab	0.044113796
107	0x3d9d32f3	0.076757334
108	0xbc3de470	-0.011590108
109	0x3d6f94fc	0.058491692
110	0xbb1c7a50	-0.0023876615
111	0x3caab777	0.020839436
112	0x3cacf695	0.021113673
113	0xbcbfaabe	-0.023396846
114	0x3ddb0f77	0.10696309
115	0xbc33f104	-0.010982756
116	0xbd071253	-0.03297646
117	0x3a99998c	0.0011718734
118	0x3d59a8f9	0.05313966
119	0xbd10fa05	-0.035394687
120	0x3dac370b	0.08408936
121	0xbd1ae567	-0.03781643
122	0xbce647ba	-0.028110374
123	0xbdd6a42c	-0.10480532
124	0xbd07702b	-0.033065956
125	0xbd5b013b	-0.05346797
126	0x3cdae364	0.026719756
127	0x3d06d91d	0.0329219
128	0xbcaca9ce	-0.021077063
129	0xbd52b759	-0.051444385
130	0xbd137bf5	-0.036006887
131	0xbdbaa645	-0.09113745
132	0xbb5a23f5	-0.0033285592
133	0x3c9587ee	0.018253293
134	0xbcd96678	-0.026538119
135	0xbcbe363e	-0.023219224
136	0x3cc8afc9	0.024497883
137	0xbdc7e837	-0.09761088
138	0x3d95ca10	0.07313931
139	0xbd02cf14	-0.031935766
140	0xbd70d031	-0.058792297
141	0x3d9e3a14	0.07725921
142	0xbd8b7343	-0.06809094
143	0x3d89152f	0.066934936
144	0xbcbb5fdc	-0.022872858
145	0xbd7fbf72	-0.062438436
146	0xbc05758e	-0.008145703
147	0xbd831a48	-0.06401497
148	0xbd9b7bd5	-0.075919785
149	0x3cb2cff7	0.021827681
150	0x3d17952b	0.037007492
151	0xbd276f55	-0.04087766
152	0x3d835694	0.06412998
153	0x3c03f288	0.008053429
154	0x3d4de902	0.05027104
155	0xbda3a8ce	-0.07991181
156	0xbd4a3a67	-0.049372103
157	0x3d7ba1f5	0.06143375
158	0xbd46b66a	-0.048513807
159	0xbd462888	-0.048378497
160	0x3cb281e6	0.021790456
161	0xbb820776	-0.0039681746
162	0xbd1a87b7	-0.037727084
163	0x3ccaf802	0.024776462
164	0xbd88ab49	-0.06673295
165	0x3d9a1334	0.07523194
166	0x3c411b10	0.011786237
167	0x3d013a8c	0.031549975
168	0xbd28888f	-0.041145857
169	0xbcd2c7eb	-0.025730094
170	0xbcd18d9b	-0.025580218
171	0xbd88a982	-0.06672956
172	0x3d832a79	0.064045854
173	0xbb9b434d	-0.0047382475
174	0x3cebf6b6	0.028804164
175	0x3c526a04	0.012842659
176	0xbd29c6c8	-0.04144934
177	0x3d79979a	0.060935594
178	0xbd90ef49	-0.0707689
179	0xbccd2b17	-0.02504496
180	0xbd9e2ef8	-0.07723802
181	0x3d69d738	0.057090014
182	0x3d887f5b	0.06664916
183	0xbd1659df	-0.0367068
184	0xbcc662d7	-0.024217052
185	0x3cca42d1	0.024690064
186	0xbd31c33a	-0.043399073
187	0x3cd23d49	0.025663989
188	0x3d0cdb69	0.034388933
189	0xbd6fa471	-0.058506433
190	0xbd2d6f87	-0.04234269
191	0xbd62c2c9	-0.055361543
192	0x3d24abe1	0.04020298
193	0x3acb23a1	0.0015498289
194	0xbd9d5f47	-0.07684188
195	0xbb0e5cf8	-0.0021722894
196	0xbccf09c3	-0.02527321
197	0xbcd20e84	-0.025641687
198	0x3c27bc1b	0.010237719
199	0xbc4d01ba	-0.012512619
200	0xbd92c5d3	-0.07166638
201	0xbd763304	-0.060107246
202	0xbd3f68ab	-0.04673068
203	0xbd6ff892	-0.058586664
204	0x3cb04eb1	0.021521898
205	0xbcc67819	-0.024227189
206	0xbd3d7582	-0.046254642
207	0xbdb46334	-0.08807984
208	0xbd6121f2	-0.054964013
209	0xbd968f04	-0.07351497
210	0xbcc6dc8c	-0.024275087
211	0x3d36f544	0.044667497
212	0x3d8bf710	0.06834233
213	0xbc901031	-0.017585846
214	0xbd9169b7	-0.07100242
215	0x3ca22d36	0.019796949
216	0x3d85c273	0.06531229
217	0xbd3a9613	-0.04555328
218	0xbd4abc42	-0.049495943
219	0xbc7d1bbf	-0.01544851
220	0xbd02c657	-0.031927433
221	0x3d16eb11	0.03684527
222	0x3d980b49	0.074240275
223	0x3d007b29	0.031367455
224	0xbc77f6fc	-0.015134569
225	0xbd9b59cd	-0.075854875
226	0x3d5a38b5	0.053276736
227	0x3d86d06c	0.06582722
228	0xbc1a9846	-0.009435719
229	0x3cde6546	0.0271479
230	0xbd58b550	-0.052907288
231	0x3dc0315e	0.09384416
232	0x3db37d7a	0.08764167
233	0xbd76f9a1	-0.06029666
234	0x3d24804a	0.04016141
235	0xbd2bc16a	-0.0419325
236	0x3db2210d	0.0869771
237	0x3d1d1160	0.03834665
238	0x3d38ffd5	0.045165855
239	0x3d997911	0.07493795
240	0xbd0c0041	-0.03417993
241	0xbc7f911c	-0.015598562
242	0x3d921852	0.07133545
243	0xbd65e4ea	-0.056126513
244	0x3cf6c219	0.03012185
245	0x3d84d181	0.06485272
246	0x3d599305	0.053118724
247	0x3bb11950	0.005404629
248	0x3d109aec	0.035303995
249	0x3c70b25e	0.014690964
250	0x3d295b45	0.041346807
251	0xbc544d7f	-0.01295793
252	0x3d7e1af2	0.062037416
253	0x3bcbd0d2	0.0062199617
254	0xbd9c6e3b	-0.07638212
255	0xbbf9386f	-0.0076056044

valueHead.0.bias f4 [128]
0	0x3d8fd459	0.07022924
1	0x3cf61b67	0.030042363
2	0x3d22be0e	0.03973203
3	0x3d9424ba	0.072335675
4	0xbd975bfa	-0.0739059
5	0x3d6e4ae2	0.058176883
6	0x3b8b2e0f	0.004247434
7	0xbd34f92b	-0.044182938
8	0x3d04f335	0.032458503
9	0xbd66a411	-0.05630881
10	0x3d62b764	0.055350676
11	0xbcb910dd	-0.022591049
12	0x3d1be26d	0.038057733
13	0xbccd1873	-0.025036072
14	0x3c1cb852	0.00956543
15	0xbd8ed3c4	-0.06973985
16	0x3d076538	0.033055514
17	0xbd951a1b	-0.0728037
18	0x3d3852cd	0.04500084
19	0xb9923e81	-0.0002789386
20	0xbba7b950	-0.0051185265
21	0x3d7e397c	0.06206654
22	0xbcfe8779	-0.031070458
23	0x3ce36fec	0.02776333
24	0x3d372663	0.044714343
25	0x3d1bed66	0.038068198
26	0x3caa0655	0.020754972
27	0xbcd91478	-0.026499018
28	0x3cec4fff	0.028846739
29	0x3d84adfb	0.06478497
30	0xbd1e326a	-0.038622297
31	0x3d0cb88b	0.03435568
32	0x3cd173e4	0.025567956
33	0xbbb90bf7	-0.0056471783
34	0xbc017d54	-0.007903416
35	0xbc5c53db	-0.013447727
36	0xbd1e6cb3	-0.038677882
37	0xbd76ebad	-0.06028335
38	0xbda1db6d	-0.0790318
39	0x3c994bcd	0.018712902
40	0x3cd11eec	0.02552744
41	0xbd8aeafa	-0.067830995
42	0xbda57ea0	-0.080807924
43	0xbd66b467	-0.05632439
44	0x3d65f1ce	0.056138806
45	0xbb7793bf	-0.0037777273
46	0xbd77b207	-0.060472514
47	0x3cab4678	0.020907626
48	0xbd566448	-0.05234173
49	0xbd8cedbd	-0.068812825
50	0x3c35fea9	0.011108079
51	0xbd85d2b3	-0.06534328
52	0xbc8c6b2b	-0.017140945
53	0x3bac368f	0.0052555273
54	0x3cdfecce	0.027334597
55	0x3bbae759	0.0057038483
56	0xbd5a35f4	-0.05327411
57	0x3d3d6875	0.046242196
58	0x3b3b89dd	0.0028616108
59	0x3c988c00	0.018621445
60	0x3beabc84	0.007163586
61	0xbcbed010	-0.023292571
62	0x3cdd7465	0.02703304
63	0xbd40e684	-0.047094837
64	0x3d871e97	0.065976314
65	0xbd6ae8ea	-0.05735103
66	0x3d16fc53	0.03686173
67	0xbd7d118f	-0.061784323
68	0x3da2db02	0.07951929
69	0xbc7732f1	-0.015087829
70	0xbd3da26a	-0.04629747
71	0x3d90a8ee	0.07063471
72	0x3d35f32e	0.044421367
73	0x3d300479	0.042973015
74	0xba90122f	-0.0010991747
75	0xbbea45be	-0.007149427
76	0xba6a9982	-0.0008949266
77	0x3caacb75	0.020848969
78	0xbd103946	-0.03521087
79	0xbccdba9f	-0.025113402
80	0x3c6dc784	0.0145129
81	0x3c87a3a4	0.016557522
82	0xbd14bbcc	-0.03631191
83	0xbcdb3920	-0.026760638
84	0xbd4085ca	-0.04700259
85	0xbcd277de	-0.025691923
86	0x3d8dc355	0.06922022
87	0x3da43a5b	0.08018943
88	0x3d3be9eb	0.04587738
89	0x3d137e0f	0.03600889
90	0x3d8123c1	0.06305648
91	0x3d80a8c2	0.06282188
92	0xbc7eec1c	-0.015559223
93	0xbd07d8b3	-0.033165645
94	0x3c92a7ba	0.017902244
95	0x3ced4511	0.028963597
96	0x3cb23637	0.021754367
97	0xbd5fb6c3	-0.054617655
98	0x3caccd9f	0.021094142
99	0x3d95a67d	0.07307146
100	0xbd1d03ba	-0.038333632
101	0xbd81ec52	-0.06343903
102	0x3d91c566	0.07117729
103	0xbd71ee15	-0.059064943
104	0xbd6888ce	-0.056771092
105	0xbda6f830	-0.08152807
106	0xbca5a46e	-0.020220008
107	0xbd26cee3	-0.040724646
108	0xbca2f08e	-0.019890096
109	0x3ac0ced0	0.0014710072
110	0x3a9dc464	0.0012036678
111	0x3cc1c56d	0.02365371
112	0xbcdbed49	-0.026846545
113	0x3ca6449c	0.020296387
114	0x3d0e3976	0.034722768
115	0x3cc1f1f3	0.02367494
116	0xbd4d8eb7	-0.05018493
117	0x3d904083	0.07043555
118	0x3d70ff19	0.05883703
119	0xbc4eb677	-0.012616745
120	0xbd8e611f	-0.06952118
121	0x3daf0962	0.085467115
122	0x3b8e75a5	0.0043475204
123	0xbcaf374f	-0.021388678
124	0x3d97044a	0.07373865
125	0x3d8e06e3	0.06934907
126	0xbd0c5953	-0.034264874
127	0x3cf8e345	0.030381808

valueHead.1.weight f4 [128]
0	0x3f815e2f	1.0106868
1	0x3f7f4c17	0.9972548
2	0x3f7da61d	0.99081594
3	0x3f823e11	1.0175191
4	0x3f7f1cd7	0.9965338
5	0x3f7fc892	0.9991542
6	0x3f7f6498	0.9976287
7	0x3f7dad92	0.9909297
8	0x3f813bbc	1.0096354
9	0x3f803f9f	1.0019416
10	0x3f7e8d7e	0.9943465
11	0x3f814132	1.0098021
12	0x3f81f858	1.0153913
13	0x3f80ee5c	1.0072742
14	0x3f82def4	1.022429
15	0x3f80f6ae	1.0075281
16	0x3f80a05b	1.0048937
17	0x3f7fcda5	0.99923164
18	0x3f82105d	1.0161244
19	0x3f7c3847	0.9852337
20	0x3f83d875	1.0300432
21	0x3f80fb78	1.0076742
22	0x3f80df3e	1.0068128
23	0x3f83f1fd	1.0308224
24	0x3f812c2d	1.0091606
25	0x3f82d3a8	1.0220842
26	0x3f7f3f1b	0.99705666
27	0x3f820338	1.0157232
28	0x3f8249b3	1.0178741
29	0x3f7e79fe	0.99404895
30	0x3f7ca0b1	0.98682696
31	0x3f80549b	1.002582
32	0x3f813ce7	1.0096711
33	0x3f8148a4	1.0100293
34	0x3f81e49f	1.0147895
35	0x3f81b03c	1.0131907
36	0x3f803a8c	1.0017867
37	0x3f7e48c6	0.99329793
38	0x3f7df56e	0.9920262
39	0x3f7c7c8f	0.9862756
40	0x3f803c53	1.001841
41	0x3f7f2224	0.9966147
42	0x3f7d2455	0.98883563
43	0x3f802ec9	1.0014278
44	0x3f800f61	1.0004693
45	0x3f7e1220	0.99246407
46	0x3f80c8e0	1.0061302
47	0x3f7cfa45	0.9881938
48	0x3f81e6b3	1.0148529
49	0x3f82411b	1.0176119
50	0x3f822726	1.0168197
51	0x3f8086df	1.0041159
52	0x3f7ca848	0.98694277
53	0x3f82d9f6	1.0222766
54	0x3f78e9e4	0.9723189
55	0x3f7cbf0a	0.98729
56	0x3f832f60	1.0248833
57	0x3f7ff435	0.99982005
58	0x3f814a69	1.0100833
59	0x3f807e1b	1.0038484
60	0x3f80130b	1.0005811
61	0x3f818d6e	1.0121286
62	0x3f7cba91	0.9872218
63	0x3f8278fd	1.0193173
64	0x3f7d0f5f	0.9885158
65	0x3f81f471	1.0152723
66	0x3f82d8e9	1.0222446
67	0x3f7d5802	0.98962414
68	0x3f805b64	1.002789
69	0x3f802ac2	1.0013049
70	0x3f801f21	1.00095
71	0x3f820736	1.0158451
72	0x3f7ec40f	0.9951791
73	0x3f803a10	1.0017719
74	0x3f7c7dc5	0.9862941
75	0x3f7f9fce	0.9985322
76	0x3f80f79e	1.0075567
77	0x3f800389	1.0001079
78	0x3f7b350a	0.98127806
79	0x3f7ef260	0.99588585
80	0x3f8120c8	1.0088129
81	0x3f813d40	1.0096817
82	0x3f7fd142	0.9992868
83	0x3f818231	1.0117856
84	0x3f7cdff0	0.987792
85	0x3f80b0ae	1.0053918
86	0x3f7ec387	0.995171
87	0x3f7fb66d	0.99887735
88	0x3f7cdb28	0.98771906
89	0x3f7f5611	0.997407
90	0x3f7c73b9	0.9861408
91	0x3f822da9	1.0170184
92	0x3f7dd37d	0.9915083
93	0x3f80851f	1.0040625
94	0x3f8219e8	1.0164156
95	0x3f82989b	1.0202821
96	0x3f8241ed	1.0176369
97	0x3f7bcae3	0.98356456
98	0x3f81d504	1.0143132
99	0x3f7f1cee	0.9965352
100	0x3f8092fd	1.0044857
101	0x3f7ea5bb	0.99471635
102	0x3f7e0b2e	0.9923581
103	0x3f7abd39	0.9794498
104	0x3f8126ec	1.0090003
105	0x3f84cee3	1.0375637
106	0x3f7f32ce	0.99686897
107	0x3f81f284	1.0152135
108	0x3f7d54ea	0.98957694
109	0x3f85cfe0	1.0454063
110	0x3f7e6005	0.99365264
111	0x3f814437	1.0098943
112	0x3f819a9b	1.0125307
113	0x3f80dd4f	1.0067538
114	0x3f831d36	1.024329
115	0x3f806e8d	1.0033737
116	0x3f808530	1.0040646
117	0x3f7ced7a	0.9879986
118	0x3f816571	1.0109082
119	0x3f8187f3	1.0119613
120	0x3f807a1b	1.0037264
121	0x3f815f06	1.0107124
122	0x3f7ee6d0	0.9957094
123	0x3f812af9	1.0091239
124	0x3f81458c	1.0099349
125	0x3f809871	1.0046521
126	0x3f7f6d65	0.997763
127	0x3f7eb57b	0.9949567
