MachiKoro/ModelsNN3/version_4_model_6.pt (torch, 242506 bytes, 19 tensors)

policyHead.0.weight f4 [128, 155]
0	0xbccf216f	-0.025284497
1	0x3cdc8dd4	0.026923098
2	0x3ccb0ace	0.024785426
3	0xbbb896d1	-0.005633213
4	0x3d4d110a	0.050065078
5	0xbd1c44ef	-0.038151678
6	0x3c7958ef	0.015218957
7	0xbdbd14d7	-0.092324905
8	0x3c9a5a2c	0.018841825
9	0xbbca9a47	-0.006182942
10	0xbda106cb	-0.07862624
11	0x3c81012d	0.015747631
12	0x3cb236a7	0.021754576
13	0xbcffbb03	-0.031217104
14	0x3cd6aa1c	0.026204161
15	0xbce956d6	-0.02848379
16	0x3cacebd0	0.021108538
17	0x3d448913	0.047982287
18	0x3d542263	0.051790606
19	0x3bf68543	0.0075232103
20	0xbd53a588	-0.051671535
21	0xbbcef24c	-0.006315505
22	0xbd4358b9	-0.047692034
23	0x3d0ec5dc	0.034856662
24	0x3d97b24b	0.074070536
25	0x3d02a1ef	0.031892713
26	0xbd130d55	-0.035901386
27	0xbdbc277b	-0.09187218
28	0xbd7cdd70	-0.061734617
29	0xbd1b1318	-0.037860006
30	0x3c74d1d4	0.014942605
31	0x3d7d17ca	0.061790265
32	0x3c32aae5	0.010905002
33	0x3c821410	0.015878707
34	0x3d4220e8	0.047394663
35	0xbc519878	-0.012792699
36	0xbd2a4ba4	-0.041576043
37	0xbbae9448	-0.005327735
38	0x3da1d460	0.079018354
39	0x3d6b78c6	0.057488225
40	0x3d2ca084	0.042145267
41	0xbca401a6	-0.020020317
42	0xbd88a84b	-0.06672724
43	0xbd60c5ae	-0.054876022
44	0xbd42d863	-0.047569644
45	0x3d816521	0.06318117
46	0xbcec98b0	-0.0288814
47	0xbc80e2c1	-0.015733125
48	0x3bbb567c	0.005717097
49	0x3d2885d0	0.04114324
50	0x3d96241e	0.073311076
51	0xbcefe8c0	-0.029285789
52	0x3db00503	0.08594706
53	0x3dba6267	0.091008
54	0x3d01fe65	0.03173675
55	0x3dbba114	0.091615826
56	0xbd1f41f0	-0.038881242
57	0x3be5276f	0.0069932262
58	0xbde1314d	-0.109957315
59	0x3d6b3e8d	0.0574327
60	0x3d5a7a00	0.053339005
61	0x3ccbf721	0.024898114
62	0xbd30f0b8	-0.043198317
63	0x3c877e32	0.016539667
64	0xbd376065	-0.044769663
65	0xbdab9abc	-0.083791226
66	0xbc43dedb	-0.011954988
67	0x3c072dfc	0.00825071
68	0x3d41aa8b	0.047281783
69	0xbd3a3d13	-0.0454684
70	0x3d75ff68	0.060058028
71	0x3c29b9d5	0.010359247
72	0x3d005964	0.03133525
73	0x3d8956d4	0.06706014
74	0xbce661ec	-0.028122865
75	0x3c927cc3	0.017881757
76	0x3cca8d34	0.024725534
77	0xbd103cf6	-0.035214387
78	0xbda953a7	-0.082679085
79	0xbc92ab7a	-0.017904032
80	0x3cca97e3	0.024730628
81	0xbd5efd28	-0.054440647
82	0xbccda4a4	-0.02510292
83	0x3dd71ab4	0.1050314
84	0xbc1fd3f6	-0.009755125
85	0xbccd35d5	-0.025050083
86	0x3afe4766	0.001939994
87	0x3d33041d	0.043705095
88	0xbd2b825d	-0.04187237
89	0x3d6f3f1b	0.05840979
90	0xbc7333d8	-0.0148439035
91	0xbce864e8	-0.028368428
92	0xbd3775fd	-0.044790257
93	0xbd5462c2	-0.051851995
94	0xbcc40462	-0.023927871
95	0x3d5d6942	0.05405546
96	0xbd587ec6	-0.052855276
97	0xbc19581e	-0.009359388
98	0xbd18afd4	-0.037277058
99	0x3d5be57c	0.05368565
100	0x3bad4525	0.0052877837
101	0xbd0a3d2e	-0.03374975
102	0x3d469ced	0.0484895
103	0x3d72eb09	0.05930618
104	0x3d850734	0.064955145
105	0x3d9795a4	0.074015886
106	0xbd16b546	-0.03679397
107	0x3ccae65d	0.024768049
108	0x3d5f342b	0.05449311
109	0x3d7d813d	0.06189083
110	0x3d984d4b	0.074366175
111	0xbd62840e	-0.05530172
112	0x3d426fda	0.04746995
113	0xba276889	-0.00063861214
114	0xbcb2f279	-0.021844136
115	0xbab0b788	-0.0013482431
116	0x3c9cbc30	0.019132704
117	0x3d6a3d48	0.05718735
118	0xbc392b5a	-0.01130184
119	0x3d3a7349	0.0455201
120	0x3c3788a0	0.0112020075
121	0x3d7b996c	0.06142561
122	0xbdb7a6e4	-0.08967379
123	0xbd60197e	-0.05471181
124	0xbd781b3d	-0.06057285
125	0x3cc0b03e	0.023521539
126	0xbca534bc	-0.020166747
127	0x3d86ce16	0.065822765
128	0x3d2051de	0.039140575
129	0xbdd9558b	-0.10612019
130	0x3d59612a	0.05307118
131	0x3d5c54ec	0.053791925
132	0xbb4cc6ef	-0.0031246503
133	0xbb759f26	-0.0037478893
134	0x3bf0d671	0.007349782
135	0xbd98dd90	-0.07464135
136	0xbd8e24d2	-0.06940617
137	0x3d1b56f1	0.03792471
138	0x3d0b2919	0.03397474
139	0x3c943847	0.018093241
140	0x3ab05847	0.0013454043
141	0xbdc10206	-0.09424214
142	0x3b5f857f	0.003410667
143	0xbd42482d	-0.047432113
144	0x3d4c3fe3	0.049865615
145	0x3d1f6337	0.038912978
146	0xbbc007e9	-0.005860318
147	0x3c727649	0.014798709
148	0xbd48119a	-0.04884491
149	0xbc450e18	-0.012027286
150	0x3b50d583	0.0031865544
151	0xbd882bc4	-0.06648973
152	0xbbcd257e	-0.006260573
153	0xb7c5ab9d	-2.3564144e-05
154	0x3d8cd4a7	0.06876498
155	0xbbf7474f	-0.0075463424
156	0x3ba024d0	0.004887201
157	0xbce1412f	-0.027496902
158	0xbd2416a3	-0.04006065
159	0xbd3ec0da	-0.046570636
160	0xbd662f24	-0.0561973
161	0xbd48071e	-0.048834912
162	0xbd94b0ad	-0.07260261
163	0x3cf5bb8e	0.02999666
164	0x3d3c74e6	0.04600992
165	0xbd1d237d	-0.038363922
166	0x3cbcaa96	0.02303056
167	0x3be8f7b5	0.007109607
168	0x3d8d6529	0.069040604
169	0xbd16a295	-0.036776144
170	0xbbf3e2a6	-0.00744279
171	0xbd71d26e	-0.059038572
172	0xbd3fd042	-0.04682947
173	0x3d8a07c8	0.067397654
174	0x3d17c9d5	0.037057716
175	0xbd6abf81	-0.05731154
176	0x3d9c82a0	0.07642102
177	0xbd3b8a90	-0.04578644
178	0xbd8b6045	-0.06805471
179	0x3d64443e	0.055729143
180	0x3dd088a2	0.10182311
181	0xbd3efaa3	-0.046625745
182	0x3d914f17	0.07095163
183	0x3be23320	0.006903067
184	0xbd7b9a25	-0.0614263
185	0xbd1e2673	-0.038610887
186	0x3c8b32a8	0.016991928
187	0x3c504a76	0.012713065
188	0xbb05d6bd	-0.0020422183
189	0x3d8a0d79	0.06740851
190	0x3d43df1c	0.047820196
191	0xbc1c4601	-0.009538175
192	0xbbfb2d9f	-0.0076653506
193	0xbd03420f	-0.03204542
194	0xbd98cf3b	-0.07461401
195	0xbd655c3c	-0.055996165
196	0x3c0f1a86	0.008734351
197	0xbc27a74f	-0.010232761
198	0xbd64d1eb	-0.055864256
199	0x3d230290	0.039797366
200	0x3ac189a8	0.0014765756
201	0x3bd5b449	0.006521736
202	0xbc481765	-0.012212609
203	0x3daed8a5	0.085374154
204	0x3c358bab	0.011080663
205	0xbd00b78a	-0.031425036
206	0xbdea1181	-0.1142912
207	0x3dbe5179	0.092928834
208	0xbd796bff	-0.06089401
209	0x3d42afc1	0.047530893
210	0x3b9f85ac	0.00486823
211	0xba10ad94	-0.0005519029
212	0x3d3cf40c	0.04613118
213	0x3cdb5af0	0.02677676
214	0xbc737294	-0.0148588605
215	0xbdb67bdc	-0.08910343
216	0xbd165588	-0.036702663
217	0xbcd05aec	-0.02543398
218	0x3d58a8e3	0.052895438
219	0x3d5c2578	0.05374667
220	0xbdab2bab	-0.083579384
221	0xbd8a7ad1	-0.067617066
222	0xbcb40d64	-0.021979041
223	0x3d38fc41	0.045162443
224	0xbc724674	-0.014787305
225	0x3bc8cde2	0.006128059
226	0x3da46460	0.080269575
227	0x3d067143	0.03282286
228	0x3d2fcab3	0.04291792
229	0xbc8891ef	-0.016671149
230	0xbc7f2d5d	-0.01557478
231	0xbd7c3ba4	-0.061580315
232	0x3d800465	0.06250838
233	0x3d9fb78f	0.07798683
234	0xbd89df76	-0.06732075
235	0xbd229aa7	-0.03969827
236	0x3dc4b28a	0.09604366
237	0x3de6d2c9	0.11270673
238	0xbd108ebc	-0.035292372
239	0x3cc81656	0.024424713
240	0xbd946cb3	-0.07247295
241	0x3d6ed56e	0.05830901
242	0x3c75d3ba	0.015004093
243	0xbd8152a5	-0.06314591
244	0x3c8b9ccc	0.01704254
245	0x3dea35af	0.114360206
246	0x3ce8142b	0.02832993
247	0xbd796cf6	-0.06089493
248	0x3cd5dfed	0.026107753
249	0x3d9de6f5	0.07710067
250	0x3d3ea19e	0.04654085
251	0x3d66af7b	0.056319695
252	0xbd81104a	-0.06301935
253	0x3d6168a9	0.055031452
254	0xbc296502	-0.010339024
255	0xbbd7e922	-0.006589071

policyHead.0.bias f4 [128]
0	0x3cd3fe1a	0.025878001
1	0xbd85377e	-0.06504725
2	0xbc9c7265	-0.019097516
3	0xbc46a311	-0.012123839
4	0x3d6a0c5c	0.057140693
5	0xbd2e9c13	-0.042629313
6	0x3d1db3d2	0.03850157
7	0xbd8eb6f2	-0.06968488
8	0xbd27bf5e	-0.040953986
9	0x3d4eb87f	0.050468918
10	0xbd6c234e	-0.057650857
11	0xbd6bbb50	-0.057551682
12	0x3d8e39aa	0.06944592
13	0x3d16f348	0.036853105
14	0x3d4af141	0.049546484
15	0x3d01f020	0.03172314
16	0x3ae34291	0.0017338564
17	0xbd2a4ca1	-0.041576985
18	0x3d6f44ce	0.058415227
19	0x3da835a7	0.08213358
20	0xbd248066	-0.040161513
21	0xbd32ac12	-0.04362113
22	0xbd93813a	-0.072023824
23	0xbb692977	-0.0035577693
24	0x3ca47832	0.020076845
25	0xbd97d377	-0.074133806
26	0x3c29ac72	0.010356056
27	0x3d92ddea	0.07171233
28	0x3d89bc9a	0.06725426
29	0xbd031cb5	-0.0320098
30	0xbcfa991b	-0.030590585
31	0xbd6f6897	-0.058449354
32	0xbcc6c859	-0.024265455
33	0xb9df6fbc	-0.00042617123
34	0xbc90c042	-0.0176698
35	0x3b6f902a	0.0036554434
36	0x3d06174d	0.032737065
37	0x3cd28b0c	0.025701068
38	0xbd8e6f25	-0.06954793
39	0x3cea0203	0.028565412
40	0x3d5d7299	0.054064367
41	0x3cf370b5	0.029716829
42	0xbccbde50	-0.02488628
43	0xbc52772a	-0.012845794
44	0x3d091eb3	0.033476543
45	0x3cf4eead	0.029898966
46	0x3d5963df	0.05307376
47	0x3cf23ef4	0.029571034
48	0x3ce53397	0.027978702
49	0x3d95a40d	0.07306681
50	0xbcd28795	-0.025699416
51	0xbd1f75de	-0.038930766
52	0xbd2ef412	-0.042713232
53	0xbd1c2d4a	-0.03812913
54	0xbc87f617	-0.016596837
55	0xbd0d0bc1	-0.034435038
56	0xbd85a9a5	-0.06526498
57	0xbd4e3252	-0.050340958
58	0x3d2a3c96	0.041561686
59	0x3bc79719	0.0060910103
60	0x3cc2f7a7	0.02379973
61	0xbd601815	-0.054710466
62	0xbd91d4b7	-0.0712065
63	0x3d882577	0.06647771
64	0x3ce8d3fc	0.028421395
65	0xbd79c627	-0.06097999
66	0x3b84fb22	0.0040582577
67	0x3d0dd2d0	0.034624875
68	0xbd7869dc	-0.06064783
69	0xbd8c3ce7	-0.06847554
70	0xba6838e1	-0.0008858573
71	0xbd678a53	-0.0565284
72	0x3d1a991c	0.037743673
73	0x3babbcc2	0.0052410075
74	0xbbf7b678	-0.0075595938
75	0xbd1eeed9	-0.038802
76	0xbd50a63a	-0.050939776
77	0xbc0e0663	-0.008668515
78	0xbd932c48	-0.0718618
79	0xbd6970a2	-0.05699218
80	0x3dbf87b7	0.093520574
81	0x3d843321	0.064550646
82	0xbd91c311	-0.07117284
83	0x3db38929	0.087663956
84	0xbd279809	-0.040916476
85	0x3d79697f	0.060891625
86	0x3d3733ad	0.044727016
87	0x3affe90e	0.0019524412
88	0x3d2efb85	0.042720336
89	0xbcc4951a	-0.023996878
90	0xbc62d4e0	-0.013844699
91	0xbd798330	-0.060916126
92	0x3cc2dd01	0.023787023
93	0xbd79d757	-0.06099638
94	0x3af28bcd	0.0018504799
95	0x3d64ff83	0.055907737
96	0x3cbfea2c	0.023427092
97	0x3c2194a5	0.0098621
98	0x3cb84308	0.0224929
99	0xbd201d92	-0.0390907
100	0xbd4f6cad	-0.05064075
101	0x3d8aeb72	0.06783189
102	0xbd7be3f6	-0.061496697
103	0xbc0e59e4	-0.008688424
104	0x3cf4a2dc	0.029862814
105	0x3da387db	0.07984897
106	0x3c23a7ab	0.009988706
107	0xbd898166	-0.06714134
108	0x3d8aa407	0.06769567
109	0xbd1ddaba	-0.038538672
110	0xbd751828	-0.05983749
111	0xbd7a8bf7	-0.061168637
112	0x3d5cd720	0.053916097
113	0xbd8c39b0	-0.068469405
114	0xbc73ab22	-0.014872344
115	0xbd30bca5	-0.043148655
116	0x3dab6093	0.083680294
117	0x3d9ee864	0.07759169
118	0x3cdc60f7	0.026901705
119	0xbd8541fb	-0.065067254
120	0xbd9cc960	-0.07655597
121	0xbc3d88d3	-0.011568266
122	0xbbbea418	-0.0058179013
123	0xbd5d8a17	-0.05408677
124	0xbd2d1c60	-0.04226339
125	0xbb26f446	-0.0025475188
126	0x3c7d81e6	0.015472865
127	0xbd75b03f	-0.059982534

policyHead.1.weight f4 [128]
0	0x3f7b124f	0.9807481
1	0x3f8707fc	1.0549312
2	0x3f86e347	1.053811
3	0x3f80e177	1.0068806
4	0x3f7da85f	0.9908504
5	0x3f7bab08	0.9830785
6	0x3f80f8a3	1.0075878
7	0x3f7cb0f7	0.98707527
8	0x3f811a53	1.0086159
9	0x3f8060ac	1.0029502
10	0x3f87e8ef	1.0617961
11	0x3f802408	1.0010996
12	0x3f835603	1.0260624
13	0x3f83dbed	1.0301491
14	0x3f80cfde	1.0063436
15	0x3f82266c	1.0167975
16	0x3f85f4a0	1.0465279
17	0x3f84f47a	1.0387108
18	0x3f8382a2	1.0274241
19	0x3f7d65b8	0.98983335
20	0x3f865513	1.0494713
21	0x3f7abf72	0.9794837
22	0x3f82d15c	1.0220141
23	0x3f83eac1	1.0306016
24	0x3f81ed9b	1.0150636
25	0x3f80a5d9	1.0050613
26	0x3f7cb51f	0.9871387
27	0x3f82e3bf	1.0225753
28	0x3f811539	1.0084602
29	0x3f84be0c	1.0370498
30	0x3f8407c8	1.0314875
31	0x3f86533f	1.0494155
32	0x3f81e061	1.01466
33	0x3f7ff9c4	0.9999049
34	0x3f80e785	1.0070654
35	0x3f7f1446	0.9964031
36	0x3f838968	1.0276308
37	0x3f7efc59	0.996038
38	0x3f83369b	1.0251039
39	0x3f780b27	0.9689202
40	0x3f808bd3	1.0042671
41	0x3f7efe01	0.9960633
42	0x3f833541	1.0250627
43	0x3f84796a	1.0349553
44	0x3f7da996	0.9908689
45	0x3f808519	1.0040618
46	0x3f810bee	1.0081766
47	0x3f7f2bdb	0.99676293
48	0x3f7ddb5c	0.9916284
49	0x3f7e8f37	0.9943728
50	0x3f834a6b	1.0257086
51	0x3f7dcc8b	0.9914023
52	0x3f831903	1.0242008
53	0x3f80d034	1.0063539
54	0x3f7cd28d	0.98758775
55	0x3f7eed7a	0.9958111
56	0x3f80e33a	1.0069344
57	0x3f8488ff	1.0354308
58	0x3f8064cc	1.0030761
59	0x3f78ef43	0.97240084
60	0x3f80fc7d	1.0077053
61	0x3f80ba85	1.0056921
62	0x3f83e7e7	1.0305146
63	0x3f7d8564	0.9903166
64	0x3f8596dd	1.0436665
65	0x3f8184f5	1.01187
66	0x3f84bbcf	1.0369815
67	0x3f839252	1.0279028
68	0x3f839fd4	1.0283151
69	0x3f7c674e	0.9859513
70	0x3f7c2698	0.9849639
71	0x3f812682	1.0089877
72	0x3f825acf	1.0183963
73	0x3f81ffe9	1.0156223
74	0x3f786939	0.9703556
75	0x3f7f93fd	0.9983519
76	0x3f84b449	1.0367519
77	0x3f856ee6	1.0424469
78	0x3f83b5fa	1.028991
79	0x3f818351	1.01182
80	0x3f82f655	1.0231425
81	0x3f823383	1.017197
82	0x3f871449	1.0553066
83	0x3f8149b7	1.0100621
84	0x3f80b357	1.005473
85	0x3f845773	1.0339187
86	0x3f821e15	1.016543
87	0x3f86e7af	1.0539454
88	0x3f7a4fdb	0.977781
89	0x3f7ec34b	0.99516743
90	0x3f7c4192	0.9853755
91	0x3f864899	1.0490905
92	0x3f7eb2f7	0.9949183
93	0x3f80368c	1.0016646
94	0x3f867806	1.0505378
95	0x3f80f204	1.0073857
96	0x3f8279de	1.0193441
97	0x3f88522f	1.065008
98	0x3f7cbe99	0.9872833
99	0x3f7e4980	0.993309
100	0x3f828186	1.0195777
101	0x3f81c5b6	1.0138462
102	0x3f8932c0	1.0718613
103	0x3f80a5d4	1.0050607
104	0x3f816a66	1.0110595
105	0x3f817f94	1.0117059
106	0x3f809752	1.0046179
107	0x3f85ab4a	1.0442898
108	0x3f7f2116	0.9965986
109	0x3f8210ab	1.0161337
110	0x3f83c642	1.0294878
111	0x3f8371d5	1.0269114
112	0x3f7dce8c	0.9914329
113	0x3f82e6f7	1.0226735
114	0x3f874eea	1.0570958
115	0x3f808f26	1.0043685
116	0x3f81aa14	1.0130029
117	0x3f7f6e41	0.9977761
118	0x3f83c417	1.0294217
119	0x3f7b6530	0.98201275
120	0x3f84ab18	1.0364714
121	0x3f795119	0.9738937
122	0x3f82cb8a	1.0218365
123	0x3f8b2526	1.0870712
124	0x3f8684fb	1.0509332
125	0x3f81b495	1.0133234
126	0x3f7fda74	0.9994271
127	0x3f851a6b	1.0398687

policyHead.1.bias f4 [128]
0	0xbb88083b	-0.004151372
1	0x3bf04a3d	0.0073330686
2	0xbbc3340a	-0.0059571313
3	0xbbc11b2c	-0.0058931317
4	0x3b979907	0.0046263966
5	0x3b50a964	0.0031839246
6	0x3af5d635	0.0018755855
7	0xbba92979	-0.0051624146
8	0x3c61e314	0.01378705
9	0xbbd96f3c	-0.0066355746
10	0x3c28e4fb	0.010308499
11	0xbbc86bba	-0.0061163576
12	0x3c18c494	0.009324212
13	0xbb20cb06	-0.0024535074
14	0x391c3fc5	0.00014901075
15	0x3b09dda8	0.0021036658
16	0xbc3a8521	-0.0113842795
17	0x3c3cd0d8	0.011524402
18	0x3be30fa4	0.0069293547
19	0xbc7fe78c	-0.01561917
20	0xbbcd27d8	-0.0062608533
21	0xbba501c4	-0.005035611
22	0xb856fde9	-5.125805e-05
23	0x3cc99556	0.024607342
24	0xbb4ddfea	-0.003141398
25	0xbb678f21	-0.0035333114
26	0x3c4930cf	0.012279703
27	0x3b029e08	0.001993062
28	0xbc903ddf	-0.017607627
29	0x3c4eb808	0.012617119
30	0x3c99fa01	0.018795969
31	0xbbc4ae2a	-0.0060022073
32	0xbbc12bb5	-0.005895103
33	0x3bf08702	0.007340313
34	0x3b1cc3b1	0.0023920352
35	0x3b8b9b40	0.0042604506
36	0xbb528460	-0.0032122359
37	0xbb7a7b53	-0.003822048
38	0xba93d55c	-0.0011278796
39	0xbb83c1b0	-0.004020892
40	0xbbafc6c2	-0.00536427
41	0x3bb79f91	0.0056037386
42	0xbb8fc8fa	-0.004387972
43	0xbb52a558	-0.003214201
44	0xba1782e6	-0.0005779698
45	0xbbab634a	-0.005230342
46	0xbaa77b63	-0.0012777861
47	0x3c072707	0.008249051
48	0xbc2bf224	-0.010494743
49	0x3b7726a3	0.0037712238
50	0xbc8593cc	-0.016305827
51	0xbbcfb1cc	-0.0063383337
52	0xbbecf981	-0.0072318916
53	0xbaa21392	-0.0012365452
54	0xbb076084	-0.0020656893
55	0xbc6e3127	-0.014538086
56	0x3bdad0d6	0.006677727
57	0xbb4ec6ab	-0.003155152
58	0x3c28a8c2	0.010294141
59	0xba2bd329	-0.00065545976
60	0xbb201e15	-0.0024431993
61	0x3c4bf7be	0.012449203
62	0xbc5914dc	-0.013249602
63	0x3b899db8	0.0041997097
64	0xbbf002a2	-0.0073245326
65	0xbc8d0c3e	-0.017217752
66	0xbb2357ef	-0.0024924239
67	0x3b742bd5	0.0037257571
68	0x39a6fa89	0.0003184865
69	0x3acb14ad	0.0015493833
70	0x3b017a2c	0.0019756658
71	0x3ae09046	0.0017132841
72	0x3bf469db	0.007458908
73	0xbb389530	-0.0028165095
74	0xbb039dd8	-0.0020083096
75	0x3bacefa5	0.0052775913
76	0xbc122a60	-0.008921236
77	0x3ac222fe	0.0014811454
78	0xbaa8cbad	-0.0012878083
79	0xbb9097c0	-0.0044126213
80	0x3c598910	0.013277307
81	0x3b3d213e	0.0028858925
82	0xbb886660	-0.0041625947
83	0x3c1b1ff8	0.009468071
84	0xbbfe7f81	-0.0077666645
85	0xbc3ae9e6	-0.011408305
86	0x3b8edb22	0.0043596188
87	0x3ac6d5e7	0.0015169949
88	0xbb904b41	-0.004403502
89	0x3a936d75	0.0011247831
90	0x3b82be86	0.0039899973
91	0xbb2d88f5	-0.0026479338
92	0x3ae7ebab	0.0017694136
93	0x3c4a74e8	0.012356974
94	0xbbd01772	-0.006350451
95	0xbbc21b06	-0.0059236316
96	0xbc0d1418	-0.008610748
97	0x3c4f02d2	0.01263495
98	0xbb35991c	-0.0027709669
99	0xbca0cf22	-0.019630019
100	0xbbd134c9	-0.0063844663
101	0x3b5b6024	0.0033474052
102	0xbc11ebd5	-0.008906324
103	0x3c5ed291	0.013600008
104	0x3b7f07c8	0.003891455
105	0x3bffd010	0.0078067854
106	0xbba735a4	-0.00510283
107	0xbc11f771	-0.008909092
108	0x3b813f04	0.0039442796
109	0xbc2eaf57	-0.010661921
110	0xbbe449c4	-0.0069668014
111	0x3c2aaeb9	0.010417634
112	0xba2a5790	-0.0006498033
113	0x3a9581ad	0.0011406444
114	0xbbda25de	-0.006657346
115	0xba8964a7	-0.0010482267
116	0x3c30c278	0.010788552
117	0x3b702de1	0.003664844
118	0x3b5fcf1a	0.0034150542
119	0xbbd1d7ec	-0.0064039137
120	0x3b5f4809	0.0034070036
121	0xbc74e8de	-0.014948098
122	0x3c232f00	0.009959936
123	0x3bdd4494	0.00675256
124	0xba0ae006	-0.00052976643
125	0x3935cee1	0.00017338574
126	0xb981d48b	-0.00024763154
127	0x3ca8b7b4	0.020595409

policyHead.3.weight f4 [64, 128]
0	0xbb6ea8a4	-0.0036416436
1	0x3db6c560	0.08924365
2	0xbd992ede	-0.07479642
3	0x3d624798	0.05524406
4	0x3db1841b	0.08667775
5	0x3cf51395	0.029916564
6	0xbcce5715	-0.025188008
7	0x3d62ffd8	0.055419773
8	0x3d0e6575	0.034764726
9	0x3da433a2	0.08017661
10	0xbd8b4a14	-0.06801239
11	0xbd0902c1	-0.033449892
12	0xbd34e6ad	-0.044165302
13	0xbcd593fc	-0.026071541
14	0x3c06a923	0.008219036
15	0xbc1d2a0a	-0.009592542
16	0x3c42758e	0.0118688475
17	0xbc789462	-0.015172096
18	0xbd897492	-0.06711687
19	0x39f3e16a	0.00046516518
20	0xbd94cea7	-0.07265978
21	0x3dccf33a	0.10007329
22	0x3bad79b5	0.0052940496
23	0x3d5b1e94	0.05349596
24	0xbcf548ad	-0.029941881
25	0x3db719dc	0.08940479
26	0x3d6b08db	0.057381492
27	0xbd312c6c	-0.043255255
28	0xbd79c6f9	-0.06098077
29	0x3ddb5955	0.10710398
30	0xbbb64a92	-0.0055630887
31	0xbaaa2af6	-0.0012982774
32	0xbc16e506	-0.009209877
33	0x3bf76b96	0.007550667
34	0xbd1d38d1	-0.038384262
35	0xbcb0ee43	-0.021597987
36	0xbc02ec8d	-0.007990968
37	0xbb2e8a70	-0.0026632808
38	0x3d86ce6c	0.065823406
39	0xbd249db7	-0.04018947
40	0xbd39e41f	-0.04538357
41	0xbda2c952	-0.07948555
42	0xbdbb2a91	-0.09138978
43	0xbd7f6c86	-0.062359355
44	0x3cae8cd1	0.02130738
45	0x3c379281	0.011204363
46	0x3db9dd64	0.0907543
47	0xbd9f1de6	-0.077693745
48	0xbcc67509	-0.024225729
49	0xbd400de6	-0.046888255
50	0x3ca6dc53	0.02036873
51	0x3d562ae1	0.052286986
52	0x3bd2cd56	0.0064331694
53	0xb9aa0d82	-0.0003243499
54	0xbcbb602d	-0.022873009
55	0x3d839c47	0.06426292
56	0x3d84b14e	0.06479131
57	0x3d47cb4b	0.04877786
58	0x3d4d84ca	0.050175466
59	0xbd48d1a1	-0.049028043
60	0xbc6150fa	-0.0137522165
61	0x3d2ec1cc	0.042665288
62	0xbdbb29c5	-0.09138826
63	0x3dc6ebdf	0.097129576
64	0xbda76f9b	-0.08175584
65	0xbd212f89	-0.039351974
66	0xbd798962	-0.060922034
67	0xbcc4e56c	-0.024035178
68	0x3da590dc	0.0808427
69	0x3cd3a851	0.025837095
70	0x3c5cf2c7	0.013485617
71	0x3cf9e8ae	0.030506458
72	0x3d7e1e84	0.06204082
73	0xbc0827d0	-0.008310273
74	0xbd713477	-0.058887925
75	0x3dd6c46d	0.10486684
76	0xbcb18f8d	-0.021674896
77	0xbd876800	-0.06611633
78	0xbdae19d8	-0.08501023
79	0xbc888aad	-0.016667688
80	0x3dab38ff	0.083604805
81	0x3d287354	0.04112561
82	0xbdbcea96	-0.09224431
83	0xbd57ac2f	-0.05265444
84	0x3d9ca2f9	0.07648272
85	0xbc90484b	-0.017612597
86	0xbc78148d	-0.015141618
87	0x3d703542	0.05864454
88	0x3d8566ee	0.06513773
89	0x3d3a63e3	0.045505416
90	0x3ce92ce1	0.028463783
91	0x3d9a1814	0.07524124
92	0x3d687960	0.056756377
93	0x3cf8431d	0.03030544
94	0xbd1f7cf7	-0.038937535
95	0xbda3fce7	-0.08007222
96	0xbcf1dcd3	-0.029524243
97	0xbc3a2b36	-0.011362841
98	0x3d5d7334	0.054064944
99	0x3d954fda	0.07290621
100	0x3d373ae1	0.044733886
101	0xbcf4ff07	-0.029906763
102	0x3d119a8c	0.035547778
103	0x3d941e5e	0.072323546
104	0xbb8af943	-0.00424114
105	0x3d9f8eb0	0.07790887
106	0xbd8a2297	-0.06744879
107	0x3d97a37a	0.074042276
108	0x3d0afad6	0.033930622
109	0x3a8cc817	0.0010740784
110	0x3b4f3304	0.00316161
111	0xbd1e4efb	-0.03864954
112	0x3d4c1452	0.049824066
113	0xbbe3c139	-0.006950524
114	0xbc8d77ee	-0.017269101
115	0x3d32bb4e	0.04363566
116	0x3d91ef76	0.07125752
117	0xbd56c6e5	-0.052435774
118	0x3d066039	0.03280661
119	0xbc4f025a	-0.012634838
120	0x3bf6677c	0.0075196605
121	0x3cce6ba2	0.025197808
122	0x3d98664b	0.07441386
123	0xbd90a899	-0.070634075
124	0x3d4b072d	0.04956739
125	0xbb9d5caa	-0.004802306
126	0xbd36e449	-0.044651303
127	0xbdabc0e8	-0.08386403
128	0x3d75ebb3	0.060039233
129	0x3d3d4241	0.046205763
130	0xbddb4653	-0.10706773
131	0x3c089c4c	0.008338045
132	0xbd0add07	-0.033902194
133	0x3daf52ff	0.08560752
134	0xbd80e7d5	-0.062942185
135	0x3cae962c	0.021311842
136	0x3d1939a3	0.037408482
137	0x3d81ccd5	0.06337897
138	0xbd9c712b	-0.076387726
139	0x3daf04aa	0.085458115
140	0x3d38e338	0.045138568
141	0xbc8ec321	-0.01742703
142	0x3ceca0d2	0.028885279
143	0xbdbb6255	-0.09149615
144	0xbd046558	-0.03232321
145	0xbcfb1f26	-0.030654501
146	0xbbbf2fe3	-0.005834566
147	0x3d3b5871	0.04573864
148	0xbd72c4e2	-0.059269793
149	0xbd281ecb	-0.04104499
150	0xbda2adc3	-0.07943299
151	0x3d9a4b0c	0.07533845
152	0x3da5e67a	0.081006005
153	0x3ccc2554	0.024920143
154	0xbd925ac8	-0.071462214
155	0x3ab14d16	0.0013527002
156	0xbdb57b16	-0.088613674
157	0xbcb74444	-0.022371419
158	0x3de622e8	0.112371266
159	0xbaf6ead6	-0.0018838297
160	0x3df2fc1b	0.118644916
161	0x3d187566	0.037221335
162	0x3ce5ab4b	0.02803578
163	0x3da87eb0	0.08227289
164	0xbd168566	-0.036748312
165	0xbc6e13ae	-0.014531059
166	0x3dc615b2	0.09672107
167	0xbd931b57	-0.07182949
168	0x3d56bc16	0.052425466
169	0x3d8312ca	0.06400068
170	0x3d41cc60	0.047314048
171	0x3d92e45f	0.071724646
172	0xbcbe4461	-0.023225965
173	0x3ca7557e	0.020426508
174	0xbd1fa060	-0.038971305
175	0xbc0f36c0	-0.008741081
176	0x3d618ae0	0.055064082
177	0x3dd96b8a	0.106162146
178	0xbd9a299b	-0.07527467
179	0x3d88711a	0.066621974
180	0xbd7ebf0b	-0.06219391
181	0x3c1c6519	0.009545588
182	0xbd7ec6bc	-0.062201247
183	0x3d44476a	0.04791967
184	0x3c94b79b	0.018153956
185	0x3d110e10	0.0354138
186	0x3d3f659f	0.046727773
187	0x3cba58fe	0.022747513
188	0x3d2ad109	0.041703258
189	0x3dce1307	0.10062223
190	0x3a81b91d	0.0009897087
191	0x3ca0bddd	0.019621784
192	0x3dafa7b0	0.08576906
193	0x3d8593b4	0.06522313
194	0x3c9ae485	0.018907795
195	0x3d819b68	0.063284695
196	0xbd52fd59	-0.051511142
197	0xbc7120ac	-0.014717262
198	0x3d347f18	0.04406652
199	0x3d695fe5	0.056976218
200	0xbb54f4aa	-0.0032494464
201	0x3d92cb7c	0.07167718
202	0xbd15545e	-0.036457412
203	0xbcac4c7b	-0.021032562
204	0xbcea3283	-0.028588539
205	0x3db5ebb0	0.088828444
206	0xbc91827a	-0.017762411
207	0xbc154960	-0.009111732
208	0x3c993093	0.01869992
209	0xbb30d23e	-0.0026980783
210	0xbd5e9496	-0.05434092
211	0x3da8e9ff	0.08247756
212	0x3da046cd	0.07826004
213	0x3deaeaa6	0.11470537
214	0x3df40e95	0.11916844
215	0x3d0b0a26	0.033945225
216	0xbd392bbd	-0.045207728
217	0xbc8377e3	-0.016048377
218	0x3d332bfe	0.043743126
219	0xbe00ff6a	-0.12597433
220	0x3d104ea4	0.035231248
221	0xbd68537a	-0.056720234
222	0xbda1ae54	-0.078945786
223	0xbd9fbbaa	-0.07799466
224	0xbd5e0d0f	-0.054211672
225	0x3d897a76	0.06712811
226	0x3ca57feb	0.020202598
227	0xbc00da26	-0.007864511
228	0x3dae304a	0.08505304
229	0x3da3d68e	0.079999074
230	0x3d150a80	0.036386967
231	0x3dc9d071	0.0985421
232	0xbc6138ed	-0.013746482
233	0x3da6ae6d	0.08138738
234	0x3da90a24	0.08253887
235	0x3da0ae57	0.07845753
236	0xbcff43fb	-0.031160345
237	0xbdbca992	-0.092120305
238	0x3d905ace	0.070485696
239	0xbcfa9b72	-0.0305917
240	0xbd0c903f	-0.03431725
241	0x3d289132	0.041154094
242	0xbbe90925	-0.007111686
243	0x3c040980	0.008058906
244	0x3d1eba22	0.03875173
245	0x3dbee491	0.09320939
246	0xbca70b24	-0.020391054
247	0x3d824b4b	0.06362017
248	0xbdd087a4	-0.101821214
249	0xbdae7e90	-0.08520234
250	0x3dccd620	0.100017786
251	0xbd4b2ec9	-0.049605165
252	0x3d7af84f	0.06127196
253	0x3dac9145	0.084261455
254	0xbc19e37d	-0.009392616
255	0xbda724f0	-0.08161342

policyHead.3.bias f4 [64]
0	0x3d41a0b3	0.047272395
1	0x3da9239c	0.08258745
2	0xbd47013d	-0.048585165
3	0xbc881e3b	-0.016615978
4	0xbd9c7858	-0.07640141
5	0xbcbb7011	-0.022880586
6	0xbd88462d	-0.0665401
7	0x3cd616ef	0.026133982
8	0xbc74fb81	-0.014952541
9	0x3d478f0c	0.048720405
10	0xbdaf511c	-0.08560392
11	0xbd05ff00	-0.03271389
12	0xbd2ba309	-0.04190353
13	0xbc8186ef	-0.015811412
14	0x3d942503	0.07233622
15	0xbd9ddf36	-0.0770859
16	0xbcae2102	-0.021255974
17	0xbdb90906	-0.09034924
18	0xbd306976	-0.043069325
19	0xbda7d787	-0.081954055
20	0xbd8723ef	-0.06598651
21	0xbc178456	-0.00924786
22	0x3cb54aab	0.022130331
23	0xbd604aa5	-0.054758687
24	0xbd0c4b83	-0.0342517
25	0x3d3bb630	0.045828044
26	0xbd1dd594	-0.038533762
27	0x3c1f9cab	0.009741942
28	0xbd97b726	-0.0740798
29	0x3daa98df	0.08329939
30	0x3db20cc1	0.08693839
31	0x3ceb8757	0.028751059
32	0x3d7d8a76	0.061899625
33	0x3dba18a5	0.09086732
34	0xbca17c91	-0.019712718
35	0xbd119ffa	-0.035552956
36	0xbd2057bd	-0.039146174
37	0x3d8deed5	0.06930319
38	0xbda4ce2e	-0.08047138
39	0x3cc5e984	0.0241592
40	0x3d1cf5b4	0.03832026
41	0x3d5519e4	0.052026644
42	0x3dd77b5d	0.105215766
43	0x3cf6dc2a	0.03013428
44	0xbd51a48f	-0.051182326
45	0xbd0c6a2b	-0.034280937
46	0xbd1eeb4e	-0.038798623
47	0x3d8db884	0.06919959
48	0xbcb57f1b	-0.022155335
49	0xbdbdf417	-0.09275072
50	0x3dc969b6	0.09834616
51	0x3d3fd86d	0.04683726
52	0x3d717262	0.058946975
53	0x3daac8ff	0.08339118
54	0x3d6d2ffa	0.057907082
55	0x3d799b0c	0.06093888
56	0x3d74fc10	0.059810698
57	0x3d493ea6	0.04913201
58	0x3d1677fb	0.036735516
59	0x3d880cc3	0.06643059
60	0xbcfe8086	-0.031067144
61	0x3d112d1b	0.035443407
62	0xbd71eb6d	-0.05906241
63	0x3d67d921	0.056603555

policyHead.4.weight f4 [64]
0	0x3f80bf4a	1.0058377
1	0x3f81ff8e	1.0156114
2	0x3f81ffc6	1.0156181
3	0x3f802468	1.001111
4	0x3f86ab46	1.0521019
5	0x3f7fd79c	0.9993837
6	0x3f8109bf	1.0081099
7	0x3f7aa1de	0.9790324
8	0x3f7e5456	0.99347436
9	0x3f7e59bf	0.9935569
10	0x3f854100	1.0410461
11	0x3f7ebb8f	0.9950494
12	0x3f81e249	1.0147182
13	0x3f7e3b78	0.9930949
14	0x3f7caa05	0.9869693
15	0x3f7fb618	0.9988723
16	0x3f7f07d0	0.99621296
17	0x3f800000	1.0
18	0x3f7b3005	0.98120147
19	0x3f7f79ed	0.9979542
20	0x3f77dba3	0.96819514
21	0x3f7a27b7	0.9771685
22	0x3f7be879	0.984016
23	0x3f7997a6	0.9749702
24	0x3f821232	1.0161803
25	0x3f803dbb	1.0018839
26	0x3f80004c	1.0000091
27	0x3f80124f	1.0005587
28	0x3f7d3118	0.98903036
29	0x3f7eb1fb	0.99490327
30	0x3f81087d	1.0080715
31	0x3f7fbff7	0.9990229
32	0x3f7c0bbd	0.9845541
33	0x3f7ef9a7	0.9959969
34	0x3f79fd5d	0.97652227
35	0x3f83265c	1.0246081
36	0x3f774844	0.96594644
37	0x3f82d243	1.0220417
38	0x3f806ac6	1.0032585
39	0x3f800000	1.0
40	0x3f7c3052	0.9851123
41	0x3f8234d1	1.0172368
42	0x3f7fecd1	0.9997073
43	0x3f7a6d7f	0.9782333
44	0x3f7fdd08	0.9994664
45	0x3f81faf4	1.015471
46	0x3f7fe5c4	0.9995997
47	0x3f81824a	1.0117886
48	0x3f7fa320	0.99858284
49	0x3f800089	1.0000163
50	0x3f80a24d	1.004953
51	0x3f80024b	1.00007
52	0x3f80aa58	1.0051985
53	0x3f7fce7e	0.9992446
54	0x3f81f6ac	1.0153403
55	0x3f7e95f0	0.99447536
56	0x3f814e56	1.0102031
57	0x3f80eee1	1.00729
58	0x3f7dcff5	0.9914544
59	0x3f7aa6fb	0.9791104
60	0x3f7d98da	0.9906136
61	0x3f7de8bf	0.9918327
62	0x3f852b7b	1.0403894
63	0x3f83607b	1.0263819

policyHead.4.bias f4 [64]
0	0x3c369266	0.011143303
1	0x3c65ae55	0.014018615
2	0xbca5b2e3	-0.020226901
3	0x3b814de4	0.003946053
4	0x3afd8666	0.0019342422
5	0xb9f3bd7c	-0.0004648975
6	0xbb11e1e3	-0.0022259883
7	0xbc280ff4	-0.01025771
8	0xbc696218	-0.014244579
9	0x3ae03f32	0.0017108677
10	0xbb2b4172	-0.0026131538
11	0x3be5abd9	0.007009011
12	0x3cbd828f	0.023133544
13	0xbc931896	-0.01795606
14	0xbca8d6b4	-0.02061019
15	0xbac9cad7	-0.0015395534
16	0xbc29c45c	-0.010361757
17	0x00000000	0.0
18	0xbb169680	-0.0022977889
19	0xbc00f81a	-0.007871652
20	0xbc578caa	-0.0131560955
21	0xbbb7a0ef	-0.0056039016
22	0xbcf0824f	-0.029359011
23	0xbb09530d	-0.0020954043
24	0x3c9a9fa1	0.018874945
25	0xbaf7268e	-0.0018856095
26	0x3a65cca1	0.0008766149
27	0x3aaf494a	0.0013373282
28	0x392a1b9e	0.00016222752
29	0xbb9fc3d2	-0.0048756385
30	0x3c8874df	0.016657291
31	0x3b66fc0f	0.0035245453
32	0x3bc6634e	0.0060543185
33	0x3a4c84b8	0.0007801759
34	0xbcb1fe82	-0.021727804
35	0xbc2fecc2	-0.0107376
36	0xbbbd849a	-0.0057836296
37	0xbc530534	-0.0128796585
38	0xbc7d6b63	-0.0154674975
39	0x00000000	0.0
40	0xbcc1b41c	-0.023645453
41	0xbbabb62f	-0.005240224
42	0x3cad579a	0.021159936
43	0xbb81d48f	-0.0039621065
44	0xba0c2112	-0.0005345504
45	0x3bd8d6d0	0.0066174045
46	0xbc93c1d2	-0.018036757
47	0x3a57b421	0.00082284404
48	0xbc893e5f	-0.016753374
49	0xba4820a2	-0.0007634257
50	0x3c37cdd7	0.01121851
51	0xba1bb02b	-0.0005939032
52	0x3c8f37ca	0.017482657
53	0x3bc2028f	0.005920715
54	0x3bee0530	0.007263802
55	0xbae50069	-0.0017471436
56	0xbb8eeb61	-0.0043615554
57	0xbc6d82e0	-0.014496535
58	0xbcaaf801	-0.02087021
59	0xbb965b16	-0.004588495
60	0xb9ecab5e	-0.00045141106
61	0xbbd25360	-0.0064186305
62	0x3ad53346	0.0016265891
63	0xbbe6ac71	-0.0070395996

policyHead.6.weight f4 [24, 64]
0	0xbe089033	-0.13336258
1	0xbd66c8be	-0.056343786
2	0x3d8b7a20	0.06810403
3	0x3c32258d	0.010873211
4	0x3d3c7d8b	0.046018165
5	0xbc03a262	-0.008034321
6	0x3d8fd956	0.070238754
7	0x3cc89bdc	0.024488382
8	0x3ce01cd1	0.02735749
9	0xbdc34eb8	-0.09536499
10	0xbc5b610f	-0.01338984
11	0xbdada950	-0.084795594
12	0xbbc8dfc7	-0.006130192
13	0x3de0702d	0.10958896
14	0x3d8d866d	0.06910405
15	0x3dd86f79	0.10568137
16	0x3d972261	0.07379604
17	0xbdec6848	-0.115433276
18	0xbcb97309	-0.02263786
19	0xbde19046	-0.11013846
20	0xbd76bd8b	-0.060239356
21	0xbd635743	-0.05550314
22	0x3dd99cdd	0.106256224
23	0x3c7f0f13	0.015567559
24	0x3d95a5e9	0.073070355
25	0x3d89948c	0.06717786
26	0xbdecc251	-0.115605004
27	0xbda414c0	-0.0801177
28	0x3d2ba69d	0.04190694
29	0xbd9a47e7	-0.075332455
30	0xbd50c08d	-0.05096488
31	0x3c4ae2b3	0.012383151
32	0x3cf363ad	0.029710615
33	0x3d3c438d	0.04596286
34	0x3d5c2566	0.053746603
35	0xbd9d97c7	-0.07694965
36	0xbd8d02ab	-0.068852745
37	0xbd57539a	-0.052569963
38	0x3db753be	0.089515194
39	0x3ce7a780	0.028278112
40	0x3d5cb443	0.05388285
41	0xb88b58ff	-6.644613e-05
42	0xbd12f835	-0.03588124
43	0x3d98f3f3	0.074684046
44	0xbda35226	-0.07974653
45	0xbd7d29ec	-0.061807558
46	0xbd236471	-0.03989071
47	0xbd4f052a	-0.050542034
48	0x3df7faf6	0.12108414
49	0xbdb84e3b	-0.08999296
50	0xbdcfff82	-0.10156156
51	0x3d10dd98	0.03536758
52	0xbda8e145	-0.08246092
53	0x3d91a57d	0.071116425
54	0xbd1b1f50	-0.03787166
55	0x3ccc5769	0.024944024
56	0x3cdfe13c	0.02732908
57	0x3dceba8a	0.10094173
58	0xbbde27e4	-0.0067796577
59	0x3c6267a4	0.013818655
60	0x3c1a5bd2	0.009421306
61	0x3d2a7c4c	0.041622445
62	0xbe0b7b93	-0.13621359
63	0xbd65e214	-0.056123808
64	0x3ca6e9be	0.020375129
65	0xbda83a83	-0.08214285
66	0x3d76881d	0.0601884
67	0x3cca9b0b	0.024732133
68	0xbc90c7cf	-0.017673401
69	0xbdeab95b	-0.11461135
70	0xbc9e90fc	-0.019356243
71	0xbd39a691	-0.045324866
72	0x3defd329	0.117101975
73	0x3cf23ae6	0.0295691
74	0x3d1a96c2	0.03774143
75	0xbcf2091e	-0.029545363
76	0xbc0fe0c3	-0.008781615
77	0x3d4ff1c9	0.050767694
78	0x3d50960b	0.050924342
79	0xbd1d7c99	-0.038448904
80	0x3cc7f05c	0.024406604
81	0x3dfb1642	0.12260105
82	0xbdbe45b4	-0.092906386
83	0x3d32fb5c	0.043696746
84	0x3d2d381c	0.04228984
85	0x3c11886e	0.008882625
86	0x3bae7ace	0.005324698
87	0xbdabd2d2	-0.0838982
88	0x3c1bd8f4	0.009512175
89	0xbc853a08	-0.016263023
90	0x3da3038d	0.07959662
91	0xbdf402b6	-0.119145796
92	0xbd277401	-0.040882114
93	0x3cd9cdd2	0.0265874
94	0x3db9d324	0.09073475
95	0xbdc578c1	-0.096421726
96	0xbc15903f	-0.009128629
97	0xbdd594f8	-0.10428804
98	0x3cc39118	0.023872897
99	0xbcdad75b	-0.026714018
100	0x3daf24cb	0.085519396
101	0x3d830c32	0.063988104
102	0xbbfaaa77	-0.0076497155
103	0x3cbd46f0	0.023105115
104	0x3cbcb14b	0.023033759
105	0xbd1d692c	-0.038430378
106	0xbda7b445	-0.081886806
107	0xbdf9ee79	-0.12203688
108	0x3de07c70	0.109612346
109	0xbda1a114	-0.07892051
110	0x3d6875ea	0.056753077
111	0x3c07fa79	0.008299463
112	0xbd03878d	-0.032111693
113	0xbd7ba9cd	-0.06144123
114	0x3d4daa49	0.050211225
115	0x3d50dbbe	0.050990812
116	0xbc23260a	-0.0099578
117	0xbcd43e2f	-0.025908558
118	0xbd9cae32	-0.076504126
119	0x3c0527f6	0.008127203
120	0xbbea45bf	-0.0071494277
121	0xbdd527fb	-0.10408016
122	0x3e05337a	0.13007918
123	0x3d8b3fe4	0.067992955
124	0x3d57934e	0.052630715
125	0xbd981001	-0.074249275
126	0xbd576cdf	-0.052594062
127	0x3c85591d	0.016277844
128	0xbd2a1b1a	-0.041529752
129	0xbc0796b6	-0.008275678
130	0x3c8763e5	0.016527126
131	0xbd9687d3	-0.07350125
132	0xbd3a3ba9	-0.045467053
133	0x3c9a0c9e	0.018804844
134	0x3d1ed772	0.038779683
135	0x3cecfb14	0.028928317
136	0x3d9e3c6b	0.077263676
137	0xbb67068f	-0.0035251712
138	0xbc13a594	-0.009011645
139	0xbbb92d3f	-0.0056511457
140	0x3dc5800d	0.096435644
141	0xbce80d63	-0.028326696
142	0x3c50de76	0.012748351
143	0xbd738e8e	-0.059462123
144	0xbdc620d3	-0.096742295
145	0x3bd271a0	0.0064222366
146	0x3ca51d3a	0.020155538
147	0xbda3b0ca	-0.07992704
148	0x3dd054ee	0.10172449
149	0xbdea9764	-0.11454657
150	0x3deecad8	0.11659783
151	0xbc3f9fa5	-0.011695777
152	0xbdc22c33	-0.094810866
153	0x3cfa3858	0.030544445
154	0xbc8c638a	-0.017137308
155	0x3d914082	0.07092382
156	0x3db6886f	0.089127414
157	0xbda00ac9	-0.07814557
158	0xbdd9f9c7	-0.10643344
159	0xbc9ffea1	-0.019530596
160	0xbc13a140	-0.009010613
161	0x3da409ca	0.080096796
162	0x3d712a5e	0.058878295
163	0xbd9a51f6	-0.07535164
164	0x3c6389fc	0.0138878785
165	0xbd9000af	-0.070313804
166	0x3d7e0344	0.062014833
167	0xbda72354	-0.08161035
168	0x3d2351cf	0.03987294
169	0xbd7f0a5c	-0.06226574
170	0xbdac0078	-0.08398527
171	0x3d0a1b4c	0.03371744
172	0xbb8a9ae0	-0.0042298883
173	0x3c649b14	0.013952989
174	0x3ceb6098	0.028732583
175	0x3c575084	0.013141755
176	0x3da9d46f	0.082924716
177	0x3dbf31b0	0.09335649
178	0x3d61e4a8	0.055149704
179	0x3cf5ba7d	0.029996151
180	0xbd3bc90a	-0.045846023
181	0xbd5e4795	-0.054267485
182	0xbdb02646	-0.0860105
183	0x3da39381	0.079871185
184	0x3d17fdd6	0.03710731
185	0xbd04c232	-0.03241176
186	0xbd16133a	-0.03663943
187	0xbd91be8c	-0.07116422
188	0x3b89ea2c	0.0042088237
189	0xbcfcd68a	-0.030864019
190	0x3c46cdf5	0.012134065
191	0xbcfa06af	-0.030520765
192	0xbda1628b	-0.07880124
193	0xbdd64c1d	-0.10463736
194	0x3d54ecec	0.05198376
195	0x3d73d3be	0.059528105
196	0xbd8bc951	-0.068255074
197	0x3dba260c	0.09089288
198	0xbdc4199a	-0.095751956
199	0xbd9d1671	-0.07670296
200	0x3d984ef2	0.074369326
201	0xbd5a3ebb	-0.05328248
202	0xbddfb585	-0.10923294
203	0x3c96c79b	0.018405726
204	0x3c7a5a37	0.015280298
205	0xbc9d13c9	-0.019174473
206	0xbd87824b	-0.06616648
207	0x3dd9465c	0.10609123
208	0xbcba635c	-0.022752456
209	0x3dd5d696	0.1044132
210	0x3d70230a	0.058627166
211	0xbdb1c767	-0.08680611
212	0x3dbb8309	0.09155852
213	0xbdd911d4	-0.105991036
214	0xbc98a58f	-0.018633632
215	0x3dac6e46	0.084194705
216	0xbd96bf23	-0.07360675
217	0xba5d3fe6	-0.00084400026
218	0x3df80b27	0.12111502
219	0xbda9766f	-0.082745425
220	0xbdee8fb1	-0.11648501
221	0x3c9d4200	0.01919651
222	0xbd9ea98c	-0.07747182
223	0x3d54058b	0.0517631
224	0xbd803bc9	-0.06261403
225	0x3d0aa184	0.03384544
226	0x3d4eb95a	0.050469734
227	0x3e0ffe54	0.14061862
228	0xbdb11394	-0.08646312
229	0x3ce1f5ab	0.027582964
230	0x3bf2f9b2	0.00741502
231	0xbdfb5d2e	-0.12273632
232	0xbdefb4d8	-0.11704415
233	0xbd04f4ff	-0.03246021
234	0xbbc32eea	-0.0059565203
235	0x3c2b690e	0.010462059
236	0xbd809bc6	-0.062797114
237	0x3d83d66e	0.064373836
238	0x3df25b50	0.11833823
239	0xbd47cba3	-0.048778187
240	0x3da37c0d	0.07982645
241	0xbd6b75d2	-0.05748541
242	0x3db37ffc	0.087646455
243	0x3da0585c	0.07829353
244	0xbd904c38	-0.070457876
245	0xbc33e5a2	-0.010980042
246	0xbcecd7ff	-0.028911589
247	0x3b676aa7	0.0035311372
248	0x3d4ff589	0.05077127
249	0x3d274efe	0.040846817
250	0xbdac74f2	-0.08420743
251	0x3d8eca27	0.06972151
252	0x3d155377	0.03645655
253	0xbd20fdb1	-0.03930444
254	0x3cc48d28	0.02399309
255	0x3d90e742	0.07075359

policyHead.6.bias f4 [24]
0	0x3dc5223d	0.09625671
1	0xbc3a8202	-0.011383535
2	0xbdcc02af	-0.09961449
3	0x3c8c63c7	0.017137421
4	0x3dc46e4d	0.09591351
5	0x3d9436c8	0.07237011
6	0xbd09fb86	-0.033687137
7	0x3d323505	0.043507595
8	0x3d8e9b58	0.06963223
9	0x3d1bbe80	0.03802347
10	0xbceb8796	-0.028751176
11	0x3dc48175	0.095950045
12	0xbd76b7d7	-0.060233917
13	0xbcd1a866	-0.025592994
14	0xbd4eccf2	-0.05048842
15	0x3d8488af	0.06471383
16	0xbd972699	-0.07380409
17	0x3d6813c8	0.05665949
18	0x3de2b1ea	0.11069091
19	0x3d80d3b0	0.06290376
20	0x3cd13960	0.025540054
21	0xbdd00569	-0.10157282
22	0x3d73f88c	0.059563205
23	0xbb9d1080	-0.0047932267

valueHead.0.weight f4 [128, 155]
0	0xba74d321	-0.0009339322
1	0xbd930935	-0.071794905
2	0x3a595b89	0.0008291533
3	0xbbb316e5	-0.0054653757
4	0x3cdaa43a	0.026689637
5	0xbd6200a7	-0.055176403
6	0xbd2acb97	-0.041698065
7	0xba28fb55	-0.0006446143
8	0x3d5e5125	0.054276604
9	0xbcf3e0a0	-0.029770195
10	0x3d214bbe	0.039378874
11	0xbb19e28c	-0.002348098
12	0xbd19ca09	-0.03754619
13	0xbd2611cf	-0.040544327
14	0xbd6c8933	-0.05774803
15	0x3cb6e433	0.02232561
16	0xbd43f2de	-0.047839038
17	0x3d08c2b4	0.03338881
18	0x3af446f5	0.001863687
19	0xbd801087	-0.06253152
20	0x3d4ab27d	0.049486626
21	0xbccbe226	-0.02488811
22	0x3b79b3b9	0.0038101508
23	0xbca42cb0	-0.02004084
24	0x3d80d7d9	0.0629117
25	0x3be91452	0.007113018
26	0xbd74d346	-0.0597718
27	0xbcea5421	-0.028604569
28	0xbd6e43bf	-0.058170076
29	0x3d80161d	0.06254218
30	0xbd00b553	-0.031422924
31	0x3cf83331	0.030297847
32	0x3d878757	0.06617611
33	0x3d68b4e9	0.056813154
34	0xbb398fbf	-0.002831444
35	0x3d3382ba	0.043825842
36	0x3dade9d0	0.08491862
37	0x3b4a1082	0.0030832593
38	0xbc742016	-0.014900228
39	0x3d067aa4	0.032831803
40	0x3d96e993	0.073687695
41	0xbd17e092	-0.0370794
42	0xbd2a7f9c	-0.041625604
43	0xbd739d9a	-0.059476472
44	0x3d932861	0.07185436
45	0xbc2e88eb	-0.010652761
46	0xbcfcf0a3	-0.030876463
47	0xbd843f8f	-0.06457435
48	0xbcdd36de	-0.027003702
49	0x3cecaa4b	0.028889796
50	0xbc926f3b	-0.017875304
51	0xbda6a95b	-0.08137771
52	0x3d80e79b	0.06294175
53	0x3d8b2c76	0.067955896
54	0xbcd8aa9a	-0.026448537
55	0xbd50227b	-0.050814133
56	0x3cf73f86	0.030181658
57	0x3d6790a4	0.056534424
58	0xbbab759f	-0.0052325274
59	0xbccf0ed9	-0.025275635
60	0x3c8b7873	0.017025208
61	0x3c604ebc	0.013690647
62	0x3d904b17	0.07045572
63	0xbd57b73a	-0.052664973
64	0x3d7a1fc4	0.06106545
65	0x3d1ecd7b	0.03877018
66	0xbce7f3f1	-0.028314563
67	0x3d44f955	0.048089344
68	0xbd483d88	-0.048886806
69	0x3d5aa670	0.053381383
70	0xbc8d0c32	-0.01721773
71	0xbd07453d	-0.033025015
72	0x3de39986	0.11113267
73	0xbbdff7bb	-0.0068349517
74	0x3c985b08	0.018598095
75	0x3b11678a	0.0022186958
76	0x3d015306	0.031573318
77	0xbd83a1b6	-0.06427328
78	0x3db17e05	0.086666144
79	0x3dafe088	0.08587748
80	0x3d304801	0.04303742
81	0x3bae8133	0.0053254603
82	0x3d98b1a9	0.07455761
83	0xbd29b00c	-0.041427657
84	0x3c1bdc43	0.009512964
85	0x3d98e3f7	0.07465356
86	0xbd5d6167	-0.05404797
87	0xbcb1c236	-0.021699052
88	0x3d79a2e1	0.06094635
89	0x3d9cf8f6	0.07664673
90	0xbd7db98e	-0.061944537
91	0x3d434cf5	0.047680814
92	0x3d52d3e4	0.051471606
93	0x3b81037f	0.0039371843
94	0x3c4b7b24	0.012419496
95	0xbd882dec	-0.06649384
96	0x3d138aae	0.036020927
97	0x3d9b4c25	0.07582883
98	0x3d34b7ca	0.044120587
99	0x3c142b26	0.0090434905
100	0x3b064401	0.002048731
101	0xbd02485e	-0.031807296
102	0xbc9dc500	-0.019258976
103	0xbd837b3e	-0.06419991
104	0xbd309705	-0.043112773
105	0xbd141cba	-0.03616021
106	0x3d34b0ab	0.044113796
107	0x3d9d32f3	0.076757334
108	0xbc3de470	-0.011590108
109	0x3d6f94fc	0.058491692
110	0xbb1c7a50	-0.0023876615
111	0x3caab777	0.020839436
112	0x3caf22bf	0.021378873
113	0xbce6b172	-0.028160784
114	0x3de2af93	0.110686444
115	0xbb4e12b6	-0.0031444258
116	0xbd4e32b9	-0.05034134
117	0x3c07db7b	0.008292074
118	0x3d59457c	0.05304478
119	0xbd0c5bd5	-0.034267265
120	0x3d8ff84e	0.07029782
121	0xbd34a4d1	-0.044102494
122	0xbd11cab0	-0.03559369
123	0xbdd194d5	-0.102334656
124	0xbd1caf4b	-0.03825311
125	0xbd19c282	-0.037539013
126	0x3d0acebb	0.03388856
127	0x3d2d69d5	0.042337257
128	0xbced0765	-0.02893419
129	0xbd7bcc1c	-0.06147395
130	0xbcde6f07	-0.027152551
131	0xbdbdbaa1	-0.09264112
132	0x3afab395	0.0019127006
133	0x3c9d6bf1	0.01921651
134	0xbced4981	-0.028965713
135	0xbc826c64	-0.015920825
136	0x3d49d842	0.049278505
137	0xbde161dc	-0.11004993
138	0x3d90e061	0.07074047
139	0xbd0725c8	-0.032995015
140	0xbd8fa019	-0.07012958
141	0x3d8042c4	0.062627345
142	0xbd9ef44a	-0.07761438
143	0x3d98b35f	0.07456087
144	0xbc748208	-0.01492358
145	0xbd917326	-0.07102041
146	0xbc3620c5	-0.011116211
147	0xbd795ce5	-0.060879607
148	0xbd891828	-0.066940606
149	0x3c27ce24	0.010242019
150	0x3ccdc883	0.025120026
151	0xbd1c5d75	-0.038175065
152	0x3d92321e	0.07138465
153	0xbbab6689	-0.005230729
154	0x3d79dc86	0.061001323
155	0xbdb7ffe8	-0.08984357
156	0xbd510e77	-0.051039185
157	0x3d853d12	0.06505789
158	0xbd4289fe	-0.04749488
159	0xbd2249fa	-0.03962133
160	0x3d267965	0.040643115
161	0xba047034	-0.000505212
162	0xbd2ec728	-0.0426704
163	0x3d0eadd8	0.03483376
164	0xbd83cc48	-0.06435448
165	0x3db2f1f7	0.087375574
166	0x3cb7d732	0.02244148
167	0x3d1a0355	0.037600834
168	0xbd1e09d7	-0.038583603
169	0xbca13626	-0.01967914
170	0xbc785712	-0.015157478
171	0xbd6d4c38	-0.057934016
172	0x3d7cecbe	0.061749212
173	0xbbf773f9	-0.007551667
174	0x3cebf6b6	0.028804164
175	0x3c526a04	0.012842659
176	0xbd19076c	-0.037360594
177	0x3d90ae42	0.07064487
178	0xbd6ec26d	-0.058290888
179	0xbcee8230	-0.029114813
180	0xbd9210e1	-0.07132126
181	0x3d7e3960	0.062066436
182	0x3da1e755	0.07905451
183	0xbcfaf9ff	-0.030636786
184	0xbc5a52bc	-0.0133253895
185	0x3cf20f54	0.029548325
186	0xbd18fa69	-0.037348185
187	0x3d01f90f	0.03173166
188	0x3d25a43a	0.04043982
189	0xbd40a2db	-0.04703031
190	0xbd2a6651	-0.041601483
191	0xbd2e8c11	-0.042614046
192	0x3d43dd7d	0.04781865
193	0x3acb23a1	0.0015498289
194	0xbd9d5f47	-0.07684188
195	0x3bdebd1b	0.0067974455
196	0xbc666d80	-0.014064193
197	0xbcbc4a1b	-0.022984555
198	0x3c8e3a4e	0.017361786
199	0xbaf1cbf3	-0.0018447622
200	0xbd872c1a	-0.066002086
201	0xbd83b6c4	-0.06431344
202	0xbd0f0035	-0.034912307
203	0xbd3d7f18	-0.046263784
204	0x3cb11302	0.021615509
205	0xbcc67819	-0.024227189
206	0xbd3d4b13	-0.046214174
207	0xbdbef027	-0.09323149
208	0xbd8bfd37	-0.06835406
209	0xbd8fdaad	-0.07024131
210	0xbd2849c7	-0.041085985
211	0x3d6f2108	0.05838111
212	0x3d91326a	0.07089694
213	0xbc6873fa	-0.014187807
214	0xbd6757b3	-0.05648012
215	0x3baeec33	0.0053382157
216	0x3d959e45	0.07305578
217	0xbd86ca53	-0.06581559
218	0xbd249701	-0.04018307
219	0xbc7d1bbf	-0.01544851
220	0xbce50f0f	-0.027961282
221	0x3d1e0935	0.038583
222	0x3d7812b2	0.060564704
223	0x3d1c9291	0.038225714
224	0xbb755152	-0.0037432504
225	0xbd93a503	-0.07209208
226	0x3d13c783	0.03607894
227	0x3d85fb4b	0.06542071
228	0xbbd475d4	-0.006483773
229	0x3baf302f	0.00534632
230	0xbd383d25	-0.044980187
231	0x3da10aa7	0.0786336
232	0x3de13765	0.10996894
233	0xbd8f9b02	-0.07011987
234	0x3c6edfd0	0.014579728
235	0xbd3030ff	-0.043015476
236	0x3dd4f965	0.10399131
237	0x3d102fcc	0.035201833
238	0x3d1fb4f4	0.03899093
239	0x3dab073a	0.08350988
240	0xbd2d6908	-0.042336494
241	0x3b91c9a0	0.0044490844
242	0x3d9191ec	0.071079105
243	0xbd97fe5a	-0.074215606
244	0x3d3314f9	0.043721173
245	0x3d92a3e0	0.07160163
246	0x3d47ecd0	0.048809826
247	0x3bb11950	0.005404629
248	0x3d109aec	0.035303995
249	0x3c70b25e	0.014690964
250	0x3d295b45	0.041346807
251	0xbc16bc3a	-0.00920015
252	0x3d907f6c	0.07055554
253	0x3b380306	0.0028077974
254	0xbd9c6e3b	-0.07638212
255	0xbbf9386f	-0.0076056044

valueHead.0.bias f4 [128]
0	0x3d905f55	0.07049433
1	0x3d13d685	0.036093254
2	0x3d37698e	0.0447784
3	0x3d8cd835	0.06877176
4	0xbd9f2617	-0.07770937
5	0x3d716418	0.058933347
6	0x3aeb2760	0.0017940812
7	0xbd1ffc39	-0.039058898
8	0x3cf0cdbf	0.029394982
9	0xbd5de102	-0.054169662
10	0x3d5b9d83	0.05361701
11	0xbcb27a9d	-0.021786982
12	0x3d199a5d	0.037500728
13	0xbc967f3f	-0.018371223
14	0x3bbd249e	0.0057721874
15	0xbd869d02	-0.065729156
16	0x3d1e0be8	0.038585573
17	0xbd983088	-0.074311316
18	0x3d393d9e	0.04522478
19	0x3a909855	0.0011031727
20	0xbbfc6748	-0.007702742
21	0x3d8583ff	0.06519317
22	0xbcefdb02	-0.029279236
23	0x3cf609db	0.030033996
24	0x3d420d0f	0.047375735
25	0x3d2071e8	0.03917113
26	0x3c8b9558	0.017038986
27	0xbcc511d4	-0.024056353
28	0x3ced2998	0.028950498
29	0x3d7ffa2d	0.062494446
30	0xbd1cda54	-0.03829415
31	0x3d12c26f	0.035829958
32	0x3cbd8336	0.023133855
33	0xbb72f049	-0.003706949
34	0xbbcbcba8	-0.006219346
35	0xbc369f9a	-0.01114645
36	0xbd09d754	-0.03365262
37	0xbd562486	-0.052280925
38	0xbd9e3d46	-0.07726531
39	0x3cc17521	0.023615422
40	0x3ce570e8	0.02800794
41	0xbd8905d1	-0.066905625
42	0xbd9d1e58	-0.07671803
43	0xbd6ad624	-0.057333127
44	0x3d6c3416	0.05766686
45	0x3add8845	0.0016901573
46	0xbd689c4a	-0.056789674
47	0x3ce463f7	0.027879698
48	0xbd5c8dd7	-0.053846207
49	0xbd93e135	-0.07220689
50	0x3c5d6e6d	0.013515097
51	0xbd73468f	-0.05939346
52	0xbc876d4e	-0.016531613
53	0x3c14033e	0.009033976
54	0x3d0b4a2c	0.034006283
55	0x3b6a13e8	0.0035717431
56	0xbd5ce5b1	-0.05392999
57	0x3d3afaa8	0.0456492
58	0xbba62fd4	-0.0050716195
59	0x3cb4879a	0.022037316
60	0x3c063503	0.00819135
61	0xbcacf58e	-0.021113183
62	0x3ce12e21	0.027487816
63	0xbd3d1ed8	-0.046171993
64	0x3d8d506e	0.06900106
65	0xbd4ebacf	-0.050471123
66	0x3d1ec7be	0.038764708
67	0xbd7eb2f7	-0.062182393
68	0x3da7500d	0.08169565
69	0xbc745435	-0.014912655
70	0xbd4cce35	-0.05000134
71	0x3d8cf1fd	0.06882093
72	0x3d281e0c	0.04104428
73	0x3d4d3ca9	0.05010668
74	0xba07ee3e	-0.0005185342
75	0xbc070586	-0.008241063
76	0xbaab1e53	-0.0013055302
77	0x3cc23dcb	0.023711106
78	0xbcec8443	-0.028871661
79	0xbcb9b3d3	-0.022668755
80	0x3c45f6a1	0.012082727
81	0x3bd6e2a1	0.006557778
82	0xbd062f9f	-0.03276026
83	0xbcf2a8e8	-0.029621556
84	0xbd3171c6	-0.043321393
85	0xbce06730	-0.027392954
86	0x3d98615d	0.074404456
87	0x3da3f2d6	0.08005302
88	0x3d3e4704	0.046454445
89	0x3d0a21c8	0.033723623
90	0x3d846cac	0.0646604
91	0x3d7c92db	0.06166349
92	0xbc61bbf4	-0.013777722
93	0xbd02127f	-0.03175592
94	0x3c9e6671	0.019335957
95	0x3cd925cb	0.026507279
96	0x3cb69c50	0.022291332
97	0xbd540e7d	-0.05177163
98	0x3cbeb206	0.023278248
99	0x3d906398	0.07050246
100	0xbd2b94f5	-0.041890103
101	0xbd886645	-0.06660131
102	0x3d8dc2dc	0.06921932
103	0xbd6a6249	-0.05722264
104	0xbd660733	-0.05615921
105	0xbdac54ef	-0.08414637
106	0xbc8c91f6	-0.017159443
107	0xbd18f51a	-0.037343122
108	0xbcb62346	-0.022233617
109	0x3be600bb	0.00701913
110	0x3b51f6d8	0.0032038
111	0x3cd8077f	0.026370762
112	0xbcf1fc08	-0.029539123
113	0x3cc1bad8	0.023648664
114	0x3d19a446	0.03751018
115	0x3cb1a2d7	0.021684093
116	0xbd2ea167	-0.042634394
117	0x3d899ed0	0.06719744
118	0x3d6afc2c	0.057369396
119	0xbc52fb38	-0.012877278
120	0xbd90db80	-0.07073116
121	0x3daaa9d8	0.083331764
122	0xbade5ef5	-0.0016965555
123	0xbc66fad1	-0.014097885
124	0x3d981ff2	0.07427968
125	0x3d8b56c7	0.06803661
126	0xbd10af3d	-0.03532337
127	0x3ceb1e80	0.028701067

valueHead.1.weight f4 [128]
0	0x3f81f7b9	1.0153724
1	0x3f81341b	1.0094026
2	0x3f7f6b0d	0.9977272
3	0x3f829f8e	1.0204942
4	0x3f7e9743	0.9944956
5	0x3f7ff1ec	0.9997852
6	0x3f7f254d	0.9966629
7	0x3f821956	1.0163982
8	0x3f80f3d5	1.0074412
9	0x3f803bf1	1.0018293
10	0x3f7e4104	0.99317956
11	0x3f82d528	1.02213
12	0x3f83176b	1.0241522
13	0x3f8092e4	1.0044827
14	0x3f822bb7	1.0169591
15	0x3f8150f0	1.0102825
16	0x3f822c55	1.0169779
17	0x3f7f0600	0.9961853
18	0x3f822c1a	1.0169709
19	0x3f7e2401	0.9927369
20	0x3f82d52a	1.0221303
21	0x3f81235a	1.0088913
22	0x3f80824e	1.0039766
23	0x3f83d4c8	1.0299311
24	0x3f8096ff	1.004608
25	0x3f81cec4	1.0141225
26	0x3f7ea768	0.9947419
27	0x3f81f155	1.0151774
28	0x3f829c83	1.0204014
29	0x3f7d995e	0.99062145
30	0x3f7b4a21	0.98159987
31	0x3f811098	1.0083189
32	0x3f81a9f1	1.0129987
33	0x3f811dcf	1.0087222
34	0x3f8206bc	1.0158305
35	0x3f82652d	1.0187126
36	0x3f81bc9f	1.0135688
37	0x3f7f3ba7	0.997004
38	0x3f819e46	1.0126426
39	0x3f7e0478	0.9922557
40	0x3f818031	1.0117246
41	0x3f806ee2	1.0033839
42	0x3f7efeaa	0.99607337
43	0x3f809a73	1.0047134
44	0x3f810319	1.007907
45	0x3f7de15c	0.99171996
46	0x3f818253	1.0117897
47	0x3f7df504	0.9920199
48	0x3f821cb1	1.0165006
49	0x3f82acba	1.0208962
50	0x3f81ac78	1.0130758
51	0x3f80f550	1.0074863
52	0x3f7f43c4	0.9971278
53	0x3f82d364	1.0220761
54	0x3f7a9a50	0.9789171
55	0x3f7e0607	0.99227947
56	0x3f82e70e	1.0226762
57	0x3f8073be	1.0035322
58	0x3f7f9ebc	0.99851584
59	0x3f8040c7	1.0019768
60	0x3f81049e	1.0079534
61	0x3f811d86	1.0087135
62	0x3f7e9997	0.9945311
63	0x3f81f641	1.0153276
64	0x3f805971	1.0027295
65	0x3f84359f	1.0328864
66	0x3f832512	1.0245688
67	0x3f7bab93	0.98308676
68	0x3f80e3c8	1.0069513
69	0x3f800a03	1.0003055
70	0x3f7f700f	0.9978036
71	0x3f81d3a2	1.014271
72	0x3f7ced26	0.9879936
73	0x3f807ac6	1.0037467
74	0x3f7c32dd	0.9851511
75	0x3f7e9687	0.99448436
76	0x3f809e1c	1.0048251
77	0x3f803154	1.0015054
78	0x3f7eea2d	0.99576074
79	0x3f7efe8e	0.9960717
80	0x3f80b8ee	1.0056436
81	0x3f8015d7	1.0006665
82	0x3f819d50	1.0126133
83	0x3f81b2c5	1.0132681
84	0x3f802195	1.0010248
85	0x3f8010ff	1.0005187
86	0x3f7e2617	0.9927687
87	0x3f800224	1.0000653
88	0x3f7ca1ff	0.98684686
89	0x3f80093f	1.0002822
90	0x3f79587f	0.9740066
91	0x3f81cb77	1.0140218
92	0x3f7e0336	0.9922365
93	0x3f800ab8	1.0003271
94	0x3f822eb2	1.01705
95	0x3f84a302	1.0362246
96	0x3f8250d2	1.0180914
97	0x3f7cf17f	0.98805994
98	0x3f82570c	1.0182815
99	0x3f7dc0f7	0.99122566
100	0x3f80d6bd	1.0065533
101	0x3f7d6816	0.9898695
102	0x3f7cd1d1	0.98757654
103	0x3f7be01f	0.98388857
104	0x3f8033ca	1.0015805
105	0x3f842656	1.0324199
106	0x3f7f7856	0.99792993
107	0x3f815d13	1.0106529
108	0x3f7dc343	0.9912607
109	0x3f868f94	1.0512567
110	0x3f7dcd2c	0.9914119
111	0x3f81eb10	1.014986
112	0x3f80016c	1.0000434
113	0x3f81cdfc	1.0140986
114	0x3f83627d	1.0264431
115	0x3f80f9c0	1.0076218
116	0x3f811a6c	1.0086188
117	0x3f7cf785	0.98815185
118	0x3f80aebc	1.0053325
119	0x3f81c3d3	1.0137886
120	0x3f8129cc	1.009088
121	0x3f822def	1.0170268
122	0x3f7e494a	0.9933058
123	0x3f80e174	1.0068803
124	0x3f81922d	1.0122734
125	0x3f7fe0e3	0.99952525
126	0x3f7ec0d9	0.9951301
127	0x3f7db077	0.9909739
