MachiKoro/NewVersion/ModelsNN3/version_4_model_6.pt (torch, 256842 bytes, 19 tensors)

policyHead.0.weight f4 [128, 169]
0	0x3d0ec7c4	0.03485848
1	0xbc7ec1bb	-0.015549119
2	0xbca455b3	-0.020060396
3	0x3cc11403	0.023569113
4	0x3d3b8615	0.045782167
5	0x3cdde300	0.027085781
6	0xbd75825d	-0.059938777
7	0x3d5c1e9b	0.053740125
8	0xbdbbf3ee	-0.09177385
9	0x3d8ba718	0.0681898
10	0xbd453660	-0.04814756
11	0x3c02ad51	0.007975892
12	0x3d6988a2	0.05701507
13	0xbd61a60b	-0.05508999
14	0x3d94a7b8	0.07258552
15	0x3c33fca9	0.010985532
16	0x3d6d89ce	0.05799275
17	0xbca8160e	-0.020518329
18	0x3ca0a688	0.019610658
19	0x3b80b3eb	0.003927698
20	0xbd4fede9	-0.050764
21	0xbbc71f4a	-0.006076728
22	0xbb8bf62e	-0.0042712903
23	0x3d15691f	0.036477204
24	0xbd2a7f85	-0.04162552
25	0x3ca82c35	0.020528892
26	0xbd70ed6c	-0.058820173
27	0xbc6173d9	-0.01376053
28	0x3d88de20	0.06682992
29	0xbbe1c350	-0.006889738
30	0xbb4b5e66	-0.0031031608
31	0xbcd3d141	-0.025856616
32	0xbd60c35e	-0.054873817
33	0xbc676145	-0.014122312
34	0xbd89dc00	-0.06731415
35	0x3c54f08b	0.012996803
36	0x3db20fc4	0.08694413
37	0xbd51327c	-0.051073536
38	0x3caaa90b	0.02083256
39	0xbcc9a5c1	-0.02461517
40	0xbd3617c7	-0.04445627
41	0xbd7134c5	-0.058888216
42	0xbc9bcabc	-0.01901757
43	0x3b443bbc	0.002994283
44	0xbd8ae260	-0.06781459
45	0x3da84118	0.08215541
46	0xbbd80ca7	-0.006593305
47	0x3d9f8659	0.07789297
48	0xbbb2a5e5	-0.005451905
49	0x3d6bf6ce	0.05760842
50	0x3d5c0236	0.053713046
51	0xbcf0d214	-0.029397048
52	0xbd396c72	-0.045269437
53	0x3c6aec14	0.014338512
54	0x3d3d4d36	0.046216212
55	0x3d88eafc	0.06685445
56	0xbb0dd6a6	-0.0021642833
57	0x3da5dab1	0.08098353
58	0xbce6bf63	-0.028167432
59	0x3d443580	0.047902584
60	0x3dd98c43	0.10622456
61	0xbd511182	-0.051042087
62	0xbd5fa70a	-0.05460266
63	0xbc036d56	-0.008021673
64	0xbc960c41	-0.01831639
65	0xbd6d2814	-0.05789955
66	0x3da91338	0.08255619
67	0xbc70792f	-0.01467733
68	0xbcdc6a1c	-0.026906066
69	0xbd2decc1	-0.042462114
70	0x3c2cca78	0.010546319
71	0x3b93184c	0.0044889804
72	0xbb8f8e22	-0.004380957
73	0xbbf2eba9	-0.007413347
74	0xbc29ba63	-0.010359379
75	0xbd5a09f8	-0.053232163
76	0x3cb241ed	0.021759951
77	0x3dda3e54	0.106564194
78	0x3b338aed	0.0027396039
79	0x3c617f12	0.013763206
80	0xbb86c458	-0.0041127615
81	0x3ce6b15f	0.028160749
82	0xba795f1d	-0.0009512769
83	0x3bbc8188	0.005752746
84	0x3d0bbde0	0.034116626
85	0xbde583f9	-0.112068124
86	0x3d6a6ee6	0.057234667
87	0xbcb83e29	-0.022490578
88	0xbcaff6c2	-0.021479968
89	0x3da4a461	0.08039165
90	0x3d7ba7d4	0.06143935
91	0x3c891c86	0.016737234
92	0xbc150da3	-0.0090974895
93	0x3cf31094	0.029670991
94	0x3d212537	0.03934213
95	0x3dfec2a9	0.12439472
96	0x3d1b7784	0.037955776
97	0x3d325e5b	0.043547016
98	0x3c97b410	0.018518478
99	0xbd4209b7	-0.047372546
100	0xbd6a5f39	-0.057219718
101	0xbc5bde34	-0.013419677
102	0xba17c737	-0.0005789878
103	0xbd8f523b	-0.06998106
104	0xbc661cfc	-0.014044996
105	0xbd028a48	-0.031870157
106	0xbd99a9e8	-0.0750311
107	0xbc542201	-0.01294756
108	0x3cccc5b7	0.024996622
109	0x3d483adc	0.048884258
110	0xbde447a7	-0.11146479
111	0x3bab44f6	0.0052267266
112	0x3da9e59c	0.08295748
113	0xbd71f0c1	-0.05906749
114	0xbd923fcf	-0.07141077
115	0x3c058445	0.008149211
116	0x3d847153	0.064669274
117	0x3cce790a	0.0252042
118	0xbcb6a99e	-0.022297677
119	0xbd424492	-0.047428675
120	0xbd94ffd8	-0.07275361
121	0x3b55873c	0.0032581827
122	0x3d8f71d2	0.070041314
123	0x3d9d2907	0.07673841
124	0xbc800940	-0.01562941
125	0xbd4a2628	-0.049352795
126	0xbd1fce41	-0.03901506
127	0xbcd3170c	-0.025767826
128	0x3c76b064	0.015056703
129	0x3ccb1f40	0.024795175
130	0xbdb3c56d	-0.0877789
131	0x3d57f7e9	0.05272666
132	0xbd23c8be	-0.039986365
133	0xbc836ad2	-0.016042147
134	0x3d64da93	0.05587251
135	0xbc93ff97	-0.01806621
136	0xbd1f032d	-0.038821388
137	0x3d45d601	0.048299793
138	0x3d79e408	0.061008483
139	0x3d30e59b	0.04318772
140	0xbc2e8b86	-0.010653382
141	0xbdf0bd62	-0.11754872
142	0xb9a3d371	-0.0003124732
143	0xbcf38b86	-0.029729616
144	0x3da4bfc6	0.080443904
145	0xbdd0cdb9	-0.101954885
146	0xbd08e846	-0.03342464
147	0x3d22f549	0.039784703
148	0xbc9214ff	-0.017832277
149	0x3bf2e615	0.007412682
150	0xbd2925e5	-0.041295905
151	0x3d1b31f2	0.03788943
152	0x3ce0f738	0.027461633
153	0x39e548ce	0.00043732527
154	0xbc04f32a	-0.008114615
155	0xbd0a4ab3	-0.033762645
156	0x3c27c7f0	0.01024054
157	0xbb83006b	-0.0039978526
158	0xbaccf5cd	-0.0015637219
159	0xbcdafd13	-0.026732003
160	0xbcd54285	-0.026032696
161	0xbbe19070	-0.0068836734
162	0x3d61a1fc	0.05508612
163	0xbbccdc41	-0.0062518422
164	0x3af12f82	0.0018400999
165	0x3de53ee9	0.1119364
166	0x3bf43191	0.007452198
167	0xbd2bf612	-0.041982718
168	0xbc774cad	-0.0150939645
169	0x3c019008	0.007907875
170	0x3cba0072	0.02270529
171	0x3cee4f71	0.029090615
172	0x39d2ca3f	0.00040205006
173	0x3e43ecae	0.19133255
174	0x3d354d85	0.04426338
175	0xbe0a5296	-0.13508067
176	0xbd030d2e	-0.03199499
177	0xbd992e36	-0.07479517
178	0xbb38fbc8	-0.0028226245
179	0xbd8d945c	-0.06913063
180	0xbdc1f901	-0.09471322
181	0x3aeecad0	0.0018218402
182	0x3d3c9075	0.046036202
183	0xbcff80ff	-0.03118944
184	0xbc30d72a	-0.010793487
185	0xbd0302af	-0.03198498
186	0x3a341e4a	0.00068709685
187	0x3be640ed	0.0070267827
188	0x3c9d7468	0.019220546
189	0xbd027875	-0.031853158
190	0xbce8931f	-0.028390465
191	0xbbadb9fa	-0.005301711
192	0x3b906ec2	0.0044077346
193	0x3d1936b3	0.03740568
194	0xbcbd23b7	-0.02308832
195	0xbd0d59da	-0.034509517
196	0x3d709891	0.05873925
197	0x3d4a8638	0.049444407
198	0xbd75d2ec	-0.060015604
199	0xbd959843	-0.07304432
200	0x3d05f01d	0.032699693
201	0x3c983618	0.018580481
202	0xbcbad6de	-0.022807535
203	0xbcee6454	-0.029100575
204	0xbd01bdd5	-0.03167518
205	0x3d8cdbf1	0.06877888
206	0x3d72d99f	0.05928957
207	0xbd9361b3	-0.07196369
208	0x3d8560ae	0.06512581
209	0xbd9ed3af	-0.07755219
210	0xbc52fe1e	-0.012877969
211	0x3d015471	0.03157467
212	0xbd1b87f9	-0.03797147
213	0x3d04e2ac	0.032442734
214	0x3cba98c9	0.022777932
215	0x3ca26167	0.019821836
216	0xbd19d23f	-0.037554022
217	0xbaa8eebd	-0.0012888532
218	0xbcb508d3	-0.022098934
219	0xbc8ac31f	-0.016938744
220	0x3c29c3a5	0.010361587
221	0x3cc7e4d4	0.024401106
222	0x3d767257	0.060167637
223	0x3d3371ba	0.04380963
224	0xbcc96828	-0.024585798
225	0xbb2b4583	-0.0026133962
226	0x3d61da2c	0.055139706
227	0xbd353ff8	-0.04425046
228	0x3cddf8eb	0.027096232
229	0x3d629714	0.05531986
230	0x3d1dc16f	0.03851455
231	0x3d783483	0.060596954
232	0x3c8bd3c3	0.01706875
233	0x3d2ba19e	0.041902177
234	0x3d1d7960	0.03844583
235	0x3d2eb91c	0.042657003
236	0xbdb8297b	-0.08992287
237	0xbcdc4545	-0.026888499
238	0x3d879586	0.06620316
239	0xbd8beda2	-0.06832434
240	0x3da0bdec	0.07848725
241	0xbd784a12	-0.060617514
242	0xbd7997db	-0.060935836
243	0xbd29c674	-0.041449025
244	0x3c897596	0.016779702
245	0xbd01f551	-0.031728093
246	0x3c3bacdc	0.011454787
247	0x3cbcdcb7	0.023054464
248	0x3d280a37	0.041025367
249	0x3d9b19c3	0.07573273
250	0xbc878537	-0.016543014
251	0x39d4409e	0.00040483935
252	0xbbe7e782	-0.0070771584
253	0x3d9391fe	0.0720558
254	0x3c771034	0.015079547
255	0xbcd2e413	-0.02574352

policyHead.0.bias f4 [128]
0	0xbc1c009d	-0.009521631
1	0xbd320622	-0.04346288
2	0xbd84f99d	-0.064929225
3	0xbd01c994	-0.03168638
4	0xbd72c55a	-0.05927024
5	0x3d425bb7	0.047450747
6	0xbc15e25d	-0.0091482075
7	0xbd3e3613	-0.046438288
8	0x3d0dd62d	0.034628082
9	0xbd620d2c	-0.055188343
10	0xbdb73891	-0.08946336
11	0x3d48d22f	0.04902857
12	0xbd503577	-0.050832238
13	0x3d017d6d	0.031613756
14	0x3cb7f451	0.022455366
15	0x3d91bb77	0.07115834
16	0x3d4ced27	0.050030854
17	0x3d4dc640	0.050237894
18	0xbd558a14	-0.052133635
19	0x3c3abe1c	0.011397865
20	0x3c25f590	0.010129347
21	0x3d66f975	0.056390245
22	0x3d093dd0	0.033506215
23	0xbd6dbb28	-0.058039814
24	0xbd239b78	-0.03994319
25	0x3c3e6601	0.011620999
26	0x3d416ea3	0.047224652
27	0x3c388211	0.011261479
28	0x3c1d52a5	0.0096022235
29	0x3d17cfde	0.037063472
30	0xbbbce623	-0.005764739
31	0xbd4b935c	-0.04970108
32	0xbc9fd7e4	-0.019512124
33	0x3c629aa7	0.013830817
34	0xbd564be7	-0.05231848
35	0x3c6b4e3d	0.014361915
36	0xbbe48b0c	-0.0069745835
37	0xbd8330e5	-0.0640581
38	0x3ce5cd7e	0.028052088
39	0x3d7bee0a	0.06150631
40	0xbd022d57	-0.03178152
41	0x3ca84125	0.020538876
42	0xbd60586b	-0.054771822
43	0x3d8a3ba8	0.0674966
44	0xbd1aae59	-0.037763927
45	0xbc87a27b	-0.016556969
46	0xbcf64999	-0.030064391
47	0xbd2f2827	-0.0427629
48	0x3d2214d9	0.039570663
49	0xbd1b46bc	-0.037909254
50	0xbc884286	-0.016633283
51	0x3d042bed	0.032268453
52	0xbd014fa5	-0.031570096
53	0xbc606bfe	-0.013697622
54	0x3d8b75b1	0.06809557
55	0xbc89d5a3	-0.016825503
56	0xbd5e315d	-0.054246295
57	0x3cd24413	0.025667226
58	0xba4752a8	-0.00076035643
59	0x3c08f9e5	0.008360361
60	0x3d9c6af3	0.076375864
61	0xbdb0dd92	-0.08636011
62	0xbd5599f2	-0.052148767
63	0x3d5bf358	0.053698868
64	0x3ce174b1	0.027521463
65	0xbb812b13	-0.0039419024
66	0xbd3e49f4	-0.046457246
67	0xbc9baec1	-0.019004228
68	0x3cc6cf34	0.024268724
69	0xbd9384ab	-0.07203039
70	0x3d824b5f	0.06362032
71	0x3d364a4f	0.04450446
72	0xbd027c03	-0.031856548
73	0xbc0d5a6c	-0.008627515
74	0x3d509c43	0.050930273
75	0x3d11c146	0.03558471
76	0xbc413daf	-0.011794492
77	0xbce66ab1	-0.028127046
78	0xbd5dc225	-0.05414023
79	0xbc05d7b0	-0.0081691
80	0x3d010beb	0.031505506
81	0xbd6448c9	-0.055733476
82	0x3d793db6	0.060849868
83	0xbd8257b3	-0.063643835
84	0x3c98fa0f	0.018673925
85	0xbdad8ed3	-0.08474507
86	0xba99ec1c	-0.001174334
87	0xbc59d723	-0.0132959215
88	0xbd221064	-0.039566413
89	0xbd7162e3	-0.058932196
90	0x3d2dc13f	0.042420622
91	0x3cbeba6d	0.023282254
92	0xbd99fe87	-0.0751925
93	0xbc934256	-0.017975967
94	0xbd1c751c	-0.03819762
95	0xbd1ab157	-0.03776678
96	0xbccd43d9	-0.025056766
97	0xbdb055fa	-0.08610149
98	0xbcb1cde8	-0.021704629
99	0x3cbfbff2	0.023406956
100	0xbd0470c1	-0.032334093
101	0x3b332268	0.002733374
102	0x3d2fa72c	0.042884037
103	0x3da55897	0.08073538
104	0x3c098500	0.008393526
105	0x3d4abc88	0.049496204
106	0x3c425f6a	0.011863569
107	0x3da05756	0.07829158
108	0xbd120a77	-0.03565451
109	0x3cf7263a	0.030169595
110	0x3c26e9c1	0.010187567
111	0x3d913f3d	0.0709214
112	0x3d3375cc	0.04381351
113	0xbd049412	-0.032367773
114	0xbd415e74	-0.04720922
115	0x3bf3bf08	0.007438544
116	0x3d59ea24	0.05320181
117	0xbcbb02ab	-0.02282842
118	0x3d8af225	0.06784467
119	0xbd026b94	-0.031840876
120	0xbd7e38c7	-0.062065866
121	0x3d105a64	0.035242453
122	0x3d838a77	0.064228944
123	0x3be0cbc6	0.006860229
124	0xbd88784e	-0.06663571
125	0x3bbb55d5	0.005717019
126	0x3d748cae	0.059704475
127	0x3d40a767	0.047034647

policyHead.1.weight f4 [128]
0	0x3f82c05b	1.0214952
1	0x3f80ef47	1.0073022
2	0x3f7dd1c3	0.99148196
3	0x3f807d17	1.0038174
4	0x3f7d1eb2	0.9887496
5	0x3f7de7d9	0.99181896
6	0x3f84ca44	1.0374227
7	0x3f81eacc	1.0149779
8	0x3f7bd24e	0.98367774
9	0x3f80c4c5	1.0060049
10	0x3f7d2fac	0.98900867
11	0x3f81f104	1.0151677
12	0x3f81abec	1.0130591
13	0x3f80312e	1.0015008
14	0x3f811b92	1.0086539
15	0x3f81f4d4	1.0152841
16	0x3f829ab0	1.0203457
17	0x3f7d87d3	0.99035376
18	0x3f828397	1.0196408
19	0x3f7cba35	0.9872163
20	0x3f8118d8	1.0085707
21	0x3f80736f	1.0035228
22	0x3f7fcf7b	0.99925965
23	0x3f7ebe23	0.99508876
24	0x3f80d587	1.0065163
25	0x3f856e55	1.0424296
26	0x3f82c13e	1.0215223
27	0x3f7cb66f	0.9871587
28	0x3f7f349d	0.99689656
29	0x3f81d7cd	1.0143982
30	0x3f80cadc	1.0061908
31	0x3f838341	1.027443
32	0x3f849373	1.0357498
33	0x3f7b7374	0.9822304
34	0x3f809c94	1.0047784
35	0x3f871d3c	1.0555797
36	0x3f81aaaa	1.0130208
37	0x3f805a72	1.0027602
38	0x3f856909	1.0422679
39	0x3f8215bb	1.0162882
40	0x3f80ecb6	1.0072238
41	0x3f828002	1.0195315
42	0x3f7d2aab	0.9889323
43	0x3f7d7c74	0.99018025
44	0x3f7de4b7	0.99177116
45	0x3f813f93	1.0097526
46	0x3f823149	1.0171291
47	0x3f85347d	1.0406643
48	0x3f7d13c1	0.9885827
49	0x3f881654	1.0631814
50	0x3f7ff293	0.99979514
51	0x3f7fb843	0.99890536
52	0x3f824890	1.0178394
53	0x3f80d06e	1.0063608
54	0x3f81b17c	1.0132289
55	0x3f7fc6e8	0.9991288
56	0x3f7f1486	0.9964069
57	0x3f81237d	1.0088955
58	0x3f7cb39f	0.9871158
59	0x3f7cabbf	0.98699564
60	0x3f7b8ce6	0.9826187
61	0x3f82079e	1.0158575
62	0x3f7ac874	0.9796212
63	0x3f80a0f6	1.0049121
64	0x3f80eca7	1.007222
65	0x3f80e57e	1.0070035
66	0x3f84d18a	1.0376446
67	0x3f82d67e	1.0221708
68	0x3f83c81a	1.0295441
69	0x3f7e1951	0.9925738
70	0x3f7c4615	0.98544437
71	0x3f83792a	1.0271351
72	0x3f80a7bf	1.0051192
73	0x3f80d092	1.0063651
74	0x3f7c61a3	0.9858648
75	0x3f8535a4	1.0406995
76	0x3f82f633	1.0231384
77	0x3f7e6cb5	0.99384624
78	0x3f7ab340	0.97929764
79	0x3f80bb2b	1.0057119
80	0x3f812d4d	1.009195
81	0x3f855aa4	1.0418286
82	0x3f7d6e14	0.9899609
83	0x3f7f4530	0.99714947
84	0x3f7d1e19	0.9887405
85	0x3f7f05b3	0.9961807
86	0x3f801c6e	1.0008676
87	0x3f8328ab	1.0246786
88	0x3f833f0c	1.0253615
89	0x3f810bc0	1.0081711
90	0x3f7d112f	0.98854345
91	0x3f80b12a	1.0054066
92	0x3f7e1579	0.99251515
93	0x3f869bb4	1.0516267
94	0x3f83ff6e	1.0312326
95	0x3f80060f	1.0001849
96	0x3f7a2cd6	0.97724664
97	0x3f80baee	1.0057046
98	0x3f7c3043	0.9851114
99	0x3f80a2f6	1.0049732
100	0x3f842d7c	1.0326381
101	0x3f830c0e	1.0238054
102	0x3f792fb9	0.97338444
103	0x3f851bc5	1.03991
104	0x3f846efc	1.034637
105	0x3f844637	1.0333928
106	0x3f830ade	1.0237691
107	0x3f790822	0.97278035
108	0x3f827b91	1.019396
109	0x3f811030	1.0083065
110	0x3f7c1ce5	0.9848159
111	0x3f8684a9	1.0509235
112	0x3f7cb006	0.9870609
113	0x3f85aab0	1.0442715
114	0x3f7e74f0	0.9939718
115	0x3f7d7be3	0.9901716
116	0x3f7d7f0f	0.99022
117	0x3f7f89f3	0.9981987
118	0x3f80df1d	1.0068089
119	0x3f7fba09	0.9989324
120	0x3f7c5513	0.9856731
121	0x3f806f93	1.003405
122	0x3f852859	1.0402938
123	0x3f82fdf7	1.0233754
124	0x3f7e6106	0.99366796
125	0x3f808ba4	1.0042615
126	0x3f8129fe	1.009094
127	0x3f7f56d3	0.9974186

policyHead.1.bias f4 [128]
0	0x3c879b68	0.016553596
1	0x3bcd9edc	0.006275041
2	0xbc7caecb	-0.015422533
3	0xbc59f34b	-0.0133026345
4	0xbbda9c89	-0.0066714925
5	0xbca4e919	-0.02013068
6	0x3c55284b	0.013010095
7	0x3c591a7c	0.013250943
8	0x3ba8f7e0	0.005156502
9	0x3c3f2115	0.011665602
10	0xbc520426	-0.012818372
11	0xbaca5ea5	-0.0015439583
12	0x3bdc3316	0.006719957
13	0x3a8802f6	0.0010376859
14	0xbb5a1cd6	-0.0033281348
15	0xbb855ad6	-0.0040696664
16	0x3c97f42d	0.01854905
17	0x3bddac30	0.006764911
18	0x3bed9b7d	0.0072512017
19	0xbb9b54c3	-0.004740329
20	0x3a63108a	0.00086618273
21	0x3abc8c86	0.0014385141
22	0xba04f9cc	-0.0005072623
23	0x3bda5aa6	0.006663638
24	0x3c0a6608	0.008447178
25	0x3c5848c5	0.013200943
26	0x3bdf7d17	0.006820332
27	0xbc03cb6d	-0.008044106
28	0xbb4bdbe2	-0.0031106402
29	0xbb37a5b5	-0.0028022353
30	0xbbc207b7	-0.00592133
31	0xbb8f8732	-0.00438013
32	0x3c5f0e64	0.013614271
33	0xbcaaf337	-0.020867927
34	0x3c42eb4c	0.011896919
35	0x3bf86d82	0.0075814137
36	0x3b50dde0	0.003187053
37	0x3c4b3e23	0.012404951
38	0x3ca40d12	0.020025764
39	0x3c4a24ac	0.012337845
40	0x3bf31c2c	0.00741913
41	0x3c0c85a4	0.008576784
42	0xbc1bb577	-0.009503714
43	0x3bdf6452	0.006817379
44	0xbc6aada4	-0.014323626
45	0xbc83bb2d	-0.016080463
46	0x3c342234	0.010994483
47	0x3ba9ffa1	0.005187944
48	0x3b4e089a	0.0031438232
49	0x3c9ad039	0.018898116
50	0xbbede06a	-0.0072594183
51	0x3a7f1c07	0.00097316544
52	0x3b05958e	0.002038333
53	0xba9d12be	-0.0011983735
54	0xba5ef3cb	-0.0008504956
55	0xbb991cb0	-0.0046726093
56	0xbc63e514	-0.013909597
57	0x3bb05ce4	0.005382167
58	0x3a6dc125	0.00090696133
59	0x3b3dc6ea	0.0028957673
60	0x3b9016c6	0.004397246
61	0xbc07abfc	-0.00828075
62	0xb9dc7ed9	-0.0004205618
63	0x3b7e8522	0.0038836678
64	0xbc1541b5	-0.009109904
65	0x3c2f87e6	0.010713553
66	0xbb569ef2	-0.0032748547
67	0x3b828cb2	0.0039840573
68	0x3cfb0db2	0.030646179
69	0xbc15f45c	-0.009152498
70	0x3b3643f1	0.0027811492
71	0x3c0d18d2	0.008611875
72	0xba88ab50	-0.0010427032
73	0x3cc53a0f	0.024075536
74	0x3b1863d3	0.002325286
75	0x3c9ef12b	0.019402107
76	0x3bfe97b8	0.007769551
77	0xbb049ec5	-0.0020236236
78	0xbc06948e	-0.008214129
79	0xbbaf6ed7	-0.0053537893
80	0x3c387533	0.011258411
81	0x3bb9e5ab	0.0056731305
82	0x3802acbe	3.1155294e-05
83	0x39bec383	0.00036385292
84	0x3b9f59f2	0.0048630172
85	0xbc4b5095	-0.012409349
86	0xbb1a30b6	-0.002352757
87	0x3c485f3e	0.012229739
88	0x3c0e3edb	0.008681978
89	0xbc066313	-0.008202332
90	0xbb398d82	-0.0028313105
91	0x3bbfeb7c	0.0058569293
92	0xbbfba003	-0.007678987
93	0x3aaa4bc6	0.0012992553
94	0x3be79d58	0.0070683174
95	0x3b6cb16e	0.0036116499
96	0xbb27e960	-0.002562128
97	0x3bb83f48	0.005622778
98	0xbb7df544	-0.0038750926
99	0x3b56f962	0.0032802452
100	0xbc4b78d5	-0.012418945
101	0x3b9adade	0.004725798
102	0xbc3ec592	-0.011643784
103	0x3bb9c5fa	0.0056693526
104	0x3c1e8dde	0.009677378
105	0x3c1ee05d	0.009697047
106	0x3c48273f	0.012216388
107	0x3bacb61c	0.0052707326
108	0xbbd9ef4d	-0.0066508413
109	0xbb043b1a	-0.002017683
110	0x3a289a12	0.00064316497
111	0x3c0fbf26	0.008773601
112	0xbc46e1a3	-0.012138757
113	0xbadad271	-0.0016694797
114	0x3c07fd29	0.008300104
115	0x3b036037	0.0020046362
116	0xbb1fd986	-0.0024391129
117	0x3be71c0d	0.0070529045
118	0xbb5deb9f	-0.0033862365
119	0xba841196	-0.0010076042
120	0xb94a52ee	-0.00019295115
121	0x3b8a4b06	0.0042203693
122	0x3c811d3b	0.015761008
123	0x3c424715	0.011857768
124	0x3bfe9037	0.0077686566
125	0x3b6a8ca3	0.0035789392
126	0xbc30ee2a	-0.01079897
127	0xb8cd0749	-9.776519e-05

policyHead.3.weight f4 [64, 128]
0	0xbc9910f3	-0.01868484
1	0xbd7098e6	-0.058739565
2	0xbc7d73ee	-0.015469534
3	0x3c152c2d	0.009104771
4	0xbd14ca22	-0.03632558
5	0xbca3aba1	-0.0199793
6	0x3d50dc85	0.050991554
7	0x3cb6220c	0.022233032
8	0xbd897788	-0.06712252
9	0x3c323a53	0.010878163
10	0xbca5b214	-0.020226516
11	0x3c347d03	0.011016133
12	0x3c83836e	0.016053881
13	0xbd50e72c	-0.051001713
14	0xbcc39989	-0.023876922
15	0x3c953a50	0.018216282
16	0x3be11785	0.006869259
17	0xbd1ba4ec	-0.03799908
18	0xbccfd384	-0.025369413
19	0x3cf1325b	0.029442957
20	0x3c111e3c	0.008857306
21	0xbcf71c5f	-0.030164896
22	0x3dbe8435	0.0930256
23	0xbca303f4	-0.019899346
24	0xbd12b3f4	-0.035816148
25	0x3da4b3bd	0.08042095
26	0x3d193a3c	0.037409052
27	0x3d64df71	0.055877153
28	0xbd235b9e	-0.039882295
29	0x3d4e11bd	0.050309885
30	0x3bf5f93a	0.0075065168
31	0xbcb2cd98	-0.02182655
32	0x3c728939	0.014803224
33	0xbd9033d9	-0.07041139
34	0x3d780bb4	0.060558036
35	0xbd9371d8	-0.07199448
36	0x3dab31ad	0.08359084
37	0x3cdb5180	0.02677226
38	0xbd118624	-0.035528317
39	0x3d9afd87	0.07567888
40	0x3d5ddda9	0.05416647
41	0xbdb0c58d	-0.0863143
42	0x3d9f6c18	0.07784289
43	0x3ceeb41e	0.029138621
44	0xbd52f952	-0.0515073
45	0xbc6f05ae	-0.0145887565
46	0x3dc41136	0.09573595
47	0xbd99a3d8	-0.07501954
48	0xbd406633	-0.046972465
49	0xbd8e785c	-0.069565505
50	0xbdac8f53	-0.084257744
51	0xbaff749e	-0.0019489711
52	0x3aab8ca8	0.0013088183
53	0xbd2a5e7f	-0.041594025
54	0xbd1437f9	-0.036186192
55	0x3d5ba612	0.053625174
56	0x3d4775f3	0.04869647
57	0x3c21e6f6	0.009881726
58	0xbd7355f9	-0.05940816
59	0x3d54325a	0.05180583
60	0xbce902ec	-0.028443776
61	0xbd84e70f	-0.064893834
62	0xbd37a1f3	-0.04483218
63	0x3ca15541	0.019693973
64	0x3bc1f80f	0.0059194635
65	0xbd683d79	-0.05669925
66	0xbc6eb2f7	-0.014569036
67	0xbced8c94	-0.028997697
68	0x3c84b1a0	0.01619798
69	0xbcd7c5ee	-0.026339497
70	0xbd9920c3	-0.07476952
71	0xbd01f17f	-0.03172445
72	0xbaf8bd5b	-0.0018977331
73	0x3cc54ac9	0.024083512
74	0x3d17508a	0.036942042
75	0x3ccef9b8	0.02526556
76	0xbd7478e4	-0.059685603
77	0x3d4e6bda	0.050395824
78	0x3cc78e77	0.024359925
79	0x3cacc54e	0.021090176
80	0x3d1e3615	0.038625795
81	0x3d8dda18	0.06926364
82	0xbcf176c2	-0.029475573
83	0xbdafb424	-0.08579281
84	0xbd191549	-0.037373815
85	0x3d3b1de2	0.045682795
86	0xbe00079f	-0.12502907
87	0xbd108fe6	-0.035293482
88	0xbced68e4	-0.02898068
89	0xbccc207c	-0.024917834
90	0x3d1be68b	0.03806166
91	0xbd39ed91	-0.045392577
92	0xbb38412c	-0.0028115017
93	0x3de5c135	0.11218492
94	0x3bee201e	0.0072670123
95	0x3c090eaf	0.008365317
96	0xbc70233b	-0.014656837
97	0x3cd79739	0.026317226
98	0x3c9bc49b	0.019014647
99	0xbc8c6c10	-0.017141372
100	0xbdaee4ec	-0.08539757
101	0xbdd9cb1a	-0.10634442
102	0xbce63b8e	-0.02810457
103	0xbd3ee0d4	-0.04660113
104	0x3d0c4f0d	0.034255076
105	0xbd0d4064	-0.034485236
106	0x3dcbaa12	0.09944548
107	0x3d6b05e8	0.05737868
108	0x3d81f84e	0.063461885
109	0xbd1bf684	-0.038076892
110	0xbd03ebd6	-0.032207333
111	0x3c841638	0.016123876
112	0x39d3cd72	0.00040398125
113	0xbd6fa467	-0.058506396
114	0xbdd65dac	-0.10467085
115	0xbd27d2dc	-0.040972576
116	0x3ca3e71f	0.020007668
117	0xba107f1c	-0.0005512105
118	0x3d874290	0.06604493
119	0xbd5a0225	-0.0532247
120	0x3d51d2f7	0.051226582
121	0x3d6ecbf7	0.058299985
122	0x3db0d167	0.0863369
123	0xbd514359	-0.05108962
124	0xbd2dafd2	-0.042404003
125	0x3db4389c	0.0879986
126	0xbd9071c2	-0.070529476
127	0x3daadaf3	0.083425425
128	0xbda18f43	-0.07888653
129	0xbcb72d03	-0.02236033
130	0xbcef982e	-0.02924737
131	0x3d91a8f3	0.07112303
132	0xbc8120c9	-0.015762703
133	0xbc875143	-0.01651824
134	0x3c135aae	0.008993788
135	0x3d0044c2	0.031315573
136	0xbd898441	-0.067146786
137	0xbc430e51	-0.011905269
138	0x3d38e722	0.0451423
139	0x3d5e7e84	0.054319873
140	0x3d3f7ff2	0.046752878
141	0x3d943a16	0.072376415
142	0x3d0096aa	0.031393684
143	0xbd79a3c7	-0.060947206
144	0xbd969fcb	-0.07354697
145	0xbbb332d0	-0.005468704
146	0xbd445877	-0.04793593
147	0xbd9ed58d	-0.07755575
148	0xbb84deeb	-0.004054894
149	0xbcd56f56	-0.026054066
150	0xbd1770f2	-0.036972947
151	0xbb84100b	-0.004030233
152	0xbd84aadb	-0.064779006
153	0xbd9a8b78	-0.07546133
154	0xbd8a7a51	-0.06761611
155	0x3ca26012	0.0198212
156	0x3d47e6d3	0.048804116
157	0xbda24ed8	-0.079251945
158	0x3d560df4	0.0522594
159	0x3dc92147	0.098208
160	0x3d4c0d24	0.04981722
161	0x3d8f9cac	0.07012305
162	0x3d9922a7	0.074773125
163	0x3d952932	0.07283248
164	0x3cf20a01	0.029545786
165	0xbcf38ed7	-0.029731197
166	0x3d4b1cac	0.04958789
167	0xbd043e4c	-0.032285973
168	0xbd84f814	-0.0649263
169	0xbcf9f30f	-0.030511407
170	0x3c6da227	0.014503992
171	0x3cd7aa60	0.026326358
172	0xbd42b6fd	-0.047537792
173	0xbca779f3	-0.020443892
174	0x3d99186c	0.07475361
175	0x3d8efe9d	0.069821574
176	0x3ae1d775	0.0017230349
177	0xbd0e7f70	-0.034789503
178	0x3cce7b9b	0.025205424
179	0xbb965807	-0.0045881304
180	0xbd4e9a2a	-0.05043999
181	0x3cdc7a5b	0.026913812
182	0x3c3b2923	0.011423382
183	0x3cae7891	0.021297725
184	0x3b121098	0.0022287723
185	0x3c6a6d40	0.014308274
186	0xbae97402	-0.0017811062
187	0x3d12168c	0.035666034
188	0xbc984ee2	-0.018592302
189	0x3b474cb8	0.0030410718
190	0xbd0bb708	-0.0341101
191	0xbceb74f6	-0.028742295
192	0xbd110320	-0.03540337
193	0xbd93c747	-0.072157435
194	0x3df60837	0.120132856
195	0x3d353ecd	0.044249345
196	0x3d2bd4d6	0.041951023
197	0x3d429d3f	0.047513243
198	0xbd77c27a	-0.0604882
199	0x3d5f365f	0.05449521
200	0x3c8c4048	0.017120495
201	0x3d676fb3	0.05650301
202	0x3d9075ec	0.07053742
203	0x3d78f144	0.060776964
204	0xbd8c6ad3	-0.068563126
205	0xbbc7379a	-0.0060796263
206	0x3c8ff57b	0.017573109
207	0xbd8c6934	-0.068560034
208	0xbc31cfab	-0.010852735
209	0x3cce55db	0.025187423
210	0x3d4eba80	0.05047083
211	0x3ca92fb0	0.020652622
212	0xbd5beb00	-0.05369091
213	0x3cc28c79	0.023748623
214	0x3d95c859	0.07313604
215	0x3bbf0233	0.0058291196
216	0x3d851997	0.064990215
217	0x3cdf69a6	0.027272057
218	0x3cb5be3f	0.022185443
219	0xbd3e747a	-0.0464978
220	0xbd0b1b5b	-0.033961635
221	0x3d6953fa	0.056964852
222	0x3d9b465f	0.075817816
223	0xbd2c513e	-0.042069666
224	0xbd2c3c27	-0.042049553
225	0x3d6555b4	0.055989936
226	0xbcc188ae	-0.023624744
227	0x3d04e8f6	0.03244873
228	0x3d0add21	0.03390229
229	0xbd4268c0	-0.04746318
230	0x3cbb3884	0.022854097
231	0x3d885644	0.06657079
232	0x3c64c6ae	0.013963385
233	0xbd881eec	-0.06646523
234	0x3d5a39f8	0.05327794
235	0xbd0b0b44	-0.03394629
236	0x3d3242ca	0.043520726
237	0x3ac417b6	0.001496068
238	0x3d8e7fd6	0.069579765
239	0xbd530ccf	-0.051525887
240	0xbd2621c7	-0.040559556
241	0x3d596bd1	0.053081337
242	0x3d2da9ee	0.042398386
243	0xb982b6e1	-0.00024931788
244	0x3cecd541	0.028910281
245	0x3d958dbe	0.07302426
246	0x3d2b272c	0.041785404
247	0xbd46a2c0	-0.048495054
248	0x3cb379e5	0.02190871
249	0x3bfd5ced	0.007732025
250	0xbd558b9a	-0.052135088
251	0xbdb2315e	-0.08700822
252	0xbc640aef	-0.013918622
253	0x3cf1f544	0.029535897
254	0x3d87a93a	0.06624074
255	0xbda7689b	-0.08174249

policyHead.3.bias f4 [64]
0	0xbda97f32	-0.08276214
1	0xbd401d54	-0.04690297
2	0x3d701ee3	0.058623206
3	0xbdb5b6b1	-0.08872736
4	0xbd9ef997	-0.07762449
5	0xbdc785cf	-0.09742319
6	0xbd949eb7	-0.07256835
7	0xbdab59f3	-0.08366766
8	0xbce58bef	-0.028020827
9	0xb94d45cc	-0.00019576325
10	0x3c4eddcc	0.012626123
11	0x3d1179c8	0.03551653
12	0xbdad5f84	-0.08465484
13	0xbd509796	-0.050925814
14	0x3c80e425	0.015733788
15	0xbc861921	-0.016369404
16	0xbc7d797e	-0.0154708605
17	0xbcfb3e57	-0.030669374
18	0x3d20bef7	0.03924462
19	0xbcddcdd1	-0.02707568
20	0x3db7591c	0.08952543
21	0x3d78ab03	0.060709964
22	0x3c982334	0.018571474
23	0xbc7e52ff	-0.0155227175
24	0xbd804172	-0.06262483
25	0xbd18a323	-0.037264954
26	0x3d79b696	0.060965143
27	0x3cc293cd	0.023752118
28	0x3cff1118	0.03113608
29	0x3c9fc09f	0.019501029
30	0xbc87a08a	-0.016556043
31	0xbd572b93	-0.05253179
32	0xbdab63b5	-0.08368627
33	0xba7e88a1	-0.00097096903
34	0xbd3b24a1	-0.04568923
35	0x3d8f8c74	0.07009211
36	0x3c1cf162	0.0095790345
37	0x3ce31ca4	0.027723618
38	0xbdb670e6	-0.089082524
39	0x3b85f512	0.0040880525
40	0x39de6416	0.0004241771
41	0x3d9542ca	0.0728813
42	0xbd8feb7e	-0.070273384
43	0x3d9e1dce	0.077205285
44	0x3d9c5c1a	0.076347545
45	0x3daeeb95	0.085410275
46	0xbd884f72	-0.06655778
47	0x3c0a10c7	0.008426852
48	0x3d33a8ee	0.043862276
49	0x3ccc35d9	0.02492802
50	0x3cdf1472	0.027231429
51	0xbc67db87	-0.0141514605
52	0xbd60b19b	-0.054856878
53	0xbda4507d	-0.080231644
54	0xbc2f7162	-0.010708185
55	0xbc641d73	-0.013923037
56	0xbdaab983	-0.08336165
57	0xbd87852b	-0.06617197
58	0x3ce6244f	0.028093485
59	0xbb1b6887	-0.0023713426
60	0xbd2fe1a1	-0.042939786
61	0xbc971ea8	-0.018447235
62	0x3c0fc4ee	0.008774979
63	0x3d07f3d7	0.03319153

policyHead.4.weight f4 [64]
0	0x3f815b81	1.010605
1	0x3f78e0f4	0.9721825
2	0x3f83dc91	1.0301687
3	0x3f804556	1.002116
4	0x3f7a641c	0.97809005
5	0x3f7c5f9e	0.985834
6	0x3f7f5638	0.99740934
7	0x3f7c0105	0.98439056
8	0x3f793212	0.97342026
9	0x3f87c525	1.0607039
10	0x3f87c55a	1.0607102
11	0x3f8b630d	1.0889603
12	0x3f7d28a0	0.98890114
13	0x3f8347ef	1.0256327
14	0x3f7ee3b0	0.99566174
15	0x3f7c608c	0.9858482
16	0x3f7aff22	0.9804555
17	0x3f85ac69	1.044324
18	0x3f86f97e	1.0544889
19	0x3f80eadb	1.0071672
20	0x3f83d58f	1.0299548
21	0x3f81970e	1.0124223
22	0x3f86ff30	1.0546627
23	0x3f80d050	1.0063572
24	0x3f803a01	1.0017701
25	0x3f7eaec2	0.9948541
26	0x3f7bef4c	0.98412013
27	0x3f82a1da	1.0205643
28	0x3f7cd4b8	0.98762083
29	0x3f813702	1.0094912
30	0x3f8296f3	1.0202316
31	0x3f84e03c	1.0380931
32	0x3f76e7a8	0.9644723
33	0x3f7c536b	0.98564786
34	0x3f80bcbe	1.00576
35	0x3f8318cc	1.0241942
36	0x3f7e80c2	0.9941522
37	0x3f823e54	1.0175271
38	0x3f80c370	1.0059643
39	0x3f7f9877	0.9984202
40	0x3f7c1501	0.9846955
41	0x3f85c18b	1.044969
42	0x3f83e99f	1.030567
43	0x3f7fd7da	0.9993874
44	0x3f82a903	1.0207828
45	0x3f8f8c48	1.1214685
46	0x3f86267a	1.0480492
47	0x3f803f7d	1.0019375
48	0x3f88f7f5	1.070067
49	0x3f7a3fc4	0.9775355
50	0x3f830c74	1.0238175
51	0x3f7dfe8f	0.9921655
52	0x3f84684f	1.0344332
53	0x3f7d5480	0.9895706
54	0x3f807bed	1.0037819
55	0x3f81c482	1.0138094
56	0x3f76dc73	0.9643013
57	0x3f7b379d	0.98131734
58	0x3f80d871	1.0066053
59	0x3f8003e9	1.0001193
60	0x3f931fe8	1.1494112
61	0x3f7a7402	0.97833264
62	0x3f7cc955	0.9874471
63	0x3f81a879	1.0129539

policyHead.4.bias f4 [64]
0	0x3c319e0a	0.010840902
1	0x3b899c3c	0.004199533
2	0x3ce3a4e8	0.027788594
3	0xbb272105	-0.002550186
4	0xbcc4d40c	-0.024026893
5	0xbc735b40	-0.014853299
6	0x3a83eb82	0.0010064694
7	0x3bdaa8c1	0.006672949
8	0xbb9a918e	-0.0047170585
9	0x3d3d37f5	0.046195943
10	0x3d16881e	0.036750905
11	0x3d76ab88	0.06022218
12	0xbc9bea20	-0.019032538
13	0x3c28deed	0.010307056
14	0xbcd6d4df	-0.026224552
15	0xbcc332ba	-0.0238279
16	0x3c0551ee	0.008137209
17	0xba22ef45	-0.00062154635
18	0x3c563ec0	0.013076484
19	0xbc8fee65	-0.01756973
20	0xbb470656	-0.0030368767
21	0xbc995722	-0.018718306
22	0x3d0a09e4	0.03370084
23	0x390369b4	0.00012532511
24	0xbb17da24	-0.0023170793
25	0xbb6d2186	-0.0036183312
26	0xbcc675fd	-0.024226183
27	0xbca83d0a	-0.020536918
28	0x3b1ddc24	0.0024087513
29	0xbc172bfb	-0.009226794
30	0x3b32d8ee	0.0027289945
31	0x3d13c1ab	0.036073368
32	0xbd299d62	-0.041409858
33	0xbcb63aec	-0.022244893
34	0x3cc185dc	0.0236234
35	0x3ca33f71	0.019927712
36	0x3c777910	0.015104547
37	0xb9371878	-0.00017461355
38	0xbc083869	-0.0083142305
39	0xbc02fafd	-0.007994411
40	0xbc91b67d	-0.017787213
41	0x3cf9561d	0.03043657
42	0xbbafba3c	-0.005362777
43	0xbc33025d	-0.010925856
44	0x3cce03a7	0.025148226
45	0x3d711910	0.058861792
46	0x3937ba3b	0.00017521616
47	0x3ca258d2	0.019817743
48	0x3c4cca69	0.01249943
49	0xbba1172a	-0.0049160914
50	0x3c3639b2	0.011122154
51	0xbd0c04e2	-0.034184344
52	0x3cf1808f	0.029480247
53	0xbb8ebd7c	-0.0043560844
54	0xbc0e2b0c	-0.008677255
55	0xbb09bd77	-0.002101747
56	0xbd25b6a1	-0.04045737
57	0xbc9ee9c6	-0.019398581
58	0x3c2ab06e	0.010418041
59	0x3c08ddae	0.008353634
60	0x3d4eeae7	0.05051699
61	0xbcfa76fe	-0.030574318
62	0x3be79497	0.007067274
63	0xbc1d17a7	-0.009588159

policyHead.6.weight f4 [24, 64]
0	0xbd03b03f	-0.032150503
1	0x3d7da8fb	0.06192873
2	0x3d172b5f	0.036906596
3	0xb9810c48	-0.00024613948
4	0x3dbb2419	0.091377445
5	0x3daab3d1	0.083350785
6	0xbdb53f19	-0.088499255
7	0xbd381439	-0.04494116
8	0x3d2f46a9	0.042791996
9	0x3d39fda4	0.045407906
10	0xbd297311	-0.0413695
11	0xbc8398ac	-0.01606401
12	0x3db0e17d	0.086367585
13	0x3d787829	0.06066147
14	0xbde89b31	-0.113577254
15	0x3cee3904	0.029079922
16	0x3bf9da24	0.0076248813
17	0xbd69e80a	-0.057106055
18	0xbd7c5fe4	-0.061614886
19	0xbdb61b1b	-0.08891889
20	0x3dbe5266	0.0929306
21	0x3dcb1dc3	0.09917786
22	0xbd96e076	-0.07367031
23	0x3dd2e70c	0.10297975
24	0xbc442883	-0.011972549
25	0xbc13f3fe	-0.00903034
26	0x3ce32f8e	0.027732637
27	0xbdc09c1a	-0.09404774
28	0xbd726b80	-0.05918455
29	0x3dcd7074	0.10031214
30	0x3e03a8e5	0.12857397
31	0xbb82004f	-0.003967322
32	0x3da993d6	0.082801506
33	0xbdd47a2a	-0.103748634
34	0xbdd9a111	-0.10626424
35	0x3cf291ea	0.029610593
36	0xbd718ffc	-0.058975205
37	0xbd1ac7f9	-0.037788365
38	0x3d71f74f	0.059073742
39	0xbd4832a7	-0.04887643
40	0xbd928386	-0.07153992
41	0xbb2a51bf	-0.0025988666
42	0x3de74bea	0.11293776
43	0x3d110e69	0.035414133
44	0xbcce6f74	-0.02519963
45	0xbdb4a776	-0.08821003
46	0xbe253969	-0.16135181
47	0x3c1f05d6	0.009705981
48	0x3caa6271	0.020798894
49	0x3da595da	0.080852225
50	0xbd3fec2f	-0.0468561
51	0xbd73df35	-0.05953904
52	0x3d4b0ee7	0.04957476
53	0xbce3f27e	-0.02782559
54	0x3dcb5479	0.09928221
55	0xbd834fbe	-0.06411694
56	0xbe055f42	-0.13024619
57	0xbd43f759	-0.04784331
58	0xbd0d16cb	-0.034445565
59	0xbd9a4a72	-0.075337306
60	0xbd0a4eb0	-0.03376645
61	0xbd9f2cea	-0.077722386
62	0x3da0edc7	0.078578524
63	0xbdabf254	-0.0839583
64	0xbbb2755c	-0.0054461192
65	0xbd91eaa1	-0.0712483
66	0xbd7f4c9e	-0.062328927
67	0xbc96b0b8	-0.018394813
68	0x3d69bc88	0.057064563
69	0xbd85328b	-0.06503781
70	0xbb4355c6	-0.0029805764
71	0x3d8bbcc0	0.068231106
72	0x3d0eade1	0.034833793
73	0xbe07b072	-0.13250902
74	0xbda447c9	-0.080215044
75	0xbce1109a	-0.027473737
76	0xbd516b23	-0.051127564
77	0x3cb7aef3	0.02242229
78	0xbd32c4a0	-0.043644547
79	0xbd94e6c3	-0.07270577
80	0x3d8b4654	0.068005234
81	0x3bd4ba3a	0.0064919265
82	0xbdeff357	-0.11716335
83	0x3d7e5700	0.06209469
84	0xbd48cc67	-0.04902306
85	0xb91ab118	-0.00014752557
86	0xbdd9bd1c	-0.10631773
87	0x3c755028	0.014972724
88	0xbdc2a960	-0.09504962
89	0xbc7bc168	-0.015365936
90	0x3a92bec2	0.0011195766
91	0xbc219f01	-0.00986457
92	0x3d0adb37	0.033900466
93	0x3d2b4c32	0.041820712
94	0x3da5d301	0.080968864
95	0xbd7c990d	-0.061669398
96	0x3db08f27	0.08621054
97	0x3cc494d6	0.023996752
98	0x3d86265c	0.06550285
99	0x3d4a3b03	0.049372684
100	0xbdf35f0a	-0.11883362
101	0x3c996d3b	0.018728843
102	0x3dd3b493	0.10337176
103	0x3ce52a7e	0.027974363
104	0xbc93283b	-0.01796352
105	0xbd763feb	-0.06011955
106	0xbd5b166c	-0.05348818
107	0x3b7baafd	0.0038401478
108	0x3dc86f0c	0.097868055
109	0x3db66530	0.08906019
110	0x3bcb6910	0.006207593
111	0xbdb9b715	-0.09068123
112	0x3cec41a6	0.028839897
113	0x3d8721aa	0.06598218
114	0xbd35f1b8	-0.044419974
115	0x3cb8a3d1	0.022539051
116	0x3d3e6bf3	0.046489667
117	0xbbb5957e	-0.0055415025
118	0xbd765568	-0.060140043
119	0xbd5fcc44	-0.054638162
120	0xbd85235c	-0.06500885
121	0x3d73a3a2	0.059482224
122	0x3dbb315f	0.09140276
123	0xbd66ba8e	-0.056330256
124	0xbd295c22	-0.04134763
125	0x3d9cb749	0.07652146
126	0xbccb1eb9	-0.024794923
127	0xbd702533	-0.058629226
128	0xbdadc494	-0.0848476
129	0xbcaa98c3	-0.020824796
130	0xbd917c6a	-0.07103808
131	0x3d0a0e25	0.033704896
132	0xbd969025	-0.07351712
133	0xbd8812ff	-0.06644248
134	0xbdd7e674	-0.10542002
135	0xbdad7595	-0.084696926
136	0x3da70e81	0.08157063
137	0xbd45b1e2	-0.048265345
138	0x3c798afb	0.015230889
139	0xbd02e849	-0.031959806
140	0x3d998f06	0.07497983
141	0x3d01f4f8	0.03172776
142	0x3da1c904	0.07899669
143	0xbde39e31	-0.11114157
144	0xbd079de7	-0.03310957
145	0xbd965080	-0.07339573
146	0xbe0e7756	-0.1391271
147	0xbdd12be9	-0.10213453
148	0xbcd581b3	-0.026062822
149	0xbdb49389	-0.088172026
150	0xbc828490	-0.015932351
151	0xbda7a1e8	-0.08185178
152	0xbb16fcc3	-0.0023038841
153	0x3dc51690	0.09623444
154	0x3d38dcca	0.045132436
155	0x3d6aae29	0.057295
156	0xbdecdc1e	-0.115654215
157	0x3cf2666d	0.029589856
158	0xbd5ba0b0	-0.05362004
159	0xbcf5e152	-0.030014668
160	0x3cd69e56	0.026198547
161	0x3d0763c9	0.033054147
162	0xbda6410d	-0.08117876
163	0xbd85459b	-0.06507417
164	0xbd4fb09c	-0.050705537
165	0xbd979d3c	-0.07403037
166	0x3d5bc3b0	0.05365342
167	0x3d1a802e	0.037719898
168	0x3d44b206	0.04802134
169	0xbd50ac36	-0.050945483
170	0xbd9b33c6	-0.075782344
171	0xbd589b56	-0.052882515
172	0xbdc55bfd	-0.09636686
173	0x3d01a98a	0.031655826
174	0x3d9f186f	0.07768332
175	0x3d8a92c2	0.06766273
176	0x3d826623	0.06367137
177	0x3b691ca9	0.0035570061
178	0xbc3c2dd4	-0.011485536
179	0x3de13a3d	0.10997436
180	0x3da768e8	0.08174306
181	0x3dbc730a	0.092016295
182	0x3d862660	0.06550288
183	0xbcded21d	-0.0271998
184	0x3d70639f	0.058688756
185	0xb9ce1b01	-0.000393115
186	0xbb44cda1	-0.003002979
187	0xbd7aeee6	-0.061262988
188	0xbdab478f	-0.08363258
189	0xbc5edb1a	-0.013602043
190	0x3ccff32f	0.025384514
191	0x3ddbf0e3	0.10739305
192	0xbc37ec8a	-0.011225829
193	0x3d65ac20	0.056072354
194	0x3d21ac7a	0.039471127
195	0xbdda3a30	-0.1065563
196	0x3d8b77fd	0.06809995
197	0x3c8b164b	0.016978404
198	0x3d131c29	0.035915527
199	0xbbccfa5f	-0.0062554325
200	0xbd6f2637	-0.058386054
201	0x3c904cae	0.017614689
202	0xbde53c89	-0.11193187
203	0x3de00fa4	0.10940483
204	0x3e04216c	0.12903374
205	0x3d97b527	0.07407599
206	0x3d52a659	0.051428173
207	0xbd6da4d5	-0.058018524
208	0xbd3c3217	-0.045946207
209	0x3d42e32d	0.047579933
210	0x3da81386	0.08206849
211	0x3be786a5	0.0070656114
212	0xbdad09d4	-0.0844914
213	0x3d62b8be	0.055351965
214	0xbd99e57a	-0.07514472
215	0xbd33ce99	-0.0438982
216	0xbd191bb7	-0.037379947
217	0x3dd9c869	0.10633928
218	0x3d86a4ba	0.06574388
219	0x3c079871	0.008276091
220	0x3dea5fea	0.114440754
221	0x3de0f42b	0.10984071
222	0xbd47589c	-0.04866849
223	0x398efa88	0.0002727101
224	0x3d0aa09e	0.033844583
225	0x3d91634e	0.07099019
226	0x3da61f1b	0.08111402
227	0xbb8c8fa6	-0.004289585
228	0xbd808745	-0.062758006
229	0x3cf523e1	0.029924335
230	0xbddbb583	-0.1072798
231	0x3d953672	0.07285775
232	0xbce0dbe3	-0.0274486
233	0x3cc308ab	0.023807844
234	0x3d7bf5b7	0.06151363
235	0xbdf47b6f	-0.119376056
236	0x3daf121a	0.085483745
237	0xbdb13f6f	-0.08654677
238	0xbde611e4	-0.11233881
239	0x3d8afcb2	0.06786479
240	0xbc11ea35	-0.008905937
241	0xbd43ac78	-0.0477719
242	0x3cde6eb9	0.027152406
243	0x3de30d34	0.11086503
244	0x3c185ab0	0.009298965
245	0xbd270ab0	-0.040781677
246	0xbda4ed8a	-0.080531195
247	0x3ce99ea7	0.028518034
248	0x3c665b97	0.014059923
249	0xbdbf6a43	-0.0934644
250	0xbc54f028	-0.012996711
251	0x3d15da81	0.036585335
252	0xbda0eb7f	-0.07857417
253	0xbd8cb549	-0.06870515
254	0xbd1547a8	-0.03644529
255	0x3d8bc537	0.06824725

policyHead.6.bias f4 [24]
0	0x3d5c31b3	0.053758334
1	0x3d3e4dfd	0.046461094
2	0x3c86a333	0.016435241
3	0xbce0fc28	-0.027463987
4	0xbdbdfffb	-0.0927734
5	0xbdff0e4e	-0.124539
6	0x3cae5e0e	0.021285083
7	0x3d0ea950	0.034829438
8	0xbc026760	-0.007959217
9	0xbc1782a0	-0.009247452
10	0xbd0eb4a9	-0.03484026
11	0x3d82506f	0.06362998
12	0xbdef7288	-0.11691767
13	0x3ce0bdcb	0.02743425
14	0x3d1a4093	0.03765924
15	0x3df09d86	0.11748795
16	0xbd4cd6a7	-0.050009396
17	0xbc82540e	-0.015909221
18	0xbc8a62eb	-0.01689287
19	0x3b58ba57	0.0033070052
20	0x3dbc7b3b	0.09203192
21	0xbdab59ac	-0.08366713
22	0x3d5d1961	0.05397928
23	0xbdc9fc83	-0.09862616

valueHead.0.weight f4 [128, 169]
0	0x3d100ca3	0.0351683
1	0x3d132219	0.03592119
2	0x3daab4a8	0.08335239
3	0x3d01be52	0.031675644
4	0x3d24d9e0	0.040246844
5	0xbc17b746	-0.009260004
6	0xbe2285d0	-0.15871358
7	0x3d329918	0.043603033
8	0xbc0e8f9d	-0.008701232
9	0x3b3ef788	0.002913924
10	0xbd141065	-0.036148448
11	0xbd412207	-0.04715159
12	0xbc4d727b	-0.012539501
13	0x3be63dc7	0.0070264074
14	0x3d491a32	0.049097247
15	0x3c218686	0.009858733
16	0x3d536eeb	0.05161945
17	0xbc22d45c	-0.009938326
18	0x3a9678ec	0.0011480129
19	0xbb873db8	-0.0041272305
20	0xbd68ab5f	-0.056804057
21	0xbd4dac12	-0.050212927
22	0xbd9090fd	-0.07058904
23	0xbd6d2cea	-0.05790416
24	0x3c0f0948	0.00873024
25	0x3d8d7b85	0.06908325
26	0x3d08323c	0.033251032
27	0x3d72c4f5	0.059269864
28	0x3ca4a729	0.02009924
29	0xbd1a4081	-0.037659172
30	0xbb94bfac	-0.0045394506
31	0xbbe58e26	-0.007005471
32	0xbd617dea	-0.05505172
33	0xbd90c70d	-0.07069216
34	0x3c81b294	0.015832223
35	0x3d89afd5	0.067229904
36	0xbd04b543	-0.032399427
37	0x3ce09d52	0.027418766
38	0xbcc62afe	-0.024190422
39	0xbcb36e6d	-0.021903241
40	0x3d9df6a2	0.07713057
41	0xbdc4eaec	-0.0961512
42	0x3d15a11f	0.03653061
43	0x3c87832d	0.016542042
44	0xbd966434	-0.07343331
45	0x3cdfcc84	0.0273192
46	0x3d848f5b	0.064726554
47	0x3d53bcc9	0.05169371
48	0x3cc98882	0.024601225
49	0xbc20d8b2	-0.009817289
50	0x3ca2bd55	0.019865671
51	0x3da0cd1a	0.0785162
52	0xbcc43d4f	-0.023955015
53	0xbd945c70	-0.072441936
54	0xbcc309aa	-0.02380832
55	0xbd2f21eb	-0.042756956
56	0xbbd37db8	-0.006454196
57	0x3cf07f6c	0.029357634
58	0x3ce3660c	0.02775862
59	0x3d945de4	0.07244471
60	0xbdbbc52c	-0.09168467
61	0xbd232e53	-0.0398391
62	0x3d081568	0.03322354
63	0xbd36c60b	-0.044622462
64	0xbcbc8061	-0.023010435
65	0x3dab0b68	0.08351785
66	0xbd19cdcd	-0.037549783
67	0xbde84b08	-0.11342436
68	0xbd2fe2cd	-0.042940903
69	0xbd67ec06	-0.056621574
70	0x3cac0c54	0.021001972
71	0xbdca2b4f	-0.09871542
72	0xbd9ee71d	-0.07758925
73	0xbd571a0b	-0.05251507
74	0xbb243e3d	-0.002506151
75	0xbd3186e3	-0.04334153
76	0xbd85c145	-0.06531004
77	0xbcab45d3	-0.020907318
78	0xbc92895e	-0.017887767
79	0x3abab334	0.001424408
80	0xbd1d729c	-0.03843938
81	0xbd5fe170	-0.054658353
82	0xbd84ac8d	-0.06478224
83	0xbc4a15d1	-0.012334303
84	0xbb32d2e8	-0.0027286354
85	0x3d6e353d	0.05815624
86	0xbd172d11	-0.036908213
87	0x3cb9a756	0.0226628
88	0xbc926574	-0.017870642
89	0x3d34b283	0.044115555
90	0xbccac768	-0.024753287
91	0x3d506951	0.050881688
92	0x3c9689aa	0.01837619
93	0x3d0f4006	0.034973167
94	0xbce861f4	-0.02836702
95	0xbd858a57	-0.06520527
96	0x3d5981a8	0.053102165
97	0xbd6ab61b	-0.057302576
98	0xbd54d736	-0.051963054
99	0xbd6182be	-0.055056326
100	0xbd0dac0f	-0.034587916
101	0x3d4c260b	0.049840968
102	0x3d23fb30	0.040034473
103	0xbd2964ae	-0.04135578
104	0xbb6d8738	-0.0036243927
105	0x3da0d3ad	0.07852874
106	0xbc731ebc	-0.014838871
107	0x3c6e6963	0.014551493
108	0xbbae0328	-0.005310435
109	0x3d3ed9aa	0.0465943
110	0x3d86ec72	0.06588067
111	0xbd1357f5	-0.035972554
112	0x3bab016b	0.005218675
113	0xbca1a428	-0.019731596
114	0x3cabd428	0.020975187
115	0xbd987e20	-0.074459314
116	0x3d689045	0.05677821
117	0x3d396be8	0.045268923
118	0xbd694a92	-0.05695588
119	0x3cce10d6	0.025154512
120	0x3ca218a3	0.019787138
121	0xbb792ac6	-0.003801988
122	0x3d695688	0.05696729
123	0xbd90683f	-0.07051133
124	0xbd83801a	-0.06420918
125	0xbbb2748a	-0.0054460214
126	0x3d8c8095	0.068604626
127	0x3d138c56	0.036022507
128	0xbcfa06dc	-0.030520849
129	0xbbe3681a	-0.0069399
130	0xbcb2fd45	-0.021849284
131	0x3c966a3a	0.0183612
132	0xbcae183b	-0.021251788
133	0x3d161026	0.036636494
134	0xbd3437d2	-0.043998547
135	0x3d27ab88	0.04093507
136	0x3b3b8239	0.0028611554
137	0xba3f1c66	-0.00072903035
138	0x3c91f375	0.017816285
139	0xbd0153a1	-0.031573895
140	0xbbde79c9	-0.0067894203
141	0x3cd8483a	0.026401628
142	0x3c7e939b	0.015538122
143	0x3c542c9e	0.012950091
144	0x3d62875b	0.055304866
145	0xbaff0362	-0.0019455964
146	0x3c2daaee	0.010599835
147	0xbc5d3793	-0.013502019
148	0x3daed6f5	0.085370935
149	0xbc5a81e8	-0.013336636
150	0x3cb71221	0.022347512
151	0x3cf8acdb	0.030355861
152	0xbd14194b	-0.036156934
153	0x3d82b963	0.06383016
154	0x3d3039d7	0.04302391
155	0xbd06218b	-0.032746833
156	0x3d118dda	0.03553567
157	0xbc2c075d	-0.010499802
158	0xbd55868d	-0.05213027
159	0x3d25cadd	0.04047667
160	0xbd7948bb	-0.060860377
161	0xbd259721	-0.04042733
162	0xbd4378bf	-0.047722574
163	0xbccc34ec	-0.024927579
164	0xbd44b36f	-0.048022684
165	0x3cf80a82	0.030278448
166	0xbd3b4f52	-0.045729943
167	0xbd8ad4b8	-0.06778854
168	0xbbb1858c	-0.0054175314
169	0xbd7b0854	-0.06128724
170	0xbd802357	-0.062567405
171	0xbd0c6949	-0.034280095
172	0xbcd6f346	-0.026239049
173	0xbb96a722	-0.0045975605
174	0x3d0a2e3e	0.033735506
175	0xbcbd03b5	-0.023073057
176	0x3d08521c	0.03328143
177	0xbc932210	-0.017960578
178	0x3bcdfb7a	0.006286082
179	0x3d2e5e39	0.042570326
180	0x3c91f45d	0.017816717
181	0xbbf913f4	-0.0076012556
182	0xbd95a729	-0.07307274
183	0xbc93fc36	-0.0180646
184	0xbd26b097	-0.040695753
185	0xbd5ce3a4	-0.053928033
186	0xbdbdb491	-0.09262956
187	0xbd47d52a	-0.048787273
188	0x3cdc2185	0.026871452
189	0xbce3ce2f	-0.027808277
190	0x3d89321f	0.06699013
191	0x3d7d6fd7	0.061874237
192	0x3c370349	0.011170217
193	0x3d4e02f6	0.050295793
194	0xbd3adcbb	-0.04562066
195	0x3be88d8b	0.0070969514
196	0x3d9fefb8	0.078093946
197	0x3d198d18	0.037488073
198	0xbd2d74f1	-0.042347852
199	0x3c91b5a8	0.017786816
200	0x3d3f8edf	0.046767112
201	0x3d258ecb	0.04041938
202	0x3b836200	0.0040094852
203	0xbcfa92c6	-0.030587565
204	0x3d757721	0.059928063
205	0x3d9cdb10	0.0765897
206	0x3c7197ec	0.014745694
207	0xbceb9cb9	-0.028761255
208	0x3d85c211	0.06531156
209	0x3d055135	0.03254815
210	0xbd5c810b	-0.053834002
211	0x3c356a80	0.011072755
212	0xbd36be21	-0.044614915
213	0x3db90f0d	0.09036074
214	0x3cfe8802	0.031070713
215	0xbd217a0c	-0.039423034
216	0x3d40f9b7	0.047113147
217	0x3c11cf52	0.008899527
218	0xbd1e8fdd	-0.038711417
219	0x3d6f6ebe	0.05845522
220	0xbd124b4c	-0.03571634
221	0xbd1c8dde	-0.038221233
222	0x3ca516ca	0.020152468
223	0x3c2f53ae	0.010701103
224	0xbd82c50d	-0.06385241
225	0x3c458664	0.012055967
226	0x3beb197d	0.0071746693
227	0x3d004ecf	0.031325158
228	0xbd1297b4	-0.035789207
229	0xbd9ceb70	-0.07662094
230	0x3d7ebede	0.062193744
231	0xbd66479c	-0.056220636
232	0x3c605b50	0.013693646
233	0xbc8945eb	-0.016756972
234	0x3deccaf9	0.115621515
235	0xbcb1bc26	-0.021696161
236	0xbdf60ee6	-0.120145604
237	0x3d40b2b7	0.047045436
238	0xbd2d5e74	-0.042326406
239	0xbc4a59ee	-0.0123505425
240	0xbdb55272	-0.08853616
241	0x3d88517d	0.06656168
242	0xbd238514	-0.039921835
243	0xbd8bc5a3	-0.068248056
244	0xbdbc4b9e	-0.0919411
245	0xbd782427	-0.060581353
246	0xbc5a5fc1	-0.013328494
247	0xbc38b128	-0.011272706
248	0xbdc12fa4	-0.09432915
249	0xbc649fa9	-0.013954082
250	0x3d9c7d41	0.07641078
251	0x3da9ec82	0.082970634
252	0xbc2e365e	-0.010633079
253	0xbc124c90	-0.008929387
254	0xbd1c9dd5	-0.038236458
255	0xbca2a2c4	-0.019853003

valueHead.0.bias f4 [128]
0	0xbd18fa78	-0.03734824
1	0x3d7c20ff	0.061554905
2	0x3d739b31	0.059474174
3	0xbceb365b	-0.028712442
4	0x3d3fd005	0.046829242
5	0xbd6017cc	-0.054710194
6	0xbd82d046	-0.06387381
7	0x3d8058c6	0.06266932
8	0xbb66643d	-0.0035154962
9	0x3d5125e2	0.05106152
10	0x3d34a2e0	0.044100642
11	0xbd569262	-0.052385695
12	0x3bc2ed08	0.0059486665
13	0x3c84efcb	0.016227623
14	0xbc8b5455	-0.017007986
15	0xbc3507de	-0.011049239
16	0x3d3fb520	0.046803594
17	0x3a1a0482	0.00058753055
18	0xbd58fc65	-0.052975077
19	0x3d4d4995	0.050119
20	0xbd2de110	-0.042450964
21	0xbc0e3f6f	-0.008682116
22	0xbd077c9f	-0.033077832
23	0xbd7d5a1a	-0.061853506
24	0x3bb60536	0.0055548204
25	0x3ccd560f	0.02506545
26	0x3d8bf1e2	0.06833245
27	0x3d20681f	0.039161798
28	0x3ce88632	0.028384302
29	0x3c041428	0.008061446
30	0xb9048bb6	-0.00012640547
31	0x3d5ad1db	0.05342279
32	0x3d83ec3c	0.064415425
33	0x3c6bd72b	0.014394562
34	0xbd4dc551	-0.050237004
35	0xbc84ebe4	-0.016225763
36	0x3a705f42	0.0009169468
37	0xbd6b36d0	-0.05742532
38	0xbcfa9c82	-0.030592207
39	0x3a3e5db9	0.00072618906
40	0xbc88e154	-0.016709007
41	0x3b25ba71	0.002528813
42	0x3ca6ebca	0.020376105
43	0xbd177a3f	-0.036981817
44	0x3d2161a7	0.03939977
45	0xbd85be5e	-0.0653045
46	0xbd1e7450	-0.038685143
47	0x3d85039d	0.0649483
48	0xbd5c520b	-0.05378918
49	0xbc8b9346	-0.017037999
50	0xbcecfc34	-0.028928854
51	0x3d579479	0.05263183
52	0xbd3961f7	-0.045259442
53	0xbd5e4193	-0.054261755
54	0xbd9372dd	-0.07199643
55	0x3d3f5d04	0.046719566
56	0x3cb7a0df	0.022415577
57	0xbc7f8a8f	-0.015597
58	0xbc75c87c	-0.0150014125
59	0xbd0f254f	-0.03494769
60	0x3d79d491	0.060993735
61	0xbb0547bb	-0.0020336944
62	0xbc48718a	-0.012234101
63	0xbd896d2e	-0.067102775
64	0x3d8ff8d3	0.07029881
65	0xbc1de5b5	-0.009637286
66	0x3d1400b7	0.036133494
67	0x3d4cc731	0.04999465
68	0xbd1694f2	-0.03676314
69	0xbd641518	-0.05568418
70	0x3cdd37c9	0.02700414
71	0xbc7f13f5	-0.015568723
72	0x3c8fa0e5	0.017532775
73	0x3c7a5390	0.015278712
74	0x3d90daab	0.070729576
75	0x3d5fef71	0.05467171
76	0xbc4737ec	-0.012159329
77	0x3d7424cf	0.059605416
78	0x3d80c43e	0.0628743
79	0xbc469f17	-0.012122891
80	0x3d8cf097	0.06881826
81	0x3d6b9bd1	0.057521645
82	0xbd50aa24	-0.05094351
83	0x3d594782	0.05304671
84	0xbd966d67	-0.073450856
85	0x3c7886fc	0.0151689015
86	0xbd7436f5	-0.059622724
87	0x3da3ec11	0.080040105
88	0xbd45bb92	-0.048274584
89	0xbd554471	-0.052067224
90	0x3ce7812b	0.028259834
91	0x3d86addc	0.0657613
92	0xbd5dc152	-0.054139443
93	0x3d8e5ddf	0.06951498
94	0x3d481dfe	0.048856728
95	0x3d7226f6	0.059119187
96	0xbd8e34a6	-0.06943636
97	0x3da32b37	0.07967227
98	0xbd30b033	-0.043136787
99	0xbd00270d	-0.03128724
100	0x3d353fa2	0.044250138
101	0xbcea62a6	-0.028611492
102	0xb9eb7a9f	-0.00044914053
103	0xbbe3a7ef	-0.0069475095
104	0xbbc20e08	-0.005922083
105	0x3d874059	0.0660407
106	0xbd654e3e	-0.05598282
107	0xbcc063ca	-0.023485083
108	0xbd662d03	-0.05619527
109	0x3d4c1473	0.04982419
110	0xbbfa1c2d	-0.0076327533
111	0x3d6c1e84	0.05764629
112	0x3cd16ccc	0.025564574
113	0xbd281c26	-0.04104247
114	0xbcd1a274	-0.025590159
115	0xbb9fe0d7	-0.004879098
116	0xbd25e652	-0.040502854
117	0x3d83cc94	0.064355046
118	0xbb0717c5	-0.0020613533
119	0x3d9c2a1c	0.07625219
120	0x3a7c46e8	0.0009623603
121	0xbd8fb22e	-0.07016407
122	0x3c8b9386	0.017038118
123	0xbc7bb953	-0.015364009
124	0xbd48d3c2	-0.049030073
125	0xbd127fb3	-0.035766315
126	0x3ca9d984	0.020733602
127	0x3d5a83ef	0.053348478

valueHead.1.weight f4 [128]
0	0x3f7f9554	0.9983723
1	0x3f8418c9	1.0320064
2	0x3f8012ca	1.0005734
3	0x3f801563	1.0006527
4	0x3f8041a2	1.002003
5	0x3f80cc2c	1.0062308
6	0x3f7e4b84	0.9933398
7	0x3f82df8d	1.0224472
8	0x3f867975	1.0505816
9	0x3f84c68a	1.0373089
10	0x3f816557	1.0109051
11	0x3f7f952e	0.99837005
12	0x3f8221f8	1.0166616
13	0x3f7cea3b	0.9879491
14	0x3f7da397	0.99077743
15	0x3f784df5	0.96993953
16	0x3f8487e8	1.0353975
17	0x3f83eb8e	1.030626
18	0x3f80d31a	1.0064423
19	0x3f84a271	1.0362073
20	0x3f86bbe4	1.052609
21	0x3f7c37e2	0.9852277
22	0x3f8670c1	1.050316
23	0x3f809d7a	1.0048058
24	0x3f81c541	1.0138322
25	0x3f835c95	1.0262629
26	0x3f849bbd	1.0360028
27	0x3f8127b4	1.0090241
28	0x3f7bdd8c	0.9838493
29	0x3f81b976	1.0134723
30	0x3f7d51fc	0.98953223
31	0x3f82f779	1.0231773
32	0x3f7ee501	0.9956818
33	0x3f7bb3e3	0.9832136
34	0x3f82471e	1.0177953
35	0x3f800b80	1.000351
36	0x3f851bd8	1.0399122
37	0x3f83f0a4	1.0307813
38	0x3f83119e	1.0239751
39	0x3f7cde8d	0.98777086
40	0x3f816524	1.0108991
41	0x3f82ec4b	1.0228361
42	0x3f81f8ef	1.0154094
43	0x3f7e44c6	0.9932369
44	0x3f785a5f	0.97012895
45	0x3f7d99cb	0.99062794
46	0x3f81d322	1.0142558
47	0x3f81a47f	1.0128325
48	0x3f81b45f	1.013317
49	0x3f84338d	1.0328232
50	0x3f7db02a	0.9909693
51	0x3f7d177f	0.9886398
52	0x3f83c17b	1.029342
53	0x3f84639e	1.0342901
54	0x3f832f85	1.0248877
55	0x3f82a14b	1.0205473
56	0x3f8237d1	1.0173284
57	0x3f829d2b	1.0204214
58	0x3f7ff071	0.9997626
59	0x3f7f3bdf	0.9970073
60	0x3f7f7e4b	0.9980208
61	0x3f8368d9	1.0266372
62	0x3f82cb9f	1.021839
63	0x3f846761	1.0344049
64	0x3f810034	1.0078187
65	0x3f83721d	1.02692
66	0x3f82316c	1.0171332
67	0x3f7d7198	0.99001455
68	0x3f81440d	1.0098892
69	0x3f7f5d39	0.9975162
70	0x3f75b660	0.9598141
71	0x3f845e9d	1.0341374
72	0x3f7df020	0.99194527
73	0x3f834d6a	1.0258
74	0x3f818bb2	1.0120757
75	0x3f7e2b5e	0.99284923
76	0x3f80804a	1.0039151
77	0x3f826a3a	1.0188668
78	0x3f800ce1	1.000393
79	0x3f82aafb	1.0208429
80	0x3f7b231d	0.98100454
81	0x3f80a8f0	1.0051556
82	0x3f7979de	0.9745158
83	0x3f7c60ad	0.98585016
84	0x3f81e342	1.0147479
85	0x3f8390e7	1.0278596
86	0x3f8229f4	1.0169053
87	0x3f83ddc9	1.0302058
88	0x3f7f5590	0.99739933
89	0x3f80d090	1.0063648
90	0x3f83690d	1.0266434
91	0x3f8236ee	1.0173013
92	0x3f806524	1.0030866
93	0x3f7e7528	0.99397516
94	0x3f85f895	1.0466486
95	0x3f8082ae	1.003988
96	0x3f81d422	1.0142863
97	0x3f80cb95	1.0062128
98	0x3f7b5fca	0.9819304
99	0x3f8621f1	1.0479108
100	0x3f7da564	0.9908049
101	0x3f812e2d	1.0092217
102	0x3f8588c0	1.0432358
103	0x3f7fc87d	0.99915296
104	0x3f7fa45f	0.99860185
105	0x3f82c506	1.0216377
106	0x3f82e665	1.0226561
107	0x3f826022	1.0185587
108	0x3f89d3fb	1.0767816
109	0x3f80293f	1.0012587
110	0x3f800238	1.0000677
111	0x3f7d2f0f	0.9889993
112	0x3f7d1ad3	0.98869056
113	0x3f7ce64a	0.98788893
114	0x3f829736	1.0202396
115	0x3f828d23	1.0199322
116	0x3f84bba0	1.0369759
117	0x3f812a3e	1.0091016
118	0x3f7fc8d6	0.99915826
119	0x3f800e28	1.000432
120	0x3f81f785	1.0153662
121	0x3f7eec91	0.9957972
122	0x3f832c0e	1.024782
123	0x3f823587	1.0172585
124	0x3f8235f6	1.0172718
125	0x3f7d39a4	0.9891608
126	0x3f806d85	1.0033423
127	0x3f7d04ac	0.98835254
