MachiKoro/Models/version_5_model_1.pt (torch, 469394 bytes, 12 tensors)

policyHead.0.weight f8 [128, 155]
000000 6d fa 8a e8 8e 27 98 3f e7 cd 54 87 a5 ef a0 3f
       0.023588402694026223 0.0330783584307957
000010 11 70 29 d9 c3 76 97 bf ec e0 fc 7d 4c ca a9 3f
       -0.022913990144260824 0.05037154233872507
000020 ac 44 d8 e3 82 0f a3 3f 44 c4 02 7a 36 f7 b2 3f
       0.03722771674450462 0.07408466795711016
000030 d8 e3 ff a2 34 5a a1 3f 2a 67 29 2f e0 0c 75 bf
       0.0338913392042241 -0.005139232368117233
000040 34 45 90 1a 37 a6 a8 bf 59 ec 66 df 92 a8 a4 3f
       -0.04814312171232374 0.04034861542773944
000050 a6 16 50 b0 a1 9d b3 3f 70 81 8b 3f 29 ae a3 3f
       0.07662401728165466 0.03843811894126048
000060 b9 c6 82 08 a2 88 b3 3f a6 60 3b 37 34 17 7d 3f
       0.07630360324653908 0.007102207153103423
000070 03 37 55 2c 73 cf b0 3f 47 9d 4d 3c 67 79 97 3f
       0.06566543419213748 0.02292405419885071
000080 a0 27 23 c2 e7 66 b4 bf b4 69 af 2b 47 5d 9b 3f
       -0.07969521035843607 0.026723014870961584
000090 0b cf 8d 71 93 85 a1 3f 97 3d 5a 2a 63 c9 89 bf
       0.034222228633465766 -0.012591147165294454
0000a0 2e 2c cd c5 5e e9 a4 bf 1f 8d 5e 21 4f b9 a4 bf
       -0.04084297337120578 -0.04047629625645243
0000b0 01 2d 86 02 89 d4 a9 3f 29 e2 b4 29 8c c6 a9 bf
       0.050449639852638846 -0.05034292229760624
0000c0 13 e9 58 bd 73 89 af bf da 74 45 6a 22 63 86 3f
       -0.06159555136078345 0.010931271427291046
0000d0 6f 63 4b 04 65 bd ab bf 26 86 d9 c6 2a 6c 75 3f
       -0.054179341100911375 0.0052301093070084344
0000e0 f7 2d ef 29 fe ac a0 3f 9d 59 02 41 43 14 ac 3f
       0.032569830531055936 0.054842092214289574
0000f0 a7 5d 13 95 0b 39 a7 3f b6 80 b4 dc f7 f1 9d bf
       0.045357095668517027 -0.029243347974557486
000100 1e c3 29 5a 90 99 99 3f 01 7a 34 25 50 9a 7b bf
       0.02499986219703764 -0.006738961284354251
000110 2b 6d 01 fb 8d 98 b0 bf b3 f0 b3 66 07 c8 91 3f
       -0.06482779863420222 0.017364612239348442
000120 e6 5c 73 6e 72 1d b1 bf f5 34 3a 57 2b 89 ab bf
       -0.06685557552860963 -0.05378089370524634
000130 4f 7b c8 5c 47 3b b3 3f bc 15 e9 61 93 08 97 3f
       0.07512327208722279 0.022493651247960975
000140 31 d4 3d 08 58 15 63 3f 72 e3 57 97 f4 5c ab bf
       0.002329513490560341 -0.05344356868221824
000150 70 c2 b9 bd b6 32 69 3f 27 b3 ab 54 b1 71 a6 3f
       0.0030759400522629085 0.04383615645006094
000160 01 0f f8 72 63 24 ae 3f 18 bf f5 75 7c 78 41 bf
       0.058871372017192065 -0.0005331618994386137
000170 ff 96 64 cd 40 90 70 3f db bf 25 b6 c4 83 aa 3f
       0.004043820509002093 0.05178656314353677
000180 76 18 a6 cb f9 5f 97 bf 29 92 56 f1 e6 57 94 3f
       -0.022827055983292564 0.019866569976914192
000190 9e 77 45 de f7 7c b3 3f 2e 46 21 1b 98 ca a7 bf
       0.07612561394259251 -0.046467545806660446
0001a0 3d 81 4c 8c 4b 37 a2 3f 57 9b 45 ca a9 f8 99 3f
       0.035578118206333255 0.025362637491891018
0001b0 f1 1c e8 e7 22 06 72 bf 55 41 d1 e2 a4 d8 8f 3f
       -0.004400383330455102 0.015549934551160641
0001c0 32 63 18 34 ca f7 92 bf 1a 7c 25 a2 79 71 ae 3f
       -0.01852336829151397 0.0594594965393684
0001d0 c0 11 e1 8a ff 25 b2 bf c4 f0 73 d3 c0 5d b0 bf
       -0.07089230671505842 -0.06393056070732245
0001e0 67 6a ee 5c 39 cc a4 3f a8 3a 19 e5 72 84 a6 3f
       0.040620606035379585 0.043979254213458774
0001f0 c6 a2 2e e8 a6 8a 4d 3f 8b 90 bc a4 70 62 98 3f
       0.00090153836969361 0.02381301885101598
000200 07 ab 0c 5a 0a 7b b0 bf 42 7f 60 cd 46 41 79 bf
       -0.06437744806741473 -0.0061657682145151455
000210 bf 07 a1 fa 1b 91 9c 3f 7f c2 18 72 61 6e b2 bf
       0.02789729802339713 -0.07199677501263045
000220 3f df 97 8d bd 99 b0 bf c9 09 a3 16 d7 a0 a8 bf
       -0.06484589297167263 -0.048102113259591635
000230 90 ba 93 7e 3f 84 99 3f 71 83 f4 68 9b c3 a0 bf
       0.02491854867997262 -0.03274236351194915
000240 ad 29 3b 74 ad 64 b2 bf 2a de 95 d3 46 dd 93 3f
       -0.07184871757195906 0.019398790992879146
000250 84 56 c3 9f 72 ac 80 bf b4 c1 af 3f 2e d2 b3 3f
       -0.008141417980748196 0.07742585234496496
000260 18 cb 28 34 66 e3 b0 3f bb 10 13 25 5d 0f b3 bf
       0.06596983693524938 -0.07445318369997526
000270 be 82 f9 13 84 be b3 bf 0e ff d1 5f 9a 30 b1 bf
       -0.07712579238569625 -0.06714787330019709
000280 c5 e0 f1 1c 6b dd a8 3f 44 76 65 10 b3 72 82 3f
       0.04856428840952413 0.009007834375263653
000290 a1 f0 dd fd 6b 4c ab bf bc e3 e5 8f 48 65 a5 3f
       -0.05331742738687351 0.041788356366800866
0002a0 4a 31 c1 99 03 92 99 bf f1 57 09 6d 64 d2 a0 3f
       -0.024971061953963848 0.03285516577732029
0002b0 12 8a 08 90 ea 63 ad bf 0a 06 9a 30 a2 4f ae 3f
       -0.057402925569722055 0.059201305802172824
0002c0 7c dc 09 b7 44 ff a4 bf cd a7 63 7e cb 27 b3 3f
       -0.04101004347187939 0.07482597194362413
0002d0 64 6c 8a fd 22 67 b4 bf 9f be 14 3c 08 d5 ad 3f
       -0.07969874086340806 0.05826593144808822
0002e0 1a 80 d4 9b e3 36 56 3f 32 b6 ed 1c 4e d3 a4 bf
       0.0013558600179024495 -0.04067463019496777
0002f0 71 23 ac 13 ff a3 b0 3f 7a da 8f b8 57 4b b4 bf
       0.06500238638194646 -0.07927463775545532
000300 f4 8c df 99 2c 13 a5 bf 82 78 4d 96 c8 cf 9f bf
       -0.04116191271148209 -0.031066068814987087
000310 e1 9b 6d dc 81 da 96 3f a0 29 36 14 8e 74 60 bf
       0.022317914084307836 -0.002008702753021299
000320 b1 f7 a1 aa ef 79 ae bf e4 f3 0d ed b7 0a 96 bf
       -0.05952404935759093 -0.021525262683542837
000330 31 7b 3e 4c 6c d9 a2 3f cb e5 bf 29 bd 86 92 bf
       0.03681505614007675 -0.018092113183205954
000340 7f d7 b2 d6 5f a0 a4 3f 07 a9 67 47 8e f4 aa 3f
       0.04028605933983353 0.05264706250803113
000350 0c bc 08 53 50 e1 b0 bf dd cf 14 db ce 1c a7 bf
       -0.06593801524353199 -0.04514166282970653
000360 55 78 0f 8d 9d 67 91 3f 7f bb df 37 36 ac a8 3f
       0.01699682401146448 0.048188871689368355
000370 45 dd 37 55 a3 e0 a0 bf 8d ac 60 db dc 77 b4 bf
       -0.03296385207425571 -0.07995395999812356
000380 35 a4 e2 36 74 88 b1 bf e4 fe c2 c8 15 65 a7 bf
       -0.06848837223027789 -0.04569309306816452
000390 95 43 1e 29 0f 3c b0 3f 7a 94 16 87 aa d7 8b 3f
       0.06341643098700296 0.013594944236340323
0003a0 2d e3 1c f1 ab 61 81 3f e5 ea 12 00 57 07 b4 3f
       0.008487075133972144 0.07823699714473838
0003b0 49 ef 12 c5 76 c9 79 3f f3 eb 8a ce 15 3e a9 3f
       0.006295646614656488 0.0493017973544382
0003c0 19 d2 de d1 06 75 a4 bf 83 db 38 6a e3 78 b0 3f
       -0.03995534240621996 0.0643446096736238
0003d0 14 bb 41 df 6a 09 92 bf 5c 3a 9c 6e 66 28 b2 3f
       -0.017614049793731004 0.0709289569897264
0003e0 8e df ea 4f e6 0c b0 3f 18 1b 37 18 e7 7e b2 bf
       0.06269683314428517 -0.07224888173287203
0003f0 6b 27 02 33 eb 9b a3 3f 3a 4f cd c8 02 63 b1 bf
       0.03829894063626579 -0.06791703607933366
000400 45 8e 64 b0 73 6b b3 bf aa e3 a6 11 45 48 b2 3f
       -0.07585833603348487 0.07141524964289539
000410 47 f5 bb 04 21 e5 62 3f 07 d5 09 cd e9 53 a3 3f
       0.0023065228359643616 0.037749582556822196
000420 7e 64 ef ea 60 c0 a1 bf c1 bf ce f1 ca df a9 3f
       -0.03467085712299765 0.0505355281997022
000430 70 37 aa bc b0 13 90 3f 71 bc 35 de 8b 02 b1 bf
       0.015700112834160007 -0.06644510436102437
000440 dd 3e 05 a1 ab 63 a6 bf 2d 3d d9 b0 f1 81 89 bf
       -0.043729175000974264 -0.012454879960528043
000450 aa 7f 1f 0a 76 0c a8 bf 4c bd ab 7c 67 87 a1 3f
       -0.04697007058689391 0.034236177414522645
000460 29 4e 5a ae 0d 16 85 3f 2d 6c f5 20 88 13 8c bf
       0.01029596985180266 -0.013709128862208509
000470 c6 52 7c e9 04 02 8a 3f 23 2b c5 f4 7b 96 96 bf
       0.012699163794914436 -0.022058426680170783
000480 21 6e ec 52 32 24 a9 3f 7f af ef ec 02 07 a0 3f
       0.04910428297281678 0.03130349294937584
000490 1f 6b 63 17 a9 2f 84 bf 62 3f 3b dd 15 ac 7b 3f
       -0.009856530214553736 0.006755910307859244
0004a0 1a ca eb bd 7b fe 70 3f ad 75 31 d8 1b e3 b2 bf
       0.0041489442507889555 -0.07377790477899877
0004b0 3d 2e e0 59 90 dd 96 3f da d5 a5 12 19 0d b4 3f
       0.02232957409436963 0.07832485871570985
0004c0 2e 09 f4 c7 45 a0 a6 bf 19 d9 8d aa d8 2b a8 3f
       -0.044191532762868455 0.04720952112158922
0004d0 52 54 3d 86 b9 7b 8d bf 39 c1 01 b4 cd 85 86 bf
       -0.014396142396131992 -0.010997397476075409
0004e0 51 99 76 ad de e0 9a 3f 62 49 4f f9 49 59 aa 3f
       0.026248435342176638 0.05146247070628608
0004f0 9f ca a3 a0 34 6b b2 3f b2 3a 54 a4 81 b3 b2 3f
       0.0719483272730863 0.07305155050219517
000500 98 57 0a a2 84 a5 90 3f 66 b5 e6 6e 28 04 a7 bf
       0.016256401434098317 -0.04495359758162003
000510 4e 75 40 4f 3f a5 a2 3f 47 5e 6e c7 50 72 9d 3f
       0.036416986870089305 0.02875639168959612
000520 a1 f9 6f 7a e1 15 a4 3f eb 85 b4 6a e0 97 b4 3f
       0.03922943706128313 0.08044245343310023
000530 2b b8 70 e1 13 a6 b6 3f 16 ff b8 ad 20 ba b1 3f
       0.08847164396203826 0.06924633256221244
000540 e8 2f 5e ac 5c 5d a4 bf b1 fb bd d8 06 89 ad 3f
       -0.03977479557133262 0.057686056096819434
000550 48 95 5a fb ac 5b a6 bf 92 1d ba ba 9a 96 9a 3f
       -0.04366818016323265 0.0259651352376103
000560 16 8b e3 3c 0e be af 3f eb a6 29 03 f2 7c 83 bf
       0.06199688428184495 -0.009515658113019984
000570 2d 24 e0 e8 48 2f a6 3f a4 20 a8 d5 cc d9 74 bf
       0.043329504420462996 -0.005090522894995928
000580 ea d4 a0 47 f4 04 91 bf e3 29 12 d5 d7 f2 b7 3f
       -0.016620461341706617 0.09354924156119852
000590 10 ac 1b 51 5b 31 b0 3f 33 a8 3b cb 37 4c b5 3f
       0.06325312357118684 0.08319424354309106
0005a0 32 67 4c 75 54 5f a9 bf d5 df c0 f9 00 74 89 bf
       -0.04955543453088608 -0.012428290960187308
0005b0 2f 87 d8 7b 57 66 a5 3f 1d 21 9f 10 8a 90 b6 3f
       0.041796430461785376 0.0881429949359966
0005c0 bf 1f b3 4c cb 2a 80 3f f0 2e b7 26 76 57 ae bf
       0.007894123342694457 -0.05926102850534487
0005d0 ae 2f ad c0 99 91 aa 3f 5d 1f c0 a4 0b d4 ae bf
       0.051892094392854346 -0.06021152864565125
0005e0 14 be be 6b e2 f2 b5 3f bc fe 29 34 db 56 96 bf
       0.0857373726892024 -0.02181570535549214
0005f0 fd 0b 21 30 17 13 9d 3f 91 cf 2f d2 06 56 ad 3f
       0.028393137276236036 0.05729695621258125
000600 f9 61 be ff 46 7d 61 bf cd a3 ce 1d 94 a9 af bf
       -0.0021349322032160304 -0.061840656889507885
000610 c4 f6 22 a8 e9 f2 92 bf 14 4c 13 8f 8d 40 a6 3f
       -0.018504763495676327 0.04346125003362303
000620 96 a3 d0 6f 3f 74 b1 3f 53 3b 0e fb 48 0e b6 3f
       0.06818005065782837 0.08615547303473407
000630 1b c5 ee c4 5a 15 ac 3f 20 2c 5e 27 13 29 b8 3f
       0.05485042242015422 0.0943767520058576
000640 2d d9 33 57 5b 6e 9b 3f aa 11 c5 66 ab 41 b2 3f
       0.026788165280742838 0.07131453761127796
000650 b2 79 f6 e7 fe 50 b0 3f 19 71 0c ec 07 6a a5 3f
       0.06373589671281968 0.041824576916243035
000660 f7 9d 8f 38 e0 5c 9b bf 15 bf f5 ab 7e 48 af bf
       -0.02672148080082867 -0.06109996651764341
000670 f8 c1 29 73 fa b4 8e 3f e7 8b 9e 77 f8 2a 52 3f
       0.014993626250743283 0.0011088777959933295
000680 ca 88 81 82 a5 71 a4 bf 90 60 28 3e 40 8d b2 3f
       -0.03992955415812245 0.07246781842730088
000690 75 85 e7 c4 a4 07 90 3f ac 1c e5 6f 29 2f ad bf
       0.015654158132638558 -0.05700044146447544
0006a0 f8 0f 7a aa dc af 9b 3f 3b 3e fd e1 b2 fa 78 bf
       0.02703804770000315 -0.006098459969350818
0006b0 01 c8 49 51 30 68 b1 bf ee c7 91 c9 c0 c8 aa bf
       -0.06799604401183502 -0.05231287441792164
0006c0 2f 8f f3 02 71 f1 af bf b4 6b 5c 93 26 90 aa 3f
       -0.062388927088049655 0.051881032455831116
0006d0 36 5c f4 2a b5 da a5 bf 48 2c ca ef b6 f1 9b bf
       -0.04268423222873034 -0.027289255509952676
0006e0 d3 61 3b 5b 98 1a b3 bf 37 9b 1d f8 66 6d a0 3f
       -0.07462455966322716 0.032084672725253
0006f0 a0 0d 1f ba 9d a1 83 3f 82 dc 6b ca 4a 75 af 3f
       0.009585602037879337 0.061441743096957616
000700 42 df 18 80 ea ac 60 3f e1 f4 1e 5b 6c c1 93 3f
       0.0020355777822053398 0.01929253870161041
000710 db b1 ff 81 d2 d7 b1 bf 9f 00 c7 e9 f9 47 ab 3f
       -0.06969943689154638 0.0532835100052591
000720 36 a6 0c 61 19 4b ac bf 7c 4d ed a2 8b 5f ab 3f
       -0.05526046094594188 0.05346332897047554
000730 83 47 ed 53 70 58 77 bf d6 2a 4f fa a3 3f b0 bf
       -0.005699576168653911 -0.06347107754769907
000740 ee e7 15 96 eb bd a1 bf c9 8f f5 52 5b 39 80 3f
       -0.03465210158442732 0.007921899289335859
000750 2d cf 1d d9 e7 55 a3 bf de a8 3d db 0a 72 1d bf
       -0.037764783147308335 -0.00011232558500543245
000760 5c 96 1b 1d f7 99 b2 bf a5 2f a8 90 8d 2e a5 3f
       -0.07266182385100123 0.0413707961161827
000770 d4 51 1b 26 8d ab a4 3f 7f 97 7a 87 a2 ef 96 bf
       0.04037133302850618 -0.022398509520506146
000780 5e f4 fe 5b e6 66 b3 3f cb 7c 38 ab 6c 12 2c bf
       0.07578887697214173 -0.00021417213939487473
000790 73 d3 e7 e3 aa 5b a8 bf 1c 6f e8 35 b7 ac 94 bf
       -0.04757436782884996 -0.02019010798004138
0007a0 23 9c 0c c0 8a 31 9b bf 84 1b 2c 20 f3 cc ad bf
       -0.026556175204998433 -0.05820426719406327
0007b0 88 f1 96 d8 3f 6b a1 bf cb b0 1c f1 e1 17 91 3f
       -0.03402137297550484 0.016692667332947757
0007c0 8a f9 70 36 5e 71 a6 bf 16 ae 93 a9 ba 19 a7 3f
       -0.043833679338138046 0.04511817283659185
0007d0 cb ea bd b7 47 40 77 bf 30 e1 b3 e7 3c 70 b5 3f
       -0.005676536700657218 0.08374386460116479
0007e0 89 7b 5f da c0 02 a1 bf d3 c2 a3 05 8f 10 88 bf
       -0.03322413125692154 -0.011750333175286986
0007f0 93 56 98 cf 3f f1 af bf 2b dd f3 a2 79 8c b3 3f
       -0.06238746079558868 0.07636223057112505

policyHead.0.bias f8 [128]
000000 17 1a 73 f6 f6 a8 8c bf 2a 3a 0a 04 31 ac 95 3f
       -0.013994149585767208 0.02116467082174204
000010 c6 28 ec db ad 6a b0 3f bc a0 d1 6e b1 11 af bf
       0.06412779444886771 -0.06068186261910699
000020 a4 6c bc 1d c4 bf 95 3f 02 20 0f 04 6b a1 92 3f
       0.02123934203619328 0.018193885920283044
000030 90 34 cb 8d ec 36 a3 bf d6 12 67 23 5f fa 98 bf
       -0.037528412159738456 -0.024392591987424016
000040 b6 f2 ab 8b 0d e9 99 bf e5 39 e8 f1 50 e6 96 bf
       -0.02530308880794748 -0.02236296154483765
000050 36 c1 bd cc fa c0 aa bf b4 51 89 95 31 aa 97 3f
       -0.05225356816561304 0.023110174896218985
000060 ee b2 d8 11 32 b4 9d 3f 6a e9 c4 6c 83 ee 9a 3f
       0.029007704104674063 0.026300481332535076
000070 95 32 08 18 ad a3 a1 3f 20 b8 1c c2 bc c6 a2 3f
       0.034451874908062376 0.03667249555142882
000080 c0 e4 0c 15 53 97 a6 bf 3a 64 b3 e5 63 18 b0 bf
       -0.044123264617562 -0.06287216527870579
000090 d0 60 85 f9 4c 13 a3 3f 8a 39 c5 49 5f 29 70 bf
       0.03725662752066372 -0.0039457056230517516
0000a0 3c 61 98 7d 77 0a 99 bf 88 54 4e 23 53 11 b1 bf
       -0.024453990021443092 -0.06667060481989229
0000b0 fa ae 3b e8 34 01 9a 3f 6b 86 c7 6d 35 2a af 3f
       0.025395228075395494 0.060868901873402624
0000c0 ba f2 50 c3 24 07 88 bf 69 ff 7d 8b 28 09 af bf
       -0.011732375345780855 -0.06061674788270361
0000d0 92 93 aa ed 23 7e a3 bf 82 e9 2c 2d 60 a9 ac bf
       -0.03807174946022153 -0.05597973395784363
0000e0 8b b8 4b d1 c2 3e b1 3f d1 51 92 ab ab 25 8b bf
       0.06736390695343368 -0.013255444692085757
0000f0 f2 66 81 0c fb 9a 81 bf cc 7e d7 bc c1 e3 91 bf
       -0.008596383399140237 -0.017470385695445498
000100 b4 a5 46 7c e4 14 b1 3f b6 54 d0 d0 01 3d 8f 3f
       0.06672504457551193 0.015253080544463376
000110 55 44 b6 fc 38 4e b4 3f c5 dc ca c6 af 5c 98 bf
       0.07931858224607542 -0.02379107142288885
000120 bb ae 0c b7 68 5b b5 3f 81 c8 1a dc 6c b2 b2 3f
       0.08342604130728663 0.07303505300186154
000130 46 ee da 61 12 dd a3 3f d7 ab 49 4a 42 76 92 3f
       0.03879601902505363 0.018029247078100354
000140 73 a4 02 3e 68 5f b1 3f cd fa 2a ff 63 2b b7 3f
       0.06786204828189728 0.0905058382004242
000150 32 bd 1e f6 d7 af b0 bf fd c0 bc 1e 7c a3 b1 bf
       -0.06518316038885955 -0.0689008307497296
000160 ae f4 cc fa a5 b2 2d bf 06 84 c7 28 9e 77 70 bf
       -0.00022657657737027353 -0.004020326432937265
000170 9f e3 6c 93 ff 79 a8 3f 50 6c d1 85 57 d8 99 bf
       0.04780577349305947 -0.025239341299635065
000180 20 17 63 82 1f e6 a8 3f d2 56 55 37 49 af a9 3f
       0.04863069979323442 0.0501654510541535
000190 f9 d2 2b aa fa 15 b3 3f 83 2c 11 c1 6c 29 b2 bf
       0.07455412535257357 -0.07094459260513201
0001a0 bf af 59 f0 70 74 b1 bf a1 d8 82 c8 74 1b 8a bf
       -0.06818300121238872 -0.012747681016076763
0001b0 70 9c 0f 40 e5 c6 b1 bf f7 24 df c4 26 85 b1 3f
       -0.06944115461338796 0.06843797975956877
0001c0 a7 fd ea 33 f4 d7 94 bf 87 64 3e 0f 7f c8 b2 3f
       -0.02035504881746211 0.07337183115159195
0001d0 d5 f7 02 d8 e5 55 88 bf 69 71 1d b6 39 22 a5 bf
       -0.01188258710351057 -0.0412767443474163
0001e0 d6 5b f9 85 67 69 ad bf 47 6b 34 51 ba 54 95 bf
       -0.05744479666162021 -0.020831023413033802
0001f0 3a 32 dc 95 2f 05 97 bf ad 44 4c 01 7c 33 96 3f
       -0.02248072006391253 0.02168077238008397
000200 d3 85 46 3e 88 08 8a bf 94 61 2b e8 2a 05 b3 bf
       -0.012711586380478678 -0.07429760139655733
000210 38 7c 72 cf 40 24 82 3f 31 25 92 f4 c2 16 b3 3f
       0.008858209925447821 0.07456606360405683
000220 bc 0d 0f fb bb a5 b7 3f 69 54 ac 2c ff 55 98 bf
       0.09237265471806827 -0.02376555166400288
000230 da a9 f1 c6 a7 f9 a2 bf 2e 57 d3 28 80 00 a9 bf
       -0.037060969386249545 -0.04883194444998505
000240 3d 35 3a 0e 6c 69 7c 3f cd 41 9d f7 24 0d 8e 3f
       0.006936475841610443 0.01467350845965223
000250 1b de 62 ce 52 6f 93 3f 5c 03 ec 4b 57 32 96 3f
       0.018979352804960308 0.021676410683542854
000260 0c 89 f9 38 ff 3b aa bf 58 ea d0 c3 1d 26 b5 3f
       -0.05123899050228617 0.08261285811105645
000270 8e 38 10 73 53 5d 96 bf 97 ad 4c d4 f1 63 6f 3f
       -0.02184038533965143 0.0038318370083254105
000280 54 cc 7c 57 ef 9c ab bf 3c 9e 1d c2 c9 84 a9 3f
       -0.05393169348681029 0.049841217942966115
000290 73 92 57 09 20 95 93 3f aa 5c 65 45 38 c9 aa 3f
       0.01912355477351686 0.052316435309586254
0002a0 88 93 c0 77 e9 67 93 bf 9b 92 fa f2 06 a6 98 bf
       -0.01895108025941597 -0.024070843296288485
0002b0 a6 f1 42 19 9a f9 98 3f fb d4 0a 93 80 e9 90 3f
       0.02438965586837729 0.016515740370512493
0002c0 9d 21 d8 e8 81 53 68 3f 50 b5 c7 60 4f 1f b4 3f
       0.0029695069595200977 0.07860275376125014
0002d0 e7 e1 48 63 2e 3b a1 3f 34 d2 b9 02 b1 be b1 3f
       0.03365464174243354 0.06931597057866484
0002e0 a2 f5 a3 2e e3 51 a6 3f 92 a2 ac f7 54 ee b0 3f
       0.04359350151387821 0.06613665625321577
0002f0 c8 cc ec 66 bf 9c ae bf a5 b2 e7 96 cc 1d 8c 3f
       -0.059789639772498016 0.013728712420708897
000300 cd 3f a0 a5 c5 eb af bf 70 9e ab 0a 5b 8b a7 3f
       -0.062345673053755137 0.04598507409337749
000310 44 51 47 ca 61 29 a4 bf 3a fc 1c 3f c0 76 94 bf
       -0.039378219549379284 -0.01998424897396609
000320 73 b6 99 c1 8c 00 aa bf e7 cf 56 26 44 db a4 bf
       -0.05078544486319183 -0.040735368423525924
000330 e8 e4 c0 2f 67 95 9f 3f e9 51 97 50 5d cb a4 3f
       0.03084336499180021 0.0406140480878639
000340 c2 b4 c7 19 df 89 b1 3f 89 90 8d 95 78 a9 ae bf
       0.06851000193974513 -0.05988671136472685
000350 74 61 23 fe 8c 27 a6 3f 3b 53 ea 89 6a df b3 bf
       0.04327049829743404 -0.07762781016419933
000360 07 00 8c c5 62 2b 62 bf 9a bd b6 1a a5 90 9c bf
       -0.0022179535993700514 -0.027895526652796578
000370 5f 27 ad 44 0e 3c a3 3f a9 29 8f c5 0b f5 b2 3f
       0.03756756389937154 0.07405160496924758
000380 ac 5c 6b 8d 3d 02 72 bf 7c b7 44 16 1b 12 b0 3f
       -0.004396667899263889 0.0627762727133056
000390 b5 69 b0 8a 70 d0 95 3f 99 db 61 6b 5b 54 92 3f
       0.02130294653407257 0.017899921826451146
0003a0 f2 44 8c f3 67 67 aa bf 40 ba 0d af 86 6d 5c bf
       -0.05157017562863499 -0.00173509743418844
0003b0 c8 76 95 44 8b 12 a4 3f a8 51 65 72 7b a0 ae bf
       0.03920397960858463 -0.05981813212807491
0003c0 97 a8 72 da 23 26 87 3f 9d d9 cc 7e 57 43 9a 3f
       0.011303215126037975 0.025647513498563524
0003d0 5e d9 53 06 08 b4 a9 3f bb 86 f1 7f 4b 48 b3 bf
       0.050201655170826184 -0.07532188295001678
0003e0 2a 9c 1d b0 0c 44 a4 3f 57 d5 19 5f a7 92 ad bf
       0.03958167695855537 -0.05775950466060447
0003f0 bc bc 62 7e 3d e6 b1 3f 08 ae e5 12 a7 e1 b2 3f
       0.0699194367941684 0.07375568591458415

policyHead.2.weight f8 [64, 128]
000000 7f b0 3b 7d 8f 5a a1 bf 67 71 3d 8c 18 63 b5 3f
       -0.03389404681897278 0.08354333328083428
000010 b0 71 57 1f b6 e6 a0 bf 08 59 36 7e 92 4b b6 3f
       -0.033010188413502006 0.08709064084391482
000020 ed f8 ca ed e1 04 ae 3f 9c fd 3a bf 06 e4 ab bf
       0.05863100078339465 -0.05447407802921164
000030 65 95 07 de 04 66 9f bf bb 4d 94 fd 4d 9d b7 3f
       -0.030662609149563553 0.09224402848149442
000040 cf b8 c0 8f 0d e6 b4 3f 55 e9 22 af d4 24 7f 3f
       0.08163532981481868 0.00760348396050355
000050 c0 b9 dc 90 09 70 a2 bf 8e 53 68 9e e8 58 a1 3f
       -0.03601102727258221 0.03388144429860694
000060 1b 79 d2 99 1f e0 ae bf c5 64 f7 22 91 4b ae 3f
       -0.06030367615425033 0.059170279997212506
000070 5f 51 0d 84 b1 99 b0 3f ec 76 a3 50 94 27 a5 3f
       0.06484517549444523 0.04131759151799294
000080 a7 89 f0 0d 97 83 b4 3f 6f ab 44 11 d5 3d a1 3f
       0.08013290491411472 0.03367486797136265
000090 b0 7c 98 ad 36 d6 98 3f 7c e9 01 00 29 b1 8d 3f
       0.0242546599821451 0.014498062432029661
0000a0 71 a9 b4 86 cb c8 ab 3f 56 c0 b6 64 cc 3d a3 bf
       0.05426631945950334 -0.0375808594648112
0000b0 6e 6f fe 91 e7 cf 9a bf 4e 36 17 f8 e8 4c b3 bf
       -0.02618371800018287 -0.07539230400944882
0000c0 2e 91 b1 77 cc 11 ae 3f ae a5 9e af eb c1 b4 3f
       0.05872954331496981 0.08108399427023613
0000d0 9e a7 1f fa df 32 8c bf ad e9 c5 e2 48 8f b1 bf
       -0.013768911190670082 -0.06859260117008743
0000e0 cf f3 89 a0 af b1 b4 bf 9a 77 63 ce 87 1d a3 3f
       -0.08083627385526813 0.03733467478171733
0000f0 cf 99 b7 08 71 75 84 bf fa 15 07 d9 0f 08 8a bf
       -0.009989626959350155 -0.01271068936410823
000100 c6 dc 9f ef f1 a2 8e bf 2e a2 b3 dd 3a 5e 8a bf
       -0.014959230542429213 -0.012875041857527494
000110 a1 af 6c 52 63 4f a9 3f a4 16 dc 42 5e f0 b6 3f
       0.049433807193366215 0.08960522777860064
000120 e5 6b 6f a9 a9 81 a6 bf d0 38 3c 17 d7 ac 86 3f
       -0.043957998211872774 0.01107185401590663
000130 35 78 ba 40 03 64 81 bf 11 0e 8b 29 48 db a0 3f
       -0.008491540348867324 0.03292298800581873
000140 31 c6 12 7a ff b2 ae 3f 26 43 12 be b1 38 a2 3f
       0.059959396029978136 0.0355887932320285
000150 96 f0 f5 c1 63 dc 76 3f 41 1a 6f d2 37 38 a5 3f
       0.00558127372584862 0.0414445347192225
000160 4f 84 35 c2 63 ab b6 3f d8 39 3d a9 4c aa b7 3f
       0.0885526990073384 0.09244231349769139
000170 ff 2f ab 65 85 f3 a6 bf ae b8 61 71 56 e1 66 bf
       -0.04482666841576587 -0.0027929962480391568
000180 5e bb 6f d9 0a 61 a1 3f d4 47 f3 54 6b 3b b7 3f
       0.03394349960568975 0.09075041603071493
000190 a0 60 e0 a8 8d 56 a0 3f a1 11 9a 7b a4 1a a1 3f
       0.03191034971695328 0.033406391227831074
0001a0 6b ca ae ba d3 e9 a8 3f 10 e2 88 34 09 ae 86 bf
       0.04865895894854052 -0.011074134746295733
0001b0 f9 c9 69 88 72 15 8b bf 40 a3 ad a7 3c 4b aa bf
       -0.013224501407624866 -0.05135526224950704
0001c0 e0 93 91 44 c7 70 a5 3f e8 23 0e 8e 29 e7 ad bf
       0.04187605583209808 -0.05840425356934259
0001d0 12 8e d5 7d 7a 96 97 bf 4d a0 09 ce ea 96 a1 3f
       -0.02303496735602379 0.034354531909059995
0001e0 b7 cd 0a 9d 1d 9b 94 3f 60 be 10 f4 95 de a5 bf
       0.020122969350905708 -0.042713819544925924
0001f0 d4 9b 82 bb f4 63 b5 3f 73 f0 65 d2 02 e1 96 bf
       0.08355645730863098 -0.022342723933875108
000200 d4 59 20 a3 13 3e b6 3f 83 e0 1c 44 19 94 69 3f
       0.08688471539094361 0.0031223767736286447
000210 89 5c c4 0c 8e a1 9b bf 71 6b 69 e2 4a c2 aa bf
       -0.02698347046779451 -0.05226358426872125
000220 b7 74 94 63 a5 dd b0 3f 43 82 34 f9 1a 19 b4 bf
       0.06588205033445403 -0.07850807746991344
000230 7d 66 98 7a d1 14 b0 3f 6f 9d 2d 20 5d 64 b3 bf
       0.06281766169595389 -0.07575017963028129
000240 47 18 71 4d ce 25 99 3f 68 8f 2e a3 91 51 a5 3f
       0.024558280445738736 0.04163794629064804
000250 a6 a6 a5 c6 e2 13 a1 bf 8a 28 47 77 55 8f 8b 3f
       -0.03335484194651643 0.013456981375288519
000260 fc 3a 35 91 e3 19 b1 3f 23 f1 2a 57 c5 a8 ac bf
       0.06680128378978262 -0.05597511948642111
000270 46 0f 3c ad a9 1a 9b 3f ba 93 7c 63 11 fe a7 bf
       0.026468898008729334 -0.04686025943218604
000280 98 8d b7 c0 a1 dd b2 bf 94 67 ab 35 83 b1 ae bf
       -0.07369433360104549 -0.059948063184221884
000290 e6 9b 20 79 18 fa a5 3f 3f 16 27 b4 c8 09 b3 bf
       0.04292370298963259 -0.07436804197558276
0002a0 58 af 7d 6f b1 18 9a bf 4e 91 a5 a4 76 e6 a5 bf
       -0.02548482172953412 -0.042773921583633454
0002b0 81 fc f5 ec 4a 9a a1 3f 28 25 1b 7f 5b 00 a9 bf
       0.03438028471554678 -0.048830851808427334
0002c0 36 3e c1 15 55 4d 99 3f 9c b3 20 19 fc 50 a3 bf
       0.024709062054453855 -0.03772723967299571
0002d0 e5 05 14 3b 0a 71 42 bf a0 49 76 bb 1d a9 7c bf
       -0.0005627918200447583 -0.006997219220823331
0002e0 b8 ac 24 b2 48 d7 b3 3f 82 26 09 94 b1 3e 94 3f
       0.07750372266007133 0.01977040735281444
0002f0 6d 4b c0 5d dd bc b4 3f b3 17 73 d2 62 ab 96 bf
       0.08100684679838617 -0.022138160795996686
000300 a5 66 1b e4 2c 8e a6 3f 74 dd 74 ce b3 d2 67 bf
       0.04405346188077645 -0.0029080879063731416
000310 9e 44 73 ff 0e 4d 9d bf 47 a1 6a be cf d5 b7 3f
       -0.02861426767487229 0.09310625456658271
000320 84 27 b6 ce 82 a0 ac bf 4d 87 65 c8 1d f2 82 bf
       -0.05591210149130091 -0.009250862768286483
000330 dd ce 51 a0 1c cf 66 3f c0 b6 c1 fb 58 c2 a3 3f
       0.0027843054872905685 0.038592129451769264
000340 95 c9 0d bc 37 7b 87 bf 03 3d f0 65 5a bf 87 3f
       -0.011465487886856343 0.011595445857919722
000350 11 5e c3 29 73 43 a5 bf 25 3a e0 dc de 79 b0 bf
       -0.04153022656253936 -0.06435959713437762
000360 f7 68 db fb 23 3f 9b 3f 9e 98 f1 d6 e0 b1 9f bf
       0.02660804962838711 -0.03095198928749509
000370 01 8b 91 00 85 bc 8e 3f ae ea 3f 20 51 a4 96 bf
       0.015008009986734462 -0.02211119422279733
000380 83 fb ff 03 27 ba ad 3f 1f bd 59 69 04 e4 a9 3f
       0.058060855139038935 0.0505677584268318
000390 36 9d ad 8f 13 e6 ab 3f fe 4b 30 c6 16 34 af 3f
       0.05448971871265444 0.06094428223891411
0003a0 f0 94 15 a4 f0 62 a2 3f d4 51 73 dc 52 07 b2 bf
       0.03591110232336259 -0.07042425043193329
0003b0 73 94 9e 62 d5 94 a9 3f d4 a6 69 de bd d0 45 3f
       0.0499636347661089 0.0006657530874012115
0003c0 5d 47 32 73 59 96 8b 3f cb ba e9 90 f2 14 b2 bf
       0.013470362499251537 -0.07063213384547422
0003d0 50 d8 af f9 d8 c1 a3 bf 70 4b b3 d1 44 d3 a3 bf
       -0.03858831451354716 -0.038721228216352155
0003e0 dc 37 fe 88 a4 34 a6 3f d2 29 77 0e 4e b6 a4 3f
       0.043370382044585404 0.04045337606983747
0003f0 7b f4 1e 74 e2 9a 97 bf 3f d3 01 24 11 b0 ab bf
       -0.023051775300463078 -0.05407765926876217
000400 66 86 bd c6 bf a5 9a 3f b6 31 72 b5 de 0a b3 3f
       0.026022907738826005 0.07438461236797064
000410 08 bb 5c 93 1b 3a 82 3f b1 e0 01 e4 96 07 83 bf
       0.008899894175184567 -0.00929181941340604
000420 4b 17 a4 39 83 bf b3 3f 13 8d 03 ab 19 5f 74 bf
       0.07714100033998965 -0.004973507180895414
000430 37 8f 04 0c 11 c9 ac bf 06 e8 50 42 f6 cd 93 bf
       -0.05622151633931909 -0.019340369985208404
000440 b9 e1 c3 b0 61 fa b8 3f 11 31 94 14 c4 62 af bf
       0.09757052007251489 -0.06130039931494669
000450 d2 45 db da c2 77 ab 3f 0c d5 e5 cc c4 ad b6 3f
       0.05364808007801582 0.08858900072467096
000460 46 a9 8d ba a4 4f a5 bf 0d e3 18 46 0f 8c b8 3f
       -0.04162325646651026 0.0958871408592012
000470 58 84 4f 04 5b 9d a2 3f 28 70 3e 73 1b c3 ae 3f
       0.03635677745456495 0.06008230001245379
000480 eb 52 66 77 15 6e b9 3f 44 20 29 43 e6 bb b3 3f
       0.09933599629432492 0.07708586826004288
000490 a8 00 3c b2 b4 e2 97 3f 20 5f 97 66 95 61 50 bf
       0.02332575166565279 -0.0009998282424614272
0004a0 43 c7 f2 51 67 87 8d 3f 0c 85 74 37 6e bc b0 bf
       0.014418418110242142 -0.06537522176633476
0004b0 8e 1a 99 ec 18 ba aa 3f 4d a6 1f 10 83 66 b2 3f
       0.05220106018218927 0.07187670844691603
0004c0 74 f0 92 57 44 57 6d 3f 19 be 40 ed 15 f6 b2 bf
       0.0035816511923183973 -0.07406746904666085
0004d0 0c fb 11 e4 75 74 b5 3f 1f a1 4b 26 b4 c8 a2 3f
       0.08380829637642878 0.036687497782454274
0004e0 a4 1c 85 69 95 a7 b2 3f 91 7f 43 d9 9b a3 b6 3f
       0.07286962343379116 0.08843397192276671
0004f0 14 d6 f0 ea 12 1c af bf 81 9d 7d f6 ec 2b a1 3f
       -0.06076106183938293 0.03353825100821962
000500 cf de 5f 6e 48 87 b1 bf f1 de 5f 19 70 82 aa bf
       -0.0684705037564257 -0.05177641210314999
000510 09 bb 9c 38 75 cb 27 3f 59 28 74 15 81 0d 9f 3f
       0.00018153959200036703 0.030324952063019193
000520 79 e3 9e 31 c3 78 72 3f 5e fd a7 26 ea aa 89 bf
       0.0045096993216525655 -0.012533025078481582
000530 58 bf cf 9c 02 0c b2 bf 00 0b 69 5c 28 74 ab bf
       -0.07049576118856515 -0.05362058761649813
000540 95 3a 92 43 bf 50 a1 bf 0b da be 12 e1 4c 98 3f
       -0.03381917667239979 0.02373077084458867
000550 e4 72 fa 07 1a 6b a0 bf 4d 9b 21 57 13 93 a7 bf
       -0.03206712100402401 -0.04604397238363465
000560 26 81 90 36 fd 25 ae bf ac 44 ec e4 90 cc 81 3f
       -0.05888358393736075 0.008690959917233641
000570 a2 21 a6 a7 8d 98 aa 3f 91 c2 be 6b 56 17 9e 3f
       0.051945139613113214 0.02938590080856557
000580 76 3b ed bf 17 19 b5 3f 46 be e6 d5 2e e6 ad bf
       0.08241413531980676 -0.05839678155041077
000590 f4 e3 0c 1f 15 9f 9a 3f 86 01 f9 41 be 7d a9 bf
       0.02599747659698788 -0.04978746943789063
0005a0 60 c1 90 25 20 94 72 bf 1e ec 3f 05 40 e3 7a bf
       -0.004535794804766929 -0.00656437881479646
0005b0 b7 90 8d 73 bb c5 a0 bf 5f 41 97 62 a7 f7 b1 bf
       -0.0327585772090812 -0.07018514782908401
0005c0 fc dd 82 01 6d dc b2 3f 64 bb 85 3b 34 72 a7 3f
       0.07367593085188412 0.04579318262664492
0005d0 e5 57 e1 62 3b 5f 95 bf 91 57 f5 67 ba a9 b3 bf
       -0.020871093664332725 -0.07680859602018432
0005e0 2e 23 0d b0 f8 0e b3 bf ed 83 d5 4d db d2 b0 bf
       -0.074447195988921 -0.06571741724248144
0005f0 d8 24 c9 92 03 a3 97 bf 54 c2 d3 a6 fc da 6c 3f
       -0.023082786401833782 0.003522389850893407
000600 65 32 8d 03 18 71 68 3f 10 65 7c 00 51 b1 b2 3f
       0.0029836148282014635 0.0730181337534257
000610 32 f6 b8 fd d4 6a a6 3f 93 4b 13 ec 5d 42 60 bf
       0.04378381344984596 -0.0019847711961146846
000620 0e fe 5c 6f e4 f2 b6 3f c9 5f 24 be aa 82 b5 3f
       0.08964374274091133 0.08402506963864122
000630 be da 60 31 94 c7 b8 3f 23 5d c5 f5 e7 af a0 3f
       0.09679533200765442 0.03259205699094483
000640 cc af 9b ac 88 d1 b6 3f 7f f9 09 f5 e9 40 93 3f
       0.0891347333342189 0.01880231435870305
000650 9a 34 9f 3f 80 05 aa bf 36 43 0a 93 a5 a8 a6 3f
       -0.05082321907648542 0.04425542278216314
000660 c1 0e 74 2c cd 9e 92 bf 6a 63 c3 67 00 6a 87 3f
       -0.01818390449353902 0.011432650724985744
000670 bd 9f 03 67 3d e3 b7 3f cd 46 a1 6c ca 94 a7 3f
       0.09331115498537108 0.04605705810594216
000680 e6 c2 bf c8 61 0b ad bf 61 54 df b0 ba 26 b1 3f
       -0.056727462535382675 0.0669972116296136
000690 2b 29 20 2b e4 98 9a 3f 06 47 65 6e 73 95 8d 3f
       0.02597385895936914 0.01444521122599297
0006a0 a5 07 b9 d8 8e 5a b3 bf 59 f6 cc 6a c9 09 a3 bf
       -0.07560055533488581 -0.03718404225081135
0006b0 55 e5 9d d6 7f ae 91 3f e9 95 6c fc 4c 00 a3 bf
       0.01726722476403116 -0.03711166936254157
0006c0 9a 64 2c 49 d7 ad b5 3f 01 f3 b6 62 19 88 b3 bf
       0.08468385254345137 -0.07629545841241382
0006d0 82 17 60 9a 16 ad b5 bf fb f8 a2 10 a3 0f 86 3f
       -0.08467236775331169 0.01077201265831861
0006e0 ee 12 ea a9 2e 8a 51 bf bf d5 1f 3c 52 2c ab bf
       -0.0010705428791492571 -0.05307251914920696
0006f0 7f c9 ba f5 d8 2c 90 3f 92 2e 73 e5 f3 c8 82 bf
       0.015796079633852763 -0.009172349395519395
000700 4d 73 56 3c 3d 54 71 3f c1 bf 6d 02 a5 f9 90 bf
       0.004230727388315381 -0.016577318452106974
000710 76 8c 8b c8 52 69 b1 bf f0 d5 f7 5a 7d 7e a8 3f
       -0.0680133571254816 0.04784003959131755
000720 9a 9d b7 da 96 bb a5 3f 36 dc ee da ad b4 b0 bf
       0.042446817587740784 -0.06525694460911854
000730 17 f2 f2 78 b2 ae 9a 3f 68 89 9e 7f ba 3f a8 3f
       0.026057041771070013 0.0473612099442729
000740 cd e0 2d f9 10 f9 a0 bf 09 31 e0 3d c0 d9 99 3f
       -0.033150225083717545 0.025244716431232415
000750 51 cb d5 c4 5b d4 a9 bf 43 a0 ee 0f e0 d8 b2 bf
       -0.05044829156658771 -0.07362175358741845
000760 63 4f 13 a7 33 4a b4 bf 92 25 6c 4b 29 e1 98 3f
       -0.07925722912778847 0.024296422222538867
000770 c2 c4 27 43 77 7c 9f 3f dc 20 96 04 34 d5 a3 bf
       0.03074823710807518 -0.03873598628985217
000780 7e 64 31 ac 6b 0f b4 3f a6 ef 59 70 ed a2 a4 3f
       0.07836029962472144 0.040305538143882644
000790 91 bf 5f d6 a0 13 b7 3f ec 24 7a cb f2 58 71 bf
       0.09014325364819188 -0.0042352184460778645
0007a0 d2 5c 64 1e d2 ba a2 3f 56 28 5c 4a 23 5e b5 3f
       0.03658157940861319 0.08346767964772658
0007b0 7a cc b1 9e 37 8b a9 3f eb 06 cc c0 16 8d a1 bf
       0.049890268442049426 -0.03427954772452132
0007c0 23 f3 e2 42 d7 59 76 bf 7e 7a 56 76 a0 ad 83 3f
       -0.0054567726749013305 0.00960851060045553
0007d0 d1 c4 32 4d ec 7a a2 bf ec fc 1e 24 3e 2b 97 bf
       -0.03609407846796276 -0.022625895456937536
0007e0 ac 15 9f 8e e6 c5 6e bf ad d8 60 34 73 3b 94 3f
       -0.003756475741257778 0.019758033821027855
0007f0 2c 3e 6b 87 3e 1e b1 3f dc 22 08 80 32 d4 9f 3f
       0.06686774068952478 0.03108290583080274

policyHead.2.bias f8 [64]
000000 fc ef df 64 7d 7b b1 3f 04 88 ac e6 e8 c4 b6 3f
       0.0682905551220187 0.08894210464180224
000010 fe 6e a6 c3 42 bf a6 3f 02 4e d3 4a bd 11 b2 bf
       0.044427954085419316 -0.0705831821135732
000020 07 5c 6f e8 9a ba ad bf 01 78 89 aa a3 38 ac 3f
       -0.0580643089994553 0.05511962372541746
000030 94 fc 68 1c bb ea aa 3f bd 03 dd 42 73 75 af 3f
       0.052572104661970404 0.06144294921114788
000040 1e 3e 41 b2 6b a4 a4 bf 47 45 ca c5 c8 1e a7 3f
       -0.04031693030321669 0.045156740326215465
000050 1c 3f 16 3a 54 af 6a bf 34 15 f6 c4 e5 30 a4 3f
       -0.003257431512515908 0.03943555859863537
000060 05 c4 0c f4 f4 18 a9 3f 2e 54 65 83 d0 69 6f 3f
       0.04901853064655629 0.003834635975332754
000070 05 31 74 a4 60 41 91 3f c5 8e 02 83 3d 6a 8d 3f
       0.01685095790621551 0.014362793503387103
000080 a9 47 6c c9 02 12 b0 bf f1 28 78 4f 30 c4 b2 3f
       -0.06277482430985394 0.07330610218210488
000090 1c 80 e9 5b 18 3a b0 3f d3 d7 ad 89 4f 2a b6 3f
       0.06338646167705558 0.08658310996346978
0000a0 67 f7 23 60 24 c1 a4 bf ee a3 83 b7 70 25 b2 bf
       -0.040536057220363735 -0.07088379364326133
0000b0 2f 16 df 7d 91 1c b4 bf 4a bb 2d 25 ec d3 80 3f
       -0.07856091807396902 0.00821670998058512
0000c0 71 dc 58 d8 9c ff a8 bf ef 76 60 03 3e 39 99 3f
       -0.048825169953880095 0.024632424312691133
0000d0 bc 85 3e 39 5e 4e a2 bf 5a 49 3a 19 f0 6e ad 3f
       -0.03575415085584718 0.05748701389269924
0000e0 5d 46 9b 10 0d 6d ae 3f 27 a3 02 ad 2a 68 9d 3f
       0.05942574336735327 0.028717676934920135
0000f0 40 21 f6 df d8 04 b3 3f 87 f1 f4 c7 b0 75 a6 bf
       0.07429271190460884 -0.04386665764693292
000100 2e 94 10 08 8d 0c b1 3f 22 14 42 5d f4 a6 8f bf
       0.06659776160138683 -0.015455159278881029
000110 3c e1 1b 29 14 b9 b6 3f e8 4e c9 ce ad 39 91 3f
       0.08876157764087095 0.0168215901815775
000120 5e 0c 64 9f ba 73 a3 bf 3f 4d 55 52 e2 7b b5 3f
       -0.037992317158590735 0.083921570874101
000130 e8 47 c1 70 7b 93 b0 3f c9 0d ed c3 51 22 b2 bf
       0.0647503996163149 -0.07083617242192654
000140 dc 2f 94 bf e2 6c 8d bf 1f 0a 71 e5 bf 80 b5 bf
       -0.014367839309237178 -0.08399581290817835
000150 89 31 62 ef de 77 b6 3f e2 45 ce 2b e0 64 aa bf
       0.08776658386540793 -0.05155087027300077
000160 a8 d6 bd 6d 06 0b aa 3f 9e 17 fb d5 28 ea 81 3f
       0.05086536492937671 0.008747405080963774
000170 ca 58 15 81 2c e1 a2 bf 17 47 28 0a 30 9f 97 bf
       -0.03687419009900024 -0.023068190212206376
000180 1b 44 cf 36 23 10 83 3f 93 3b 60 10 92 e1 a3 bf
       0.009308123693616157 -0.038830341815006574
000190 1e 2d 31 cf 79 58 a9 3f 68 bf 3d 42 1f 30 b6 bf
       0.049503141920093294 -0.0866717850419697
0001a0 e9 05 e4 60 ee fa 99 3f 24 05 ae 3b a5 1e b4 3f
       0.02537128893255228 0.07859261233354126
0001b0 1d ed 47 f7 d6 77 a2 3f ac 3b 7b f8 bc 12 ad bf
       0.03607055443350247 -0.05678358586521112
0001c0 2b ed 41 8f 02 f0 b0 3f 15 37 ca 6b 0e 4d 9a bf
       0.06616226193903134 -0.02568457157990796
0001d0 2a 3f 2a 97 d8 42 a9 bf e0 68 02 ee a1 00 a8 3f
       -0.04933811993862343 0.046879825881846804
0001e0 a0 6f 9e ee a4 b8 a6 bf bb 3e df 1f 8f ad b3 3f
       -0.044377473953516544 0.07686705139280552
0001f0 e6 d5 77 9b 46 cb b2 bf 70 07 4c 7d 70 89 5b 3f
       -0.07341424270256133 0.0016807173280430597

policyHead.4.weight f8 [24, 64]
000000 89 24 7f 20 3c f4 be bf 3a c6 27 40 ce 39 b1 bf
       -0.12091422837615275 -0.06728829447072196
000010 00 1a f5 13 46 40 b9 3f ef 1a 24 db 19 67 a5 3f
       0.09863698947183508 0.04180222320615267
000020 92 51 6b 44 93 83 be bf f7 bd 57 75 a4 cd b2 bf
       -0.11919517918005898 -0.0734503542405419
000030 7a fc 0a 0d 2c bd b9 3f 95 87 f5 6a f6 3f b4 bf
       0.10054278677397291 -0.07910099135690836
000040 ab 51 b3 b6 e9 83 bc bf 24 f4 71 c0 86 36 c0 bf
       -0.111387831787687 -0.1266640128777975
000050 4b a8 85 4d e3 63 ad 3f 1b b6 0a d8 ed 19 79 bf
       0.057402709210535884 -0.006128243520533451
000060 e3 5a 95 e6 d2 b0 6b bf 18 2a 08 3e 8e 38 a9 3f
       -0.003380214610540265 0.04925961024499176
000070 78 5d 18 0c 4f 77 92 bf 08 f9 a1 b4 b3 fc b7 bf
       -0.018033251870375605 -0.09369967613199404
000080 34 18 36 43 7f 69 6c 3f 3a ef 70 4b 09 ad 94 3f
       0.0034682736965719 0.020191331128656766
000090 a7 0f 2a 09 43 23 b8 bf 4f e6 07 0a 98 f3 7e 3f
       -0.09428805326211763 0.00755652799898028
0000a0 9b 1f a6 b9 eb f2 ac bf 2f 13 ff e4 2f 61 9f 3f
       -0.05654083863470235 0.03064417681868575
0000b0 91 2b cf 38 fa b6 b3 bf f3 dc ed dc e0 bf b5 3f
       -0.07701076399750507 0.084959081590444
0000c0 10 43 aa 4a c8 ac 97 bf a3 70 ac d9 65 53 23 bf
       -0.023120050008006265 -0.00014744394578592332
0000d0 3f 90 17 cb 72 c9 b0 bf 15 10 0d c3 1e 72 94 bf
       -0.0655738588171184 -0.019966583876581085
0000e0 ef d7 09 cf 5d 0c 9e bf ab 3e 29 a0 b2 ce 67 bf
       -0.029344049226402488 -0.0029061783582518728
0000f0 a8 ee e3 4c d0 bc b7 3f d6 b4 b8 79 5c 31 ba 3f
       0.09272481801229537 0.1023156926318792
000100 e8 e8 69 91 b6 f2 b0 bf c4 aa 90 6e 23 c3 b2 3f
       -0.06620350885524184 0.07329007577269936
000110 1c 40 46 36 ee f6 a8 bf 92 b7 35 fd fb 83 93 3f
       -0.048758930325789346 0.01905816777200859
000120 ba 37 85 16 52 af b5 bf de 0c 62 55 35 8d 9f 3f
       -0.08470643091024402 0.030812104545941625
000130 33 bd e2 dd 3a 1b b2 3f 17 0c 08 03 2e f3 95 bf
       0.0707279960358747 -0.021435469565414502
000140 9d 27 f4 ff fc b8 7d bf e6 0c 09 13 2c a6 a6 bf
       -0.007256496696990936 -0.04423654301037931
000150 c2 ec e5 a2 36 63 b4 3f 33 2d 2f fa c0 32 b6 3f
       0.07963887669568506 0.08671194179548962
000160 17 b7 f0 5e e4 a5 9c bf f1 69 fe c8 e0 af bd 3f
       -0.027976578039832747 0.11596493632388395
000170 d8 3f e3 92 c5 20 99 bf 0e d8 b4 83 a0 dc b1 3f
       -0.02453907689124421 0.06977275100220501
000180 0b e3 95 6f 43 76 7a bf 2c c1 8f 39 ea 0e af 3f
       -0.006460441037568608 0.06066066696792158
000190 60 15 d1 2b 49 1b 75 3f 87 5a 9b 91 d6 68 83 bf
       0.005152974915352132 -0.00947730666977732
0001a0 17 e6 08 49 42 75 ba bf 42 f7 48 4b 79 36 b5 3f
       -0.10335172923159806 0.08286245430005315
0001b0 63 bc 8a 9c 1e 46 bb 3f 89 c2 55 cc 46 05 ba bf
       0.10653868982147822 -0.10164301384589626
0001c0 4f 03 e1 7d af ed a9 bf 33 9d 2e 5b d0 3c b8 bf
       -0.050641521564563356 -0.0946779463398471
0001d0 07 50 84 a2 65 05 a4 3f a0 6e 1e c6 07 04 9a 3f
       0.03910367592666835 0.025405999629227183
0001e0 89 be 5d b4 07 2b b0 bf 50 15 c8 d1 02 a0 bf bf
       -0.06315658715697671 -0.12353532430286873
0001f0 1e e0 b1 82 22 f2 aa 3f 71 a4 0d b4 c9 e3 a7 3f
       0.05262859197040391 0.04665975878635543
000200 24 3c 6f 60 99 03 a8 bf 20 16 3d 42 b4 92 bc bf
       -0.04690245916537375 -0.11161352746156483
000210 45 45 98 e8 e1 43 b2 bf e3 f4 11 4b 4e df b8 bf
       -0.07134830406746058 -0.09715737660185968
000220 22 49 b7 56 bf c8 bc 3f 59 8e 30 ed 4e 8c 94 3f
       0.1124381624897848 0.020066483714016623
000230 75 8e d8 35 e3 5f b6 3f 76 d5 17 21 78 68 a1 bf
       0.08740062775228259 -0.034000162162480516
000240 ea 28 b8 41 a1 d5 bc bf a1 b8 89 be 5b ab af bf
       -0.11263473371960556 -0.06185423565772053
000250 c4 06 73 19 96 a9 a0 3f 7c fe f6 8d f7 f6 b2 bf
       0.032543840986830413 -0.07408091751039508
000260 85 17 d8 ef 99 ab 75 bf 26 bb 04 1f dc ce ba bf
       -0.005290604892712274 -0.1047189307907784
000270 64 f8 93 b8 f5 35 b5 bf 6a 86 1b 7f 23 87 b0 3f
       -0.08285461193369908 0.06456205228053027
000280 36 7c 28 24 3b 62 86 3f 58 fa 31 8e e7 71 b5 3f
       0.010929548302611374 0.08376929494441165
000290 59 cb 8a 82 98 e7 b4 bf bc 0b 9a 2c 21 da ba 3f
       -0.08165887057365974 0.10489089335355478
0002a0 07 5d 5a 47 0f 04 a1 3f ee a5 c2 49 56 44 92 bf
       0.033234097919541176 -0.017838810207342286
0002b0 0b 27 aa ae 90 f4 bb 3f c8 b9 7b 6c 3f e8 bd bf
       0.10920051826738246 -0.11682506941335824
0002c0 5b a1 20 55 eb d1 ab bf 34 62 43 05 e2 20 a9 bf
       -0.054335931912933254 -0.049079001562578745
0002d0 59 83 b7 81 83 19 bb 3f 87 b3 57 2a a8 bb 97 bf
       0.10585805813708528 -0.023176791748415162
0002e0 a3 4e 6e 2f 43 d0 93 3f ef 73 e2 ec fc 20 bc bf
       0.019349145669891 -0.10987835677447298
0002f0 38 cd ef d8 06 f9 9f 3f c8 13 f1 5e 38 dd bb 3f
       0.031223399153487125 0.10884430234825893
000300 b3 d3 c6 52 3d 42 bb 3f c1 bf 4f 68 74 04 a0 3f
       0.10647948523440114 0.03128398679098111
000310 af 92 35 a2 a3 ac bd 3f 64 00 6c 70 57 f8 bf 3f
       0.115915515043137 0.12488314146685436
000320 33 bf db 9d 3c 80 b7 3f 10 c7 c6 68 3b c8 ad 3f
       0.09180048803295619 0.058168274440857926
000330 d8 32 e1 c7 1a 80 9e bf 8f a1 d6 d2 d1 45 be 3f
       -0.029785555314719797 0.11825286290571156
000340 54 7d bf 32 fb 20 be 3f c3 9f 3a b2 e6 49 aa bf
       0.11769075383152955 -0.051345071083516845
000350 1c c3 1e 56 e3 b3 8b bf b7 a4 eb 07 88 29 b7 bf
       -0.01352670294349561 -0.0904774684273829
000360 62 bd 93 36 3e 1f aa bf ca 25 8b 95 0b d5 b5 3f
       -0.05101961532806844 0.08528206253972495
000370 ac 64 32 d3 60 40 b7 bf 33 ed cc dd 18 ab bc bf
       -0.09082608371899664 -0.11198573508311398
000380 5c b0 85 a4 ad fc b5 3f 08 b8 f3 0d 63 48 70 bf
       0.08588681475311105 -0.00397528355754951
000390 d6 47 93 c1 07 de b8 3f 20 43 62 0b 5b 9f 9c 3f
       0.09713791347465359 0.027951643533529524
0003a0 78 dd 12 6e e6 19 9a 3f b1 ec 54 a0 53 e6 a0 3f
       0.02548942610584734 0.0330072530000164
0003b0 f8 1b 4e d5 e8 71 bb bf 9b 68 83 eb 8b 43 a0 bf
       -0.10720687110561744 -0.03176533937376399
0003c0 89 18 49 24 c4 b8 a4 3f d2 82 b2 fd 99 45 a6 3f
       0.040472154073129714 0.0434997675122354
0003d0 d9 fb da b7 8d 6e b8 3f d7 d7 a0 b7 5c bd b1 bf
       0.0954369138589607 -0.0692956875144256
0003e0 1d fe 74 eb b4 6d b6 3f 95 53 af ff 1e 43 ad bf
       0.0876114916654775 -0.057152718268901705
0003f0 00 f6 c5 d2 3c 4f a2 bf 62 2d 34 5c 60 cb a4 bf
       -0.03576078484455181 -0.040614138846730055
000400 26 34 40 3e ec 39 6f 3f d2 6f f9 c5 07 2f bc bf
       0.0038117994427069478 -0.11009262641294917
000410 21 ef 1d f3 5b 39 b4 bf 81 5b 57 c3 40 7a a2 bf
       -0.07900023160430837 -0.03608896622215863
000420 85 21 5c 51 42 8f 91 bf 9d ec a4 cb 89 61 b4 bf
       -0.017148052421391852 -0.07961331579001514
000430 11 1c 11 e4 89 19 ad 3f 95 d4 23 67 96 14 b4 3f
       0.0568354693319223 0.07843914049211016
000440 ff 5e d2 a9 f7 6c b7 bf b4 69 14 44 42 78 99 3f
       -0.09150646110571968 0.024872813611276093
000450 8e 59 e3 64 50 64 a7 3f f1 b3 95 a3 49 ea b6 bf
       0.04568721038383493 -0.08951244586724251
000460 b5 fd 69 d0 ba 1f 99 3f 2f 19 7e 46 ad 30 99 bf
       0.024535101862509474 -0.02459974997284425
000470 ba b1 8c 84 79 26 91 bf 00 11 60 3e 6f 5d b5 bf
       -0.016748331751999614 -0.08345694802125436
000480 1d e0 51 b5 02 e6 85 bf 68 f5 35 72 c5 94 b5 bf
       -0.010692616613809542 -0.0843013194880392
000490 4d 9b 84 88 29 c0 b8 3f f7 e4 dd 4f 58 6f bf bf
       0.09668216307600837 -0.12279273939011036
0004a0 59 00 17 1e 83 ba b9 3f 67 42 ec 92 07 b3 90 bf
       0.1005021999799295 -0.01630794367071289
0004b0 e3 f1 72 69 b1 cd b1 3f 10 9c 2b 27 ea 28 af 3f
       0.06954487633169708 0.06085902908471763
0004c0 f6 f6 ca e5 a3 2b af bf 4e 51 53 06 9b 85 b1 bf
       -0.0608798234947993 -0.06844490913801346
0004d0 84 74 aa 84 e9 5d a0 3f ad d0 5a 77 e2 3b bf bf
       0.03196649307685909 -0.12200751699384922
0004e0 eb 4c 4b 8e 4c 49 a2 3f bf 52 75 5f 33 aa b9 3f
       0.0357154773425011 0.10025330620312455
0004f0 1f 4d b3 b5 86 85 6c 3f c7 bb 9c 73 a1 9e ab 3f
       0.003481639008535389 0.053944630968878075
000500 1c 92 78 91 36 b1 b0 bf 13 29 d3 72 c4 b4 a3 3f
       -0.06520405818498215 0.03848852063818433
000510 5b 44 dd 06 2a cf 92 3f 8b 30 33 f7 35 d8 b2 3f
       0.018368393582310776 0.07361161503939877
000520 5e fc 20 93 ef 01 aa 3f 0a d7 2b 4b be 7a 82 3f
       0.05079601927763443 0.009023176831287855
000530 80 80 81 82 30 39 a1 3f c5 21 91 80 01 11 bd bf
       0.03363944619263837 -0.11354073895302637
000540 28 de e1 25 a0 d8 a5 bf 56 c6 78 a0 b6 84 b7 bf
       -0.04266834700041172 -0.0918687955643461
000550 35 ec d1 c4 eb 0e 9f 3f 27 55 79 b1 40 84 9e 3f
       0.030330356491031735 0.029801379043722733
000560 5a 8b f0 12 be c8 a7 3f 6f 19 dc 38 43 19 b7 bf
       0.04645341855236636 -0.09022922647645769
000570 6e 14 77 19 4f d0 b0 bf 0f 33 15 f1 17 c8 aa 3f
       -0.0656785428210058 0.05230784242539787
000580 90 21 70 1b 94 19 ba 3f 32 75 c4 05 45 fc 91 3f
       0.10195279760239928 0.01756389472676751
000590 c1 98 a9 e7 0d 85 b0 bf e7 fa 67 c5 da e7 96 bf
       -0.06453024774382056 -0.02236883001205117
0005a0 68 e3 9a 79 f2 6b b4 3f 3d f6 66 2f c4 35 94 bf
       0.07977214306710112 -0.019736352341843
0005b0 ba fb 00 0c 14 ed 92 3f 2f 42 c8 cd c6 69 97 bf
       0.01848250697389251 -0.022864443120911012
0005c0 f0 8a c1 d3 d4 ee 7e 3f b3 92 56 fb 9c 01 b3 3f
       0.007551986080303705 0.07424336563287674
0005d0 6d 38 4c ba ba 91 b9 3f 33 84 e2 1b 36 45 71 bf
       0.0998799042538125 -0.004216395724285826
0005e0 33 36 07 d7 fa 5d a9 3f 7d 2d e8 d8 da 5d b5 3f
       0.049545134304576875 0.08346336169795694
0005f0 6b 42 54 61 4f f1 a2 bf 46 a2 92 7a 6e 8e b7 3f
       -0.036997299796102855 0.09201708309650156
000600 c4 c8 3c 2e 37 b1 9f 3f c3 4e c4 2f ab 78 ab bf
       0.030949461171254425 -0.05365500410166881
000610 0f 9f 4c 32 41 ea b1 3f 7c d9 71 c4 c1 00 b2 3f
       0.06998069265375427 0.07032404943479337
000620 03 eb 67 2c dc 36 b5 3f b0 4a 6e 84 36 6a a3 3f
       0.08286834797028679 0.0379197155626988
000630 a7 cd bf 7e 32 33 b2 3f ff c6 00 3f 78 98 b2 3f
       0.07109370798553148 0.07263900316391057
000640 17 b1 c5 95 18 d7 b3 bf e5 89 7a 06 88 6a 91 bf
       -0.07750085503147762 -0.017007947345186642
000650 75 aa 74 a2 ea 9e b2 bf 2e 4b bf 26 ab c3 bb 3f
       -0.07273737398342368 0.10845441528298913
000660 8e 73 a5 1e 9d 74 b5 bf db 37 e2 ba d5 a5 93 3f
       -0.0838106345958762 0.019187297374223405
000670 d8 ed f4 1f 3b 14 a7 3f 5f b8 48 68 a9 0a a1 3f
       0.0450762249479017 0.03328446767805881
000680 70 6f 28 b0 06 1d ba 3f 5b b6 d1 ba 7f fe aa bf
       0.10200540352565013 -0.05272292285449672
000690 46 0e 0c f9 60 de bc 3f f2 7b 3f 05 68 02 b2 3f
       0.11276823120356835 0.07034921768307337
0006a0 8d 7d 10 c5 1c 99 b5 bf 73 02 f5 d7 b9 4e b5 3f
       -0.08436755953925097 0.08323251268758174
0006b0 1b fd 98 cb 3d 77 ba bf 60 03 07 04 bc ce 8e 3f
       -0.10338197918553187 0.015042752144724225
0006c0 7e d4 b5 41 09 d4 bc 3f dd 7c da 95 b9 79 ad bf
       0.11261041502241828 -0.05756931261316265
0006d0 aa 56 10 39 b1 48 b9 bf 91 7f 36 b2 28 2b b0 3f
       -0.09876544612083174 0.063158553608899
0006e0 d9 c3 9a d2 4d 06 be bf cb 0a 4c 16 5b 9c b7 3f
       -0.11728369132721585 0.09222955030785866
0006f0 1f 91 de 78 36 c5 af bf 37 7e 34 ae 5e 01 a6 3f
       -0.062051489119115504 0.042979201092972756
000700 aa 6b 4c 14 b4 94 be bf 47 c5 08 76 49 a1 b4 bf
       -0.11945653434342654 -0.08058604366012388
000710 d6 2b 26 e1 10 b6 88 bf 01 f6 84 1e da 28 b2 bf
       -0.012066013213162845 -0.07093585248090763
000720 79 93 b8 d2 3f b4 b7 3f 84 0b b4 98 af be b2 3f
       0.09259413618617697 0.07322213628871849
000730 2a 45 d3 58 5b 46 94 3f 6f 93 c1 ef f5 ff 88 3f
       0.019799639984573826 0.012206956271435946
000740 bf 06 e8 70 f4 a8 a7 3f a4 da 5f 12 11 7d a9 bf
       0.04621089819194201 -0.049782308094952016
000750 67 1b 25 00 ec 73 b1 bf 57 27 c9 58 95 5d bf bf
       -0.06817507747210315 -0.12252171914692887
000760 f7 54 2a 3a 6c 65 be bf e0 ce 3b d3 43 73 b6 bf
       -0.11873508853962621 -0.08769630343504842
000770 bc da 8f 1d a4 1b b6 bf 5e 32 47 03 db 54 b5 bf
       -0.08635926934935417 -0.0833260424617008
000780 6a ba e3 c6 4b 22 bb 3f a7 c8 a5 64 ba c8 b8 bf
       0.10599206548406817 -0.09681286771027207
000790 f3 d3 b4 4e c0 92 a0 3f 1c 74 84 d9 cb d5 bf 3f
       0.03236962281008706 0.12435602245791738
0007a0 b9 0c d8 bd 02 a3 b6 3f 48 a8 dc 77 89 8b a4 bf
       0.08842484602796476 -0.040127082711777506
0007b0 eb 5f 80 6c 1d 07 54 3f a7 9c 12 d7 67 84 b4 bf
       0.0012223994581343999 -0.0801453495101777
0007c0 c0 09 31 73 5b 93 b1 bf bb b8 fe 59 5b 81 ab bf
       -0.06865474283498596 -0.05372128938266615
0007d0 43 35 fe 08 43 fa bd 3f 85 fc e3 0e 3d 72 b1 bf
       0.11709994287067098 -0.06814939130343774
0007e0 9d b3 11 f2 f1 53 bd bf d0 c6 ad ce d5 e5 96 bf
       -0.11456215057269366 -0.02236112665145279
0007f0 49 d2 85 90 c2 0c 78 3f 28 f2 0b 81 ff f8 a3 3f
       0.005871543901197437 0.039009079458967755
