MachiKoro/Models/version_4_model_2.pt (torch, 469394 bytes, 12 tensors)

policyHead.0.weight f8 [128, 155]
000000 e7 eb 73 08 b8 03 a0 3f e9 c0 eb 14 c1 28 b2 3f
       0.03127837279495065 0.07093436012997113
000010 43 33 fa e2 e0 83 b1 3f c8 ad e7 db e6 28 b0 3f
       0.06841855565489845 0.06312411183141997
000020 8a 54 18 e5 da a4 ae bf eb dd 76 32 3f 27 88 3f
       -0.059851494279578324 0.011793607451962415
000030 17 62 12 15 6b 67 ac 3f df 6b 2e a6 ae 08 87 3f
       0.05547651893829569 0.01124702877659972
000040 ec 87 32 f4 b2 22 40 3f b7 52 b1 e2 84 f0 9e 3f
       0.0004924176977463258 0.03021438249227756
000050 2a db 42 12 1a a3 87 bf b8 e1 f0 7f 43 32 98 3f
       -0.011541560823713565 0.023629240688224334
000060 7c 89 24 74 7b 96 ad bf 55 49 97 ca 9a 64 b2 3f
       -0.057788713386133644 0.07184760519092966
000070 89 ab f3 00 f2 a3 ad bf 86 67 0b 25 7f d0 7f 3f
       -0.057891428581419886 0.0077671972837495325
000080 bb e6 8f 18 c7 1d 73 bf c8 14 88 fc 63 3a a1 bf
       -0.004667070120370982 -0.03364860971127254
000090 2b 2e cd 7d 23 0b aa bf 61 ea 0b 37 5d bd b0 3f
       -0.050866231066347765 0.06538946718129914
0000a0 df 9f 1f cc 85 fb a1 bf b9 9b 90 fd 3e 47 a2 3f
       -0.03512209049932812 0.03569981427454345
0000b0 a7 bc 66 13 a1 ce ad bf c8 b7 e1 cc 0e d4 61 bf
       -0.05821708070595238 -0.0021763123577817935
0000c0 c3 fb 44 6d d7 9d 76 3f 3e 49 af 88 5d 00 9a bf
       0.005521623145169965 -0.025392018764088357
0000d0 33 34 38 e0 2c 6b 94 bf 07 53 3b a8 8b 24 47 bf
       -0.019940091309809737 -0.0007062608642295084
0000e0 8b f8 a2 63 8a f1 b5 3f 4d 12 fa c6 ac ef 7d bf
       0.08571686680349637 -0.007308649932046563
0000f0 6a c8 86 94 08 73 8b bf 23 f4 b4 5f 89 f2 a8 3f
       -0.013403002770108158 0.048725407536473385
000100 95 3a 16 ff 5a 8a a6 bf b9 6e d9 bd a6 9e 94 3f
       -0.04402431835034296 0.02013645681141327
000110 2a 2a b0 1b 07 46 82 3f 85 41 cd a7 c6 6a b6 3f
       0.008922629864192084 0.0875667724296872
000120 99 7d b3 e5 aa 38 6a bf 0e 00 10 e5 3f e7 a9 bf
       -0.003200849326830468 -0.05059241934941393
000130 b4 6b e8 44 e6 ac b0 bf 31 27 4d 42 d9 51 b4 3f
       -0.06513823683091752 0.07937391155897157
000140 5c fb 9d e9 96 03 a3 bf 1b 87 9c 74 a1 d8 8f 3f
       -0.03713676072856373 0.015549908992003083
000150 8e 5e 6e dd b7 13 b8 bf 62 2c 9b 4e 13 44 b4 3f
       -0.09405087619813399 0.0791637484464203
000160 ed 4f 43 9a a3 0d b4 3f c3 42 16 14 bc d8 a2 bf
       0.07833311573205011 -0.03680980439378836
000170 4a 45 62 70 45 77 af 3f da 8a 30 95 38 6f b3 3f
       0.06145684239266787 0.07591584818195987
000180 76 a3 fb 1d be a1 a7 3f d8 a5 96 6f 7c 90 3a 3f
       0.046155873451261195 0.0004053405569615898
000190 e0 9d 23 4b 6d f2 b1 bf 12 2a d8 04 c3 80 b8 bf
       -0.07010539135409699 -0.0957147490336541
0001a0 6b b9 42 08 e3 4b 61 bf 06 a1 6f 6c 47 65 8e 3f
       -0.002111380979918189 0.014841611859040881
0001b0 ab 4d 6b 79 d4 f6 ad bf 22 ee 8e 19 b7 4d 8a 3f
       -0.058523788282083565 0.012843542544820844
0001c0 a5 81 23 4e f3 fa af 3f 40 e0 3d dc 1f 9f aa 3f
       0.062461474693694265 0.05199527324197151
0001d0 54 ad f2 7b 9d 74 73 3f a9 53 bf 0b c7 a6 b6 3f
       0.0047498847699601505 0.08848232304383309
0001e0 66 a7 7b 0e 05 51 a0 bf c2 93 8c ba cb 88 a4 3f
       -0.03186813165468898 0.04010616924487166
0001f0 85 44 98 37 f0 87 72 3f e1 ba 5b fb f6 5b b4 bf
       0.004524172161397226 -0.07952827107122175
000200 00 5f c8 bb 8c 89 a7 3f 9a b2 aa 1c 48 54 9f bf
       0.04597129623669893 -0.030594946622545117
000210 6f 04 4c 51 68 9b 8b 3f 9c ca f5 05 9f d2 a3 bf
       0.013480010014520453 -0.03871628711467176
000220 da 3b 47 5b 84 18 98 3f 68 61 f0 f2 9f f2 a5 bf
       0.02353102500074642 -0.04286670532764242
000230 84 c0 0f 54 f4 8e 91 bf 35 c0 00 1c 9d 3f 9d bf
       -0.01714689028807516 -0.02856297954002703
000240 db 31 3a 6b 64 3e 91 bf da 24 79 04 b2 f6 b2 bf
       -0.016839570088039806 -0.07407677277764738
000250 ab 7c 39 60 6b 24 a5 3f 7d f9 4e 61 1d 78 9b bf
       0.04129348325363343 -0.026825388969649467
000260 bd 91 fa cb 44 99 a0 bf cb 93 a3 3c ed 96 ae 3f
       -0.032419347667459665 0.059745229389399045
000270 08 67 12 23 e1 d9 b7 3f 49 72 48 3e 93 2e 89 3f
       0.09316832643744644 0.012295866335130816
000280 34 3f bc 70 e2 da b2 3f ee 76 29 6c c8 7a a9 3f
       0.07365241291358587 0.0497648841890007
000290 05 d4 bc e0 56 28 a5 3f 70 f9 10 1c b5 30 8e 3f
       0.041323389943876555 0.014741339606300058
0002a0 aa 4e b4 ae 30 15 b1 3f 90 02 b4 9a 0a f8 b4 3f
       0.06672958626978223 0.08190981175358503
0002b0 9c d4 74 7b 64 b1 b3 3f fd de 0b e9 60 ed a5 3f
       0.07692554487296593 0.04282667965702378
0002c0 03 c1 ab f2 a0 84 ab bf 98 2c 69 1d 78 5e 8f 3f
       -0.05374625170031957 0.01531690444712401
0002d0 93 15 e2 66 f1 5a b5 3f 64 f4 a4 d8 97 34 75 3f
       0.08341892968936397 0.005177109860878468
0002e0 cd 94 ef 3b 42 34 b2 3f fa 79 a1 f2 e3 11 98 bf
       0.07110990489271103 -0.023505746540076068
0002f0 c8 07 f7 43 2c 05 a0 3f 20 e4 93 de 26 e7 b1 3f
       0.03128946618700429 0.06993334707284804
000300 09 15 bb 5d dc 5d 46 3f 27 d2 eb c0 07 74 a4 3f
       0.0006825757986567436 0.03994774084086244
000310 6a ed ed f4 87 21 ab 3f f3 d7 81 62 a0 1c ae 3f
       0.05299019684658897 0.05881215288620458
000320 42 e9 78 05 40 dd b3 3f 1d b0 e5 08 68 80 7c 3f
       0.0775947583541994 0.00695839537216261
000330 2b 51 cd b3 7a 93 90 bf e6 af 22 9d b9 c4 94 3f
       -0.016187588905567523 0.02028169652537306
000340 f7 40 8f 15 05 ba b0 3f 6e 3e 44 f9 7c 52 af 3f
       0.06533843780858094 0.061176209857987426
000350 7f 34 8b 85 8e f4 a2 bf 6a 5b 80 de 3b d8 98 bf
       -0.03702206974194499 -0.024262366729171182
000360 7b 97 21 19 2c 6c af bf 93 1a b9 ee 0f 60 94 bf
       -0.06137216383721885 -0.019897698350428938
000370 51 92 5d 69 8f 8a 90 3f 86 3d 48 06 b4 0f a7 3f
       0.016153565221787073 0.04504168106734156
000380 05 3a dd 5b 86 7f b4 3f 34 89 0e 58 77 44 b5 3f
       0.08007087462213043 0.08307596111129528
000390 6d 29 dd dc 02 e9 b0 3f 88 03 17 42 8d 22 93 bf
       0.06605546848473916 -0.018686492117697934
0003a0 dc c3 2a c1 39 c4 b0 3f be 59 4c 81 ef 0e 84 3f
       0.06549416509621103 0.009794112332696222
0003b0 9b 4e 11 80 fb 1f 9d 3f 83 e1 93 ef 07 ff ba bf
       0.028442315761209796 -0.10545396422447166
0003c0 cf 2a 04 ec 14 7b a6 bf 94 b1 35 61 ad 6b a0 3f
       -0.04390778904970249 0.03207151233332009
0003d0 8f 37 d5 f7 d0 4d 9c bf ef 12 0b bb de fa ae 3f
       -0.02764059555675363 0.060507736523083604
0003e0 32 87 0e 28 b4 2e 98 3f 5e a0 91 a8 64 48 91 3f
       0.023615660614843388 0.016877720631243036
0003f0 1b 86 5a 1b b4 15 a3 3f fa 2b 54 df 3c 92 8a bf
       0.037274959887565205 -0.012974238934949856
000400 29 95 f0 85 2a a8 a8 bf 5c 2e 91 89 aa e2 a2 bf
       -0.04815800557143241 -0.036885575573788215
000410 1f 9c 16 2b 3f 8a b4 bf 13 c5 75 90 d9 34 a6 bf
       -0.08023447801552706 -0.04337196243694499
000420 dd b1 42 07 90 0a 86 3f 93 30 34 7a 3e 83 b6 bf
       0.010762334081243214 -0.0879401253079684
000430 10 a5 e8 4f cc e9 71 3f 31 0e 12 c5 6e 40 92 3f
       0.00437335786276917 0.017823916223745854
000440 6b b3 9a 70 3b 09 98 bf 1d 77 95 73 59 09 90 3f
       -0.023472717998333986 0.015660665206602354
000450 16 d1 86 40 72 72 b3 bf a2 e5 71 92 fb 8e 8e bf
       -0.0759650619064057 -0.01492115536369704
000460 b0 3f 35 1a b5 56 b5 bf 9a 7d e2 da 78 91 a1 bf
       -0.08335430040210556 -0.034312988967253946
000470 fa db aa ca 0b 97 ab 3f 67 75 f6 5b 48 fe 97 bf
       0.05388676499335783 -0.02343094884201005
000480 56 f4 8c 6b 69 81 ba 3f 44 c0 fd 68 10 44 92 bf
       0.1035371673178401 -0.017837768943934643
000490 94 9b f6 5b 1d 2b 86 3f b1 11 6c 3e af 6f a0 bf
       0.010824422234532872 -0.03210208546628069
0004a0 c3 24 9a 2f cf d7 95 3f 5c bc 39 e8 e6 42 a9 bf
       0.02133105972328476 -0.049338546607821526
0004b0 04 d6 b9 57 18 f2 9c 3f b5 61 21 07 0d 99 a2 bf
       0.028267269472470616 -0.03632393562355977
0004c0 4d 7e 28 ef 17 ce 9c bf 64 90 22 61 80 67 b1 bf
       -0.02812993428426429 -0.06798555728397698
0004d0 ec 57 3e 43 b5 45 a3 3f 1b 1a 13 e3 a7 1c a2 bf
       0.0376412052711855 -0.03537487646967837
0004e0 58 26 2e 82 64 08 ab 3f 68 af ef c5 e3 b2 ad 3f
       0.0527984055434671 0.05800544539655911
0004f0 e7 6a 69 cb 6e eb 84 bf 53 85 b5 97 aa 49 b0 3f
       -0.010214677412638774 0.06362405971369371
000500 64 2d 2c b3 b3 71 aa bf 95 07 38 09 f1 10 b9 3f
       -0.05164872705617077 0.0979147574908253
000510 aa e4 d2 4c 16 b0 a7 3f 38 93 fc 06 35 45 b4 bf
       0.04626531303206012 -0.07918101711818515
000520 99 79 d6 a1 39 cc b4 3f ac 8e e7 15 5b fb a2 bf
       0.0812412281142997 -0.03707394258870286
000530 92 cd 5b 13 67 b2 96 3f 85 68 86 be 45 04 a3 bf
       0.02216492705970336 -0.03714197111840271
000540 01 79 ca 9a 07 27 7e 3f 58 6f d9 d1 c6 b3 af 3f
       0.007361440377876117 0.06191846191060674
000550 80 fb e8 e3 5a 73 b0 3f 9b 11 66 a5 c1 ea 9f bf
       0.06426017822466967 -0.031168962211738465
000560 6c 30 69 1e 90 63 b0 bf cb 1e 22 f5 de 78 90 bf
       -0.06401921026662344 -0.016086085998295013
000570 03 d1 b7 95 8b ea b1 3f 21 1d ec be cf 74 a1 3f
       0.06998512654519477 0.03409432607264252
000580 96 6d 9e 46 67 5f a2 3f 2b a2 72 07 4e 6c b1 3f
       0.035884120340791956 0.06805885011511552
000590 94 04 75 ea a4 36 b1 bf 3c 02 96 d9 ba 78 a8 3f
       -0.06724005435991592 0.04779609590605502
0005a0 13 f7 23 63 5d 5f 88 3f 45 f8 fe 93 1c e8 aa 3f
       0.011900643909480679 0.052552121225276006
0005b0 fc 33 02 5a d1 f4 a9 bf 7f 97 95 c7 41 88 a1 bf
       -0.05069593642938483 -0.03424268304188071
0005c0 d5 bd 6d 39 ab 14 b4 bf 13 be f3 1d 15 58 b1 3f
       -0.07844038154666262 0.06775028210881144
0005d0 5f 24 89 49 cd a1 ab bf 73 32 db 4b 4d fe 92 3f
       -0.053968825556304216 0.018548209910294888
0005e0 4b fe 90 c6 15 b9 a4 3f 74 a6 9c 28 f3 00 a5 3f
       0.04047458695322045 0.04102287169218935
0005f0 30 69 a2 8f 52 53 af bf 9e 1d 43 21 6e ac af 3f
       -0.061182575257776484 0.06186241298706395
000600 a4 69 bf 41 f1 c3 9f 3f 38 d4 79 21 51 54 b0 3f
       0.03102089847366475 0.06378657405169086
000610 78 b5 f4 9a e6 29 95 bf 0d 4c 03 17 11 e2 a2 3f
       -0.020667651374585344 0.03688100248259483
000620 f9 32 1d 84 12 79 a2 bf c3 8d 74 28 54 dd 3d 3f
       -0.03607995856018493 0.00045569710387579845
000630 04 d4 fc 7a 83 b9 b1 3f 52 26 6d fb d7 6f 65 3f
       0.0692369628203125 0.0026168077851352134
000640 ad 04 5d 48 b8 67 a0 3f e5 9b eb f1 03 42 a7 bf
       0.03204131968824107 -0.045425532609264775
000650 71 df d7 24 c3 55 a0 3f c8 fe 9a b9 8c 0b a5 bf
       0.03190431427714103 -0.04110374227229624
000660 55 51 78 b0 bb 93 8e 3f 6e 4f 73 48 32 1d b4 bf
       0.014930216143547762 -0.0785705019837317
000670 7f b0 37 e0 20 c9 a6 bf f1 47 65 f6 d0 fc a1 bf
       -0.04450323807745437 -0.035131959989158086
000680 42 0a f3 72 62 ce 7e bf 98 08 60 9f 1b 64 84 bf
       -0.007521042410362501 -0.009956565667384162
000690 fe cd 7e 40 82 bf a3 3f 7b 19 e4 8f d3 43 a0 bf
       0.03857047116562383 -0.03176747447473623
0006a0 96 d2 53 66 31 48 b3 3f 46 17 3b ae 7f be 74 3f
       0.07532032726505586 0.005064486267377271
0006b0 ea dd e9 60 63 09 91 3f 9a cb 56 b6 eb 38 9e 3f
       0.01663737563145943 0.02951401043328481
0006c0 15 9e 81 bf 44 a0 a7 bf bd 0c 13 6d 5b aa b2 bf
       -0.04614462697719205 -0.07291194355916537
0006d0 14 e8 e0 cc 87 b0 9b bf 68 9d 02 0b 34 1c a0 bf
       -0.027040597801011826 -0.031465174049396805
0006e0 c5 3e 93 6f 53 ca 64 bf d7 47 2a c9 8f 08 a3 3f
       -0.0025378827673206727 0.03717469530705813
0006f0 81 2c 9d af d5 15 a4 bf 36 85 5c 3c 40 0b b2 3f
       -0.03922908562398054 0.07048417543093852
000700 48 af c4 ec 20 73 a4 3f 08 ea 48 90 47 ab ad bf
       0.03994086160886795 -0.05794738422669715
000710 db 3a 59 a9 04 4f a6 3f 65 da f7 d5 18 6a 90 bf
       0.04357161109202475 -0.016029727992611948
000720 e3 9e 6b ec 52 64 b2 bf c8 7c 32 22 54 c4 a6 bf
       -0.0718433215330339 -0.04446661870428553
000730 17 7b be 46 0c 71 b8 3f e1 d5 92 fe 2a 16 92 3f
       0.09547497489118616 0.017662689006746283
000740 02 b4 f0 6e 08 c1 b1 3f ee 88 b8 f6 b5 7c 81 bf
       0.06935169895650975 -0.008538648216078273
000750 60 87 c4 fd eb a8 a7 bf c3 92 5b c3 e9 4e a5 bf
       -0.046210646369458486 -0.0416176844571843
000760 c3 e9 65 0f ae c7 aa bf bd 57 fb af bf aa 97 3f
       -0.05230468690838876 0.023112292400433655
000770 15 02 5a 9e 88 ed 95 3f 11 66 63 ef c9 84 91 3f
       0.021413931527151393 0.01710811160669407
000780 f1 e9 7b 07 73 01 96 3f f0 97 3c f3 83 b4 b8 bf
       0.021489903766431288 -0.09650444687267146
000790 58 13 c7 e7 99 2b ae 3f 81 3a 87 bd 99 73 a7 3f
       0.058926400702637494 0.04580383719040971
0007a0 42 20 26 b6 bd 2f b2 3f 1f 3d dc 9c c0 6a 78 3f
       0.0710409707736526 0.005961182015894267
0007b0 6c 35 94 28 ec 3e a4 3f d0 49 34 db 2a 1b 65 bf
       0.03954256053303137 -0.0025764309917885933
0007c0 7e 6d d2 17 94 aa 94 bf ec a6 80 3a 27 3a ac bf
       -0.02018195529363486 -0.05513117398397846
0007d0 be dc 9b 68 9d bc 54 bf f6 24 71 51 4c a4 aa 3f
       -0.0012656724160800405 0.05203474516071964
0007e0 a6 d4 88 7c 98 5b ba 3f e5 29 76 38 2f a4 b0 bf
       0.10296013870613993 -0.0650052559705397
0007f0 98 9c c5 24 57 a0 4b 3f 28 65 47 89 3d e5 a0 bf
       0.0008430886751228548 -0.03299896527068774

policyHead.0.bias f8 [128]
000000 12 dc e2 08 c7 08 a2 3f c1 5c 32 eb 1e 74 a5 bf
       0.03522321685289155 -0.04190155621579939
000010 af 42 9a 9d 22 67 ad bf 72 73 42 e6 0d ec a5 bf
       -0.057427484263035004 -0.04281657634530846
000020 fd 10 f9 4f ec 6e a7 bf 5b 40 4e b4 1f c6 ac 3f
       -0.04576815105659369 0.05619906497952406
000030 e3 a1 87 ad 62 55 aa 3f f0 57 cb b6 af 8f a2 bf
       0.05143268936427938 -0.03625249010444509
000040 51 6f b0 03 06 d0 a2 bf ab ac 52 26 28 ff ab bf
       -0.03674334330591356 -0.05468106715974249
000050 11 d9 d3 9c 82 89 73 bf d3 07 b9 fa 53 27 ac bf
       -0.004769811826227392 -0.054987549167449544
000060 cc 7f be 19 49 7d b8 3f d9 d9 82 67 18 fb b2 bf
       0.09566170576590521 -0.07414391066672667
000070 2e 33 9a 5d 52 91 a2 bf 43 24 ed e9 ea 96 b2 3f
       -0.036264966894213976 0.07261532031147148
000080 13 cd b7 26 6f 08 b3 3f ba ea 20 ce 9a 2e b4 3f
       0.07434744544280063 0.07883613140522075
000090 c9 ba 02 04 30 f0 a4 bf dd c8 26 2e 77 3a 81 3f
       -0.04089498566587719 0.008412295432979661
0000a0 37 9c 69 4f c8 5b aa bf 26 c0 4f e9 6c 4c b4 3f
       -0.05148149461165768 0.07929115959245844
0000b0 1d 0f 49 3a 90 64 a4 bf 67 b4 29 34 45 9b b1 bf
       -0.0398297377728609 -0.06877548717030067
0000c0 88 91 34 d7 64 4b b3 3f 94 fe 71 21 7f 65 9d bf
       0.07536916975056418 -0.02870749131807189
0000d0 6c 40 8e 2f 4f 76 7d bf a5 15 ab de 21 01 91 bf
       -0.007192906684295602 -0.016605881896585867
0000e0 7d f6 4e 3b ec 9e ad 3f 2e 91 7f ac c2 12 b3 3f
       0.05785310958843313 0.07450501166710374
0000f0 41 42 8c 51 87 37 9e 3f ca 3a 9d 30 6a 93 b4 3f
       0.02950869975308224 0.08037437140340412
000100 50 02 5f 8c 8e dd 6e 3f 9c 18 ba 5d 06 e7 aa bf
       0.0037677559039084665 -0.05254382986190473
000110 f4 a4 db dd 8e f7 93 3f ad 64 71 89 46 91 9e bf
       0.019499046603333306 -0.029851057185031383
000120 6d f8 9a eb 95 23 78 bf ee 91 ac be 1d 70 96 bf
       -0.005893312097837816 -0.02191206432611808
000130 94 60 5e 74 49 56 82 3f 74 7f a3 b4 b0 89 14 bf
       0.008953641761579235 -7.834569001685475e-05
000140 f7 42 ed 2a a6 43 a2 bf dd 49 a3 12 c5 2b b3 bf
       -0.0356723716164477 -0.07488662438416989
000150 61 4b 48 00 d2 1e b6 3f 13 8a 2c 9a 6b 2b a6 3f
       0.08640778071302925 0.04330002076155295
000160 eb 60 c8 57 e7 dc 55 3f 21 eb 0a 7d 22 83 a6 3f
       0.0013344058235187871 0.043969228519435306
000170 7d 94 74 8e d9 76 69 3f a1 02 0c 53 c8 5f 90 bf
       0.003108429827664737 -0.01599038130643982
000180 ed be c1 31 98 31 7e 3f 15 ce 20 a7 17 09 78 bf
       0.0073715157596862925 -0.005868046182559113
000190 34 ad f0 3a 54 6f b0 bf 8a dc 4d b0 37 a8 a2 3f
       -0.06419874609917003 0.03643964793348527
0001a0 e4 f0 a6 1e 3c 2d ab bf c9 a6 20 36 94 23 9f 3f
       -0.053079489461625134 0.030409160426791346
0001b0 46 b9 be 33 a1 0d 8d 3f eb 4f d5 59 a9 6f 8a bf
       0.014186152831680798 -0.012908289960854765
0001c0 a3 ef 50 f2 e7 b8 a4 3f 61 09 65 9d 7b 6a a0 bf
       0.04047322113953491 -0.032062399829117856
0001d0 61 d3 a3 12 6a 47 8c bf fd 23 50 07 97 0e b0 bf
       -0.013808087056966735 -0.06272262505093802
0001e0 60 78 d7 2f a1 f7 9f bf 0a d4 6f e8 83 39 a8 3f
       -0.031218069596313902 0.047313806651722315
0001f0 4d 24 70 d2 6d fd 98 bf 39 0e e9 2b e9 f6 86 bf
       -0.02440425488388014 -0.011213132526911017
000200 cb fe f4 df 6c 93 a5 3f 9b 78 cd 6b ad cb b2 bf
       0.042140390718939345 -0.0734203708829874
000210 60 e2 51 06 aa 98 72 bf 88 8e 81 d4 a2 e0 81 3f
       -0.004540123137410562 0.008729240522547657
000220 5e 95 7b 1f 21 54 a4 3f 55 9c 89 40 c0 eb 7f bf
       0.039704356282338024 -0.007793189034237609
000230 08 35 05 6f 2f c5 91 bf eb d7 55 e3 b8 fb 89 3f
       -0.017353764678138567 0.012687153279994553
000240 06 8e 78 41 b1 db ab bf b3 76 e0 2d e0 10 95 bf
       -0.05441049503522426 -0.020572188186739292
000250 98 cc 89 76 6d a6 b0 3f d9 53 de 6b 7c b7 97 bf
       0.0650394834899991 -0.023160881122368557
000260 1a e3 9e b4 46 52 99 3f 8e 98 49 5b 5f ed 9f 3f
       0.02472792127057053 0.031178941675897458
000270 db 2a 3d 3b 5f 50 ab bf 21 c2 77 bb 28 e6 af 3f
       -0.053347564679446534 0.062302849659207966
000280 6c be e0 57 54 fd a8 bf 73 e6 c0 37 36 38 83 bf
       -0.04880775044182148 -0.009384559227430622
000290 7d 58 70 ec 8d 1c 9e bf f8 c4 81 b7 b2 db b4 3f
       -0.029405801349718253 0.0814773271574899
0002a0 8e 31 25 b0 e7 56 75 3f e0 c1 80 6b f3 07 b1 3f
       0.005209832221521172 0.0665275704821009
0002b0 21 1d 70 6f 6c c3 a4 bf c4 4a 08 86 67 30 95 3f
       -0.04055346355749579 0.020692460590064923
0002c0 7b 05 58 d2 7e 54 93 3f 2b 97 11 4d ad 62 78 3f
       0.018877011860245468 0.005953480679726823
0002d0 6d b1 09 bd 82 47 9d 3f 55 e1 46 00 92 a7 9c bf
       0.028593104160266437 -0.02798298002900997
0002e0 5a 3e 72 13 02 5d a5 bf 7a 13 4f 3e b1 9f ae bf
       -0.0417252205598941 -0.05981210599524096
0002f0 2e 0c fe 88 5c d9 b1 bf f2 28 76 95 58 0d a0 3f
       -0.0697229227499043 0.03135182213289224
000300 04 1b 42 73 00 0f aa bf 0a 5f 51 59 04 69 a3 bf
       -0.050895704335792075 -0.0379105910330378
000310 d3 5e 08 4f c4 0d b0 bf 55 88 a4 5e 9d ff b0 bf
       -0.06271006516942217 -0.06640037117588922
000320 ab 25 0c 38 1f 94 a6 bf 47 f0 58 82 5c 4b aa bf
       -0.04409883078740092 -0.05135621157793984
000330 53 92 5d fc ee fb a6 3f 86 66 65 36 6e 4b b3 3f
       0.04489085035928455 0.07536972835569075
000340 0e e5 73 f0 e2 49 88 3f d4 02 22 86 55 6f 85 3f
       0.011859677279505234 0.010466259151372816
000350 55 78 9c a4 19 88 a6 3f 30 00 b9 d1 96 25 98 3f
       0.04400711187757681 0.02358089118047263
000360 4c df 16 46 b1 01 ac bf 26 8b b6 88 4e b7 a1 3f
       -0.0547004125650675 0.034601644695859954
000370 66 40 74 bb 65 e4 a7 3f 49 88 cd 17 69 ca a1 bf
       0.046664408810216426 -0.03474739471018091
000380 44 2a 6a 94 5c 22 a2 bf e5 da b6 b0 2d eb 7a 3f
       -0.035418408505468096 0.006571939923950086
000390 50 6c c1 32 1e 69 a4 bf a7 02 69 f8 b7 76 a4 bf
       -0.03986448640417761 -0.039968251298437445
0003a0 50 c1 30 8c 96 13 13 3f 98 66 46 a2 e1 3f 7b bf
       7.277113313431294e-05 -0.006652718908662834
0003b0 0d a6 e9 32 09 02 9a 3f 86 ef db 8c 26 41 9a bf
       0.02539839146849059 -0.025639154765471094
0003c0 4d 4f 95 81 46 2a 92 bf 5e 31 47 0f 95 ff b0 bf
       -0.017739392909177188 -0.0663998758602182
0003d0 39 5b 35 d2 47 84 a7 3f 3f d6 c0 ef 96 e8 ab 3f
       0.045931095514495764 0.05450889279056214
0003e0 21 0a be 81 72 a2 b2 3f 48 ce 71 09 e7 e9 74 bf
       0.0727912489656224 -0.005105879295217948
0003f0 f8 d6 14 ab 72 12 b0 bf be 84 3b 74 72 27 a7 bf
       -0.06278149296562308 -0.04522283238271417

policyHead.2.weight f8 [64, 128]
000000 5e ff 30 c0 5f 7f 72 3f 11 d9 61 6b 57 72 a4 bf
       0.0045160045875148585 -0.039934856279545745
000010 4d a1 e5 79 40 f1 b9 3f cf 2f c3 84 14 fd 8a bf
       0.10133746124268335 -0.013178024579609286
000020 dd ef 8a ec b6 6c 9b 3f ad e8 d8 a4 04 fb 9e 3f
       0.026781900584623364 0.03025443321369241
000030 16 fb c6 b6 0e 5a 75 bf 9e 05 25 f1 41 8a b0 3f
       -0.005212838627300062 0.06460964333839178
000040 ff 5c 3a 54 b1 cb b4 3f 69 39 ee f5 ef c2 8c bf
       0.08123310381266789 -0.014043688481049714
000050 30 87 07 af 3c 4b 88 3f 02 a4 cb f9 18 83 9f 3f
       0.011862253276322926 0.03077353500967562
000060 92 f9 81 53 81 e0 b9 3f 63 70 ee 9e 6c ed ac bf
       0.10108192719233092 -0.05649890365677448
000070 ec 31 94 af e3 c2 ae 3f 5c 6c 2e 00 28 ff 46 3f
       0.060080638106317114 0.0007018037143667988
000080 44 85 43 71 a3 bb 96 bf 59 f7 85 04 cd 2e b5 3f
       -0.022200158870764555 0.08274537430221808
000090 33 13 4f 19 b1 9b a7 bf c9 9d 10 43 50 a9 b4 3f
       -0.04610970910974856 0.08070851933791014
0000a0 22 e5 21 66 d6 7d b4 3f 9a 6d 91 1c 08 41 93 bf
       0.08004512780634745 -0.01880276369443621
0000b0 d3 a7 b9 96 8b 99 88 3f a8 e1 b8 c2 96 56 ac bf
       0.012011614358204447 -0.05534812094669245
0000c0 dc 25 4e f4 bc 04 a8 bf 5f 3f 92 8d c4 bf a1 bf
       -0.04691114885560996 -0.0346661970917228
0000d0 ef 25 11 b7 70 0d af 3f 8a 81 8d 0b ac b4 90 3f
       0.060649416300815655 0.016314209179996854
0000e0 a6 54 aa bf 76 6a aa bf a3 cc 94 1b 5f 17 a7 bf
       -0.05159350480713813 -0.045100185505725386
0000f0 14 81 de f0 1c af 88 bf 3c 73 1a 75 e5 1c ae 3f
       -0.012052751637214011 0.058814211411322564
000100 da f9 fd b7 4d b6 ab 3f 15 f4 4d a2 d0 0f 92 3f
       0.05412524100301015 0.017638454347878325
000110 4d 1c 69 50 4e 3e 86 bf 6b c9 a2 2b 4e bb ac bf
       -0.010861026600777058 -0.05611652643837569
000120 c3 11 4a e2 16 b4 63 3f b2 a8 5c 44 18 58 92 bf
       0.002405209250641445 -0.017914179966432804
000130 0d 43 58 58 f4 df b3 3f e3 7f 46 e9 4f 8a 5e bf
       0.07763602406363308 -0.0018640308745503313
000140 30 c8 22 11 9b 7b ae bf 4a 00 97 e7 66 62 b8 bf
       -0.05953678688219133 -0.0952514949231055
000150 18 d1 bc f6 e8 97 9e bf 0e 81 a6 8b bd 31 a5 3f
       -0.029876365718522896 0.041395114228409566
000160 94 3c 27 17 60 33 a9 bf c1 8b 8e fa d2 61 b1 bf
       -0.049220087839438126 -0.067898927851771
000170 a2 c9 91 b3 6a d2 87 bf 0d 5e bb c5 7f 8f b3 bf
       -0.011631806950593685 -0.07640837266387042
000180 58 f8 d1 27 77 7b b4 3f 6d 46 63 71 b5 1c ae 3f
       0.08000893327877756 0.05881278046730363
000190 64 97 41 7c 46 4a ae 3f 24 94 ee ac 63 94 be bf
       0.05916042582320705 -0.11945174190493951
0001a0 24 93 d9 49 20 bf 92 bf 8b 9f 8b d9 8e f0 a1 bf
       -0.0183072133135226 -0.035038436942897176
0001b0 ac cf f5 00 e9 95 b2 bf 62 d8 5f af e0 34 b2 bf
       -0.07259994767610917 -0.07111934930421307
0001c0 0d 5c 75 a5 6e 41 a6 bf b5 b1 50 e7 1a f7 a0 3f
       -0.04346795816189095 0.03313526223823563
0001d0 88 81 e2 73 23 c9 8f 3f 42 d8 82 df 68 c6 a3 bf
       0.015520359968207456 -0.038623120578833894
0001e0 dd 1b ae cf 23 d1 b6 3f f3 9e b2 c7 cd 78 70 bf
       0.08912872143092394 -0.0040214575084644875
0001f0 25 05 68 c1 3b d8 9b 3f ca 2d 35 a1 60 aa a3 3f
       0.027192052535615425 0.03840925186031148
000200 52 86 c7 06 c0 9f 87 bf 24 21 69 31 59 92 63 3f
       -0.01153516789139811 0.0023891202975258197
000210 3d 14 3a 53 f4 1f 9b bf c0 5a 97 7f d1 6c a9 3f
       -0.026489083843007178 0.049658343148327955
000220 08 08 f6 fc fd 51 b5 3f cb fd bc 75 e1 43 b0 3f
       0.0832823507862771 0.06353577732533393
000230 da 93 ca 37 ab 1d b0 bf da 80 e9 77 9f e4 a5 bf
       -0.0629527102669977 -0.04275987948199296
000240 a7 5d ff 6a 2e 34 a5 bf 22 f5 40 52 eb 60 5b 3f
       -0.04141373687860588 0.0016710565623861491
000250 6e de b8 52 47 bd bc 3f 69 38 d0 df e2 5c ab 3f
       0.11226316232284159 0.05344304067703904
000260 51 79 a4 d7 6f fe 92 bf 39 bb f3 41 5c 88 a3 3f
       -0.018548724686405397 0.03814972214774177
000270 6e 08 30 20 ca 44 9b bf b8 e8 a8 00 e5 f8 93 3f
       -0.02662959882219023 0.019504144826193864
000280 0c c0 8a 2a 53 3b 9f 3f e6 95 6c 9d 26 38 ad 3f
       0.030499743911320862 0.057069021908585246
000290 66 9e d9 de 5f 37 99 bf be dc 2e 94 57 90 b0 3f
       -0.024625299431504287 0.06470248573065171
0002a0 bb 53 db 3a 40 5a 8d 3f 69 57 89 81 e0 3a a6 3f
       0.014332296177068096 0.04341794568305952
0002b0 71 25 c9 d1 3f f7 b1 3f f4 d1 d6 a4 6a 92 7c 3f
       0.07017897483560433 0.0069755712296921575
0002c0 12 74 11 35 8f 3a ba 3f a7 55 cf b3 3f 2f 9d 3f
       0.10245604558572577 0.028500552510953316
0002d0 80 68 0b 4b 47 96 8a 3f 8d ba 86 87 31 c3 97 bf
       0.012981945970228503 -0.02320554151236336
0002e0 4a 7b 96 f3 75 56 a1 bf bc 4a 05 f1 bd 3d a8 3f
       -0.03386276815876117 0.047346053763836576
0002f0 aa 8d d8 37 df 32 a5 3f c9 68 d4 48 f3 b9 a2 bf
       0.04140374714577473 -0.036574938431117206
000300 f5 72 15 b2 ed 78 a6 3f 87 50 bd 5f d0 00 a9 bf
       0.04389136122583707 -0.04883433502860251
000310 36 cd 84 15 85 89 b3 3f fc c3 eb 42 b3 e5 a8 3f
       0.0763171365295435 0.048627473753988654
000320 bd 41 8c 41 87 fc b2 3f 8c d3 31 bf 6a 8a bb 3f
       0.07416577673234932 0.10758082549894094
000330 af 29 16 93 8f 26 64 3f c5 47 a6 dd 46 1a bb 3f
       0.0024597934904637335 0.10586970244756262
000340 c8 b3 b0 f6 d9 f1 aa bf 62 e0 71 49 12 19 99 3f
       -0.05262642990451344 0.024509702427593878
000350 c7 1f 3d 88 d2 33 a3 3f 89 da 51 14 3b 70 ab bf
       0.03750474846907497 -0.05359062789005004
000360 a3 98 d1 07 35 33 76 bf cc 74 61 ac 41 18 ae 3f
       -0.0054199286943001105 0.05877881268745852
000370 b1 7c 43 b7 87 ba a8 3f fd f5 c2 71 43 a8 ad 3f
       0.0482981120310283 0.05792437328043929
000380 5e c4 e0 f3 fa f0 9b 3f 34 04 3e ba eb 44 90 bf
       0.027286454329616176 -0.015887912027668885
000390 ee c7 a2 c1 3c a0 7d bf 89 ef bd f9 35 c6 ab bf
       -0.007232892350815574 -0.05424660371406193
0003a0 62 78 27 d8 67 60 a9 bf 2a 42 37 cf 48 ae ad 3f
       -0.04956364167786444 0.05797030953874967
0003b0 b3 de 35 c0 d5 7d a7 3f 54 8a 1f f7 90 36 a1 bf
       0.04588191958731382 -0.03361943260803871
0003c0 60 40 45 48 a9 40 a4 bf e7 1c f9 2e db 48 b6 bf
       -0.03955582625587861 -0.08704919716648228
0003d0 9e cf 83 34 0e d4 a6 3f 92 19 48 19 eb a0 a0 bf
       0.04458660498667587 -0.032477709613931385
0003e0 95 a4 05 30 b7 d5 af 3f 9f 10 5e a4 97 8a a7 bf
       0.06217739545065474 -0.0459792507308816
0003f0 3c 74 03 fc 33 b2 ba bf 7b ea 24 60 83 0b ac 3f
       -0.10428166296647218 0.05477533863673486
000400 66 9e 88 7c fe d0 a1 3f 0a 65 63 e0 f6 c4 b4 bf
       0.03479762335001339 -0.08113043764332786
000410 0c e2 ec ef bb 3a aa bf b1 d3 71 93 48 df ad 3f
       -0.05122935584808283 0.05834414291249546
000420 68 63 80 d8 c4 52 aa bf bc 1b ea e8 05 6c a1 bf
       -0.051412726810844245 -0.03402727573580175
000430 77 21 7c 7f 63 7f 8d bf 81 db 3c bd 7d 89 a4 bf
       -0.01440313084414478 -0.040111474371250296
000440 24 f3 df 13 f8 3b 86 3f 2e b6 ea 53 98 de b6 3f
       0.010856569391756894 0.08933403061629328
000450 9e 42 b9 65 73 57 a0 3f ba 35 89 ee f9 e0 b9 3f
       0.031917196433487435 0.10108911584503391
000460 92 d4 e5 c3 d4 da b4 bf 0f 91 76 8a 31 c8 bd 3f
       -0.08146409781132238 0.11633596067855854
000470 d5 90 eb 9b 29 4f ab 3f b3 71 81 bc 35 3c ac 3f
       0.05333833721468443 0.05514686513990643
000480 0c ab b5 4c 4d a9 ae bf e2 50 64 be c2 9c b4 3f
       -0.05988542138478267 0.08051697872389554
000490 74 37 57 f5 bc 95 9f bf c7 3c f5 d6 4f 54 b4 3f
       -0.030844643091590254 0.07941149709698712
0004a0 b4 ce d8 19 f0 26 b1 bf 84 c8 c6 a2 62 5c 9b bf
       -0.0670003951170724 -0.026719609437073646
0004b0 03 42 10 74 0e be a7 3f 49 61 d0 b6 53 94 a0 bf
       0.04637189070502148 -0.03238164526573201
0004c0 89 93 a8 87 39 b3 ae bf d3 67 c6 70 49 fe 5f 3f
       -0.059961126146197925 0.0019527165596628828
0004d0 ab 0e 57 01 22 28 9a 3f a6 36 f0 2d e2 44 a8 bf
       0.02554371960810779 -0.04740053950091054
0004e0 4c 8b 23 4a e3 03 92 3f 2a 16 ac 95 c5 38 b4 bf
       0.017592955970836585 -0.07899126915079849
0004f0 b0 f1 58 a5 fc 1a 96 3f 04 72 11 1f ea 06 b3 3f
       0.021587321846014695 0.07432425745486887
000500 ff 8d 84 e0 89 41 8f bf 85 84 4d 9b 2f 70 88 bf
       -0.015261723675002335 -0.011932727744069513
000510 e0 4d 76 2b b0 9f 96 3f 6b ad 5d fc 31 25 73 3f
       0.022093536999433172 0.004674144036339238
000520 9b f4 ce 5c 8b 95 a0 bf a6 96 42 89 45 75 91 3f
       -0.03239093311229021 0.01704891824979051
000530 02 70 31 92 5b ac 8f bf 7e 27 ac df b1 51 ba bf
       -0.015465464972457713 -0.10280906401399467
000540 0f bb ad cd 4f f6 90 bf 5a 76 04 d4 e7 ce a5 3f
       -0.01656460469115034 0.04259418929198651
000550 99 09 3a 94 33 00 a9 bf 9c c9 bf 4c 4e 85 b7 bf
       -0.0488296621743018 -0.09187783597716365
000560 56 3a 96 4e cc 67 95 bf 4a 8b 16 59 ff 8a 9c bf
       -0.020903770729598335 -0.027873983204368437
000570 e3 19 57 57 44 07 ad 3f 2e 64 2e 2e a0 18 a2 bf
       0.056696067487383116 -0.03534412921653317
000580 9f 79 00 64 67 d6 97 3f 32 53 27 ab df a9 b3 bf
       0.02327882335532083 -0.07681081703715334
000590 ff b5 98 f7 bb 51 af bf 76 17 b6 e9 88 bf bd bf
       -0.06117045781534713 -0.11620383935777831
0005a0 7c f1 b2 f7 af 95 a9 3f d7 32 b7 64 28 f2 ac 3f
       0.04997014902753258 0.056535017294299265
0005b0 65 13 00 f6 09 a5 a3 3f 4b 60 73 ac c8 ea be bf
       0.03836852195676136 -0.12077001772138478
0005c0 71 20 54 d0 fc 0e a8 3f 60 d1 30 62 3d 4c 59 bf
       0.046989345961322544 -0.001544055886154437
0005d0 32 86 56 64 97 23 8d 3f 56 c9 ee 14 c8 ff b7 bf
       0.014228041410038281 -0.09374666701368048
0005e0 d9 f4 b6 60 81 8c a8 3f b6 21 10 9f 2c d8 9a 3f
       0.04794697099303286 0.026215264519153535
0005f0 87 23 e7 97 ed fe b7 bf 31 60 ab fc cb 7d 77 3f
       -0.09373364409033345 0.00573520357530559
000600 80 a3 08 05 e7 b3 a0 bf 9c ef 49 58 28 58 a6 3f
       -0.03262254654357033 0.04364133908981602
000610 ae 4b 17 ae 69 fc 6b 3f 02 35 b4 71 58 18 a8 bf
       0.003416258245786583 -0.04706074131000017
000620 a8 4b a2 ad 3e 8a b0 3f 8e 5f a3 67 32 e3 ad 3f
       0.06460944880590935 0.05837399973978484
000630 95 40 5c 40 4c 3d 99 3f 27 51 d7 10 4b 72 b1 3f
       0.024647895267719894 0.06815022622260312
000640 72 a7 49 b8 60 72 b4 bf 97 10 95 e0 7d 02 9b 3f
       -0.07987026690684987 0.026376692612089938
000650 5f ad a8 af 80 74 8a 3f f2 a2 2d f7 33 af ae bf
       0.012917523728069367 -0.059930442736748094
000660 38 d1 e0 ba 42 bd 82 3f c3 50 d7 2b 49 0d 79 3f
       0.009150048568792188 0.0061161859752766915
000670 4f e9 f2 5a f0 6b 9f bf 0c 66 e5 cb 5b 5e ac 3f
       -0.03068519168002953 0.055407398833903526
000680 5e 5f 17 0b 5f fd ae 3f 85 cc 8e 4e 29 11 a6 bf
       0.060526819328230216 -0.04309968074758167
000690 13 a1 d6 d9 92 4e 8c bf 0d 46 05 be fc f1 b2 bf
       -0.01382174231805825 -0.07400493277716454
0006a0 37 74 11 d3 49 97 a2 3f 1e b5 00 a9 d5 43 b6 3f
       0.0363104887153231 0.0869725740055469
0006b0 fe eb 68 74 9a 06 ad bf 73 4f 8c ad a1 f0 72 3f
       -0.05669100447672547 0.004624015383132607
0006c0 40 51 f1 dc e5 02 8a 3f 9a d3 69 84 11 21 b6 3f
       0.012700839810499631 0.08644208414791735
0006d0 33 b5 09 e3 48 c6 9b 3f cd d9 cc 2c 19 64 98 bf
       0.027123583657546035 -0.023819344863307102
0006e0 06 32 8c b2 fc 97 b8 bf 6b 38 85 28 40 a6 84 3f
       -0.09606913909028245 0.0100827228895037
0006f0 d6 11 7d f7 be eb b0 bf 2e 92 75 74 21 2a a0 bf
       -0.06609719793511401 -0.03157143160459373
000700 12 81 ee 9c ed 31 77 3f 23 f5 2c 5f e6 eb a2 3f
       0.00566284959396081 0.03695602332889283
000710 db fc d6 c0 b5 58 b3 bf 2e de 95 49 7a be a3 3f
       -0.07557235677721812 0.03856260441073932
000720 6a 1a ff 16 39 40 b7 3f e6 ee 52 20 bb de aa bf
       0.09082371531904135 -0.05248055238322795
000730 a5 10 fc a2 b7 45 a9 bf 65 68 87 7c d2 54 a3 3f
       -0.04936002602156123 0.03775651712540266
000740 dc d0 37 3f 91 3e a5 bf 28 8c 8b ed 70 bf b2 bf
       -0.041492976157231104 -0.07323365973893259
000750 c4 ab 6f ae 9a 8e b3 3f ed a7 41 96 1f 21 7e 3f
       0.07639471777626655 0.007355807672960052
000760 a0 90 54 f7 ac 7e af bf a0 69 ea f7 87 9f b1 3f
       -0.06151333350342836 0.06884050181034818
000770 f3 82 52 2d 5c 9c 88 3f 0b a0 3f 98 ee b0 5c 3f
       0.012016983159186511 0.0017511682535715802
000780 9e 5b 97 ca 45 38 a0 3f 65 64 2e 13 ee 75 ae 3f
       0.031679326038719355 0.05949348434587235
000790 da 80 b3 01 6c 6e 96 3f 8a 14 03 ed c3 85 a1 3f
       0.021905601123649678 0.03422367351735385
0007a0 f0 8a 43 75 15 3c 8d 3f bf 7d cb 99 8a 2a 9b bf
       0.014274757042988168 -0.026529470097441662
0007b0 10 1e 3c ef fd 3b 92 bf dd d3 ce 2f d4 d0 86 bf
       -0.017806976057753998 -0.011140496930105154
0007c0 0a 4d a9 85 24 1b b2 3f 2d 43 dd b0 c8 51 b4 3f
       0.07072666419235332 0.07937292402244785
0007d0 35 ee 94 f6 fe 8a a4 bf 47 55 a6 f8 8d 2f aa 3f
       -0.04012295494109389 0.05114406261706477
0007e0 3a 76 6d bb e3 71 7f 3f 5d 7b 74 83 9c c2 96 bf
       0.007676972941081989 -0.022226758502365985
0007f0 19 1d 8c a4 d4 c8 a4 3f 67 6d 1c fb 65 f4 a2 3f
       0.04059471615442529 0.0370208615333592

policyHead.2.bias f8 [64]
000000 6d 0e cf ca 0e ee a2 3f cf 57 a2 dd 61 46 aa 3f
       0.036972486741004264 0.05131822424407028
000010 99 4b 9e 93 03 b6 ae bf 45 40 9b b1 22 28 ab 3f
       -0.05998240639669134 0.05304058473632315
000020 88 b4 c2 83 46 d4 aa bf 02 7c ae 58 77 ee a1 bf
       -0.05240078314214097 -0.03502247769869628
000030 08 f2 3c 82 01 78 98 bf dd e4 ae 34 7b eb 70 3f
       -0.0238952861538895 0.004130822441703344
000040 1e b9 e3 69 c6 c1 ba 3f 92 38 94 87 f8 ae a6 3f
       0.10451927266305858 0.04430367140786119
000050 17 b3 33 ed cf c7 9e 3f c5 ce e0 0d 07 ec ad bf
       0.03005909810319726 -0.0584413723412616
000060 4d 2d 7c 7d a4 74 9b 3f e9 3e 77 7f b3 a5 b2 bf
       0.026812143477440476 -0.07284089910467241
000070 d5 24 7b 96 1b f4 a4 bf b8 9f 3b 81 a0 95 86 bf
       -0.04092489444662709 -0.011027578300357152
000080 f2 14 6e 68 b8 6a ab bf ea e1 d8 e7 6a ea ab bf
       -0.05354858660488472 -0.05452283935705167
000090 c3 54 1e 14 57 e0 90 3f 96 8b 54 16 0f 05 ae 3f
       0.016480789759573577 0.05863234660707588
0000a0 5d 21 21 99 69 24 b0 bf a2 74 e3 78 76 56 8e bf
       -0.06305561054717175 -0.014813352169250674
0000b0 00 33 72 e0 05 d9 b0 bf 1c 92 37 88 45 cd b6 3f
       -0.06581150750771414 0.08906969619381083
0000c0 ad 07 89 68 85 b1 99 bf cb 17 7e bf 43 32 8f bf
       -0.025091251855208153 -0.015232590943707344
0000d0 1d aa 0c 24 b8 11 b1 bf 8c 2e 6e f6 49 81 a9 bf
       -0.06667662506212264 -0.049814521152339614
0000e0 1d d7 62 ff 5f 09 a5 bf bd 40 d7 d0 1c 83 aa bf
       -0.041087150502262505 -0.051781559460893224
0000f0 56 33 32 4f 8a 49 72 3f e8 69 e4 68 18 3b 9d 3f
       0.004464664717613717 0.028545743372072524
000100 b8 73 1e c2 f7 92 a3 3f 7b 2e df 21 31 92 91 3f
       0.038230650373612673 0.01715924042927817
000110 f5 ae 38 8b 2f ae b9 3f 23 8c db 1d 36 b5 b4 3f
       0.10031411313019219 0.08089006642289624
000120 d7 61 a2 39 2b 48 b3 bf 8e 87 61 b2 5a 14 91 bf
       -0.07531995923125777 -0.016679207932959232
000130 d2 19 cf 14 3e 86 9b bf f1 17 03 a0 8c 57 ac 3f
       -0.02687928201683027 0.05535544827721129
000140 ed 7c 18 dd ab 0f a7 bf 97 36 37 72 43 f0 53 bf
       -0.04504143785401902 -0.0012169512418610856
000150 71 b4 cf 86 fb 13 ab 3f a6 4e d6 5f 2f dc aa bf
       0.052886829573119416 -0.052461128662938436
000160 23 19 92 a8 36 a7 b5 3f b3 54 ab 66 60 82 a9 bf
       0.08458272567267903 -0.0498228192642868
000170 a2 3b 47 b9 a5 10 ac bf 51 9b cc 39 94 09 b1 bf
       -0.0548145092649215 -0.06655241404642466
000180 b4 c7 8c 48 76 39 81 bf e2 a1 93 e2 50 cc b5 3f
       -0.008410381402061386 0.08514886409432834
000190 a5 08 8f b1 79 7a b9 bf 18 28 05 d3 b0 28 95 bf
       -0.0995250757687552 -0.02066303527798405
0001a0 84 ed 47 1d 9c 82 93 3f 37 c1 74 10 f8 7d b6 bf
       0.019052924430054144 -0.08785963441619492
0001b0 d3 dc 9e 25 74 0a 8c bf 9c ee b7 66 5e d8 96 bf
       -0.013691813848579681 -0.022309756297529945
0001c0 52 04 66 8f 72 87 9f 3f 01 48 6d 15 43 ca a4 bf
       0.030790128710126936 -0.0406056369453296
0001d0 f5 4a 7c 32 76 80 b5 3f ad 89 e6 57 2e 7c b6 bf
       0.08399142010265932 -0.08783235212334857
0001e0 77 13 81 61 64 f3 ab 3f 71 d2 44 0f 41 cc 9b 3f
       0.05459130945431572 0.027146355206428333
0001f0 72 bf 20 e7 0a 40 b5 3f b7 8e 4f 38 74 ae a6 3f
       0.08300846236011042 0.04429972827327105

policyHead.4.weight f8 [24, 64]
000000 46 f4 55 1e 90 6c b3 bf 61 d1 3a 5a 67 4b 9c 3f
       -0.07587528935069185 0.027631392366587963
000010 f0 4a 10 03 16 32 82 3f c0 1c 09 43 ae e7 bb 3f
       0.008884593933577517 0.10900391708956914
000020 cc 85 5a a8 a0 a4 b4 bf fb 2f a9 09 70 36 a3 bf
       -0.08063701734729206 -0.03752470128947035
000030 a2 28 48 07 bf 60 8d bf 4f 35 a2 bd 0c 75 9d 3f
       -0.014344684991574323 0.028766821932142247
000040 ac a4 49 fb 89 fe b3 bf d2 a4 ed 7b 55 be 3f bf
       -0.07810270676567893 -0.0004843672467616636
000050 df 9c 24 ec 6d a1 a3 3f 13 a3 12 ca e4 49 b8 bf
       0.038340983463337024 -0.09487752850931157
000060 2d 25 bd d4 57 3a bf bf b3 ea 69 a6 bb 0d bf bf
       -0.12198399490184349 -0.12130329907260311
000070 0c d2 bf 3d 27 4c a7 bf 7d b6 ff cc d2 77 bb 3f
       -0.045502878463512614 0.10729711060386111
000080 4f 1e 09 d5 cb 5b af 3f 90 d1 ad 70 53 aa bb bf
       0.061247224574398566 -0.10806771756126055
000090 18 0c 67 81 78 a2 b5 3f a5 81 75 92 e9 d0 b5 3f
       0.084510356514372 0.08521900010737811
0000a0 78 38 48 d0 54 70 b2 3f fb 27 eb 24 e2 6c b7 bf
       0.07202653965961925 -0.0915051784642457
0000b0 47 30 66 e4 d9 d3 93 bf 48 80 ed 23 c3 2d a8 bf
       -0.019362835469607622 -0.04722413838931111
0000c0 40 b3 64 70 30 ad bc bf 92 3f 35 57 ad 6c b4 bf
       -0.1120176576993801 -0.0797832811269912
0000d0 21 a3 75 57 bd 0a b1 3f 89 9f 3e 60 67 db bb 3f
       0.06657012353174398 0.10881658649179661
0000e0 b8 03 39 ab 2f 70 b5 bf 21 ff da 9f 66 cc 9f bf
       -0.08374307565919892 -0.03105316496544142
0000f0 41 1f 60 be 9b 84 a5 3f 2b ab 49 50 44 ce bc bf
       0.042027346600717504 -0.11252238235617244
000100 a5 2c 62 51 1f da af 3f 6c a9 40 83 45 ba 5e 3f
       0.06221101635409213 0.0018754652819646623
000110 db f8 3b cb b4 00 b8 bf 80 b0 26 5b 97 e2 b4 bf
       -0.09376077615522453 -0.08158250785226251
000120 61 6e 50 0f 84 1a 90 bf e3 d6 a0 60 d5 6f bd bf
       -0.015726149973586682 -0.11498769387329903
000130 d8 9b 01 b4 6b fd bc bf dc 85 9a f9 84 66 9d 3f
       -0.11324189324078249 0.028711393103213342
000140 8c 9f 2a b6 a1 94 bf 3f 73 8c fe 1c c0 44 a9 3f
       0.12336168954300158 0.049352649249407764
000150 1b f2 d5 c2 37 18 bd 3f df 2e dd a0 9d 31 92 3f
       0.11365078455669002 0.017767394011840017
000160 2a 34 57 f1 f4 ff 65 bf ab a7 f9 4e 0b 31 b1 bf
       -0.0026855262792424743 -0.06715460470300509
000170 6b b6 01 5a 56 d2 9d 3f bd 0d 3b 54 a5 63 ab bf
       0.029122685664722796 -0.05349461224752925
000180 59 59 02 a3 72 1c 9a 3f 37 71 46 87 43 f2 ac bf
       0.02549914474419643 -0.05653582598026435
000190 d8 8b 2b af a1 68 78 3f 30 99 82 8c 0a fd b3 bf
       0.005959159449704786 -0.07807985239432891
0001a0 71 45 44 b8 1a 17 a2 3f e3 fb 8b 69 25 78 87 3f
       0.03533252238606622 0.011459629329236115
0001b0 37 ec 2a 90 2d 73 7b 3f ef d0 65 2f c9 00 b8 bf
       0.006701639157365816 -0.09376199156924135
0001c0 c4 29 c3 cf 61 5c bc 3f bc 99 4a ea e4 7b b6 3f
       0.1107846386177363 0.08782797546391569
0001d0 b2 42 b4 d0 60 99 73 3f 1d 43 0d e8 73 c5 bd bf
       0.004784944710323801 -0.11629414000823286
0001e0 2c f8 99 ea 8f c3 a7 bf a2 23 0c 09 a4 3e bc 3f
       -0.046413895976897684 0.11033082219013449
0001f0 57 ee bf db 59 a3 a8 bf 2f 0e 6c 29 00 68 a9 3f
       -0.048121269297521856 0.049621586853416104
000200 1b a9 f1 19 e6 ad b4 bf 13 16 31 d4 63 7c ba bf
       -0.08077848561666594 -0.10346054010832288
000210 ba 76 a1 00 f2 48 9e 3f 65 a4 c8 91 e5 6f a5 bf
       0.029575139320846523 -0.04186932949625869
000220 b6 81 3e 9f ac a3 a8 3f ff 16 87 50 a0 5f a1 bf
       0.04812373584650535 -0.03393269522670827
000230 e3 a4 07 64 d6 99 99 bf cc f0 cc eb ab 8d a4 bf
       -0.025000905852640264 -0.040143368276831376
000240 5c 74 9f fd b7 f3 99 3f df 50 3f 1c cf 96 be bf
       0.025343775610839323 -0.119488663097687
000250 0f 07 fc 08 71 4a a9 bf d5 25 9f 99 53 4e 9a bf
       -0.049396068903673755 -0.025689417125055975
000260 88 ac 8d c7 9a fb 7b bf eb 2a 5e 35 92 3f ba 3f
       -0.006831745727008294 0.1025325184147438
000270 ad 27 79 71 88 4e c0 bf 63 0f 9e a3 3e 89 b7 3f
       -0.127396636397234 0.09193793768468832
000280 af 7a 35 7e bb b3 8e bf 87 6f dd f7 cb 6e bf 3f
       -0.014991249837007585 0.12278437425032794
000290 74 0b bb d4 ba d0 ab 3f 96 d3 b5 ef cc cf be 3f
       0.05432685705957044 0.12035828449536576
0002a0 51 c1 3b ec 91 3a 95 3f 6b 7f b1 da 31 50 b3 3f
       0.02073123936037408 0.07544242467110755
0002b0 43 0f bf 11 a8 4a b5 3f 84 92 6e 23 67 43 a3 bf
       0.08317041810283592 -0.03762361819761842
0002c0 c2 d5 f2 2d 55 92 b6 3f 62 b1 d6 cc 63 3e 7b 3f
       0.08817036029616701 0.00665129646715132
0002d0 f7 c6 87 65 cd 24 c0 bf 8b fd 00 8f 0b 69 bb bf
       -0.12612311799562523 -0.10707161179833784
0002e0 bb 29 da 0b f7 de 70 3f 6b 8b fa 63 f1 78 b3 3f
       0.0041188860174181064 0.07606419268499358
0002f0 ef 23 9f 30 31 c0 b4 3f 83 9e 2f 62 f3 55 c2 bf
       0.08105761944820221 -0.1432480077194108
000300 77 67 d7 f0 09 f0 b8 bf 84 a4 61 6b 46 88 bf bf
       -0.0974127018920664 -0.12317314263931861
000310 fc 63 fb 42 0d 78 ba bf ea b1 6e cc cb 9d 9e bf
       -0.10339434514334295 -0.029898819305957426
000320 8c 0b 05 0d 40 fa be bf 2e 49 91 bd 4a c2 b0 3f
       -0.12100601499427749 0.06546465995896675
000330 5a a0 29 64 a8 45 8a 3f 3a 6b 49 2e 3f 03 78 3f
       0.012828174168319762 0.005862471389799501
000340 35 a5 0e c3 f6 e6 c0 bf 8c 0a f9 df 14 c2 98 bf
       -0.13204845928457024 -0.024177862329688923
000350 ca 47 69 bc 23 8e a0 bf e8 e7 53 f9 07 22 bb bf
       -0.03233443903867757 -0.10598802411178065
000360 de ad ca 07 a8 c1 b0 3f 7f 25 42 5a 55 c8 9c bf
       0.0654549616835349 -0.028107961305555925
000370 ee 5e 89 fa 4a cc b1 3f 00 8d 84 88 19 1f bf 3f
       0.06952351204506232 0.12156829436257865
000380 b0 22 d0 0a ce c6 a8 bf 84 99 ec 85 eb 90 b6 bf
       -0.04839176065440165 -0.08814880389818397
000390 ce 0f 36 5e 34 db a5 bf 16 d8 0c 5e 03 b0 b9 3f
       -0.042688023090732594 0.10034199758669646
0003a0 a5 ff 85 89 84 b0 a2 3f 73 2f a8 9b 03 5e ba 3f
       0.03650297335388978 0.10299704122752278
0003b0 c0 27 6b df b3 d5 ae 3f 7d 80 c0 a7 8f 79 b4 bf
       0.06022417166020899 -0.07997987599856234
0003c0 56 62 fa 43 4f 81 a4 bf 33 fc f9 69 96 b4 94 bf
       -0.04004905419168796 -0.020220136850636016
0003d0 26 01 77 6f c4 79 a7 3f 8f 18 92 c8 55 49 ab bf
       0.045850885969686936 -0.05329387734768531
0003e0 92 ae c1 a3 ce ae 97 3f ca a9 51 c8 49 14 b0 3f
       0.02312777399531158 0.06280957356071962
0003f0 a4 6d ea 9d ac 6c a1 3f 5b 74 5d 41 b5 7d 96 3f
       0.03403224399263685 0.021963913073126267
000400 9d c2 6c 16 21 02 a3 3f 6a 44 ae 48 74 c7 90 bf
       0.03712561987629679 -0.01638585752113323
000410 f2 4e 97 44 a4 22 a1 bf 4e 9e 4b 5f d5 f6 a1 3f
       -0.03346741997998305 0.03508631504319891
000420 67 ca 58 f1 22 bf b4 3f f5 1f 8a 03 10 22 bd 3f
       0.0810415114617996 0.11380100332655714
000430 4b f3 32 4f 8b 09 89 3f 89 51 46 50 69 9b aa bf
       0.012225235323393277 -0.051966944741397354
000440 80 0c e8 61 74 b5 68 bf 35 d8 9b d8 90 1d b3 3f
       -0.0030162118048351894 0.07466988838481899
000450 30 1d 4d 80 24 df bd 3f d5 ba 2a 80 37 5c b6 bf
       0.11668613560060659 -0.08734461669039757
000460 07 44 b7 17 97 ff 88 bf e3 80 f7 88 90 67 ba bf
       -0.012206249629260325 -0.10314277023235578
000470 9a 79 fb 30 18 1c ba bf 3e 5c e7 a7 94 7d a2 3f
       -0.10199118800981069 0.03611435460668887
000480 88 b0 c9 db e0 82 ba bf 4f 66 45 6a 92 f3 a9 3f
       -0.10355954519190125 0.05068643138174577
000490 1f 5b f4 b4 8a dd b6 bf 83 44 26 f2 9b bb b0 bf
       -0.0893179599555478 -0.06536268865444765
0004a0 bc 90 d5 d6 94 33 4f 3f bf e2 c9 4a bd c0 a5 bf
       0.000952193904293817 -0.04248611009547209
0004b0 e3 1a 64 10 b5 8a a2 3f 52 53 1e 94 82 58 ab 3f
       0.03621450257383232 0.05340965326391846
0004c0 78 dc 8f 03 f2 19 99 bf 0e 6e b3 8b 62 74 85 3f
       -0.02451303621998277 0.010475892914136
0004d0 d8 da 0d 47 e1 8a b4 3f ad 37 49 cf b7 56 ba bf
       0.08024414047927608 -0.10288571177190305
0004e0 91 86 e5 d8 db 41 78 bf 0c c0 1e 32 13 25 be bf
       -0.005922182825402481 -0.11775321935306254
0004f0 b5 fa e1 0b d9 cb b2 3f e0 3b 89 a6 05 46 a0 bf
       0.07342297115426784 -0.03178422601614961
000500 0b 37 e5 5c 45 58 ad 3f d9 54 18 6d f0 31 ac bf
       0.05731407889343928 -0.05506850558973903
000510 6c 13 2a b6 1e 4b a3 bf 2a 2d e4 56 bc 8f b2 bf
       -0.03768249486623784 -0.07250573274011587
000520 54 c9 60 a9 bd aa 91 bf 24 29 68 f5 b8 f3 b2 bf
       -0.01725288721372327 -0.07403141013506748
000530 00 eb bb dc 65 7a a0 bf 78 70 e3 41 c4 bf b4 bf
       -0.03218382186419966 -0.08105112656216018
000540 2b d0 f3 4e 5f ae ab bf c8 c8 b3 4e fd 68 ab bf
       -0.05406473006033282 -0.053535381180965624
000550 83 11 07 f4 8f cd 7b bf 71 a1 6e b3 40 46 b6 bf
       -0.006787836377445069 -0.08700947170894381
000560 17 ce 48 5f 3f 96 a7 3f 01 8e 39 01 13 a1 bd 3f
       0.0460681728185614 0.11573904781248957
000570 a1 df c6 66 ee 9a 9e 3f 94 35 9e 53 24 6b b0 bf
       0.02988789083767041 -0.06413485566573335
000580 47 d2 39 da 7c bf b0 bf c7 cf 9a 42 fc f0 a4 bf
       -0.06542187049655822 -0.04090107262655312
000590 98 43 92 89 4a 04 b4 bf 7f c7 3e c8 26 07 b2 3f
       -0.07819047793078793 0.07042162312316512
0005a0 de b1 5f c9 07 0d ad 3f 7d 75 fc af 06 7d bd 3f
       0.056740039188159605 0.11518899723565386
0005b0 19 88 cd b5 52 3d 90 3f 15 73 45 03 70 4e b2 bf
       0.01585892901074013 -0.07150936202874576
0005c0 f4 43 1d 70 a6 28 b3 bf e6 f6 04 80 a3 ed ae bf
       -0.07483902203718157 -0.06040678918587421
0005d0 67 a0 52 cb 8b 89 99 bf 43 61 d5 85 37 9c ac 3f
       -0.024938759121738843 0.055879340254878083
0005e0 e5 a5 b1 47 27 26 b7 bf 4e 2e ba eb f7 2c b3 3f
       -0.09042592525806688 0.0749049139505413
0005f0 17 23 9e 3d 8d 6e b6 3f 35 8b cc 97 c3 e5 9f bf
       0.08762438539828242 -0.031149917736125594
000600 f3 f2 d0 f2 2d f0 be bf ff 4b 78 23 aa 07 b9 bf
       -0.12085234811906868 -0.0977732025715312
000610 eb f6 52 d5 7b 8a bc bf 21 17 69 b9 b2 72 a4 bf
       -0.11148809393031527 -0.039937577374571605
000620 fc 52 b7 bd cd 63 ba 3f ef c3 33 94 de ed 94 bf
       0.10308538324109046 -0.020438649936242056
000630 0c ad e8 85 61 fd b8 bf 73 6a 46 84 78 85 a4 3f
       -0.09761628646144888 0.04008080115018666
000640 ee be 9e 2a 11 73 b9 3f a6 9c 00 fa ad 28 a6 bf
       0.0994120339444142 -0.04327911068713179
000650 99 52 5f 75 a8 06 92 bf 0b ed e4 cf c5 25 82 3f
       -0.017603523410644504 0.008861108214310428
000660 a4 1a 9a 0e 17 0f b2 bf 47 81 57 d5 a3 bd a0 3f
       -0.07054275614255318 0.032696838181211656
000670 5f 57 e6 7c 7d 95 ab 3f 83 fd 0a bb 6a 42 bb bf
       0.05387489461570171 -0.10648219171979716
000680 f2 bf c7 17 c4 e2 63 bf 7b 25 e3 4e 5b b8 b8 3f
       -0.002427466386727411 0.09656305957755322
000690 5c 54 d1 7d a9 36 bb bf a6 4e 28 42 ae c5 b5 3f
       -0.1063028270885566 0.0850476180569851
0006a0 44 e5 9a f1 82 a0 b9 3f 1f e0 4a 72 6c 87 a0 3f
       0.10010546110688262 0.03228320021793273
0006b0 27 4c eb 39 d1 4e b0 bf d7 58 39 a3 65 20 78 bf
       -0.06370265640298155 -0.005890271207667128
0006c0 6d 66 ff fb 46 bd 92 3f fa 86 31 73 bf a5 a5 3f
       0.018300160532680843 0.0422801807515167
0006d0 54 bb 54 c5 97 e4 a1 bf 2f f4 f7 ce ce bf b9 3f
       -0.03494715007615548 0.10058300545638653
0006e0 af 77 9d 17 92 21 89 3f 1e 49 da 79 be 04 99 bf
       0.012271062226940048 -0.024432159602448704
0006f0 33 8e c2 36 11 4c af bf cb 4b 6e 16 4a 19 b3 3f
       -0.06112722199875655 0.07460463569286373
000700 11 74 e0 a3 99 ab 9a 3f 0d 35 4c c7 7f 3f bf 3f
       0.026045227648968054 0.12206266990343213
000710 7e bd 43 cb 7e 20 b9 bf 37 af 4f 7d f8 0f 8e 3f
       -0.09815208876147172 0.014678899120518103
000720 ad 90 17 8d b4 7e 89 bf 52 17 e9 3b d9 ba bc bf
       -0.012448702388560962 -0.11222608292254435
000730 7b 79 93 4f 38 82 9e bf 04 23 e7 17 52 e6 b7 3f
       -0.029793624741495144 0.09335816463056906
000740 f6 2f 1e 14 ca e0 b2 3f d7 d5 a3 c0 db 3d b6 bf
       0.07374251357231273 -0.08688138440250924
000750 74 55 a6 55 b3 0b 6c bf 58 d2 99 83 33 50 73 bf
       -0.003423547995405835 -0.004715157725162365
000760 25 34 ee c7 f3 13 a9 3f 8f 17 62 f5 a8 05 c4 bf
       0.0489803487354055 -0.15642272931671328
000770 8f 10 cc 7e 6d 60 b8 3f 50 fe fb e6 ea 51 b2 bf
       0.09522137017853737 -0.07156246318117465
000780 06 4a 89 ec 2c 35 a9 bf 98 cc ea a8 08 d5 95 bf
       -0.04923382174878914 -0.021320472059141865
000790 a3 d4 9b cd ed 93 a0 3f 03 d4 dc 8e 18 03 b6 3f
       0.032378608082504166 0.08598474014145556
0007a0 1e 48 e0 42 29 09 ad bf 43 ae ee c9 0e 7e a6 3f
       -0.0567105192314019 0.043930494451470035
0007b0 aa d3 e8 9b 6c 5d bd bf c9 a2 1f 63 c8 82 b5 bf
       -0.11470679098495276 -0.08402683658608646
0007c0 5d 92 6d 9d 15 1d be 3f 36 ca 0c 65 73 34 a3 bf
       0.11763129323441875 -0.037509542546463256
0007d0 a6 b9 6b bb 94 bb 7e bf 2f 03 e1 bd 94 09 84 3f
       -0.007503109917463757 0.009783899349828566
0007e0 0c c5 d6 0f 05 4e b6 bf 31 49 b7 92 d5 3f b1 bf
       -0.08712798725789045 -0.06738028366024619
0007f0 2e ba 45 dc b1 f9 b5 3f 9f d1 0e 4c 91 40 b7 bf
       0.08584128978484593 -0.090828972882099
