MachiKoro/Models/version_2_model_3.pt (torch, 469394 bytes, 12 tensors)

policyHead.0.weight f8 [128, 155]
00000000: be58 c36f 42bc c6bf 3081 1c9d d675 a33f
00000010: b9f3 9814 0101 9f3f 3225 2055 90ea babf
00000020: 7697 2ff9 ba3f a23f 8f41 fe18 1440 50bf
00000030: da1a 1d01 749f 89bf 847f dabb a30e 79bf
00000040: c631 9940 977f a1bf 7cd6 e714 390a abbf
00000050: 873d c831 053a afbf 6956 fbd1 4c26 b8bf
00000060: 198b b9fb 129b a9bf 5da0 d98e fb2e 70bf
00000070: 4f61 b97c 52ee 9ebf 3f80 ee50 3ce6 90bf
00000080: 56ee 4d29 da19 b1bf 349a 6fb6 2e03 753f
00000090: d4d8 67ea ec5d b2bf d70b 27f5 1c93 a1bf
000000a0: fd15 43cb 6048 af3f 8899 ce76 3a1f 913f
000000b0: 7ee4 e44d 1ed4 9cbf dd08 d07f 5d15 b9bf
000000c0: 3a4d b335 972d 98bf e29c a980 5c9a b4bf
000000d0: 3c7a 7a1e 8a11 8d3f 8e24 ebab c2ed 70bf
000000e0: 8f2b c034 b05a a13f 2766 8159 15a7 bbbf
000000f0: b6ac 1626 cb18 b3bf 0a24 64b1 c0cd b5bf
00000100: 1eb1 3cfb 59ff babf 08dc a367 aad5 a2bf
00000110: 238c e327 941f 9f3f 09fd 6da2 b11e b5bf
00000120: 1774 01b0 155b 873f 1e49 e508 12bd bdbf
00000130: accf 8f9d 056e a03f 22ad 2b2d 533a 923f
00000140: fc3f 4ed7 2bb9 b4bf 9be4 8906 29b3 9ebf
00000150: 1f23 bd10 a76d a03f 16ef 9089 c5e5 79bf
00000160: a29c 9bbe 41ea 893f 3cc5 b2b9 4115 b3bf
00000170: 5d5e a22c 1b23 a9bf 19e5 2cfd 231c 743f
00000180: 3f9e 4586 62f9 91bf 19fa c22a a2ef 9ebf
00000190: c07b 03d5 6d31 9a3f d8d8 722b ce0d b2bf
000001a0: 53a9 e35f ec64 a7bf 913f 2bc4 f0c5 9abf
000001b0: 2c70 6c94 535a c1bf 8777 8fd5 4eb2 853f
000001c0: f3cb 2c42 c30b b7bf 8401 5f29 1883 a2bf
000001d0: 1b1c e8ec 4198 943f 03df 72ed d409 ba3f
000001e0: a835 895e 2bf4 b43f df1d bd0b 93fa b1bf
000001f0: fb52 b423 4b2e 8fbf b00e f9d1 6c25 86bf
00000200: 40a8 0a00 1887 b23f 9b22 2bff 5a75 683f
00000210: 182f 9f2d 11f8 8f3f 77a3 0b38 6160 a53f
00000220: 5abf 55e6 44ab ba3f f839 edea 6d2c c2bf
00000230: c214 d7a8 dc0e 803f 5456 b49f 8583 89bf
00000240: 326f cab6 067f 90bf 4b92 4388 9673 bfbf
00000250: df9f b6bc 4d2b 8abf e4d3 0242 0ada bcbf
00000260: c93f a2bf 19e2 6c3f 4535 7718 f846 97bf
00000270: 0e64 9369 4777 94bf 83c2 38da ec6c 8abf
00000280: d554 5b67 b744 c3bf dabc 2a28 b163 a9bf
00000290: 099b 75e7 a494 873f e22c 18fd 8831 bfbf
000002a0: 17c3 284a 667d 84bf 1c4d 9201 8610 7b3f
000002b0: 7dde 347c 6cd5 863f 9020 12fc 2589 a13f
000002c0: 308c fe11 a31d a33f 8e23 2cc0 52a1 b13f
000002d0: 8d98 746d 773c 903f 7b8a 78f1 29d5 92bf
000002e0: 0284 1f8f 7e2e 813f 6822 6763 7de9 aebf
000002f0: da21 7bd4 9770 a9bf bdaf 44f3 96e8 8dbf
00000300: 593a fd7d 2f80 a93f 9055 4558 65bd a5bf
00000310: 1c62 bd64 f783 74bf 2129 7e83 7249 6dbf
00000320: cba8 ccf9 8c27 adbf 5543 eb0e 1fbd a9bf
00000330: 91a4 add1 e2a2 943f f5ea ecb8 2a07 b03f
00000340: 3f08 8ede cc5d 8fbf 2a54 cf38 1391 b8bf
00000350: 0430 df0b f8c0 8e3f af6b dda9 4a75 a83f
00000360: 2296 7224 7d61 ab3f 980b 911e f655 9dbf
00000370: 18ab d4e7 7953 b2bf 770b f5e3 5c84 a9bf
00000380: ff35 7a9f 2ece a6bf d318 284d b321 b0bf
00000390: 2010 6684 083d 843f 71bd bce5 2cc3 c4bf
000003a0: 040c d725 9754 9e3f 4f74 8a46 d4dd b1bf
000003b0: 4222 abe7 ec66 a73f 1b74 ecb8 c35b c3bf
000003c0: 8a36 7914 9ed4 8d3f 33ff 2c1e 2cfb 93bf
000003d0: 16d9 e31e a343 c2bf 8740 ab9d 62c7 6a3f
000003e0: 7319 b608 b020 a2bf 81d5 39a5 6174 b63f
000003f0: d8c0 395b 180f b8bf f71d d096 d6f7 c1bf
00000400: ecf1 bceb cce8 b0bf 9078 85e7 5326 b1bf
00000410: b6f0 3933 5f80 b3bf 1cbb b730 b99e ad3f
00000420: f3bc 33f4 3016 b8bf 1398 5719 8544 b4bf
00000430: a0c1 4733 7a59 92bf 08c9 9e90 d271 7fbf
00000440: 55c2 ad49 27a2 793f e5ba a65c 2b6b babf
00000450: 828e e6f5 6694 a13f 12f3 e88c 8d4b bb3f
00000460: 1adf fc5c 345f a8bf 6ede 051a 57a8 bd3f
00000470: 9bcd a6e8 830c a3bf ca5a 718f f89c b5bf
00000480: a1bb 03a0 240a b0bf 81e1 f211 21b3 a6bf
00000490: 7851 04b4 cbde a8bf 378f 874b 484f a7bf
000004a0: 7bfb 4707 daf9 8e3f bb81 9ea2 4f84 55bf
000004b0: 3edc 24f2 a2e0 b4bf 812a 5a9a 4b5c 82bf
000004c0: 22cb d730 1321 adbf 970d 0488 892e a33f
000004d0: c5b0 31af 178b 73bf c881 f4d3 2e52 c0bf
000004e0: b40c 9d75 accb a03f 5b2b 4c3e 231b a93f
000004f0: b63f 7a59 4493 a4bf d1c3 3061 399d bbbf
00000500: f786 eb5c ef59 863f 467b 3d03 0ebe a5bf
00000510: 3b12 c749 b38a bbbf b5ee d440 6d54 a5bf
00000520: b8d4 9c67 be91 943f cfac 2dcf f14a b3bf
00000530: 65a5 e2b6 7724 a2bf f7b8 d393 fabc b8bf
00000540: c605 a419 68b7 a43f 5d22 c830 fa03 a8bf
00000550: b623 2e2d afad a23f 037e d8b1 7ec1 91bf
00000560: 063c 3380 cc62 70bf 1a30 48a4 a746 b5bf
00000570: be0a 7265 a786 b0bf 76d7 8a24 2988 9f3f
00000580: 326e 3ed6 2a5b 883f 35c3 04f1 f761 a43f
00000590: 29f8 0a29 4274 b9bf d545 3091 1d9b b9bf
000005a0: 4cb4 8643 d11c b2bf b131 e61a ffd1 aabf
000005b0: 5103 d8b4 70fe a0bf 6e0e 1e57 bb59 babf
000005c0: d5bb c8bd cd39 b3bf c1e0 74f0 f1c7 903f
000005d0: e9c0 9d5f 2fcf 713f 954e 84ef ec0f 8bbf
000005e0: b81f b9e6 3a2a a8bf 8746 7235 cae5 a03f
000005f0: e5cb 7998 7bf5 aebf 72ce cebf 60e5 b3bf
00000600: be32 ff14 cbc6 b0bf 7fa8 c2b6 1cd7 9cbf
00000610: 5b60 682a 4f3f 893f ade2 9758 9751 b7bf
00000620: 513f 4cfc 8c73 b7bf 7d3a aac8 0d3a b3bf
00000630: e0a1 f83e 7ef0 aabf 6ad1 c3cc 8b90 b8bf
00000640: da80 0159 7c7e abbf cca4 f9a3 843f 9abf
00000650: 8df6 367f 96b6 6bbf 3ba9 4d90 d871 a5bf
00000660: 1e40 993e db46 a93f 26e1 2296 1f2c b33f
00000670: 5942 b40a c964 9f3f 8b4b bac3 b4e9 b13f
00000680: afde dd3f 776a 993f adcd 908c dae0 85bf
00000690: f909 5e73 6efb 8cbf b54b ed94 5e77 a8bf
000006a0: 220c ba30 19f8 8abf 08ed 1d98 ed92 98bf
000006b0: 1e4e 8701 23d5 b13f c330 e441 8761 92bf
000006c0: 9e09 ae52 7bad 833f bef7 6519 17c3 b33f
000006d0: 4ac4 3ee6 f4e6 a23f 9800 d023 2d0f 9bbf
000006e0: aa66 839d 0ad5 b33f 2199 8f50 e844 a23f
000006f0: e7b4 158e 1ad0 9f3f 513b cf8b 0253 babf
00000700: 6c8a aaaa 03b5 b53f 80e8 a422 3d94 abbf
00000710: 55b7 861c 7d92 abbf 0427 b46a f57d adbf
00000720: 17db e5a1 3b9b 6abf 723b a686 b240 c3bf
00000730: 7dca bdb2 0109 a93f c2b3 4040 08f9 b73f
00000740: 9536 ee95 e69e c1bf cf6a a157 4d83 af3f
00000750: c006 aab6 27f1 aa3f 0847 7089 8983 77bf
00000760: 1d99 9047 23e2 b3bf d9e9 70fd ddba 85bf
00000770: 3e5b 511f ca6b af3f 9c16 dd68 c8fb b7bf
00000780: 152b 90bb a14f b33f 9a8c 9d36 b380 96bf
00000790: 25ad bccb 4841 a03f 364f 0dac 417f a63f
000007a0: 358e d7b9 d715 b5bf 0a35 6a73 e42e 92bf
000007b0: 6642 53d1 071e bebf 9b76 a316 2489 9f3f
000007c0: 6925 2ca4 2bde aabf 98e8 4e56 4082 82bf
000007d0: 48b1 7e09 973b b1bf 3af4 875b 3fb5 c43f
000007e0: 18d7 0425 6e38 a8bf 689f a719 3342 a13f
000007f0: 8864 2ad2 551b a3bf 46f9 8e4c 8a8b 9bbf
-0.17762022454434673 0.03800841014731515 0.030277268297357305 -0.10514165952931334 0.03564247409649017 -0.00099184000643868 -0.012511163982379104 -0.006117477021376664
-0.03417656577639465 -0.052812370111422674 -0.06098953468983397 -0.09433441282757261 -0.050011246898767854 -0.0039510561451621936 -0.030206002104337156 -0.016503279151607094
-0.06680072315605776 0.005129988166095379 -0.07174568865579839 -0.03432550900063063 0.06109907609201668 0.016720689298062946 -0.028152917389182346 -0.09798225756097474
-0.023611414578067903 -0.08048036709952869 0.014193610243919179 -0.004132996021050007 0.033895021857538336 -0.1080182403105928 -0.07459706954857634 -0.08517078715171081
-0.105458854520013 -0.03678638949525498 0.03039390080892813 -0.0824996015125984 0.011404199060217874 -0.11616623608759766 0.032089400752652736 0.01780061686706092
-0.08095048910604413 -0.029980317138755024 0.03208658294039978 -0.006322642927496755 0.01265384066523573 -0.07454310210848275 -0.04909596366740907 0.004909649450206354
-0.01755289024859352 -0.03021100412365216 0.025579181791609562 -0.07052315293080669 -0.0456918589641925 -0.026145708058549714 -0.13556904551740112 0.010594001667353371
-0.09002323499298352 -0.03615642075556294 0.02011206634963623 0.10171252057159212 0.08185072954184724 -0.07022971188154468 -0.015225016619788692 -0.010813570173133641
0.0723738670446048 0.0029856469421683635 0.01560986919857714 0.04175094422482222 0.10417585967456713 -0.14198087664631465 0.007840846922486103 -0.01245788949612884
-0.016109566599524068 -0.12285748316532723 -0.012777907678199028 -0.11270202743146701 0.00352578190820194 -0.022731663220658466 -0.01998626310237133 -0.012903070840452507
-0.1505345587417312 -0.0495887147457041 0.01151398497922919 -0.12184959582389213 -0.010004805696640013 0.00660755487583067 0.011149261036379027 0.03424948408161399
0.037335487314770766 0.06886784736356175 0.015855661445265446 -0.01839128052064119 0.008389462225695258 -0.06037513578809667 -0.049687142074222826 -0.014603785799941588
0.049806102876222176 -0.042460600877045285 -0.0050086654481096525 -0.0035750614733319895 -0.05694237279233646 -0.05027100617520001 0.020152610824344 0.06260935797483198
-0.01531562856849089 -0.09596367012939369 0.01501649652700366 0.04776986430689278 0.053478155802889185 -0.02864822923244112 -0.07158624563150473 -0.04983797342949619
-0.0445417947458786 -0.06301422723490484 0.009882036724555177 -0.1622062799228661 0.029619561848232237 -0.06979109499157342 0.04570713356003299 -0.15123793153262075
0.0145656919477475 -0.019512833921225336 -0.14268912323286348 0.0032689024058996682 -0.035405636847872034 0.08771333965144913 -0.093980333587527 -0.14037592281259467
-0.06605225329707992 -0.06699108507516116 -0.07617754936831286 0.05785158843706581 -0.09408861124005678 -0.07917053097443753 -0.017919453983212486 -0.007676908988218274
0.006258157222746326 -0.10319777500147216 0.03433534385410743 0.10662159624275727 -0.04760135302643516 0.1158499182255299 -0.03720485892281574 -0.08442643644353179
-0.06265477091413497 -0.04433539718724245 -0.04857479641410384 -0.045526751727975094 0.0151249917480507 -0.0013132836997798842 -0.08155268108099364 -0.0089651018600041
-0.05689296694972358 0.03746442590093151 -0.004771320836067077 -0.12750802373285652 0.03280390678130499 0.049035168986015086 -0.040186057970572106 -0.10786779997648856
0.010913724921411723 -0.04246562757065546 -0.107585149299731 -0.04165975014117632 0.020087218355190756 -0.0753623133475003 -0.03543447597014441 -0.09663358792360897
0.04046178162571894 -0.04690534444313663 0.03648135591999539 -0.017339686970556666 -0.00400047190778619 -0.08310935745993256 -0.06455465532966806 0.030792849402778676
0.011892637885288247 0.03980994050141932 -0.09943021299383815 -0.10002312464373316 -0.07075221918667401 -0.05238339618071864 -0.03319122512403417 -0.1029316985787376
-0.07510076411629936 0.01638772993212068 0.00434797768853932 -0.0132139692873701 -0.04719718996471961 0.0330031576387571 -0.06046663509632547 -0.07771877939995323
-0.0655333448659787 -0.028164337782677237 0.012327784043961445 -0.09108873284265924 -0.0916069141351248 -0.0751045813469577 -0.052616067110935694 -0.09595559834617054
-0.05369938456056085 -0.025632927425623106 -0.0033829631226741153 -0.041884200682789495 0.0493687166132306 0.07489201941905729 0.030657902983025263 0.06997232225903198
0.02482019736586832 -0.010682780661318636 -0.014151442428333093 -0.04778571670490043 -0.013168522643587425 -0.023997986230353013 0.0696584585887696 -0.01795016612690926
0.009608233891189862 0.07719559068752255 0.03691830931291713 -0.026425080595800482 0.07746950479067985 0.035681972345445574 0.03106729023186441 -0.10282913125341266
0.08479330937056212 -0.05386534736540316 -0.05385199521275178 -0.05760161330733918 -0.00324784895854736 -0.15041190695452716 0.048896840161337864 0.09364368027372819
-0.1376617652971858 0.061548630663954655 0.05262111763751198 -0.005740678075214729 -0.07766933915317904 -0.010610327050120926 0.061369243929837655 -0.09368565139910817
0.075433834354197 -0.021975326736889934 0.03174808012985356 0.04393964028591173 -0.08236454283865487 -0.01775700525700067 -0.1176457296417169 0.030796588784929396
-0.05247627619798829 -0.009037497171324113 -0.06731552106675054 0.16178123444834275 -0.04730552865878063 0.03370818794411329 -0.037317926316242256 -0.026899491236457317

policyHead.0.bias f8 [128]
00000000: d27a adbb 9a29 b1bf 538f d8d8 1748 b3bf
00000010: 19b4 2620 b81a b2bf 3862 ee05 faa3 893f
00000020: 1b30 3637 5d7d abbf e30a 700c b571 8dbf
00000030: 3a67 2cfc b1f2 8bbf 50fa f9b5 461f 98bf
00000040: 8588 ee71 0f90 a3bf bd85 5d98 cc4b bfbf
00000050: fc4e 1bab 1ede 993f a6d2 f31c 201f bcbf
00000060: 42dd d0e6 e285 c1bf 8cc8 67cf e10d c5bf
00000070: 15ac 25b3 ccff 823f d249 311d 3103 aabf
00000080: 7389 8d6b 0569 b7bf bf63 2dc5 162f b4bf
00000090: 1b32 4db2 4b6f bebf ec4f 3acc dfc1 6dbf
000000a0: 45c0 4e17 158a 9a3f c75d 5f38 fd9c 93bf
000000b0: 227b 5cd6 9121 a5bf b263 576b 4a12 acbf
000000c0: e714 de16 8d1d c3bf 27ac 2d5f 10eb 943f
000000d0: 5b0e 7cc8 1718 9bbf a28e f5b0 1e4b 893f
000000e0: 0dbb ff89 05df b2bf 7a59 595f c35e b9bf
000000f0: 5727 4176 e59b 81bf c196 83ff b71f a3bf
00000100: e0d7 a0c1 f254 9dbf e3a9 1143 8303 98bf
00000110: 315e a2c1 5457 b8bf f62b 2a47 05ae 7c3f
00000120: 04e1 5632 f65c a1bf b7e2 65d3 99b1 b2bf
00000130: 029d dc2d 32fc b5bf c7cb d9cd 518c bcbf
00000140: 623f 54d3 cad7 b2bf 6c13 1185 6ee2 aabf
00000150: d8ea 697d 3b01 b7bf cedc 0eac fa02 b3bf
00000160: 71e4 44c0 3841 bdbf 418b f0d2 3ead bebf
00000170: d591 1035 4f40 b4bf 7e2e 7c52 51aa bfbf
00000180: 4f97 2178 9555 b4bf b778 d50e 5084 7bbf
00000190: 50fb 6bb0 ea3c d43e d990 d205 ba44 b3bf
000001a0: 0393 383f 0e7d 96bf e7f4 d7e6 1196 d5bf
000001b0: d630 4f45 ae92 afbf 5e43 60e5 b668 bfbf
000001c0: 3052 c53e c16d b8bf b084 a236 d3df 90bf
000001d0: ff4d 2cb8 7948 b1bf 7d0a a065 7e32 92bf
000001e0: f950 b808 0bdf 573f 7a1c ada0 500d bcbf
000001f0: dc41 13e7 88b7 b5bf 9929 b034 c278 a4bf
00000200: 3abd 8f0d a61a a9bf ef46 afb3 9ade a9bf
00000210: 181d 9728 fc28 bfbf aad7 db12 9483 c0bf
00000220: f9e3 224e a0ef b4bf 9349 5919 bbd9 923f
00000230: 882c ca68 12b2 6b3f bb39 25db 6e00 a8bf
00000240: 5457 996c 7837 b7bf 7963 0cc7 4623 a43f
00000250: 5178 985c ca29 b3bf 3432 3abd 9d9e a0bf
00000260: 6eaf b559 1e51 c0bf 6db2 e537 99e6 bfbf
00000270: c563 fa0e 2f14 a8bf 3041 d59a 9989 aebf
00000280: 4e82 a38f 5ca5 a7bf 8cba eacf f094 563f
00000290: a638 5a4d 71d1 c0bf 4d8b 84a1 0c2b c0bf
000002a0: 36fd fcce 6a5a b3bf 0c3b 1c9d ac4a 80bf
000002b0: 4ba9 fd01 b72c a1bf 6c93 3aff 41e5 aabf
000002c0: 8352 df89 aea5 90bf 2e00 99fc fb2e 8abf
000002d0: 702b 6651 14ad a33f 0f3c f8ea ce4a a0bf
000002e0: 79b5 2317 6884 8cbf 9546 9e65 464a 8a3f
000002f0: cb1c f725 1a6d d0bf a682 8b33 2666 a2bf
00000300: 83c6 106b 1d9b 793f 262b cea6 1342 b7bf
00000310: 7455 9e0f c225 c3bf 24b7 ffce 82bd b0bf
00000320: 4c92 802f 55b4 b3bf 185f d0fb a6f7 b0bf
00000330: a014 8a63 06ec b6bf c90b 6146 aeab 78bf
00000340: 8c97 e8e0 ab32 c1bf 18d3 0bc3 aaca b7bf
00000350: 88d1 eb9f ffca babf d38a 3785 aa4b 94bf
00000360: 2365 88e5 b031 b3bf dadb c467 e39d b2bf
00000370: 6a79 8ce3 a58a 9c3f 6b96 9ea0 cd18 a3bf
00000380: b3c8 8d4d ef1f d6bf fca7 8d3e f6d1 bbbf
00000390: f129 be8d 091f a9bf f05e d3c2 642f 97bf
000003a0: 5167 113e 4a05 95bf f960 eb29 a030 bdbf
000003b0: eaf8 cd7a 1ad7 bdbf 4bb6 0730 6ce4 d0bf
000003c0: 3a8e 9913 cc3b a6bf f662 3ded a1d1 acbf
000003d0: 974d 4e9f 7dda aabf 6b42 c887 3180 933f
000003e0: 77bd a41f 8705 acbf bb9f 1612 9203 943f
000003f0: 86e7 69ef db75 aabf d987 66d1 7672 973f
-0.0670410831639672 -0.07531880420770891 -0.0707202032560449 0.012519791894917906 -0.053690827359872816 -0.014377035562579582 -0.013646498211119618 -0.023556809288942937
-0.03820846811073956 -0.12225035400253766 0.025261382287523823 -0.10984993655058392 -0.13689838667208148 -0.16448614718644128 0.009276961533677444 -0.05080560189584883
-0.09144624591639232 -0.07884352029704099 -0.11888573744835933 -0.003632485489854167 0.025917367503723438 -0.019153553548532345 -0.04127174131121182 -0.05482704696959874
-0.14933932892396415 0.02042794781611348 -0.026459094630821727 0.012350311065069623 -0.07371554011454524 -0.09910222127778026 -0.008598129912701742 -0.03735136980121246
-0.02864436442197149 -0.023450900047842792 -0.09508256652258563 0.007001896493089346 -0.033912366528456445 -0.07302247439464336 -0.08587945575401437 -0.11151610637334307
-0.07360522899057068 -0.052508786910528155 -0.08986255466326598 -0.07426420879970694 -0.11427645391531073 -0.1198310151089972 -0.07910628362203138 -0.1236925913219071
-0.07943090613261215 -0.0067179801238507674 4.825104730653656e-06 -0.07526743547583993 -0.021961424454405975 -0.3372845415431826 -0.061665960274326956 -0.12269156551361735
-0.0954247263192165 -0.016478824815412352 -0.06751213785565112 -0.01777074332495453 0.0014569862131610918 -0.10957817003974127 -0.08483176843152002 -0.039983815127999374
-0.049031438022093046 -0.0505264610616346 -0.1217191313836462 -0.12901545449102275 -0.08178140552162451 0.018408702299277 0.0033808097417185635 -0.04687830376734633
-0.090690161240983 0.0393316381434436 -0.07485642204889699 -0.03246014532951272 -0.12747554188114968 -0.12461240400961922 -0.04702899034345579 -0.05964355483104311
-0.046183483633062225 0.0013782836610222475 -0.13139168049787492 -0.12631376158341326 -0.07559840730117603 -0.007954929871201631 -0.033544272416139075 -0.052530348211155736
-0.016257025876103014 -0.012784927984398644 0.03842986577645646 -0.0318207418277937 -0.01392442055336106 0.012836980796950651 -0.25665906627223184 -0.035935586731061606
0.006251444735470127 -0.09085200140377178 -0.14958978426572467 -0.06539170793231769 -0.07697040948603123 -0.06627887389947451 -0.08953895502243592 -0.006023102532767896
-0.1343588684259739 -0.09293620359296673 -0.10466001180959073 -0.019819893246572583 -0.07497697452381095 -0.07272168429777484 0.027872650159332414 -0.03729860864340825
-0.34569914411180064 -0.1086725142210127 -0.049064920952407116 -0.022641729727950144 -0.020527992285088562 -0.11402321837829622 -0.11656346796187092 -0.26394180956308294
-0.043424966232830944 -0.05628686924928232 -0.05244820184375525 0.019043706810466448 -0.05472967396996869 0.019544870714213163 -0.05168044374018081 0.022897583514016027

policyHead.2.weight f8 [64, 128]
00000000: 71b8 bd9c d5d8 b1bf 5fda 9cca 86ad 923f
00000010: a21b 7f0d bbc8 513f bf2a 3cef 17f7 b0bf
00000020: f296 40a2 4ebf 943f 29cb ade7 409d 97bf
00000030: 1435 252a badc 7a3f 6a53 36e9 c12b ae3f
00000040: 2da7 dd12 bb0f a53f def4 3a6d 9014 c2bf
00000050: ce7a 3040 5af8 acbf bee3 25f7 34c4 b4bf
00000060: 7e1a 6a6e b85f 933f 7ef2 3c35 c808 bdbf
00000070: 6ac8 8e98 86fa 91bf 9475 ddaf 1943 94bf
00000080: a919 7632 2d6d a5bf abf8 efc9 636b a8bf
00000090: 0775 25e9 7be1 b3bf 8fee b6d9 b3a8 bebf
000000a0: 9263 7717 4084 a8bf 1f3c b272 a0ec 84bf
000000b0: e230 2b66 b603 793f 9521 e558 3198 b0bf
000000c0: 3857 c514 4485 75bf 0a46 1fae 2ed4 a3bf
000000d0: 2213 226e 8de6 bebf de93 3e09 9609 a2bf
000000e0: b398 cd34 afaf b0bf 4936 534a e2d7 bbbf
000000f0: 2ac9 1e0f 2173 95bf 3514 cf65 217f a6bf
00000100: 4384 beda bfaf 903f dfb1 3709 c790 943f
00000110: 19f1 2a41 fc68 b23f e368 5a01 9d97 bf3f
00000120: cc11 34c3 c05f 84bf 45f6 5b37 32ce 413f
00000130: e32a 2477 83da 8fbf 75ba eece 372a ae3f
00000140: bb76 4547 6e50 aebf ca2b e9ca b44e a0bf
00000150: f447 58eb 0248 a43f 4075 97aa 2e3f abbf
00000160: 7471 8f72 f838 b0bf f62e 6916 705a a53f
00000170: f6eb 9a0c 01b8 b2bf 8669 50bf c114 b93f
00000180: 8907 0f8d cf13 aabf cb03 a2dc 16bb bcbf
00000190: f2dc 973d 377d c0bf cbc1 21bb 2a98 b03f
000001a0: 5616 e3da bec4 aabf 5bd3 bb44 190e aa3f
000001b0: 0ff3 b942 a2cb c23f 007d 9bc1 41dd a0bf
000001c0: af2d 5c9e 8868 773f ff5c a971 a6b4 a8bf
000001d0: 7f5b dee9 536b b5bf 6b29 1b21 a559 b6bf
000001e0: 0750 39f0 3d0b bdbf 08d0 2b63 e553 833f
000001f0: e08c dfde accb a93f 6fee 3626 bfc3 7abf
00000200: 29dc f730 9a9f b43f 8513 c4d2 4f42 bf3f
00000210: 8d71 6002 4b3c 8ebf 3604 2aaf 5d14 a23f
00000220: cf59 c08a 499a bd3f 932f cf38 9ae9 933f
00000230: 3ba3 1e09 fe86 a23f fdb1 553c 8b7d 99bf
00000240: c0a8 bd79 82c8 6a3f 648e dee8 fcbc a83f
00000250: 7a9f 9a80 5c85 91bf 9665 9dfc a786 b13f
00000260: 4f17 5f37 cae8 b5bf 5de5 feb8 a52e 98bf
00000270: 5a83 e35f b64d bb3f 8e48 ed1f c1f9 a03f
00000280: 8ef6 9a0a f4fc 963f 22b4 b0d0 a1bb acbf
00000290: 5724 7066 1c95 95bf fac1 7c8c 2331 ba3f
000002a0: fdb4 0960 6c7e 80bf ac46 8c25 7976 b7bf
000002b0: 0832 e741 fa05 b03f 369a 4049 aa0a bbbf
000002c0: 300f 24b3 bef4 c5bf 3966 917b 45b7 aabf
000002d0: f3e0 b269 27cb b5bf 67c2 cca7 1aa4 903f
000002e0: 0de1 0cde de1f b23f 93a5 4970 6755 88bf
000002f0: f260 1b9f 2ef4 673f c023 f44c 3292 983f
00000300: 8977 e08a a8b1 bc3f 5f49 3d73 8b05 c03f
00000310: 381c 3221 d494 673f f3c9 f322 9122 b73f
00000320: 57bf c1d9 93e9 bd3f 130d b54e 7e02 913f
00000330: 1f48 7fb6 5ffd 9b3f e72c ddce 5a66 c13f
00000340: 01c5 4b47 6e08 a3bf 9e09 3d16 b312 be3f
00000350: 9a43 91ae 83ab acbf 4ed0 fd8c 0f1e 80bf
00000360: 3218 2f8e 8ec3 b0bf a200 33ae 7a85 adbf
00000370: fc13 3465 f87b a33f 5b01 aff6 9970 afbf
00000380: a214 1afb 19a1 77bf 4695 c673 5e8a ab3f
00000390: eb20 12b8 f363 bf3f cfa1 2130 71ba 963f
000003a0: bedb b2da 113e b2bf 5092 de2f a66d 6cbf
000003b0: 015c 6dfc dac9 adbf de71 0a17 2f00 ac3f
000003c0: 2d20 73a1 5530 8d3f 340d 28d3 3ef5 c23f
000003d0: 7147 accb 4e37 903f cae5 ed27 ae79 b3bf
000003e0: cb09 6103 4284 91bf 0a23 63d4 900c b6bf
000003f0: ef7f 7a29 c15f b0bf 1b66 fb73 f57d bcbf
00000400: 9424 6f1d 78f6 bbbf 9dd5 00e0 9f89 943f
00000410: f0b8 fec1 7651 663f 24c2 8f16 4d00 9cbf
00000420: 8462 99c1 bf80 663f f2a4 9217 5489 c1bf
00000430: 8506 34e0 fbfa c5bf 5a0a 328b d3f0 a6bf
00000440: 814a b3c9 7ba0 8abf 076b bed5 a832 b5bf
00000450: 86a6 de38 2511 c7bf 1772 3786 0b19 b5bf
00000460: 1a3c e1e0 ced8 8abf 7eb9 6068 09ed 81bf
00000470: fe62 dd4d d766 bb3f f0d7 af95 27ca aebf
00000480: 6953 fc22 f676 c9bf 4c2e 4b7e 012d 99bf
00000490: 45b1 2052 5253 c2bf 7545 899e e8a3 9abf
000004a0: 1b2f f25b cf52 afbf df5b 9dcd e925 9d3f
000004b0: 7992 5fc3 e4ae 973f 3344 4c4e 58c4 b0bf
000004c0: 2331 bd85 98c5 b5bf f2ad 167d 2366 bcbf
000004d0: b54a 0ac1 42ba 88bf a6ac 2259 8924 a6bf
000004e0: 828b 8ce7 e62b acbf 0804 8df9 308b bfbf
000004f0: 11e7 de23 e094 a73f d7c4 5989 9598 b33f
00000500: 8605 da4b 829c 76bf 6300 c3ab 51a5 c03f
00000510: 7015 829d cdf6 c1bf 7cd1 14d8 b7d2 aebf
00000520: 8ada 80f2 a1b7 9abf 3bdf 1cdf 4f3a adbf
00000530: 3beb 77b4 7f1b c0bf 1ae9 6934 334a 9abf
00000540: 6dbe 617e 3470 a4bf bfc6 e9a8 c1f1 833f
00000550: da65 e2ac be0f 73bf e7a5 6b55 c656 b4bf
00000560: 12bb e897 a630 923f 34f4 a514 eb2c c23f
00000570: c6bd 0b68 36af 923f 9929 45c0 8f8d 9a3f
00000580: 19cb 93d7 7ca5 babf 9a95 a050 e500 9e3f
00000590: 1c5b 1ae1 8f54 a63f 11eb 224a ae0f babf
000005a0: 2fee 51e4 005d 9a3f 3a5e d877 53fb af3f
000005b0: 4829 6472 f61d f2be d95f 9600 0a60 bf3f
000005c0: a00c b5c4 dc94 b1bf f6f4 0f64 344c b3bf
000005d0: 594f 046b be2e b03f 43d9 b752 57e2 903f
000005e0: a90d 47b5 76e8 9fbf c4bb 2ebf 5184 aabf
000005f0: eaf9 7f2e f9df 92bf f3b6 ae79 7dce 94bf
00000600: 6f90 ac05 7f4c a7bf fc9b 6f17 b7f7 9a3f
00000610: c0f6 438a c6db a43f 31a3 24d3 6adc c3bf
00000620: aafe 37bb 0add 8abf 7234 1b26 784a ac3f
00000630: 5264 e8b0 ad97 babf 4547 418c 6f4e c23f
00000640: 1f1b ee96 739c afbf 3818 426b 75bf bdbf
00000650: 00e8 14d4 c318 94bf a7f9 9993 681e c23f
00000660: 5464 9ec4 9210 97bf aef3 5945 3adc babf
00000670: 6656 92bb b5dc 9abf 33bb 8084 3434 aabf
00000680: bf22 ea64 600b a7bf a99d edb6 21ac bcbf
00000690: b3ea 00e3 0807 78bf d260 70d1 a084 743f
000006a0: f220 fd46 7a86 9c3f 2804 45c9 915f b0bf
000006b0: ff8b 3b69 3e3f aebf c304 3501 8a43 bcbf
000006c0: fa25 fe61 23d4 a43f 6518 42fd c66b b8bf
000006d0: 9f61 9958 1261 963f 9390 831b a89f ba3f
000006e0: 9e1e 82aa 52af c0bf 87c2 a8ac 4d1b 5e3f
000006f0: 53b1 caaa bf9c cabf e883 7b3e f380 a53f
00000700: b01a ed55 af5c a2bf 115e fa22 c39b babf
00000710: 3c6d 03f7 655e 8a3f 612e 1187 5858 a13f
00000720: 488a 9674 e45e 73bf 72ae 24f9 0509 82bf
00000730: 5de5 9aff e38e aebf f974 85fd 7d5c b63f
00000740: ba13 3ac8 ecee a23f bb36 4920 d1ba 9e3f
00000750: 35a0 7012 930a 75bf 0f92 ce8d 2d10 bdbf
00000760: d3e7 af43 90af b0bf 87ab 7555 6352 bbbf
00000770: c261 ca72 f963 c0bf 1ae1 5361 0f5a 9d3f
00000780: 3334 369d 012a a3bf 828e 3077 b38a c2bf
00000790: 0422 da56 c700 9f3f 1c67 869b 53a4 c6bf
000007a0: fae9 dd81 46a4 7dbf 465b 9193 8159 3dbf
000007b0: 7fb1 631b 4c60 873f b7d0 5049 d1aa 5a3f
000007c0: 1d8d 45cf 0a06 c1bf c4be 51c3 6322 c0bf
000007d0: bb60 c8c2 33fc 77bf 8efc 2750 29ed a6bf
000007e0: dcff b483 bf63 b5bf 5506 6221 6c60 96bf
000007f0: 7ad1 1396 3de7 aabf 4791 42ec 6ff6 c2bf
-0.06971488072096733 0.01824007617616485 0.0010854555784918026 -0.06627034750651271 0.020261028912634545 -0.02306081213050529 0.006558158116900321 0.05892759296253909
0.04113564114852717 -0.1412525685645169 -0.05658227952539151 -0.08111887964140771 0.018919831980861883 -0.11341525363691038 -0.01755724245203575 -0.019787217482521394
-0.04184857598288556 -0.04769431915336616 -0.07765936319397691 -0.11976169648454003 -0.04788399015860202 -0.010216954708338886 0.006107056137534013 -0.06482227726258423
-0.005254045431078151 -0.038728197817942414 -0.12070545138164993 -0.0352293859753343 -0.06518073119295557 -0.10876287760330529 -0.020946995303981066 -0.043938678434223645
0.01629543087586095 0.020083532273860057 0.07191444960603056 0.12340718539272504 -0.009948259312758355 0.0005433793255346728 -0.015553500245478918 0.0589158477881612
-0.05920738811503897 -0.03185048081339621 0.039611903408640986 -0.05321641762177842 -0.06336930081255848 0.04170561097688889 -0.07312017972701298 0.09797297402147906
-0.050932393998222976 -0.11222975622696578 -0.12882128245812613 0.06482188290261275 -0.052282299251186146 0.050888814583152274 0.14683941133616726 -0.03293805588122645
0.005714925447829185 -0.04825325143309022 -0.08366894206697671 -0.08730537470106518 -0.11345278849449879 0.009437362755740267 0.05038204403515478 -0.006534334828241491
0.08056033797753116 0.12210558791782773 -0.014763437280685543 0.035311629898395244 0.11563548696026447 0.019445810048452094 0.03618615971874425 -0.024892974431553572
0.0032694385862913344 0.04831686346667821 -0.017110295628895746 0.06846094052652626 -0.08558334209291484 -0.023615445533981972 0.10665454712899472 0.03315547480328106
0.02244931521157994 -0.05611901924599062 -0.021076625587771094 0.10231229953638624 -0.008053633385510123 -0.09165150801370697 0.06259121045076921 -0.10563148773562933
-0.1715315222464766 -0.052179499944668035 -0.08513113337074056 0.016251007548989806 0.070798806392194 -0.011881645311592226 0.002924052293433837 0.0239951953381341
0.11208585157916508 0.12516921164440029 0.002878584209216519 0.090371199639584 0.11684536043480641 0.016611074022205474 0.02733373214125134 0.13593611813335046
-0.0371736967116565 0.1174728326123273 -0.055996050891400986 -0.007869836321084869 -0.06548396083152921 -0.057658990635446786 0.038055193284925765 -0.06140595566057768
-0.0057688727262121 0.05379004634168409 0.1226188969031942 0.022195595324235925 -0.07125960912058724 -0.0034702535476347843 -0.05818065959345376 0.054688903391454366
0.014252346982530717 0.14810929594396216 0.015835982495509385 -0.07607544398151514 -0.01710608621238822 -0.08612923798785857 -0.0639610983148484 -0.11129697877495241
-0.10922957151992058 0.020056245848726218 0.0027243918884415283 -0.027344898702667333 0.0027469392050927816 -0.13700343276040133 -0.17172192046568938 -0.04480610918200929
-0.013001410572916374 -0.0828042527995586 -0.18021073605386934 -0.08241340662738882 -0.013108841169154718 -0.008752892968996614 0.10703797961231129 -0.06013606741173294
-0.19894291599544126 -0.02458574612937374 -0.14316777238981096 -0.026015886951716156 -0.061178665136223574 0.028464940237736044 0.02312810366119542 -0.06549598609514433
-0.08504632248986303 -0.11093351177139946 -0.012074014202231845 -0.04324750149802385 -0.05502244545484471 -0.12321764080572006 0.046057705286740476 0.07654699900901406
-0.005520352334884909 0.13004513632586442 -0.14034433546855096 -0.06020140183173603 -0.026091127802113458 -0.05708551024002736 -0.12583919822631082 -0.025673675607756775
-0.03991855662104347 0.00973845764858383 -0.004653687310701449 -0.07944907746755057 0.01776371290378182 0.1419957972356386 0.01824650774045524 0.02593063937210047
-0.1040876413642703 0.029300292059038925 0.043613907078159125 -0.10180177030535399 0.02574540513567863 0.062464340571918034 -1.727775738750409e-05 0.12255918993321248
-0.06867770960257014 -0.07538154070785538 0.06321325409618107 0.01648842279788566 -0.031160216154388163 -0.05179076632281679 -0.01843251558602247 -0.020318947364720463
-0.045505494539867956 0.02633558350126107 0.040739254358397314 -0.15516410169336717 -0.013116916502439697 0.05525565591015259 -0.1038769299415361 0.14301866863621107
-0.061740505384525905 -0.11620267742736778 -0.019625720805585445 0.14155299384215178 -0.02252415967049999 -0.10492290681027214 -0.02623256642671947 -0.051179543661751835
-0.04500867111079775 -0.1120015212633151 -0.005866083825874102 0.005009296603951623 0.027856741507350465 -0.0639582744961592 -0.059076261850144356 -0.11040556458921728
0.040680986129768074 -0.09539455111561919 0.021854674012816152 0.10399866744734458 -0.13035043073272318 0.0018375643291045644 -0.20790859069291887 0.0419994367382584
-0.03586337970641773 -0.10393924335436845 0.012875362969160357 0.033877150047001654 -0.004729168323509621 -0.008806273141622276 -0.059683918906965096 0.08734881820187813
0.03697910255599575 0.030009524913387802 -0.0051370377541744465 -0.11352810585101046 -0.06517888691442346 -0.10672589146058274 -0.12805097680099037 0.02866386443653921
-0.037429857674489496 -0.14485781974609685 0.030276407886534087 -0.17688984960550946 -0.007236743373022931 -0.00044783986556267243 0.01141414126001261 0.0016276401340862676
-0.13299689408004492 -0.12604949032856017 -0.005855753127001313 -0.044778147730533666 -0.08355328526977196 -0.02185219720604999 -0.05254547554969498 -0.1481456664670395

policyHead.2.bias f8 [64]
00000000: 0073 b796 93cc a7bf 951c ff0a b7e5 dfbf
00000010: 3263 0d40 bb63 cdbf de2e f3af 25b8 cabf
00000020: a707 1bfe 63d1 a4bf 87ef 2107 b005 afbf
00000030: 15de ce08 e13e bcbf bcea 6c2f 0744 a8bf
00000040: 162a 14bc 53d8 b1bf 9def 671c 66ab b3bf
00000050: 2cd3 2c2e ff8b cfbf 14d0 cff9 7a21 c6bf
00000060: 1fe3 d237 d70f bdbf 0be2 c3c5 4196 93bf
00000070: 616f fd2b 4a30 d8bf dd58 1b64 6d0d bbbf
00000080: ade0 a9c9 18c9 b6bf f819 3fb4 4781 b7bf
00000090: a457 f2a4 2c68 bbbf b5e8 7f20 b696 c1bf
000000a0: 1ee8 d409 2203 bfbf 3036 1abb d2f3 babf
000000b0: be56 5fd8 f147 aebf 4db8 97ce 4384 d4bf
000000c0: 096b 8c44 e300 bfbf d48e 02c2 44f4 c0bf
000000d0: 7105 2731 b383 b0bf 9609 5d97 05bd c7bf
000000e0: 20ff 685a e7a6 c0bf 7226 c67b 1c2c a9bf
000000f0: c555 fc53 2800 b0bf e00d a2a9 4f14 a4bf
00000100: 0ae0 64c1 43f5 b2bf 2441 8f9d d581 a1bf
00000110: 0469 5c63 377d b5bf 2808 6bef 0e5b d5bf
00000120: 2c26 07e4 a364 c5bf 2c6a 10dc bcc3 bdbf
00000130: d521 dc5e 8baf d8bf 1e6a f1d2 af85 c1bf
00000140: 81e3 0c7b 4a64 ccbf 01f0 3f32 8232 dfbf
00000150: fd86 0806 2690 cebf 26ec 2711 df9d babf
00000160: 4af8 049d 57e4 c5bf fe80 b287 42c4 c7bf
00000170: 06df 4fbb 0f83 b8bf d8e6 27c5 39ff bcbf
00000180: 88de a399 3c6f c5bf 3edd fd8d 50ce afbf
00000190: 598f d2b3 7a10 c3bf 7c65 963c 8c31 d5bf
000001a0: 498a 03e6 9c63 ccbf 8cca e967 543f b4bf
000001b0: 48eb 155a 17ec a0bf d755 1fd0 90cb acbf
000001c0: ffbc eb05 5d70 c7bf 5fe4 bd2c d247 cbbf
000001d0: 5761 63e9 967e cabf 620b 69bb d793 cabf
000001e0: bdb6 dad9 ad27 cfbf eb99 ccf6 553d d0bf
000001f0: 4b6d ae30 c3aa a1bf bbb4 c520 87b5 b2bf
-0.04648266997148731 -0.4983956916225421 -0.22960606219819507 -0.2087447270517861 -0.04066002346873115 -0.060590268011735886 -0.11033445801773951 -0.047394012965431526
-0.06970713941351678 -0.07683408921724184 -0.24645986323016567 -0.17289673993912003 -0.1135229598320504 -0.019127872176769183 -0.37794737144371565 -0.10567363447202945
-0.0890059940664993 -0.09181640768574784 -0.10705832507150476 -0.13741184794327457 -0.12114155521422318 -0.10528294628076007 -0.05914264456047878 -0.32057280707420405
-0.1211072962145573 -0.13245448563713202 -0.06450958204279346 -0.18545598879616126 -0.13009349741513976 -0.04916466723359471 -0.06250240374023182 -0.039217462021976734
-0.0740549418595721 -0.03419368313154994 -0.08394190002255547 -0.3336827600543324 -0.16713379511047444 -0.11626797077807599 -0.38571438087140325 -0.13689229774429718
-0.22181063659970948 -0.48745779902651526 -0.23877406401248172 -0.10397142571302762 -0.17103095213855318 -0.1856768763145808 -0.09574983904883191 -0.11326943457961691
-0.16745717527350146 -0.06212093098923298 -0.14894040851970194 -0.3311491576838177 -0.22178994399208055 -0.07909133469528679 -0.03305123305013652 -0.05624058285290417
-0.18311655797104007 -0.21312930283218898 -0.20698820491703415 -0.2076368012513639 -0.24339841020030475 -0.25374363996016197 -0.03450593919043373 -0.07308239507775031

policyHead.4.weight f8 [24, 64]
00000000: 68fb 34d9 6ba2 ae3f 0103 cfd9 cfcd ccbf
00000010: 578e 4e5c 515b d7bf 2f27 23d6 29a6 abbf
00000020: d580 e256 1124 adbf c5b6 ffca 24ae bebf
00000030: 60d4 da75 a0c1 acbf 54e7 7879 5c81 b7bf
00000040: cd21 f580 3c7f ac3f a134 d062 3600 a7bf
00000050: 6162 80a3 c7e5 d6bf 6300 4e79 e354 d9bf
00000060: 6161 0baa 9d57 a6bf f9d4 a07a 3e0d bdbf
00000070: 1196 f2d9 f9a8 d1bf ee0c 601f c1bf b2bf
00000080: b186 44b5 426c a4bf e868 f49b 40c6 953f
00000090: 0b27 2ada 9c98 babf bd6a 3e5e 08cb 9dbf
000000a0: eead 8df4 5789 dbbf b359 1cb4 a9c8 55bf
000000b0: 6b61 c7a4 1ed6 c3bf 1199 6dc8 4b58 8ebf
000000c0: d3b2 74e9 4c00 9abf 1960 01dc 35ee b63f
000000d0: d5dc 47a8 005c 6ebf 72a4 df73 c597 d4bf
000000e0: 4c7e 3dc2 61cf 87bf 4ad1 0684 829d 5c3f
000000f0: 52d0 bd19 cd28 a3bf 546a db52 7d7c 54bf
00000100: 6fcc e720 6fe8 bb3f 9fbf 696b 4e68 bfbf
00000110: e5dc 3d6b ec85 bdbf 7068 f740 c0a4 c5bf
00000120: ea70 8e4e 52d1 8e3f 0ac6 8ddb a546 c13f
00000130: eb55 0020 6e2d d3bf e618 6e37 71f8 c4bf
00000140: e94c ffd1 1f1d c5bf 3ee0 45c1 1205 c3bf
00000150: e52d 834b 7823 bdbf 8be3 eb7e 4138 d3bf
00000160: a8ce 5cde cd49 c73f 6ef5 987d 3135 dbbf
00000170: 1088 8121 4b1f aebf 78e6 11d8 76a8 b1bf
00000180: 6f2d cb05 6e1e 92bf b3d6 0697 52be b8bf
00000190: 09e7 0e81 b1e2 d6bf 9603 8239 86b1 d1bf
000001a0: 5340 89e6 f7b0 97bf ec58 39f3 d14e c13f
000001b0: 5587 2d16 cc4d babf 0282 8efc d152 aebf
000001c0: b43b f7e0 2d4e d0bf 08d4 d4bb cd20 ccbf
000001d0: 4105 4c43 1249 d1bf ef31 a74b 948d d2bf
000001e0: 780e 9d54 1dfb a0bf 1837 6a42 9fd7 a5bf
000001f0: 4a28 82bb d574 a5bf afbe 1f12 fa6e b43f
00000200: 00b3 f64a 8957 9e3f 9be9 2cd4 50b8 aebf
00000210: 09bd 6470 b91b c63f 3155 e73f 9560 c5bf
00000220: 5e98 6662 589a cabf fa3d e58b 2157 c2bf
00000230: 6d4a 7ae1 79f3 95bf 7092 b2c5 875f b53f
00000240: a990 b5f5 ad2c 953f 3914 7d7e aaac a93f
00000250: 72e2 d7c9 f94c b3bf 90d9 4c7e a3fb ce3f
00000260: 15b3 9e7e aa37 b5bf 61eb 8ad8 2eca a9bf
00000270: 7f1a 3cf3 b539 d2bf af43 4a09 36d7 8ebf
00000280: 88c4 6e18 452b ad3f 21f9 6e5a 966b acbf
00000290: 23a6 0c03 9007 bb3f c0f3 96f0 a4d6 b1bf
000002a0: 19ea 87a0 5601 bbbf 7242 9be7 b221 8b3f
000002b0: a5c7 0b93 9717 96bf a4c1 f88d f885 d5bf
000002c0: 189a cf24 102c a6bf 8a81 683a b3c7 b03f
000002d0: f2c6 6cf2 a67e 9fbf 7511 d4eb 51a2 d4bf
000002e0: fca0 05d3 c3f5 b4bf 929a baed 1f55 b5bf
000002f0: 163b 2d65 950b c0bf 2796 313f 641d b4bf
00000300: 44f3 d3a3 8dda a43f 6e52 9e46 124c a53f
00000310: baf1 7ef7 a362 95bf 5f28 abe0 1886 b1bf
00000320: 30ad 2b13 5f43 8b3f b600 66a7 9bd2 b1bf
00000330: 7ced 24d4 af6e c3bf 343d 3c04 0af9 953f
00000340: 6448 6d20 80ce c8bf b4f7 f8a6 87c1 933f
00000350: 9489 396b fcd4 bcbf d7f3 94cb 55ff c2bf
00000360: 70bb 1a8e 1197 863f 0bb5 d837 a4fa c5bf
00000370: 4f47 c580 f1e1 83bf d4c1 1b6b 39de a13f
00000380: 7947 df95 586f a83f 471f 3df7 c0c8 9fbf
00000390: e603 b1e0 dab1 c2bf 353f 05a3 36f3 843f
000003a0: c3ce d57f 70a1 b63f ad9f dbd0 2f40 863f
000003b0: 7e25 c4d6 f780 afbf a3b2 f35e ceca cebf
000003c0: e13d d658 5fc6 b43f ac67 70ba 0ca7 bdbf
000003d0: 7627 8717 ae1e d5bf a240 f7a1 4ce5 ab3f
000003e0: f8cc a4a5 f156 bbbf ca46 e926 cdc6 c8bf
000003f0: fe94 3ea5 7ce5 b2bf 3c14 f0b9 d1d4 92bf
00000400: 71d2 15aa 6cbf abbf c422 5016 dc10 d7bf
00000410: 06ee 182f 3f5f afbf 2d58 327b dfdd a6bf
00000420: 8b89 ea1a acd2 bdbf 0e12 9856 a4bb d03f
00000430: 4a91 f739 b0b6 70bf ebd3 8d6a 3e5f b33f
00000440: 21e6 604a 3efb 99bf 5039 ff3a 124c b0bf
00000450: fbb1 5d6a a69f d03f 7768 d5c4 3dc2 a43f
00000460: b886 4ca2 da9a bbbf 032e 9d0e c521 c9bf
00000470: e5d2 1367 30d3 c1bf abd8 05b1 28c3 afbf
00000480: 9f32 081a 8769 babf a0fd afaa 03ad a63f
00000490: 0ced 963c 2453 a2bf c4ab e55c cf4e c2bf
000004a0: 78ec 33f5 f4fc c1bf c5f9 db42 1f26 b03f
000004b0: 4cc2 94bb 3e19 94bf 00b4 5ef8 7d1b a9bf
000004c0: ffa7 0595 6728 a6bf c78d 7121 fce7 bbbf
000004d0: 50ca 1d72 ac5a 803f b19e 99a5 af46 b53f
000004e0: 6efd 27ee de0a 9ebf 29e8 605f 4160 babf
000004f0: f186 9cf9 7e08 ac3f 59ce e868 8246 98bf
00000500: 74c7 ed76 f004 b33f db54 3691 7ca4 b4bf
00000510: 147d b853 1a59 93bf f2e8 9e60 5b5d 953f
00000520: 6479 f319 7781 90bf 2bf0 307f 7ae8 c0bf
00000530: 0aa9 2cc4 49f3 d03f 1801 e9ed c111 753f
00000540: 3806 386f f97b d3bf 9daf 8c1e c706 c6bf
00000550: 1542 e047 cd44 b13f 5e91 228a 7cde c13f
00000560: 09ee 4482 5a5d 9e3f 388c 035a 625b 9d3f
00000570: 3155 4998 85a7 b33f 99fb eec2 35b9 b83f
00000580: 7467 d723 8fe6 b9bf bbd0 9776 c6f6 82bf
00000590: c597 4810 007a c1bf adda 0e8a 0b1b b4bf
000005a0: b375 8e36 9e74 aa3f f14a 82f1 e80b 9cbf
000005b0: 9eda f4b7 1103 82bf 9056 37c4 5051 b2bf
000005c0: 113f 104e 9a10 d73f ff24 f217 31d0 afbf
000005d0: b1f6 edb5 3521 d9bf 1e9a 1872 bcd4 8ebf
000005e0: 7a78 d3fa 036b d8bf aa2b ba41 a7c8 b73f
000005f0: 6bfe 46d8 de25 bebf 9c17 8c0c 8691 a13f
00000600: f210 c9a8 a917 c5bf e212 90b8 6873 cfbf
00000610: b91f a7b8 531d c33f 440e d09c f6b7 993f
00000620: 6b21 6d5b d66d 883f 6166 08b7 f8eb 913f
00000630: cb42 7eb5 07bc b43f 3e81 c516 44df c2bf
00000640: e73f fe45 adb5 9dbf 3d26 5a93 9c2f 933f
00000650: 7f1e bf51 d82b d03f 4550 e9e5 4544 d23f
00000660: 3a48 f379 4594 963f 461d 94a9 b5ac cabf
00000670: b65d b21f f84d c53f 9ed7 ac13 6e9a b2bf
00000680: 72b4 6f7e e28e a4bf d78c 7ced b04a 9bbf
00000690: e92c aeb0 3414 b5bf b979 eb13 ab73 acbf
000006a0: 6c1c e7b4 51bd afbf f95f 608f e1aa b2bf
000006b0: 673c c463 f569 b8bf 72ad ec5b 005c b43f
000006c0: 92fe 8aee 281c ad3f 87cd 6c95 833a 903f
000006d0: 78d0 8d18 983a a8bf 8f76 9445 300e 913f
000006e0: e5e8 493f 0c80 c5bf e876 dfe2 fb48 c0bf
000006f0: 6e57 0956 6e6e 593f 3470 be12 d930 b3bf
00000700: bf6a e61d 764f 933f e794 b0fb 6767 c2bf
00000710: f8d1 4f53 2579 c2bf a69b 327c a9d0 c03f
00000720: 3b63 a604 8cea a0bf 1782 6638 ad20 c23f
00000730: 9dc5 bab1 2883 d23f 0136 b998 3353 42bf
00000740: 5c2e 68f8 abf8 e5bf ba13 fe8f 1ab0 c4bf
00000750: 6bf2 353c f762 cbbf 0cf1 70a7 cb61 c2bf
00000760: 04b4 7b7d 607e a73f de80 0b07 09a2 c3bf
00000770: 7a99 289a 17ff 5abf 3c7f e409 1fa0 b93f
00000780: 1741 2cf1 4b0e b53f 9388 2dc3 720c c8bf
00000790: 3273 b5ce 4484 9abf 91e4 fb6f 254c c63f
000007a0: 1b4f 11fd 37ff b93f cb37 310b 0e64 bdbf
000007b0: 307b 98b3 79dd c93f b2e3 0a49 81fd cabf
000007c0: 43fa 63c1 6a2a a03f f391 7e6b ae54 c0bf
000007d0: c585 1821 5de7 cebf 3754 59c2 85a8 c33f
000007e0: 43b2 54b9 ce3c a93f 4e65 72a6 d385 c8bf
000007f0: 08c4 2bc2 8184 bebf 67bb 5c73 d9e5 c2bf
0.05983292604877627 -0.2250308812636135 -0.3649485970911192 -0.05400210131627003 -0.05691579995732502 -0.11984472232844741 -0.05616475523621811 -0.09181764569885092
0.05565823625744635 -0.04492349582879141 -0.3577746483511302 -0.3958061871162554 -0.04363720608461353 -0.11348333829740288 -0.2759384754557184 -0.07323843971248653
-0.03988846266498792 0.02126408531066995 -0.10389118505750276 -0.029094820739923522 -0.43025778658076674 -0.001329580045824491 -0.15497191472855873 -0.014816848806458201
-0.0253917710771699 0.0895723020670406 -0.0037059796179580253 -0.32176338496953527 -0.011626018276444182 0.0017465376441637309 -0.037420663254039824 -0.0012503837455627624
0.10901541283947024 -0.12268533823384907 -0.11532476061062231 -0.1690903012484486 0.01504768659815921 0.13496850223923246 -0.2996478378784945 -0.1638318558363558
-0.1649513030411989 -0.14859232365756897 -0.11382247775616568 -0.3003085841624446 0.1819398246531041 -0.42512166276340835 -0.05883250030525755 -0.06897681021828272
-0.017694205382935587 -0.0966540926663935 -0.357586265595828 -0.27646022430422457 -0.023136018224534215 0.13521789909527315 -0.1027495912690289 -0.05922561843840769
-0.2547716805392455 -0.21975108787015096 -0.2700849206158474 -0.2898913134384022 -0.03316585214500106 -0.04266069112519072 -0.041907004489147484 0.07981837217789221
0.029630799484652748 -0.05999996748001309 0.1727210806652482 -0.16700997944159604 -0.20783524327015618 -0.14328402834733805 -0.021436600100580728 0.08348892761802928
0.02067825138273408 0.0501454619793908 -0.0753933065206043 0.24205440203668305 -0.0828806456690468 -0.0503706588110251 -0.2847723841991083 -0.015058920057784279
0.05697074816942754 -0.05550832609104562 0.10558414530228126 -0.06968146203776282 -0.10548917216502963 0.013247869198864868 -0.02157437167165423 -0.33630193581032075
-0.043304924481891216 0.06554718185407729 -0.030756577059213926 -0.32240722684971185 -0.08187507535842892 -0.08333015016487824 -0.12535350265758244 -0.07857348006071928
0.04072992920735044 0.04159600364724701 -0.020884096127461872 -0.06845241055558081 0.013312094471493369 -0.06961987339855366 -0.15181539400678534 0.021457821377279987
-0.1938018949827579 0.019292945448107182 -0.11262490861694224 -0.14841721001167116 0.011030327939207857 -0.17171147086029523 -0.009708296530024944 0.03489856178737552
0.04772450284475744 -0.03103925236726404 -0.14605270358336425 0.01022951779364654 0.08840087052322602 0.010864614068353118 -0.06153082367570571 -0.24056415211034218
0.08115192335957701 -0.11583022643790625 -0.3299975614323708 0.054483790179461936 -0.1067954091457074 -0.19356693649256435 -0.07381419214523885 -0.018389965986006937
-0.054194827806814845 -0.36040403536803134 -0.06127355050963605 -0.04466150645127729 -0.11649585396893351 0.2614527555126934 -0.00408047522021022 0.07567205525795344
-0.02537247971506507 -0.06366075458865805 0.25974426638893505 0.04054444339517798 -0.10783163511635052 -0.1963430711133328 -0.13925747902944532 -0.06203581963465984
-0.10317272553965971 0.04428874453150944 -0.0357905696832522 -0.14303009067529449 -0.14053213093561445 0.06308169729525222 -0.01962755222229111 -0.04903787285670802
-0.04327701276891104 -0.10900855843060873 0.007985446198039231 0.08310983460398337 -0.029338343892957246 -0.10303124025895784 0.054752319307466275 -0.02370647206607965
0.07429411796127089 -0.08063486619205966 -0.01889458786001537 0.02086394097543915 -0.016118870695998835 -0.13209468088632667 0.2648491302267223 0.005143888031455178
-0.30444179402556726 -0.17208184234311555 0.06745608334336624 0.13960224861979048 0.029652990532879318 0.028668915504465015 0.07677493064814624 0.09657608040923406
-0.10117430329355931 -0.009259748930141467 -0.13653565211387622 -0.07853767509991867 0.051670974883772834 -0.027389182796990267 -0.008794916559606233 -0.07155327597078043
0.36038835166344635 -0.062135252163963976 -0.39265196577603506 -0.01505419943994207 -0.38153171057445656 0.09290547709149047 -0.11776535778244017 0.03431338217892163
-0.16478462926364262 -0.2457095051942338 0.1493324901223312 0.02511582691296456 0.011928248086079582 0.017501722499309817 0.08099411183344356 -0.147438536757372
-0.029013354680102934 0.018736311429654363 0.2526760862642518 0.28541705562861736 0.0220499854738778 -0.20839567928508468 0.16644193217937947 -0.07266891460753164
-0.04015262406742516 -0.02665211152556143 -0.08233956635938323 -0.05556997888719501 -0.06199126561437471 -0.07291993856813396 -0.09536679921824175 0.07952882999659552
0.056855467909824445 0.015848213191203022 -0.047322037694272845 0.016655687567541263 -0.16797020998257675 -0.1272272928026077 0.001552207708433308 -0.07496411044707046
0.01885780866141817 -0.143780706305882 -0.1443220764919173 0.13136786045398913 -0.033039451186772394 0.14162221197058564 0.2892553077354821 -0.0005592348038107598
-0.686605439348067 -0.16162426024325588 -0.2139576953885752 -0.14360948253477834 0.04588605434205564 -0.1533824238204095 -0.0016477327814158047 0.10009950629728065
0.08224939954766729 -0.18787989168328476 -0.02589519035005878 0.17419879882780667 0.10155057838829544 -0.11480796597717739 0.20207139272039276 -0.2108613592770588
0.03157361613010725 -0.12758426903486927 -0.24143566242223194 0.15358039846128843 0.04929204952563684 -0.1915840685585785 -0.11920939436437561 -0.14763944752618416

policyHead.4.bias f8 [24]
00000000: 13b4 41d2 2d85 d3bf fa18 dc15 26af d4bf
00000010: 329d cd53 722c d5bf deaf 188b bc1e d2bf
00000020: a9da 2d06 7dda d4bf d0c7 7c5b 083a d4bf
00000030: de0b 7599 f6bf d8bf ba15 04fc 0d2e d3bf
00000040: 28eb e421 1da5 adbf b87d 5e1f 9027 aebf
00000050: d277 ff4a 096d dabf a887 6c79 bea3 d1bf
00000060: 06f2 c3f4 daf5 d6bf 3a6f 341e 4f7f d7bf
00000070: 9be7 ec8b ee63 d8bf 9f2c 6958 2913 d2bf
00000080: bcdb 08f2 04eb cfbf 5a1e 9499 8bae e23f
00000090: 5abc bb7d fcf1 f03f 3b34 32b8 8613 f63f
000000a0: 1102 9017 6c83 4bbf c756 6905 31a1 ae3f
000000b0: 0024 bc15 def5 9abf 9a2b fccb 3618 b7bf
-0.30500360043407787 -0.3231902326082402 -0.3308378046408108 -0.2831260069240197 -0.32583547213963954 -0.316042031615436 -0.38671650873237506 -0.2996859513371778
-0.05790034331081123 -0.05889559157298713 -0.4129050476457198 -0.27561914308364033 -0.3587558164870476 -0.3671453280419318 -0.38109935440626835 -0.2824195254695016
-0.24935972040267795 0.5838068008024024 1.0590786849459364 1.379767150417378 -0.0008396413605851768 0.059823543463307476 -0.026328535153002264 -0.0902132270822861
