Quixx/diffRules/ModelsNN3/version_4_model_4.pt (torch, 247882 bytes, 19 tensors)

policyHead.0.weight f4 [128, 122]
0	0xbd5a8c26	-0.053356312
1	0x3d6f832d	0.05847471
2	0xbda47b04	-0.08031276
3	0xbc5022b3	-0.012703585
4	0xbd6159a7	-0.05501714
5	0x3d8d2d74	0.06893435
6	0xbc835386	-0.016031038
7	0x3ca147d5	0.019687572
8	0x3a3b396e	0.00071420416
9	0xbb9276b4	-0.004469717
10	0x3db0d52a	0.08634408
11	0x3d7649cf	0.060128983
12	0x3c060607	0.008180148
13	0xbb89ea9b	-0.0042088754
14	0xbd6c25ce	-0.05765324
15	0xbdc1f4f5	-0.0947055
16	0x3d8bc494	0.06824604
17	0xbcc17b97	-0.023618503
18	0x3d8d81c0	0.069095135
19	0x3c1bc88f	0.009508266
20	0xbc88b6e7	-0.016688777
21	0xbdaae08e	-0.08343612
22	0x3c447af7	0.011992208
23	0x3c944e62	0.018103782
24	0xbc8019d0	-0.015637308
25	0x3dbe877a	0.09303184
26	0x3ab7964b	0.0014006583
27	0x3c8c1596	0.017100137
28	0xbd2a5cde	-0.04159247
29	0xbc5e333a	-0.013562018
30	0xbd3c3194	-0.04594572
31	0x3cd07d1d	0.025450284
32	0x3bf48be0	0.0074629635
33	0x3d34bc40	0.04412484
34	0x3d9e890e	0.07740985
35	0xbd388e0d	-0.045057345
36	0x3d2e41dc	0.042543277
37	0xbc9987fd	-0.018741602
38	0x3d97a55c	0.07404587
39	0x3d05792e	0.03258627
40	0x3ce4325a	0.02785604
41	0xba2ee61c	-0.0006671862
42	0xbd071c30	-0.032985866
43	0xbd9b57e6	-0.07585125
44	0x3cf52ca2	0.02992851
45	0xbca7092a	-0.020390112
46	0x3daaa173	0.08331575
47	0xbafae72b	-0.001914238
48	0x3c02bd0a	0.007979641
49	0xbc0452cc	-0.008076381
50	0x3d622fbc	0.055221304
51	0x3c1a5110	0.009418741
52	0xbd25f61e	-0.04051792
53	0x3d616352	0.05502636
54	0x3da75ebd	0.08172367
55	0xbd199ade	-0.03750121
56	0xbb0c1621	-0.0021375495
57	0xbd329843	-0.04360224
58	0x3d7d4de4	0.06184186
59	0x3d99b915	0.07506005
60	0x3db83676	0.089947626
61	0x3dbc62ec	0.09198555
62	0x3d1b5ec6	0.03793218
63	0xbd8498f8	-0.06474489
64	0x3c7b5199	0.015339279
65	0x3d36e5a5	0.0446526
66	0x3d0ccd90	0.034375727
67	0xbd3659c9	-0.04451922
68	0xbccefb22	-0.025266234
69	0x3dd0ade4	0.10189417
70	0xbd2b924e	-0.041887574
71	0xbd7f9b6e	-0.06240409
72	0x3d4d9ec6	0.050200246
73	0xbd7ea99c	-0.06217347
74	0xbd8b3fe6	-0.06799297
75	0xbc530826	-0.012880361
76	0x3cae6a61	0.02129096
77	0x3d14797e	0.036248676
78	0x3d88c2a0	0.06677747
79	0x3c4085d3	0.011750656
80	0x3da81059	0.08206243
81	0xbdb46815	-0.088089146
82	0xbccbfcdf	-0.024900852
83	0x3d869001	0.06570435
84	0x3c0d9b8e	0.008643044
85	0x3d62e644	0.05539538
86	0x3d883dc2	0.06652404
87	0xbd6d575c	-0.05794464
88	0x3d3b7182	0.045762546
89	0xbdc69d80	-0.096980095
90	0x3bed8e2f	0.0072496156
91	0xbd8d0ac4	-0.06886819
92	0xbde4cd81	-0.11172009
93	0xbda7e8cd	-0.081987
94	0x3b5d734a	0.0033790641
95	0xbd4506c3	-0.04810215
96	0x3c950c07	0.018194212
97	0x3c6a4836	0.014299443
98	0xbdfe1eb1	-0.12408198
99	0xbbe2f1f4	-0.0069258157
100	0x3d6faec4	0.05851628
101	0x3db4727c	0.08810899
102	0x3db7e405	0.08979038
103	0xbd00b9e1	-0.031427268
104	0x3de585f6	0.11207192
105	0xbd3de725	-0.046363015
106	0xbc841435	-0.016122917
107	0xbd85e419	-0.06537647
108	0xbd8c5ba4	-0.068534166
109	0x3d766f70	0.06016487
110	0x3d6e3612	0.058157034
111	0x3d90cce8	0.07070333
112	0x3c495ab5	0.012289693
113	0xbd9f948d	-0.07792006
114	0xbd43d717	-0.047812548
115	0xbd8c708a	-0.068574026
116	0xbd244604	-0.040105835
117	0x3cfd8cb2	0.030950878
118	0xbcf4e0a0	-0.029892266
119	0xbc8ff58f	-0.017573146
120	0xbd8e022a	-0.069340065
121	0xbc705cd5	-0.01467057
122	0x3d9e313d	0.07724235
123	0x3d20d329	0.039263878
124	0x3d6314a3	0.055439603
125	0xbd227a37	-0.039667334
126	0xbd891af5	-0.06694595
127	0xbd3e2b2b	-0.046427887
128	0xbd8714e5	-0.06595782
129	0xbd76eb3d	-0.060282934
130	0x3cc15ec9	0.023604767
131	0x3cbabd0e	0.022795226
132	0xbc92d5e1	-0.017924251
133	0xbcd32671	-0.025775166
134	0x3c872e41	0.016501548
135	0xbce44231	-0.027863594
136	0xbd0ec570	-0.03485626
137	0xbd84ef22	-0.064909235
138	0x3de8cee5	0.11367587
139	0xbcbfd9ba	-0.02341925
140	0x3cad8e7d	0.021186108
141	0xbce72d33	-0.028219795
142	0x3d4f3b12	0.050593443
143	0x3d3d6a24	0.0462438
144	0x3c2b28ca	0.010446737
145	0xbcb1348e	-0.021631505
146	0xbd6ebb56	-0.058284126
147	0x3d4852ba	0.04890702
148	0x3c0dfcbb	0.008666213
149	0xbcca897c	-0.02472376
150	0x3c5ad332	0.013356017
151	0xbd3c3035	-0.04594441
152	0xbd0db337	-0.03459474
153	0xbd035fc2	-0.032073744
154	0xbd5fd435	-0.054645736
155	0xbd396790	-0.04526478
156	0xbc213f3d	-0.009841737
157	0x39f8c9ff	0.00047452745
158	0x3d085b8f	0.033290442
159	0xbd8804ef	-0.06641566
160	0xbdb52ecd	-0.08846817
161	0xbb6d2e24	-0.0036190832
162	0x3c96c550	0.018404633
163	0x3cfa234e	0.030534413
164	0xbc53d4d8	-0.012929164
165	0xbcc4ea00	-0.024037361
166	0x3d5b65b1	0.053563777
167	0xbd9c77f3	-0.07640066
168	0xbcabd92d	-0.02097758
169	0xbd76f316	-0.06029042
170	0xbd54a5dd	-0.051915992
171	0xbdc18974	-0.09450045
172	0xbba4107f	-0.0050068493
173	0xbda0aece	-0.07845841
174	0xbc30d3cf	-0.010792687
175	0xbcda2f2a	-0.026633818
176	0xbdc396b2	-0.09550227
177	0x3bd99da2	0.0066411057
178	0xbd682c66	-0.056682967
179	0x3d60942f	0.05482882
180	0xbdb65437	-0.089027815
181	0x3c0858ce	0.008321954
182	0xbd6a2afb	-0.057169896
183	0x3d8a9585	0.067668
184	0x3d84a10a	0.06476028
185	0x3c1b804b	0.009491037
186	0x3bfbe59f	0.007687285
187	0xbd85cf01	-0.065336235
188	0xbce60c20	-0.028081954
189	0x3d4b0000	0.049560547
190	0xbda840aa	-0.08215459
191	0x3d137d26	0.036008023
192	0xbccb4110	-0.024811298
193	0x3d8b8895	0.0681316
194	0x3c0e4818	0.008684181
195	0xbd14f0fb	-0.03636263
196	0xbd93bf67	-0.072142415
197	0x3ce2de36	0.027693849
198	0x3b9bfe2f	0.0047605257
199	0x3d0712b2	0.032976814
200	0xbd8fea1b	-0.07027074
201	0x3ca49c44	0.020094045
202	0xbd32ae62	-0.043623336
203	0x3ce13542	0.027491216
204	0x3d409486	0.047016643
205	0x3c26afae	0.010173721
206	0xbd814b1a	-0.063131526
207	0xbbfa5904	-0.007640006
208	0x3d8220aa	0.063538864
209	0xbc2326d2	-0.009957986
210	0xba4ad6df	-0.0007737707
211	0xbd685ad3	-0.05672724
212	0x3d28d674	0.041220143
213	0x3d6d1f5d	0.05789124
214	0xbdb4e1fa	-0.08832164
215	0x3d729ca4	0.059231415
216	0xbd628afb	-0.055308323
217	0x3ba5e86b	0.005063107
218	0xbd3c138e	-0.045917086
219	0x3cf7ae5c	0.030234508
220	0x3d5a2121	0.05325425
221	0x3d80f5f7	0.06296914
222	0x3c9d8fef	0.019233672
223	0xbd2c87ec	-0.042121813
224	0x3afaaf9a	0.001912582
225	0xba50b511	-0.00079615513
226	0x3db109ab	0.08644422
227	0x3ca5c7c3	0.020236855
228	0x3daee4e4	0.08539751
229	0x3cbf06f5	0.023318747
230	0xbd6143a9	-0.054996166
231	0x3dbac255	0.09119097
232	0x3d58b16d	0.05290358
233	0xbd8684f4	-0.065683275
234	0xbd9b9991	-0.0759765
235	0xbd471747	-0.048606183
236	0x3d5a775f	0.053336497
237	0x3ca5741d	0.020196969
238	0xbc543e94	-0.012954373
239	0x3d3f725f	0.046739932
240	0xbbbcdbcf	-0.005763508
241	0xbdca62b8	-0.0988211
242	0xbcd06908	-0.025440708
243	0x3c887bba	0.01666056
244	0x3d12ddf1	0.03585619
245	0x3db62219	0.08893222
246	0xbbb0c506	-0.005394581
247	0x3ca7e0b9	0.020492898
248	0xbdd3729e	-0.10324596
249	0xbb9709fb	-0.004609344
250	0x3d5022e2	0.050814517
251	0x3d3022b9	0.043001864
252	0x3d76ed6a	0.06028501
253	0xbd44ae89	-0.048018012
254	0x3d2c2bb1	0.042033855
255	0x3d29fd11	0.04150111

policyHead.0.bias f4 [128]
0	0x3d14673f	0.036231276
1	0x3cc9b1ef	0.024620978
2	0xbd74f40c	-0.059803054
3	0x3d5162a1	0.05111945
4	0x3d169fd1	0.036773507
5	0x3cdf2f8a	0.027244348
6	0xbca721f4	-0.020401932
7	0x3da55fbf	0.08074903
8	0x39d164dd	0.00039938735
9	0x3a3d22df	0.0007214974
10	0x3d9aad3c	0.07552573
11	0x3d22bd8c	0.039731547
12	0xbd645ff3	-0.055755567
13	0x3d9fb315	0.07797829
14	0xbd9f7e7b	-0.07787796
15	0xbdae561b	-0.08512517
16	0xbbd16635	-0.006390358
17	0x3d254897	0.04035243
18	0x3c86f3d2	0.016473684
19	0xbc2d908c	-0.010593545
20	0xbd50b3c4	-0.050952688
21	0xbcec77b6	-0.028865676
22	0x3d7cdbba	0.061732985
23	0xbd98ebe5	-0.07466868
24	0x3d5d5c61	0.054043178
25	0xbd1e99da	-0.038720943
26	0xbdb0e667	-0.08637696
27	0x3db42af2	0.08797254
28	0xbd9f563e	-0.07780121
29	0x3ce0d906	0.027447235
30	0xbd24ad74	-0.04020448
31	0xbd48a8ec	-0.04898922
32	0x3da75942	0.081713215
33	0x3d49c5cf	0.04926091
34	0xbc6b7efa	-0.014373535
35	0x3b8061df	0.003917917
36	0xbcd4b559	-0.02596538
37	0x3cfcf5dc	0.030878954
38	0x3d94fbaf	0.07274567
39	0x3cc6474d	0.02420392
40	0x3d3d0b1d	0.046153177
41	0x3d706066	0.058685683
42	0xbc0fd295	-0.008778234
43	0xbd7f1243	-0.062273275
44	0x3d2a7831	0.04161853
45	0x3d2c0c60	0.04200399
46	0x3d254e6e	0.040358
47	0xbd9b49b2	-0.07582416
48	0x3d7a840b	0.061161082
49	0x3b8b007f	0.0042420025
50	0xbd37e8e2	-0.04489983
51	0xbcc17ae8	-0.023618177
52	0xbd379e5a	-0.04482875
53	0x3b37146b	0.0027935754
54	0x3d8c952e	0.06864391
55	0xbb3310e5	-0.0027323302
56	0xbcef4397	-0.029207034
57	0x3dba0d12	0.09084524
58	0xbced6e7b	-0.028983345
59	0xbd2a454a	-0.041569985
60	0x3d09771c	0.033560857
61	0x3d851371	0.06497849
62	0xbdb4ef41	-0.088346966
63	0xbce0212e	-0.027359571
64	0x3cdf0574	0.02722428
65	0xbd9f6823	-0.077835344
66	0x3d30fcb0	0.04320973
67	0xbd8228af	-0.06355416
68	0x3d6999bd	0.057031382
69	0xbd4fb758	-0.05071196
70	0xbcd92fca	-0.026512045
71	0xbdb3a31a	-0.087713435
72	0x3c4184a9	0.011811414
73	0x3c9c97a6	0.01911528
74	0xbd86fc8e	-0.0659114
75	0x3cfddbc0	0.030988574
76	0xbd4e06e5	-0.050299544
77	0xbd86a697	-0.06574743
78	0x3b85f68f	0.00408823
79	0xbcab0ea9	-0.020881014
80	0x3c276926	0.01021794
81	0x3d2990d2	0.041397877
82	0x3cbd3b12	0.023099456
83	0x3cce9eb0	0.025222152
84	0xbda1b5d7	-0.07896011
85	0xbd93d1bf	-0.0721774
86	0xbca8779f	-0.020564852
87	0xbd8d5e6d	-0.06902776
88	0x3dadde87	0.08489709
89	0x3d527a2d	0.051386047
90	0xbd35b70f	-0.04436403
91	0x3d0d55c4	0.03450562
92	0x3d0da9aa	0.034585632
93	0xbd18acf0	-0.0372743
94	0x3d79417f	0.060853478
95	0xbd2a82fa	-0.041628815
96	0xbb0c254f	-0.0021384542
97	0x3cd7d1a7	0.026345087
98	0xbdab4272	-0.08362283
99	0x3d2a2d1d	0.04154693
100	0xbd87fd5d	-0.06640122
101	0x3c11771a	0.008878494
102	0xbb9d54f4	-0.004801387
103	0xbda44125	-0.08020238
104	0xbc8dc6f6	-0.017306786
105	0x3d7accdc	0.061230525
106	0xbd74deda	-0.05978284
107	0xbd7adfbb	-0.061248522
108	0x3dafe8e9	0.08589346
109	0xbd6911d5	-0.05690177
110	0xbd6a8f19	-0.057265375
111	0x3d5d4067	0.054016497
112	0x3db844c3	0.0899749
113	0xba675e87	-0.00088260364
114	0xbd720ea6	-0.059096
115	0xbd895d6e	-0.067072734
116	0xbd87678f	-0.06611549
117	0x3d621284	0.05519344
118	0xbb4d6689	-0.0031341633
119	0xbcca17b1	-0.0246695
120	0xbd3344a7	-0.043766644
121	0xbd2e81da	-0.042604305
122	0xbda01d30	-0.07818067
123	0x3d8bcc88	0.068261206
124	0xbd1108a9	-0.03540865
125	0x3da592c1	0.08084632
126	0x3d354f72	0.044265218
127	0xbc6605ca	-0.014039466

policyHead.1.weight f4 [128]
0	0x3f7f1642	0.9964334
1	0x3f7e1baa	0.9926096
2	0x3f7c8e40	0.98654556
3	0x3f8192d8	1.0122938
4	0x3f7a8941	0.9786568
5	0x3f8244b4	1.0177217
6	0x3f80d516	1.0065029
7	0x3f828384	1.0196385
8	0x3f7ec10f	0.99513334
9	0x3f7eb209	0.9949041
10	0x3f7f1f97	0.9965758
11	0x3f85615c	1.0420337
12	0x3f831819	1.0241729
13	0x3f81e151	1.0146886
14	0x3f825699	1.0182678
15	0x3f813cd9	1.0096694
16	0x3f84e3e1	1.0382043
17	0x3f7fd55e	0.9993495
18	0x3f7ce2cb	0.9878356
19	0x3f830991	1.0237294
20	0x3f827c51	1.0194188
21	0x3f8069ce	1.0032289
22	0x3f7e533d	0.9934576
23	0x3f8291de	1.0200765
24	0x3f7c8226	0.9863609
25	0x3f8130c8	1.0093012
26	0x3f801054	1.0004983
27	0x3f7a3d94	0.9775021
28	0x3f85983d	1.0437084
29	0x3f806689	1.0031291
30	0x3f7d1beb	0.98870724
31	0x3f83fef1	1.0312177
32	0x3f82690c	1.0188308
33	0x3f8022dd	1.001064
34	0x3f806c8e	1.0033128
35	0x3f8941be	1.0723188
36	0x3f801b4f	1.0008334
37	0x3f81ded1	1.0146123
38	0x3f7f7de1	0.9980145
39	0x3f7fb7b3	0.9988968
40	0x3f7e0e03	0.9924013
41	0x3f7f6488	0.99762774
42	0x3f80b557	1.005534
43	0x3f819da6	1.0126235
44	0x3f7ee486	0.9956745
45	0x3f8055ac	1.0026145
46	0x3f823259	1.0171615
47	0x3f86b9d7	1.0525464
48	0x3f796376	0.9741739
49	0x3f7aa60f	0.97909635
50	0x3f7eb012	0.9948741
51	0x3f7d9d23	0.99067897
52	0x3f803cac	1.0018516
53	0x3f7fb8ac	0.9989116
54	0x3f7fc4cb	0.9990966
55	0x3f80118a	1.0005352
56	0x3f81c3db	1.0137895
57	0x3f831371	1.0240308
58	0x3f81662f	1.0109309
59	0x3f82fd8f	1.023363
60	0x3f81dc77	1.0145406
61	0x3f800531	1.0001584
62	0x3f7f8f3d	0.9982794
63	0x3f840ea4	1.0316968
64	0x3f7f6bac	0.9977367
65	0x3f7ff937	0.99989647
66	0x3f809584	1.0045629
67	0x3f8094e2	1.0045435
68	0x3f805bfb	1.002807
69	0x3f868e62	1.0512202
70	0x3f80e983	1.0071262
71	0x3f8222ab	1.016683
72	0x3f81867a	1.0119164
73	0x3f7ea35b	0.9946801
74	0x3f82d535	1.0221316
75	0x3f7f539c	0.9973695
76	0x3f81e840	1.0149002
77	0x3f7d1cc1	0.98872
78	0x3f7e092a	0.99232733
79	0x3f7eba72	0.9950324
80	0x3f79bc0d	0.9755257
81	0x3f860bee	1.0472391
82	0x3f82c9cf	1.0217837
83	0x3f861047	1.0473717
84	0x3f81c87c	1.0139308
85	0x3f829782	1.0202487
86	0x3f809ce1	1.0047876
87	0x3f804db4	1.0023713
88	0x3f832dd8	1.0248365
89	0x3f80abc9	1.0052425
90	0x3f80aa65	1.0052
91	0x3f7edd5f	0.99556535
92	0x3f7d0045	0.98828536
93	0x3f801c63	1.0008663
94	0x3f80c26d	1.0059334
95	0x3f800aaa	1.0003254
96	0x3f86a197	1.0518063
97	0x3f7d5493	0.98957175
98	0x3f810a36	1.0081241
99	0x3f80102c	1.0004935
100	0x3f812148	1.0088282
101	0x3f8103c8	1.0079279
102	0x3f806594	1.0030999
103	0x3f80c6ea	1.0060704
104	0x3f7fba0d	0.99893266
105	0x3f7f1be9	0.9965196
106	0x3f86e70f	1.0539263
107	0x3f817345	1.0113302
108	0x3f7f47cc	0.9971893
109	0x3f7c3edd	0.9853342
110	0x3f7f3512	0.99690354
111	0x3f7de942	0.9918405
112	0x3f817fa8	1.0117083
113	0x3f7b028d	0.9805077
114	0x3f851bda	1.0399125
115	0x3f83dbcb	1.030145
116	0x3f80c94d	1.0061432
117	0x3f84856b	1.0353216
118	0x3f7bb01f	0.98315614
119	0x3f8227a8	1.0168352
120	0x3f805598	1.0026121
121	0x3f80b8b3	1.0056366
122	0x3f830d3a	1.0238411
123	0x3f7761e9	0.96633774
124	0x3f815622	1.0104411
125	0x3f7b1f09	0.9809423
126	0x3f805ac5	1.0027701
127	0x3f82eae8	1.0227938

policyHead.1.bias f4 [128]
0	0xbc3e758a	-0.011624703
1	0xbc00eca6	-0.007868921
2	0x3b999fde	0.004688247
3	0x3c3b1748	0.011419125
4	0xbb73368d	-0.0037111372
5	0xbb9f0bb3	-0.0048536896
6	0xbc1ee6f0	-0.0096986145
7	0x3c3983dd	0.011322943
8	0xba66a868	-0.0008798898
9	0x3c237b60	0.009978145
10	0x3b848bd4	0.004044989
11	0x3b19e1e2	0.0023480584
12	0xbc5931e7	-0.013256527
13	0x3b5feb65	0.0034167406
14	0x3b285d4c	0.0025690375
15	0xbc38f8c6	-0.011289781
16	0x3ba671f5	0.0050795027
17	0x3b05a2cd	0.0020391226
18	0xbb239828	-0.0024962518
19	0xbb816d08	-0.003949765
20	0x3ca0b4f0	0.019617528
21	0xbbfbf40d	-0.007689005
22	0x3c0c1315	0.008549471
23	0x3b3787c3	0.0028004504
24	0x3ba0f24f	0.004911698
25	0x3acfab23	0.0015843849
26	0x3b9c0219	0.0047609922
27	0x3b6dfa6d	0.0036312595
28	0xbb8f4fe8	-0.0043735392
29	0xbc3b4085	-0.011428957
30	0xbb10a00a	-0.0022068047
31	0xbc93bf78	-0.018035635
32	0x3c74164b	0.014897893
33	0xbc63c229	-0.013901272
34	0x3b1dec14	0.0024097012
35	0x3c8aac3c	0.01692783
36	0xbbc2bd8f	-0.0059430073
37	0x3c0984c4	0.00839347
38	0xbbdf919e	-0.006822779
39	0x3b538f8b	0.0032281603
40	0xbb86247d	-0.004093705
41	0x3a1c1845	0.0005954544
42	0x3a83f1ba	0.0010066547
43	0xbaf7c9dc	-0.0018904763
44	0xbc588abe	-0.013216672
45	0xba889d9a	-0.0010422945
46	0x3b8a007d	0.004211484
47	0x3b5c8cac	0.0033653183
48	0xbba373bf	-0.0049881632
49	0xbbb26e28	-0.0054452606
50	0x3b80b508	0.0039278306
51	0x3aaaa330	0.0013018604
52	0xbad7858a	-0.0016442996
53	0xbb5da01c	-0.0033817356
54	0x3b80afb4	0.0039271954
55	0x3b30a1d6	0.002695193
56	0x3bc0c715	0.0058831074
57	0x3c1cb7f0	0.0095653385
58	0x3c1f0c9e	0.009707598
59	0xb93f9e34	-0.00018274115
60	0x3bc85941	0.0061141555
61	0xbbb91fcd	-0.005649543
62	0xbab04a20	-0.0013449825
63	0xbba947d6	-0.005166034
64	0x3c1b4ae8	0.009478308
65	0x3b2f812e	0.0026779878
66	0xbbcf6cff	-0.006330132
67	0x3b1a22cb	0.0023519273
68	0x3bb47939	0.005507615
69	0x3c0030c1	0.007824124
70	0xbab620d2	-0.0013895279
71	0xbbd00b06	-0.0063489703
72	0xbc042100	-0.008064508
73	0x3a0a60f1	0.00052787276
74	0x3ae77ec2	0.0017661678
75	0x3b2830d0	0.002566386
76	0x3beb44b0	0.007179819
77	0xbbc91dff	-0.006137609
78	0xbc8b17de	-0.016979154
79	0xbc7ab35c	-0.015301552
80	0xbbf85ea4	-0.0075796414
81	0xbaaf575b	-0.0013377474
82	0x3bea67d8	0.0071534924
83	0x3d085300	0.03328228
84	0x3b3dfb1c	0.0028988784
85	0x3b75df26	0.003751704
86	0x3c035f0b	0.0080182655
87	0x3a747673	0.00093255116
88	0x3bede542	0.0072599957
89	0x3ba398d6	0.0049925847
90	0x3bc71723	0.006075756
91	0xbc9fd79e	-0.019511994
92	0xbba4dcab	-0.0050311885
93	0x39d3d53e	0.00040403934
94	0x38fd7757	0.00012086209
95	0x39a4656c	0.00031356083
96	0x3c243c38	0.010024123
97	0x3ba32bd4	0.00497959
98	0xbab31424	-0.0013662619
99	0x3bc1ae4c	0.0059106704
100	0x3c31a0c1	0.010841549
101	0xbb210c23	-0.0024573884
102	0x3c0176e4	0.007901881
103	0x3adb576e	0.001673443
104	0xbc2b7e34	-0.010467101
105	0xbaf7e9d2	-0.0018914288
106	0x3bad81cc	0.005295014
107	0x38b9eb1f	8.865282e-05
108	0xbac27c59	-0.0014838084
109	0xbbcfebd4	-0.0063452516
110	0x3ccd468f	0.025058059
111	0xbba215cf	-0.0049464474
112	0x3bec9317	0.007219683
113	0x3a56edeb	0.00081989047
114	0x3c0387cc	0.008027982
115	0xbb83c1a9	-0.004020889
116	0x3b8af46c	0.004240563
117	0xbbe0f84a	-0.006865536
118	0x3c05f9c4	0.008177225
119	0x3b030bff	0.0019996164
120	0xbb3d3c30	-0.0028874986
121	0x390b9067	0.00013309867
122	0x3af41e3e	0.0018624736
123	0xbc706c8e	-0.014674319
124	0xbb8e6d15	-0.0043464997
125	0xbba2ac7f	-0.004964411
126	0xbbfde4b3	-0.0077482103
127	0x3c2293e9	0.00992296

policyHead.3.weight f4 [128, 128]
0	0x3d846378	0.06464285
1	0xbd90a3f7	-0.07062524
2	0x3d94c744	0.072645694
3	0x3b333d2c	0.0027349694
4	0x3d23a925	0.03995623
5	0xbb9824d3	-0.0046430617
6	0xbb5e37e7	-0.0033907832
7	0x3d52ba7e	0.051447384
8	0x3d450bc2	0.048106916
9	0x3d0ddbaf	0.034633335
10	0xb99da93c	-0.00030071463
11	0x3d63ab9e	0.05558359
12	0x3a2fe1a2	0.0006709342
13	0x3d845fc8	0.06463581
14	0xbcdb9e88	-0.026808992
15	0xbd0f1a5a	-0.03493724
16	0x3d8e9109	0.06961257
17	0x3c935c51	0.017988356
18	0x3dbcd322	0.09219958
19	0xbd2bec72	-0.04197354
20	0x3dc5139f	0.09622883
21	0x3cfb6ae6	0.030690622
22	0x3da09251	0.07840408
23	0x3dc3bae8	0.09557134
24	0xbd8b0d00	-0.06789589
25	0x3ce93af7	0.0284705
26	0xbcb420fd	-0.021988386
27	0x3d8b72d5	0.06809012
28	0xbd578b7f	-0.05262327
29	0xbd9fb0b3	-0.077973746
30	0xbdaac8c3	-0.083390735
31	0x3bdeb4a4	0.0067964364
32	0x3c8d20eb	0.01722761
33	0x3d84c3b3	0.06482639
34	0xbb367123	-0.002783843
35	0xbd82757d	-0.06370065
36	0x3de2aae6	0.110677525
37	0x3d953073	0.072846316
38	0xbd36faa6	-0.04467263
39	0xbdbdea92	-0.09273256
40	0x3cc35745	0.023845324
41	0x3d823891	0.063584454
42	0x3bf158c0	0.007365316
43	0x3d338b2f	0.043833908
44	0xbd1b6fa8	-0.03794828
45	0xbd212d15	-0.039349634
46	0xbccf1368	-0.025277808
47	0xbd1933bb	-0.03740285
48	0xbd0e2e31	-0.03471202
49	0xbd2deab1	-0.042460147
50	0xbd71b938	-0.05901453
51	0xbd3284d9	-0.043583725
52	0xbd400b75	-0.046885926
53	0x3d39c5c9	0.04535464
54	0xbde73027	-0.11288481
55	0x3c1b749b	0.00948825
56	0x3d4650f8	0.04841706
57	0x3b9e06da	0.004822594
58	0xbdc48418	-0.095955074
59	0x3d6d2e26	0.05790534
60	0xbcbf3482	-0.023340467
61	0x3c9d8d35	0.019232372
62	0xbd0fe156	-0.035127006
63	0x3ba71c72	0.0050998265
64	0x3d878836	0.06617777
65	0xbd427a02	-0.047479637
66	0xbc95a4ab	-0.018266996
67	0xbdc3c515	-0.09559075
68	0x3dcade8e	0.0990573
69	0x3d3510e4	0.04420556
70	0x3cc5123e	0.02405655
71	0x3dbca18b	0.092104994
72	0xbc9dc697	-0.019259734
73	0xbcaae528	-0.020861223
74	0xbd49bb36	-0.049250804
75	0xbd016492	-0.031590052
76	0x3d178b93	0.036998343
77	0xbc7ed82c	-0.015554469
78	0xbd770e56	-0.060316406
79	0xbd715d56	-0.058926903
80	0xbdbbd9e5	-0.091724195
81	0x3de82a2c	0.11336169
82	0x3c35dd2a	0.011100093
83	0x3cafd2d0	0.021462828
84	0x3d04ab5e	0.03238999
85	0x3c8602cd	0.016358757
86	0xbcd3b946	-0.025845181
87	0x3d596d5d	0.053082813
88	0x3dbddbc4	0.092704326
89	0x3d0e7e02	0.03478814
90	0xbccd2829	-0.025043564
91	0xbd86e3b6	-0.06586401
92	0xbd0aac20	-0.033855557
93	0xbd2a3ccc	-0.041561887
94	0x3d460fbc	0.04835485
95	0x3daede80	0.08538532
96	0xbd30a37e	-0.04312467
97	0xbd68ee07	-0.056867626
98	0x3d275951	0.040856663
99	0xbc84f236	-0.016228776
100	0xbc85d720	-0.016337931
101	0xbd892429	-0.0669635
102	0x3c891415	0.016733209
103	0x3d075a1b	0.033044916
104	0xbd0d62d9	-0.034518097
105	0x3bd41115	0.006471763
106	0xbd0848e8	-0.033272654
107	0xbd1316ff	-0.035910603
108	0x3d9d1c48	0.0767141
109	0xbcfea000	-0.031082153
110	0x3be68f0d	0.007036096
111	0xbd728972	-0.05921311
112	0xbd86e58a	-0.0658675
113	0xbc866875	-0.01640723
114	0xbc185bf9	-0.009299272
115	0xbd753ea5	-0.059874196
116	0x3cc0e12b	0.023544868
117	0x3ced7568	0.028986648
118	0x3d77d8ca	0.06050948
119	0x3d58a60b	0.052892726
120	0xbc8518c5	-0.016247163
121	0xba1cd73a	-0.0005982999
122	0x3d6aaa63	0.0572914
123	0x3d96aa12	0.07356657
124	0x3d74abec	0.05973427
125	0x3d20348d	0.039112616
126	0x3d8b6bff	0.06807708
127	0xbd962999	-0.07332153
128	0x3db954a9	0.09049351
129	0xbcce4e29	-0.025183754
130	0xbd3f76f6	-0.04674431
131	0xbce5d515	-0.028055707
132	0xbd2a35f4	-0.04155536
133	0x3c949074	0.018135287
134	0xbd9231df	-0.071384184
135	0xbbc58f87	-0.0060290727
136	0x3d888027	0.06665068
137	0x3d8cbc88	0.06871897
138	0x3cbef2f2	0.023309205
139	0x3d44daa5	0.04806008
140	0x3db3dda7	0.08782511
141	0x3da30313	0.07959571
142	0x3dabf113	0.08395591
143	0x3b9b32de	0.0047362885
144	0x3d6a0191	0.0571304
145	0x3d79f656	0.06102594
146	0x3cf0dedf	0.029403148
147	0xbac76879	-0.001521363
148	0x3d82b776	0.06382649
149	0x3d42089b	0.047371488
150	0x3c5bf398	0.0134247765
151	0xbd3d8f60	-0.04627931
152	0x3d9947b8	0.074843824
153	0x3dab3b7f	0.08360957
154	0x3d389cfd	0.04507159
155	0x3dbd422e	0.092411384
156	0x3c2af520	0.010434419
157	0xbcf5420c	-0.02993872
158	0xbc80e890	-0.015735894
159	0xbd481944	-0.04885222
160	0xbc337ca1	-0.010955007
161	0x3c56149c	0.013066437
162	0xbc9ca2d6	-0.019120615
163	0xbcba1ee1	-0.022719802
164	0x3c1b6b07	0.0094859665
165	0x3d9cc6b2	0.076550856
166	0x3b8de183	0.0043298616
167	0xbc062621	-0.008187802
168	0x3c902777	0.017596943
169	0x3c29ca72	0.010363208
170	0x3d42115b	0.047379833
171	0x3d4d2984	0.05008842
172	0xbd1fb6b0	-0.038992584
173	0x3d043b18	0.03228292
174	0x3d2209b4	0.039560035
175	0x3ce9934a	0.028512616
176	0xbd52a2ab	-0.051424664
177	0x3dd5117b	0.10403725
178	0x3dc2a06c	0.09503254
179	0xbd44a189	-0.048005614
180	0xb9a65934	-0.0003172845
181	0x3c38ffb5	0.011291434
182	0x3d81ac37	0.063316755
183	0x3b67b900	0.0035358071
184	0x3d8b107c	0.067902535
185	0xbd454fb1	-0.048171703
186	0x3c0a8e09	0.008456715
187	0x3d6f6d92	0.058454104
188	0x3cce7206	0.025200855
189	0xbd697fc9	-0.05700663
190	0xbc8e139f	-0.01734334
191	0xbcb5bb42	-0.022184018
192	0xbd60dccf	-0.05489808
193	0x3db70a65	0.089375295
194	0x3d6e3fcb	0.058166306
195	0x3c8c97d8	0.017162248
196	0x3d982cea	0.07430442
197	0xbdcb5f4f	-0.09930288
198	0x3d92985f	0.07157969
199	0x3d7e6886	0.0621114
200	0x3da6b2d7	0.0813958
201	0xbce078f7	-0.02740143
202	0xbd290651	-0.04126579
203	0x39cfb298	0.0003961518
204	0xbd184545	-0.037175436
205	0xbd232e4e	-0.03983908
206	0xbd4dc3ce	-0.050235562
207	0x3ddf8cfe	0.10915564
208	0x3da0571b	0.07829114
209	0xbc8b5782	-0.0170095
210	0x3d0d3e06	0.03448298
211	0x3d310e1d	0.04322635
212	0x3d642e17	0.055708017
213	0xbdd76874	-0.1051797
214	0x3c414c13	0.011797923
215	0xbc7ae492	-0.0153132845
216	0x3c1bd44e	0.009511067
217	0xbd2ba816	-0.041908346
218	0x3c26e079	0.010185354
219	0x3bee5639	0.007273462
220	0xbcbd5a33	-0.0231143
221	0x3d5ab96c	0.05339949
222	0x3cdb7bc6	0.026792418
223	0xbd7d80ae	-0.061890297
224	0xbd9d8bef	-0.07692706
225	0x3da06e67	0.078335576
226	0x3d4e4bd6	0.05036529
227	0x3d8aa4bc	0.06769702
228	0xbc13f476	-0.009030452
229	0x3da305fe	0.07960127
230	0xbdc006eb	-0.093763195
231	0xbd9a8839	-0.07545514
232	0x3b95a194	0.0045663808
233	0xbd8fe5d9	-0.07026262
234	0xbd9f9108	-0.077913344
235	0x3d2c8640	0.04212022
236	0xbd089c14	-0.033351973
237	0x3beba97a	0.007191834
238	0xbc017492	-0.007901328
239	0x3d743a52	0.05962593
240	0x3da64084	0.08117774
241	0xbcf4bffa	-0.029876698
242	0x3d5c8d33	0.053845596
243	0xbda49dc1	-0.08037902
244	0x3cfe462c	0.03103932
245	0x3b4ca02b	0.0031223397
246	0xbd8c7ba9	-0.06859524
247	0xbd58d6c8	-0.052939206
248	0x3d46312d	0.04838674
249	0xbd304ec0	-0.04304385
250	0xbdb44ff2	-0.08804311
251	0x3b252f5c	0.002520523
252	0xbcc4b709	-0.02401306
253	0x3d9ea300	0.077459335
254	0x3d95f516	0.07322137
255	0x3d889842	0.06669666

policyHead.3.bias f4 [128]
0	0x3c89a31d	0.016801411
1	0xbd9d1292	-0.07669558
2	0x3d9d113e	0.07669304
3	0x3d8b234c	0.06793842
4	0x3cd4cf06	0.025977623
5	0x3cbc2471	0.022966595
6	0x3c54840f	0.012970938
7	0xbd4ce99a	-0.050027467
8	0xbcdd4cb6	-0.027014118
9	0x3bf2fc5e	0.0074153384
10	0x3d30af06	0.043135665
11	0xbca6e33a	-0.020372022
12	0xbcc20743	-0.023685103
13	0xbd35715f	-0.044297572
14	0x3b1749bf	0.0023084728
15	0x3d9367e0	0.07197547
16	0xbca7cf02	-0.020484451
17	0xbc5b0e1f	-0.013370066
18	0x3cde5e03	0.027144438
19	0x3dae98cf	0.0852524
20	0x3c5b35e9	0.013379552
21	0x3c6a5a9b	0.014303829
22	0x3d9b0d42	0.07570888
23	0x3d58aec0	0.05290103
24	0xbc2e21d6	-0.010628184
25	0x3db3dd45	0.08782438
26	0xbca428d9	-0.020039009
27	0xbd70211c	-0.058625326
28	0x3ca1c04b	0.019745013
29	0x3dbfcef1	0.09365643
30	0x3d7b977f	0.061423775
31	0x3da950fd	0.082674004
32	0xbd856643	-0.065136455
33	0x3d603ea0	0.054747224
34	0x3cffaed2	0.03121129
35	0xbb8f4c04	-0.0043730754
36	0xbb3aa2d4	-0.00284784
37	0xbcd31bf5	-0.025770167
38	0xbcfda352	-0.030961666
39	0x3d2dbd16	0.042416655
40	0xbb97cc9f	-0.004632547
41	0xbd3419a8	-0.04396978
42	0xbd99a4cc	-0.07502136
43	0x3d5f4433	0.0545084
44	0x3d46588c	0.04842429
45	0x3d2f0654	0.042730644
46	0xbd7a688d	-0.061134864
47	0xbd232518	-0.039830297
48	0xbd962bed	-0.07332597
49	0x3d33e96a	0.043923773
50	0xbc495d86	-0.012290364
51	0xbd30aeda	-0.0431355
52	0x3d9fd0b0	0.07803476
53	0xbd69814e	-0.05700808
54	0x3cd7dda7	0.02635081
55	0xbd212d71	-0.039349977
56	0x3c83d90c	0.016094707
57	0xbd6079a9	-0.054803524
58	0x3dafd5ae	0.08585678
59	0x3d934e7f	0.07192706
60	0xbd7dc68e	-0.061956935
61	0xbd0fbc9d	-0.035091985
62	0x3d920013	0.071289204
63	0x3d93996a	0.07206996
64	0xbd5c792b	-0.053826492
65	0x3d7afd4e	0.061276726
66	0x3c681ca8	0.014166988
67	0xbc8075a6	-0.0156811
68	0xbd4a02c3	-0.04931904
69	0xbd727ae2	-0.05919922
70	0x3c43823b	0.011932905
71	0x3d6a72bc	0.057238325
72	0x3d9d1eb6	0.07671873
73	0x3c7134d9	0.0147220725
74	0x3d23a2e2	0.03995026
75	0x3abefae1	0.0014570617
76	0xbda20ac5	-0.079122104
77	0xbd9b54c5	-0.07584528
78	0xbb920d55	-0.0044571557
79	0x3c47e4ea	0.012200573
80	0xbc29b4b7	-0.010358027
81	0xbd8c2699	-0.068432994
82	0xbd2758c3	-0.040856134
83	0xbcf17063	-0.029472535
84	0xbbdb2396	-0.006687592
85	0xbbe8c7e3	-0.0071039065
86	0x3cf064b8	0.029344901
87	0xbd6151e2	-0.05500973
88	0xbd4a9949	-0.04946259
89	0x3cd354eb	0.025797328
90	0x3cebc500	0.02878046
91	0x3d15e3d0	0.036594212
92	0x3d8fe3c2	0.07025863
93	0x3d4d8993	0.05018003
94	0x3d137b13	0.036006045
95	0xbd60c547	-0.05487564
96	0x3d7c5514	0.061604574
97	0xbbd9c2ed	-0.0066455514
98	0xbc001ccb	-0.007819365
99	0x3d4e855d	0.050420154
100	0xbd5e554d	-0.054280568
101	0x3d173237	0.036913123
102	0xbace5e6f	-0.0015744696
103	0x3c86ad60	0.016440094
104	0x3d11cd1c	0.035596
105	0x3c1d3aca	0.009596536
106	0xbd3ab565	-0.045583148
107	0xbd50bf77	-0.050963845
108	0xbbeaa4c8	-0.0071607567
109	0xbd5a54d9	-0.053303573
110	0xbd95cdba	-0.0731463
111	0x3c41abb6	0.011820724
112	0x3d3ae5b0	0.045629203
113	0x3d28a400	0.041172028
114	0xbd0eab4a	-0.034831323
115	0x3d8e7568	0.06955987
116	0x3d88be93	0.06676974
117	0x3b91b05a	0.0044460716
118	0x3d143a06	0.036188148
119	0x3d4ed50d	0.05049615
120	0x3cc56f75	0.024100998
121	0x3d9ca97e	0.076495156
122	0x3ca7db93	0.020490443
123	0xbd0d22c3	-0.03445698
124	0xbc18e397	-0.009331605
125	0xbc8bc4df	-0.017061649
126	0x3ccd6fed	0.025077784
127	0xbd6131bc	-0.05497907

policyHead.4.weight f4 [128]
0	0x3f81cc90	1.0140553
1	0x3f832852	1.024668
2	0x3f8550b6	1.0415256
3	0x3f845857	1.0339459
4	0x3f81b7ce	1.0134218
5	0x3f813bab	1.0096334
6	0x3f858028	1.0429735
7	0x3f7ea23a	0.9946629
8	0x3f82a2d7	1.0205945
9	0x3f816bf3	1.0111068
10	0x3f836bbb	1.0267252
11	0x3f815ad2	1.0105841
12	0x3f7fc892	0.9991542
13	0x3f82d7d9	1.0222121
14	0x3f81ee63	1.0150875
15	0x3f81225a	1.0088608
16	0x3f829b37	1.0203618
17	0x3f7d51fb	0.9895322
18	0x3f82e7d7	1.0227002
19	0x3f836d3a	1.0267708
20	0x3f835686	1.026078
21	0x3f8182f7	1.0118092
22	0x3f825af6	1.0184009
23	0x3f827c00	1.0194092
24	0x3f819fc1	1.0126878
25	0x3f84d5a2	1.0377696
26	0x3f81cd81	1.014084
27	0x3f81f8b9	1.0154029
28	0x3f828384	1.0196385
29	0x3f832ac9	1.0247432
30	0x3f86bcbc	1.0526347
31	0x3f81c2fa	1.0137627
32	0x3f8297ad	1.0202538
33	0x3f845dc1	1.0341111
34	0x3f82ab11	1.0208455
35	0x3f83db1e	1.0301244
36	0x3f8208c2	1.0158923
37	0x3f8077b3	1.0036529
38	0x3f80d7cc	1.0065856
39	0x3f81041f	1.0079383
40	0x3f82620b	1.018617
41	0x3f88ebb7	1.0696934
42	0x3f83f5be	1.030937
43	0x3f82605f	1.018566
44	0x3f824d55	1.017985
45	0x3f8088dd	1.0041767
46	0x3f838014	1.0273461
47	0x3f7ef6f0	0.99595547
48	0x3f839086	1.027848
49	0x3f85e397	1.046008
50	0x3f825979	1.0183555
51	0x3f7e7cec	0.99409366
52	0x3f7b2d81	0.9811631
53	0x3f844505	1.0333563
54	0x3f8364f1	1.026518
55	0x3f7d37e1	0.9891339
56	0x3f80d946	1.0066307
57	0x3f836bba	1.026725
58	0x3f84bbc1	1.0369798
59	0x3f81126d	1.0083748
60	0x3f85bb1e	1.0447729
61	0x3f845310	1.0337849
62	0x3f7e28ee	0.99281204
63	0x3f7dcd5e	0.9914149
64	0x3f7c72a8	0.9861245
65	0x3f82aed8	1.0209608
66	0x3f824e7e	1.0180204
67	0x3f82e767	1.0226868
68	0x3f7e47c9	0.99328285
69	0x3f836f8c	1.0268416
70	0x3f8155f1	1.0104352
71	0x3f85a12d	1.0439812
72	0x3f7ef4c8	0.99592257
73	0x3f8236cb	1.0172971
74	0x3f816682	1.0109408
75	0x3f80e80d	1.0070816
76	0x3f81e7bc	1.0148845
77	0x3f84ecd4	1.0384774
78	0x3f804e9e	1.0023992
79	0x3f839363	1.0279354
80	0x3f80432c	1.0020499
81	0x3f8343d6	1.0255077
82	0x3f832ad1	1.0247442
83	0x3f80b0f2	1.0054
84	0x3f7f8a96	0.9982084
85	0x3f8062a2	1.00301
86	0x3f808572	1.0040724
87	0x3f83ae74	1.0287614
88	0x3f817fc3	1.0117115
89	0x3f818202	1.01178
90	0x3f80c5a5	1.0060316
91	0x3f865820	1.0495644
92	0x3f80efde	1.0073202
93	0x3f81534e	1.0103548
94	0x3f83e345	1.0303732
95	0x3f84421d	1.0332676
96	0x3f816658	1.0109358
97	0x3f82028a	1.0157025
98	0x3f86e21b	1.0537752
99	0x3f80193c	1.0007701
100	0x3f870c56	1.055064
101	0x3f80328e	1.0015428
102	0x3f8198ef	1.0124797
103	0x3f822dc8	1.0170221
104	0x3f866817	1.0500516
105	0x3f803230	1.0015316
106	0x3f83dc98	1.0301695
107	0x3f807700	1.0036316
108	0x3f7bbc6a	0.9833437
109	0x3f848263	1.0352291
110	0x3f833697	1.0251034
111	0x3f814976	1.0100543
112	0x3f8315b1	1.0240995
113	0x3f830d47	1.0238427
114	0x3f85508d	1.0415207
115	0x3f833e0f	1.0253314
116	0x3f808dfc	1.004333
117	0x3f81e083	1.014664
118	0x3f81be42	1.0136187
119	0x3f825278	1.0181417
120	0x3f80f34d	1.007425
121	0x3f8028c8	1.0012445
122	0x3f7ce179	0.98781544
123	0x3f825774	1.0182939
124	0x3f8265cf	1.018732
125	0x3f815941	1.0105363
126	0x3f83675c	1.0265918
127	0x3f869a7c	1.0515895

policyHead.4.bias f4 [128]
0	0x3c9a46d6	0.018832605
1	0x3c62c4be	0.013840852
2	0xbc01e632	-0.007928418
3	0x3cada2a0	0.02119571
4	0x3bb52153	0.005527654
5	0x3c855e4b	0.016280314
6	0x3c34a6b0	0.0110260695
7	0x3aa195a5	0.0012327923
8	0x3c83c3ab	0.016084513
9	0x3c6ccc9b	0.014453079
10	0xbbefe095	-0.0073204734
11	0x3c3cfca9	0.011534848
12	0xbcc34b7a	-0.023839701
13	0x3b8a2176	0.0042154146
14	0x3c3962d3	0.011315065
15	0x3b85f597	0.0040881145
16	0xbaa43791	-0.0012528767
17	0x3bfddd13	0.0077473014
18	0x3cabaff4	0.020957924
19	0x39856782	0.00025444856
20	0x3c3dc70a	0.011583099
21	0xbb4446a4	-0.0029949332
22	0x3bb30bfb	0.0054640747
23	0x3b82d8db	0.0039931363
24	0xbb1642c3	-0.0022927977
25	0x3cd38c03	0.025823599
26	0x3b924682	0.0044639716
27	0x3c3d5833	0.011556673
28	0x3b9fa535	0.004871989
29	0x3c597a70	0.01327382
30	0xbb602985	-0.0034204435
31	0x3b5eb0af	0.0033979823
32	0x3c218ce5	0.009860252
33	0x3ba61e5a	0.005069536
34	0x3be5097f	0.0069896574
35	0x3c055df2	0.008140074
36	0x3b55b2bb	0.0032607752
37	0x3bb691bd	0.0055715726
38	0x3ba03bee	0.0048899567
39	0x3b90d1df	0.00441955
40	0xbcccd985	-0.025006065
41	0x3b80c3b2	0.0039295787
42	0xbc47f619	-0.01220467
43	0xbc467caa	-0.012114683
44	0x3b9c5ce7	0.004771817
45	0x3c53edad	0.012935084
46	0x3baaee3e	0.005216389
47	0x3c22fed7	0.009948454
48	0x3ab31d80	0.0013665408
49	0x3bb28b12	0.0054487074
50	0xbc361d0a	-0.011115322
51	0x3c248891	0.010042326
52	0x3bb6a577	0.005573924
53	0x3c28ba25	0.010298287
54	0x3c85864e	0.016299393
55	0x3b9678ba	0.0045920284
56	0x3c92fb30	0.017942041
57	0x3bfcc8ad	0.007714352
58	0x3c992b1a	0.01869731
59	0x3bc5b184	0.0060331244
60	0x3bc2a901	0.005940557
61	0xbc8aba13	-0.01693443
62	0x3af4827a	0.0018654608
63	0x3b6887ce	0.0035481337
64	0xbb4a9ca9	-0.003091613
65	0x3c54eab7	0.0129954135
66	0x3c893f25	0.016753742
67	0xbc7c2271	-0.015389071
68	0xbafd4c3e	-0.001932509
69	0x3c58a2f7	0.013222448
70	0x3b8c2983	0.0042774095
71	0x3ca02cdc	0.01955264
72	0x3bf2d25c	0.0074103307
73	0x3c3793ab	0.01120464
74	0x3a757db5	0.000936474
75	0xbca4c5e3	-0.020113891
76	0x3c6c73b0	0.014431879
77	0xbba121e1	-0.0049173688
78	0xbd0a9431	-0.033832733
79	0x3adb63d0	0.001673812
80	0x3bfbeab8	0.0076878928
81	0xbc5f05dd	-0.013612238
82	0x3b183f06	0.0023230924
83	0x3b8d1742	0.004305751
84	0x3b2cac54	0.0026347833
85	0xbc7669b7	-0.015039853
86	0x3c33a240	0.010963976
87	0x3be219d3	0.006900051
88	0x3ccf711a	0.025322486
89	0xbc8d98b7	-0.017284734
90	0x3bf311f5	0.007417912
91	0x3c516ea8	0.01278273
92	0xbce9a893	-0.028522765
93	0xbb92bb4b	-0.0044778935
94	0xbbf8161c	-0.007570995
95	0x3c843814	0.016140021
96	0x3c7142a3	0.01472536
97	0xbc2b9fe0	-0.010475129
98	0xbaf93aca	-0.0019014713
99	0x3c4111ef	0.011784061
100	0x3c9e9a26	0.019360613
101	0x3ba6de7a	0.0050924392
102	0xbc847c88	-0.016172662
103	0x3c838c5e	0.016058143
104	0xb95cac0a	-0.00021044925
105	0x3adc3c3e	0.0016802622
106	0x3c3dcc76	0.011584392
107	0x3bc61aa2	0.0060456553
108	0x3bab4fea	0.0052280324
109	0xbb591722	-0.003312536
110	0x3ccbe1f3	0.024888014
111	0x3c58b715	0.013227244
112	0x3c6fcbe1	0.014636011
113	0x3c86482d	0.016391838
114	0x3c919646	0.017771851
115	0xbc98813a	-0.018616308
116	0x3b174acd	0.0023085356
117	0x3c8cbca4	0.017179795
118	0xbc2b63dc	-0.01046082
119	0x3c912d56	0.017721813
120	0xbaf5e21a	-0.00187594
121	0xbc787dca	-0.015166709
122	0x3ba021ef	0.0048868577
123	0x3b748065	0.0037307974
124	0x3c22517e	0.009907125
125	0x3c7386c9	0.014863678
126	0x3cea13f5	0.02857397
127	0xb95d3053	-0.00021094205

policyHead.6.weight f4 [23, 128]
0	0xbca7c03f	-0.020477412
1	0x3d0ff7bd	0.03514837
2	0x3cea8997	0.028630061
3	0xbc6a9571	-0.014317856
4	0x3d3d25dd	0.046178687
5	0xbc8aa2db	-0.016923359
6	0xbd58feee	-0.052977495
7	0x3d351b90	0.04421574
8	0x3c324914	0.010881681
9	0xbd05eeef	-0.032698568
10	0x3d1bd97d	0.03804921
11	0xbd8f1872	-0.069870844
12	0xbd82465f	-0.063610785
13	0x3d9f5ab4	0.07780972
14	0x3d57d2d4	0.052691296
15	0xbdc1fc6e	-0.09471975
16	0xbdbbffa1	-0.09179617
17	0xbb59de94	-0.003324424
18	0xbc3d42ab	-0.011551539
19	0x3c1f46ae	0.009721441
20	0x3d92e9af	0.07173478
21	0x3db4839d	0.08814166
22	0x3cc6c056	0.024261635
23	0xbdad7fca	-0.084716395
24	0x3d52d4a3	0.051472317
25	0xbc246a96	-0.010035178
26	0xbd5913f0	-0.05299753
27	0xbd301295	-0.04298647
28	0x3d2c0396	0.041995607
29	0x3c899027	0.01679237
30	0xbda06645	-0.07832006
31	0x3ca5d0ec	0.020241223
32	0xbdc7bc49	-0.097527094
33	0xbcceeaeb	-0.025258502
34	0x3cb65950	0.022259384
35	0xbd669ac8	-0.056299955
36	0x3d810062	0.06298901
37	0x3d0c2984	0.03421928
38	0xbd9a2165	-0.07525901
39	0xbd89db8a	-0.06731327
40	0x3de8c79f	0.113662
41	0x3dce117e	0.1006193
42	0xbd90e10c	-0.07074174
43	0xbd2b3d10	-0.04180628
44	0x3cf4c5fe	0.029879566
45	0x3d5ea82e	0.054359607
46	0x3cdd56d7	0.027018948
47	0x3d4821b3	0.048860263
48	0xbd12070d	-0.035651255
49	0x3d87b804	0.06626895
50	0xbd2d1bdd	-0.0422629
51	0xbc40ee58	-0.011775576
52	0x3d54ac3a	0.05192206
53	0xbd3c3eb4	-0.045958236
54	0x3ca767e2	0.020435277
55	0xbd3bf1ce	-0.0458849
56	0xbcbeaadc	-0.023274831
57	0xbd80951b	-0.062784396
58	0x3d35f371	0.044421617
59	0x3ca74ae3	0.020421451
60	0x3c68ef47	0.014217204
61	0xbdc9e679	-0.09858412
62	0x3d4e0371	0.05029625
63	0xbd45fdde	-0.04833781
64	0x3d552a1d	0.052042115
65	0xbc1733ff	-0.009228705
66	0xbce94dbf	-0.028479455
67	0x3dcdcb49	0.10048539
68	0x3d735f48	0.05941704
69	0x3d30bdbd	0.0431497
70	0x3d8f4ed1	0.06997455
71	0x3d45cd5a	0.04829154
72	0xbd8db70d	-0.0691968
73	0xbd8abc97	-0.06774252
74	0x3d77ad01	0.060467724
75	0xbda27e56	-0.07934253
76	0x3d725ed4	0.059172466
77	0xbd87b20f	-0.06625759
78	0x3cb56730	0.02214393
79	0x3de4b402	0.11167146
80	0xbca7a8ea	-0.020466287
81	0xbdb7d2c5	-0.08975748
82	0x3d0bb882	0.034111507
83	0x3c8b8b7e	0.017034288
84	0xbd243a9a	-0.04009495
85	0xbc1cd2a3	-0.009571704
86	0x3d140c41	0.0361445
87	0xbd7d3529	-0.061818276
88	0xbc29f6b4	-0.01037376
89	0x3d4096f5	0.047018964
90	0xbd7032de	-0.05864226
91	0x3d121724	0.0356666
92	0xbd7035d2	-0.058645077
93	0xbd05dd12	-0.032681532
94	0xbd42f0e9	-0.04759303
95	0x3c6972b4	0.014248539
96	0xbc0d0f62	-0.008609625
97	0x3dc3b28d	0.0955554
98	0xbdf23fd6	-0.11828582
99	0x3d8bd9de	0.06828664
100	0x3dcf6443	0.10126545
101	0x3d825019	0.06362934
102	0x3d8ddbd6	0.06926696
103	0xbd067e0d	-0.032835055
104	0x3c98c5a2	0.018648926
105	0xbd7ba232	-0.06143398
106	0xbd5e0387	-0.054202583
107	0xbd739818	-0.05947122
108	0xbd92de76	-0.07171337
109	0xbc3feae6	-0.011713719
110	0xbd91cdb9	-0.071193166
111	0xbd803813	-0.06260695
112	0x3ae4cc05	0.0017455822
113	0x3d12a176	0.035798512
114	0xb9fa14fe	-0.00047699356
115	0xbce52bbe	-0.02797496
116	0xbd9d748b	-0.076882444
117	0xbd1dd4e7	-0.038533118
118	0xbbab26ff	-0.0052231546
119	0x3c86d9a5	0.016461203
120	0x3d007e6a	0.031370558
121	0x3db1e4ab	0.08686193
122	0x3d3d7f32	0.04626388
123	0x3d0383ba	0.032108046
124	0xba872cf9	-0.0010313086
125	0xbc675392	-0.014119046
126	0xbc0469ea	-0.0080818925
127	0xbc12b176	-0.008953443
128	0xbcac054c	-0.02099862
129	0x3c8e117e	0.017342325
130	0x3c82870a	0.015933532
131	0xbc69d5cf	-0.014272167
132	0x3dd6a001	0.10479737
133	0x3c6cd993	0.014456171
134	0x3d5d5fd9	0.054046486
135	0x3cfd6f40	0.030936837
136	0xbcfcfd4e	-0.030882504
137	0xbd8bf949	-0.06834657
138	0x3d8fa1ce	0.07013284
139	0x3da72b93	0.08162608
140	0xbd7dd2b3	-0.061968517
141	0xbd60f3b4	-0.054919913
142	0x3cd2c069	0.025726514
143	0x3d748fbe	0.059707396
144	0xbcbe0c8a	-0.023199338
145	0xbb840e5d	-0.0040300325
146	0x3d9da341	0.07697154
147	0xbae832a8	-0.0017715292
148	0x3d66cbe7	0.0563468
149	0xbc2b559f	-0.010457425
150	0xbd00d99d	-0.031457532
151	0xbabe73f5	-0.0014530407
152	0xbd859ccb	-0.065240465
153	0xbd497262	-0.04918135
154	0xbe046a79	-0.12931241
155	0xbd6bcdb2	-0.057569213
156	0xbcfb0d19	-0.030645894
157	0x3bd13059	0.0063839373
158	0x3d0d42d0	0.034487545
159	0xbdd6ab85	-0.104819335
160	0x3d8b7257	0.06808918
161	0x3ad47311	0.0016208609
162	0x3d100b4b	0.03516702
163	0x3da8e788	0.08247286
164	0xbdb8eeb6	-0.090299055
165	0xbc9b4eb4	-0.018958427
166	0x3caea041	0.02131665
167	0xbda189ef	-0.07887637
168	0xbc98a032	-0.018631075
169	0x3d18995f	0.03725564
170	0xbd99a8df	-0.07502913
171	0x3daa9ed8	0.08331078
172	0xbd29a1b1	-0.041413967
173	0x3d4ee4e4	0.050511256
174	0xbd960953	-0.07325997
175	0x3dba0f07	0.090848975
176	0xbdb03358	-0.08603543
177	0xbd012bcd	-0.031535912
178	0x3c3ce85d	0.011530009
179	0xbd92e662	-0.07172848
180	0xbd1bdedb	-0.03805433
181	0xbd71fca1	-0.059078816
182	0x3cf9d132	0.03049526
183	0x3cd6bfe2	0.026214544
184	0xbc877767	-0.016536428
185	0xbdc27dfe	-0.09496687
186	0x3c9968a9	0.018726664
187	0xbd11e802	-0.03562165
188	0xbc4d22cd	-0.012520504
189	0xbd32e6c6	-0.043677114
190	0xbd83eb8e	-0.06441413
191	0x3da37b71	0.07982529
192	0x3c7f21d2	0.015572028
193	0xbd9692bd	-0.07352207
194	0xbda9b533	-0.08286514
195	0xbcf12e1e	-0.029440936
196	0xbde84f15	-0.11343209
197	0xbc994226	-0.0187083
198	0xbcf32e8f	-0.029685287
199	0x3daf21e6	0.085513875
200	0x3d837d8b	0.0642043
201	0x3df42585	0.11921219
202	0xbd0c3a00	-0.034235
203	0x3d44d3c9	0.048053537
204	0x3d0c82ab	0.034304302
205	0xbcecb595	-0.028895179
206	0x3ca84822	0.020542208
207	0xbd90b0c7	-0.070649676
208	0x3ce663f3	0.028123831
209	0x3d8a52fe	0.06754111
210	0x3d2ad158	0.041703552
211	0xbc96f76d	-0.018428529
212	0xbceaf11c	-0.028679423
213	0xbd0c36af	-0.034231838
214	0x3dda4afc	0.106588334
215	0x3d039771	0.032126848
216	0xbd0c0b03	-0.03419019
217	0x3c782863	0.015146348
218	0xbd3e0f4e	-0.046401314
219	0xbcf849d7	-0.030308647
220	0x3cbd4e94	0.023108758
221	0xbca4dd09	-0.020124929
222	0xbb46dc63	-0.0030343763
223	0x3c275de4	0.010215256
224	0x3d7ac080	0.06121874
225	0x3ddf0551	0.10889686
226	0xbdde67d6	-0.10859649
227	0x3dba3be0	0.090934515
228	0x3cc7cc2e	0.024389353
229	0x3d85f71f	0.06541275
230	0x3e0a424e	0.13501856
231	0x3b5c9f53	0.00336643
232	0x3dd2785f	0.10276865
233	0x3da87b3c	0.0822663
234	0x3d2a0f63	0.04151858
235	0xbcfd4e7d	-0.030921215
236	0x3dbd58e3	0.092454694
237	0x3d94fb83	0.072745346
238	0x3d80d40a	0.06290443
239	0xbd9a6db4	-0.075404555
240	0x3d038d27	0.032117035
241	0x3cd23d73	0.025664067
242	0x3c264890	0.010149136
243	0xbd3018a1	-0.042992238
244	0x3b29e4af	0.002592366
245	0x3cb2cb42	0.021825437
246	0xbdaaca3e	-0.08339356
247	0x3d295cb5	0.041348178
248	0xbcdfa26f	-0.027299134
249	0x3c6afde4	0.014342759
250	0xbc65d675	-0.014028181
251	0xbcbb8adc	-0.022893362
252	0xbd3a2ccf	-0.04545289
253	0x3c7d7877	0.015470616
254	0xbcf152d0	-0.029458433
255	0xbc174241	-0.009232105

policyHead.6.bias f4 [23]
0	0x3d644168	0.05572644
1	0xbd0f18d1	-0.034935776
2	0xbcacdfe0	-0.021102846
3	0xbc1583ab	-0.00912563
4	0x3d08a9b7	0.033364978
5	0xbd459f13	-0.048247408
6	0x3c8e0f52	0.01734129
7	0xbdbc1b35	-0.09184877
8	0x3d357b0d	0.044306803
9	0xbd977ddc	-0.07397053
10	0x3c9ede52	0.01939312
11	0x3de2f77b	0.110823594
12	0xbd853e3b	-0.0650601
13	0x3d7d04c5	0.061772127
14	0x3db23678	0.08701795
15	0xbb360ee6	-0.0027779876
16	0x3d6a957e	0.057271473
17	0x3a8aa056	0.0010576348
18	0xbd94d2ea	-0.07266791
19	0xbc52e0f5	-0.012871017
20	0x3d96f3fe	0.073707566
21	0x3d377c0d	0.04479604
22	0x3d96cf33	0.07363739

valueHead.0.weight f4 [128, 122]
0	0x3cee9e36	0.029128175
1	0xbcada14b	-0.021195075
2	0x3d3284c9	0.043583665
3	0xbc131927	-0.008978165
4	0x3c4d61bd	0.01253551
5	0x3961424a	0.00021482367
6	0xbdbd5275	-0.09244243
7	0xbdf65ab1	-0.12029017
8	0xbcf25c21	-0.029584946
9	0x3d18b876	0.03728529
10	0x3dcdd63b	0.10050627
11	0xbd988439	-0.074470945
12	0xbb9e245c	-0.0048261117
13	0x3d2fc4e6	0.042912386
14	0x3cbc1bb1	0.022962423
15	0xbd658f05	-0.056044597
16	0xbb96e6a3	-0.0046051308
17	0x3d1e5f60	0.038665175
18	0xbd676e8c	-0.05650191
19	0x3d54de7f	0.05197
20	0x3c34dc89	0.011038908
21	0xbc6a7457	-0.014309964
22	0x3c9d0eb7	0.019172056
23	0xbdadefaa	-0.08492978
24	0x3c0d57ab	0.008626859
25	0xbcafb16d	-0.021446908
26	0xbd901e73	-0.07037058
27	0xbdb4d24f	-0.08829176
28	0x3dadbbcb	0.08483084
29	0xbd603363	-0.054736506
30	0x3da3e6a3	0.08002975
31	0xbc6e4d23	-0.014544758
32	0xbd913392	-0.070899144
33	0x3d676505	0.056492824
34	0x3bc410c1	0.0059834425
35	0x3d6bc501	0.057560924
36	0xbb26cb18	-0.0025450643
37	0x3cc1be8e	0.023650434
38	0x3cf4d268	0.029885486
39	0x3d69d72f	0.05708998
40	0xbd8f0585	-0.06983475
41	0xbd132fbc	-0.035934195
42	0x3d5a388c	0.053276584
43	0xbda3d14b	-0.07998904
44	0x3d3eec58	0.046612114
45	0xbbcf25e1	-0.006321654
46	0x3d8a26da	0.067456916
47	0xbc0edb23	-0.008719238
48	0xbd98be10	-0.074581265
49	0x3d7d7d09	0.06188682
50	0x3dc17b13	0.09447303
51	0x3d40705e	0.04698216
52	0xbcf148c7	-0.029453648
53	0xbc7d15c9	-0.0154470885
54	0x3d1116d0	0.035422146
55	0x3d53440b	0.051578563
56	0xbba4f0fe	-0.0050336113
57	0x3d76d0d6	0.060257755
58	0x3d7cba08	0.06170085
59	0x3b8d16cf	0.0043056975
60	0x3d8bb3a4	0.06821373
61	0x3ce8c12d	0.028412426
62	0x3b1761f6	0.002309916
63	0x3cb487a8	0.022037342
64	0xbd322c2c	-0.043499157
65	0xbd93c607	-0.07215505
66	0xbc75a181	-0.014992119
67	0x3d93e166	0.07220726
68	0xbcf0a67b	-0.02937626
69	0xbdc070de	-0.09396528
70	0x3d805a5a	0.06267233
71	0xbdef8ed0	-0.11697161
72	0x3d290618	0.041265577
73	0x3d843172	0.064547434
74	0x3cf1f77f	0.02953696
75	0x3d92323c	0.07138488
76	0xbd1543d3	-0.036441635
77	0x3d0080d9	0.03137288
78	0xbd3802af	-0.044924434
79	0xbc5166b3	-0.012780833
80	0x3d75c5ad	0.06000297
81	0x3b565ba0	0.0032708421
82	0xbd88ab12	-0.06673254
83	0xbb8f1c02	-0.0043673525
84	0x3cf15310	0.029458553
85	0x3c1614ac	0.009160202
86	0xbd61a884	-0.05509235
87	0x3d630522	0.055424817
88	0xbcbf5dd3	-0.023360169
89	0x3d79587b	0.060875397
90	0x3d49f2b5	0.04930373
91	0x3c2e6d63	0.010646197
92	0x3b3b4a16	0.0028578094
93	0x3d01b1ea	0.031663813
94	0xbd7c5646	-0.061605714
95	0xbb49a460	-0.003076814
96	0xbd3e5aaa	-0.046473183
97	0xbd87cb49	-0.066305704
98	0xbd1f21c3	-0.038850557
99	0x3d9c4edc	0.07632229
100	0xbd675af1	-0.056483213
101	0x3de8b5f0	0.11362827
102	0x3da96292	0.08270754
103	0x3d8497c2	0.06474258
104	0xbce0af16	-0.027427237
105	0x3d85f303	0.065404914
106	0x3d3cc357	0.046084728
107	0x3a921ba1	0.001114715
108	0xbb960836	-0.0045786155
109	0xbd9a6ac7	-0.075398974
110	0x3c0b5363	0.008503768
111	0xbd3c4d8f	-0.045972403
112	0x3d8d4c9b	0.06899377
113	0xbd644466	-0.055729292
114	0x3d469d38	0.04848978
115	0x3da3a2a7	0.07990008
116	0xbd85d223	-0.06534221
117	0x3cb44099	0.022003459
118	0x3d989e2b	0.07452043
119	0xbc23eda4	-0.010005388
120	0xbd955b47	-0.072928004
121	0xbd28d479	-0.041218255
122	0xbcc325ff	-0.023821829
123	0xbab12822	-0.0013515989
124	0x3d5e5ca8	0.054287583
125	0xbd02087f	-0.031746384
126	0xbd255ec8	-0.040373594
127	0xbce6b0de	-0.028160509
128	0xbd21e826	-0.039528035
129	0xbe05d92f	-0.1307113
130	0xbdaff50e	-0.08591662
131	0x3d185948	0.03719452
132	0xbdc3f7a6	-0.095687196
133	0x3df6dc3f	0.12053727
134	0xbd99d12c	-0.075105995
135	0xbd03882b	-0.03211228
136	0xbd1fcc8f	-0.03901344
137	0x3c3cf3d7	0.011532745
138	0xbd417aab	-0.047236126
139	0xbd672b06	-0.056437515
140	0xbbf2308b	-0.0073910407
141	0x3d1fcf8c	0.03901629
142	0xbb2b01ea	-0.002609367
143	0xbd8709ea	-0.06593688
144	0xbc22f7e7	-0.0099468
145	0xbd4641aa	-0.048402466
146	0x3dd2f893	0.10301318
147	0xbac7d5d4	-0.0015246221
148	0x3d369187	0.04457238
149	0x3d76b5f4	0.060232118
150	0x3dba890c	0.09108171
151	0x3d631f2d	0.055449653
152	0xbd1b1239	-0.037859175
153	0xbd23a42e	-0.039951496
154	0xbd62ec2b	-0.05540101
155	0xbd366c71	-0.04453701
156	0xbc31fdde	-0.010863749
157	0xbc10ce58	-0.008838259
158	0xbda0b0b8	-0.078462064
159	0x3ccc44b0	0.024935097
160	0x3d0ad8bf	0.03389811
161	0x3d0a89fa	0.03382299
162	0xbda4b993	-0.08043208
163	0x3d68e5d9	0.056859825
164	0x3ce09dca	0.02741899
165	0xbd7f7b3e	-0.062373392
166	0xbd07d2a0	-0.033159852
167	0xbbccd38d	-0.0062508048
168	0x3d8b622d	0.06805835
169	0xbdca736f	-0.098852985
170	0xbd4a12ec	-0.04933445
171	0x3cc1447d	0.023592228
172	0x3d79a580	0.06094885
173	0xbd92bdef	-0.07165133
174	0xbd8e3146	-0.06942992
175	0x3d1b2564	0.037877455
176	0xbb0b709f	-0.0021276844
177	0x3d37e430	0.04489535
178	0xbd592613	-0.053014826
179	0x3d2fc16b	0.042909067
180	0x3c868808	0.016422287
181	0x3d8f73c1	0.070045
182	0x3d81b3a6	0.06333093
183	0xbdac3777	-0.084090166
184	0x3d828b43	0.06374218
185	0xbd207bdb	-0.039180618
186	0xbd22d301	-0.03975201
187	0xbdbc4360	-0.09192538
188	0x3cb3379e	0.021877106
189	0x3cf48225	0.029847214
190	0xbd860253	-0.06543412
191	0x3d86e416	0.06586473
192	0x3d9a3156	0.07528941
193	0xbd88f9e0	-0.06688285
194	0xbd01512a	-0.031571545
195	0xbde5bc69	-0.11217577
196	0xbbbf6980	-0.005841434
197	0xbc64fa75	-0.013975729
198	0xbd99478c	-0.074843496
199	0xbc7ed560	-0.015553802
200	0x3db97a16	0.09056489
201	0x3d962df8	0.073329866
202	0x3d8fc4d3	0.07019963
203	0xbde2c120	-0.11071992
204	0xbc871b69	-0.016492562
205	0xbd2911fb	-0.041276913
206	0x3d0276e9	0.031851683
207	0x3d5211bc	0.051286444
208	0xbc676742	-0.01412374
209	0xbcd72cf9	-0.026266562
210	0x3da1ce86	0.07900719
211	0x3d4dd4b7	0.05025169
212	0x3db8f33f	0.090307705
213	0xbda7de2f	-0.08196675
214	0x3d1fa140	0.03897214
215	0xbd6beaba	-0.0575969
216	0xbd0a1d75	-0.0337195
217	0x3c6bd389	0.014393696
218	0xbd30dc6e	-0.043178968
219	0xbc4409f0	-0.01196526
220	0x3ccaf7c5	0.024776349
221	0x3c3204b0	0.010865375
222	0xbd7bc8bf	-0.061470743
223	0x3d610e89	0.054945502
224	0xbb89317d	-0.0041868077
225	0x3c6b4c15	0.014361401
226	0x3d92782e	0.07151829
227	0xbd86fccd	-0.06591187
228	0xbb86d096	-0.004114221
229	0xbcde0990	-0.02710417
230	0xbc676c94	-0.014125008
231	0xbc97dc9a	-0.018537808
232	0x3d94a613	0.07258239
233	0xbd516936	-0.051125728
234	0x3bc2e5b5	0.0059477934
235	0xbc8d32fc	-0.017236225
236	0xbcbff4b6	-0.023432117
237	0x3c45d767	0.012075282
238	0x3d3336e2	0.043753512
239	0x3d0f5d93	0.03500135
240	0xbd74b681	-0.05974436
241	0x3d6d0f6e	0.057876043
242	0xbce54b8a	-0.027990121
243	0x3d824434	0.06360665
244	0xbd884389	-0.06653506
245	0x3d0a27da	0.03372941
246	0xbc081eeb	-0.008308153
247	0x3da9da8b	0.08293637
248	0xbd03c563	-0.032170665
249	0x3d3fb08d	0.04679923
250	0xbd3a4760	-0.045478225
251	0x3c423a90	0.011854783
252	0xbd0a0a6f	-0.033701357
253	0x3cbba29c	0.022904687
254	0xbba6bc47	-0.0050883624
255	0x3cf8b31f	0.03035885
