Yahtzee/ModelsNN3/version_4_model_4.pt (torch, 96842 bytes, 19 tensors)

policyHead.0.weight f4 [128, 50]
0	0x3db4c058	0.08825749
1	0xbd891118	-0.066927135
2	0xbdf26b83	-0.118369125
3	0xbd861d70	-0.065485835
4	0x3d641f3e	0.055693857
5	0x3dc15224	0.09439495
6	0x3dac65fd	0.0841789
7	0x3c848401	0.016176226
8	0xbc051068	-0.008121587
9	0x3d31fb93	0.04345281
10	0xbdc4bbd5	-0.096061386
11	0xbdac874e	-0.08424245
12	0xbe081254	-0.13288242
13	0x3db96231	0.09051932
14	0x3de949ae	0.113910064
15	0x3e00a2e2	0.12562135
16	0x3ccfba64	0.025357433
17	0xbcc99fd9	-0.024612354
18	0x3d834e72	0.06411447
19	0xbd8526fa	-0.06501575
20	0xbde3e4f6	-0.11127655
21	0x3d6d697a	0.05796192
22	0xbd1502e0	-0.036379695
23	0xbdc0ce64	-0.09414366
24	0xbde18033	-0.1101078
25	0x3d678d11	0.056531016
26	0xbdd8ace1	-0.10579849
27	0x3d69956d	0.05702727
28	0x3dc44a48	0.095844805
29	0x3de3f881	0.11131383
30	0xbdfd6c8e	-0.12374221
31	0xbe053f79	-0.13012494
32	0xbd16af82	-0.03678847
33	0x3c81a860	0.015827358
34	0x3db55489	0.088540144
35	0x3d10514c	0.03523378
36	0xbdd5cb12	-0.10439123
37	0xbc8e122c	-0.01734265
38	0xbc216f4f	-0.009853198
39	0xbd6c2090	-0.05764824
40	0xbe0650d1	-0.13116767
41	0x3de619c6	0.11235385
42	0x3d8c9cf2	0.068658724
43	0xbdcdd876	-0.10051052
44	0x3d2c6171	0.042085115
45	0x3da0822b	0.078373276
46	0x3d4daa65	0.05021133
47	0x3dbb3d89	0.09142596
48	0x3bc7747b	0.0060868836
49	0xbd850c8d	-0.064965345
50	0x3c8b3c44	0.01699651
51	0x3e0079b0	0.1254642
52	0xbc512b51	-0.012766675
53	0xbda6c8af	-0.08143746
54	0xbcc85c27	-0.024458004
55	0x3dcd03b9	0.10010476
56	0xbd986947	-0.07441955
57	0x3dd515b6	0.10404532
58	0xbe1b7c09	-0.15184034
59	0x3dc024fd	0.09382055
60	0xbdf789bd	-0.12086818
61	0xbe01bffc	-0.12670892
62	0xbd8d0638	-0.06885952
63	0x3db99261	0.09061123
64	0x3db55fe2	0.08856179
65	0x3dcc703a	0.09982343
66	0x3e0717c8	0.13192666
67	0xbd1591b7	-0.036515918
68	0x3d8b2639	0.067944
69	0xbdbba4fa	-0.09162326
70	0xbd0197a6	-0.031638764
71	0xbb9de6c0	-0.0048187673
72	0x3b3a33c4	0.0028412202
73	0xbd6e02ef	-0.058108266
74	0x3cf783c5	0.0302142
75	0x3d8d8b00	0.06911278
76	0x3e0c38f6	0.13693604
77	0x3d84d5bd	0.0648608
78	0x3d9730d3	0.07382359
79	0xbdee0649	-0.116222925
80	0xbd17e468	-0.03708306
81	0x3de82ebc	0.11337039
82	0x3e0409ff	0.12894438
83	0x3d0223da	0.031772472
84	0xbd395bc6	-0.045253538
85	0xbdc87ab3	-0.09789028
86	0xbe0325ab	-0.12807338
87	0xbd09c7a7	-0.03363767
88	0x3d97a5f5	0.07404701
89	0x3ce2c989	0.02768399
90	0x3e07791b	0.13229792
91	0x3dd7d2bf	0.105382435
92	0xbdb939c9	-0.09044225
93	0xbdc39ba6	-0.09551172
94	0xbe158b32	-0.1460388
95	0xbe1455b4	-0.14485818
96	0x382ca8a7	4.1165065e-05
97	0xbe0bf84d	-0.13668938
98	0x3dc98875	0.0984048
99	0xbd9ad168	-0.07559472
100	0x3bdd4d8a	0.006753628
101	0x3dfd53f7	0.12369531
102	0xbd9bca53	-0.0760695
103	0xbe04f409	-0.12983717
104	0x3dff30fb	0.12460514
105	0xbe0799cf	-0.13242267
106	0xbd72c162	-0.059266455
107	0x3dc0528a	0.09390743
108	0xbd8ef75f	-0.06980776
109	0xbdcedd8e	-0.10100852
110	0x3d0a83d1	0.033817116
111	0xbb1a4682	-0.002354056
112	0x3dfe6a9f	0.1242268
113	0x3d82f1d4	0.06393781
114	0x3e0e24d0	0.1388123
115	0xbe069d0c	-0.13145846
116	0x3cf09c0e	0.029371288
117	0x3c5a0dd5	0.013308962
118	0xbdae1d17	-0.08501642
119	0xbd6cfb2a	-0.057856716
120	0xbd845883	-0.06462195
121	0xbda5960c	-0.0808526
122	0x3e058897	0.13040386
123	0x3e06ccad	0.13164015
124	0x3d467ab3	0.04845686
125	0xbbe4a355	-0.0069774785
126	0xbdfaf5bf	-0.122539036
127	0x3c92ed19	0.017935323
128	0x3de10b28	0.10988456
129	0xbdafda0b	-0.0858651
130	0x3e010065	0.12597807
131	0xbe065a96	-0.13120493
132	0x3dcc52c3	0.09976723
133	0xbdf106f5	-0.11768905
134	0xbd991f45	-0.07476667
135	0xbb7a5ff9	-0.0038204177
136	0xbdf8562f	-0.12125813
137	0xbd5e0ecd	-0.054213334
138	0xbdf32f6c	-0.118742794
139	0xbdbcd0ae	-0.0921949
140	0x3ca660df	0.020309864
141	0xbc1ed39f	-0.009694009
142	0x3dfeb998	0.12437743
143	0xbb14b6c4	-0.0022691945
144	0xbd77c8ce	-0.060494237
145	0x3c3ae32b	0.0114067
146	0x3dd0dc76	0.101982996
147	0xbd561f4a	-0.052275933
148	0xbe0dd96d	-0.13852473
149	0x3df0e12a	0.11761697
150	0xbd52abf0	-0.051433504
151	0x3dd9d631	0.10636557
152	0x3dec4cda	0.11538096
153	0xbdf01f6b	-0.117247425
154	0x3defe0f8	0.11712831
155	0x3dbb659a	0.09150238
156	0x3d46ac37	0.04850408
157	0xbe0e8553	-0.13918047
158	0xbc864855	-0.016391912
159	0x3caee4a0	0.021349251
160	0x3db54623	0.08851268
161	0xbcf362a1	-0.029710116
162	0x3ca10419	0.019655274
163	0xbca0d59e	-0.01963311
164	0x3ba5aaca	0.00505576
165	0x3d6b495b	0.057443004
166	0xbe066d6d	-0.1312768
167	0x3dc23e0f	0.09484493
168	0x3d0fbe1b	0.035093408
169	0xbdc153a3	-0.094397806
170	0x3db7e215	0.089786686
171	0x3d632967	0.055459406
172	0x3e01761d	0.12642713
173	0x3e0bc1c4	0.13648134
174	0xbd21c056	-0.039490066
175	0xbdd86ff8	-0.10568231
176	0xbdefaffd	-0.11703489
177	0x3da72112	0.081606045
178	0xbdcb2c40	-0.099205494
179	0x3d124e95	0.035719473
180	0x3d0463c1	0.032321695
181	0x3d0336f8	0.032034844
182	0xbe00fb9c	-0.12595981
183	0xbdd7594c	-0.10515079
184	0xbe0ba530	-0.13637233
185	0x3db3ac59	0.08773107
186	0xbd8205f0	-0.06348789
187	0x3d732cda	0.059368946
188	0xbcf6ccbf	-0.030126927
189	0x3db0ff99	0.086425014
190	0x3de7c907	0.1131764
191	0xbdfefeaf	-0.12450921
192	0x3db2ec8f	0.08736526
193	0xbe154713	-0.14577894
194	0xbe0aa008	-0.1353761
195	0x3da173fc	0.078834504
196	0x3e03e144	0.12878901
197	0x3d8f836d	0.07007489
198	0x3dc7515e	0.097323164
199	0xbcd4de30	-0.025984854
200	0x3db2549c	0.08707544
201	0x3d4df5ea	0.05028335
202	0x3cf63d8a	0.030058641
203	0x3d5b74eb	0.0535783
204	0xbd3f412a	-0.046693005
205	0x3dd3165e	0.103070006
206	0x3d84cf90	0.06484902
207	0x3bf7105c	0.007539792
208	0xbd439778	-0.047751874
209	0xbdd9227c	-0.106022805
210	0x3dc89b40	0.097952366
211	0xbcf34d39	-0.029699909
212	0x3c87211d	0.016495282
213	0xbd9e5168	-0.07730371
214	0xbd6571b1	-0.056016628
215	0xbdf18592	-0.11793055
216	0x3e01026a	0.12598577
217	0x3da49c8e	0.08037673
218	0x3db3da6e	0.087818965
219	0x3cf5f990	0.030026227
220	0xbd662c8e	-0.056194834
221	0x3e0f69fe	0.14005277
222	0x3dccea12	0.10005583
223	0xbdac0d20	-0.08400941
224	0xbde863b5	-0.113471426
225	0xbde346ab	-0.11097463
226	0x3de8b64c	0.11362895
227	0xbe012215	-0.12610658
228	0xbd0ad108	-0.033890754
229	0x3d67f4da	0.056629993
230	0xbd00a30b	-0.03140549
231	0x3d82e545	0.06391386
232	0x3e0b4d7b	0.13603775
233	0xbd8e4d5d	-0.069483496
234	0x3df74fa7	0.12075739
235	0xbd728faa	-0.05921904
236	0xbb308165	-0.0026932594
237	0xbd8b6baf	-0.068076484
238	0xbdbb74c7	-0.09153133
239	0xbce6a530	-0.02815494
240	0x3d84c783	0.06483366
241	0x3defba44	0.11705449
242	0xbdefc69b	-0.11707803
243	0x3ddea7d8	0.108718574
244	0x3dae0d05	0.08498577
245	0xbca4704d	-0.02007308
246	0xbddcb8bd	-0.107774235
247	0x3dc68929	0.0969413
248	0xbe10f85a	-0.14157239
249	0x3d1fb3e9	0.038989935
250	0xbd716004	-0.05892946
251	0x3d6024cb	0.05472259
252	0xbd244649	-0.04010609
253	0xbcd83d89	-0.02639653
254	0xbdaf8caa	-0.085717514
255	0x3cb8429a	0.022492696

policyHead.0.bias f4 [128]
0	0x3d795ab4	0.060877517
1	0xbd8de239	-0.06927914
2	0x3e17afbd	0.14813133
3	0xbddafd8a	-0.1069289
4	0x3db803f9	0.08985133
5	0x3d07a6b4	0.033117965
6	0xbcd21dfb	-0.025649061
7	0x3e0970e4	0.1342197
8	0xbe03f751	-0.12887312
9	0xbe0e7ce0	-0.13914824
10	0xbcd3a1be	-0.02583396
11	0xbd899fad	-0.06719909
12	0x3d5f45a6	0.05450978
13	0xbd35b042	-0.044357546
14	0x3e0f5cce	0.14000246
15	0x3caaafd3	0.020835793
16	0x3b506f1c	0.0031804508
17	0x3bef5948	0.0073043443
18	0x3d7cc0f6	0.06170746
19	0x3d87db38	0.066336095
20	0xbda26901	-0.07930184
21	0xbc7316b2	-0.014836954
22	0x3dfc6de4	0.123256475
23	0x3d9ab554	0.07554117
24	0xbe192237	-0.14954458
25	0xbd7f6437	-0.06235143
26	0xbd96b7cd	-0.07359276
27	0x3decb5be	0.11558102
28	0xbde00fcb	-0.10940512
29	0x3cd74551	0.02627817
30	0x3cfbf45a	0.030756164
31	0xbd1a88ed	-0.03772824
32	0xbd7fca0e	-0.062448554
33	0xbd924f68	-0.07144052
34	0xbdccc96f	-0.09999358
35	0x3c17ebfc	0.009272572
36	0xbdb9eebe	-0.090787396
37	0xbc5d5d76	-0.013511052
38	0xbda2d285	-0.0795031
39	0x3e0414cf	0.12898563
40	0xbd076016	-0.03305062
41	0xbdfb61cd	-0.122745134
42	0x3db2aa05	0.08723835
43	0xbda515f6	-0.08060829
44	0xbdc4d112	-0.096101895
45	0xbd58a617	-0.05289277
46	0x3d4c6bea	0.049907602
47	0x3d40e11c	0.04708968
48	0xbdfb8164	-0.12280539
49	0x3cc73402	0.024316791
50	0xbc966231	-0.018357368
51	0xbb484a1f	-0.0030561758
52	0x3dbb3e14	0.091427
53	0xbdf8441c	-0.12122366
54	0xbd59d6ba	-0.053183295
55	0x3e04aeb4	0.12957269
56	0x3db19749	0.086714335
57	0x3d362f79	0.044478867
58	0xbe0193f2	-0.12654093
59	0xbc08eccd	-0.008357239
60	0xbd8509f7	-0.06496041
61	0x3e07aa5e	0.13248584
62	0x3de9574b	0.11393603
63	0x3c9e955a	0.019358326
64	0x3d7e26e4	0.062048808
65	0x3ccf9da6	0.025343727
66	0xbd3e2b13	-0.046427798
67	0xbda3e0dc	-0.08001873
68	0xbd98bc7e	-0.07457827
69	0xbd888b31	-0.06667174
70	0xbc89b14d	-0.016808176
71	0x3ceef5b7	0.0291699
72	0x3e0021c7	0.12512885
73	0x3dbcef62	0.09225346
74	0x3d1c942a	0.038227238
75	0xbc83b5aa	-0.016077835
76	0xbd40e5af	-0.047094043
77	0x3e0f3267	0.1398407
78	0xbdd39960	-0.10331988
79	0xbde28f09	-0.11062438
80	0x3cf305c3	0.029665833
81	0xbd25dff7	-0.040496793
82	0xbe0da371	-0.13831879
83	0xbdc501a8	-0.096194565
84	0xbde991f2	-0.1140479
85	0xbba6de2e	-0.005092404
86	0x3bd53e54	0.006507674
87	0x3dd05ced	0.10173974
88	0xbe12a4fb	-0.14320748
89	0xbdc19a56	-0.09453265
90	0x3cde9aa0	0.02717334
91	0x3e0d42d8	0.1379503
92	0x3da2dbd6	0.07952087
93	0x3c67990f	0.014135613
94	0xbd8e09f9	-0.06935496
95	0xbc4c49c2	-0.012468757
96	0xbe0106e9	-0.12600292
97	0xbcce1ba6	-0.025159668
98	0xbd8f2ff8	-0.06991571
99	0x3ddd7e0c	0.10815057
100	0x3db935f2	0.090434924
101	0xbcde7e69	-0.027159886
102	0x3b5d32fa	0.0033752308
103	0x3d9f1f41	0.07769633
104	0xbdc1732e	-0.09445797
105	0xbe05271e	-0.13003203
106	0x3dd48cd2	0.10378422
107	0xbd29b4b2	-0.04143209
108	0x3c825e69	0.015914159
109	0x3e08079b	0.13284151
110	0xbd36f60d	-0.044668246
111	0xbe00162f	-0.12508462
112	0x3de51d97	0.111872844
113	0xbdeeaffc	-0.1165466
114	0x3d9bf9ca	0.07616003
115	0xbe227ce4	-0.15867954
116	0xbc9fd91a	-0.019512702
117	0x3c025fef	0.007957443
118	0x3d198aeb	0.037485998
119	0x3d44e74f	0.048072156
120	0xbbca7785	-0.0061787986
121	0xbdfd301c	-0.12362692
122	0x3d983bab	0.07433256
123	0x3d34583e	0.044029467
124	0xbd8cd4ae	-0.06876503
125	0xbd301d13	-0.042996477
126	0x3d679584	0.056539074
127	0xbe1b9227	-0.15192471

policyHead.1.weight f4 [128]
0	0x3f7ca4ee	0.9868916
1	0x3f7f73ad	0.9978588
2	0x3f80e632	1.007025
3	0x3f7ed9df	0.99551195
4	0x3f7dd2af	0.991496
5	0x3f7e8bab	0.99431866
6	0x3f8043e5	1.002072
7	0x3f80af2f	1.0053462
8	0x3f7f1c66	0.9965271
9	0x3f804e5c	1.0023913
10	0x3f7f4e15	0.9972852
11	0x3f7e1989	0.99257714
12	0x3f7d31c0	0.9890404
13	0x3f8001d2	1.0000556
14	0x3f809205	1.0044562
15	0x3f8051be	1.0024946
16	0x3f7dad91	0.99092966
17	0x3f7e7815	0.9940198
18	0x3f7ec218	0.99514914
19	0x3f817dd9	1.0116531
20	0x3f7f0886	0.9962238
21	0x3f7d9db5	0.99068767
22	0x3f802229	1.0010425
23	0x3f801453	1.0006202
24	0x3f7f42ab	0.997111
25	0x3f805b99	1.0027953
26	0x3f8004df	1.0001487
27	0x3f7d2bf7	0.9889521
28	0x3f80aa64	1.0051999
29	0x3f7d17a6	0.9886421
30	0x3f7d3aaa	0.9891764
31	0x3f7fbd9b	0.9989869
32	0x3f7e8f69	0.99437577
33	0x3f812ca0	1.0091743
34	0x3f7fda4b	0.99942464
35	0x3f83261c	1.0246005
36	0x3f7d0153	0.98830146
37	0x3f7e0fce	0.99242866
38	0x3f807683	1.0036167
39	0x3f804ba6	1.0023086
40	0x3f7cf32b	0.98808545
41	0x3f81f8c1	1.0154039
42	0x3f81b7ac	1.0134177
43	0x3f81056a	1.0079777
44	0x3f807fff	1.0039061
45	0x3f7d53c4	0.9895594
46	0x3f7ec559	0.9951988
47	0x3f8230de	1.0171163
48	0x3f80ffcd	1.0078064
49	0x3f7cc767	0.98741764
50	0x3f7de33c	0.9917486
51	0x3f803654	1.001658
52	0x3f81cad0	1.0140018
53	0x3f814a3b	1.0100778
54	0x3f8139c9	1.009576
55	0x3f7feb69	0.9996858
56	0x3f807c85	1.0038
57	0x3f7ed591	0.99544626
58	0x3f8236fb	1.0173029
59	0x3f80de67	1.0067872
60	0x3f816141	1.0107805
61	0x3f7ed203	0.995392
62	0x3f7dabaf	0.99090093
63	0x3f804432	1.0020812
64	0x3f7eec97	0.9957976
65	0x3f80fb1d	1.0076634
66	0x3f7cf754	0.9881489
67	0x3f800760	1.0002251
68	0x3f8179ae	1.0115259
69	0x3f82cae2	1.0218165
70	0x3f7fbf26	0.99901044
71	0x3f7fa443	0.9986002
72	0x3f804490	1.0020924
73	0x3f820544	1.0157857
74	0x3f801dc1	1.000908
75	0x3f8020b3	1.0009979
76	0x3f819d71	1.0126172
77	0x3f8115e4	1.0084805
78	0x3f800c3e	1.0003736
79	0x3f7d7954	0.9901326
80	0x3f8084f2	1.0040572
81	0x3f7ead2b	0.99482983
82	0x3f80a628	1.0050707
83	0x3f812099	1.0088073
84	0x3f800fd9	1.0004836
85	0x3f807b3a	1.0037606
86	0x3f7c4bb7	0.9855303
87	0x3f7cbcb2	0.98725426
88	0x3f8007f7	1.0002431
89	0x3f7f5105	0.99733
90	0x3f7ffee4	0.9999831
91	0x3f7e9a34	0.99454045
92	0x3f7e32ba	0.9929615
93	0x3f7de025	0.9917014
94	0x3f7e5abb	0.99357194
95	0x3f807445	1.0035483
96	0x3f803ce5	1.0018584
97	0x3f7c334a	0.9851576
98	0x3f80b823	1.0056194
99	0x3f82e14a	1.0225003
100	0x3f7fdbe8	0.99944925
101	0x3f7decf9	0.99189717
102	0x3f820f69	1.0160953
103	0x3f7ac75a	0.97960436
104	0x3f7cf13e	0.98805606
105	0x3f7db08d	0.9909752
106	0x3f82906f	1.0200328
107	0x3f804c75	1.0023333
108	0x3f7c5ffd	0.98583966
109	0x3f805634	1.0026307
110	0x3f7ccfca	0.9875456
111	0x3f7d8a9f	0.99039644
112	0x3f800cd2	1.0003912
113	0x3f80e6ac	1.0070395
114	0x3f7c356f	0.98519033
115	0x3f7d433e	0.9893073
116	0x3f817e59	1.0116683
117	0x3f7b724e	0.9822129
118	0x3f822304	1.0166936
119	0x3f7db5ae	0.99105346
120	0x3f81d8c2	1.0144274
121	0x3f8067ad	1.0031639
122	0x3f8049a6	1.0022476
123	0x3f7f9a1d	0.99844533
124	0x3f7f2311	0.9966288
125	0x3f8043f6	1.002074
126	0x3f811da7	1.0087174
127	0x3f7b438c	0.98149943

policyHead.1.bias f4 [128]
0	0xbbc7c249	-0.0060961586
1	0x3b72e57c	0.0037063053
2	0x3c4c2a5f	0.012461274
3	0x3a1ae3ac	0.00059085595
4	0xba480c63	-0.00076312403
5	0x3a68287e	0.00088561315
6	0x3c43d0e4	0.011951659
7	0x3be75e6f	0.007060818
8	0xbaf36e01	-0.0018572212
9	0x3b78da76	0.003797201
10	0x3ab13530	0.001351988
11	0xbad15780	-0.0015971512
12	0xbbb3bc49	-0.005485092
13	0xbb9e9f94	-0.0048408005
14	0x3bcc7025	0.0062389546
15	0x3be8d8be	0.007105916
16	0xbb9994c0	-0.004686922
17	0xbbc34dbc	-0.0059601944
18	0x3ba501cb	0.005035614
19	0x3c8a47fc	0.016880028
20	0xbb95f4eb	-0.0045763156
21	0xbc3e9015	-0.0116310315
22	0x3bfd9766	0.0077389954
23	0x3c696dbf	0.014247357
24	0xbb47f369	-0.0030510074
25	0x3c31c8bd	0.010851082
26	0x3af8efe1	0.0018992388
27	0xbc2ffae8	-0.010740973
28	0x3c362e42	0.011119427
29	0xbb734483	-0.0037119694
30	0xbbae0fce	-0.0053119427
31	0x3b7d1a47	0.00386204
32	0x3b862862	0.0040941695
33	0x3be02328	0.0068401285
34	0x3c1343da	0.008988345
35	0x3cdd00b9	0.026977884
36	0xbabafe08	-0.0014266381
37	0xbbf3b97e	-0.007437884
38	0x3c2aa3a9	0.010414996
39	0x3c21fc40	0.009886801
40	0xbc2657d4	-0.010152776
41	0x3ca77fd1	0.02044669
42	0x3c9b0c7f	0.018926857
43	0x3bc15f01	0.005901218
44	0x3c182af3	0.009287584
45	0xbc1557db	-0.009115185
46	0x3b068f30	0.0020532124
47	0x3c5cdafe	0.013479946
48	0x3c3c4738	0.011491589
49	0xbb487371	-0.0030586387
50	0xbb2b080d	-0.0026097328
51	0x3c1e8c22	0.009676965
52	0x3cb74e1d	0.022376115
53	0x3c83efea	0.01610561
54	0x3c660539	0.014039331
55	0x3aa32531	0.0012446997
56	0x3c97eb8f	0.01854494
57	0xbadc2450	-0.001679549
58	0x3c80437b	0.015657177
59	0x3c9aa766	0.01887865
60	0x3c4cf532	0.012509631
61	0xbb1a025b	-0.002349994
62	0xbb909dc7	-0.00441334
63	0x3c02677a	0.007959241
64	0x3c48325b	0.012219037
65	0x3c435ef4	0.011924494
66	0xbad53071	-0.0016265047
67	0x3ba07a7c	0.004897414
68	0x3c9b767c	0.018977396
69	0x3ce7d108	0.028297916
70	0x3b275ba4	0.00255368
71	0xbb0f82fe	-0.0021898146
72	0xbabb42f1	-0.0014286918
73	0x3c89ba2e	0.01681241
74	0x3c284a21	0.01027158
75	0x3c36062d	0.011109871
76	0x3cd2f603	0.025752073
77	0x3c3bdaaf	0.011465712
78	0x3c09a052	0.00840004
79	0xbb17176d	-0.0023054734
80	0x3c2df951	0.010618524
81	0xba80ad5f	-0.0009817294
82	0x3c0e1b28	0.008673467
83	0x3c7ac39f	0.015305429
84	0xbab1767a	-0.0013539337
85	0x3c40c22b	0.011765043
86	0xbbdee49e	-0.0068021556
87	0xbae8421b	-0.0017719896
88	0xbb7c1097	-0.0038462037
89	0xbac8966c	-0.0015303618
90	0x3b0bfab4	0.0021359148
91	0x3a9849e2	0.0011618698
92	0xbb88287e	-0.0041552177
93	0x3b47af08	0.0030469317
94	0xbabcae73	-0.0014395252
95	0xba08eebc	-0.00052235625
96	0x3be5127e	0.00699073
97	0xbc26fce7	-0.010192133
98	0x3c90e5ce	0.017687704
99	0x3cbd514d	0.023110056
100	0x3b43c4ce	0.0029871943
101	0x39f4a7e6	0.000466644
102	0x3cd81c3e	0.026380654
103	0xbc6250aa	-0.013813177
104	0xbc0adf15	-0.008476038
105	0x3a714556	0.0009203752
106	0x3cc4223f	0.023942111
107	0x3c448f98	0.011997126
108	0x3a31e95c	0.00067867874
109	0x3bd3f5b8	0.006468501
110	0xbc049fcf	-0.008094742
111	0xbbdc0f4d	-0.006715691
112	0x3c8f89bf	0.017521737
113	0x3c71d87d	0.0147610875
114	0xbaf9c563	-0.0019056018
115	0xbc3ba6c3	-0.011453333
116	0x3c855cab	0.01627954
117	0xbc344a8d	-0.011004102
118	0x3d0f9d6c	0.03506224
119	0xbc2680ec	-0.010162573
120	0x3c9a18e0	0.01881069
121	0xba8fcab1	-0.0010970441
122	0x3c57816d	0.013153416
123	0x3c014391	0.007889644
124	0x3ae78623	0.0017663877
125	0x3bffd112	0.0078069055
126	0x3b63d1da	0.0034762532
127	0xbcb362c3	-0.02189768

policyHead.3.weight f4 [64, 128]
0	0xbdf90db3	-0.12160816
1	0xbd1f8743	-0.038947355
2	0xbe023e52	-0.12719086
3	0xbd189c6d	-0.037258554
4	0x3c49cd71	0.012317047
5	0x3d2f02e4	0.042727366
6	0x3ca30169	0.019898133
7	0xbde0bd6e	-0.10973631
8	0xbd260db6	-0.04054042
9	0x3c8b4141	0.016998889
10	0xbdfa2e4d	-0.122158624
11	0xbd8568b6	-0.06514113
12	0xbd86a0de	-0.06573652
13	0x3c30e514	0.010796804
14	0xbd899f54	-0.067198426
15	0x3d3a08e6	0.045418642
16	0xbdb5b829	-0.088730164
17	0xbdbc6b14	-0.09200111
18	0xbd6ad49b	-0.057331663
19	0xbde7c949	-0.11317689
20	0xbc069283	-0.008213642
21	0xbdaa884c	-0.08326778
22	0xbddf4a1e	-0.109028086
23	0xbe093aef	-0.13401388
24	0x3d21e42f	0.039524253
25	0xbdf1167f	-0.11771869
26	0x3d8ce752	0.06880058
27	0xbda16c09	-0.07881934
28	0xbdd37c5c	-0.10326454
29	0xbd6dfae7	-0.058100607
30	0xbdc42562	-0.09577443
31	0xbdd01b25	-0.101614274
32	0xbcb8498e	-0.022496011
33	0xbcd1b379	-0.025598275
34	0xbdb555d0	-0.08854258
35	0x3cdb94f3	0.026804423
36	0xbd10235a	-0.035189964
37	0x3d55c6b9	0.05219147
38	0x3c9c2435	0.019060234
39	0xbc1bca59	-0.009508693
40	0xbbb067a3	-0.005383448
41	0x3caa6062	0.020797912
42	0x3cce03c3	0.025148278
43	0xbc857b36	-0.016294103
44	0x3cf75715	0.030192891
45	0xbd362749	-0.04447106
46	0x3d75e6c4	0.06003453
47	0xbd0ef134	-0.034897998
48	0xbd97255f	-0.07380175
49	0xbc5b5f54	-0.013389427
50	0xbd8af5b0	-0.067851424
51	0xbcfddd6b	-0.03098937
52	0x3cbba3d7	0.022905273
53	0xbde4f949	-0.1118036
54	0xbd946b76	-0.07247059
55	0xbae3e361	-0.001738649
56	0xbdcfaf35	-0.1014084
57	0xbd49df9b	-0.049285512
58	0xbd1c12b2	-0.038103767
59	0xbd6ed6d9	-0.058310363
60	0xbcbc5acd	-0.022992516
61	0xbce27d2d	-0.02764758
62	0x3d480ba1	0.048839215
63	0x3d2f33cd	0.04277401
64	0xbcbb96e1	-0.022899093
65	0xbc127602	-0.008939268
66	0xbd8ba384	-0.068182975
67	0x3cc1f30d	0.023675466
68	0xbd8e9b76	-0.069632456
69	0xbdfbeacd	-0.12300644
70	0x3a2dd815	0.0006631625
71	0x3d3acf28	0.045607716
72	0x3d4cc1d9	0.049989555
73	0xbd29a9ef	-0.041421827
74	0xbd8a88ef	-0.06764399
75	0xbd12b892	-0.03582055
76	0x3d4ccdf9	0.05000112
77	0xbd23a654	-0.039953545
78	0xbdce6943	-0.10078671
79	0x3c8a409c	0.016876511
80	0xbda1f7c5	-0.079085864
81	0xbda1e734	-0.079054266
82	0xbdf9688d	-0.121781446
83	0xbdd3d91e	-0.10344146
84	0xbd4ac1c2	-0.049501188
85	0xbce11b28	-0.02747877
86	0x3c390bf6	0.011294356
87	0xbaa5e921	-0.0012657979
88	0xbda3a65e	-0.079907164
89	0xbcf830dd	-0.030296737
90	0xbd468f53	-0.04847653
91	0x3d11aa3e	0.035562746
92	0xbdacee95	-0.084439434
93	0xbd0a0587	-0.033696678
94	0x3d6c2570	0.05765289
95	0xbda316c3	-0.07963326
96	0xbd87ca3c	-0.0663037
97	0x3c5f84f4	0.013642538
98	0xbd7a407c	-0.061096653
99	0xbba972f9	-0.0051711765
100	0xbdbf125c	-0.09329674
101	0xbb11d3d5	-0.0022251506
102	0xbdb0712e	-0.08615337
103	0xbde6b140	-0.112642765
104	0x3d3e43cb	0.04645137
105	0x3c2f14de	0.0106861275
106	0xbde6b8cd	-0.11265717
107	0xbd26a8c4	-0.04068829
108	0xbcf9699a	-0.030445863
109	0xbd56526e	-0.052324705
110	0xbd0b224b	-0.03396825
111	0xbd44eec0	-0.048079252
112	0xbd87f2db	-0.06638118
113	0xbd986608	-0.07441336
114	0xba1ff8fa	-0.0006102469
115	0x3d1aaabf	0.037760492
116	0xbd8bb428	-0.068214715
117	0xbc807b65	-0.01568384
118	0xbd6052a2	-0.054766305
119	0x3d140789	0.03614
120	0xbde95d20	-0.11394715
121	0x3c99d1af	0.018776743
122	0xbba6272d	-0.005070588
123	0xbe078fd6	-0.13238463
124	0x3d887e06	0.06664662
125	0xbceb6d0a	-0.028738517
126	0xbc7630cf	-0.015026285
127	0x3d68aa7a	0.056803204
128	0x3db114e3	0.08646562
129	0x3d5f750b	0.05455498
130	0x3c5cbbce	0.0134725105
131	0xbd5a2a8b	-0.05326323
132	0x3d6b0573	0.057378244
133	0x3c51523c	0.012775954
134	0xbd9b9704	-0.07597163
135	0x3d881004	0.0664368
136	0xbd1f0b98	-0.038829416
137	0xbca042fd	-0.019563193
138	0xbd0fe40b	-0.035129588
139	0xbd40b4dc	-0.04704748
140	0x3d7369fd	0.05942725
141	0x3d7c3f5c	0.06158386
142	0x3c884821	0.016635956
143	0xbd9708e4	-0.073747426
144	0xbc3102c6	-0.010803884
145	0x3d71e68e	0.059057765
146	0x3c741947	0.014898605
147	0xbcba43a8	-0.02273734
148	0xbd835aaa	-0.06413777
149	0x3be8dca4	0.0071063805
150	0xbd47bde3	-0.048765074
151	0x3c9d60d7	0.019211216
152	0xbd18ba6c	-0.03728716
153	0xbb142ab1	-0.0022608454
154	0xbccef041	-0.025261046
155	0x3dbf0182	0.093264595
156	0x3cc60203	0.024170881
157	0x3d4f627a	0.050631024
158	0x3bb18e5b	0.0054185814
159	0xbcd4a911	-0.025959523
160	0xbc482d03	-0.012217763
161	0x3ca12a47	0.01967348
162	0x3d5ae57a	0.053441502
163	0x3da8e97f	0.08247661
164	0xbb7a9fe0	-0.0038242266
165	0xbb6561c6	-0.0035000904
166	0xbd41d25d	-0.04731976
167	0xbd418cb1	-0.047253314
168	0x3cf0e133	0.029404258
169	0x3dab8fa2	0.08377005
170	0xbd6a69af	-0.057229694
171	0xbd573e04	-0.052549377
172	0x3d9c3cd8	0.076287925
173	0xbc96a588	-0.018389478
174	0xbd7561b1	-0.05990762
175	0xbda81f58	-0.08209103
176	0xbd8bd365	-0.0682743
177	0x3d887803	0.066635154
178	0x3d90eb77	0.07076161
179	0xbacb30f9	-0.0015502266
180	0x3d697dc4	0.057004705
181	0xbd4fc54c	-0.050725266
182	0x3d90e75b	0.070753776
183	0x3d8e824b	0.06958445
184	0xbbd2a5ce	-0.006428457
185	0xbb91937e	-0.0044426313
186	0xbd52db0f	-0.05147844
187	0xbdb4460f	-0.08802425
188	0x3b88bf7f	0.0041732187
189	0x3d979952	0.074022904
190	0xbd000e8c	-0.031263873
191	0x3dae1573	0.08500185
192	0xbc038aab	-0.0080286665
193	0xbd11367a	-0.035452344
194	0xbd2d4507	-0.042302158
195	0xbda0f873	-0.07859888
196	0xbd124992	-0.035714693
197	0xbcee84eb	-0.029116115
198	0xbcc09604	-0.023509033
199	0xbd49f3c2	-0.04930473
200	0xbc1d5845	-0.009603565
201	0xbd69e78d	-0.05710559
202	0xbd8d8962	-0.06910969
203	0xbd57d1bc	-0.052690253
204	0xbd369adb	-0.044581275
205	0x3d1c7ff6	0.03820797
206	0xbd9af3a3	-0.07566001
207	0xbd956a1d	-0.0729563
208	0x3be90a1b	0.0071118004
209	0x3caca7bb	0.021076074
210	0xbd1dd1c4	-0.038530126
211	0xbcd7c160	-0.026337326
212	0xbc10ffc2	-0.00885004
213	0x3c01c406	0.007920271
214	0xbd97a43f	-0.07404374
215	0xbd467f80	-0.048461437
216	0xbd4e6b85	-0.050395507
217	0x3bdf186d	0.0068083317
218	0xbd929c2d	-0.071586944
219	0x3983c9f0	0.00025136722
220	0xbdbb347e	-0.091408715
221	0xbd5580cf	-0.052124795
222	0x3d8b899b	0.068133555
223	0x3cf186f4	0.029483296
224	0xbbdfc3f1	-0.006828778
225	0x3d81d4ae	0.063393936
226	0x3d9d9a43	0.07695439
227	0x3d22f315	0.039782602
228	0x3d27b22b	0.0409414
229	0xbc1a1448	-0.0094042495
230	0xbd2b8b5d	-0.041880954
231	0x3d30b0a6	0.043137215
232	0xbd3994ce	-0.045307927
233	0x3d0dffdc	0.034667835
234	0xbc7c2adb	-0.015391077
235	0xbd2890b5	-0.04115363
236	0x3d3846f0	0.044989526
237	0xbd8d39b3	-0.06895771
238	0x3cbb973c	0.022899263
239	0x3c00387f	0.00782597
240	0x3d405ce9	0.046963606
241	0x3d200ba1	0.03907359
242	0xbcffc791	-0.03122309
243	0xbd1604c5	-0.036625642
244	0x3da24f78	0.07925314
245	0x3d711f0d	0.058867503
246	0x3bb056b0	0.0053814277
247	0x3d28aa04	0.041177765
248	0x3d862bc4	0.065513164
249	0x3cc1ffd2	0.023681555
250	0xbd8cf19d	-0.068820216
251	0x3d4e25c6	0.050328992
252	0xbd08dda6	-0.033414505
253	0xbd54e34c	-0.05197458
254	0x3da8a5d6	0.08234756
255	0x3bfaae9a	0.0076502087

policyHead.3.bias f4 [64]
0	0xbde9c9df	-0.11415457
1	0x3d992c89	0.074791975
2	0xbd33bb44	-0.043879762
3	0x3d68673a	0.05673907
4	0xbd9e5739	-0.0773148
5	0xbd486fe9	-0.04893485
6	0x3d927cdc	0.07152721
7	0x3d7c6535	0.061619956
8	0x3cc1503d	0.02359783
9	0x3d5e2f99	0.05424461
10	0x3ca3f3a6	0.020013642
11	0x3c4a1f17	0.012336514
12	0xbdd91965	-0.10600547
13	0x3d5f77ae	0.054557495
14	0xbdbeec97	-0.0932247
15	0x3d815504	0.063150436
16	0x3ccf3339	0.02529298
17	0x3d9414e7	0.07230549
18	0xbd95ca49	-0.073139735
19	0x3cf82360	0.030290306
20	0xbcfa8d10	-0.030584842
21	0xbd2e89ad	-0.042611767
22	0xbc765a7a	-0.01503622
23	0xbcd57978	-0.026058897
24	0xbcb2f50e	-0.021845367
25	0x3d7f1160	0.06227243
26	0x3db305c7	0.08741336
27	0xbc9a4d65	-0.018835733
28	0xbd024753	-0.0318063
29	0x3d48a217	0.048982706
30	0xbdc706ea	-0.09718116
31	0x3ae314b3	0.0017324894
32	0xbd1f860c	-0.038946196
33	0xbd52a15f	-0.051423427
34	0x3d43f7c8	0.047843724
35	0x3da7009d	0.08154414
36	0x3d6d8885	0.057991523
37	0xbd6bf14b	-0.05760316
38	0x3d9c3449	0.0762716
39	0x3c26d881	0.0101834545
40	0xbcde7e0d	-0.027159715
41	0x3d5fa24e	0.054598145
42	0xbbb78d7d	-0.0056015835
43	0x3a7198e3	0.00092162023
44	0x3d9f4236	0.077763006
45	0x3da54dd6	0.08071487
46	0x3c7d21f7	0.015449992
47	0x3d5b2882	0.053505428
48	0xbd902954	-0.07039133
49	0xbd2ab03d	-0.04167198
50	0xbd6e783c	-0.058220133
51	0xbd3be80e	-0.0458756
52	0xbc5c4487	-0.013444073
53	0xbc9d3b78	-0.019193396
54	0xbd66daaa	-0.056360878
55	0x3dbe0431	0.09278143
56	0xbd06ab22	-0.03287805
57	0xbd1d51cc	-0.038408086
58	0xbd960588	-0.07325274
59	0x3d4d7848	0.050163537
60	0xbd9c2699	-0.076245494
61	0x3db6f9b6	0.08934347
62	0x3d2b7703	0.041861545
63	0x3d2b6d9b	0.041852575

policyHead.4.weight f4 [64]
0	0x3f7fc032	0.9990264
1	0x3f7c7ee2	0.9863111
2	0x3f7f18d0	0.99647236
3	0x3f7b3899	0.98133236
4	0x3f7bae3a	0.98312724
5	0x3f7e940e	0.99444664
6	0x3f80b7f4	1.0056138
7	0x3f806c86	1.0033119
8	0x3f7bdfc8	0.9838834
9	0x3f7eb912	0.99501145
10	0x3f7b36a2	0.9813024
11	0x3f7b1a7e	0.980873
12	0x3f7efb87	0.9960255
13	0x3f7dea17	0.9918532
14	0x3f7c198d	0.9847649
15	0x3f7ce7e2	0.98791325
16	0x3f7f5d72	0.9975196
17	0x3f7b5976	0.9818338
18	0x3f7d885b	0.99036187
19	0x3f7e1ec2	0.9926568
20	0x3f7cb92b	0.98720044
21	0x3f800a11	1.0003072
22	0x3f7f2620	0.9966755
23	0x3f793e94	0.9736111
24	0x3f7fa8dc	0.99867034
25	0x3f7eeb6e	0.9957799
26	0x3f7d9d72	0.9906837
27	0x3f7f8cd2	0.9982425
28	0x3f7bf5e3	0.9842207
29	0x3f7cdfe2	0.9877912
30	0x3f7fcf08	0.9992528
31	0x3f7af757	0.9803366
32	0x3f7d25d4	0.98885846
33	0x3f7d3489	0.9890829
34	0x3f80071f	1.0002173
35	0x3f7d297a	0.98891413
36	0x3f78b1d3	0.9714634
37	0x3f7c1ab7	0.98478264
38	0x3f7db489	0.991036
39	0x3f7f4bc0	0.9972496
40	0x3f806654	1.0031228
41	0x3f7bb4d7	0.98322815
42	0x3f7e3c53	0.993108
43	0x3f7dd394	0.9915097
44	0x3f7bd03d	0.9836462
45	0x3f7d3d09	0.9892126
46	0x3f7da74e	0.9908341
47	0x3f7e7b65	0.99407035
48	0x3f8026a7	1.0011796
49	0x3f7fc127	0.999041
50	0x3f78ba80	0.97159576
51	0x3f7f7901	0.9979401
52	0x3f7d174c	0.98863673
53	0x3f7f0fc3	0.99633425
54	0x3f7d12cd	0.9885681
55	0x3f7b4647	0.9815411
56	0x3f7ae5f2	0.9800712
57	0x3f7e1049	0.992436
58	0x3f7b0d07	0.98066753
59	0x3f800957	1.000285
60	0x3f7db247	0.99100155
61	0x3f7ea434	0.99469304
62	0x3f7dafde	0.9909648
63	0x3f7f3ac8	0.9969907

policyHead.4.bias f4 [64]
0	0xbab98d3c	-0.0014156471
1	0xbbf375fb	-0.007429836
2	0x3c81ae75	0.015830258
3	0xbc537193	-0.012905496
4	0xbc8edc4d	-0.017439032
5	0xba4d1410	-0.0007823119
6	0x3c1c2e0a	0.009532461
7	0xb9ce682e	-0.00039369002
8	0xbb590323	-0.0033113442
9	0x3bef4efa	0.007303116
10	0xbc0b5108	-0.008503206
11	0xbba70682	-0.0050972113
12	0xbbbae245	-0.005703243
13	0x378a6a2d	1.6500324e-05
14	0xbc1fe714	-0.009759683
15	0xbbb6a3be	-0.005573719
16	0x3a6c3f3f	0.000901211
17	0x3a754fdb	0.00093579077
18	0xbc3ab398	-0.011395358
19	0xbbcc6c47	-0.0062384936
20	0xbb791b3b	-0.0038010615
21	0xb902080e	-0.00012400767
22	0xbbb97d3b	-0.0056606806
23	0x3b39a1d2	0.0028325212
24	0xb9f6ea8b	-0.00047095524
25	0x3b0d8d9d	0.00215993
26	0xbbbb1132	-0.005708837
27	0xbb2942f1	-0.0025827254
28	0xba880f58	-0.0010380549
29	0xbc4193f4	-0.01181506
30	0xb9a26472	-0.00030973885
31	0x3b0daae0	0.0021616742
32	0xbc14c352	-0.009079771
33	0x3b37f808	0.0028071422
34	0x37e67cc7	2.747624e-05
35	0xbbdcd8c3	-0.006739707
36	0xbc988d49	-0.018622058
37	0xbb7f5069	-0.003895784
38	0xbc1d1dd5	-0.009589632
39	0x3b470128	0.003036568
40	0x3c4dca39	0.012560421
41	0xbc22e225	-0.009941612
42	0xbb79e6b2	-0.003813189
43	0xbc68e9d3	-0.014215904
44	0xbc6a0b6f	-0.014284953
45	0xbb82d675	-0.0039928504
46	0xbc4255c0	-0.011861265
47	0x3c27c3b3	0.010239529
48	0x3c3015c6	0.010747379
49	0xba564a0c	-0.0008174486
50	0xbbee380e	-0.007269866
51	0xbbb836ec	-0.0056217816
52	0xbc900ba0	-0.017583668
53	0xbb81edd3	-0.0039651184
54	0xbb3c73dc	-0.002875558
55	0xbb926ffb	-0.0044689155
56	0xbbf09402	-0.0073418627
57	0xbc2c804c	-0.010528635
58	0xbc6ed54c	-0.014577221
59	0x3a1493a5	0.00056677527
60	0xbc6639d4	-0.014051873
61	0xbbadf458	-0.005308669
62	0xbbf0f2cc	-0.0073531624
63	0x3b85f755	0.004088322

policyHead.6.weight f4 [26, 64]
0	0xbd866d2a	-0.0656379
1	0x3de5dce4	0.11223772
2	0x3dd6d0a9	0.104890175
3	0xbd9f2ffa	-0.07772823
4	0xbd44cec1	-0.04804874
5	0x3d81ee86	0.06344323
6	0xbafc64ee	-0.0019256154
7	0x3d33a4a5	0.04385819
8	0xbcc931b9	-0.024559842
9	0x3d87f74c	0.06638965
10	0x3d2530b8	0.040329665
11	0x3da168e4	0.078813344
12	0x3dec04e4	0.1152437
13	0x3c0a99ad	0.008459491
14	0xbd989feb	-0.07452377
15	0xbd8699c6	-0.06572299
16	0xbda9cdf7	-0.08291238
17	0xbd489408	-0.0489693
18	0x3de24a4d	0.11049328
19	0xbcff73ab	-0.031183084
20	0xbcc5070e	-0.024051215
21	0x3df1a48a	0.117989615
22	0x3daff15a	0.08590956
23	0x3cfd7089	0.03093745
24	0xbd64f781	-0.0559001
25	0x3e033ed0	0.1281693
26	0xbda5d8f0	-0.08098018
27	0x3da3bcac	0.07994971
28	0x3ddac2c9	0.106816836
29	0x3df041d1	0.117313035
30	0xbd3120ba	-0.0432441
31	0xbda82e63	-0.082119726
32	0xbddf45ef	-0.10902011
33	0x3dbce813	0.09223952
34	0xbca48016	-0.020080607
35	0xbdbdf11a	-0.09274502
36	0x3b01c39b	0.0019800428
37	0xbbec8480	-0.0072179437
38	0xbdab5dfa	-0.08367534
39	0xbc528c36	-0.012850812
40	0x3d709cc9	0.058743272
41	0xbd672b1c	-0.056437597
42	0xbde6a02e	-0.112610206
43	0x3da8f70c	0.082502455
44	0x3cb31478	0.021860346
45	0x3c713bc8	0.014723726
46	0xbd220f78	-0.039565533
47	0x3caa99d3	0.020825302
48	0x3b91aa56	0.0044453545
49	0x3c2bbe64	0.010482404
50	0x3d0af737	0.03392717
51	0xbb5c3cba	-0.0033605532
52	0x3de13fe4	0.10998514
53	0xbd5ba1e8	-0.053621203
54	0x3d117e23	0.035520684
55	0xbdba125a	-0.090855315
56	0x3b820ea4	0.0039690305
57	0x3d02d72f	0.031943496
58	0x3b109df2	0.00220668
59	0x3d6d4dab	0.057935398
60	0x3de46d82	0.111536995
61	0xbdd5aa3d	-0.10432861
62	0xbd0f218b	-0.0349441
63	0x3d9d2afa	0.07674213
64	0x3d3c364a	0.04595021
65	0xbdbd5903	-0.09245493
66	0x3d319de5	0.04336347
67	0xbd6db71c	-0.058035955
68	0x3ccaac60	0.024740398
69	0xbdab7e91	-0.0837375
70	0x3dfdd153	0.12393441
71	0xbdefe163	-0.11712911
72	0xbbb3bc37	-0.0054850834
73	0xbdaafd6f	-0.0834912
74	0xbda6fe7a	-0.08154006
75	0x3d91088b	0.070817076
76	0x3dca79f9	0.09886546
77	0xbd4619a5	-0.0483643
78	0x3ddb463a	0.10706754
79	0x3dd54676	0.1041383
80	0xbce8eb21	-0.02843243
81	0x3b7777c4	0.0037760595
82	0x3cc1ca8f	0.023656158
83	0x3cccac9e	0.024984654
84	0xbdb367e5	-0.08760051
85	0x3b0bdb22	0.002134033
86	0xbdb40140	-0.08789301
87	0x3cfeb71c	0.031093173
88	0x3d9c182a	0.076217964
89	0x3dab93f7	0.083778314
90	0x3de03346	0.1094728
91	0x3d5d90ec	0.054093286
92	0xbdd5bf8c	-0.10436925
93	0xbcdc0143	-0.02685607
94	0xbde8070b	-0.11329468
95	0xbdad5221	-0.084629305
96	0x3d0ef04c	0.034897134
97	0x3de3ec9f	0.11129116
98	0x3d8157fd	0.063156106
99	0x3d0a571c	0.03377448
100	0xbcf737c7	-0.030177964
101	0x3dd3d105	0.10342602
102	0xbd14ddee	-0.03634446
103	0xbd0190d8	-0.031632274
104	0x3df6bb2c	0.12047419
105	0x3dbb1456	0.09134738
106	0x3db08725	0.08619527
107	0xbd6aff8b	-0.05737261
108	0x3d847093	0.06466784
109	0x3da5a251	0.080876
110	0x3de61a3e	0.11235474
111	0xbdab96f2	-0.083784
112	0xbd9eb6d9	-0.07749719
113	0xbc1b03d3	-0.009461361
114	0xbd23d0f2	-0.039994188
115	0xbdb8a3b9	-0.090156026
116	0xbc077994	-0.008268733
117	0x3dca259f	0.09870457
118	0x3c99946d	0.018747533
119	0xbd361d14	-0.044461325
120	0xbd7eccfb	-0.062207203
121	0x3de56df6	0.11202614
122	0xbc25150a	-0.010075817
123	0x3b190afc	0.0023352494
124	0xbcbcee0a	-0.023062725
125	0xbdb8f383	-0.09030821
126	0x3ce5e259	0.028062033
127	0xbcb8f913	-0.022579705
128	0x3d9bf43c	0.076149434
129	0xbd6cc145	-0.057801504
130	0x3dd93fef	0.106078975
131	0xbdba3f59	-0.09094114
132	0xbd8d938d	-0.06912909
133	0xbd0ba4a1	-0.03409255
134	0x3bb1b948	0.0054236986
135	0xbcf56598	-0.02995567
136	0x3dafaa74	0.08577433
137	0xbd9d4505	-0.0767918
138	0x3d21653b	0.03940318
139	0x3cfbd94d	0.030743266
140	0x3c5d57fa	0.013509745
141	0x3d9772be	0.07394932
142	0x3daef7b7	0.085433416
143	0xbd4bf80c	-0.049797103
144	0xbde0c024	-0.10974148
145	0x39b72017	0.0003492839
146	0x3dbc97a5	0.092086114
147	0x3d84c4d1	0.06482852
148	0xbbf5fe6d	-0.0075071366
149	0x3d9a1b08	0.07524687
150	0x3dd10738	0.10206455
151	0xbd94cf9f	-0.07266163
152	0xbdd516ea	-0.10404761
153	0xbdbe05df	-0.092784636
154	0xbdc54bd2	-0.09633602
155	0xbd0cdc96	-0.034390055
156	0xbc74f5c9	-0.014951178
157	0x3da12799	0.07868881
158	0x3daa552c	0.083170265
159	0x3d035cec	0.03207104
160	0xbdb08608	-0.086193144
161	0x3d39edf8	0.04539296
162	0x3dd6d21c	0.10489294
163	0x3e0450c1	0.1292143
164	0xbd10c25a	-0.035341598
165	0xbd0c898f	-0.034310874
166	0x3d972883	0.07380774
167	0xbd96ba01	-0.07359696
168	0x3da5ac12	0.080894604
169	0xbd638ea7	-0.055555966
170	0xbb8c4862	-0.0042810896
171	0x3daf2369	0.08551676
172	0x3dea918c	0.11453542
173	0xbd0ebac9	-0.0348461
174	0xbdd89ab2	-0.10576381
175	0x3c396bc6	0.011317199
176	0x3d7f44c4	0.06232144
177	0x3c4d548e	0.012532366
178	0x3d9eb5b8	0.07749504
179	0x3cacb2c1	0.02108133
180	0xbc2c4aab	-0.010515849
181	0x3dead2ba	0.11465974
182	0x3cab0d2f	0.02088031
183	0xbd74f8e1	-0.059807662
184	0x3d051b2c	0.032496616
185	0xbacab21c	-0.0015464458
186	0x3d8ab56c	0.06772885
187	0x3cb258a4	0.021770783
188	0xbd3ecd62	-0.046582587
189	0x3cdb84bb	0.02679669
190	0xbdccba8d	-0.09996519
191	0x3df4cec3	0.11953499
192	0x3dfaf449	0.12253625
193	0xbc05c880	-0.008165479
194	0xbd5deb08	-0.05417922
195	0x3ddd01bc	0.107913464
196	0x3dcb21f2	0.09918584
197	0x3de33dbb	0.110957585
198	0x3ce156e4	0.027507253
199	0x3dd1313f	0.10214471
200	0xbdd8e466	-0.105904385
201	0x3e0d8a1a	0.13822213
202	0xbd5ddc80	-0.054165363
203	0xbd1eb847	-0.03874996
204	0x3dce4116	0.10071008
205	0x3d30018f	0.042970236
206	0x3cbddd5b	0.02317684
207	0x3d1c275c	0.038123474
208	0x3d6f1457	0.058369007
209	0x3cd6cc37	0.026220424
210	0xbddbcff9	-0.10733027
211	0xbda5e230	-0.080997825
212	0x3d83303c	0.06405684
213	0xbc241b1c	-0.010016229
214	0x3d8412e0	0.064489126
215	0xbbbf4309	-0.0058368486
216	0xbd22ea9d	-0.039774526
217	0x3d3f5f65	0.046721835
218	0xbde69ef9	-0.112607904
219	0xbdfcbc56	-0.1234061
220	0x3c2c785c	0.010526743
221	0xbd051a66	-0.03249588
222	0xbddcd6de	-0.1078317
223	0x3ddcbdb0	0.107783675
224	0xbd8e3f14	-0.06945625
225	0xbd87032c	-0.06592402
226	0xbdc67acb	-0.0969139
227	0xbd00ac93	-0.03141458
228	0xbd6733f4	-0.05644603
229	0xbc5d529b	-0.013508464
230	0x3d9ebf99	0.07751388
231	0x3cf83541	0.030298831
232	0x3ce2b59f	0.027674494
233	0x3d06c4ce	0.03290253
234	0xbdb727fe	-0.08943175
235	0xbd82e360	-0.063910246
236	0x3dd7962a	0.105266884
237	0xbcd3733f	-0.02581179
238	0xbd8c780c	-0.068588346
239	0x3e06e39c	0.13172764
240	0x3ccec84b	0.025241992
241	0xbd2a43ac	-0.041568443
242	0x3d0163d7	0.031589355
243	0x3d0236d5	0.031790573
244	0xbc528d23	-0.012851032
245	0x3d33c455	0.04388841
246	0x3cd3d7a8	0.025859669
247	0x3dea0a5c	0.11427757
248	0xbd06d3df	-0.0329169
249	0x3de94e70	0.11391914
250	0xbd653830	-0.055961788
251	0xbca05650	-0.019572407
252	0xbd0d3332	-0.03447265
253	0xbd1985ec	-0.037481233
254	0xbdde8abf	-0.108663075
255	0x3dfde8d3	0.12397923

policyHead.6.bias f4 [26]
0	0xbcb0dac1	-0.021588685
1	0xbba84cb8	-0.0051360987
2	0xbda0d177	-0.07852452
3	0xbd763874	-0.06011243
4	0x3ccde43b	0.025133243
5	0x3de1611d	0.11004851
6	0xbda6665e	-0.08124994
7	0xbd4566f2	-0.04819388
8	0xbd392e8b	-0.045210402
9	0xbd921ddb	-0.07134601
10	0x3cccd2ca	0.025002856
11	0x3d144301	0.036196712
12	0xbc31334c	-0.010815453
13	0x3dcdf8c3	0.10057213
14	0xbd7330a1	-0.059372548
15	0x3d3898ad	0.045067478
16	0xbcd1864c	-0.025576733
17	0xbbe35cb5	-0.006938542
18	0xbe0a962a	-0.13533846
19	0x3dd02a15	0.101642765
20	0xbd8b8be5	-0.06813792
21	0x3da78ff7	0.08181756
22	0xbd0e103e	-0.03468346
23	0xbd36bed0	-0.044615567
24	0x3cbc4f30	0.022986978
25	0xbd47738e	-0.048694186

valueHead.0.weight f4 [64, 50]
0	0x3d8cad3c	0.06868979
1	0xbdb7f54d	-0.08982334
2	0xbd82334c	-0.0635744
3	0x3df4ab46	0.1194673
4	0x3c2ffa3b	0.010740812
5	0xbccb0ccd	-0.024786377
6	0xbd361cc7	-0.044461038
7	0xbd601f70	-0.05471748
8	0x3d37bec2	0.044859655
9	0xbdc4b922	-0.09605624
10	0xbd61d8bb	-0.05513833
11	0xbd85ce87	-0.065335326
12	0xbd5b24b2	-0.053501792
13	0x3d963b7a	0.07335563
14	0xbdc4a93f	-0.09602594
15	0x3e09b060	0.13446188
16	0x3c850df9	0.016242014
17	0xbd80a41b	-0.06281301
18	0x3d66a940	0.056313753
19	0xbd2719e8	-0.04079619
20	0x3e064b50	0.13114667
21	0x3cbaec25	0.02281768
22	0xbd37275e	-0.044715278
23	0xbdae5b27	-0.0851348
24	0x3d982cf6	0.074304506
25	0x399ff4d7	0.00030509263
26	0xbdf44c8f	-0.11928665
27	0xbd875b6a	-0.06609233
28	0x3de0fc18	0.10985583
29	0x3d8cd53d	0.068766095
30	0x3dbb8537	0.09156268
31	0xbdfb8109	-0.12280471
32	0x3df77530	0.120828986
33	0x3d8ad1d8	0.06778306
34	0xbd9e58d9	-0.0773179
35	0xbe0a1f0c	-0.13488406
36	0x3ddea5ea	0.10871489
37	0x3dff6c79	0.124718614
38	0x3e054a90	0.13016725
39	0xbdf72357	-0.120672874
40	0xbdd6d81f	-0.104904406
41	0x3e0be268	0.13660586
42	0x3ae05457	0.0017114979
43	0xbd399795	-0.045310576
44	0x3da1a0b1	0.078919776
45	0xbde33d28	-0.11095649
46	0xbd8f4b4e	-0.06996785
47	0xbd1fdf6c	-0.03903143
48	0xbc6521b6	-0.013985088
49	0x3da99891	0.08281053
50	0xbd9712f8	-0.07376665
51	0x3db2495b	0.08705398
52	0x3d1d1c15	0.03835686
53	0xbbe594e3	-0.007006274
54	0xbdd480c6	-0.10376124
55	0x3e0c0e86	0.13677415
56	0xbd775ff0	-0.060394228
57	0x3dbe2d40	0.092859745
58	0xbdfc8768	-0.12330514
59	0xbcf080e6	-0.029358339
60	0x3df4b4bb	0.11948534
61	0xbde5767a	-0.11204238
62	0xbdc93073	-0.09823694
63	0xbcbe6814	-0.023242988
64	0xbca006ce	-0.019534495
65	0xbddb797d	-0.107165314
66	0x3e0a9d5a	0.13536587
67	0xbde6602c	-0.11248812
68	0xbd8a8aec	-0.067647785
69	0xbcc56194	-0.02409438
70	0xbcf03f3b	-0.029327026
71	0xbc9ae53e	-0.01890814
72	0xbddf50f1	-0.1090411
73	0xbd46c64e	-0.04852896
74	0x3df0bb84	0.11754516
75	0xbcc500fb	-0.02404832
76	0x3df2662c	0.11835894
77	0xbdeae6d9	-0.11469812
78	0xbdb271f7	-0.08713143
79	0x3d7f68a6	0.06235566
80	0xbdd786c4	-0.105237514
81	0xbcb23f71	-0.021758767
82	0x3d170450	0.036869347
83	0x3dd92b0b	0.10603913
84	0xbd126ded	-0.035749365
85	0x3dd88c43	0.10573628
86	0x3d771d98	0.060330957
87	0x3e0e6dc4	0.1390906
88	0x3e01e49b	0.12684862
89	0x3d9bd122	0.07608248
90	0x3d2b0ed1	0.041762177
91	0xbcb2d8f8	-0.021831974
92	0xbb3a7d38	-0.0028455984
93	0x3d40cbe1	0.047069434
94	0xbd2e86cb	-0.042609017
95	0x3da11a2d	0.07866321
96	0x3e08ab6d	0.13346644
97	0x3e0a9620	0.1353383
98	0xbd8f7157	-0.0700404
99	0xbdadd4d6	-0.08487861
100	0xbe0e5873	-0.13900928
101	0x3e04368f	0.12911437
102	0x3dac4fc7	0.08413654
103	0x3dac1748	0.08402878
104	0x3dc7f04a	0.097626284
105	0xbe06af8b	-0.13152902
106	0xbde84059	-0.11340398
107	0xbddd472f	-0.10804593
108	0xbd3fc01a	-0.04681406
109	0x3d844a28	0.06459457
110	0x3dd4810b	0.103761755
111	0xbc07c8a8	-0.008287586
112	0xbe0f6067	-0.14001618
113	0x3dec21de	0.11529897
114	0xbda7a064	-0.08184889
115	0x3da7abde	0.08187078
116	0xbd6a74bf	-0.057240244
117	0x3cde341e	0.02712446
118	0x3b9cfa84	0.004790606
119	0x3e0016a9	0.12508644
120	0xbdf31e47	-0.11871009
121	0x3dda1bb3	0.106498145
122	0xbdf1c2c7	-0.11804729
123	0x3da0fd63	0.0786083
124	0x3e0be137	0.13660131
125	0x3cb0934a	0.021554608
126	0x3e0c12e4	0.13679081
127	0x3b5d8171	0.0033799077
128	0xbdb37707	-0.08762937
129	0x3c36a461	0.011147589
130	0xbc702dfa	-0.014659399
131	0x3dbff159	0.09372205
132	0x3de6656d	0.11249814
133	0xbd253ffe	-0.04034423
134	0x3d1aab30	0.037760913
135	0xbdfb116e	-0.12259184
136	0xbd8dcfa4	-0.0692437
137	0x3dde92ab	0.108678184
138	0x3e0343bf	0.12818812
139	0x3deaefcd	0.114715196
140	0x3d7f948f	0.062397536
141	0xbcdbbfaf	-0.0268248
142	0x3d510f32	0.051039882
143	0xbdf60b76	-0.12013905
144	0x3de3b4bd	0.111184575
145	0x3d8ca362	0.068671
146	0x3de27d5e	0.11059068
147	0xbde8c277	-0.11365216
148	0xbd818aa7	-0.06325274
149	0xbdd97029	-0.10617096
150	0xbc813358	-0.015771553
151	0xbdad6851	-0.084671624
152	0xbda7d645	-0.081951655
153	0x3e0e0d0e	0.13872167
154	0x3ba54f57	0.0050448584
155	0xbd777245	-0.06041171
156	0xbd8935e6	-0.066997334
157	0x3d824112	0.063600674
158	0xbd4156c7	-0.047201898
159	0xbd8109a3	-0.06300666
160	0xbcc54d2c	-0.02408465
161	0x3a4c6be0	0.0007798057
162	0x3d190d37	0.03736612
163	0x3e053995	0.13010247
164	0xbd05a28e	-0.032625727
165	0xbd08b465	-0.033375163
166	0xbe0cc640	-0.13747501
167	0x3e05476b	0.13015525
168	0x3df236bd	0.11826847
169	0xbd9e25bd	-0.07722042
170	0x3d8eb726	0.069685265
171	0x3dd11069	0.10208208
172	0x3dcc05ad	0.0996202
173	0xbcef1e6a	-0.029189307
174	0x3d348d4b	0.04408006
175	0x3e09165f	0.1338744
176	0xbd10a3ca	-0.03531245
177	0xbccb6dfe	-0.024832722
178	0xbe0b4032	-0.13598707
179	0x3d72d11b	0.05928145
180	0xbdeea527	-0.11652594
181	0xbd6d0e98	-0.057875246
182	0xbdb880a9	-0.09008915
183	0x3dcd455d	0.100229956
184	0x3dbebc07	0.09313207
185	0x3e0d8542	0.13820365
186	0x3d055215	0.032548983
187	0xbe09b366	-0.13447341
188	0x3d443723	0.047904145
189	0x3d84156f	0.06449401
190	0xbded85ec	-0.11597809
191	0x3ccf7fab	0.025329432
192	0x3ca4e379	0.020127999
193	0xbd940027	-0.072265916
194	0xbd751f6f	-0.05984443
195	0xbb7bd3f8	-0.0038425904
196	0xbdf559a5	-0.11979989
197	0x3d247e3c	0.04015945
198	0xbe047112	-0.12933758
199	0x3e0b0936	0.13577732
200	0x3d926c6e	0.071495876
201	0xba779047	-0.0009443801
202	0xbd1f1195	-0.038835127
203	0x3dc138a9	0.09434635
204	0x3d964cf5	0.07338897
205	0xbd690422	-0.056888707
206	0x3d609673	0.05483098
207	0xbcdfecd5	-0.02733461
208	0xbe107833	-0.14108352
209	0x3c72ffcf	0.014831497
210	0x3d937bcd	0.072013475
211	0xbdc035da	-0.09385271
212	0xbd8c67f3	-0.06855764
213	0x3d27e2e4	0.040987864
214	0xbdb83945	-0.08995298
215	0x3d0e1e26	0.03469672
216	0x3df5feb3	0.12011471
217	0xbdcfe82b	-0.101517044
218	0xbc50e1e6	-0.012749171
219	0x3d9ad2b1	0.075597174
220	0xbda080f6	-0.07837097
221	0xbdf0cc06	-0.117576644
222	0x3d12a0ed	0.035798002
223	0x3e0d5527	0.13802014
224	0x3d80e2a1	0.06293226
225	0x3c73fe7e	0.014892219
226	0x3e057e3a	0.13036433
227	0x3c0a97dd	0.008459059
228	0xbd148e53	-0.036268543
229	0xbdb8fffe	-0.09033202
230	0xbdab4436	-0.083626196
231	0xbd8f3a95	-0.069935955
232	0x3d605c98	0.054775804
233	0xbd7f2200	-0.062288284
234	0x3db36a8c	0.087605566
235	0xbddb95a9	-0.10721905
236	0x3dd6e3c7	0.10492664
237	0x3d00b9c1	0.03142715
238	0xbc0ae51d	-0.008477476
239	0x3d78cacf	0.06074029
240	0xbd68750f	-0.05675226
241	0x3d0bd2e1	0.034136657
242	0xbdeb94ba	-0.11502977
243	0x3d9c1dd0	0.07622874
244	0x3dbcbe47	0.0921598
245	0xbdea3fa0	-0.11437917
246	0x3d45f182	0.048326023
247	0xbe08fbec	-0.1337735
248	0xbe0330d3	-0.12811594
249	0xbddba770	-0.107252955
250	0x3c4fea7a	0.012690181
251	0xbe0b07a0	-0.13577127
252	0xbde67297	-0.11252325
253	0x3c631b29	0.013861456
254	0x3d072dc6	0.033002637
255	0x3dc23a6d	0.094838

valueHead.0.bias f4 [64]
0	0x3cabf7fb	0.02099227
1	0x3d0f7490	0.035023272
2	0x3cabbce6	0.020964097
3	0x3d51dabc	0.051233992
4	0x3bd1f853	0.0064077764
5	0xbd3d5db8	-0.046231955
6	0x3dbc9cd1	0.09209598
7	0x3c113b0c	0.0088641755
8	0xbd83ecdd	-0.064416625
9	0x3d3798c9	0.04482344
10	0xbdba6354	-0.091009766
11	0xbdcaafc9	-0.098968096
12	0x3dd11613	0.102092884
13	0xbc31810c	-0.01083399
14	0xbdea6e42	-0.11446811
15	0x3dd87783	0.1056967
16	0x3de6ef17	0.112760715
17	0x3cc8835a	0.024476696
18	0xbd88a758	-0.06672543
19	0x3d8d43fa	0.06897731
20	0x3d1df794	0.038566187
21	0xbd67b392	-0.056567736
22	0x3d7771b2	0.060411163
23	0xbbcb1ac8	-0.006198261
24	0xbdd72c7b	-0.10506531
25	0xbbab1e4c	-0.0052221175
26	0x3d0ae915	0.03391369
27	0x3d119ed8	0.035551876
28	0x3dc1ad6a	0.09456904
29	0x3d97f8f9	0.07420535
30	0xbcda52e5	-0.026650855
31	0x3de0012d	0.10937724
32	0x3d9bc370	0.07605636
33	0x3dbb8846	0.091568515
34	0xbd266183	-0.04062034
35	0xbbb98afd	-0.0056623206
36	0x3dade31f	0.084905855
37	0xbdab7694	-0.08372226
38	0x3da6281f	0.08113121
39	0x3d3ac7ac	0.04560058
40	0xbdcdc03d	-0.10046432
41	0x3c5e32f6	0.013561955
42	0xbc55cc59	-0.013049209
43	0xbdd810fb	-0.10550114
44	0x3dca5364	0.09879187
45	0xbd20542c	-0.039142773
46	0xb88b0297	-6.628519e-05
47	0x3db5b0b8	0.08871597
48	0x3da61c63	0.08110883
49	0xbbf9ac7b	-0.007619438
50	0x3db94a40	0.09047365
51	0x3c78d6df	0.015187948
52	0x3e14c4b7	0.14528166
53	0xbd606ed0	-0.05479318
54	0xbb8df09b	-0.004331661
55	0x3dc17f98	0.09448165
56	0xbdb8914d	-0.09012089
57	0x3dc53731	0.096296676
58	0x3d415715	0.04720219
59	0xbdbeef4e	-0.093229875
60	0x3df8eb49	0.12154252
61	0x3c32e741	0.010919393
62	0xbc0e4772	-0.008684026
63	0x3cb68dc9	0.022284405

valueHead.1.weight f4 [64]
0	0x3f80763c	1.0036082
1	0x3f801a24	1.0007977
2	0x3f7d6e3a	0.9899632
3	0x3f806790	1.0031605
4	0x3f8048d2	1.0022223
5	0x3f7f025a	0.99612963
6	0x3f7f4092	0.997079
7	0x3f7f2d43	0.9967844
8	0x3f7ee054	0.9956105
9	0x3f8174fa	1.0113823
10	0x3f7e06cf	0.9922914
11	0x3f7e5b7a	0.9935833
12	0x3f816e96	1.0111873
13	0x3f806c8e	1.0033128
14	0x3f817705	1.0114447
15	0x3f7e5d30	0.9936094
16	0x3f80b052	1.0053809
17	0x3f7f0059	0.99609905
18	0x3f7fbe39	0.9989963
19	0x3f7b45b5	0.9815324
20	0x3f7ed639	0.9954563
21	0x3f7b9392	0.9827205
22	0x3f7df6b5	0.9920457
23	0x3f7c265e	0.98496044
24	0x3f8010d1	1.0005132
25	0x3f7ee0b8	0.99561644
26	0x3f800a34	1.0003114
27	0x3f80d426	1.0064743
28	0x3f8300da	1.0234635
29	0x3f81584c	1.0105071
30	0x3f7dceb2	0.99143517
31	0x3f7f3af4	0.9969933
32	0x3f7eeff2	0.9958488
33	0x3f80eeb0	1.0072842
34	0x3f7eef47	0.9958386
35	0x3f81c3c6	1.013787
36	0x3f819c94	1.0125909
37	0x3f7f2ed4	0.9968083
38	0x3f8100d7	1.0078381
39	0x3f818a1c	1.0120273
40	0x3f81fb1d	1.0154759
41	0x3f817b94	1.0115838
42	0x3f7e0875	0.99231654
43	0x3f80b6f8	1.0055838
44	0x3f80a214	1.0049462
45	0x3f7d89d7	0.9903845
46	0x3f80b74f	1.0055941
47	0x3f80c26e	1.0059335
48	0x3f7f158f	0.9964227
49	0x3f802ad0	1.0013065
50	0x3f7feecd	0.99973756
51	0x3f7d7ff5	0.9902337
52	0x3f806078	1.002944
53	0x3f823974	1.0173783
54	0x3f7f8f80	0.9982834
55	0x3f7d5ae7	0.9896683
56	0x3f811863	1.0085567
57	0x3f7f1fec	0.99658084
58	0x3f7f97b6	0.9984087
59	0x3f81d7ed	1.014402
60	0x3f7cfce4	0.9882338
61	0x3f7f2715	0.9966901
62	0x3f807921	1.0036966
63	0x3f7f77cf	0.9979219

valueHead.1.bias f4 [64]
0	0xbb3a70d3	-0.0028448596
1	0x3be9e22d	0.007137558
2	0xbc1a8afd	-0.009432551
3	0x3c0e8199	0.008697891
4	0x3b025566	0.0019887327
5	0x3a948761	0.001133185
6	0xbc102e48	-0.008800097
7	0x37d6d180	2.5608344e-05
8	0xba9110e4	-0.0011067656
9	0x3c57d5aa	0.0131735
10	0xbb286fc8	-0.0025701392
11	0xbaeec3ca	-0.0018216309
12	0x3be730cb	0.007055377
13	0x3b6b1be2	0.0035874774
14	0x3b7f058d	0.003891322
15	0x3b3885f5	0.0028156016
16	0x3bad6adf	0.005292281
17	0x3b980859	0.004639667
18	0x3b06c934	0.0020566704
19	0xbc6fb8ac	-0.014631432
20	0xbb4556c8	-0.003011154
21	0xbc03e893	-0.0080510555
22	0xbbf19cba	-0.0073734196
23	0xbc1e344c	-0.009656023
24	0x3b9ce64c	0.0047881957
25	0xba7c0b0c	-0.0009614683
26	0x3b564aaf	0.0032698323
27	0x3bb5eaf1	0.005551689
28	0x3cc74be9	0.024328189
29	0x3c77b94e	0.015119864
30	0xbc14145a	-0.009038055
31	0xbb054923	-0.0020337782
32	0xbbbebf82	-0.0058211694
33	0x3b0eb9ea	0.0021778294
34	0x3b692cac	0.0035579605
35	0x3c814ed9	0.015784668
36	0x3c9786ce	0.018496897
37	0xba196d48	-0.0005852771
38	0x3bf1aa56	0.007375042
39	0x3c1f832c	0.009735864
40	0x3c563041	0.013073028
41	0x3c51d5ff	0.012807368
42	0xbc020835	-0.007936527
43	0x3c1b6321	0.009484083
44	0x3c1a6063	0.009422394
45	0x3aa2c35e	0.0012417843
46	0x3b9e88ca	0.004838084
47	0x3c7bdfa0	0.015373141
48	0xbb9435f0	-0.0045230314
49	0xbb48e2d0	-0.003065277
50	0x3c55adfd	0.01304197
51	0xbb979cfa	-0.0046268674
52	0x3ba555fc	0.0050456505
53	0x3c77f1a2	0.015133293
54	0x3b96d8e3	0.0046034916
55	0xbbe73833	-0.00705626
56	0x3b8e358e	0.0043398803
57	0xbbd70cfb	-0.0065628267
58	0xbb35c316	-0.0027734688
59	0x3c2f4259	0.010696971
60	0xbc4a2de6	-0.012340045
61	0x3c1bfca9	0.009520688
62	0x3bbc7e8e	0.005752391
63	0x3b18bf16	0.0023307255
