Yahtzee/ModelsNN3/version_3_model_1.pt (torch, 96842 bytes, 19 tensors)

policyHead.0.weight f4 [128, 50]
0	0xbd95aa6a	-0.073078945
1	0xbdfacb10	-0.12245762
2	0xbd85ddfb	-0.0653648
3	0xbd9b5039	-0.07583661
4	0xbe2aca99	-0.16678847
5	0xbd804f62	-0.06265141
6	0x3d904ecf	0.070462815
7	0x3df2e6ea	0.118604496
8	0x3e10aa78	0.14127529
9	0x3ccb908f	0.024849204
10	0xbdaaa020	-0.08331323
11	0xbd5867e6	-0.05283346
12	0x3d8f8cec	0.070093006
13	0x3de9ab92	0.114096776
14	0x3dae1807	0.085006766
15	0xbdf46ebd	-0.11935184
16	0x3d92274f	0.07136404
17	0x3dc28d1b	0.0949957
18	0xbbcfcbc6	-0.0063414304
19	0x3e067bbb	0.13133137
20	0x3e0c8e5c	0.13726181
21	0xbd4aec39	-0.049541686
22	0xbae34c1a	-0.0017341406
23	0xbcf486ca	-0.029849429
24	0xbdb84aae	-0.08998619
25	0x3c500918	0.012697481
26	0x3d9c7b80	0.07640743
27	0x3e04bb77	0.12962137
28	0xbcbd284d	-0.023090506
29	0x3db4e249	0.08832223
30	0x3df25b19	0.11833782
31	0xbdf29aad	-0.11845908
32	0xbe412b4c	-0.18864173
33	0xbd1c7e65	-0.038206477
34	0x3daf2f67	0.08553963
35	0xbd4bc6f6	-0.04975029
36	0xbd573fda	-0.052551128
37	0xbe089971	-0.13339783
38	0xbdb4d5eb	-0.08829864
39	0xbd1a4507	-0.037663486
40	0x3df7cf78	0.121001184
41	0xbd963f17	-0.07336252
42	0x3d7ed762	0.062217124
43	0x3e39955c	0.18123382
44	0xbc50b14a	-0.0127375815
45	0xbcebd2d7	-0.02878706
46	0xbd6c97a9	-0.057761822
47	0x3ddb43fd	0.10706327
48	0xbdd27ecd	-0.102780916
49	0x3b617907	0.0034404413
50	0xbdb4e3d1	-0.08832515
51	0x3d086f08	0.033309013
52	0xbe37fdce	-0.17967913
53	0x3d4bd18f	0.049760398
54	0x3d32c981	0.0436492
55	0x3d9e2275	0.07721416
56	0xbde3d54b	-0.11124667
57	0xbde7805d	-0.1130378
58	0x3d589f87	0.052886512
59	0x3dc349f5	0.095355906
60	0xbe0b1c37	-0.13584982
61	0x3e021db2	0.1270664
62	0xbdb9873d	-0.09058998
63	0x3db9feb1	0.09081782
64	0xbd950bb9	-0.072776265
65	0xbd976ebc	-0.07394168
66	0x3df3b232	0.118992224
67	0x3a8dbe02	0.0010814073
68	0xbd9959e4	-0.074878484
69	0x3a84a4f0	0.0010119956
70	0xbdfc41b7	-0.123172216
71	0x3d27e6f4	0.04099174
72	0x3d2726ba	0.040808417
73	0xbc439bc0	-0.011938989
74	0x3d901991	0.070361264
75	0x3de499c5	0.11162142
76	0x3d2b7321	0.041857842
77	0xbd932754	-0.071852356
78	0xbbcf4d13	-0.0063263266
79	0x3e081bb2	0.13291815
80	0xbe03e46e	-0.12880108
81	0x3dd8794c	0.105700105
82	0x3d168c75	0.036755044
83	0x3c176fdc	0.009242978
84	0x3d833dac	0.06408247
85	0x3d1a1fe8	0.037628084
86	0xbdca7b64	-0.09886816
87	0x3dd9efc6	0.10641436
88	0x3d2a99aa	0.04165045
89	0xbe07855a	-0.13234463
90	0xbe17fbac	-0.14842099
91	0xbdc1b45c	-0.09458229
92	0x3d73bc57	0.059505787
93	0x3d7bb172	0.061448522
94	0x3d0bdd15	0.034146387
95	0x3d51d9ab	0.051232975
96	0xbd8c6510	-0.06855214
97	0xbd3a83b9	-0.045535777
98	0xbd69cbf5	-0.057079274
99	0x3d3a747f	0.045521256
100	0xbd191f04	-0.037383094
101	0x3c56b388	0.013104327
102	0xbcb99e69	-0.022658544
103	0x3d7ccefe	0.06172084
104	0x3daecafc	0.0853481
105	0xbce17e6f	-0.027526109
106	0xbd978f1b	-0.07400342
107	0x3dc07aae	0.09398399
108	0xbd936bb3	-0.07198276
109	0x3d7772f1	0.06041235
110	0x3d8a9553	0.067667626
111	0xbe1376bf	-0.14400767
112	0x3d5cda1a	0.053918935
113	0x3dd519f7	0.10405343
114	0x3dc4282d	0.095779754
115	0xbd9461d5	-0.072452225
116	0xbdc06c65	-0.093956746
117	0xbd45d68f	-0.048300322
118	0x3ce69bb0	0.02815041
119	0x3ce6efcc	0.028190516
120	0x3b7ce0c3	0.0038586117
121	0xbd912c80	-0.07088566
122	0xbd414956	-0.04718908
123	0x3dfa29c8	0.122150004
124	0x3dd89aeb	0.10576423
125	0xbd8cdd9c	-0.06878206
126	0xbd9b9bd1	-0.07598079
127	0xbd843007	-0.06454473
128	0xbddc0d02	-0.107446685
129	0xbe087545	-0.13325985
130	0x3e01564b	0.12630574
131	0xbd2bf3b7	-0.04198047
132	0xbdcb52d3	-0.09927907
133	0x3de29b94	0.110648304
134	0x3e0a756b	0.13521354
135	0x3e1c9f42	0.15295127
136	0xbd264d74	-0.04060121
137	0xbd4fe98a	-0.05075983
138	0x3c88fc25	0.016721794
139	0xbdacccf2	-0.08437528
140	0x3bf89384	0.0075859446
141	0xbdeb1171	-0.11477936
142	0x3dcb3d8c	0.099238485
143	0x3d1bfa82	0.0380807
144	0x3da9057e	0.08253001
145	0x3dcff714	0.10154548
146	0x3c18592c	0.009298604
147	0xbd7dbbb9	-0.061946604
148	0xbcf8b4c3	-0.030359631
149	0xbc10e987	-0.00884474
150	0x3dc08890	0.09401047
151	0xbcdc5d10	-0.026899844
152	0x3df509d1	0.11964763
153	0xbd948f1b	-0.07253858
154	0xbe2dde3a	-0.16979304
155	0xbd53b11c	-0.051682577
156	0x3c019bee	0.007910712
157	0x3da7c384	0.081915885
158	0x3e109e2b	0.14122836
159	0x3dea6be3	0.11446359
160	0xbdc914b2	-0.098184004
161	0xbda7c6a1	-0.08192182
162	0x3d25a226	0.04043784
163	0xbe8577d6	-0.2606799
164	0xbd3f0139	-0.046632025
165	0xbdf48a63	-0.11940458
166	0xbe37d742	-0.17953208
167	0xbdb310c8	-0.08743435
168	0x3df6b3af	0.12045991
169	0x3db3410c	0.08752641
170	0x3e075334	0.13215333
171	0x3d868b63	0.06569555
172	0xbdd21da2	-0.10259558
173	0x3d0c3c6f	0.03423732
174	0x3d0d9717	0.03456792
175	0x3c80673d	0.015674228
176	0x3dbba9a4	0.09163216
177	0x3df1feb7	0.11816161
178	0xbe0e3623	-0.13887839
179	0x3d18c3ac	0.037295982
180	0x3dab2b42	0.0835786
181	0xbd7b7296	-0.061388575
182	0x3db348d1	0.08754123
183	0xbd9477ed	-0.072494365
184	0xbe0e0006	-0.13867196
185	0x3e0f1eaf	0.13976549
186	0xbd2d06ed	-0.042242933
187	0xbbc3b82b	-0.0059728823
188	0x3dccc930	0.09999311
189	0xbd831070	-0.063996196
190	0x3df0fe8e	0.117673025
191	0x3c6852cc	0.014179897
192	0xbdc7d0e5	-0.0975664
193	0xbe2ee79a	-0.17080536
194	0xbd9248fb	-0.07142826
195	0xbd14e590	-0.03635174
196	0xbc60060a	-0.013673315
197	0xbcc027b4	-0.023456432
198	0x3964fe35	0.00021838474
199	0xbdee7185	-0.11642746
200	0x3c34bce6	0.011031365
201	0x3db5249f	0.088448755
202	0x3e02eb12	0.12784985
203	0xbd915862	-0.07096936
204	0xbe1e1d78	-0.15440929
205	0xbc0403e3	-0.008057567
206	0x3dc75c05	0.09734348
207	0x3da08a39	0.07838864
208	0x3d8a07b7	0.06739753
209	0x3d2a5672	0.041586347
210	0x3e0aaf52	0.13543442
211	0xbd9302d2	-0.07178272
212	0x3d93e5a8	0.07221538
213	0xbd81f348	-0.0634523
214	0xbdb879c7	-0.09007602
215	0xbd861d21	-0.06548525
216	0xbe11a055	-0.14221318
217	0x3dbd680d	0.09248362
218	0xbd1a1543	-0.037617933
219	0x3cc3248f	0.023821143
220	0xbda1c748	-0.07899338
221	0x3d67a070	0.05654949
222	0x3deaa200	0.1145668
223	0x3e00f472	0.12593248
224	0xbc95aa16	-0.01826958
225	0xbd32047c	-0.043461308
226	0x3d25e9f2	0.04050631
227	0x3e0bbb68	0.13645709
228	0x3c2d397f	0.01057279
229	0xbded0b47	-0.115744166
230	0xbdd99839	-0.10624737
231	0xbdfc2c28	-0.1231311
232	0x3dbbb065	0.09164504
233	0x3daf8af3	0.08571424
234	0x3d3116a7	0.043234494
235	0x3df07642	0.11741306
236	0xbce9fcd4	-0.02856294
237	0xbc98ed0a	-0.018667717
238	0x3d872a61	0.0659988
239	0xbd29c27c	-0.04144524
240	0x3dff6565	0.12470511
241	0xbe20d2e5	-0.1570545
242	0xbddd802e	-0.10815464
243	0xbc962271	-0.01832697
244	0xbd922d58	-0.07137555
245	0x3dcfda53	0.10149064
246	0xbe119bb4	-0.14219552
247	0xbda07d95	-0.07836453
248	0x3dd2b70e	0.10288821
249	0xbddb4301	-0.10706139
250	0x3d5beea3	0.05369438
251	0xbd8665b2	-0.065623656
252	0xbcbd4c9f	-0.023107825
253	0xbdd2d991	-0.10295404
254	0x3d00199e	0.03127443
255	0x3dbf0bae	0.093283996

policyHead.0.bias f4 [128]
0	0xbd35a394	-0.044345453
1	0xbdcabdab	-0.098994575
2	0x3c873e22	0.01650912
3	0xbc67a52a	-0.014138499
4	0xbd71f013	-0.059066843
5	0x3dc36001	0.09539796
6	0x3c85c49a	0.016329098
7	0xbd7b0d6e	-0.061292104
8	0xbe158bca	-0.14604107
9	0x3c8c8ee4	0.01715798
10	0xbd24288b	-0.040077727
11	0x3c6ebe71	0.014571772
12	0xbcea32ef	-0.02858874
13	0x392f452d	0.0001671507
14	0xbd9fdee2	-0.078061834
15	0x3c9fb9a1	0.019497694
16	0xbd8270b0	-0.0636915
17	0x3d9482e6	0.072515294
18	0x3d5b2c3b	0.05350898
19	0x3a97e9a5	0.0011590017
20	0xbe086c6f	-0.13322614
21	0xbda50af3	-0.08058729
22	0xbd91da6b	-0.07121738
23	0xbd824b1d	-0.06361983
24	0xbcc6e36f	-0.02427837
25	0xbdd0a109	-0.10186965
26	0x3df00ca6	0.117211625
27	0x3d319ade	0.043360583
28	0xbc2e1df3	-0.010627258
29	0x3db6a8bb	0.089189015
30	0xbd66eff3	-0.056381177
31	0x3e08ff2d	0.13378592
32	0xbd5d50d7	-0.054032173
33	0xbd8508fe	-0.06495856
34	0x3dff6062	0.124695554
35	0x3bb683fe	0.005569934
36	0xbdcece2a	-0.100979164
37	0x3dc2441c	0.09485647
38	0xbd4b4fef	-0.049636777
39	0x3d67cd06	0.05659201
40	0xbbf61a2a	-0.007510443
41	0xbdd2bb79	-0.10289664
42	0xbc1ffb7f	-0.009764551
43	0x3db43111	0.08798421
44	0xbdd27dd8	-0.10277909
45	0xbd6e8308	-0.05823043
46	0x3d860f52	0.06545891
47	0xbd85904b	-0.06521662
48	0x3d96d3f2	0.07364644
49	0x39e7738a	0.00044145837
50	0xbddbb4e1	-0.10727859
51	0x3caa1306	0.020761024
52	0xbca90bec	-0.020635568
53	0xbc6054a5	-0.013692056
54	0xba204331	-0.0006113528
55	0xbdd28c34	-0.10280648
56	0x3cf4d0b1	0.029884668
57	0xbc6d0ce7	-0.014468408
58	0x3cd8c1bb	0.026459565
59	0x3ddd56c1	0.108075626
60	0xbe1692ef	-0.14704488
61	0xbde10be2	-0.109885946
62	0xbdaf0fa6	-0.085479066
63	0xbce2eb73	-0.027700162
64	0x3e0f5db1	0.14000584
65	0x3dc194f8	0.09452242
66	0x3d9446f5	0.072400965
67	0xbdd0f1b3	-0.102023505
68	0x3d02da29	0.031946335
69	0x3c794fe3	0.0152168
70	0xbdef109c	-0.1167309
71	0x3dd01e95	0.10162083
72	0xbb9c435b	-0.0047687716
73	0xbd768632	-0.060186572
74	0xbd166586	-0.036717914
75	0xbd8341da	-0.064090446
76	0xbdc6e95d	-0.09712479
77	0xbd3b1543	-0.045674574
78	0x3b9ecb8b	0.0048460416
79	0x3dade69f	0.08491253
80	0xbd77df02	-0.06051541
81	0xbd90b2c0	-0.07065344
82	0xbccca68c	-0.02498176
83	0x3c1726b0	0.009225532
84	0xbddf9c4b	-0.109184824
85	0x3d449b42	0.047999628
86	0xbd381ee1	-0.044951323
87	0xbd85cc41	-0.06533099
88	0xbd4241a8	-0.047425896
89	0xbde0433b	-0.10950323
90	0x3dc9564d	0.09830914
91	0x3d86d3ac	0.06583342
92	0xbbc072fb	-0.0058730817
93	0x3e09f66b	0.13472907
94	0x3ca3a5fd	0.01997661
95	0x3e052087	0.1300069
96	0x3dd0e825	0.10200528
97	0xbe03ee65	-0.12883909
98	0xbda4055c	-0.08008835
99	0x3dd1e23b	0.10248228
100	0x3c967ca0	0.018369973
101	0x3d3cac9b	0.046063047
102	0xbd29e7f3	-0.04148097
103	0xbd6604a6	-0.056156777
104	0xbda56789	-0.080763884
105	0xbd025723	-0.03182138
106	0xbc227c6f	-0.009917363
107	0x3cd5f0e3	0.02611584
108	0xbc15cffe	-0.0091438275
109	0x3d9f86be	0.07789372
110	0xbdfaad47	-0.12240081
111	0x3d45cdab	0.048291843
112	0x3d0f9246	0.035051607
113	0xbddb59af	-0.10710465
114	0xbcab0972	-0.020878527
115	0xbd8e3372	-0.06943406
116	0xbdb58464	-0.08863142
117	0x3cac8f29	0.021064358
118	0xbbf2a73a	-0.007405189
119	0x3d302960	0.04300821
120	0x3cbf6d36	0.023367506
121	0x3d3667df	0.044532653
122	0xbddf6295	-0.10907475
123	0xbd25491b	-0.040352922
124	0x3d2b77fd	0.041862477
125	0xbb897eb9	-0.0041960147
126	0x3c8af125	0.01696069
127	0x3dcefcdb	0.10106822

policyHead.1.weight f4 [128]
0	0x3f8199ed	1.01251
1	0x3f7bbbc8	0.98333406
2	0x3f7e4149	0.9931837
3	0x3f844e5f	1.0336417
4	0x3f853df6	1.0409534
5	0x3f7c4581	0.98543555
6	0x3f81424b	1.0098356
7	0x3f81efcd	1.0151306
8	0x3f810810	1.0080585
9	0x3f7dc9a3	0.991358
10	0x3f8a3f5c	1.0800586
11	0x3f79bb5f	0.9755153
12	0x3f89791d	1.0740086
13	0x3f8432d9	1.0328017
14	0x3f82107a	1.0161278
15	0x3f882c24	1.0638471
16	0x3f84bf09	1.0370799
17	0x3f810ba2	1.0081675
18	0x3f7cbdb0	0.9872694
19	0x3f85c2a7	1.0450028
20	0x3f8293f3	1.02014
21	0x3f866dd8	1.0502272
22	0x3f8e8c18	1.1136503
23	0x3f89d69c	1.0768619
24	0x3f7c56a6	0.98569715
25	0x3f79c038	0.9755893
26	0x3f800cba	1.0003884
27	0x3f836d19	1.0267669
28	0x3f7b1263	0.9807493
29	0x3f7e1f54	0.9926655
30	0x3f92b0f0	1.1460247
31	0x3f854e87	1.041459
32	0x3f7a87b5	0.9786332
33	0x3f830647	1.0236291
34	0x3f8214fc	1.0162654
35	0x3f7ff3c2	0.9998132
36	0x3f866edc	1.0502582
37	0x3f811189	1.0083476
38	0x3f7b9eb6	0.9828905
39	0x3f889f80	1.0673676
40	0x3f850bbe	1.0394208
41	0x3f7facaf	0.9987287
42	0x3f7edec0	0.9955864
43	0x3f7ca750	0.986928
44	0x3f83c199	1.0293456
45	0x3f809c2a	1.0047657
46	0x3f76f166	0.96462095
47	0x3f80715c	1.0034595
48	0x3f7e1cfb	0.9926297
49	0x3f7dbf81	0.99120337
50	0x3f8213d9	1.0162307
51	0x3f7beb50	0.98405933
52	0x3f7ac531	0.9795714
53	0x3f80f325	1.0074202
54	0x3f868a5f	1.0510978
55	0x3f80d9b2	1.0066435
56	0x3f839b09	1.0281688
57	0x3f82c378	1.0215902
58	0x3f88847e	1.0665433
59	0x3f8567bc	1.0422282
60	0x3f7897fc	0.9710691
61	0x3f813074	1.0092912
62	0x3f7d1474	0.98859334
63	0x3f7bf890	0.9842615
64	0x3f8019fa	1.0007927
65	0x3f7d07e9	0.98840195
66	0x3f7e857e	0.9942244
67	0x3f796d0b	0.9743201
68	0x3f814c58	1.0101423
69	0x3f821cc5	1.016503
70	0x3f7e807d	0.9941481
71	0x3f7d4bc5	0.9894374
72	0x3f8f4778	1.1193686
73	0x3f7b12d4	0.98075604
74	0x3f8f8ca2	1.1214793
75	0x3f7072d7	0.9392523
76	0x3f85ac00	1.0443115
77	0x3f737fdd	0.9511698
78	0x3f806623	1.003117
79	0x3f8001b4	1.000052
80	0x3f81ee77	1.0150899
81	0x3f80e6f3	1.007048
82	0x3f7bdd14	0.98384213
83	0x3f7d80cd	0.9902466
84	0x3f84fddf	1.0389975
85	0x3f852b49	1.0403835
86	0x3f783c1b	0.96966714
87	0x3f80ae04	1.0053105
88	0x3f7b8408	0.9824834
89	0x3f81a051	1.012705
90	0x3f811e9e	1.0087469
91	0x3f80c18f	1.0059069
92	0x3f7c85ee	0.9864186
93	0x3f86816d	1.0508248
94	0x3f82c64b	1.0216764
95	0x3f84a3ba	1.0362465
96	0x3f820593	1.0157951
97	0x3f81ce6f	1.0141124
98	0x3f8f1a9d	1.1179997
99	0x3f7f0ede	0.9963206
100	0x3f798f13	0.9748394
101	0x3f7da0f1	0.990737
102	0x3f7db2f6	0.991012
103	0x3f889dae	1.067312
104	0x3f8b94d0	1.0904789
105	0x3f82e962	1.0227473
106	0x3f83216b	1.0244573
107	0x3f80ba63	1.0056881
108	0x3f84873f	1.0353774
109	0x3f80db04	1.0066838
110	0x3f787ac4	0.97062325
111	0x3f81104d	1.00831
112	0x3f83083c	1.0236888
113	0x3f850750	1.0392857
114	0x3f7a4891	0.9776698
115	0x3f7b53e0	0.9817486
116	0x3f8a37a6	1.0798233
117	0x3f82d92b	1.0222524
118	0x3f80bcfc	1.0057673
119	0x3f7923a1	0.9731999
120	0x3f7e68a9	0.9937845
121	0x3f7a4562	0.9776212
122	0x3f867f5b	1.0507616
123	0x3f843212	1.032778
124	0x3f7c4146	0.985371
125	0x3f818752	1.0119421
126	0x3f7b9f5a	0.98290026
127	0x3f7edd50	0.99556446

policyHead.1.bias f4 [128]
0	0x3bdcf160	0.0067426413
1	0xbc809794	-0.015697278
2	0x3b29a568	0.0025885943
3	0xbd4c0f5e	-0.049819343
4	0xbcadb4a1	-0.021204295
5	0x3b0bac08	0.0021312255
6	0xbc66cbac	-0.014086645
7	0xbcc2191d	-0.023693616
8	0xbd136915	-0.035988886
9	0xbc6d99b5	-0.014501979
10	0x3b913d12	0.004432329
11	0xbb7f39c3	-0.003894434
12	0x3cf99d45	0.0304705
13	0xbc1ddc6a	-0.00963507
14	0xbbf6722d	-0.007520935
15	0x3b994ff6	0.0046787215
16	0xbc4782d8	-0.012177192
17	0xbcc9dbd2	-0.024640951
18	0xbc584779	-0.013200634
19	0xbc81e9e2	-0.015858594
20	0x3b2f6be2	0.0026767184
21	0xbc683885	-0.014173632
22	0xbc217abe	-0.009855924
23	0x3a8ad5ed	0.0010592319
24	0xbc18ae04	-0.009318832
25	0xbb0fb8d1	-0.0021930228
26	0xbbcd060d	-0.006256825
27	0x3b025603	0.0019887693
28	0xbc0d23a5	-0.008614455
29	0xba1c67bf	-0.0005966387
30	0xbc897763	-0.01678056
31	0xbca24530	-0.019808382
32	0x3bf2efa9	0.0074138236
33	0xbbdeb1e4	-0.0067961086
34	0xbc34a53c	-0.011025723
35	0x3bcaef4b	0.0061930767
36	0xbbac2404	-0.005253317
37	0xbb0d2ec5	-0.002154277
38	0xbb5dd524	-0.0033848966
39	0x3aaae5e3	0.0013038482
40	0x3ca0f033	0.019645786
41	0xbc21c477	-0.009873501
42	0xbc4224fc	-0.011849638
43	0xb91835eb	-0.00014515936
44	0xbcae171a	-0.02125125
45	0x3c4ed3ea	0.012623766
46	0x3b962a59	0.004582685
47	0x3b315a35	0.0027061824
48	0x3aa956fd	0.0012919601
49	0xbd256d3d	-0.04038738
50	0xbbb373a5	-0.0054764324
51	0xbce49c6c	-0.027906619
52	0xbc9ab9d1	-0.018887432
53	0xbc06991c	-0.008215215
54	0xbbd60e71	-0.0065324833
55	0x3ab93bd3	0.0014132209
56	0xbae44c88	-0.0017417828
57	0x3b87bd3c	0.0041424315
58	0x3b91395b	0.004431886
59	0x3b7cc586	0.0038569882
60	0xbd0de957	-0.03464636
61	0xbcb1170a	-0.021617431
62	0xb9defb76	-0.00042530493
63	0xbb8c1b53	-0.0042757182
64	0x3bfc60d2	0.0077019716
65	0x3a970527	0.0011521921
66	0xbc1b1aa2	-0.009466799
67	0x3c3bb366	0.011456346
68	0xbcc3a3f9	-0.0238819
69	0x39a903d1	0.00032237035
70	0xbbbbcc55	-0.0057311454
71	0xbb6f88b7	-0.0036549994
72	0x3d3cc6ac	0.046087906
73	0xbc0c1270	-0.008549318
74	0x3c67fcc9	0.01415939
75	0x38a3649d	7.791186e-05
76	0x3b7ba527	0.0038398
77	0xbb15f6d9	-0.0022882728
78	0xbca37d3f	-0.019957183
79	0x3ba409a3	0.0050060316
80	0x3cb514f3	0.022104716
81	0xbbbffd3a	-0.0058590444
82	0xbc9eee7a	-0.019400824
83	0xbbe5d199	-0.0070135114
84	0x3be2efb1	0.006925546
85	0x3c126cfb	0.008937116
86	0x3aa98171	0.0012932253
87	0xbca7ec3a	-0.020498384
88	0xbca2a688	-0.019854799
89	0xbcb5ad27	-0.022177292
90	0x3b9c61c3	0.0047723963
91	0xbb7c76a0	-0.0038522854
92	0x3b9b6a4c	0.004742896
93	0x3bb4a6ea	0.005513062
94	0xbb222b1b	-0.002474493
95	0x3ab217b7	0.001358739
96	0xbc992591	-0.01869467
97	0xbce08c9c	-0.027410798
98	0x3cf40495	0.029787341
99	0xbcce2e8f	-0.025168685
100	0xbc3ff2c6	-0.011715597
101	0xbc96d099	-0.018410014
102	0xbbbb86d3	-0.0057228594
103	0x3c85ade2	0.016318265
104	0xbc0cfc81	-0.0086051235
105	0xbc4fc604	-0.012681488
106	0xbc14f906	-0.009092575
107	0xbc1ba6d4	-0.009500224
108	0xb9be1846	-0.0003625771
109	0x3bfbfa77	0.00768977
110	0xbc301c67	-0.010748959
111	0xbc223a6c	-0.009901624
112	0x3be2e904	0.0069247503
113	0x3b65b8c3	0.0035052754
114	0xbc753c04	-0.014967922
115	0xbcb2cc17	-0.021825833
116	0x3cabcd8f	0.020972041
117	0xbb195f0b	-0.0023402597
118	0xba201466	-0.0006106555
119	0xbcb05a1c	-0.021527342
120	0xbceef18d	-0.029167915
121	0xbc6136e1	-0.013745994
122	0x3bddae97	0.0067651975
123	0xbc77dff0	-0.015129074
124	0xbc3f8d5c	-0.011691418
125	0x3ba6a703	0.0050858273
126	0xbc6c2d40	-0.014415085
127	0xbb92a8c7	-0.0044756862

policyHead.3.weight f4 [64, 128]
0	0x3d456650	0.048193276
1	0x3d300bd7	0.04298004
2	0xbd8d6b81	-0.0690527
3	0x3c9ffb6d	0.019529069
4	0x3ca8b200	0.02059269
5	0xbe0324b5	-0.12806971
6	0x3d2d8add	0.04236876
7	0x3b7cb41b	0.00385595
8	0xbd7bcf71	-0.06147713
9	0x3db64564	0.08899954
10	0x3cbce587	0.023058666
11	0xbbb65728	-0.005564589
12	0xbdf16f3a	-0.11788793
13	0xbdb42dbf	-0.08797788
14	0x3d53615c	0.05160652
15	0xbcba3dc5	-0.022734532
16	0x3d55a9b3	0.05216379
17	0xbc3fd06c	-0.0117074065
18	0xbda9927f	-0.08279895
19	0xbc9a07a8	-0.018802479
20	0xbde39308	-0.11112028
21	0x3d50e19e	0.050996415
22	0x3c0cd671	0.008596049
23	0xbd350820	-0.0441972
24	0x3d4eafb4	0.050460532
25	0x3d2a997c	0.04165028
26	0xb985bde4	-0.00025509216
27	0x3cc8191c	0.024426036
28	0xbd6aa358	-0.057284683
29	0xbc54076f	-0.012941225
30	0x3d8886af	0.06666314
31	0x3badd663	0.005305098
32	0xbd4ce623	-0.050024163
33	0xbd44fc5c	-0.04809223
34	0xbccd8971	-0.025089951
35	0xbd460181	-0.048341278
36	0xbcbb1fb5	-0.022842268
37	0xbd86fae3	-0.065908216
38	0x3d9e6c01	0.07735444
39	0x3cab1f2f	0.020888893
40	0xbda2fab8	-0.07957977
41	0xbdab3400	-0.083595276
42	0xbd539c0e	-0.051662497
43	0xbbfd1443	-0.0077233627
44	0x3b524ad2	0.0032088053
45	0xbdb12c7c	-0.08651063
46	0xbcbd5253	-0.023110544
47	0xbda665ae	-0.081248626
48	0xbd562c5a	-0.05228839
49	0xbbf894ea	-0.0075861113
50	0xbd7cfcc3	-0.06176449
51	0xbda5f9f4	-0.081043154
52	0x3d40d5ab	0.04707877
53	0x3da4ee16	0.08053224
54	0x3abef509	0.0014568876
55	0xbd8bfc86	-0.068352744
56	0xbcb22884	-0.021747835
57	0x3d127663	0.035757434
58	0xbca6a8cb	-0.020344159
59	0x3cfaf5d7	0.030634804
60	0x3d50eb54	0.051005676
61	0xbd7a474e	-0.061103158
62	0xbc3f9e57	-0.011695466
63	0xbbef8304	-0.0073093195
64	0xbc1a0d4f	-0.009402587
65	0xbce8df07	-0.02842666
66	0xbdb035c7	-0.08604007
67	0xbcaa94a4	-0.02082283
68	0x3dc3d133	0.09561386
69	0xbd9875e0	-0.07444358
70	0x3d51b9be	0.05120253
71	0xbdb7d55c	-0.08976242
72	0x3a7a54a9	0.00095493585
73	0xbd76f87b	-0.060295563
74	0x3cc2a121	0.023758473
75	0x3d94355b	0.07236739
76	0xbdb9d692	-0.09074129
77	0xbbed1797	-0.007235478
78	0xbdcdd400	-0.100502014
79	0x3d0db906	0.03460028
80	0xbd8dc857	-0.069229774
81	0x3b7d53e9	0.003865475
82	0xbd0a5896	-0.03377589
83	0x3c1ce570	0.009576187
84	0xbd387b8c	-0.0450397
85	0xbd19272a	-0.037390865
86	0x3d6f1e65	0.058378596
87	0x3d83ff0d	0.064451315
88	0x3cb25abf	0.021771787
89	0xbd3e5c50	-0.046474755
90	0xbc2a4558	-0.010392509
91	0xbd9f4294	-0.07776371
92	0xbce66985	-0.028126488
93	0xbddf5dcd	-0.10906563
94	0x3dcf3e4b	0.10119303
95	0xbcb70434	-0.022340871
96	0xbd87c821	-0.066299684
97	0x3c8d642e	0.017259683
98	0x3da1ee8d	0.07906828
99	0x3db7d923	0.089769624
100	0x3c7a76da	0.0152871255
101	0xbd84072a	-0.06446679
102	0x3cff9622	0.031199519
103	0x3afb5e85	0.0019177949
104	0xbcc4bf1e	-0.024016913
105	0x3db68725	0.089124955
106	0x3ddaea73	0.10689249
107	0xbcf3719d	-0.029717261
108	0xbaf56aab	-0.0018723806
109	0xbd8e70c5	-0.06955103
110	0xbd0be220	-0.034151196
111	0x3d349c93	0.044094633
112	0x3dde8bf8	0.10866541
113	0xbe568228	-0.20948088
114	0x3d60434b	0.054751676
115	0x3d12c98f	0.035836753
116	0xbda607bf	-0.08106946
117	0xbbb882d4	-0.0056308303
118	0xbcbbc806	-0.022922527
119	0x3c6709a1	0.014101417
120	0xbd894f48	-0.06704575
121	0xbc33cf7a	-0.010974759
122	0x3c41548d	0.011799944
123	0xbc85aa56	-0.016316574
124	0x3cc2045b	0.023683717
125	0xbcfa28f6	-0.03053711
126	0x3c94c78f	0.018161563
127	0xbda1c7dd	-0.07899449
128	0xbc80414f	-0.015656142
129	0xbd4554b4	-0.048176482
130	0x3d0c2055	0.03421052
131	0xbdd9ff8f	-0.10644447
132	0x3cdb1877	0.026745064
133	0x3c37ca27	0.0112176305
134	0xbdc7f50d	-0.097635366
135	0x3d78b804	0.060722366
136	0x3caa6faf	0.020805208
137	0x3cd81a50	0.026379734
138	0xbde43b46	-0.11144118
139	0xbd89d3e7	-0.0672987
140	0x3965d1d2	0.00021917306
141	0x3d81722f	0.06320607
142	0xbd847e55	-0.064694084
143	0xbd4b33c3	-0.04960991
144	0x3de74162	0.11291768
145	0x3cdc8967	0.026920987
146	0x3db08d32	0.08620681
147	0x3d074b6b	0.03303091
148	0xbd09afed	-0.03361504
149	0x3c99b02d	0.018760765
150	0x3cc6ac3f	0.024252055
151	0x3c6a64d1	0.014306263
152	0x3d93d49b	0.07218286
153	0xbd368ec6	-0.044569753
154	0x3d3585e6	0.04431715
155	0x3d2f1a33	0.042749595
156	0x3b3a14ae	0.0028393674
157	0xbc8a67df	-0.016895233
158	0xbcdc9b44	-0.026929505
159	0x3b97d52f	0.0046335678
160	0xbd7a2bb3	-0.06107683
161	0xbcc2874e	-0.023746159
162	0xbd6ed258	-0.05830607
163	0x3dc3e4da	0.09565134
164	0x3d0995c9	0.033590112
165	0x3d2ab344	0.041674867
166	0x3d66d5a2	0.05635608
167	0x3d2e4182	0.042542942
168	0x3bce2e95	0.006292174
169	0xbda67d2f	-0.081293456
170	0x3d3c811a	0.04602156
171	0x3cd565a6	0.026049446
172	0x3d4464a0	0.047947526
173	0xbc8310d7	-0.01599924
174	0x3d8e6a26	0.0695384
175	0xbc25c6b3	-0.010118174
176	0x3d90b241	0.07065249
177	0xbd344a55	-0.0440162
178	0xbdafd635	-0.085857786
179	0x3d4576b5	0.04820891
180	0x3c32bd3c	0.010909375
181	0xbbfa5198	-0.0076391213
182	0xbdc3b1d0	-0.095553994
183	0x3d14e88b	0.036354583
184	0x3da28e2a	0.07937272
185	0x3dc79908	0.09745985
186	0x3d887b03	0.066640876
187	0x3da3b0bb	0.07992693
188	0x3a9bed9a	0.0011896372
189	0xbd6e2db4	-0.058149055
190	0x3cce8647	0.025210513
191	0xbd52a3b4	-0.05142565
192	0xbd27306a	-0.040817656
193	0xbd49620e	-0.049165778
194	0x3cf7d1d5	0.030251423
195	0x3dc01b3a	0.09380193
196	0x3cf6e48f	0.030138282
197	0x3d69a886	0.057045482
198	0x3c341046	0.010990208
199	0xbd992fd3	-0.07479825
200	0xbd9a2ff8	-0.075286806
201	0xbd738954	-0.05945714
202	0x3ce26eae	0.027640667
203	0x3d74c5a0	0.059758782
204	0x3d2c13f3	0.042011213
205	0xbd1bdf43	-0.038054716
206	0x3d01db55	0.031703312
207	0x3db018ae	0.08598457
208	0xbd87555f	-0.0660808
209	0xbd8be71f	-0.06831192
210	0x3beb9580	0.0071894526
211	0xbd6f2f78	-0.05839488
212	0x3bf9f108	0.00762761
213	0x3dff30dc	0.12460491
214	0xbd54a0ec	-0.05191128
215	0xbd87fda2	-0.066401735
216	0x3cc1fa4e	0.023678925
217	0x3c58eae4	0.013239596
218	0x3db90f84	0.090361625
219	0x3ccbe767	0.024890615
220	0xbd077016	-0.033065878
221	0xbd8ffac0	-0.07030249
222	0x3cad5987	0.021160854
223	0xbd803edd	-0.0626199
224	0xbd8a9345	-0.06766371
225	0xbcc4bfcf	-0.024017243
226	0x3d29d73d	0.041465033
227	0x3d5da25a	0.05410991
228	0xbd12f47c	-0.03587769
229	0x3d886958	0.06660718
230	0xbd8d0d72	-0.0688733
231	0xbd063791	-0.032767836
232	0xbd5065af	-0.050878223
233	0x3dcfcb51	0.101462014
234	0xbdcbb91c	-0.09947416
235	0xbce815a1	-0.028330626
236	0x3d6a4d81	0.05720282
237	0x3ce7184d	0.02820983
238	0x3ce5bccf	0.028044133
239	0x3de7562f	0.11295735
240	0x3ccf106b	0.025276383
241	0xbb818a3a	-0.0039532455
242	0xbce36792	-0.027759347
243	0x3bc73fb7	0.0060805934
244	0xbc4d9594	-0.012547869
245	0x3ddb9845	0.107224025
246	0xbd2dbd27	-0.042416718
247	0xbd936bca	-0.071982935
248	0x3bda0994	0.006653974
249	0x3d0e2548	0.034703523
250	0x3d9d8461	0.07691265
251	0x3a620dc5	0.00086232676
252	0x3c8d48bc	0.017246597
253	0x3d81ffcf	0.0634762
254	0x3da76c86	0.08174996
255	0xbcdb587e	-0.026775595

policyHead.3.bias f4 [64]
0	0x3d89083d	0.066910245
1	0x3d7eee08	0.062238723
2	0x3d02171c	0.03176032
3	0x3d13b1ae	0.03605812
4	0xbd729b99	-0.05923042
5	0xbd881be2	-0.06645943
6	0x3d5b2a74	0.053507283
7	0xbb4f303e	-0.0031614448
8	0xba79cb12	-0.0009528856
9	0x3d8e76e2	0.06956269
10	0xbd30fa89	-0.04320768
11	0x3d77578e	0.060386233
12	0x3da7941e	0.08182548
13	0xbdbaa758	-0.091139495
14	0xbade93a7	-0.001698126
15	0xbcfd9c1b	-0.030958226
16	0x3d97d2b2	0.07413234
17	0xbbbe29f4	-0.005803341
18	0xbccb8221	-0.024842324
19	0x3d51f037	0.051254477
20	0x3d98f278	0.07468122
21	0x3d38bd7f	0.045102593
22	0xbdc7df8b	-0.09759434
23	0x3d88fff0	0.06689441
24	0x3ace692a	0.0015747894
25	0x3c89b1b3	0.016808366
26	0xbd08216d	-0.033235002
27	0xbc1da7fa	-0.009622568
28	0x3c1c134c	0.009526085
29	0x3d2db96c	0.04241316
30	0xbac6443d	-0.0015126538
31	0xbdca9a60	-0.09892726
32	0xbdfc4899	-0.123185344
33	0xbd9d923f	-0.0769391
34	0x3b6f66f3	0.0036529868
35	0xbd1414df	-0.036152717
36	0x3d883aa7	0.06651812
37	0x3da7472c	0.08167872
38	0x3b274b77	0.0025527158
39	0xbd0ecd62	-0.034863837
40	0x3da9c5d0	0.08289683
41	0xbdb2b0c2	-0.0872512
42	0x3d8c02bc	0.06836459
43	0xbc24837a	-0.010041112
44	0xbda32699	-0.07966346
45	0x3d88f19b	0.066867076
46	0xbcb575a5	-0.022150824
47	0xbcf91a61	-0.030408086
48	0xbd7ee39c	-0.062228784
49	0x3d4154e8	0.047200114
50	0xbd5b57c9	-0.053550515
51	0x3dadc124	0.08484104
52	0x3da1640d	0.07880411
53	0x3d8e545c	0.06949684
54	0x3d645dd2	0.055753537
55	0x3cad1665	0.021128843
56	0x3d256ba7	0.04038587
57	0xbd5c66e5	-0.053809065
58	0xbdc1dc03	-0.09465792
59	0x3d90ed77	0.07076543
60	0x3d5290aa	0.051407494
61	0xbd941e18	-0.072323024
62	0x3ca0ee64	0.019644924
63	0x3c8a37d4	0.016872324

policyHead.4.weight f4 [64]
0	0x3f85d0c9	1.0454341
1	0x3f77a7c2	0.96740353
2	0x3f7dd7a7	0.99157184
3	0x3f79000e	0.9726571
4	0x3f7891dd	0.9709757
5	0x3f7e22e9	0.9927202
6	0x3f8ba2e0	1.090908
7	0x3f80287e	1.0012357
8	0x3f81b9fd	1.0134884
9	0x3f7ea3bd	0.99468595
10	0x3f8043cd	1.0020691
11	0x3f72bb55	0.94817096
12	0x3f757788	0.95885515
13	0x3f82e642	1.0226519
14	0x3f769454	0.9632008
15	0x3f79c0be	0.97559726
16	0x3f782094	0.9692471
17	0x3f7ceaaa	0.9879557
18	0x3f77a1e0	0.96731377
19	0x3f84f68e	1.0387743
20	0x3f81b8c8	1.0134516
21	0x3f808738	1.0041265
22	0x3f78d189	0.97194725
23	0x3f7a632d	0.9780758
24	0x3f7396a3	0.9515173
25	0x3f7f7120	0.9978199
26	0x3f80fa06	1.0076301
27	0x3f8053d7	1.0025586
28	0x3f7cd584	0.987633
29	0x3f797bbc	0.9745443
30	0x3f78e195	0.9721921
31	0x3f800000	1.0
32	0x3f800000	1.0
33	0x3f822bbe	1.0169599
34	0x3f82bfea	1.0214818
35	0x3f8201a8	1.0156755
36	0x3f8028f0	1.0012493
37	0x3f78660e	0.97030723
38	0x3f7f059e	0.99617946
39	0x3f83bca9	1.029195
40	0x3f79462b	0.9737269
41	0x3f771b70	0.9652624
42	0x3f761bdb	0.96136254
43	0x3f7d705e	0.98999584
44	0x3f85c96e	1.0452096
45	0x3f7c68be	0.98597324
46	0x3f766a15	0.9625562
47	0x3f776ea7	0.9665322
48	0x3f7d51ac	0.98952746
49	0x3f7fbe52	0.9989978
50	0x3f79f276	0.9763559
51	0x3f7e75a3	0.9939825
52	0x3f797d9d	0.97457296
53	0x3f81ed0c	1.0150466
54	0x3f7dfa40	0.99209976
55	0x3f74d6aa	0.9564005
56	0x3f78c45f	0.9717464
57	0x3f782c5f	0.96942705
58	0x3f809ac9	1.0047237
59	0x3f83ad09	1.0287181
60	0x3f79088d	0.9727867
61	0x3f84fc70	1.0389538
62	0x3f7fbb0f	0.99894804
63	0x3f790956	0.9727987

policyHead.4.bias f4 [64]
0	0xbc85d1bf	-0.016335366
1	0xbcb87dad	-0.022520864
2	0xbcbe8be5	-0.023260066
3	0xbc5f14ee	-0.01361583
4	0xbc73f275	-0.014889349
5	0xbb78e8e6	-0.0037980615
6	0xbc3d1601	-0.011540891
7	0xbcaafa56	-0.020871323
8	0xbbb919d4	-0.005648831
9	0xbd11fbd0	-0.035640538
10	0xbc08aaf8	-0.008341543
11	0xbca09cec	-0.019606076
12	0xbcd75845	-0.026287207
13	0xbc9220cc	-0.017837904
14	0xbcb8aa0f	-0.022542028
15	0xbcb23460	-0.02175349
16	0xbcb7b83c	-0.022426717
17	0xbd047e29	-0.03234688
18	0xbc877672	-0.016535971
19	0xbcc0e9c0	-0.02354896
20	0xbd1161cf	-0.03549367
21	0xbc045e82	-0.008079173
22	0xbd33315c	-0.043748245
23	0xbc25b10c	-0.010113012
24	0xbcb145a7	-0.021639658
25	0xbb151db6	-0.0022753305
26	0xbd4b5a27	-0.049646523
27	0xbcfad7ba	-0.030620445
28	0xbc7f0f44	-0.015567604
29	0xbc8801c3	-0.016602403
30	0xbca29aa0	-0.019849122
31	0x00000000	0.0
32	0x00000000	0.0
33	0xbc8a9de0	-0.016920984
34	0xbc5e6c32	-0.0135756
35	0xbcbe9e44	-0.023268826
36	0xbcbdb127	-0.023155762
37	0xbc844c5c	-0.016149692
38	0xbc952b27	-0.018209053
39	0xbc952c17	-0.0182095
40	0xbca4f021	-0.020134034
41	0xbd1f4c4e	-0.03889113
42	0xbcdeb31a	-0.027185012
43	0xbcf1cf2d	-0.029517734
44	0xbcf9cc1a	-0.030492831
45	0xbc98c783	-0.018649822
46	0xbc910939	-0.017704593
47	0xbc79afe9	-0.015239694
48	0xbcb6cb4a	-0.022313733
49	0xbc82f80c	-0.015987419
50	0xbc1260c7	-0.008934206
51	0xbbc55484	-0.006022038
52	0xbca36eec	-0.019950353
53	0xbcaa5178	-0.0207908
54	0xbc929c76	-0.017896872
55	0xbca25ea7	-0.019820524
56	0xbcc3ea72	-0.023915503
57	0xbc523fc6	-0.012832588
58	0x3ba89ac9	0.005145405
59	0xbc36a8f6	-0.011148682
60	0xbc8a5f21	-0.016891064
61	0xbbfa3b2c	-0.0076364484
62	0x38e48729	0.00010897063
63	0xbc2a4e02	-0.010394575

policyHead.6.weight f4 [26, 64]
0	0x3e2129c3	0.15738587
1	0x3dbd324f	0.09238111
2	0x3d6f7b61	0.058467273
3	0x3d55b9cd	0.052179147
4	0x3dc4c72a	0.096083
5	0xbd85d6cc	-0.0653511
6	0xbd7193af	-0.058978733
7	0xbd447730	-0.04796523
8	0xbc9b3dbd	-0.018950338
9	0xbca294b4	-0.019846298
10	0xbd36278b	-0.044471305
11	0x3daf51ea	0.08560546
12	0xbd2012ff	-0.039080616
13	0x3d97c531	0.07410658
14	0xbda1212b	-0.078676544
15	0x3dab8c68	0.0837639
16	0x3bda9601	0.006670714
17	0x3a203a8b	0.0006112239
18	0x3d682b64	0.056682006
19	0x3abf1c8d	0.0014580652
20	0xbd571212	-0.052507468
21	0x3dcc597a	0.09978004
22	0x3ccaf92c	0.024777018
23	0xbdc3f8a3	-0.09568908
24	0x3da5b6ad	0.08091483
25	0xbd1fde3a	-0.03903029
26	0x3e14f3be	0.14546105
27	0xbd617aaa	-0.055048622
28	0x3d83adad	0.064296104
29	0xbdd1a90d	-0.10237322
30	0xbd972edf	-0.07381987
31	0x3d701584	0.05861427
32	0xbd1e9a48	-0.038721353
33	0x3dd24ef3	0.102689646
34	0x3d8e7f02	0.069578186
35	0x3a9390bd	0.0011258345
36	0x3d682a53	0.05668099
37	0x3c967059	0.018364118
38	0xbdbe51a8	-0.092929184
39	0x3ddfe04d	0.10931454
40	0x3d38227d	0.044954766
41	0xbd24c3c8	-0.040225774
42	0xbd1864e4	-0.03720559
43	0xbc31c007	-0.010849006
44	0x3cf8ffb1	0.03039536
45	0xbd995c4e	-0.07488309
46	0x3bf816b0	0.007571064
47	0xbb451fb5	-0.0030078713
48	0xbd584f47	-0.05280998
49	0x3a149820	0.00056684203
50	0xbd841410	-0.06449139
51	0xbd9777e1	-0.07395912
52	0xbd100c1a	-0.03516779
53	0xbd6a3f89	-0.057189498
54	0x3c8f8427	0.01751907
55	0x3d458522	0.04822267
56	0xbe0962a6	-0.13416538
57	0x3d984f92	0.07437052
58	0xbd4a7d7f	-0.04943609
59	0xbd2b842c	-0.041874096
60	0x3d2e684f	0.042579945
61	0x3d86c96d	0.06581388
62	0xbd51bb5b	-0.051204067
63	0x3d5969a4	0.053079262
64	0x3de54be6	0.11196117
65	0xbe086e97	-0.13323437
66	0x3d0215c8	0.031759053
67	0x3ce9fbb3	0.028562402
68	0x3d9f1936	0.077684805
69	0x3d2836a2	0.041067727
70	0x3d2abe0f	0.04168516
71	0x3df93f54	0.12170282
72	0xbd81d9da	-0.0634038
73	0x3d18e114	0.037324026
74	0xbe100164	-0.1406303
75	0x3c955799	0.018230246
76	0xbd478488	-0.048710376
77	0x3d9aea85	0.07564262
78	0x3da61f76	0.081114694
79	0xbd8bc646	-0.06824927
80	0xbdcf342c	-0.10117373
81	0x3d157578	0.03648898
82	0xbdbedd5d	-0.093195654
83	0x3e1c7222	0.15277913
84	0x3dfa291e	0.12214874
85	0xbceb5442	-0.0287267
86	0x3d93e295	0.072209515
87	0xbcd83b62	-0.026395503
88	0x3d918d8b	0.07107075
89	0x3d9c5816	0.076339886
90	0x3c8984eb	0.016787013
91	0xbb585a9f	-0.0033012999
92	0x3dc4ec24	0.09615353
93	0xbd328419	-0.04358301
94	0x3cbd4000	0.023101807
95	0x3d9f094a	0.077654436
96	0xbdf98400	-0.1218338
97	0xbe69f3ba	-0.2284688
98	0x3dc6bd94	0.09704128
99	0x3ceede06	0.029158603
100	0x3d922677	0.07136243
101	0xbd772a78	-0.060343236
102	0xbe23ad6c	-0.15984124
103	0x3d79658d	0.060887862
104	0xbd84aa95	-0.064778484
105	0x3d251c7a	0.04031036
106	0xbd95b32f	-0.07309567
107	0xbd812290	-0.063054204
108	0xbd11ad7e	-0.035565846
109	0x3d112725	0.03543772
110	0x3d0733ea	0.033008493
111	0x3c8f667e	0.017504927
112	0x3d10df05	0.035368938
113	0x3c2fffc2	0.01074213
114	0xbdafab11	-0.0857755
115	0x39662aad	0.00021950407
116	0x3db945ec	0.0904654
117	0x3d2749f5	0.040842015
118	0xbd38668a	-0.045019664
119	0xbd99294e	-0.07478581
120	0xbc4af2ac	-0.012386959
121	0xbc22c1fa	-0.009933943
122	0x3de18518	0.11011714
123	0x3e2f4d49	0.17119326
124	0x3d36dae9	0.044642363
125	0x3d75ae6a	0.059980787
126	0x3dd52207	0.10406881
127	0xbe021a4e	-0.12705347
128	0xb953b187	-0.00020188662
129	0x3c35d335	0.011097719
130	0xbdecb68f	-0.11558258
131	0xbdc8d7c4	-0.09806779
132	0xbd046457	-0.032322254
133	0xbc981105	-0.018562803
134	0x3e17cc52	0.14824036
135	0x3c29f1c2	0.010372581
136	0xbdc7c120	-0.097536325
137	0x3d5942f2	0.05304236
138	0xbd8e7016	-0.069549724
139	0xbdccf79f	-0.100081675
140	0xbd95cbcc	-0.07314262
141	0xbcfcbb30	-0.030850977
142	0x3c21c62b	0.009873907
143	0xbdb34455	-0.08753268
144	0xbc2b5655	-0.010457595
145	0x3d0340a5	0.03204407
146	0x3dc43272	0.09579934
147	0x3dfbd563	0.1229656
148	0xbd9b2320	-0.07575059
149	0xbdf79fe5	-0.12091044
150	0x3bce335b	0.006292743
151	0xbcbb7272	-0.02288172
152	0x3dc1ce18	0.094631374
153	0xb9d52a00	-0.00040657818
154	0xbda591ca	-0.08084448
155	0x3df4191f	0.11918854
156	0x3c467946	0.012113875
157	0xbddfd7ce	-0.10929833
158	0x3dcba96f	0.09944426
159	0x3daa3eb6	0.083127424
160	0x3ce0f4d0	0.027460486
161	0x3dbe0b7a	0.09279533
162	0xbdef3ff9	-0.11682124
163	0x3d46ba57	0.04851755
164	0x3db4afd1	0.08822597
165	0xbdc6835c	-0.096930236
166	0xbe193348	-0.14960968
167	0xbc9674f4	-0.018366314
168	0xbde8ac0d	-0.11360941
169	0x3d389cac	0.04507129
170	0xbd35c11b	-0.044373613
171	0xbdea105b	-0.11428901
172	0xbdd3f5d6	-0.10349624
173	0xbd86cebb	-0.065823995
174	0xbdb793f7	-0.08963769
175	0x3c6ca5f6	0.014443865
176	0x3d512cf2	0.051068254
177	0xbcb11a2a	-0.021618921
178	0x3e019897	0.12655865
179	0xbc814a37	-0.015782459
180	0x3ce32d7a	0.027731646
181	0xbd96a7cf	-0.07356226
182	0x3cad8e83	0.021186119
183	0xbdcc927a	-0.09988876
184	0x3cec7a8c	0.028867029
185	0x3db6a912	0.08918966
186	0x3dbd25cc	0.09235725
187	0xbd5972b8	-0.05308792
188	0x3c5366c0	0.0129029155
189	0x3caa0913	0.02075628
190	0xbda6905c	-0.08133003
191	0xbc917c45	-0.017759452
192	0x3d9976e0	0.07493377
193	0x3d9bb712	0.07603277
194	0x3bafdcf9	0.005366918
195	0xbe0fad27	-0.14030896
196	0x3b5bed78	0.003355829
197	0xbc88a82a	-0.01668175
198	0x3db10fcd	0.08645592
199	0x3d6be123	0.057587754
200	0x3d1653af	0.0367009
201	0xbe0deb75	-0.13859351
202	0xbbab79e3	-0.005233036
203	0x3d17e680	0.037085056
204	0x3d2f355a	0.04277549
205	0xbe08cad6	-0.13358626
206	0x3dffb79e	0.12486194
207	0x3c932767	0.017963124
208	0xbd9df78a	-0.0771323
209	0xbd897ba7	-0.06713038
210	0xbde46c14	-0.11153427
211	0x3d0e6495	0.03476389
212	0xbdf56d22	-0.11983706
213	0xbb246ac7	-0.0025088058
214	0xbd9e927e	-0.07742785
215	0xbdf0f5b1	-0.11765612
216	0x3d0ee1c8	0.03488329
217	0xbdeba825	-0.115066804
218	0xbc0446df	-0.008073538
219	0xbe328cba	-0.17436495
220	0xbd844393	-0.06458201
221	0x3de4b074	0.11166468
222	0x3d060dcc	0.032728
223	0x3d12ebac	0.035869285
224	0x3d04186c	0.032249853
225	0xbe1cd07b	-0.15313904
226	0xbd846cba	-0.064660504
227	0xbd4e1640	-0.050314188
228	0xbd74edb4	-0.059797004
229	0xbb6d1ca4	-0.0036180401
230	0x3dd31cbd	0.10308216
231	0x3bf7eeb5	0.007566298
232	0x3dcd7ac9	0.10033185
233	0xbd23aa63	-0.039957415
234	0xbd5b7d12	-0.053586073
235	0xbd596a07	-0.05307963
236	0xbdc5df61	-0.09661747
237	0xbd292cc4	-0.041302457
238	0xbd5e84e6	-0.05432596
239	0xbc02e98b	-0.007990251
240	0x3dc5bbc7	0.09654956
241	0x3d9781b3	0.07397785
242	0xbb6eac8a	-0.003641876
243	0xbd5cbe41	-0.053892378
244	0xbc994a77	-0.018712265
245	0x3d85436a	0.06506999
246	0x3da2560a	0.07926567
247	0xbdb4bb07	-0.08824735
248	0xbdec9a7b	-0.11552902
249	0x3dd75cbc	0.105157346
250	0x3d8f3556	0.06992595
251	0xbda0a3b2	-0.078437224
252	0x3d2d7056	0.04234346
253	0xbd6f52e8	-0.058428675
254	0x3dadc2f5	0.08484451
255	0xbdfb5aa5	-0.122731484

policyHead.6.bias f4 [26]
0	0x3d056b3d	0.032572974
1	0xbb92b62d	-0.0044772835
2	0xbdd0036a	-0.10156901
3	0x3c87dca3	0.0165847
4	0xbdb495e0	-0.08817649
5	0x3ddce865	0.10786513
6	0xbd052bdf	-0.03251254
7	0xbd82859c	-0.0637314
8	0xbd310ab7	-0.04322311
9	0xbc625b0c	-0.013815653
10	0x3dd3837a	0.103278115
11	0xbd1050e3	-0.03523339
12	0x3d809449	0.06278283
13	0x3da3297c	0.07966897
14	0x3d82736e	0.06369673
15	0xbd566ffc	-0.05235289
16	0x3c52abfc	0.012858387
17	0x3ae6f61e	0.0017620956
18	0x3df55cc8	0.11980587
19	0xbd829fc9	-0.06378133
20	0xbc82ba21	-0.015957894
21	0x3d69afed	0.05705254
22	0x39d30633	0.00040249675
23	0x3dc66808	0.09687811
24	0x3cdda501	0.027056219
25	0x3dc94d54	0.09829202

valueHead.0.weight f4 [64, 50]
0	0xbddea174	-0.108706385
1	0xbd2bbdac	-0.041928932
2	0x3e12f29e	0.14350364
3	0x3e14e8d9	0.1454195
4	0xbcde3612	-0.027125392
5	0x3c414f03	0.011798623
6	0xbdd25832	-0.10270728
7	0xbcbe35b0	-0.02321896
8	0xbdcaef97	-0.099089794
9	0xbd65fac8	-0.056147367
10	0x3de5958f	0.11210167
11	0x3dbf7fcd	0.09350548
12	0xbafcb4b8	-0.0019279933
13	0xbd5fbcbb	-0.054623347
14	0x3c2e67e9	0.010644891
15	0x3dd075ab	0.101786934
16	0xbd9eb125	-0.077486314
17	0x3c26d402	0.010182383
18	0xbd08a118	-0.033356756
19	0xbd11f2c0	-0.035631895
20	0xbda025f9	-0.07819743
21	0x3dc75c2b	0.097343765
22	0xbd9c1385	-0.076209106
23	0x3c4a5490	0.012349263
24	0xbcbe7039	-0.023246871
25	0x3da49f5d	0.08038209
26	0xbcecad43	-0.028891211
27	0x3a26cc33	0.00063628255
28	0xbcaac25e	-0.020844635
29	0xbd4a2add	-0.049357284
30	0x3ddaa085	0.10675148
31	0xbca966e5	-0.020678947
32	0x3cb28306	0.021790992
33	0xbe13d8e6	-0.14438209
34	0x3e0bb5c6	0.1364356
35	0x3ca3ea13	0.020009076
36	0x3e197bab	0.14988582
37	0x3d448ef6	0.0479879
38	0xbd373577	-0.044728722
39	0xbd3bf04f	-0.045883473
40	0x3cacdc8b	0.021101257
41	0x3e0940c9	0.1340362
42	0xbdcd4e74	-0.10024729
43	0x3c64e32c	0.013970178
44	0xbda1833c	-0.07886359
45	0xbdb732f1	-0.08945263
46	0x3da58386	0.08081727
47	0xbca18900	-0.019718647
48	0x3ca404ba	0.020021785
49	0x3d4d9e6b	0.050199907
50	0x3d9237ac	0.07139525
51	0xbd72eb9a	-0.05930672
52	0xbe0bcb40	-0.13651752
53	0x3d0d307b	0.034470063
54	0xba2b6f7c	-0.0006539745
55	0xbd086ace	-0.033304982
56	0xbdcbcd32	-0.09951247
57	0xbdb1aed2	-0.086759225
58	0xbe18a58f	-0.14906906
59	0x3dc9c1a1	0.09851385
60	0x3e065652	0.13118866
61	0x3e14576d	0.14486475
62	0x3e05c8d9	0.13064899
63	0x3dd51f07	0.104063086
64	0xbe23e922	-0.16006902
65	0xbd711597	-0.05885848
66	0x3dd965b3	0.10615101
67	0x3da07a6d	0.07835851
68	0xbdc471ed	-0.09592042
69	0x3ddd74f2	0.10813321
70	0x3cbb15a7	0.022837473
71	0x3a8066da	0.0009796277
72	0x3dabd8d8	0.08390969
73	0xbe042803	-0.12905888
74	0x3d12e60b	0.035863917
75	0x3de50b69	0.11183817
76	0x3e0cc8b9	0.13748445
77	0xbd0d4156	-0.034486137
78	0xbd9452aa	-0.072423294
79	0x3cee45cb	0.029086014
80	0xbdb6ffaf	-0.089354865
81	0x3d1f15df	0.038839217
82	0xbdf1d877	-0.118088655
83	0x3c8587cb	0.016300103
84	0xbca30fd8	-0.019905016
85	0xbc046afa	-0.008082146
86	0xbd261050	-0.0405429
87	0xbd1589b9	-0.036508296
88	0x3d7d51aa	0.06184546
89	0xbc0ec44d	-0.008713794
90	0xbd285149	-0.041093145
91	0x3c7cf968	0.015440322
92	0xbdeab9c0	-0.1146121
93	0xbde0a1f7	-0.10968392
94	0x3dd1d5d8	0.102458656
95	0x3de5c971	0.112200625
96	0xbd8a870c	-0.067640394
97	0xbd94defe	-0.07269095
98	0xbb867053	-0.0041027456
99	0xbc2fecf1	-0.010737644
100	0xbd0192b3	-0.031634044
101	0x3e10d2bc	0.14142889
102	0xbe370f3d	-0.17876907
103	0xbe0a6dde	-0.13518474
104	0xbd2eb842	-0.04265619
105	0x3c6fdea4	0.014640484
106	0x3cc5ac5d	0.02413004
107	0x3d36cc79	0.044628594
108	0x3cf2d3dd	0.02964204
109	0x3e02f307	0.1278802
110	0x3d825841	0.06364489
111	0xbe0c3809	-0.1369325
112	0x3d07d832	0.033165164
113	0x3d7a4e4a	0.06110982
114	0xbe2fe0c9	-0.17175592
115	0xbe0e30d0	-0.13885808
116	0x3d9b22cc	0.07574996
117	0x3e112cd5	0.14177258
118	0xbc23c2d9	-0.009995186
119	0x3e124d2b	0.1428725
120	0x3d8d9575	0.06913272
121	0x3d66fb67	0.0563921
122	0xbe09c6bd	-0.13454719
123	0xbd8c0ab9	-0.06837983
124	0x3dff3fe2	0.124633566
125	0x3d9d23e2	0.0767286
126	0xbde8080a	-0.11329658
127	0xbc8b169c	-0.016978554
128	0x3d2a7bfe	0.041622154
129	0xbd6d6da1	-0.05796588
130	0xbc44fe27	-0.012023485
131	0xbd2e6d24	-0.042584553
132	0xbd2d0ff1	-0.04225153
133	0xbdbb8076	-0.09155361
134	0xba7783ad	-0.00094419235
135	0x3cd29323	0.025704926
136	0x3e1222bf	0.14271067
137	0xbe08fcc1	-0.13377668
138	0xbd9238c3	-0.07139733
139	0x3c9237f0	0.017848939
140	0xbd1a5d44	-0.0376866
141	0x3dfdd3f1	0.1239394
142	0xbdcc5050	-0.09976256
143	0x3d43c355	0.047793705
144	0xbbe8afc4	-0.007101031
145	0xbd81d481	-0.0633936
146	0xbe0e7bca	-0.1391441
147	0xbcd1b231	-0.025597664
148	0xbd85ba2d	-0.06529651
149	0x3b2f2afb	0.00267285
150	0x3b92a429	0.004475136
151	0xbe22b612	-0.15889767
152	0xbe165579	-0.14681043
153	0x3e14c507	0.14528285
154	0x3d25a013	0.04043586
155	0xbe019a46	-0.12656507
156	0xbd80105c	-0.0625312
157	0x3d61814f	0.05505496
158	0xbc81d691	-0.015849384
159	0x3d39f4ce	0.04539948
160	0xbd2622c3	-0.040560495
161	0x3e07e459	0.13270701
162	0xbd06ef5b	-0.03294311
163	0xbd7ee821	-0.062233094
164	0x3dd6556b	0.10465511
165	0xbdb70eda	-0.089383796
166	0x3e04ae9d	0.12957235
167	0x3d6bf6c8	0.057608396
168	0xbdb8f8f5	-0.0903186
169	0x3d91cb41	0.07118846
170	0x3dbab7f1	0.09117115
171	0xbe0e61e9	-0.13904537
172	0xbc7f8a0f	-0.015596881
173	0xbd220c86	-0.039562725
174	0xbd01669c	-0.031591997
175	0xbd568b44	-0.052378908
176	0xbdabec9e	-0.083947405
177	0xbe0a3579	-0.1349696
178	0xbd8ceb0f	-0.06880771
179	0xbc15f2eb	-0.009152154
180	0xbc084f16	-0.008319637
181	0xbdb86668	-0.090039074
182	0x3d8ef6d8	0.069806755
183	0x3c48feaf	0.012267753
184	0x3de7172a	0.11283715
185	0x3d73d303	0.05952741
186	0x3d6cc7f8	0.057807893
187	0x3d858327	0.06519156
188	0x3d9038e6	0.070421025
189	0xbdd0f691	-0.10203279
190	0xbe194bca	-0.14970317
191	0x3d94595e	0.07243608
192	0xbdd024e9	-0.1016329
193	0xbd3701f4	-0.044679597
194	0xbd765c9c	-0.060146913
195	0x3e1edbbd	0.15513511
196	0x3cb5913f	0.022163985
197	0x3ddd5c69	0.108086415
198	0x3d9830c9	0.0743118
199	0x3d2a70c4	0.041611448
200	0x3e0927e1	0.13394119
201	0x3da6ded6	0.08147971
202	0xbdb5ce48	-0.08877236
203	0xbd6ce0a1	-0.05783141
204	0x3d2600fb	0.04052828
205	0xbb8d4d2e	-0.004312179
206	0xbd5de57c	-0.05417393
207	0xbdee31dd	-0.116306044
208	0x3de28053	0.11059632
209	0x3e08bf11	0.13354136
210	0x3c5b49a2	0.013384255
211	0x3d304d4d	0.04304247
212	0xbcf5f79a	-0.030025292
213	0x3e1daed1	0.15398718
214	0x3d92f2d3	0.07175221
215	0xbc86dd4e	-0.016462948
216	0xbdd7a9a6	-0.10530405
217	0xbdb49f22	-0.08819415
218	0x3d33e19c	0.04391633
219	0x3da1f8d7	0.079087906
220	0x3c689d00	0.014197588
221	0xbdeb5067	-0.11489945
222	0x3e0ede97	0.13952099
223	0x3c51f969	0.012815812
224	0xbdcf19af	-0.10112321
225	0xbbbe4184	-0.00580615
226	0x3dabfbfd	0.08397672
227	0x3df30bce	0.11867486
228	0xbd51c45c	-0.051212654
229	0xbe0e15a0	-0.13875437
230	0xbc95055e	-0.018191036
231	0xbe0e28a0	-0.13882685
232	0xbd94f91e	-0.07274078
233	0xbdcfaeb5	-0.101407446
234	0xbd5722a3	-0.052523267
235	0x3d2d88ce	0.042366795
236	0x3dbe7976	0.093005106
237	0xbbdabea6	-0.006675559
238	0x3e1469b3	0.14493446
239	0xbe00ed17	-0.12590443
240	0x3df0d6da	0.1175973
241	0xbe2e5fc4	-0.17028719
242	0x3e22fb52	0.15916184
243	0xbc304cfd	-0.010760543
244	0x3c4cc7c4	0.0124988
245	0x3c9bfe03	0.01904202
246	0x3c703440	0.014660895
247	0x3ddbfe79	0.10741896
248	0x3d3f8078	0.046753377
249	0x3d56f94c	0.05248384
250	0xbadab81d	-0.001668695
251	0x3991c5fa	0.0002780406
252	0xbd222d57	-0.03959402
253	0x3dcabb16	0.09898965
254	0xbdce77c5	-0.10081438
255	0xbd292fa7	-0.04130521

valueHead.0.bias f4 [64]
0	0x3c60259b	0.013680841
1	0xbd28f204	-0.04124643
2	0xbdb8adf0	-0.09017551
3	0xbb60d10c	-0.003430429
4	0xbde75085	-0.11294655
5	0x3dc3799c	0.095446795
6	0x3c5920d8	0.0132524595
7	0xbd9e6c10	-0.07735455
8	0x3d6b76cf	0.05748635
9	0x3d073fba	0.03301976
10	0x3c3c59c3	0.01149601
11	0x3e076427	0.13221799
12	0x3dc83c6b	0.09777149
13	0x3dd0f673	0.102032565
14	0x3e06dfff	0.13171385
15	0x3dc2e5fb	0.095165215
16	0x3e1176f7	0.14205538
17	0xbde4823f	-0.11157655
18	0xbdcb6305	-0.09930996
19	0xbe02878f	-0.12747024
20	0x3db377b8	0.08763069
21	0xbd9eff3f	-0.07763528
22	0xbca97ca9	-0.020689325
23	0x3e0ce0ab	0.13757579
24	0xbdca7d7e	-0.09887217
25	0xbde645bb	-0.11243769
26	0xbdcd36d1	-0.10020221
27	0x3de967c9	0.113967486
28	0xbd484cd0	-0.04890138
29	0x3db1e5c5	0.08686403
30	0xbda88ae6	-0.08229618
31	0xbc3b6bfe	-0.011439322
32	0xbdaffd8a	-0.085932806
33	0x3da58eaa	0.08083852
34	0xbd41993e	-0.047265284
35	0xbc8057bf	-0.01566684
36	0x3d49f92b	0.04930989
37	0x3da9b187	0.08285814
38	0xbcff0264	-0.03112907
39	0xbe0bfc52	-0.13670471
40	0x3cf8901b	0.030342152
41	0x3b2a33f3	0.0025970906
42	0x3c8bf397	0.017083926
43	0xbd858f70	-0.06521499
44	0xbe12e7de	-0.14346263
45	0x3e0b42da	0.1359972
46	0x3e0d5745	0.13802822
47	0xbd6ea134	-0.058259204
48	0xbbbd626d	-0.0057795555
49	0xbd573e26	-0.052549504
50	0x3e044d63	0.12920146
51	0x3d52cf64	0.051467314
52	0x3dab31fd	0.08359144
53	0xbdba0a12	-0.09083952
54	0xbdd64f3d	-0.10464332
55	0x3d05a62d	0.03262918
56	0xbdb091ec	-0.086215824
57	0xbe0777ff	-0.13229369
58	0x3dbe2b26	0.09285574
59	0xbd12c1f1	-0.03582949
60	0x3da86fea	0.08224471
61	0x3e036d78	0.12834728
62	0xbde4f5ab	-0.1117967
63	0xbbd9e129	-0.0066491556

valueHead.1.weight f4 [64]
0	0x3f7e5e74	0.99362874
1	0x3f816e50	1.011179
2	0x3f87d302	1.061127
3	0x3f7fe416	0.99957407
4	0x3f827de8	1.0194674
5	0x3f7f86e6	0.99815214
6	0x3f7ae033	0.9799835
7	0x3f7e3aab	0.9930827
8	0x3f809028	1.0043993
9	0x3f83ec90	1.0306568
10	0x3f7c37b2	0.98522484
11	0x3f7fbc93	0.99897116
12	0x3f7c34c2	0.98518
13	0x3f7efb05	0.99601775
14	0x3f804842	1.0022051
15	0x3f7c7763	0.9861967
16	0x3f810f11	1.0082723
17	0x3f88f5ad	1.0699974
18	0x3f79d696	0.9759306
19	0x3f83b535	1.0289675
20	0x3f7ac771	0.97960573
21	0x3f7cc444	0.9873698
22	0x3f7cfb86	0.98821294
23	0x3f80ace9	1.0052768
24	0x3f81e372	1.0147536
25	0x3f760677	0.96103615
26	0x3f8000fa	1.0000298
27	0x3f7f326b	0.99686307
28	0x3f83e09b	1.0302919
29	0x3f7e3c82	0.9931108
30	0x3f84dac8	1.0379267
31	0x3f7dd915	0.99159366
32	0x3f8490f6	1.0356739
33	0x3f7ad768	0.97984934
34	0x3f83cfb8	1.0297766
35	0x3f8524a2	1.0401804
36	0x3f7ca9fa	0.98696864
37	0x3f7e84b9	0.9942127
38	0x3f7f7dd7	0.9980139
39	0x3f7e9cb1	0.9945784
40	0x3f8538f2	1.0408003
41	0x3f81d7b2	1.014395
42	0x3f8442b5	1.0332857
43	0x3f813895	1.0095392
44	0x3f833b3c	1.0252452
45	0x3f81b3f7	1.0133046
46	0x3f7d181f	0.9886493
47	0x3f832921	1.0246927
48	0x3f7d74f8	0.99006605
49	0x3f85747e	1.0426176
50	0x3f78c20e	0.97171104
51	0x3f83630e	1.0264604
52	0x3f7ebe58	0.9950919
53	0x3f828d7b	1.0199426
54	0x3f81a3bb	1.0128092
55	0x3f7834d6	0.9695562
56	0x3f7fbdb2	0.9989883
57	0x3f7e3061	0.9929257
58	0x3f863eec	1.0487952
59	0x3f816f51	1.0112096
60	0x3f871521	1.0553323
61	0x3f8794b2	1.0592253
62	0x3f8021d3	1.0010322
63	0x3f8452cf	1.0337771

valueHead.1.bias f4 [64]
0	0xbc2c719d	-0.010525134
1	0xbbc5a502	-0.0060316334
2	0xbc858ffd	-0.01630401
3	0xbc0c2940	-0.008554757
4	0xbbf831f6	-0.007574315
5	0xbc53bbde	-0.012923209
6	0xbbac12a9	-0.005251248
7	0xbc28e81c	-0.010309245
8	0x3bc54821	0.0060205613
9	0xbca3c82d	-0.019992912
10	0xbcc77871	-0.024349423
11	0xbc93ffc5	-0.018066296
12	0xbc94b977	-0.018154843
13	0xbbc7a0a0	-0.006092146
14	0xbca928ba	-0.020649303
15	0xbc685280	-0.014179826
16	0xbbe544fb	-0.0069967485
17	0x3bd21677	0.0064113694
18	0xbb3de815	-0.0028977443
19	0xbcad1267	-0.021126939
20	0xbc7b4b1a	-0.01533773
21	0xbcb451e7	-0.02201171
22	0xbd048c51	-0.03236038
23	0xbae422d9	-0.0017405405
24	0xbd4d65bd	-0.050145853
25	0xba82aab3	-0.0009969085
26	0x3acf72c9	0.0015827055
27	0xbca17c88	-0.019712701
28	0xbac4ba7f	-0.0015009193
29	0xbc4a9ecd	-0.012366963
30	0x3b82f8e2	0.0039969543
31	0xbc80c873	-0.015720582
32	0xbc62d22e	-0.013844056
33	0x3adc51f8	0.0016809097
34	0xbcc22fc8	-0.023704425
35	0xbc51d2f0	-0.012806639
36	0xbce236a4	-0.027613945
37	0xbc68d7d6	-0.014211616
38	0xbcabc115	-0.020966092
39	0xbcae2d14	-0.02126173
40	0xbc1b25d1	-0.009469465
41	0xbc301a2f	-0.01074843
42	0xbb334c18	-0.0027358588
43	0xbb9a1e65	-0.0047033303
44	0xbc6e2ebd	-0.01453751
45	0x3c365a17	0.0111298775
46	0xbb0eff75	-0.0021819745
47	0x3bb108b4	0.005402649
48	0xbcd7dfb0	-0.02635178
49	0xbc8a5bf6	-0.016889554
50	0xbca0ebcb	-0.019643685
51	0xbb56d344	-0.0032779733
52	0xbc7ed98f	-0.0155548
53	0xbc8ed713	-0.01743654
54	0xbc3755a6	-0.011189854
55	0xbc57b3f4	-0.013165463
56	0xbc766141	-0.015037836
57	0xbc544583	-0.012956026
58	0xbd14c573	-0.036321115
59	0xbce33bf6	-0.027738553
60	0xbcdff683	-0.027339226
61	0x3bb94705	0.005654218
62	0x3a4c71a5	0.0007798917
63	0x3a82c6fc	0.0009977515
