Yahtzee/ModelsNN3/version_3_model_5.pt (torch, 96842 bytes, 19 tensors)

policyHead.0.weight f4 [128, 50]
000000 6a aa 95 bd cc cb 08 be cb e3 16 be 4d 09 60 bc
       -0.073078945 -0.13358992 -0.14735334 -0.0136740925
000010 d1 48 15 be 62 4f 80 bd 09 c9 1d 3d 4e 8c 7b 3d
       -0.14578559 -0.06265141 0.0385218 0.0614131
000020 2a ec 35 3e fa 06 7e 3d 20 a0 aa bd a7 9e 5f bc
       0.1776587 0.062018372 -0.08331323 -0.0136486655
000030 2a 42 be 3d c1 03 0b 3e f7 35 25 bc bd 6e f4 bd
       0.092899635 0.13575651 -0.010083667 -0.11935184
000040 41 b2 61 3d 33 4c 1f 3e 77 6c cc 3b 0f 4e 8a 3d
       0.055101637 0.15556411 0.006238516 0.0675317
000050 5c 8e 0c 3e 39 ec 4a bd 1a 4c e3 ba ca 86 f4 bc
       0.13726181 -0.049541686 -0.0017341406 -0.029849429
000060 ae 4a b8 bd 18 09 50 3c 80 7b 9c 3d 77 bb 04 3e
       -0.08998619 0.012697481 0.07640743 0.12962137
000070 4d 28 bd bc 49 e2 b4 3d 19 5b f2 3d ad 9a f2 bd
       -0.023090506 0.08832223 0.11833782 -0.11845908
000080 0c 11 05 be 71 f6 a4 bd 71 14 a2 3d c3 6f 63 bd
       -0.12994784 -0.080548175 0.07914055 -0.055526506
000090 0e 66 12 bd 15 da de bd d3 70 09 be 07 45 1a bd
       -0.03574186 -0.108814396 -0.13421945 -0.037663486
0000a0 7c 6f 26 3e 2b 18 93 bd d2 bd 6c 3d 65 ab af 3d
       0.16253465 -0.07182344 0.057798214 0.08577613
0000b0 6b ad a1 3c a3 33 15 be 8b 4c f0 bd fe 70 f9 3d
       0.019736012 -0.14570479 -0.117333494 0.12179755
0000c0 c4 52 2d be bd 67 1b bc d1 e3 b4 bd f0 a2 ed 3c
       -0.16926104 -0.009485182 -0.08832515 0.029008359
0000d0 3c 26 39 be e3 8a c9 3d 07 2e fb 3c 75 22 9e 3d
       -0.18080992 0.09840944 0.030661596 0.07721416
0000e0 d5 5a 22 be 9c 75 bf bd b0 07 11 3e e3 d6 52 3d
       -0.15854962 -0.09348604 0.14163089 0.051474463
0000f0 37 1c 0b be 80 02 30 3e 80 28 ba bd 20 dc 21 3c
       -0.13584982 0.17188454 -0.09089756 0.009879142
000100 33 92 dd 3b bc 6e 97 bd af 6a 05 3e 93 02 cd 3a
       0.006761813 -0.07394168 0.13028978 0.0015641026
000110 0d ec a0 bd 6e b8 7f 3c b7 41 fc bd f4 e6 27 3d
       -0.07857523 0.015607936 -0.123172216 0.04099174
000120 ba 26 27 3d c0 9b 43 bc 91 19 90 3d c5 99 e4 3d
       0.040808417 -0.011938989 0.070361264 0.11162142
000130 21 73 2b 3d 54 27 93 bd 13 4d cf bb b2 1b 08 3e
       0.041857842 -0.071852356 -0.0063263266 0.13291815
000140 6e e4 03 be 4c 79 d8 3d c1 f4 75 3d 5d e1 a7 bc
       -0.12880108 0.105700105 0.06004787 -0.020493204
000150 71 d6 ca 3d 51 32 26 3d 46 0d 73 bd f4 7d a4 3d
       0.09904183 0.04057533 -0.05933883 0.08031836
000160 58 b9 18 3d 5a 85 07 be 1b b8 83 bd 63 44 b6 bd
       0.037286133 -0.13234463 -0.064316 -0.088997625
000170 90 25 f5 3c e4 1a a6 3d 60 da 3e 3c 56 7d 2c 3d
       0.029925138 0.08110598 0.011648744 0.042111717
000180 de 48 8f bc 49 cb db bb 5a f3 14 3d 97 f6 84 bd
       -0.0174908 -0.006707583 0.03636489 -0.06492346
000190 04 1f 19 bd c4 28 70 3c 37 c4 b3 bb 4c 4b 6c 3d
       -0.037383094 0.014658157 -0.005486037 0.057688996
0001a0 ff 31 a9 3d 6f 7e e1 bc 6c a5 ea bc 51 5a 86 3d
       0.08261489 -0.027526109 -0.028643332 0.06560195
0001b0 24 4f c3 bd bc c3 a3 3d 53 95 8a 3d 90 d8 b5 bd
       -0.09536579 0.07996318 0.067667626 -0.08879197
0001c0 75 97 c9 bb 38 52 20 3e 54 e3 90 3d d5 61 94 bd
       -0.0061520883 0.15656364 0.070746094 -0.072452225
0001d0 b0 82 54 bd a6 d2 c7 bd e4 3d fb 38 65 d0 6c 3d
       -0.051882446 -0.09756975 0.00011980141 0.057815928
0001e0 c3 e0 7c 3b 80 2c 91 bd 56 49 41 bd c8 29 fa 3d
       0.0038586117 -0.07088566 -0.04718908 0.122150004
0001f0 eb 9a d8 3d 9c dd 8c bd d1 9b 9b bd 07 30 84 bd
       0.10576423 -0.06878206 -0.07598079 -0.06454473
000200 02 0d dc bd 45 75 08 be 4b 56 01 3e b7 f3 2b bd
       -0.107446685 -0.13325985 0.12630574 -0.04198047
000210 cf 3a 98 3c 06 87 c8 3d f9 79 13 3e 4f 5d 1e 3e
       0.01858273 0.09791379 0.14401998 0.15465282
000220 a6 9f 75 bd 67 6d ba bd 44 cb 51 3b f2 cc ac bd
       -0.059966706 -0.09102898 0.0032012025 -0.08437528
000230 e9 73 7b bd 40 6b bd bd 7d 70 be 3d 24 f7 7d 3d
       -0.061389837 -0.09248972 0.09298799 0.06200327
000240 d9 e2 8f 3d 55 6a d1 3d 4b 5f 51 3c c6 f3 59 bd
       0.0702569 0.10225359 0.012779067 -0.053210996
000250 e8 59 d8 bd 3c 72 14 3d 90 88 c0 3d 89 51 b2 bc
       -0.10564023 0.036241755 0.09401047 -0.021767395
000260 d0 22 20 3e 24 f5 67 bd 9b 62 81 be 1c b1 53 bd
       0.1563828 -0.05663027 -0.25270543 -0.051682577
000270 89 3f b6 bd e4 c0 33 3d 01 c9 6d 3e b4 e0 b9 3d
       -0.08898837 0.043885127 0.23221208 0.09076062
000280 b2 14 c9 bd ad 2e 99 bd 43 e1 66 3d 6a 83 33 be
       -0.098184004 -0.07479606 0.05636717 -0.17530599
000290 14 c0 04 be 63 8a f4 bd ac 82 59 3c 8f 04 37 be
       -0.12963897 -0.11940458 0.0132757835 -0.17872833
0002a0 4e ae 17 3e 9a 61 f3 bc 34 53 07 3e 63 8b 86 3d
       0.14812586 -0.029709626 0.13215333 0.06569555
0002b0 a2 1d d2 bd 6f 3c 0c 3d 17 97 0d 3d 3d 67 80 3c
       -0.10259558 0.03423732 0.03456792 0.015674228
0002c0 a4 a9 bb 3d b7 fe f1 3d 23 36 0e be ac c3 18 3d
       0.09163216 0.11816161 -0.13887839 0.037295982
0002d0 42 2b ab 3d 96 72 7b bd e7 1b 44 3d 59 43 58 bd
       0.0835786 -0.061388575 0.047878172 -0.052798603
0002e0 e0 d6 21 bd 37 5f 27 3e 3a d8 31 bc 26 d9 8b bb
       -0.03951156 0.16344915 -0.010854775 -0.0042678295
0002f0 b2 dc 0b 3e 70 10 83 bd 5b 47 7d 3d 36 4c 78 3d
       0.13658407 -0.063996196 0.061835628 0.060619555
000300 55 73 ee bd 9c cf 86 be 69 b2 85 bd 4c 63 6d 3d
       -0.116430916 -0.26330268 -0.0652817 0.057956025
000310 1b f6 0b bc 95 ca 97 bc 79 28 fd 3c cb 15 42 be
       -0.008542563 -0.018529216 0.030903088 -0.18953626
000320 e6 bc 34 3c d0 c9 a3 3d d1 e9 80 3d 9d 26 3d 3c
       0.011031365 0.07997477 0.06294597 0.011544851
000330 d3 ef 29 be e3 03 04 bc 32 99 50 3d f2 75 17 3e
       -0.16595392 -0.008057567 0.05092735 0.14791086
000340 52 69 20 3d 30 6b be 3c 52 af 0a 3e 1a 9e ca bd
       0.03916294 0.02324447 0.13543442 -0.09893437
000350 f6 81 0c 3e cc 7f 39 be e2 8b 7f bd 21 1d 86 bd
       0.13721451 -0.18115157 -0.062389262 -0.06548525
000360 e8 88 b1 bd ba 45 b7 3d 6d 7f c8 bd e4 f3 04 3d
       -0.08668691 0.08948846 -0.097899295 0.032459155
000370 48 c7 a1 bd 70 a0 67 3d 00 a2 ea 3d 72 f4 00 3e
       -0.07899338 0.05654949 0.1145668 0.12593248
000380 16 aa 95 bc 7c 04 32 bd f2 e9 25 3d 68 bb 0b 3e
       -0.01826958 -0.043461308 0.04050631 0.13645709
000390 7f 39 2d 3c 47 0b ed bd 39 98 d9 bd 28 2c fc bd
       0.01057279 -0.115744166 -0.10624737 -0.1231311
0003a0 b7 63 11 3d f6 40 ba 3d d7 94 a3 3c 26 3b f1 3d
       0.035495486 0.090944216 0.019968433 0.1177886
0003b0 43 50 25 3c c5 e6 c0 bd e0 ad a6 3d 7c c2 29 bd
       0.010089937 -0.09419016 0.08138633 -0.04144524
0003c0 2a 35 dc 3d 35 0b 25 be ae 58 a2 bd ec ab a5 bc
       0.10752328 -0.16117556 -0.079270706 -0.02022358
0003d0 9e b0 35 bd 32 a5 01 3e df 50 29 be 4e 05 e3 bd
       -0.04435789 0.12660673 -0.16534756 -0.11084996
0003e0 6c 30 36 3e 91 72 21 be a3 ee 5b 3d 79 2a b2 bd
       0.17791909 -0.1576636 0.05369438 -0.08699507
0003f0 10 38 70 bd aa 64 e3 bc 9f 53 2c 3d ae 0b bf 3d
       -0.058647215 -0.027757961 0.042071935 0.093283996

policyHead.0.bias f4 [128]
000000 16 ed 53 bd c2 d4 ad bd 2e 2b a1 3c 51 67 81 bc
       -0.051739775 -0.08487846 0.01967391 -0.015796335
000010 21 72 84 bd 5d 09 f2 3d fb 9c 0a 3d 58 bb ac bc
       -0.06467081 0.11818192 0.033841114 -0.021085426
000020 cb 4e f4 bd 01 54 d7 3c 7b dc 1d bd 33 6c b3 3c
       -0.11929091 0.026285173 -0.038540345 0.02190218
000030 ed 6e ca bc 4b 03 98 bb 74 66 96 bd 2d bb 6b 3d
       -0.024711097 -0.0046390644 -0.0734376 0.05755155
000040 e1 e9 72 bd 1d d8 72 3d e3 b4 12 3d 51 9e 00 3c
       -0.059305076 0.059288133 0.03581704 0.007850246
000050 47 f4 15 be ff 12 83 bd ca 81 4f bd 46 94 9b bd
       -0.14643966 -0.064001076 -0.050660886 -0.0759664
000060 f7 75 06 bd 69 88 f5 bd 72 cd 02 3e 35 c4 73 3d
       -0.032827344 -0.11988909 0.12773684 0.05951329
000070 43 a9 4c bc 2d a5 a4 3d 07 a3 a3 bd f2 85 10 3e
       -0.012491527 0.08039317 -0.079900794 0.14113596
000080 da 1b 8e bd 37 d7 97 bd 8e b3 ef 3d 75 8e cb bb
       -0.06938906 -0.07414096 0.11704169 -0.0062120506
000090 4c a0 d1 bd 91 fb dc 3d 8b f4 2a bd ed 71 07 3d
       -0.10235652 0.1079017 -0.04173712 0.033067632
0000a0 62 00 e9 bb ef 70 a4 bd e4 d9 ba 3b fc 72 a7 3d
       -0.0071106413 -0.08029353 0.005702244 0.081762284
0000b0 74 14 cd bd bb a0 47 bd a1 c7 37 3d e4 a3 86 bd
       -0.10013667 -0.04873727 0.044868115 -0.065742284
0000c0 9e 5e 82 3d 32 e8 3f 3d f0 18 02 be bb 45 b2 3c
       0.06365703 0.046852298 -0.12704825 0.021761766
0000d0 6e ed 15 bd 15 21 b8 bc db cd 03 bc a1 3f f7 bd
       -0.036603384 -0.022476712 -0.008044685 -0.12072683
0000e0 7b 07 af 3c c7 43 95 bc 10 fe c0 3b 70 55 c9 3d
       0.021365872 -0.018220795 0.0058896616 0.09830749
0000f0 a5 0c 04 be e2 b0 eb bd db 3e d5 bd 29 fc 07 bd
       -0.12895449 -0.11508347 -0.10412379 -0.033199463
000100 bb 05 ff 3d e9 4a df 3d 73 ef ab 3d f2 6e ee bd
       0.12452265 0.1090296 0.08395281 -0.11642255
000110 28 b6 89 3c bd 36 05 3d 59 38 f7 bd 9b 20 c1 3d
       0.016810492 0.032522906 -0.12071294 0.09430047
000120 8b 77 91 3b a2 6c 75 bd 27 38 4a bd e8 de 8e bd
       0.0044392995 -0.059918053 -0.049369957 -0.0697611
000130 e0 58 b2 bd 00 49 60 bd 59 7d 70 3d a2 54 86 3d
       -0.08708358 -0.05475712 0.05871329 0.06559111
000140 a9 02 6f bd ab f8 8c bd a9 a2 fb bc e1 86 fe 3c
       -0.058352146 -0.06883367 -0.03071721 0.031070175
000150 40 bd c7 bd dc f6 30 3d 1d c3 65 bd c8 bc 87 bd
       -0.097528934 0.043204173 -0.056094278 -0.06627804
000160 46 2c 8f bc 15 2b ae bd 77 2b 9a 3d c9 1e 67 3d
       -0.017477166 -0.08504311 0.075278215 0.056425843
000170 97 2c 9f bb d0 6e 02 3e 21 3e 16 3d 8c f6 0c 3e
       -0.0048576104 0.12737584 0.036680344 0.13765925
000180 7a 0d b9 3d d5 b2 d1 bd 60 55 c7 bd 37 81 ee 3d
       0.090357736 -0.10239188 -0.09733081 0.116457395
000190 b2 88 49 3d 61 db 58 3d 38 03 3c bd ed b5 01 bd
       0.04920263 0.05294359 -0.045901507 -0.03166764
0001a0 aa d8 c1 bd b5 5a 68 bd 3c 39 f7 bc f8 5e 40 3d
       -0.094651535 -0.05672713 -0.030178659 0.04696557
0001b0 dd d7 2b bc 2d 85 bc 3d 7c 3e e2 bd 73 f6 61 3d
       -0.010488478 0.09205089 -0.11047074 0.055166673
0001c0 cc de 0b 3d 0b dd c4 bd 34 06 37 bc 10 b0 72 bd
       0.034148023 -0.09612473 -0.0111709125 -0.059249938
0001d0 c8 3a 8a bd 7f df d3 3c 74 84 bf 3c b0 9e 52 3d
       -0.06749493 0.025863407 0.023378588 0.051420867
0001e0 24 11 a4 3c 63 04 5f 3d 00 ab a4 bd 46 52 27 bd
       0.020027705 0.054447543 -0.08040428 -0.040849946
0001f0 66 c3 83 3d c6 23 26 bd 18 f4 25 3d 47 d4 dc 3d
       0.06433754 -0.04056146 0.04051599 0.10782676

policyHead.1.weight f4 [128]
000000 6a d8 83 3f ee 5a 73 3f e2 58 73 3f b3 56 8d 3f
       1.0300419 0.9506062 0.950575 1.1042084
000010 9d b2 8e 3f 48 a5 8a 3f ff 44 85 3f 02 0d 83 3f
       1.1148258 1.083169 1.0411681 1.0238345
000020 a2 99 90 3f a4 40 73 3f f5 21 8c 3f 8a 76 6e 3f
       1.1296885 0.9502051 1.0947863 0.93149626
000030 e2 83 8d 3f 00 04 8f 3f 2e 6c 90 3f 56 10 93 3f
       1.1055872 1.1173096 1.1283014 1.148936
000040 a6 d7 87 3f 12 95 87 3f f5 b5 74 3f 7a 23 91 3f
       1.0612686 1.0592368 0.95590144 1.1338952
000050 8c 2b 84 3f bf ff 89 3f 1d 91 8d 3f 4e 8e 8f 3f
       1.032579 1.0781173 1.105991 1.1215303
000060 bb c5 6d 3f 30 02 80 3f 24 3e 81 3f 0a 37 81 3f
       0.9287984 1.0000668 1.0097089 1.0094922
000070 2c d2 83 3f 6b 53 74 3f 38 2e 98 3f 15 0d 96 3f
       1.0298514 0.95439786 1.1889105 1.1722742
000080 73 ae 71 3f bf 0e 89 3f f3 30 88 3f 6a 84 6d 3f
       0.94406813 1.0707625 1.0639938 0.9278017
000090 b3 8d 81 3f 95 e5 7d 3f 01 8a 6d 3f dc c6 93 3f
       1.0121368 0.9917844 0.927887 1.1545062
0000a0 26 41 85 3f c8 20 7e 3f f6 24 84 3f c6 52 6d 3f
       1.0410507 0.9926877 1.032378 0.9270443
0000b0 b6 47 8b 3f 35 b0 6e 3f f4 6b 6c 3f 2f 11 7d 3f
       1.088126 0.9323762 0.92352223 0.98854345
0000c0 58 5e 7e 3f 4a a5 86 3f d1 68 88 3f 42 51 84 3f
       0.9936271 1.0519192 1.0656987 1.0337298
0000d0 97 0b 6f 3f 34 75 76 3f aa b1 87 3f 5c 15 7f 3f
       0.9337706 0.9627259 1.0601094 0.99641967
0000e0 a5 37 8f 3f d8 55 7c 3f b4 50 82 3f dd c4 82 3f
       1.1188856 0.9856849 1.0180879 1.0216328
0000f0 19 07 81 3f 71 d6 91 3f 4d 0a 86 3f 15 d2 70 3f
       1.0080291 1.1393567 1.0471894 0.9407056
000100 09 7b 6a 3f 0a fa 71 3f 93 e8 7e 3f ce 73 67 3f
       0.91593987 0.94522154 0.9957363 0.9041108
000110 cd 55 81 3f 77 3a 86 3f b9 ff 77 3f 86 14 71 3f
       1.0104309 1.0486592 0.96874577 0.9417194
000120 8e 1c 90 3f 62 99 7d 3f 80 bc 8b 3f 47 e7 70 3f
       1.1258714 0.9906217 1.0916901 0.941029
000130 bf 91 93 3f 14 69 74 3f 9e 29 87 3f 95 4f 74 3f
       1.1528853 0.95472836 1.0559576 0.9543393
000140 f7 94 86 3f 95 58 82 3f 45 06 83 3f bd 76 8b 3f
       1.051421 1.0183283 1.0236288 1.0895611
000150 83 30 8a 3f d1 1a 80 3f 02 65 6d 3f f9 33 8f 3f
       1.0796055 1.0008184 0.9273225 1.1187736
000160 c3 38 72 3f d7 fb 87 3f 0d 7f 79 3f b8 fc 83 3f
       0.9461786 1.062373 0.9745949 1.0311499
000170 4d c5 73 3f da 5c 89 3f f1 eb 73 3f df 1b 8a 3f
       0.9522293 1.0731461 0.95281893 1.0789756
000180 fb 1c 83 3f f3 8a 87 3f 13 7b 8e 3f 8f 70 88 3f
       1.0243219 1.0589279 1.1131309 1.065935
000190 6b 0a 76 3f 74 44 77 3f 19 d0 72 3f 7f 75 96 3f
       0.96109647 0.96588826 0.9484878 1.1754607
0001a0 a9 bd 8d 3f 46 a8 8d 3f 9a fd 88 3f 3e b9 8a 3f
       1.1073505 1.1066978 1.0702393 1.0837781
0001b0 7b e8 76 3f 06 bd 7f 3f 3e 18 7c 3f 6c f8 7f 3f
       0.9644849 0.998978 0.9847449 0.99988437
0001c0 d2 ee 8a 3f c8 1b 91 3f ff 48 72 3f 41 48 76 3f
       1.0854132 1.1336603 0.94642633 0.96204
0001d0 d4 8a 8f 3f 8c db 85 3f ac 83 83 3f 08 71 81 3f
       1.1214242 1.0457625 1.0274558 1.0112619
0001e0 0e cc 86 3f 0a 64 85 3f a7 fd 8d 3f 71 89 85 3f
       1.0531023 1.0421154 1.1093034 1.0432569
0001f0 62 36 83 3f 12 55 81 3f 6c 74 73 3f 46 8e 71 3f
       1.0250971 1.0104086 0.9509952 0.9435772

policyHead.1.bias f4 [128]
000000 6a d4 33 bd ca 92 2d bd 52 25 fb bc 6e 81 ba bd
       -0.043903746 -0.042376317 -0.030657444 -0.09106718
000010 e2 c1 89 bd db 69 f8 ba 47 55 20 bd b4 12 0a bd
       -0.06726433 -0.0018952446 -0.039143827 -0.033709243
000020 41 da 83 bd 05 17 12 bd 5b 23 c8 bc 43 f9 b3 bc
       -0.06438113 -0.035666484 -0.024430921 -0.021969443
000030 77 a9 63 3a cc 54 93 bd 30 24 03 bd 50 95 03 bb
       0.0008684615 -0.07193908 -0.032016933 -0.002007801
000040 7e 23 41 bd 54 06 a1 bd 20 92 8b bd 28 0d 30 bd
       -0.04715299 -0.07862535 -0.068149805 -0.042981297
000050 68 93 3e bd bc 13 ef bc 81 c7 0c bd 94 1f 0a bd
       -0.046527296 -0.029184215 -0.03436995 -0.03372152
000060 47 da 42 bd 88 e6 00 bd 4d 09 15 bd 68 81 8e bc
       -0.047571447 -0.03146985 -0.036385823 -0.01739569
000070 64 35 28 bd aa 50 19 bd 61 51 ac bd ce 27 5d bd
       -0.041066542 -0.037430443 -0.08413959 -0.05399304
000080 6c 5d 0c bd ce 20 60 bd b5 11 48 bd 3f c5 05 bd
       -0.03426878 -0.054718785 -0.04884501 -0.03265881
000090 7e 8f 48 bd 94 fc e0 bc 63 fb 12 bd fd 28 ee bc
       -0.04896497 -0.027464189 -0.035884272 -0.02907228
0000a0 58 c5 56 bc 3b 0c d5 bc db 9b 4b bd 88 46 1b bd
       -0.013108574 -0.026006809 -0.049709182 -0.03790906
0000b0 87 ce 3e bd 6d a5 a1 bc 30 77 55 bd 36 9f fb bc
       -0.04658368 -0.019732201 -0.05211562 -0.030715566
0000c0 a2 2c ce bc 87 5a 2f bd c5 61 51 bd 7d 8e 6c bd
       -0.025167767 -0.042810943 -0.05111863 -0.057753075
0000d0 57 e4 9f bd e7 a2 17 bd 5e ab 7d bd 9d 9d 21 bd
       -0.07807224 -0.03702059 -0.061931007 -0.039456952
0000e0 6f 63 cb bc 13 e2 f8 bc 57 30 5c bd 1c 0f 16 bd
       -0.024827687 -0.030381238 -0.053757038 -0.036635503
0000f0 ba 89 c3 bd 7e a5 80 bd 57 59 18 bd 8f 06 3f bd
       -0.09547754 -0.06281565 -0.037194576 -0.046637114
000100 5c b8 19 bd af 7e 9c bc af 88 09 bd 55 78 d2 bc
       -0.037529334 -0.019103376 -0.033577617 -0.025692144
000110 07 a5 4a bd bf bb af bc 78 b4 23 bd 47 cc 55 bd
       -0.04947379 -0.021451829 -0.03996703 -0.052196767
000120 ca 2a b1 3c bc 6c de bc db 10 46 bd 5e 93 1e bd
       0.021626849 -0.027151458 -0.04835592 -0.03871476
000130 b9 23 59 bd e0 ce 43 bd 71 04 16 bc 88 6e 21 bd
       -0.053012583 -0.047804713 -0.009156332 -0.03941205
000140 3f 9e 1c bb 65 cb 3e bd ee df 9b bd ff 85 6a bc
       -0.0023898033 -0.04658069 -0.076110706 -0.014314174
000150 e7 76 aa bc f3 58 17 bd 3d 30 2b bd e2 ff ff bc
       -0.02080865 -0.036950063 -0.04179405 -0.031249944
000160 05 61 05 bd 3d 28 45 bd a8 29 2b bd 95 2b 45 bd
       -0.03256323 -0.048134077 -0.041787773 -0.048137266
000170 ae 4f b9 bc b5 b9 2a bd 68 34 8b bc 2e 8d 0b bd
       -0.022621002 -0.04168101 -0.016992763 -0.034070186
000180 2a 5f 3e bd 88 3e 27 bd 04 a9 93 bc 5b f4 4e bd
       -0.046477474 -0.04083112 -0.018024929 -0.050526004
000190 1d 03 f2 bc 70 36 5f bd 02 d5 3b bd 89 d2 3b 3b
       -0.0295425 -0.054495275 -0.045857437 0.0028659424
0001a0 42 44 2f bd f0 8c 85 bd 50 0f 82 bd cd 7a f2 bc
       -0.042789705 -0.06521022 -0.06350577 -0.029599572
0001b0 66 b2 0d bd be a3 80 bc 39 c0 37 bd 8a d2 39 bd
       -0.034593962 -0.015703078 -0.044861052 -0.0453668
0001c0 62 5a ec bc de 0c a1 bc c3 25 47 bd 58 ca 52 bd
       -0.028851692 -0.019659456 -0.048619997 -0.0514625
0001d0 c8 04 0a 3c 0d 1d e3 bc eb e1 95 bb 3c fc 8f bd
       0.0084239915 -0.027723813 -0.0045740507 -0.07030532
0001e0 e6 0e a1 bd 2d 48 41 bd 99 1a eb bc a0 b7 13 bd
       -0.0786417 -0.047187973 -0.028699206 -0.03606379
0001f0 17 8a de bc 8a a3 85 bd 61 36 cd bc 4d 91 46 bd
       -0.027165456 -0.06525333 -0.025050344 -0.048478413

policyHead.3.weight f4 [64, 128]
000000 d2 72 7a 3d c1 49 bd bc 7d 48 cc bd b0 20 a4 3d
       0.061144657 -0.023106458 -0.099747635 0.08014047
000010 69 04 c9 3d 61 70 bf be a0 fe 47 bd 05 85 85 3b
       0.09815294 -0.37390426 -0.048826814 0.004074695
000020 36 79 83 be 85 8d 10 3e 90 94 32 3d 33 1d 48 3d
       -0.25678414 0.14116485 0.04359871 0.04885597
000030 57 4f 63 be 98 ca 26 bd 21 bc c3 3c 7e f5 79 3d
       -0.22198234 -0.040720552 0.023893418 0.061025135
000040 36 ec 09 bd ba 5f 3d 3d 19 a3 c1 bd 08 a9 81 3c
       -0.033672534 0.04623387 -0.094549365 0.01582767
000050 c3 4d f5 bd 9a b9 0c 3d ac 26 21 3c cf 80 02 bd
       -0.119777225 0.03435669 0.00983588 -0.031861123
000060 66 34 88 3d 4c 22 65 bd e6 1c 4e bd 78 34 0a bd
       0.06650619 -0.05594091 -0.05032053 -0.033741444
000070 24 12 fd bd e1 8d 79 bc 67 59 b7 bc 42 da 22 be
       -0.12356976 -0.0152315805 -0.022381498 -0.15903571
000080 97 43 c3 3c 58 32 f4 bd e9 ae 00 be b2 39 73 bd
       0.02383594 -0.11923665 -0.12566723 -0.059381194
000090 9e 76 45 3d 75 3d 2a bd a0 04 fa 3d 58 06 cd 3d
       0.048208825 -0.041562516 0.122079134 0.100109756
0000a0 e6 36 39 bc 59 04 dc bd eb a6 86 bc 1e 65 02 3d
       -0.011304593 -0.10743017 -0.016437015 0.031834714
0000b0 b6 dd b1 bd c5 66 ce bd 60 e2 d7 bc 91 bb 97 bd
       -0.08684866 -0.100781955 -0.026353061 -0.07408822
0000c0 28 cc d1 bc 39 26 c9 bd 42 d0 1a be 5f d8 34 be
       -0.025610045 -0.098217435 -0.15118507 -0.17660664
0000d0 1b 7d 65 3d 40 21 6f 3d 74 b7 64 3c 3c d3 2d bd
       0.056027513 0.05838132 0.013959754 -0.042437777
0000e0 7f 19 5e bd 5b f0 30 3d 5e 55 09 be fb 09 b2 bc
       -0.054223534 0.04319797 -0.13411471 -0.021733275
0000f0 3a 8e 87 3b 18 8d b9 bd 0d 7e 07 3b 14 6a 18 bc
       0.004136828 -0.090601146 0.0020674497 -0.009302635
000100 23 38 6c 3d 01 7b e0 bc 4e be 50 be b9 1d 4f 3c
       0.057670724 -0.027402403 -0.20385095 0.012641364
000110 f7 01 1d 3e a2 ff d4 bd b1 9d 09 3d e5 f7 b7 bd
       0.15332781 -0.104003206 0.033597652 -0.08982829
000120 01 ba 9f bd b6 20 3d bd 13 83 5c 3d 4f e3 e1 3d
       -0.07799149 -0.046173774 0.05383594 0.11029684
000130 d5 3e 82 be e5 35 08 3c 7f 79 5c be c1 e0 af 3d
       -0.25438562 0.008313631 -0.21530722 0.0858779
000140 12 43 0b be 7a 43 90 bd ff 4f 88 3b 6d 3a 1f ba
       -0.13599804 -0.0704412 0.004159927 -0.0006074075
000150 c7 6a 4d bd 57 80 26 bc fb fe 80 3d ef 3f 81 3e
       -0.05015066 -0.010162435 0.06298634 0.2524409
000160 5f 11 1a bd a8 c8 86 bd 33 02 3f 3d 68 a2 b3 bd
       -0.037614223 -0.06581241 0.046632957 -0.08771211
000170 5a 8d 85 bd 13 40 b2 bd 37 91 a6 3d c2 5f 93 be
       -0.06521101 -0.087036274 0.08133166 -0.28783995
000180 6e 57 fc bc e3 ed 87 be c6 26 8e 3b 55 2a af 3d
       -0.030803408 -0.2654868 0.0043381182 0.08552996
000190 77 5f 44 3c 0e 96 59 bd 3c 36 51 3d e6 68 af 3d
       0.011985651 -0.05312162 0.051077113 0.0856493
0001a0 a9 d8 8c 3d 18 f4 33 3e a5 d9 0a 3e 0c 0e 24 be
       0.06877262 0.17573583 0.13559587 -0.16020983
0001b0 fb dc 5e bd 03 d0 9e bd ca 2d a3 bd 06 e6 8a 3d
       -0.054409962 -0.07754519 -0.07967718 0.06782155
0001c0 ad dd 0e 3e 2e c0 b9 be 5d 45 03 3d 03 ee 9d 3d
       0.1395175 -0.36279434 0.03204857 0.07711413
0001d0 61 8b 88 be 46 a7 a6 3c 62 3f 04 be a7 3a a3 3c
       -0.26668838 0.020343434 -0.12914804 0.019925429
0001e0 63 20 d0 bd 4e 77 3d bd e5 5d da bd 2d 1f 66 3d
       -0.10162427 -0.046256356 -0.1066244 0.056182075
0001f0 6e 1a 05 3d 81 56 9a bd fe c7 1b 3d 6e 74 96 bd
       0.03249591 -0.075360306 0.038032524 -0.07346426
000200 4d 84 7b bb 7d f6 45 bc 4a 1b 46 3d 14 aa 20 bd
       -0.0038378418 -0.012082693 0.04836587 -0.0392247
000210 1e e0 5f 3d 0a 90 e7 3b 46 a6 f4 bc a9 e8 da 3d
       0.054657094 0.0070667313 -0.029864442 0.10688908
000220 0f 0e 64 3b d6 9b 5b 3d da 31 14 be 7f 5f 75 bd
       0.0034798419 0.053615414 -0.14472142 -0.059905525
000230 63 6d 3c 3c fa ba b2 3d 26 58 6c bd b1 6f 10 bd
       0.011500689 0.08727069 -0.057701252 -0.035262767
000240 3d 17 bd 3d e4 2a 04 3d 1d 2a a8 3d f5 a7 65 bd
       0.09232948 0.032267466 0.082111575 -0.05606838
000250 21 25 42 bd 2e be 2f 3c b5 56 37 bc 4c 15 8d 3d
       -0.04739869 0.010726495 -0.011190106 0.06888828
000260 81 85 9b 3d 3f 92 e5 3a c8 58 00 3d 10 36 0d 3d
       0.07593823 0.0017514898 0.03133467 0.034475386
000270 2a 03 59 bd a7 39 44 3c d2 b8 15 bc 04 ad 7a bc
       -0.052981533 0.011976636 -0.009138303 -0.015300039
000280 09 51 2f bd a3 66 8a bd f1 96 db bd ef f8 af 3d
       -0.04280189 -0.06757858 -0.10722149 0.08592402
000290 4f b2 92 3d bb 51 b9 3c 67 84 10 3d b0 bf 73 3c
       0.07162916 0.02262198 0.03528252 0.014877245
0002a0 20 d0 87 bc 6b 73 8c bd 55 9e bd 3d 4f 25 88 3c
       -0.016578734 -0.06857952 0.09258715 0.016619353
0002b0 d9 a4 f3 3d ce 72 4a bc 05 90 90 3d eb 97 6e 3c
       0.118966766 -0.012356473 0.070587195 0.014562587
0002c0 79 ea a2 3d 7c 51 4a bd d1 d2 8a bd 26 e9 81 3d
       0.07954878 -0.049394116 -0.06778491 0.06343298
0002d0 77 12 bc 3c 90 c9 56 bc 69 3b d3 bd 6f 08 64 3d
       0.022958023 -0.01310958 -0.10314066 0.055672105
0002e0 36 bd 8f 3d 42 d2 7a 3d 71 79 39 3d ec bb 84 3d
       0.07018511 0.061235674 0.04528183 0.06481156
0002f0 91 39 20 3c 22 a9 9b bc 0d 2c f7 3c 09 50 4b bd
       0.00977935 -0.019001547 0.030172372 -0.049636874
000300 80 20 e9 bc 59 52 37 bd 23 58 af 3c 4f b1 e9 3d
       -0.02845788 -0.044756267 0.021404332 0.11410772
000310 77 63 c3 3c 88 f5 51 3d e2 34 d4 3c 22 17 89 bd
       0.02385114 0.051259547 0.025904123 -0.06693865
000320 09 09 80 bd bc c3 65 bd 40 53 9f 3c f7 93 cc 3c
       -0.06251723 -0.05609487 0.019448876 0.024972899
000330 89 b8 3c 3b 44 e3 35 bd ef 39 2d 3d 93 8d c7 3d
       0.0028796515 -0.04440619 0.042291578 0.097438
000340 ef 13 b1 bd 0f de df bd cd f0 ba 3c 1b 99 cf bc
       -0.0864638 -0.10931026 0.0228199 -0.025341561
000350 ab a4 1a 3d b1 e6 a1 3d 47 b5 65 bd 80 d4 26 bd
       0.037754696 0.07905329 -0.056081083 -0.04073
000360 ee 89 8e 3c ff 07 44 bc 1c aa a0 3d d3 4e 51 3d
       0.017399754 -0.011964797 0.07844946 0.051100563
000370 ee d7 da bc f2 74 d5 bd a0 af e3 3b ea 44 43 bd
       -0.026714291 -0.10422696 0.0069484264 -0.047673143
000380 da e6 c2 bd 20 7b a5 bc 94 e7 30 3d 86 eb 05 3d
       -0.09516688 -0.020200312 0.0431896 0.032695316
000390 f9 28 39 bd 79 1b 93 3d bd c7 80 bd 94 55 55 3c
       -0.04520509 0.07182974 -0.06288097 0.013020892
0003a0 34 40 1d bd f3 b2 ec 3d 4f 31 99 bd ea 4a 82 bd
       -0.038391307 0.11557569 -0.07480108 -0.06361945
0003b0 9a 24 e1 3c 77 a7 f3 3c d5 23 9b bc 4c 82 ca 3d
       0.027483273 0.02974294 -0.018937984 0.098881334
0003c0 c0 1e 04 3c 39 76 a3 bc 42 6f 2f bd 74 8a 9d 3c
       0.008063972 -0.019953834 -0.042830713 0.019231059
0003d0 48 5f 12 bd 36 26 68 3d 96 22 37 bd ad 73 1c bd
       -0.0357354 0.056677066 -0.044710718 -0.038196255
0003e0 d6 28 66 bc 95 62 64 3d 8b 5f db 3d d8 74 ef bb
       -0.014047822 0.055758078 0.10711583 -0.00730763
0003f0 b4 21 8e 3c 30 eb 31 3d d8 76 99 3d 19 f0 22 bd
       0.017350055 0.043437183 0.07493371 -0.039779756

policyHead.3.bias f4 [64]
000000 8b d2 95 3d 67 6b 85 3d 75 0d d2 3c a9 09 1a 3d
       0.073155485 0.06514626 0.025641182 0.03760687
000010 87 1b 78 bd ea 9d 22 bd 3d 92 44 3d 78 c3 c7 bb
       -0.060573127 -0.03970138 0.047991026 -0.0060962997
000020 91 ae db 3b 93 00 aa 3d 55 23 26 bd 17 3c 85 3d
       0.0067041595 0.08300891 -0.04056104 0.06505602
000030 88 37 b4 3d eb d3 bc bd c9 98 9f 3b 7b e9 f7 bc
       0.08799654 -0.09220108 0.0048705083 -0.0302627
000040 3b 54 9c 3d 3e 55 9d 3b 66 31 b2 bc 59 15 56 3d
       0.07633253 0.0048014214 -0.02175207 0.052266452
000050 37 fe 89 3d 0c 68 50 3d d3 ea 9f bd 33 9e 91 3d
       0.06737941 0.050880477 -0.07808461 0.07110252
000060 a1 e8 8b 3b 60 01 4f bd 00 eb ee bc ac 64 4e 3b
       0.004269675 -0.05053842 -0.029164791 0.003149311
000070 5c 0d 9d 3b 92 84 3a 3d 07 f7 17 3c 08 6a 14 be
       0.0047928523 0.045536585 0.0092752045 -0.14493573
000080 a3 50 0f be 9b 55 b4 bd 24 ee 3f bc 2f 94 0c bd
       -0.13995604 -0.088053904 -0.011714492 -0.034321006
000090 38 ac 55 3d a1 d7 9e 3d e3 66 f1 bb c3 97 0f bd
       0.052166194 0.07755972 -0.0073670014 -0.03505684
0000a0 2f 20 af 3d 5d 81 aa bd b6 2f a0 3d ca a3 49 bb
       0.085510604 -0.08325455 0.078216 -0.0030767792
0000b0 47 84 a2 bd 28 4b 62 3d c3 16 b8 bc 28 21 06 bd
       -0.07935386 0.055247456 -0.022471791 -0.032746464
0000c0 35 e0 52 bd e7 ee 6a 3d 4c ed 52 bd f2 f0 b3 3d
       -0.05148335 0.05735674 -0.051495835 0.08786191
0000d0 4d 1f a2 3d 97 48 b4 3d e9 8b 6a 3d 2f 0b ce 3c
       0.079161264 0.08802908 0.057262335 0.025151817
0000e0 53 f3 29 3d 8d 67 8a bd 47 39 c0 bd 01 6a 82 3d
       0.041491818 -0.06758032 -0.09385925 0.06367875
0000f0 10 4c 86 3d 96 22 af bd 53 ea 3d 3d 03 32 aa 3c
       0.065574765 -0.085515186 0.046366047 0.0207758

policyHead.4.weight f4 [64]
000000 bc d3 a2 3f 34 8d 69 3f 3f f6 84 3f 18 54 6e 3f
       1.2720866 0.91231084 1.0387648 0.93097067
000010 39 17 6f 3f ab de 76 3f 97 2d 8e 3f 57 ac 88 3f
       0.9339481 0.96433514 1.1107663 1.0677594
000020 ba b9 7e 3f 3e 61 6a 3f 94 4e 7e 3f 66 93 6d 3f
       0.99502146 0.9155463 0.9933865 0.9280304
000030 2f 88 6a 3f 87 7e 7f 3f 65 09 75 3f 31 90 86 3f
       0.9161405 0.9980244 0.9571746 1.0512754
000040 f4 87 6e 3f 80 ff 76 3f 4e 43 6f 3f 7b 01 81 3f
       0.931762 0.9648361 0.93462074 1.0078577
000050 68 98 7f 3f 05 28 94 3f 23 4c 70 3f a1 3b 71 3f
       0.9984193 1.1574713 0.93866175 0.9423161
000060 47 7e 67 3f 20 71 7f 3f bc d6 80 3f b0 7d 6d 3f
       0.9042706 0.9978199 1.0065532 0.9276991
000070 cf ed 73 3f 23 3a 6f 3f c9 97 6c 3f 00 00 80 3f
       0.9528474 0.93448085 0.92419106 1.0
000080 00 00 80 3f 49 05 82 3f 26 54 87 3f 6d 0b 8e 3f
       1.0 1.0157863 1.0572555 1.1097237
000090 b9 dd 81 3f 71 45 68 3f 74 b0 87 3f 1a 8f 82 3f
       1.0145789 0.9073096 1.0600724 1.0199921
0000a0 41 76 6f 3f 1f 15 88 3f af c8 6a 3f fe e3 71 3f
       0.93539816 1.0631446 0.9171247 0.94488513
0000b0 d0 22 8c 3f 24 da 6f 3f 8b f3 69 3f 1a b8 69 3f
       1.0948124 0.9369223 0.9138724 0.9129654
0000c0 8f f6 82 3f 27 0b 7b 3f 8c 9e 6b 3f e4 2b 78 3f
       1.0231494 0.9806389 0.920388 0.9694197
0000d0 15 cf 7c 3f 8c 7a 66 3f 22 22 88 3f 61 c8 72 3f
       0.9875348 0.9003074 1.0635417 0.94837004
0000e0 98 36 6e 3f dd 6c 70 3f c9 9a 80 3f 11 24 89 3f
       0.93052053 0.9391611 1.0047237 1.0714132
0000f0 71 d4 72 3f 84 6f 83 3f 28 63 7e 3f 38 4c 6c 3f
       0.9485541 1.0268407 0.9937005 0.923038

policyHead.4.bias f4 [64]
000000 db 15 08 bd 2c 5c 56 bd 20 26 84 bd be 03 48 bd
       -0.033223968 -0.052333996 -0.06452584 -0.048831694
000010 5a 99 4c bd 91 61 2e bd 8b 84 60 bd 6e 53 8f bd
       -0.049950935 -0.042573515 -0.054813903 -0.06998335
000020 1d 42 ee bc 3b ef 86 bd c8 25 21 bd 3c 3b 2a bd
       -0.02908426 -0.06588598 -0.03934267 -0.041560397
000030 f4 ee 65 bd 6b 89 6e bd 22 e8 23 bd 16 4c 61 bd
       -0.056136087 -0.05823652 -0.0400163 -0.0550042
000040 d6 2f 74 bd ad 48 7a bd 7b 3e 45 bd ff e8 89 bd
       -0.059615932 -0.061104465 -0.04815529 -0.067338936
000050 81 0b bc bd cf 41 72 bd 10 9f a2 bd d5 7f 48 bd
       -0.09181882 -0.05914479 -0.07940495 -0.048950035
000060 a3 f7 7f bd b6 1d 15 bb a7 21 aa bd a6 b3 65 bd
       -0.062492024 -0.0022753305 -0.083072 -0.05607953
000070 20 52 28 bd 13 61 4e bd 2d 96 4d bd 00 00 00 00
       -0.041093946 -0.050385546 -0.050192047 0.0
000080 00 00 00 00 82 9f 69 bd c2 b2 6e bd 50 7b 61 bd
       0.0 -0.057036884 -0.058275945 -0.05504924
000090 9b c4 8e bd 5a 7b 77 bd 13 a3 73 bd 50 02 6d bd
       -0.06971093 -0.06042037 -0.05948169 -0.057863533
0000a0 84 d1 57 bd b9 a7 c1 bd 80 97 89 bd d4 28 90 bd
       -0.052690044 -0.09455819 -0.067183495 -0.07039037
0000b0 82 74 85 bd f6 b1 95 bd f3 4c 4b bd e5 dc 69 bd
       -0.06516363 -0.07309334 -0.04963393 -0.057095427
0000c0 d9 e4 31 bd ce 7e 15 bd 4c 69 27 bd 64 0f 2b bd
       -0.043431137 -0.036497883 -0.040871903 -0.041762725
0000d0 b1 c6 38 bd 16 df 54 bd 55 57 65 bd e1 bf 3a bd
       -0.045111362 -0.051970564 -0.05599149 -0.045593146
0000e0 00 00 87 bd 8d da 80 bd c9 9a a8 3b b2 cf 20 bd
       -0.06591797 -0.06291685 0.005145405 -0.039260574
0000f0 e3 af 59 bd 61 e8 21 bd 0d 73 25 bc 14 c8 25 bd
       -0.053146254 -0.039528254 -0.010098231 -0.040474012

policyHead.6.weight f4 [26, 64]
000000 fe a5 6f 3e 73 66 d3 3d b8 31 ce 3c 1b ea 45 3d
       0.23403165 0.10322275 0.025170192 0.048318963
000010 87 ed c2 3d ce db f1 bd b3 20 b9 bc db 11 85 bd
       0.09517961 -0.118095025 -0.0225986 -0.06497546
000020 9a 3d 8a bd b0 96 df 3b 53 8a 44 bd 43 98 a8 3d
       -0.06750031 0.0068233833 -0.04798348 0.082321666
000030 9e f1 42 bd fe ca f1 3d 70 c6 89 bd 06 61 03 3e
       -0.047593705 0.11806296 -0.06727302 0.1282998
000040 21 59 64 3b 95 29 c9 bd c3 5e 94 3d 63 1f 76 3d
       0.0034843164 -0.09822384 0.07244637 0.060088526
000050 3e 20 56 bd 4a 68 05 3e c9 3b 45 bc c8 d0 b9 bd
       -0.052276842 0.13028064 -0.01203818 -0.09073025
000060 ee 7f 7b 3d 3a de 1f bd 8d 16 00 bb 50 39 0e be
       0.0614013 -0.03903029 -0.0019544691 -0.1388905
000070 66 9f 79 3d 35 07 df bd ac 65 88 bd 84 15 70 3d
       0.06094303 -0.108900465 -0.06660017 0.05861427
000080 48 9a 1e bd b6 d0 1b 3e a6 50 2f 3e ae 01 08 bd
       -0.038721353 0.15216336 0.17120609 -0.033204727
000090 f8 0f 78 3d d7 86 d4 3c 74 f9 c3 bd e6 24 0c 3e
       0.060562104 0.025943203 -0.09569064 0.1368595
0000a0 2d 93 9f 3c 94 97 be bd 83 7b 09 bd 26 9f 62 3d
       0.019479359 -0.09306255 -0.033565056 0.055327557
0000b0 14 b4 2e 3d 37 44 96 bd 9c 09 f0 bb 76 14 a9 3b
       0.042652205 -0.0733723 -0.0073253643 0.00515991
0000c0 cb df 43 bd 56 2c 14 3c 11 a1 83 bd 33 f8 89 bd
       -0.047820847 0.009043774 -0.06427205 -0.06736793
0000d0 6c 04 88 bd a2 0d 84 bd 6d c0 63 3d 44 3d fd bb
       -0.066414684 -0.06447913 0.055603433 -0.0077282507
0000e0 d6 8f 0a be d0 34 e0 3d 7f 7d 4a bd 9c 40 6c bd
       -0.13531432 0.10947573 -0.04943609 -0.057678804
0000f0 ed 97 63 3d 1f 97 55 3d 8a fc 37 be 46 f7 42 3d
       0.05556481 0.052146073 -0.1796743 0.0475991
000100 b8 bb 1e 3e 34 fb f8 bd 6d 2b 6a 3c c5 c9 e0 3c
       0.15501297 -0.12157288 0.01429258 0.027439961
000110 b0 fc 9e 3d 9f ae 0a 3d 05 f4 91 3d 97 2e 45 3e
       0.0776304 0.033857938 0.07126621 0.19256054
000120 af dd e3 bd 2d 93 00 bc 92 4f ca bd 8e c7 bf 3c
       -0.11126267 -0.007847589 -0.09878458 0.023410585
000130 b4 0b 6f bd 86 75 30 3d f8 bb 9e 3d 0e 69 c7 bd
       -0.05836077 0.04308083 0.07750696 -0.097368345
000140 9d ab e3 bd c8 2a e7 3d 81 02 b1 bd 4f 8b 0e 3e
       -0.11116717 0.11287457 -0.08643056 0.1392033
000150 0d cd d0 3d 27 08 0f bc b5 00 13 3e b8 d7 ea bc
       0.1019536 -0.008729971 0.14355738 -0.028667316
000160 13 56 bd 3d 16 58 9c 3d ff 63 43 bd 13 0c 38 bc
       0.09244933 0.076339886 -0.047702786 -0.0112333475
000170 08 97 3e 3d 8d 5e 1a bd 57 87 a9 3c 4a 09 9f 3d
       0.046530753 -0.037687827 0.020694418 0.077654436
000180 00 84 f9 bd 4e fa 65 be bb be 88 3d 2c 0f 10 3d
       -0.1218338 -0.22458765 0.06677004 0.03517072
000190 6f de ad 3d 3e bd fb bc e4 cc 1e be ce 72 26 3d
       0.084896915 -0.030729886 -0.15507847 0.04063683
0001a0 48 7d 6a bd 4c 04 06 3e 77 b2 95 bd 13 21 d6 3c
       -0.057248384 0.13087577 -0.0730943 0.026138818
0001b0 7c 47 7b bd c9 c6 a9 3c 8b 0d 82 3c cf 6e 84 3c
       -0.06134747 0.020724671 0.015875598 0.016166119
0001c0 8c 48 2d bb 11 c8 0e 3d 16 79 56 bd 8d 4d 42 3b
       -0.0026440946 0.034858767 -0.05236157 0.0029648275
0001d0 2a f2 9b 3d 25 0b a0 3d 68 03 8e bd ed 6a 43 bd
       0.076145485 0.07814626 -0.069342434 -0.047709394
0001e0 1d 5b 7c bc 6f bb ee bc 18 85 e1 3d 31 39 2d 3e
       -0.0154025825 -0.02914211 0.11011714 0.16916348
0001f0 33 48 48 3d da 2c 25 3d 93 89 38 3d 6a 1d d2 bd
       0.04889698 0.040325977 0.045053076 -0.102595165
000200 6c d5 e6 3d 68 c1 08 3d d4 1c b8 bd c4 91 b1 bd
       0.11271176 0.03338757 -0.089898735 -0.08670381
000210 eb 34 c7 bc 2c ac 9c bd 39 f2 33 3e d2 24 90 bc
       -0.024317225 -0.07650027 0.1757287 -0.017595682
000220 81 ad 9f bd 1f e1 84 3d 8f d3 c5 bd a0 66 ca bd
       -0.07796765 0.06488251 -0.09659492 -0.098828554
000230 c5 01 84 bd 63 da 8a bc 74 81 1c 3d 06 7e 31 be
       -0.0644565 -0.016949838 0.038209394 -0.1733323
000240 4e 58 01 bc 03 cc bc bb 52 1f d4 3d a9 6d d8 3d
       -0.007894589 -0.005761625 0.103575364 0.10567791
000250 5c 37 bc bd 17 6b 58 be 8d de c0 bd 7e 0d 75 bc
       -0.091902465 -0.21134602 -0.09417448 -0.01495683
000260 13 04 c3 3d 00 2a d5 b9 6c 1b 06 be 78 5c b5 3d
       0.095222615 -0.00040657818 -0.13096398 0.08855528
000270 76 3c be 3c d8 20 ca bd 96 3c d8 3d b6 3e aa 3d
       0.02322219 -0.09869546 0.10558431 0.083127424
000280 d0 f4 e0 3c 06 7c f7 3d 77 24 c8 bd fa e2 42 bc
       0.027460486 0.120842025 -0.0977258 -0.011894936
000290 e4 63 14 3e 18 83 95 bd 22 91 33 be 19 f1 63 bd
       0.1449123 -0.07300395 -0.17535833 -0.05564985
0002a0 06 26 b8 bd 8f b2 61 3e 84 10 08 bd 4c ef 20 be
       -0.089916274 0.22040771 -0.033218876 -0.15716285
0002b0 f7 25 b4 bd f0 2e 92 bd d9 51 95 bd 99 72 08 3d
       -0.08796304 -0.07137859 -0.07291002 0.033312414
0002c0 0e 91 27 3c 0a f6 34 bd 11 91 f2 3d 1a ca 3c bc
       0.010227455 -0.044179954 0.118440755 -0.011522794
0002d0 06 28 90 3d 7c ba 51 bd d1 f5 d0 3d 76 83 2b be
       0.07038884 -0.051203236 0.10203136 -0.16749367
0002e0 6d 23 40 3d b1 78 9b 3d cc 25 bd 3d 9f c2 99 bb
       0.046908785 0.075913794 0.09235725 -0.00469239
0002f0 7c 81 47 3c ab 07 a4 3c 97 bb 5b bd e4 4c 97 bc
       0.012176868 0.020023188 -0.053645696 -0.018469281
000300 1a 9a 21 3e 08 3b 8e 3d 41 fa c8 3d 9e a1 0b be
       0.15781441 0.06944853 0.09813357 -0.13635871
000310 3f 3d b1 3b 5c 55 ef bb ad b0 9d 3d f4 b0 89 bc
       0.0054089124 -0.007303877 0.07699714 -0.01680801
000320 da a5 e9 3b 3b 7f f6 bd 2f 48 0b bd 7f 1d 08 3d
       0.0071303668 -0.12035986 -0.034004387 0.033231255
000330 06 05 d7 3c e7 e2 ea bd be 37 08 3e 3e 60 41 3d
       0.026247513 -0.114690594 0.13302514 0.047210924
000340 a8 45 96 bd a5 6e ae bd 4e 89 f7 bd 79 52 52 3d
       -0.073375046 -0.085171975 -0.12086736 0.051348183
000350 51 e1 3d be b4 98 de 3c 96 58 fa bd 0a 77 03 be
       -0.18542983 0.027172424 -0.12223928 -0.12838379
000360 00 d5 31 3d 25 a8 eb bd 94 44 3a bc f1 78 f5 bd
       0.043416023 -0.115066804 -0.011368889 -0.11985958
000370 73 47 45 bd cb 94 db 3d 9f c2 f4 3c ac eb 12 3d
       -0.048163842 0.107217394 0.029877959 0.035869285
000380 6c 18 04 3d 21 c4 08 be 60 6c 21 bd 85 17 e6 bc
       0.032249853 -0.13356067 -0.039409995 -0.028087387
000390 62 bb 84 bd 06 ef b4 bb 71 07 e4 3d a2 55 00 3d
       -0.06481053 -0.005521658 0.11134232 0.031331666
0003a0 f9 39 d3 3d b0 7f 9e 3d fd 43 34 bd 7c ce 56 bc
       0.10313792 0.07739198 -0.04401015 -0.013110753
0003b0 df 2a 58 be 5e ce 68 bd 07 b0 17 bd 03 77 85 3b
       -0.21110104 -0.056837432 -0.037033107 0.004073025
0003c0 70 22 0f 3c b6 49 93 3d 44 55 be bb a7 1e 6f bd
       0.008736238 0.071917936 -0.0058085043 -0.05837884
0003d0 c8 0b 9e 3b 59 a0 a8 3d eb 61 24 3e 7c ca 05 be
       0.004823182 0.08233709 0.16052978 -0.13065523
0003e0 5f 46 f7 bd 34 e1 ec 3d 56 35 8f 3d e8 35 4c bd
       -0.12073969 0.115663916 0.06992595 -0.049856097
0003f0 0b 83 53 3d f0 8b 5c 3c 8d e8 22 3e 6a 02 fa bd
       0.051638644 0.013461098 0.15909024 -0.12207492

policyHead.6.bias f4 [26]
000000 24 d3 fc 3c 89 9c a3 bb 8d bb b9 bd 6d 65 aa 3c
       0.030862398 -0.0049930257 -0.090689756 0.020800317
000010 02 8c ab bd 88 6d e2 3d 32 de 0b bd 80 f4 6d bd
       -0.08376314 0.11056048 -0.03414745 -0.0580945
000020 60 09 29 bd 9e 73 a1 bc 1c 1e cf 3d 5e 40 29 bd
       -0.041268706 -0.01970845 0.10113165 -0.04132115
000030 25 0b 5f 3d 04 14 a6 3d 61 05 64 3d e5 29 57 bd
       0.054453988 0.081092864 0.055669192 -0.052530188
000040 e2 6e 82 3c 5c 1d 4d 3c 63 5f d7 3d 5f 8d 78 bd
       0.015922014 0.012519207 0.105162404 -0.060681697
000050 e6 f9 cd bc a1 e6 58 3d d1 68 5c ba 42 8d c2 3d
       -0.025143575 0.05295432 -0.0008407953 0.09499599
000060 33 ed a6 3c f1 73 d8 3d
       0.020376777 0.10568989

valueHead.0.weight f4 [64, 50]
000000 74 a1 de bd 0b b1 b2 3a 79 6b 22 3e bb 94 ed 3d
       -0.108706385 0.0013633085 0.1586131 0.11600634
000010 32 45 3b bd 03 4f 41 3c 01 52 65 bd 09 4b 51 bc
       -0.045720287 0.011798623 -0.05598641 -0.012774237
000020 d7 dd e7 bd 7a 25 89 bd 8f 95 e5 3d 22 cc bf 3d
       -0.113216095 -0.06696601 0.11210167 0.09365107
000030 8f 65 33 3d 81 75 58 bc 97 3e 83 bd ab 75 d0 3d
       0.043798026 -0.013211609 -0.064084224 0.101786934
000040 58 c3 16 3c 62 1b ab 3c 80 7d b1 bd d5 4d 38 bd
       0.009201847 0.02088708 -0.08666515 -0.0449961
000050 f9 25 a0 bd 2b 5c c7 3d 85 13 9c bd 90 54 4a 3c
       -0.07819743 0.097343765 -0.076209106 0.012349263
000060 39 70 be bc 5d 9f a4 3d 43 ad ec bc 33 cc 26 3a
       -0.023246871 0.08038209 -0.028891211 0.00063628255
000070 5e c2 aa bc dd 2a 4a bd 85 a0 da 3d e5 66 a9 bc
       -0.020844635 -0.049357284 0.10675148 -0.020678947
000080 eb a9 f1 bc 20 d3 2b be de 58 1b 3e 68 86 27 3d
       -0.029499969 -0.16779757 0.15170619 0.040899664
000090 e0 88 0f 3e d3 bf d1 3c ff 1b 86 bd 4f f0 3b bd
       0.14017057 0.025604164 -0.065483086 -0.045883473
0000a0 45 2e a1 3d 54 20 23 3e 23 44 c8 bd 50 5a dc 3b
       0.07870153 0.15930301 -0.09778621 0.0067246333
0000b0 f4 d7 c2 bd ea da 84 bd 0b c0 c0 3d cb c9 21 bc
       -0.09513846 -0.06487067 0.09411629 -0.009874771
0000c0 7f e2 f7 bb 33 21 84 3d ac 37 92 3d da 3f 01 be
       -0.0075648422 0.06451645 0.07139525 -0.12622014
0000d0 4c 40 29 be f6 b5 7d 3d 5b 21 26 3d ce 6a 08 bd
       -0.16528434 0.06194111 0.040559154 -0.033304982
0000e0 06 13 bc bd 63 e1 d1 bd 41 59 55 be 46 f4 0f 3e
       -0.09183316 -0.10248067 -0.20834829 0.14058027
0000f0 52 56 06 3e b0 a7 27 3e 85 4c ef 3d f3 b1 cb 3d
       0.13118866 0.16372561 0.11684517 0.099460505
000100 42 73 09 be 97 15 71 bd b1 8f 31 3d c6 a9 a2 3d
       -0.13422874 -0.05885848 0.043349925 0.07942538
000110 01 ba b0 bd 7a e0 37 3e a7 15 bb 3c da 66 80 3a
       -0.086292274 0.17956725 0.022837473 0.0009796277
000120 d8 d8 ab 3d 03 28 04 be 0b e6 12 3d 69 0b e5 3d
       0.08390969 -0.12905888 0.035863917 0.11183817
000130 b9 c8 0c 3e 56 41 0d bd aa 52 94 bd cb 45 ee 3c
       0.13748445 -0.034486137 -0.072423294 0.029086014
000140 af ff b6 bd df 15 1f 3d 25 30 a1 bd 56 fa 79 3d
       -0.089354865 0.038839217 -0.07870511 0.061029755
000150 cc b5 92 bd 5d 9f c5 3c e8 da 79 bc d2 ef f2 bc
       -0.07163581 0.024123842 -0.015249945 -0.02965537
000160 ec ca e0 3d 4d c4 0e bc e3 fe 7a bd 4b 6e 20 3d
       0.10976204 -0.008713794 -0.061278235 0.039167684
000170 c3 65 af bd 25 c3 d6 bd 0c d9 3e 3d cc 6a 95 3d
       -0.085643314 -0.104864396 0.04659371 0.072957605
000180 49 3e e1 bd fd 88 86 bd 31 ac b9 bd 4a dd dc 3c
       -0.10998208 -0.06569097 -0.09066046 0.026960988
000190 b3 92 01 bd 8f d5 02 3e b6 5c 51 be 82 c4 23 be
       -0.031634044 0.12776779 -0.20445523 -0.1599293
0001a0 2a 26 66 bc a4 de 6f 3c 44 71 ab 3d c9 f0 b6 3d
       -0.014047185 0.014640484 0.08371213 0.08932645
0001b0 67 69 16 bb d8 8e 8c 3d 41 58 82 3d 5a ad 25 be
       -0.0022951008 0.06863183 0.06364489 -0.1617941
0001c0 ba 8e 34 3d b2 53 a5 3d b5 94 7c be d0 30 0e be
       0.044081427 0.08072604 -0.24666102 -0.13885808
0001d0 33 aa 7f 3d c9 c2 02 3e 69 2d 95 bc 55 19 31 3e
       0.062418174 0.12769617 -0.01821013 0.1729482
0001e0 75 95 8d 3d 67 fb 66 3d bd c6 09 be b9 0a 8c bd
       0.06913272 0.0563921 -0.13454719 -0.06837983
0001f0 e2 3f ff 3d e2 23 9d 3d 0a 08 e8 bd 9c 16 8b bc
       0.124633566 0.0767286 -0.11329658 -0.016978554
000200 fe 7b 2a 3d a1 6d 6d bd 27 fe 44 bc 24 6d 2e bd
       0.041622154 -0.05796588 -0.012023485 -0.042584553
000210 f4 cf 65 bd 14 fb 9b bd 65 4a 3a 3b 17 38 95 3d
       -0.056106523 -0.07616249 0.002842569 0.07286089
000220 ee ca c8 3d a8 50 c5 bd 98 f3 1e bd f0 37 92 3c
       0.09804331 -0.096345246 -0.038806528 0.017848939
000230 3b c4 db 3d e2 da cd 3d 68 2e 32 be 5d f5 84 3c
       0.10730787 0.10051514 -0.17400515 0.01623028
000240 a6 77 36 bd 4c 0f b0 bd 08 85 6e be 0d 5f 27 bd
       -0.0445477 -0.08596668 -0.23292935 -0.040862132
000250 4f fa 6d bd 8b e6 e4 3c 29 a4 92 3b 34 31 31 be
       -0.05810004 0.027941963 0.004475136 -0.17303926
000260 64 2c 3f be c7 05 18 3e e8 48 a1 3d 46 9a 01 be
       -0.18669277 0.14845954 0.07875234 -0.12656507
000270 96 c6 68 bd cd a1 b9 3d 0c 94 75 bd 1a 22 6a 3d
       -0.05683001 0.09064064 -0.05995564 0.057161428
000280 c3 22 26 bd 8b ad c1 3d ae 68 16 3c 9e 94 b2 bd
       -0.040560495 0.09456929 0.009180231 -0.08719753
000290 69 ba fd 3d da 0e b7 bd 6c b0 c0 3d 6a d7 6b 3d
       0.123890705 -0.089383796 0.0940865 0.05757848
0002a0 a0 61 9d bd d4 67 fc 3d f1 b7 ba 3d e9 61 0e be
       -0.07684636 0.12324491 0.09117115 -0.13904537
0002b0 0f 8a 7f bc 86 0c 22 bd 9c 66 01 bd 44 8b 56 bd
       -0.015596881 -0.039562725 -0.031591997 -0.052378908
0002c0 9e ec ab bd 79 35 0a be 0f eb 8c bd eb f2 15 bc
       -0.083947405 -0.1349696 -0.06880771 -0.009152154
0002d0 16 4f 08 bc 68 66 b8 bd e8 d8 cf 3d d7 f8 b4 3c
       -0.008319637 -0.090039074 0.101487935 0.022091312
0002e0 ab 1b 9f 3d cc dc 85 3d 65 a0 81 3d 9e 9d 26 3d
       0.07768949 0.06536254 0.06329421 0.04067766
0002f0 51 6d a3 3d 91 f6 d0 bd 02 cd 14 be f3 6d 18 3d
       0.07979835 -0.10203279 -0.1453133 0.03721423
000300 7f 79 9f bd bd f1 78 bd c9 e0 9b bd e7 0c 0b 3e
       -0.077868454 -0.060777415 -0.07611234 0.1357914
000310 ed 65 9b 3c 46 0c eb 3d 57 9f 98 3d 1d 32 f7 3c
       0.0189695 0.1147695 0.07452267 0.030175263
000320 e1 27 09 3e 27 96 a4 3d df a4 d4 bb 28 0d 3e bd
       0.13394119 0.08036452 -0.0064893807 -0.046399266
000330 41 b5 27 bc 2e 4d 8d bb 0e fe 27 bd 49 54 83 bd
       -0.010236085 -0.004312179 -0.04101377 -0.064125605
000340 a3 76 0e 3e 70 b2 ae 3d a2 49 5b 3c 06 0d c1 3c
       0.13912444 0.08530128 0.013384255 0.02356578
000350 55 21 b6 bc 16 b4 12 3e 2e ac da 3d 4e dd 86 bc
       -0.02223269 0.1432651 0.10677372 -0.016462948
000360 cd 22 08 be 36 dd 03 bd 9b b6 45 3d 3b 0f 8b 3d
       -0.13294525 -0.032193385 0.04826985 0.06790014
000370 00 9d 68 3c 67 50 eb bd 97 de 0e 3e 69 f9 51 3c
       0.014197588 -0.11489945 0.13952099 0.012815812
000380 af 19 cf bd 84 41 be bb fd fb ab 3d ce 0b f3 3d
       -0.10112321 -0.00580615 0.08397672 0.11867486
000390 5c c4 51 bd a0 15 0e be 5e 05 95 bc a0 28 0e be
       -0.051212654 -0.13875437 -0.018191036 -0.13882685
0003a0 6f e8 b3 bc c2 b9 c6 bd 0d 69 9f bd 5d 69 50 bc
       -0.021961419 -0.09703399 -0.07783709 -0.012720433
0003b0 e1 ea aa 3d 7f 0a bf 3c d3 f4 fe 3d 17 ed 00 be
       0.08345581 0.023320435 0.1244904 -0.12590443
0003c0 32 4d 5f 3d 7d cf 12 be 2d 4e 34 3e 2e bd 0a bd
       0.05451698 -0.14336963 0.17607947 -0.033871822
0003d0 4f 63 97 3b 2a 76 71 3d a1 d9 7f 3c cc 0e e9 3d
       0.004619993 0.05895058 0.015615852 0.113797754
0003e0 ed 65 21 3d 32 cc 8b 3d 1d b8 da ba ff f6 ab 3c
       0.039403845 0.068260565 -0.001668695 0.0209918
0003f0 7c 20 0d bd b6 25 88 3d 88 81 b8 bd a7 2f 29 bd
       -0.034454808 0.06647818 -0.09009081 -0.04130521

valueHead.0.bias f4 [64]
000000 d2 1d b7 3c 07 06 28 bd be 0c c7 bd 00 49 77 ba
       0.022353087 -0.041021373 -0.09719227 -0.000943318
000010 58 93 da bd 39 60 c6 3d 42 04 b9 3c ef f1 7a bd
       -0.10672635 0.09686322 0.022585038 -0.061265882
000020 4c 2b 27 3d 9b 1d 2f 3d f1 3c 9b 3c 77 f5 e3 3d
       0.040812775 0.042752843 0.018949958 0.11130803
000030 99 5c e3 3d 30 e5 93 3d 7a 15 12 3e 29 25 12 3e
       0.11101646 0.072214484 0.14266005 0.14271988
000040 f0 90 0b 3e a1 e5 ea bd b8 9f b3 bd df fe f0 bd
       0.13629508 -0.114695795 -0.08770698 -0.11767363
000050 b6 9f be 3d 3d 7a bd bd 67 a4 18 bd 9f 75 03 3e
       0.09307806 -0.09251831 -0.03726616 0.12837838
000060 6b f2 b8 bd bf 67 fb bd 3a 50 a8 bd 54 36 d7 3d
       -0.090306126 -0.12275647 -0.08218427 0.10508409
000070 e3 4a 1e bd 6a f2 92 3d ab 02 a7 bd 6d 91 aa bb
       -0.038645636 0.07175143 -0.08154806 -0.0052053244
000080 30 c4 a5 bd 67 98 a4 3d a7 81 45 bd a9 24 17 bd
       -0.080940604 0.08036881 -0.04821935 -0.036900196
000090 4f 64 33 3d 82 97 b2 3d 26 76 b8 bc 6c 3f 07 be
       0.043796834 0.08720304 -0.022517275 -0.13207787
0000a0 97 35 a5 3c 54 de 52 3c 5b 78 3b 3d ef 04 67 bd
       0.020167155 0.01287039 0.045769077 -0.05640119
0000b0 e0 d8 08 be ee f3 d4 3d 61 80 15 3e 4b e7 95 bd
       -0.13363981 0.103980884 0.14599754 -0.07319506
0000c0 d2 8c 5a 3b 68 11 25 bd ec 3f 14 3e 1c 84 1a 3d
       0.0033348096 -0.040299803 0.1447751 0.037723646
0000d0 f8 be a4 3d bb a5 f7 bd 51 f4 bb bd 61 fd 38 3d
       0.08044237 -0.120921575 -0.09177459 0.045163516
0000e0 58 b9 af bd 72 5e 09 be 8d d7 d6 3d 68 52 1c bd
       -0.085802734 -0.13414934 0.10490332 -0.038164526
0000f0 4e 11 95 3d 21 3e 0c 3e 85 40 07 be 42 81 2f bb
       0.07278691 0.13695575 -0.13208206 -0.0026779925

valueHead.1.weight f4 [64]
000000 c0 1e 7e 3f 7a 67 84 3f 33 bd 8b 3f dd db 7b 3f
       0.9926567 1.0344079 1.0917114 0.9838236
000010 78 ed 72 3f c7 b3 7b 3f 72 a5 7b 3f fc 3e 82 3f
       0.948936 0.98321193 0.98299325 1.0175471
000020 f9 f3 84 3f f6 c8 85 3f d2 a9 85 3f 6e 4f 77 3f
       1.0386955 1.0451953 1.044245 0.96605575
000030 e2 90 74 3f 97 ce 77 3f 00 50 84 3f 79 2e 83 3f
       0.95533574 0.96799606 1.0336914 1.0248557
000040 2a 15 7a 3f b1 d8 8f 3f ac 27 7f 3f 79 6f 89 3f
       0.97688544 1.1238004 0.9966991 1.0737144
000050 ac 82 78 3f 95 f7 77 3f ab af 77 3f 41 03 82 3f
       0.9707439 0.96862155 0.96752423 1.0157243
000060 66 02 93 3f 14 10 7c 3f a2 f5 80 3f 9d f5 83 3f
       1.1485107 0.98462033 1.0074961 1.030933
000070 1e a4 86 3f 09 cf 72 3f 5d 42 84 3f b4 30 81 3f
       1.0518835 0.9484716 1.0332752 1.0092988
000080 b4 f9 84 3f d2 e2 76 3f 97 dd 88 3f 1b 94 89 3f
       1.0388703 0.9643985 1.0692624 1.0748323
000090 c7 08 78 3f 63 72 80 3f 6d cf 7a 3f 79 82 80 3f
       0.96888393 1.0034908 0.97972757 1.0039817
0000a0 af 64 88 3f 70 f3 83 3f 45 2e 8a 3f 54 9f 81 3f
       1.0655726 1.0308666 1.079537 1.0126748
0000b0 6c 3f 83 3f 31 0a 80 3f fd c5 7e 3f 05 56 85 3f
       1.025373 1.000311 0.99520856 1.0416876
0000c0 87 b4 82 3f 78 0d 7e 3f 6a ee 6f 3f 05 3e 8a 3f
       1.0211343 0.992393 0.93723166 1.0800177
0000d0 c6 f7 77 3f c7 c8 81 3f c3 3b 87 3f b2 cf 74 3f
       0.9686245 1.0139397 1.0565113 0.9562942
0000e0 01 2a 7e 3f 1a 03 85 3f 37 21 8e 3f e3 08 80 3f
       0.9928284 1.0391572 1.1103886 1.0002712
0000f0 19 39 8c 3f 69 c1 86 3f 88 94 7f 3f 1e b5 80 3f
       1.0954925 1.0527774 0.99836016 1.0055273

valueHead.1.bias f4 [64]
000000 e0 bd 99 bc 2c 6a 9d bc 3f bb 26 bd 86 38 a2 bc
       -0.018767297 -0.019215666 -0.040705916 -0.019802343
000010 d2 f3 ac bc ea de ba bc 31 3c e5 bb f5 94 68 bc
       -0.021112356 -0.022811372 -0.0069957008 -0.01419567
000020 87 f4 0a bd 44 91 03 bd b3 03 1d bd 22 54 80 bd
       -0.033924606 -0.032120958 -0.038333606 -0.06266047
000030 2b 9d c8 bc c2 ba 41 bd 98 15 0e bd ad bb 1c 3c
       -0.024489006 -0.047297247 -0.034688562 0.00956623
000040 56 8e 0d bd 60 c4 07 bb 09 be a3 b9 9d be 22 bd
       -0.03455957 -0.0020716414 -0.0003123137 -0.039732564
000050 d0 fd c9 bc 8b e9 86 bd 01 bf 7e bd d6 53 b4 bc
       -0.02465716 -0.065875135 -0.062193874 -0.022012632
000060 d3 00 70 bd 25 f0 5b bd c0 0d 2a 3a 0e 54 6e bd
       -0.058594536 -0.053695817 0.0006487034 -0.05818563
000070 b9 9e d1 38 54 d2 43 bd 92 48 24 bc 5a 71 d3 bc
       9.995461e-05 -0.047808006 -0.010027068 -0.025810886
000080 58 d1 e6 bc dc e8 7b bc 59 4b 63 bd 90 dd 4d bd
       -0.028175995 -0.015375342 -0.05549178 -0.050260127
000090 37 e0 5f bd 0a 3f 06 bd ed 3e ed bc 30 36 47 bd
       -0.054657187 -0.032774962 -0.02896067 -0.04863566
0000a0 73 ac 42 bd f7 4d 3c bc 1c 7c 14 bc b8 bd 8c bb
       -0.04752774 -0.011493198 -0.009062793 -0.004295077
0000b0 de 1b c6 bc f6 82 67 bd 69 ec 18 bc 13 71 93 bc
       -0.02418321 -0.05652138 -0.009333708 -0.017998254
0000c0 a3 b4 12 bd 95 2e cd bc d4 0e d9 bc 0d 7d ef bc
       -0.0358168 -0.025046626 -0.026496328 -0.029234434
0000d0 a8 d6 1a bd f5 31 81 bd 7d b5 9f bb 4c f6 2e bc
       -0.03780237 -0.06308357 -0.00487393 -0.010678839
0000e0 e9 63 27 bd 5c d7 26 bd e4 a0 3f bd cc 37 a5 bd
       -0.040866766 -0.040732726 -0.046784297 -0.08067283
0000f0 41 0a 64 bd 1f f2 c3 bb a2 4f 1b bd b3 a9 33 bc
       -0.05567384 -0.005979791 -0.03791774 -0.010965752
