Yahtzee/ModelsNN3/version_2_model_2.pt (torch, 96842 bytes, 19 tensors)

policyHead.0.weight f4 [128, 50]
000000 ce 0f b9 3d d1 69 0f bf d6 5b df be d2 4f 93 3e
       0.09036218 -0.5602084 -0.43624753 0.28771836
000010 f8 69 81 3d 06 63 ca 3c b8 1d 3a bf 4c 3c d4 be
       0.0631904 0.024705421 -0.727016 -0.41452253
000020 a2 d4 49 bf ba 88 08 3f 33 0a 18 bc b4 1a 4f be
       -0.78840077 0.5333363 -0.009279775 -0.2022503
000030 af d7 7d be ef 74 f9 ba 52 d1 71 3e 35 fd 95 3c
       -0.24789308 -0.0019032041 0.23615006 0.018309215
000040 75 d6 80 3e 57 06 90 be 0d a6 9a 3d 23 33 92 be
       0.25163618 -0.28129837 0.07551203 -0.2855464
000050 de ef 08 3e 11 a5 a2 3d 7c 4a 82 3d da 10 14 bd
       0.13372752 0.0794164 0.06361863 -0.036148883
000060 e9 d8 07 bd cf 35 bc bd 0d eb 0c be f3 f1 06 3e
       -0.033165846 -0.09189951 -0.1376154 0.13178234
000070 65 8a 27 bd bf 49 9e bd 7e 76 da 3c ba e3 9d 3d
       -0.040903468 -0.0772891 0.02666783 0.07709451
000080 2f 4e d7 be dc d0 eb bd de 5a 73 3e 10 8e 66 3d
       -0.42051837 -0.11514446 0.23765132 0.056287825
000090 b7 1d 80 bc b1 85 b7 be 33 98 a3 3e 9d 04 21 3d
       -0.01563917 -0.35844186 0.31952056 0.03931104
0000a0 18 13 8a be dd b1 03 3e 95 8c a8 be b6 e4 97 3e
       -0.26967692 0.12860818 -0.32919756 0.2966668
0000b0 a5 cf 1f bf 42 8e 1d bf 94 98 99 be 49 e7 cc bd
       -0.62426215 -0.61545193 -0.2999922 -0.10005052
0000c0 d1 93 fc 3d 41 45 f4 3c f7 0b a7 3d b8 4d 3e be
       0.12332881 0.02981818 0.08156579 -0.18584335
0000d0 8a 2d 01 3e 57 0d 22 3e b5 5c 46 bd 63 f4 17 bd
       0.12615028 0.15825401 -0.048428256 -0.0370983
0000e0 e2 a6 2e 3e 04 54 81 3d 34 17 fe bd 9e ad 8f 3c
       0.17055848 0.06314853 -0.124067694 0.017538842
0000f0 91 33 82 3d 22 e7 4a 3f 76 08 68 be 5e a9 95 be
       0.06357492 0.7925893 -0.22659478 -0.2923078
000100 c9 b5 3d be 79 bb 61 3d 0e 2e 74 be 63 c4 92 3e
       -0.18526377 0.05511043 -0.23845693 0.28665456
000110 81 50 13 3e e9 6d eb 3d 12 47 a8 3c 28 c6 83 bd
       0.14386179 0.11495573 0.020541701 -0.0643428
000120 86 5f 08 bd 5f d9 90 bd b2 6f 9b bd b2 63 36 bd
       -0.033294223 -0.0707271 -0.075896636 -0.04452867
000130 32 49 02 3e bb 56 4b 3c 16 2a 51 3c 3a 8c 0e 3c
       0.12723234 0.012410815 0.012766382 0.008700425
000140 31 1f ac 3d ba 7b ee 3d f7 f0 43 3f 93 6a cb 3b
       0.08404387 0.11644693 0.7653956 0.006207773
000150 5e 25 a1 bd fe 76 9a be de 2f a4 be 0d be c4 3e
       -0.07868455 -0.3016891 -0.3206777 0.38426247
000160 d2 18 48 3e 63 13 b6 3d 77 bb d2 be a1 b8 04 bf
       0.19540718 0.088904165 -0.4115865 -0.5184422
000170 e2 3c 3a bd 5e bd 0c 3f c1 d7 92 bd 22 a2 8d be
       -0.04546822 0.5497645 -0.07170058 -0.2766276
000180 2e e3 1e bb a5 e8 51 3e c3 4b 0d be d7 91 26 be
       -0.0024244296 0.20498903 -0.13798432 -0.16266571
000190 e3 04 a4 bc 89 4a 94 3e a2 91 dc 3e ef 6a 29 3e
       -0.020021861 0.28963116 0.4307986 0.16544698
0001a0 ce 77 54 bd cc 45 9e bd b4 a5 02 bd 98 c1 85 3e
       -0.051872067 -0.077281564 -0.031896308 0.26124263
0001b0 d4 b1 92 3d 78 11 2f be 47 39 16 3b bd 8b 9f be
       0.07162824 -0.17096508 0.0022922324 -0.311613
0001c0 ec 75 d8 3e 03 d7 0a 3d 54 2d 6e be dc 31 71 3d
       0.42277467 0.033896457 -0.23259479 0.05888544
0001d0 d8 bf 60 bc 93 eb bf 3e 02 cb b1 bd 53 27 12 3e
       -0.013717614 0.37484416 -0.08681299 0.14272813
0001e0 34 54 90 3c 5a 11 0f be a2 bd c9 bc a9 b7 02 be
       0.017618276 -0.13971463 -0.024626557 -0.12765373
0001f0 38 a5 35 3d 81 ec 0a bc 50 46 ae bd 40 d3 e3 3d
       0.044347018 -0.0084792385 -0.08509505 0.11124277
000200 5a 27 a3 bc 69 5f 31 bd f1 bb ed 3d de 77 ca bd
       -0.019916225 -0.04330388 0.116081126 -0.09886144
000210 5e 42 2c 3f aa 40 37 3d bc c8 e6 3e cb 72 fb 3b
       0.6728877 0.044739403 0.45075023 0.0076735965
000220 67 4f 68 3c b9 4f 85 be 26 8a 77 3d 73 c1 c1 3d
       0.014179087 -0.26037386 0.060434483 0.09460726
000230 60 46 a0 be 8f 05 13 3e 25 af 17 be b3 6f 7f be
       -0.31303692 0.14357589 -0.14812906 -0.24944954
000240 b3 97 fd bd d8 0e 80 3d f7 19 c1 3d 9a f5 12 3e
       -0.1238245 0.06252831 0.094287805 0.14351502
000250 8c 68 b4 3d 44 d4 4e be 94 fe f6 bd 58 24 22 3f
       0.08809003 -0.2019816 -0.12060276 0.63336706
000260 b9 5c 75 3e c1 c2 cd 3d 47 7a 19 bf 05 18 46 bd
       0.23961152 0.10046912 -0.59952205 -0.04836275
000270 da 0c ef 3d bb 79 0d 3f 0b b8 ff bd 00 4a 4f be
       0.11672373 0.5526387 -0.12486275 -0.20243073
000280 6a ff bc bd 24 57 21 3e 64 20 bc 3d 8e 40 3e 3e
       -0.09228404 0.15755898 0.091858655 0.18579313
000290 cb a7 89 3d 4c 24 b0 bd de 9e 05 bd b0 5a 81 bd
       0.06721457 -0.08600673 -0.03262221 -0.063161254
0002a0 c9 bc 31 3e 3e d7 78 3e be 6f 0d 3e 6a 1c f0 3d
       0.17357172 0.24300858 0.13812158 0.117241696
0002b0 68 c3 bd bc e9 ad a7 3c 03 ad 10 3e 01 31 e1 ba
       -0.023164466 0.020468669 0.14128499 -0.0017180742
0002c0 b8 df b8 bc e9 ac 03 be c9 cc 8e bd 8e 69 ec bd
       -0.022567615 -0.12858929 -0.069726534 -0.115435705
0002d0 99 88 d7 bd 2a 64 b3 bd b8 f2 90 3e 42 20 85 3e
       -0.10524101 -0.08759339 0.2831018 0.26001173
0002e0 bc 44 16 be ba c7 a0 bd ca 1e 49 bd ee 2d 73 bd
       -0.14674658 -0.07850595 -0.04910163 -0.059369974
0002f0 fa 2f 27 3e 90 3a 08 3d 0c cc 85 be ac 7a 66 3d
       0.16326895 0.033258975 -0.26132238 0.056269333
000300 e9 a8 03 be 9e 6f bd 3d 0b 04 18 3e d7 40 66 bd
       -0.12857403 0.09249805 0.14845292 -0.05621418
000310 0e fe 39 3a ef 40 c0 3c 69 24 94 3d f9 c4 41 3e
       0.0007095047 0.023468463 0.07233507 0.18922795
000320 9f dd 0f 3d 9d fd 43 3d 99 4e f9 bd d3 0a 96 bc
       0.035123464 0.047849286 -0.121731944 -0.018315708
000330 e4 51 10 3e 4a 17 10 3e d6 db f1 3d b4 a2 c4 be
       0.14093739 0.14071384 0.118095085 -0.38405383
000340 41 ab 50 3e 02 94 6f bd ea 98 be bd b1 47 f1 bd
       0.20377828 -0.05849076 -0.0930651 -0.11781252
000350 ec bb c1 3e b3 28 04 be 40 e2 f8 bc 1b e2 85 3c
       0.37838686 -0.1290615 -0.030381322 0.016343167
000360 18 f6 f6 3c 36 0e b5 bc c0 21 48 3e 21 52 09 bf
       0.030146644 -0.022101503 0.19544125 -0.53640944
000370 8b 81 08 3e 1c 8c 0d be c8 63 01 bd 51 d6 0d be
       0.13330667 -0.13822979 -0.0315893 -0.13851286
000380 b2 a6 a9 3d 00 b2 b2 3d 6c 9a bb bd 87 6e 84 3d
       0.08283748 0.08725357 -0.09160313 0.06466394
000390 52 bf e0 3d 23 f2 bc 3c 47 6a d8 bd cf d3 d2 3d
       0.109739915 0.023064679 -0.10567146 0.102943055
0003a0 99 5f cd 3e 4c 5a 47 3c c3 f7 1e be 75 ee cc 3d
       0.40111998 0.012167525 -0.15524201 0.100064196
0003b0 4e 8c f8 bc 20 e7 ca bd a7 05 b5 be f3 67 a6 3d
       -0.03034034 -0.09907365 -0.35355875 0.081252955
0003c0 9d a4 1c 3f 3c cb 20 3e 6c 9d bf ba 94 a9 82 bd
       0.6118868 0.15702528 -0.0014619059 -0.06380001
0003d0 6d dd 89 3b 95 7a 7c be 06 d7 66 bd 57 08 78 bd
       0.004207304 -0.24656136 -0.056357406 -0.06055483
0003e0 d5 da 30 3d f3 b1 81 3e a0 03 b7 3c dd 5d 7b bc
       0.043177444 0.25331077 0.022340596 -0.015342203
0003f0 76 c0 6a be a4 70 9d 3e c1 ab 18 bb 77 1c 01 be
       -0.2292498 0.3075 -0.0023295733 -0.12608515

policyHead.0.bias f4 [128]
000000 d0 50 b1 3d e3 50 da 3d df 97 f0 3d 77 81 14 3e
       0.08657992 0.10659959 0.11747717 0.14502512
000010 e0 c2 ca bb 00 bb 01 3e ea 89 4a bd f0 46 3d be
       -0.0061877817 0.12668991 -0.04944793 -0.18484092
000020 2c 6c d7 bd 27 3f 04 bd 96 bc 5c bd 4d a2 84 3d
       -0.10518679 -0.03228679 -0.053890787 0.06476269
000030 39 d7 f7 3b 37 09 b7 3d 65 05 d9 bd ab cf ce 3d
       0.0075634983 0.089373045 -0.10596732 0.10098203
000040 9f e0 93 bc ea 03 dc bc 0f 0d 2e be 8d 2a 0c 3e
       -0.018051444 -0.026857335 -0.16997169 0.13688107
000050 71 30 b4 bd fd 6a 17 be be bf fa bd 50 d4 20 3e
       -0.08798302 -0.14786907 -0.12243603 0.15705991
000060 97 ff ea 3d 44 8b c9 3d ec b9 27 be 7e c4 50 3d
       0.11474531 0.09841016 -0.16379517 0.05096864
000070 86 13 30 3d 30 a5 f2 3d 7e a7 30 be 95 93 a5 3d
       0.04298737 0.11847913 -0.17251393 0.0808479
000080 e9 36 5f 3d 16 0c be 3c 1e 41 ee bd fc ea 84 3d
       0.054495726 0.023199122 -0.11633514 0.06490132
000090 d1 2a 76 3d 93 a0 15 3e 1d cb b5 bc 51 1c 6c 3d
       0.060099427 0.14612035 -0.022191579 0.057644192
0000a0 e7 be 07 3e 65 54 b6 bd 99 32 7c 3d 8e 35 e0 bd
       0.13256417 -0.08902816 0.06157169 -0.10947715
0000b0 05 f7 fc bb 20 38 39 3d b4 9b fd bd c6 ef 1d 3d
       -0.0077198767 0.04521954 -0.12383214 0.038558744
0000c0 8b 5b 64 bd 3b 87 f3 3d 57 7e 9e bd 4e 28 08 3e
       -0.055751365 0.118910275 -0.07738941 0.13296625
0000d0 bd d4 96 3c 58 37 a7 3d fd 63 5f 3c c5 62 09 3e
       0.018411988 0.08164853 0.013634679 0.13416584
0000e0 e1 46 ef bd 6e 03 d2 bd 7d 5f a2 3d f9 ab 8e bd
       -0.11683441 -0.102545604 0.07928369 -0.06966395
0000f0 70 9a c2 3d 83 14 c6 3a 9f f6 5e bd 3d 97 cf bd
       0.09502113 0.0015112314 -0.054434415 -0.10136268
000100 dc 02 e3 3d 01 a6 89 3d e0 99 4d 3d 95 6c b3 3d
       0.1108453 0.06721116 0.050195575 0.08760945
000110 bd 9c d5 3d 5e 9e 49 3e bd f9 06 be d4 26 e3 bd
       0.10430286 0.19689319 -0.13181205 -0.1109139
000120 72 f0 20 3d 90 1c 90 3d d4 cf 10 3e 34 82 1b 3e
       0.039291807 0.07036698 0.1414178 0.15186387
000130 26 81 3e 3e 99 13 4f bd 6d a9 50 3c 3f a5 83 3e
       0.18603954 -0.0505558 0.012735707 0.2571201
000140 95 30 a2 3c b9 58 cd 3c 26 d8 f7 bd fb 16 d5 3d
       0.019798556 0.02506672 -0.12101774 0.10404774
000150 4b c6 01 3e 3d bb 1d 3e ec 31 8c 3d bc 8a 7d 3d
       0.12673299 0.15403457 0.06845459 0.061899886
000160 b4 24 47 3e 42 27 5d 3d 19 52 8d bd 12 bd d8 3d
       0.19447595 0.053992517 -0.069004245 0.10582937
000170 48 c7 1c be 74 26 17 bd b7 ab 20 bd ae 7a 91 bc
       -0.15310395 -0.036901906 -0.03922626 -0.017758694
000180 2c b5 8b 3d 14 f7 cf 3d 81 1a 37 be c9 75 27 be
       0.06821665 0.10154548 -0.17881204 -0.16353525
000190 4c ca 01 3e e1 91 74 bd cf e8 b2 bc 22 39 43 3c
       0.12674826 -0.059709433 -0.021839527 0.011915477
0001a0 99 73 2a 3e 0b 3f fc 3d 25 a2 13 3e 14 79 4b 3d
       0.1664566 0.12316712 0.14417322 0.049676016
0001b0 6b b7 e3 3d b3 fe f4 3d 76 ee f3 3c 7a bf df bc
       0.111189686 0.119626425 0.029776793 -0.027312983
0001c0 b3 eb de bb 98 a9 f7 3d 42 2d 70 bd 6a a7 42 bd
       -0.006803 0.12092894 -0.05863691 -0.04752294
0001d0 09 e5 08 3e 33 e9 31 be c7 fd 8a bd 56 8d ae bd
       0.1336862 -0.17374115 -0.067866854 -0.085230514
0001e0 4e 31 99 3d 7b e9 cf bd 17 ea c8 3d 8a bd a1 bd
       0.07480107 -0.10151955 0.09810274 -0.0789748
0001f0 eb 8e 3d bd 54 a0 0b 3d 94 5c 92 bd d8 21 4f bc
       -0.046278875 0.034088448 -0.07146564 -0.012642346

policyHead.1.weight f4 [128]
000000 cd 6c bd 3f 7b 53 ac 3f cb b5 98 3f 97 ca 8c 3f
       1.4798828 1.3462976 1.1930479 1.0999326
000010 0f 0a 90 3f 4d b3 90 3f 18 a7 5f 3f a4 2f ac 3f
       1.125307 1.1304718 0.8736434 1.3452039
000020 65 99 9d 3f b8 ea ac 3f 22 62 14 3f ef 64 aa 3f
       1.2312437 1.350913 0.5796224 1.3312052
000030 37 c0 9e 3f 71 d0 2f 3f 8a 9c 9b 3f a2 aa 9f 3f
       1.2402409 0.6867743 1.2157147 1.2473948
000040 bd 47 85 3f a4 0c 60 3f 6c 4e 85 3f 4c ce 66 3f
       1.0412518 0.8751929 1.0414557 0.90158534
000050 f0 bc 72 3f f0 0d 01 3f 80 06 8f 3f 07 7a 7a 3f
       0.94819546 0.5041189 1.1173859 0.9784245
000060 d7 fd 7b 3f ed 15 ce 3f 80 57 81 3f f3 1a 6f 3f
       0.98434204 1.6100441 1.0104828 0.93400496
000070 14 3e 86 3f 31 e1 6a 3f 54 66 a8 3f f5 37 55 3f
       1.0487695 0.91749865 1.3156228 0.8328851
000080 97 21 97 3f 68 8d 79 3f f0 92 68 3f f1 b8 3e 3f
       1.1807126 0.97481394 0.9084921 0.7450095
000090 46 7d 7a 3f 3d 50 71 3f 31 3e 9f 3f c5 77 c9 3f
       0.978474 0.9426306 1.2440854 1.5739676
0000a0 fb 40 83 3f ea fd 67 3f 8a 8a 84 3f 77 9e 94 3f
       1.0254205 0.9062182 1.0354779 1.161086
0000b0 a8 ea 6c 3f dd eb 8b 3f 76 3c a5 3f 65 b2 6b 3f
       0.9254556 1.0931355 1.2909076 0.92069083
0000c0 4c aa b0 3f e6 85 80 3f b0 79 44 3f 90 d2 72 3f
       1.380197 1.0040863 0.7674818 0.9485254
0000d0 a8 4f 8b 3f 97 5a 80 3f 5b cf 95 3f 25 74 2c 3f
       1.0883684 1.0027646 1.1703905 0.6736472
0000e0 05 a9 38 3f 34 82 9c 3f 7f 74 99 3f 1e 78 6d 3f
       0.72132903 1.2227235 1.1988677 0.9276141
0000f0 4f ee 47 3f 89 67 a6 3f 7a 0a 84 3f a6 6f 70 3f
       0.78098005 1.3000346 1.0315697 0.9392036
000100 7f fe 81 3f 89 c6 6a 3f 2a 24 75 3f 08 f7 4e 3f
       1.0155791 0.9170919 0.95758307 0.8084569
000110 b9 22 7f 3f cf 2e 55 3f fa 56 cd 3f 37 42 c1 3f
       0.9966236 0.8327455 1.6042168 1.5098332
000120 a9 5b 7e 3f 80 ff 7d 3f f6 9b 67 3f 59 0e 7c 3f
       0.9935861 0.9921799 0.9047235 0.9845939
000130 e2 de 81 3f 8e 2f 73 3f 06 32 92 3f bd ac a0 3f
       1.0146143 0.9499444 1.1421516 1.2552716
000140 4d 40 2d 3f 67 e3 21 3f ed a7 cd 3f 1a 54 5f 3f
       0.6767624 0.63237613 1.6066872 0.87237704
000150 d4 e1 79 3f 38 57 72 3f 9e 86 8b 3f 14 75 3b 3f
       0.9761021 0.94664335 1.0900457 0.7322552
000160 ab 41 95 3f 9d 08 f7 3e aa 0b a2 3f c4 c0 84 3f
       1.1660665 0.4824876 1.265981 1.0371327
000170 9d cb 9a 3f 5f 14 68 3f 20 cd 83 3f 05 26 75 3f
       1.2093388 0.90656084 1.0296974 0.9576114
000180 3c 5a 7a 3f 28 95 7b 3f 20 84 ae 3f 85 c2 6a 3f
       0.97793937 0.9827447 1.3634071 0.91703063
000190 51 df 69 3f 7a 4d 83 3f 7d e0 1f 3f 58 c8 ba 3f
       0.9135638 1.0258019 0.62451917 1.459239
0001a0 6f a4 53 3f 9a 2a 79 3f e9 ed 80 3f 1a fc ad 3f
       0.8267278 0.9733063 1.0072604 1.359256
0001b0 78 df 67 3f e2 ca 8c 3f 72 cb 90 3f bb c9 76 3f
       0.9057536 1.0999415 1.1312087 0.96401566
0001c0 f6 cb a6 3f e9 cc 7b 3f c2 da 48 3f 45 c5 79 3f
       1.3030994 0.98359543 0.784588 0.97566634
0001d0 75 4e 71 3f 76 9c 6b 3f 54 1a 73 3f 27 d5 9f 3f
       0.9426034 0.92035615 0.9496205 1.2486924
0001e0 6c 73 8d 3f ab 17 50 3f 95 6a 6f 3f 8d bf 8b 3f
       1.1050849 0.81286114 0.93522006 1.0917832
0001f0 03 26 87 3f 98 ca 71 3f 36 4f ce 3f e9 9c b1 3f
       1.0558475 0.9444976 1.6117923 1.387601

policyHead.1.bias f4 [128]
000000 66 15 66 be 1c 65 37 bd e1 da b8 bd 3a 27 2a bd
       -0.224691 -0.04477416 -0.09026123 -0.041541316
000010 7e c7 1d be ad 5c cd bd 9c d8 7b be 9d f6 ab be
       -0.15408131 -0.10027442 -0.24594349 -0.33586589
000020 60 2b 21 be a4 27 19 be 43 be 1a bf e3 40 a2 bd
       -0.15739202 -0.14956528 -0.60446566 -0.079225324
000030 bc ba 40 bc 2a 48 00 bf 70 7b 25 be 27 aa bd bd
       -0.011763271 -0.50110114 -0.16160369 -0.092609696
000040 bd 67 1a be 40 fd 32 be b5 8a 12 be 4f ae 13 be
       -0.15078636 -0.1747942 -0.14310725 -0.14421962
000050 fb 6c 77 be 70 61 df be d8 02 89 be a0 dd 7d bd
       -0.24162666 -0.43629026 -0.26759982 -0.061978936
000060 09 95 9d bd 00 11 6d 3c 2a 40 9d be 98 dd d1 bd
       -0.07694442 0.014469385 -0.30713016 -0.10247344
000070 56 e2 96 bd 37 77 bd bd 39 ce 9d be cd 59 6b be
       -0.07367389 -0.09251254 -0.30821398 -0.22983475
000080 b9 3e 7f bd 28 37 19 be a6 50 38 be af a5 99 be
       -0.062315676 -0.14962447 -0.17999515 -0.3000922
000090 ee 9f 1a bd 54 90 f5 bd 8f 15 a3 be 25 1f d1 be
       -0.037750177 -0.11990419 -0.31852385 -0.40844074
0000a0 fe f8 0f be 04 59 0c be 8f 53 e9 bd be 8e 23 be
       -0.14059827 -0.13705832 -0.11392891 -0.1597242
0000b0 93 23 c3 bc 0a 10 2c be dd 2c 81 be 07 2b 30 be
       -0.023820674 -0.16802993 -0.2522954 -0.17203914
0000c0 7c 95 44 be d8 9c 03 be ee 05 9d be 62 01 12 be
       -0.19197649 -0.128528 -0.30668586 -0.1425834
0000d0 8e f7 a6 bc fd 22 0c bd ac 46 a0 be 1d ae d1 be
       -0.020381715 -0.034213055 -0.31303918 -0.4095315
0000e0 49 a5 df be 82 b9 bf bd 24 6c 25 be 74 65 76 be
       -0.4368079 -0.09361555 -0.16154534 -0.24062139
0000f0 b8 89 49 be 08 57 fb bd 1e 56 c9 bd a7 cf a5 be
       -0.19681442 -0.12272459 -0.09830879 -0.3238499
000100 d3 44 87 bd 4b c8 3b be 36 54 11 bd 86 0f d9 bd
       -0.06604924 -0.18338124 -0.0354807 -0.10598664
000110 31 d7 62 bc 7f 87 ba bd ad 46 96 3b 75 60 d1 3c
       -0.013845251 -0.09107875 0.004586062 0.02555869
000120 d2 8d 1c be a0 75 82 bd 71 37 a7 bd 3e 45 0d bd
       -0.15288475 -0.063700914 -0.081648715 -0.034489863
000130 0e b3 da 3b 53 55 c2 be 6b 6c 1d be fa 64 bd bd
       0.006674177 -0.37955722 -0.1537339 -0.092477754
000140 32 09 0b bf e9 b4 db be 32 37 0f 3d 69 40 20 be
       -0.54310906 -0.4291146 0.034964748 -0.1564957
000150 60 dc 73 bd 1e 15 74 be 61 b6 4e be 61 42 b5 be
       -0.059536338 -0.2383618 -0.2018676 -0.35402206
000160 8f 31 d9 bd 6d 1a 07 bf ad 39 10 bb a2 0d 4b bc
       -0.10605156 -0.527747 -0.0022007034 -0.012393387
000170 f4 5f 8d be d6 bf 63 be 52 18 2b be 98 19 4e be
       -0.2761227 -0.22241148 -0.16708496 -0.2012695
000180 95 c9 f5 bc 55 60 99 bd c0 5a 8c be b2 da b9 be
       -0.030003348 -0.07489077 -0.27412987 -0.36299664
000190 ca 46 01 be ba 77 21 be e8 17 9e be 6e 60 29 be
       -0.1262466 -0.15768328 -0.30877614 -0.16540691
0001a0 dc d2 f1 bd fd 4a af bd 36 06 2e bd 12 c9 51 bd
       -0.11807796 -0.08559225 -0.042486392 -0.051217146
0001b0 f9 06 15 be 38 60 85 be 59 f5 cf bd 6d cd 7a be
       -0.14553441 -0.26049972 -0.10154218 -0.24492426
0001c0 45 f1 c6 bd 08 89 b2 bd 14 23 27 be be b0 4b be
       -0.09713987 -0.08717543 -0.16321975 -0.1989164
0001d0 c3 78 40 be bc bc 85 be 12 af 3c be 9f f1 31 be
       -0.18796067 -0.26120555 -0.18426159 -0.17377327
0001e0 74 c3 53 be 64 10 17 be 7f 0e 8f bd de 4a ef bd
       -0.20680028 -0.14752346 -0.06985187 -0.11684202
0001f0 16 9d 63 be 2d 0b 9e bd 36 ba b5 bd b4 ff 93 be
       -0.22227892 -0.07716975 -0.088734075 -0.28906024

policyHead.3.weight f4 [64, 128]
000000 c4 23 ba be e9 a7 fd 3d f7 10 d1 3e ee 1e cc 3d
       -0.36355412 0.12385542 0.40833256 0.09966837
000010 7c 77 34 3e 44 12 80 3e f3 eb 95 bd f4 34 77 be
       0.17623705 0.25013936 -0.07320394 -0.24141294
000020 09 54 e2 bd ea f0 a8 3d 94 af 25 be ca 1e c4 bd
       -0.11051185 0.08249076 -0.16180259 -0.09576185
000030 e6 44 52 3e 3b 7c 20 bd 7e 1b 36 be bb 20 8a bd
       0.20534095 -0.039180975 -0.17783925 -0.06744524
000040 30 26 56 bd 27 38 93 bd a0 99 5e 3d 45 55 ca 3d
       -0.052282512 -0.071884446 0.054345727 0.09879545
000050 c6 3a 5b 3e f9 85 58 be d5 e5 2f 3e fb f1 04 3d
       0.21409139 -0.21144857 0.17177518 0.032457333
000060 d5 df b3 bd e0 e9 04 3f a9 38 d9 bd 43 e0 b4 3d
       -0.08782927 0.51919365 -0.1060651 0.08831837
000070 75 65 80 3d dd f9 d0 bc 3f b7 b9 3b d2 b6 3c bd
       0.062693514 -0.02550977 0.0056675966 -0.04607279
000080 3b 10 ba 3d ec 5d 81 3c 1e 9d ef 3d 72 ff 55 be
       0.09085127 0.015791856 0.116998896 -0.20898226
000090 4c e9 e9 3d c1 e0 48 bb 8c 90 34 bd e0 bb 5c be
       0.11421451 -0.0030651542 -0.044083163 -0.21556044
0000a0 96 c3 8c 3b e5 fe 2c 3d b3 f9 a2 3d 6e b5 21 be
       0.0042957766 0.042235274 0.079577826 -0.15791866
0000b0 0f ba 21 3d 2c 9f 1b be e4 29 5d be c2 3d d1 bd
       0.03948408 -0.15197438 -0.21598011 -0.102168575
0000c0 ec cf 9b bd 93 cc 94 3c 57 94 3e bd e3 2d 1f 3d
       -0.07608017 0.018163955 -0.046528187 0.03886212
0000d0 8b b1 46 3e 10 e6 a5 bd 8f dc 00 3d 8b 33 ef bd
       0.19403665 -0.081005216 0.03146034 -0.11679753
0000e0 8a df c8 bc 69 6c a1 3e 9a 55 a6 bd 93 35 02 3d
       -0.024520654 0.31528023 -0.08121796 0.031789374
0000f0 2a c4 e6 3d 35 94 5d 3e 67 18 a5 3d 98 15 97 bd
       0.11267884 0.21638568 0.08061295 -0.073771656
000100 a4 7e aa 3d 13 4f 6d 3d 40 d5 91 3d b5 1c 6f bc
       0.08324936 0.05793674 0.07120752 -0.014594247
000110 87 3c bb 3d 4b 39 94 3b f7 16 00 3e c5 97 bd bd
       0.09142404 0.0045234314 0.1250876 -0.09257463
000120 2c b1 67 bc eb f4 83 3d ab 7e 21 bd 42 bd 1f bd
       -0.014141362 0.06443199 -0.03942744 -0.03899885
000130 41 4f a6 bd 5e 3c 11 3e 96 f3 0c bd da 46 7e be
       -0.08120585 0.14183185 -0.03441199 -0.24831715
000140 ea 8e 72 bd c7 75 0a 3d 8d b5 2d 3f bd 8c 3b 3d
       -0.059218325 0.033803727 0.6785515 0.045788515
000150 b2 05 3f 3e b6 3b 51 3d ff 3a a7 3c bc 03 88 3d
       0.18654516 0.051082335 0.020413874 0.06641337
000160 1a 34 11 bd 45 81 05 be 79 78 bd be 0f 3c 59 bd
       -0.03545008 -0.13037594 -0.37005976 -0.053035792
000170 5a bb 7d be 36 8c 56 3e af 02 16 be 2d 23 4f 3b
       -0.247785 0.20951924 -0.14649461 0.003160666
000180 7a fd 3d 3d 9d 68 11 3e 50 0c 39 be a6 26 dd bd
       0.046384312 0.14200063 -0.18071103 -0.10798387
000190 5f f6 b4 3d 32 e8 cb bb 6a 3a fd 3b 1b a6 90 bc
       0.08836054 -0.006222748 0.0077279108 -0.01765733
0001a0 72 50 6d 3c 12 91 8b 3d 0a 34 f3 bd 98 8d 79 3e
       0.014484512 0.06814779 -0.1187516 0.2437042
0001b0 01 66 0b be ce 53 69 be ab f0 76 3e f3 01 2f 3e
       -0.1361313 -0.22785875 0.24115245 0.17090587
0001c0 ee c3 7a bd 42 96 e7 3d 7c e5 50 bd 15 55 6d 3e
       -0.06122201 0.11307956 -0.051000103 0.23176987
0001d0 ae 57 ae 3c ca 22 25 3b 34 af 6d bd ce 8c fb 3e
       0.021282043 0.0025197738 -0.058028415 0.49130863
0001e0 17 51 56 3e e6 3d 37 3d a2 c1 fc bc e9 a3 1e 3e
       0.20929371 0.044736765 -0.03085405 0.15492214
0001f0 74 b5 31 bd 6e a3 0b 3d 79 bb 8e 3e 9e 11 8f be
       -0.043385938 0.034091406 0.27877405 -0.27943128
000200 f6 cc 73 be 89 55 b5 3e 62 f7 91 bd 00 7e 18 3e
       -0.23808655 0.3541682 -0.07127263 0.14891815
000210 65 4e 5c be 76 f6 d9 bd 03 5a 2e be 8b a7 e4 bd
       -0.2151428 -0.10642712 -0.17026524 -0.11164769
000220 29 42 c0 3d 92 8d 10 3d b0 ba 32 bd a9 a1 0c be
       0.09387619 0.035291262 -0.04363507 -0.13733543
000230 40 98 f5 3c 01 e4 11 be 33 46 84 3b 67 58 5b 3e
       0.029979825 -0.14247133 0.0040366887 0.21420442
000240 59 51 5e 3d dc b4 a0 bc b5 83 5d 3d 41 39 a0 bd
       0.054276798 -0.01961749 0.054080684 -0.0782342
000250 aa fb 22 bd 31 be d6 bd 1d 02 6a bc cd 98 4a bd
       -0.039790787 -0.10485495 -0.01428273 -0.04946213
000260 61 64 15 3d e0 ad 42 be 77 15 51 be f4 e1 4d 3c
       0.036472682 -0.1901164 -0.20418344 0.012566078
000270 8d 00 9f ba cc 30 1b 3d 2d d8 eb bd 51 d5 db bd
       -0.0012130901 0.037888333 -0.11515842 -0.10734046
000280 0e 32 96 3d 2d 44 e4 3c 00 0e 23 bd 31 56 c2 bc
       0.07333766 0.02786454 -0.039808273 -0.02372274
000290 c0 3e a0 3e 9c 81 81 3d 24 4c 7b be 0e 09 a6 be
       0.31297874 0.06323549 -0.24540764 -0.32428783
0002a0 c0 2e 76 3e 09 14 0f 3b 14 a9 41 bd 48 fc ff bd
       0.24041271 0.002183201 -0.047280386 -0.12499291
0002b0 37 05 22 be 2c 04 43 be c6 4c d5 3c d1 72 6c bc
       -0.15822302 -0.1904456 0.026037585 -0.014431671
0002c0 76 89 a2 bd 2f a4 22 bd e9 7d 7e be 9c 02 9a bd
       -0.07936375 -0.03970736 -0.24852718 -0.07520029
0002d0 51 76 62 3e c9 87 bd bc 68 dd ce bd c0 7a 6c be
       0.22115447 -0.023136036 -0.10100824 -0.230937
0002e0 27 6a 04 be 3e 7b a6 3e 18 b0 c0 bd 53 d2 86 bd
       -0.12931119 0.325159 -0.09408587 -0.06583085
0002f0 a3 5b 44 3d a2 c3 25 bd 45 4a 3c 3d c9 1b 35 39
       0.047938954 -0.040469773 0.045969266 0.00017271856
000300 e3 13 8d bd 1f 19 88 bd 11 2f c5 bc 75 b8 14 3a
       -0.06888559 -0.066454165 -0.024070295 0.0005673238
000310 b1 7e ca 3c ca 39 93 bc 8e eb 33 be 9c 2a b7 be
       0.024718614 -0.017971892 -0.17570326 -0.35774696
000320 6b dc e3 bd e4 fc e5 bd 8e c5 e1 bd e3 8a 6f bd
       -0.11126026 -0.11229876 -0.11024009 -0.058482062
000330 73 11 1f 3c 00 ef f9 3d 53 9e a1 bd a2 05 9e 3e
       0.00970875 0.12203789 -0.07891526 0.30863672
000340 32 b7 f6 bd d1 88 5f 3d bf 82 90 be b2 69 b8 bd
       -0.120466605 0.054573838 -0.2822475 -0.09004535
000350 1d d1 cf bd c0 25 32 be cc c5 cd bc 2a e3 9c 3a
       -0.10147307 -0.17397213 -0.025118731 0.0011969556
000360 9e d6 b5 3d c1 8e 97 bd b3 b9 90 3e d4 bb b1 3e
       0.088788256 -0.07400275 0.28266677 0.34713614
000370 e1 3b e6 bd 19 03 8e bd b7 00 5a 3d 47 8e 1d be
       -0.1124189 -0.069341846 0.053223338 -0.15386306
000380 1b 5b 1a bd 0e 46 a1 bd 5e df 82 3e 07 ed 26 be
       -0.03768454 -0.0787469 0.2556104 -0.16301356
000390 4d ea 86 3d 9e 91 d9 3d 20 bc 61 3d b8 a8 76 bd
       0.06587658 0.106234774 0.05511105 -0.060219496
0003a0 d3 87 b6 bc 42 53 d1 3c 1d b3 61 3d 66 5d 98 be
       -0.022281563 0.025552396 0.055102456 -0.29758757
0003b0 c0 3e 1f be d4 31 28 3e 32 e7 0d bc 6f 13 3d be
       -0.15551281 0.16425258 -0.008661078 -0.18464445
0003c0 cf 85 81 3e 67 92 97 3d 08 68 80 bc 19 a8 f8 bd
       0.252974 0.07400971 -0.015674606 -0.12141437
0003d0 3d 42 99 3c c6 73 a1 3d d3 71 03 be d1 c6 3d be
       0.018708343 0.0788341 -0.12836389 -0.18532874
0003e0 74 df 05 3e f4 7c 17 3e 60 b6 40 bc 70 d3 26 be
       0.13073522 0.1479376 -0.011762232 -0.16291595
0003f0 dc 98 dc bd 21 4f 07 be 57 17 11 3e 78 b9 21 3d
       -0.10771343 -0.13213779 0.1416906 0.039483517

policyHead.3.bias f4 [64]
000000 9a 5a 84 3d c9 d6 c7 bd 7a c7 7c 3d c8 2a 22 3e
       0.064625934 -0.09757764 0.061713673 0.15836632
000010 52 88 d6 bd 4b a1 08 3e 6d da 2e bd 14 af cf bc
       -0.1047522 0.13342778 -0.042688776 -0.025352038
000020 e2 bf 19 bd 98 ef 1e 3e f8 4c 13 3d 76 6f b8 bc
       -0.03753651 0.15521085 0.035962075 -0.022514086
000030 3e 0d ce bd e0 77 56 3d 5c d8 17 3e 84 66 46 3d
       -0.100611195 0.052360415 0.14828628 0.04843761
000040 77 3c 90 bd 4a 32 cd 3d 5f 68 0f bd b5 49 5f b9
       -0.07042783 0.100193575 -0.035011645 -0.00021294395
000050 dc a6 44 3d d1 c5 b6 3d d9 ec 38 3d a1 de 58 3e
       0.048010692 0.08924449 0.04514775 0.21178676
000060 99 4d 4b bd 8a 8a d0 bc 23 75 ee 3c e1 2e 15 bd
       -0.04963455 -0.025456686 0.02910859 -0.03642166
000070 6b 91 1b bf a6 31 6c 3d 2e 0d a5 be 28 f2 1e 3d
       -0.60768765 0.057664536 -0.32236618 0.038805157
000080 1e f8 8c ba 83 03 28 3d 67 0a 57 3e f8 69 0f 3d
       -0.0010755097 0.041018974 0.21000062 0.03501317
000090 9f db 6a bd 78 2a b1 3b 5e fb 96 3d 50 b6 a6 3c
       -0.057338353 0.005406674 0.07372163 0.020350605
0000a0 38 e9 8f bc 7f 8d 3e bd 80 15 c0 3d a8 68 a3 bd
       -0.017567262 -0.04652166 0.09379101 -0.07978946
0000b0 d9 9a b7 be 7f 27 b4 3c 75 08 d0 3d ff 52 36 3d
       -0.35860327 0.02199149 0.10157863 0.044512745
0000c0 86 78 8b 3a 61 c7 33 bc 2d 4a 85 bd ba 47 aa 3d
       0.0010640777 -0.010972829 -0.065082885 0.08314462
0000d0 b2 23 1f bc ba 62 d9 bc 03 67 5e be 97 66 2a 3d
       -0.0097131 -0.026536334 -0.21718983 0.041601744
0000e0 e1 d8 2f 3d fe 84 80 3d 38 be 88 3d 9a ed f9 bc
       0.04293144 0.06275366 0.06676906 -0.030508805
0000f0 5c c3 32 bc 5a 53 a0 3d 31 7c 0f 3e 57 6a 1a bd
       -0.010910835 0.07828398 0.14012219 -0.03769907

policyHead.4.weight f4 [64]
000000 15 93 2b 3f b1 a7 12 3f 87 5c 03 3f fa 05 12 3f
       0.67021304 0.57287127 0.5131306 0.5704037
000010 02 1a 27 3f 60 b0 34 3f f2 51 50 3f a7 9e 2d 3f
       0.6527406 0.70581627 0.8137504 0.6782021
000020 ce e8 44 3f bd b8 34 3f 93 9c 82 3f 20 e3 de 3e
       0.7691773 0.7059439 1.0204033 0.43532658
000030 d4 1b 56 3f a5 fe 43 3f 62 0f 07 3f c2 cd 50 3f
       0.8363621 0.7656043 0.5275785 0.8156396
000040 d1 4b 71 3f 27 85 25 3f 0b 15 0a 3f de dd 4d 3f
       0.9425631 0.646563 0.5393836 0.8041667
000050 96 94 56 3f e6 25 24 3f 9e d3 2a 3f b6 e4 09 3f
       0.83820474 0.6412033 0.6672915 0.5386461
000060 05 41 fb 3e 15 c6 44 3f 0e 2e 3b 3f 9c ac 38 3f
       0.49073043 0.7686475 0.7311715 0.7213838
000070 4b ae 87 3f f5 7f 0e 3f fd ba 70 3f 25 cb 30 3f
       1.0600065 0.55663997 0.9403532 0.69059974
000080 e9 9e 13 3f 5b 96 31 3f bc 53 0a 3f d9 0a 37 3f
       0.5766435 0.6937005 0.5403402 0.7150093
000090 c6 32 58 3f 82 51 20 3f 4b b6 e4 3e 4b d4 e0 3e
       0.84452474 0.6262437 0.44670328 0.43911967
0000a0 a9 d7 50 3f 91 43 16 3f 9a 0b 23 3f 1e d9 4a 3f
       0.8157907 0.5869685 0.6368958 0.79237545
0000b0 00 00 80 3f d5 5d 79 3f 03 0d 2c 3f 15 9b 23 3f
       1.0 0.974088 0.67207354 0.6390851
0000c0 7e 8e 11 3f 13 d2 40 3f 12 e9 63 3f a8 03 0f 3f
       0.5685805 0.7532055 0.8902751 0.55864954
0000d0 4a cc 49 3f fb 95 7f 3f c2 95 87 3f c7 53 3d 3f
       0.78827345 0.9983823 1.0592577 0.7395596
0000e0 59 01 18 3f b8 71 17 3f 2f a1 41 3f 3b 32 f7 3e
       0.59377056 0.59157896 0.7563657 0.4828051
0000f0 4c 05 22 3f 5c b8 57 3f 7d cc 56 3f 03 a1 70 3f
       0.6328933 0.84265685 0.83905774 0.93995684

policyHead.4.bias f4 [64]
000000 06 7e bb be 53 bb 8f be b6 86 ba be f1 5c d6 be
       -0.36619586 -0.28072605 -0.364309 -0.41867784
000010 09 d9 e8 be 3f eb 82 be 1b b8 aa be 0e 2b da be
       -0.45478085 -0.25570104 -0.33343586 -0.42610973
000020 ef 81 99 be 03 55 a9 be 81 7c b5 be c8 8f 0d bf
       -0.29981944 -0.3307267 -0.3544655 -0.5529752
000030 b2 cb 92 be b4 f1 b6 be c9 c7 07 bf eb 60 b3 be
       -0.28671032 -0.3573128 -0.5303922 -0.3503488
000040 3d 90 33 be 43 70 92 be a7 da f5 be f8 79 c2 be
       -0.17535491 -0.28601274 -0.4801838 -0.3798368
000050 c3 24 84 be 31 68 92 be 41 bc b9 be f0 92 f0 be
       -0.25809297 -0.28595117 -0.3627644 -0.46987104
000060 2b ed fd be 2b 01 a3 be 88 00 b2 be 73 be 77 be
       -0.49595007 -0.3183683 -0.3476603 -0.24193744
000070 1b ef 75 3d 30 ce c9 be af 85 75 bd 5c da a8 be
       0.060042482 -0.3941512 -0.059941944 -0.32979095
000080 2f cb 74 be 48 b7 8d be 7c 99 f8 be 72 eb 8f be
       -0.23905633 -0.27678895 -0.485546 -0.28109318
000090 82 ac 79 be 01 07 cb be 3e da 79 be 56 a7 ea be
       -0.24382213 -0.3965378 -0.24399659 -0.45830792
0000a0 bc 2a 82 be d0 b3 b1 be d3 ee 8a be 70 4f 87 be
       -0.2542323 -0.347075 -0.27135333 -0.26427794
0000b0 00 00 00 00 7b 72 67 be 61 5d bf be ae b3 3a be
       0.0 -0.22602265 -0.3737593 -0.18232605
0000c0 e2 53 e9 be 1b e3 ae be e8 3e 6e be 3e 07 d4 be
       -0.4557181 -0.34157643 -0.23266184 -0.41411775
0000d0 b6 42 5a be 94 47 5e be 82 e0 75 3d 0a e9 be be
       -0.2131451 -0.21706992 0.06002856 -0.3728717
0000e0 cc 46 cf be 69 a3 a1 be e4 70 a6 be 0c 57 0c bf
       -0.404837 -0.31569985 -0.32508004 -0.54820323
0000f0 88 ca c2 be 28 a5 4d be fa aa 86 be 58 f6 75 bd
       -0.38045144 -0.20082533 -0.2630232 -0.060049385

policyHead.6.weight f4 [26, 64]
000000 8a f7 07 be 91 e6 d4 bd cf 7b ce bd 97 82 81 bd
       -0.13278022 -0.103955396 -0.10082208 -0.06323736
000010 bd 26 28 be 9a 6e be 3d 8a 8d 05 be ae e7 a6 be
       -0.16421027 0.09298439 -0.13042274 -0.32598633
000020 71 1e 11 3e e9 33 c0 bc 91 2c c6 3e 74 a8 8b be
       0.14171769 -0.023462253 0.38705876 -0.27276957
000030 a0 54 99 bd a6 52 08 3e 6a 48 cb bd 4b 89 93 bd
       -0.07486844 0.13312778 -0.09925921 -0.07203921
000040 3d 32 30 3d 74 9e 82 bd f5 21 40 3d 17 4f 89 3c
       0.04301666 -0.06377879 0.046907384 0.016761346
000050 f7 c4 a8 bc d4 21 fb 3d 7e b0 b2 bd b0 b7 84 bd
       -0.020601733 0.122623116 -0.087250695 -0.06480348
000060 91 af 50 be 25 eb 67 3e 2f f6 14 bd cc 84 98 be
       -0.20379473 0.22648294 -0.03636759 -0.29788816
000070 3c f1 f5 3d 41 09 17 3e 48 54 91 3c 5d b4 ed bd
       0.120089024 0.14749624 0.017740384 -0.11606667
000080 1c 8a 2f be 34 9b b7 bd 8d 96 6b bc f9 32 c3 bd
       -0.17142528 -0.089651495 -0.014379156 -0.09531207
000090 8b 47 7c 3d d9 2b f8 3d 61 18 94 bd a9 20 0a be
       0.061591666 0.12117738 -0.072312124 -0.13489021
0000a0 3c 51 9a bd 2f c1 de bc 81 7c b8 bd c2 0c 67 be
       -0.075350255 -0.027191726 -0.09008122 -0.2256346
0000b0 7c f1 fe bd eb e1 e7 3d 01 45 2d bc 5b d8 82 3d
       -0.12448403 0.11322387 -0.010575534 0.06388923
0000c0 9a ba 7d 3d 80 9a cb bc a5 ef 4b 3d db e8 ec bd
       0.061945535 -0.024853945 0.04978909 -0.11567851
0000d0 84 e1 2a 3d 47 45 d4 3e ae 57 c6 bd 2c 77 e2 3c
       0.041718975 0.41459104 -0.09684692 0.027644716
0000e0 10 a2 ac bd 6c 15 50 bd ef e4 74 3d 75 e0 12 3e
       -0.084293485 -0.05080168 0.05978864 0.14343436
0000f0 c4 2d 20 bd 29 0e 67 be ea ee a0 3e 27 83 1d 3e
       -0.039106146 -0.22563995 0.31432277 0.15382062
000100 21 67 80 be 69 e0 5b bd f0 55 4e bd 76 9d 54 bd
       -0.2507868 -0.05368081 -0.050374925 -0.05190798
000110 2d 80 5f be 69 b7 3b bd 58 1c 35 3e 3c bd 0f 3e
       -0.21826239 -0.04582921 0.17686594 0.14037031
000120 bf 15 a6 3c 47 29 22 be 6e 9e 77 3e 7a 03 5d 3e
       0.020274041 -0.15836059 0.2418153 0.21583357
000130 a9 70 af be 05 38 50 be 7e eb c3 bc 7b 94 15 be
       -0.3426564 -0.2033387 -0.023916002 -0.14607422
000140 40 91 72 3e 1a e1 0e bd 30 ec f8 3d 89 8d 5a 3e
       0.23688221 -0.034882642 0.12154424 0.21343054
000150 f6 01 4f bd 5b 6a f9 3c 9e 90 c4 ba 64 53 99 bd
       -0.05053898 0.030446222 -0.0014996713 -0.074866086
000160 55 c5 87 3c 3b 14 99 3e fa bd a9 bd 11 05 28 be
       0.016573587 0.29898247 -0.08288188 -0.16408183
000170 f6 dc bc 3d 14 24 4f bc d8 cc 55 bd ff ae e9 bd
       0.092218325 -0.012642879 -0.052197307 -0.11410331
000180 f0 be 94 bb d6 69 e5 3c bc 6a 03 be 53 45 03 bc
       -0.004539363 0.028004568 -0.12833685 -0.008012134
000190 80 49 59 3d 07 29 74 bd d4 15 a4 3d 94 ce ab 3d
       0.05304861 -0.05960944 0.08011976 0.08389011
0001a0 e1 9b 94 3d 5c 9a b1 bc 98 e7 5d bd fa 87 e5 bc
       0.07256294 -0.02168005 -0.054175943 -0.02801894
0001b0 b2 a6 cf 3d f6 99 c4 3d 1e 83 ca bd d2 2e b9 bd
       0.101392165 0.09599678 -0.0988829 -0.090421334
0001c0 a8 e7 ea 3d 4a c3 97 bd 2c da 16 3d e1 14 05 bd
       0.11469966 -0.07410295 0.03682916 -0.032490615
0001d0 5b 62 75 3e 74 a3 11 3e ad 0f 9b bd ca 31 af bd
       0.23963301 0.14222509 -0.07571349 -0.085544184
0001e0 1b c6 63 3e d0 36 0b bd d7 c1 69 bd 5c 36 a1 3c
       0.2224354 -0.03398782 -0.057069626 0.01967924
0001f0 8e e5 57 be aa c9 80 3d a8 14 3d 3e 69 a5 56 3d
       -0.21083662 0.06288464 0.18464911 0.05240384
000200 c9 0c 23 3e ec e5 e8 3d 1c b3 42 bd 27 86 0d be
       0.15922846 0.11371979 -0.047534093 -0.13820706
000210 56 7e 08 bd 18 0f 1e bd c6 66 88 bd f0 f0 1b bc
       -0.03332361 -0.038588613 -0.066602275 -0.009517893
000220 5e dd 9b bd 38 90 e1 bd 0a ee 4f 3e 8e 30 b0 bc
       -0.07610582 -0.11013836 0.20305648 -0.021507528
000230 88 8e b3 bd 4d 69 22 3e cc 7f 8e bd f1 60 da bd
       -0.0876742 0.15860482 -0.06957969 -0.10663021
000240 09 b2 b8 3e a9 c0 bc bc 25 e8 2b bd 2a e0 0b bd
       0.3607333 -0.023041086 -0.041969437 -0.034149326
000250 42 ff ae bd c6 97 85 3d 40 1d 54 3c 09 7a 18 be
       -0.0854478 0.06523089 0.012946427 -0.14890303
000260 1e 8f 19 bd f1 2a 6c 3d 8f 93 19 bd 55 39 74 bc
       -0.037490003 0.05765814 -0.03749424 -0.014906247
000270 52 34 08 be d4 fd 78 bc ab bc f5 bd 07 e7 83 3d
       -0.13301209 -0.015197236 -0.11998876 0.06440549
000280 7f 9b 06 be b9 d7 cf 3d ea c2 d1 bd 8b 00 9d bd
       -0.13145255 0.10148568 -0.10242255 -0.07666119
000290 fb 99 ac bd a8 b3 6f bd 47 62 4c be cb 35 0b be
       -0.08427807 -0.058520943 -0.19959365 -0.13594739
0002a0 97 30 90 3d 05 1d e6 bc 6e 41 3e be be 47 dc 3c
       0.07040518 -0.02809001 -0.18579647 0.026889678
0002b0 08 dc a1 bd 49 83 5c 3e 63 4c ed bd 1f b8 6a 3e
       -0.07903296 0.21534456 -0.11586835 0.22921799
0002c0 d9 88 eb bd b1 e2 7b bd df 33 09 be 28 5f 06 bd
       -0.11500711 -0.061495487 -0.13398694 -0.03280559
0002d0 44 66 56 bd 26 4f 19 3d 5f ed 37 be af f0 e2 bd
       -0.05234362 0.037428997 -0.17961644 -0.11081063
0002e0 9e 9a 2a 3d 05 04 15 bd 6b 75 b4 3d 39 ff 0f be
       0.04165136 -0.036380786 0.08811458 -0.14062203
0002f0 7c 8f 3c 3d 9e a2 9b bb 0c bf e8 bc c4 e9 08 bd
       0.046035275 -0.00474961 -0.02841141 -0.03342606
000300 00 1f 09 3e 66 99 01 bd ce ce 89 3b d9 b3 62 bd
       0.13390732 -0.031640433 0.0042055612 -0.055347297
000310 42 b0 1a bd 81 51 d5 3d 7e 9b bf 3d ca 8e 2a be
       -0.03776575 0.10415936 0.0935583 -0.16656032
000320 80 6f 1d 3d e6 3c 84 bd d2 02 c1 bd 95 67 69 bc
       0.038436413 -0.06456928 -0.09424366 -0.014245887
000330 55 f7 e5 bc 5d d4 06 3e e9 4e 7f bd c1 00 93 bd
       -0.028072039 0.13166948 -0.062331114 -0.07177878
000340 27 03 a4 bd 6e 48 f0 bd 37 3f 64 be 46 17 d9 3e
       -0.08008414 -0.11732565 -0.2228974 0.4240057
000350 8a 13 a6 3d 45 ed 5c bd cc f1 0b 3d 7a 7d 81 bd
       0.081091955 -0.053937215 0.034166142 -0.06322761
000360 49 18 0e 3e 8e 39 8d 3e fe d8 f3 bd 38 ca 36 3e
       0.13876452 0.27582973 -0.11906622 0.17850578
000370 ac b5 bf bd c6 29 43 be 20 c2 cd bb 22 4f 52 3e
       -0.09360823 -0.19058904 -0.006279245 0.20538
000380 b5 30 ee 3c 34 8a 56 3e 3e 03 24 bd 36 f1 41 be
       0.02907596 0.20951158 -0.040042154 -0.18939671
000390 60 66 5e be bb 2e 46 bc af 6f 36 3d ca cf 8b 3c
       -0.2171874 -0.012096102 0.044540104 0.017066855
0003a0 93 b6 94 3d 3d 8b 4a bd d1 e3 94 bc d1 ea 54 be
       0.07261386 -0.049449194 -0.018175038 -0.207927
0003b0 60 10 e5 3b a3 79 bc 3e b8 11 bb 3b 12 18 30 be
       0.0069904774 0.3681155 0.0057088993 -0.17196682
0003c0 a0 24 b9 bd 81 ca 08 be 61 89 21 bd 22 41 ed bd
       -0.09040189 -0.13358499 -0.039437655 -0.11584689
0003d0 c0 19 47 3b f1 cd 01 be 44 d9 7e bd 21 e5 7d bc
       0.0030380338 -0.12676217 -0.06221892 -0.015496523
0003e0 67 d9 1e bd a3 b2 17 3e 89 7e 54 3e 0d ef 69 3d
       -0.03878155 0.14814238 0.20751394 0.057112742
0003f0 87 fe ba be 3e f7 f1 3d 0c 69 c0 bd c0 ea 3c 3c
       -0.36522314 0.11814736 -0.09395036 0.011530578

policyHead.6.bias f4 [26]
000000 dc 73 a9 bd 5b fd f7 bd 77 06 01 bb 95 a9 d4 3d
       -0.082740515 -0.121088706 -0.0019687691 0.10383908
000010 3f c6 db 3d bd 43 85 3e e1 59 a8 bd ad 29 22 3c
       0.10731172 0.26028243 -0.08220268 0.009897632
000020 a5 b0 a4 bd c6 ac aa bd 83 3e c8 bc 9b 11 6c bd
       -0.08041505 -0.08333735 -0.02444387 -0.057633977
000030 e9 23 22 be 3f 2d 80 3e 12 e3 2a be c5 78 a0 bd
       -0.15834011 0.2503452 -0.16688183 -0.07835535
000040 9f 8a dc 3b ce f6 ba bd c4 c3 65 be 6b 9c 9b bc
       0.006730392 -0.091291055 -0.2243796 -0.018995484
000050 92 27 67 3c ad 78 b2 bd 2d aa 3e be e7 b6 96 bd
       0.014108555 -0.08714423 -0.18619604 -0.073591046
000060 c3 ad d2 bd d3 3d 4b bd
       -0.10287049 -0.049619507

valueHead.0.weight f4 [64, 50]
000000 90 cb 94 3b b4 02 b3 3d e7 23 46 bc cf df 0c 3d
       0.004540868 0.0874075 -0.012093521 0.034393128
000010 e2 1e bb 3d 89 81 8a 3d b9 d7 89 bd 60 09 c8 3d
       0.0913675 0.06762988 -0.06730599 0.09767413
000020 c6 f1 c5 bd ad 79 35 be d1 a4 f1 3b fb 8d 36 bd
       -0.09665255 -0.17722197 0.007374384 -0.044568997
000030 0c e9 12 bd ea 1f 46 be ea dc 36 3c 29 6d 81 3d
       -0.035866782 -0.19348112 0.011161068 0.06319649
000040 ce c6 30 3b e6 f0 53 3e 44 ff 08 bd 45 8c a8 bc
       0.0026973966 0.20697364 -0.033446565 -0.020574698
000050 cc ec 0c 3e 36 5c b2 bd 3e 5a 2e 3d bd 1e 67 bc
       0.13762206 -0.08708994 0.04256653 -0.01410645
000060 a6 7d eb bd d6 0a 03 3e e7 ca e5 3c b3 5f ab 3d
       -0.11498575 0.12797102 0.028050853 0.083678626
000070 c0 c1 c1 bd f0 21 9b bd d0 1f e2 bd 6a 3e 29 3d
       -0.09460783 -0.075748324 -0.11041224 0.04131929
000080 80 b6 57 3d 12 12 c2 3d 6a c4 66 3d 2e b7 74 3d
       0.05266428 0.09476103 0.05633966 0.059745006
000090 7b 42 79 bd a7 84 23 be d4 2d ad bd b9 e5 82 3d
       -0.060854416 -0.15968572 -0.08456007 0.06391472
0000a0 73 7b 10 3d ab 74 03 be f2 48 22 3d 17 f5 c6 bb
       0.03527398 -0.12837474 0.039620347 -0.0060716975
0000b0 ce 9c 2d 3e 2e a1 11 3d 2a 04 50 bd 64 f7 c4 3d
       0.16954347 0.035554104 -0.05078522 0.096174985
0000c0 4c c9 72 bd 13 07 fb bd 6e d1 8b bc 9f 14 24 bc
       -0.059274003 -0.12257209 -0.017067637 -0.010014682
0000d0 d2 70 5b 3e ae f7 18 bd e8 c8 01 be 73 22 9b bd
       0.21429756 -0.03734558 -0.12674296 -0.0757493
0000e0 42 a9 78 3d c0 00 84 bb e3 ab 36 3c 61 a7 11 be
       0.06070829 -0.0040284097 0.011149379 -0.14224006
0000f0 2d 37 07 3e d8 b5 ab 3b c3 fc 25 be 2e 1d 88 bd
       0.13204642 0.0052401833 -0.16209702 -0.066461906
000100 83 49 05 3e 82 c1 e4 bd 81 ae 52 3e ba 03 e6 bc
       0.13016324 -0.11169721 0.2057438 -0.028077949
000110 da 6a 87 be 0f 41 f0 bd 9a 89 fc 3d 60 70 82 3d
       -0.2644871 -0.11731159 0.12330933 0.0636909
000120 68 37 fe bd 2a 2a d6 bc 78 74 8e bd 5b 8b 05 be
       -0.12412912 -0.026143152 -0.069558084 -0.13041441
000130 16 62 62 bd b4 10 f3 bd bc 6f d6 3d 94 ef 06 3e
       -0.055269323 -0.1186842 0.104705304 0.1317733
000140 1c 85 92 3d bc f5 e5 3d 4d c4 09 bd 76 8c 2e be
       0.07154295 0.11228511 -0.033634473 -0.17045769
000150 0a aa b4 bd 99 06 59 bd fb db 32 be 33 a0 dd 3d
       -0.08821495 -0.052984808 -0.17466728 0.10821571
000160 0a 3f 81 3c 62 29 3b bd 85 3f 3e 3e 6c 92 48 be
       0.01577713 -0.045693763 0.18578918 -0.19587106
000170 14 82 03 bd 3c 1b 87 be cd f2 44 bd 35 86 56 3d
       -0.032106474 -0.26387966 -0.048083115 0.052374084
000180 d3 83 76 3d e2 b0 08 be b7 49 4e bd db 6f 20 3d
       0.06018431 -0.13348725 -0.05036327 0.039169174
000190 99 42 dc bd 54 18 77 3e 63 8c 21 3e c8 23 1d bd
       -0.1075489 0.24130374 0.1577621 -0.0383642
0001a0 16 6c a1 be 10 6d fa 3c 40 90 4b be 2b af 3b 3e
       -0.31527776 0.030569583 -0.19879246 0.1832854
0001b0 c7 41 95 3c 7f 7a 09 be 3d 11 12 3d 8e 5e eb be
       0.018219842 -0.13425635 0.03566097 -0.45970577
0001c0 4b 37 bb 3d 80 f5 83 bd 3a f2 ac bd 0c 21 b8 3c
       0.09141406 -0.0644331 -0.084446386 0.022476695
0001d0 97 8c 76 be a6 7b 1a 3d 31 73 ad 3c 0d 05 b9 3e
       -0.24077068 0.037715577 0.021173092 0.36136666
0001e0 8c f0 68 bd 30 80 00 be 19 38 db bb 52 8b 0b bb
       -0.05687003 -0.125489 -0.006690037 -0.0021292758
0001f0 1e bc 41 3c 6a d1 6a bc bf 26 b2 bd 90 a4 c3 bd
       0.011824636 -0.014332155 -0.086987965 -0.09552872
000200 69 66 9d 3d 19 94 c0 bd 42 8a e2 bd 41 a8 fb bd
       0.07685549 -0.094032474 -0.11061527 -0.12287951
000210 df e3 37 3e b2 9b 48 3e a8 2c 17 bd 78 f7 29 bd
       0.1795802 0.19590643 -0.036907822 -0.04149577
000220 3c a1 85 3e 03 40 78 3c 11 95 25 3d 3f 4e 0c be
       0.26099575 0.01515198 0.040425364 -0.13701724
000230 0c 0e 9b bd a6 8c 1b be 76 fa ce bd e0 42 89 be
       -0.075710386 -0.15190372 -0.101063654 -0.26808834
000240 6e 45 82 3c c3 f3 e9 3c f1 27 a9 3e d9 31 97 3d
       0.015902247 0.028558617 0.33038285 0.073825546
000250 d9 96 6b bd b7 3f 35 be 0b 72 fe 3c c2 50 bc 3d
       -0.057516906 -0.17700087 0.03106024 0.09195091
000260 16 e5 8b be 89 61 10 3e c1 57 3a be c8 6d 77 3c
       -0.27323216 0.14099707 -0.18197538 0.0151018575
000270 37 e1 ba bc 23 74 2c be 7b fc 66 b9 69 e2 be bc
       -0.022812469 -0.16841178 -0.00022028566 -0.02330132
000280 33 13 1f bd 9a 21 ae bd ad dd 0c 3e 84 e2 07 bc
       -0.03883667 -0.08502503 0.13756438 -0.008293752
000290 db f6 35 be 5a 6c 0f 3e 85 d1 8b bd 83 f1 27 3e
       -0.17769949 0.14006177 -0.06827072 0.16400723
0002a0 c3 d6 a9 bd ee 15 5b be 5e e6 17 3d 54 5f 4c 3c
       -0.08292916 -0.21395084 0.03708493 0.0124739
0002b0 2a 38 d7 bd 30 2c a0 bd 1b 16 82 3d 68 06 a3 bd
       -0.10508759 -0.07820928 0.063518725 -0.07960206
0002c0 bf 54 7b bd bc b1 89 bc 56 0e 08 be d9 32 d9 3d
       -0.061360117 -0.016808383 -0.13286719 0.106054015
0002d0 dc ec 3d bd d3 f8 ff 3c ac 02 02 3e 7c c5 0c 3d
       -0.046368465 0.031246578 0.12696332 0.034368023
0002e0 3a b5 24 3e 08 a0 ce 3d a0 4e 4d bd c3 c9 4e be
       0.16084757 0.10089117 -0.05012381 -0.20194153
0002f0 06 82 f5 bc e8 fa af 3b 0c 79 1b bd 38 ed 64 3d
       -0.029969227 0.0053704865 -0.037957236 0.055890292
000300 98 22 8b 3d 69 ff c1 bd e2 b1 42 3e 03 b4 2b 3c
       0.067937076 -0.09472544 0.1901317 0.01047993
000310 83 89 66 bd ba 52 68 3c da 96 00 3c 45 3b 3c be
       -0.056283485 0.01417988 0.007848466 -0.18381985
000320 ab e9 b1 3d 15 79 0b 3e f4 91 ea 3d fc 66 d4 bc
       0.08687147 0.13620408 0.114536196 -0.025928013
000330 ea c2 aa bd d5 db 8b bd 44 d9 47 3d 34 f6 8d 3d
       -0.08337958 -0.06829039 0.048791185 0.06931725
000340 4d 5d 2d bd fe 7a 92 bc bb a6 01 3e 93 a9 f5 bd
       -0.042325307 -0.017880913 0.12661259 -0.11995234
000350 d5 8a d1 bd f0 47 1d 3e a7 02 87 3d f4 c1 53 bd
       -0.10231558 0.15359473 0.06592303 -0.05169864
000360 18 9f 25 3c 23 d5 c6 3d 28 47 eb bd 0a cd 9b bd
       0.010108732 0.09708621 -0.11488181 -0.076074675
000370 9e f1 0f bd 30 69 d0 3a a7 4f d3 bd 65 9d 4c bd
       -0.035142533 0.0015900489 -0.10317927 -0.04995479
000380 b1 db eb 3d 5b c8 72 3d 7a 10 ec bd b6 3b 27 bd
       0.11516512 0.059273105 -0.1152658 -0.04082843
000390 45 15 14 3d df 7e 02 3e d9 aa 2d 3d b5 2b 3a 3d
       0.036153097 0.1274371 0.04239926 0.04545184
0003a0 6d f0 37 bd 25 8a 72 3c 0c 7d 8c bd c6 0b a0 bb
       -0.044907022 0.014803444 -0.06859788 -0.004884216
0003b0 25 3e 5d be f4 9c 30 3c 4d 38 09 be 59 e2 de 3d
       -0.21605738 0.010779608 -0.13400383 0.10883016
0003c0 91 a8 f1 3d b5 6f 61 be ba 53 37 be fe 03 27 3c
       0.117997296 -0.22015269 -0.17903033 0.010193823
0003d0 c3 23 59 3d 2e 6e 4f 3e fa c8 ed bd 70 89 94 3d
       0.05301262 0.20256874 -0.11610599 0.072527766
0003e0 c9 e6 4f 3e fd 65 4e bc 18 29 01 3c 6f cd 0b bc
       0.20302881 -0.012597558 0.007883333 -0.008532866
0003f0 01 64 25 3e 0e c4 40 3d a5 21 49 be d0 06 2f 3c
       0.1615143 0.047061972 -0.1964174 0.010682777

valueHead.0.bias f4 [64]
000000 ca 7e aa bd 86 2b b4 bd a1 46 a9 bd e1 0f ea 3d
       -0.08324964 -0.08797364 -0.082654245 0.1142881
000010 05 75 a3 bd 2f 78 b2 3d 2a b2 dd bb d2 e2 41 bd
       -0.07981304 0.087143295 -0.0067656236 -0.047335453
000020 7b 36 ce bd 89 3f 2d 3d d8 c2 e9 bd 96 1b 5a bb
       -0.10068985 0.04229692 -0.114141166 -0.0033280603
000030 f1 98 0d 3e ed 17 cb bc db 70 94 bc 89 8a 82 3d
       0.13827874 -0.024791682 -0.01812022 0.0637408
000040 9f 29 7e 3d f2 a0 3c bd 35 d5 91 3d 81 98 1c 3d
       0.06205141 -0.046051927 0.07120744 0.038231377
000050 40 31 67 3c 99 c6 1a 3e 9c 12 0f be 8b a4 55 bd
       0.014110863 0.15114821 -0.13971943 -0.052158874
000060 08 66 7c bd 7f 4f e0 3d a9 96 a6 bd dd e8 1a 3d
       -0.061620742 0.10952663 -0.08134205 0.037819732
000070 c4 7d b3 3e a0 7a 99 3d 87 7c de bc be ee 04 3e
       0.3505689 0.07494092 -0.027158989 0.12981698
000080 b2 58 22 bc 47 5d 80 3e ce 34 60 bd 38 b2 bd 3c
       -0.009908842 0.25071165 -0.05473786 0.02315627
000090 8f 6e 73 3c 7e 80 0c be 95 b9 32 3e ed af 1a 3e
       0.014857902 -0.13720891 0.17453606 0.15106173
0000a0 c8 da d5 bd 43 23 7a be 4e 3c d8 3d 06 cf 86 3d
       -0.1044212 -0.24427514 0.10558377 0.06582455
0000b0 f4 ee 27 3e 0e 46 02 3e a8 e6 c4 bb 04 45 25 bc
       0.16399747 0.12722036 -0.0060089417 -0.010087255
0000c0 3f b6 f8 bd 5f 22 f4 3d 62 10 1b be 34 2c 40 3e
       -0.12144136 0.11920618 -0.15142968 0.18766862
0000d0 3c 6e e3 3c 28 4d c2 bd 11 8d 16 be 0b bd b0 3d
       0.027762525 -0.09487373 -0.1470225 0.08629807
0000e0 86 5d 41 be 4d 44 3d 3d 62 8d 13 bd 54 32 aa 3d
       -0.18883333 0.046207715 -0.036023505 0.083103806
0000f0 d1 23 c8 bc 53 0a 11 be 2e 73 2a be 0b cc a3 3d
       -0.024431141 -0.14164095 -0.166455 0.079979025

valueHead.1.weight f4 [64]
000000 69 bf 52 3f bd f5 79 3f ec 95 85 3f 5a 21 4c 3f
       0.8232332 0.9764059 1.0436378 0.7973839
000010 03 c2 5e 3f 11 28 86 3f b7 46 75 3f 90 84 65 3f
       0.8701479 1.0480977 0.9581103 0.896554
000020 9d 1f c8 3f e3 6a 75 3f aa c9 8e 3f 2b a2 58 3f
       1.5634648 0.9586622 1.1155293 0.8462245
000030 94 10 6e 3f c2 2e 3c 3f 8b a0 7b 3f 85 33 b3 3f
       0.92994046 0.73508847 0.98291844 1.4000098
000040 97 5e 8d 3f 14 35 4a 3f 11 fb 81 3f 60 5c 64 3f
       1.1044492 0.7898724 1.0154744 0.89203453
000050 34 0a 5f 3f 0a 4d ce 3f 91 4a 8b 3f 01 07 08 3f
       0.87124944 1.611726 1.0882131 0.5313569
000060 92 b3 85 3f 3f 15 6a 3f 6b 2a ac 3f d7 5d 6b 3f
       1.0445426 0.9143867 1.3450445 0.91940063
000070 d8 71 bd 3f 07 2d 99 3f 7a b3 80 3f 59 5d 81 3f
       1.4800367 1.1966866 1.0054772 1.0106612
000080 9c df 6b 3f c5 6e 93 3f f4 43 8d 3f 37 cf 82 3f
       0.92138076 1.1518179 1.1036363 1.0219487
000090 58 59 82 3f 53 fc 66 3f 96 a8 6b 3f 6b cc 6d 3f
       1.0183516 0.90228766 0.92054117 0.9289004
0000a0 f3 6c 80 3f 82 70 92 3f 9e a3 7f 3f 90 c5 83 3f
       1.0033249 1.1440585 0.99859035 1.0294666
0000b0 28 c9 6a 3f d0 59 72 3f 3d 0c 81 3f c9 b2 5b 3f
       0.9171319 0.94668293 1.008186 0.8581968
0000c0 8c 7e bb 3f 84 c3 4f 3f 17 75 64 3f 69 21 7c 3f
       1.4647994 0.8115771 0.89241165 0.9848848
0000d0 f0 bf 7b 3f 6c 17 7b 3f 12 e5 73 3f 82 c2 49 3f
       0.9833975 0.98082614 0.9527141 0.7881242
0000e0 eb 8d a0 3f 8c fd 57 3f 35 67 b1 3f d3 8e 89 3f
       1.254331 0.84371257 1.3859621 1.0746711
0000f0 60 b7 6d 3e a5 4b 71 3f a6 11 6d 3f 60 27 a0 3f
       0.23214483 0.9425605 0.92605054 1.2512016

valueHead.1.bias f4 [64]
000000 d2 44 1a be ea eb 54 be cf ff 2d bd 29 4d 17 be
       -0.15065315 -0.20793119 -0.042480286 -0.14775528
000010 7b c5 4a be ff 95 06 3d 5f 58 20 be 2b f0 45 be
       -0.19801895 0.03285789 -0.15658711 -0.19329898
000020 2b 3f a7 bd 82 3c 42 bd 1a 03 6d be 26 f2 39 bd
       -0.08166345 -0.047420986 -0.23145714 -0.045396946
000030 4b 55 4c 3c 23 86 62 be 98 99 70 bd 1a a7 2e 3e
       0.012471507 -0.22121482 -0.05874023 0.17055932
000040 3c f6 e7 3d 98 a7 de bd 6b b6 29 bd 3b cf 39 bd
       0.11326262 -0.1087181 -0.041433733 -0.045363646
000050 7b 62 d9 bd 15 00 fb 3d 30 24 1d be 96 43 8b be
       -0.10614487 0.12255875 -0.15345836 -0.272
000060 1d 2a b9 3c e6 2d b1 bd d1 b5 16 bd 86 ac 89 bd
       0.022603089 -0.086513326 -0.036794487 -0.06722359
000070 5d 1c 6a 3e ed 09 56 bd ab 9c 83 bd e7 a1 f5 3c
       0.22862382 -0.05225556 -0.064263664 0.029984428
000080 48 e0 ed bd 15 e3 a5 3d 71 da 88 bd b8 3f af bd
       -0.11615044 0.08099953 -0.066822894 -0.08557075
000090 53 e8 0b be 5e 54 e3 bc b9 11 99 3d 82 20 e9 bc
       -0.13662843 -0.02775019 0.074740835 -0.028457884
0000a0 f2 84 69 bd 61 07 ef bd ec 1d fb bc c1 a6 26 3d
       -0.057011552 -0.11671329 -0.030653916 0.040686373
0000b0 15 09 be 3b e0 06 97 3d 01 11 15 3d a7 aa 2b be
       0.0057994225 0.07374358 0.03639317 -0.16764317
0000c0 8c ec 9b bd 26 23 77 bd 60 80 25 be 5e 1d 84 3c
       -0.07613477 -0.060336255 -0.16162252 0.016127285
0000d0 40 e2 83 3c 91 f8 dc bd d6 97 1f be ea d3 50 be
       0.016099095 -0.10789598 -0.15585265 -0.20393339
0000e0 c7 38 03 be e7 63 6c be 50 a0 6e bd 8f 9b 3c 3c
       -0.12814628 -0.23084985 -0.058258355 0.011511697
0000f0 56 6e c9 be b1 50 cf bd 0a 27 52 be 0b f6 ec 3d
       -0.39341992 -0.101228125 -0.20522705 0.115703665
