Yahtzee/ModelsNN3/version_4_model_5.pt (torch, 96842 bytes, 19 tensors)

policyHead.0.weight f4 [128, 50]
00000000: 58c0 b43d 2ca1 82bd 1916 f6bd f2d6 8abd
00000010: 17a8 653d 2452 c13d d9bb ab3d d992 693c
00000020: c9f3 03bc 54af 373d d5bb c4bd a84d afbd
00000030: a6e8 05be d31c b33d 26ae ed3d e2a2 003e
00000040: 424d cf3c 0886 debc 1e0e 893d 7b85 86bd
00000050: f6e4 e3bd 7a69 6d3d e002 15bd 64ce c0bd
00000060: 3380 e1bd 118d 673d e1ac d8bd 6d95 693d
00000070: 484a c43d 81f8 e33d 8e6c fdbd 793f 05be
00000080: 290a 21bd 234d 633c 70b0 b73d d7e4 0f3d
00000090: a653 d3bd d7b9 92bc fbe0 d7bb 9020 6cbd
000000a0: 5410 05be 9505 e93d 5d9d 823d cacb c6bd
000000b0: 375d 2d3d b5b9 9e3d e0b8 593d 5633 b93d
000000c0: 986d a43b f806 7fbd 443c 8b3c 8dfb 033e
000000d0: ef89 61bc 4827 a5bd 7c12 c0bc b903 cd3d
000000e0: edaf 9cbd 1012 d93d 7421 16be 1726 c13d
000000f0: bd89 f7bd b0ea 01be 6d91 86bd d3d0 b73d
00000100: 716f ba3d 3a70 cc3d 5415 0b3e f600 20bd
00000110: c33b 913d 3754 c3bd a697 01bd c0e6 9dbb
00000120: c433 3a3b ef02 6ebd c583 f73c 008b 8d3d
00000130: f638 0c3e bdd5 843d d330 973d 4906 eebd
00000140: 68e4 17bd bc2e e83d ed3c 053e ebc5 f23c
00000150: 1800 23bd 90e9 ccbd c670 05be 1bad 0abd
00000160: a220 a13d 89c9 e23c 79f5 073e 4e50 dc3d
00000170: a3b4 b2bd b8ac c5bd a6be 14be 92d6 12be
00000180: 308a 643b 4d1c 0ebe cb64 d33d 4935 97bd
00000190: 8a4d dd3b 38fe f63d 5b08 9abd 6fe0 03be
000001a0: 0605 003e cf99 07be 468b 78bd 1b2c bd3d
000001b0: d73d 87bd 7e0b d4bd d183 0a3d 47e4 31b9
000001c0: 42b0 fe3d 8d97 7e3d bdfc 0c3e 0c9d 06be
000001d0: 7bc1 e53c 939f 713c 3367 b0bd 8996 6bbd
000001e0: 8358 84bd 0c96 a5bd 9788 053e adcc 063e
000001f0: b37a 463d 55a3 e4bb bff5 fabd 19ed 923c
00000200: 280b e13d 0bda afbd 6500 013e 965a 06be
00000210: 283a d03d 3eec f3bd e8db 96bd 66ab a6bb
00000220: c07c fcbd 2ced 64bd 9e10 f0bd aed0 bcbd
00000230: 494e 9f3c 3e9a 05bc 88ee fd3d 8346 0ebb
00000240: abc3 79bd 4592 233c 4e0a d23d 7dd8 56bd
00000250: 488b 08be a09b eb3d f0ab 52bd 6fcb dd3d
00000260: 4034 e73d ecc8 f3bd e979 e63d 9a65 bb3d
00000270: 3771 313d cfc5 0dbe e109 8dbc 3dce a73c
00000280: 2346 b53d 1ca0 fcbc 7a9e 883c 8e7d c0bc
00000290: 1400 c73b 5b49 6b3d 120c 06be 774b ba3d
000002a0: 9852 053d 107b bfbd 15e2 b73d 6729 633d
000002b0: 1d76 013e c4c1 0b3e 56c0 21bd f86f d8bd
000002c0: fdaf efbd 1221 a73d 402c cbbd 954e 123d
000002d0: c163 043d f836 033d 820d ffbd 3061 dabd
000002e0: c218 0ebe b62e b03d 41ba 86bd 206c 753d
000002f0: 0e09 fabc 99ff b03d 285b e83d c9dd 03be
00000300: 183d b13d 21ef 15be 1cfd 0bbe 084c 9a3d
00000310: 601c 023e 245d 8a3d 53e2 bf3d 9ecd dbbc
00000320: 9c54 b23d 5186 443d b23a f83c 5a3a 603d
00000330: 65a0 3abd 5e16 d33d 2d53 843d 29aa 073c
00000340: 37a1 39bd e967 debd 409b c83d d9fd f1bc
00000350: bdfc 833c 42a4 97bd a63e 6cbd 9285 f1bd
00000360: 3d87 013e 5954 a63d 5625 b63d 5f5d e43c
00000370: 8e2c 66bd fe69 0f3e 12ea cc3d 200d acbd
00000380: b563 e8bd ab46 e3bd 4cb6 e83d 1522 01be
00000390: 08d1 0abd daf4 673d 0ba3 00bd 45e5 823d
000003a0: b824 0b3e 8d06 8fbd d5ab f83d 03a9 7bbd
000003b0: 6dc0 97bb 1768 87bd c75a b8bd 30a5 e6bc
000003c0: 74bf 883d 2370 f13d 1746 eebd 6480 dc3d
000003d0: 90a8 ad3d 3abc acbc 401a dbbd 1acc c53d
000003e0: c948 0abe cda0 1a3d 0460 71bd cc39 553d
000003f0: 141c 18bd 9452 e0bc 1f9b a4bd 9a42 b83c
0.08825749 -0.06378397 -0.120159335 -0.06779279 0.056068506 0.09439495 0.083854385 0.014256203
-0.008053728 0.04484494 -0.096061386 -0.08559734 -0.1307703 0.08745732 0.11605482 0.12562135
0.025305394 -0.02716352 0.06692146 -0.06568428 -0.11127655 0.05796192 -0.036379695 -0.09414366
-0.1101078 0.056531016 -0.10579849 0.05702727 0.095844805 0.11131383 -0.12374221 -0.13012494
-0.03931633 0.013873371 0.089692 0.035130348 -0.10318689 -0.017910881 -0.006588099 -0.05764824
-0.1299451 0.11378018 0.06377671 -0.097068384 0.042325225 0.077502646 0.053154826 0.09042995
0.0050179474 -0.062262505 0.01699651 0.12888928 -0.013765796 -0.08064133 -0.023446314 0.10010476
-0.07650743 0.10599148 -0.14661199 0.09431093 -0.12086818 -0.12687182 -0.065707065 0.08975377
0.09103287 0.09982343 0.13582355 -0.039063416 0.07091477 -0.09537547 -0.031638764 -0.0048187673
0.0028412202 -0.058108266 0.0302142 0.06911278 0.13693604 0.0648608 0.07382359 -0.116222925
-0.03708306 0.11337039 0.13011523 0.02963539 -0.03979501 -0.10005486 -0.13031301 -0.033856492
0.07867552 0.02768399 0.13277234 0.107575044 -0.0872586 -0.09652084 -0.14525852 -0.14339665
0.0034872405 -0.13877983 0.10321959 -0.0738321 0.006753628 0.12060207 -0.07521125 -0.12878583
0.12501916 -0.13242267 -0.060679697 0.09236928 -0.06603592 -0.103537545 0.033817116 -0.00016965075
0.12435962 0.06215625 0.13768287 -0.13145846 0.02804636 0.014747518 -0.08613434 -0.05751661
-0.06462195 -0.0808526 0.13040386 0.13164015 0.04845686 -0.0069774785 -0.122539036 0.017935323
0.10988456 -0.0858651 0.12597807 -0.13120493 0.101673424 -0.11910294 -0.073661625 -0.0050863503
-0.12328482 -0.055890247 -0.117219195 -0.0921949 0.019446509 -0.00815445 0.12399012 -0.0021709509
-0.06097762 0.009983604 0.10255872 -0.052452553 -0.13334382 0.115042925 -0.051433504 0.108298175
0.11289263 -0.11903557 0.11253721 0.09150238 0.04332086 -0.13844989 -0.017216625 0.020484084
0.08851268 -0.030838065 0.01667713 -0.02349737 0.0060730074 0.057443004 -0.13090542 0.09096425
0.03254947 -0.09349644 0.089786686 0.055459406 0.12642713 0.13648134 -0.039490066 -0.10568231
-0.11703489 0.081606045 -0.099205494 0.035719473 0.032321695 0.032034844 -0.12453748 -0.10663068
-0.13876632 0.086026594 -0.06578494 0.05991757 -0.030521896 0.086425014 0.11345512 -0.12877573
0.08654231 -0.14642002 -0.13670772 0.07534033 0.12706137 0.067560464 0.0936934 -0.026831444
0.08707544 0.047979657 0.030301426 0.05474315 -0.04556312 0.103070006 0.06461177 0.008280315
-0.045319762 -0.10859663 0.097952366 -0.02953999 0.016111726 -0.074043766 -0.057676934 -0.11793055
0.12649246 0.08121557 0.0889384 0.027876554 -0.056194834 0.14005277 0.10005583 -0.08400941
-0.113471426 -0.11097463 0.11362895 -0.12610658 -0.033890754 0.056629993 -0.03140549 0.06391386
0.13588226 -0.06983671 0.12142149 -0.06144048 -0.0046310932 -0.066116504 -0.090016894 -0.02815494
0.06677142 0.117889665 -0.11634462 0.10766676 0.08479416 -0.021085847 -0.10698366 0.0965807
-0.13504328 0.037751008 -0.05892946 0.052057073 -0.037136152 -0.027383126 -0.080373995 0.022492696

policyHead.0.bias f4 [128]
00000000: e770 783d f08b 89bd 1f53 173e 271a e2bd
00000010: 959e b83d 25c6 103d cef3 c6bc aa10 0b3e
00000020: 3f84 04be 679b 10be c651 d0bc ce6c 8fbd
00000030: c7bd 5d3d e4d7 3ebd 8b48 0c3e 950f b23c
00000040: 71bd 1a3b de12 f43b 1401 783d d7ef 8a3d
00000050: c57b a3bd 9a04 86bc 3f7e 003e fdb5 973d
00000060: d5bf 1bbe 0282 7dbd d40a 9dbd 9c40 e83d
00000070: 6e2c e1bd 99a0 c43c 2eb3 f73c 2453 1ebd
00000080: b142 7fbd ac4e 99bd 8535 ccbd 2d70 543c
00000090: e9e0 bdbd 35d8 52bc 1d23 a3bd 80ae 053e
000000a0: 03b7 0fbd d78d f7bd d838 b43d 0e4f 9ebd
000000b0: e4c0 cbbd cf29 64bd 5fe9 403d bc4a 3c3d
000000c0: b66b f9bd cd5b c53c 6f0a a0bc ca46 60bb
000000d0: d3df bc3d 7a97 f9bd 0d13 4ebd a137 073e
000000e0: bae5 b53d aa3d 3a3d 3f6a 06be 2097 ffbb
000000f0: 913b 84bd b264 083e 08bd e73d 6def 9d3c
00000100: 107d 803d bc2b cd3c 0df8 46bd 5053 a6bd
00000110: b8ee 97bd 68db 88bd 8667 86bc 5f38 df3c
00000120: ddfe fa3d b949 be3d 55ab 243d f080 8dbc
00000130: de1d 32bd 7a83 0f3e f50a d1bd a4b2 e1bd
00000140: 0a2e ee3c c31f 2abd 1644 10be 4437 c3bd
00000150: 7e08 eebd 2953 b6bb e74b bd3b 8444 cd3d
00000160: feb0 13be 44f0 c3bd 0c8f f33c 7e53 0b3e
00000170: 0370 a23d 2246 663c 342e 8dbd 6244 58bc
00000180: 0520 febd ca6b ecbc f05b 8bbd f81e e33d
00000190: d09a b43d 59ca fdbc ea0d b43b 32c4 a33d
000001a0: c75f c6bd ff59 06be a5a0 d63d 9b4d 21bd
000001b0: c3f8 873c 9cb0 063e 98cc 4cbd c282 02be
000001c0: b013 e63d 8ba7 ecbd 2149 983d 5528 23be
000001d0: a197 aebc c596 023c ae23 2e3d d37f 463d
000001e0: 1a9d a1bb 4adf 00be c90a 9f3d 3086 373d
000001f0: d263 8ebd 1eb2 2fbd 63ad 613d 4bc1 1cbe
0.060654547 -0.06716144 0.14777802 -0.110401444 0.09014622 0.035345215 -0.024286177 0.13580576
-0.12941073 -0.14121781 -0.025429618 -0.07003175 0.054136064 -0.046592608 0.13699548 0.021735946
0.002361145 0.007448538 0.060547903 0.06784027 -0.079825915 -0.016359616 0.12548159 0.074077584
-0.15209897 -0.061891563 -0.07668081 0.11340448 -0.109948024 0.02400236 0.030236807 -0.038653508
-0.06231946 -0.074857086 -0.099711455 0.012966198 -0.09271414 -0.012868931 -0.07965682 0.13054848
-0.035086643 -0.12087601 0.087999046 -0.07729922 -0.099489 -0.055703934 0.04709756 0.04596971
-0.12178747 0.024091626 -0.019536225 -0.003422188 0.092223786 -0.12187095 -0.050311137 0.13204814
0.088817075 0.045468964 -0.13126467 -0.007799998 -0.06456674 0.13319662 0.11315352 0.019279206
0.06273854 0.025045268 -0.048576403 -0.08121359 -0.07418579 -0.066824734 -0.016406786 0.02724856
0.122556426 0.09291405 0.040202457 -0.017273396 -0.043485515 0.14014998 -0.10207168 -0.11020401
0.029074688 -0.041534197 -0.14088473 -0.095320255 -0.116227135 -0.0055641127 0.0057768705 0.10022834
-0.14422986 -0.095673114 0.029731296 0.13606068 0.07931521 0.014054807 -0.06893578 -0.0131998975
-0.12408451 -0.028859992 -0.06804645 0.11089891 0.08818591 -0.030980276 0.0054948227 0.07996406
-0.09686237 -0.13120268 0.10479859 -0.03938065 0.016598111 0.13153309 -0.049999803 -0.12745193
0.11234224 -0.11555394 0.07435823 -0.15933354 -0.021312537 0.007970517 0.042514496 0.048461746
-0.004932058 -0.12585178 0.07765729 0.044805706 -0.06952633 -0.042894475 0.055096995 -0.1530811

policyHead.1.weight f4 [128]
00000000: af7a 7c3f a688 803f 849c 803f a615 7e3f
00000010: beae 7d3f 9c91 7e3f 6582 803f 7f02 813f
00000020: ad52 7f3f a748 803f 9326 7f3f e9fe 7c3f
00000030: 613c 7d3f 3d04 803f 063e 803f 8f55 803f
00000040: 696c 7d3f fc5b 7e3f d754 7e3f 687c 813f
00000050: f30a 7f3f bea3 7d3f 744d 803f 28f9 7f3f
00000060: e42c 7f3f 254d 803f 74f8 7f3f 99df 7c3f
00000070: 9cb3 803f f7d2 7c3f 288f 7d3f 3b94 7f3f
00000080: e379 7e3f 3af9 803f 5a12 803f 4bba 833f
00000090: 81c2 7c3f 2e0e 7e3f 3979 803f f98d 803f
000000a0: 0974 7c3f 261f 823f 8581 813f 3d42 813f
000000b0: 904c 803f 0690 7c3f 709c 7e3f fb5c 823f
000000c0: c962 813f 5448 7c3f fbc0 7d3f 8e2e 803f
000000d0: bc0f 823f b345 813f 128b 813f 441c 803f
000000e0: 0565 803f e9ff 7e3f 1fea 813f f1b3 803f
000000f0: 4945 813f baf1 7e3f 966f 7d3f 6519 803f
00000100: feb8 7e3f 6e8c 803f 8202 7d3f a000 803f
00000110: 3d9b 813f aa2b 823f 2269 7f3f 929a 7f3f
00000120: fd0c 803f 1af4 813f eb3e 803f 1a3b 7f3f
00000130: 8e04 823f 67e0 803f c63d 803f 2f1e 7e3f
00000140: 4d77 803f 041a 7f3f 0b3e 803f 920c 813f
00000150: 9924 803f d33e 803f a724 7c3f cc45 7c3f
00000160: 6cf7 7f3f c61d 7f3f 4e5a 803f dea7 7e3f
00000170: 8a3b 7e3f 0602 7e3f d802 7e3f e6fd 7f3f
00000180: 7995 803f 7fb1 7b3f 4a08 813f d339 833f
00000190: cd33 7f3f c25f 7d3f 8334 823f 8106 7b3f
000001a0: c5b7 7c3f 2f8c 7d3f 77ae 823f 81a8 803f
000001b0: 6692 7c3f e738 803f f6f8 7b3f f024 7d3f
000001c0: 6345 803f 9e25 813f 92b1 7b3f 452a 7d3f
000001d0: 2016 813f 5a56 7b3f 7392 823f 30d3 7d3f
000001e0: 3791 813f 3722 803f 5385 803f 2c4f 7f3f
000001f0: c59d 7e3f 7574 803f 30f8 803f 5173 7b3f
0.986247 1.0041702 1.0047765 0.9925178 0.9909476 0.9944093 1.0039793 1.0078887
0.9973553 1.0022172 0.99668235 0.9882646 0.98920256 1.0001293 1.0018928 1.002611
0.98993546 0.99359107 0.99348205 1.0116091 0.9962608 0.99077976 1.0023637 0.9998956
0.9967787 1.0023543 0.99988484 0.9877868 1.0054812 0.98759407 0.99046564 0.99835557
0.99404734 1.0076058 1.00056 1.0291227 0.9873429 0.99240386 1.0036994 1.0043327
0.98614556 1.0165756 1.0117651 1.0098339 1.0023365 0.9865726 0.99457455 1.0184625
1.0108272 0.98547864 0.9912259 1.0014207 1.0161052 1.0099396 1.0120566 1.0008626
1.0030829 0.9960924 1.0149573 1.0054914 1.0099269 0.99587595 0.9899839 1.000775
0.99501026 1.0042856 0.9883195 1.0000191 1.01255 1.0169575 0.99769795 0.9984523
1.0003964 1.0152619 1.0019201 0.99699557 1.015764 1.0068482 1.0018852 0.99264807
1.0036408 0.9964907 1.0018934 1.0081961 1.0011169 1.0019172 0.9849343 0.98544
0.9998691 0.99654806 1.0027559 0.99474895 0.993096 0.9922184 0.9922309 0.99996793
1.0045615 0.9831771 1.0080655 1.0252022 0.99688417 0.9897424 1.0172275 0.980568
0.9871791 0.9904203 1.0209492 1.0051423 0.98660886 1.0017365 0.9842676 0.9888449
1.0021175 1.0089605 0.98317826 0.98892623 1.0084877 0.9817864 1.0200943 0.9915037
1.0122441 1.0010442 1.0040687 0.9973018 0.9945949 1.003554 1.0075741 0.98222834

policyHead.1.bias f4 [128]
00000000: 1e97 b8bb 45af 013c b189 4f3c a672 12bb
00000010: 2747 5db9 1060 5a3b e619 5a3c e1d3 193c
00000020: c4fb 2e3a 2b99 813b 4029 fb3a c627 89bb
00000030: c0f9 afbb 2203 8bbb ab7e 6b3b e9d8 1a3c
00000040: 448e a0bb 6827 a3bb 34a0 863b 359d 9c3c
00000050: 634d 37bb 2381 3cbc d766 263c 58fe 593c
00000060: a428 79bb 0196 453c 1388 073a fed2 50bc
00000070: 79b3 353c 50df bbbb 2e46 a1bb 084b 553b
00000080: f316 993b f86f 883b 7b1e 1e3c edc1 003d
00000090: 974e 4ebb 1019 c5bb 9393 2c3c 8702 463c
000000a0: fc16 3cbc ee1f b73c 950f a93c 1f0f 1f3c
000000b0: e164 053c 8fd5 42bc f95b e937 31f1 513c
000000c0: af46 593c bb02 63bb 033d 47bb bba8 1e3c
000000d0: b24a c33c 235e 813c f144 913c 3f2b 833b
000000e0: d1da ae3c 9ed3 16ba e301 413c 5fdc a23c
000000f0: 0df0 573c a425 c7ba 28b3 a1bb ed59 0f3c
00000100: 5e7f 5e3c d603 4f3c 48eb 2dbb 3a88 9a3b
00000110: da44 a03c 585f ea3c 605e 383b f515 19bb
00000120: bcf3 7ebb f8a9 903c 6c54 4f3c 1aaf 2c3c
00000130: 6263 003d 7e0c 413c cbef 1e3c 671a 70ba
00000140: a4a6 2f3c 1b9a d6ba 9db6 cf3b acf0 883c
00000150: c09c cbba 2795 3e3c 7888 e1bb fcaf 2dbb
00000160: 8eae 87bb f0b1 10bb e229 a33b 57e2 98b9
00000170: 6837 85bb b920 673b a698 2cba 6303 fcb9
00000180: 813a 233c 8237 57bc 246e a23c 6d38 d63c
00000190: 99e0 943a 62f0 24bb a12b ea3c 28df 2ebc
000001a0: 296e 2dbc 26e2 3838 ee39 d23c 09d5 693c
000001b0: 1ea1 b13a 8bd9 bb3b 8e2d 5abc 44a9 12bc
000001c0: 8db4 9a3c 24f9 863c 3be4 5abb 5ea1 35bc
000001d0: f25e 683c d8d1 29bc 2c29 243d 37f1 02bc
000001e0: fc91 a43c 1c83 44bb 8a31 893c bfaa 0b3c
000001f0: 97b6 b63a af76 093c 8e8b 303b fb8e b6bc
-0.005633249 0.007915323 0.0126671055 -0.0022346168 -0.00021102709 0.0033321418 0.013311839 0.009388895
0.0006675089 0.0039550266 0.0019162074 -0.0041856496 -0.0053703487 -0.004242317 0.0035933654 0.0094511295
-0.004899772 -0.004979063 0.004108453 0.01911793 -0.002796971 -0.011505398 0.010156355 0.013305269
-0.0038018608 0.0120596895 0.0005170118 -0.012745617 0.011090153 -0.005733408 -0.004921696 0.0032545943
0.004671925 0.0041637383 0.009650822 0.031434942 -0.0031479949 -0.0060149506 0.010533231 0.0120855635
-0.011480089 0.022354092 0.020637313 0.009708195 0.008141727 -0.011891737 2.7818593e-05 0.012813852
0.013261481 -0.0034639079 -0.0030401356 0.009683783 0.023839328 0.015791958 0.01773307 0.004002958
0.021344574 -0.00057535793 0.011780235 0.019880472 0.013179791 -0.0015193713 -0.004934687 0.008749467
0.013580171 0.012635192 -0.0026537944 0.0047159465 0.019564081 0.028609917 0.0028132424 -0.0023359035
-0.0038902601 0.017659172 0.012654405 0.010539794 0.03134478 0.0117827635 0.009700726 -0.00091592077
0.010720883 -0.0016372831 0.006338908 0.016716324 -0.0015534386 0.01163224 -0.0068827234 -0.00265026
-0.0041406816 -0.0022078715 0.004979358 -0.00029160336 -0.004065443 0.0035267307 -0.00065840257 -0.0004806771
0.009962679 -0.013135793 0.01982791 0.026149953 0.0011358439 -0.0025167693 0.028585257 -0.010673322
-0.010585346 4.4079636e-05 0.025662389 0.014271983 0.0013552045 0.0057327203 -0.013316525 -0.008951489
0.018884921 0.016476221 -0.0033400196 -0.011085836 0.014182793 -0.010364972 0.040078327 -0.00799208
0.020089142 -0.0029985374 0.016747255 0.008524596 0.0013939914 0.008390113 0.002693865 -0.022284975

policyHead.3.weight f4 [64, 128]
00000000: 0fd1 fabd 1275 21bd e854 02be 20da 1abd
00000010: de50 0f3c dda3 2e3d 8fc8 923c 49ab eabd
00000020: 5179 28bd 8967 8b3c b229 01be 542e 84bd
00000030: 9a10 85bd cdff 303c e84d 8abd 7dbb 363d
00000040: 1a8e b9bd 517f bdbd 89ad 75bd 0690 ebbd
00000050: 8ab6 1fbc c5e1 aabd 354a e2bd b1a8 0cbe
00000060: 7fdd 223d 06d1 f3bd 27cf 8c3d 1317 a0bd
00000070: f840 d7bd 2e27 6ebd 3f1a c8bd e22f d5bd
00000080: 5e14 c8bc 6e8f e8bc 1810 bcbd 4018 c03c
00000090: c953 14bd f5e8 4c3d 02fc 923c faf8 50bc
000000a0: 96b4 b4bb 01e4 8e3c d653 af3c 3e49 9abc
000000b0: 62e5 f93c e775 34bd 0993 743d bd8f 21bd
000000c0: 28db 9dbd 5b27 85bc e595 8bbd a9e4 07bd
000000d0: 81ff 913c 1ef6 ebbd f5fd 96bd 0fe4 37bb
000000e0: 04da d7bd 000c 51bd 3a48 0fbd 181b 82bd
000000f0: aa75 d3bc aee2 eebc 1334 3a3d c1f7 1f3d
00000100: 34ef cebc aa7b 3bbc 2784 93bd 700f c13c
00000110: 0c11 92bd 2515 04be 10e9 c4ba cee6 393d
00000120: 7b09 453d 4614 38bd af38 90bd e93b 15bd
00000130: b54e 573d f4d5 2ebd 88dd d1bd 934c 803c
00000140: c3b5 a5bd e852 a5bd 12ca fbbd 95b7 dcbd
00000150: 7612 4dbd 95a7 e7bc 6cdf 0d3c f418 15bb
00000160: 3592 a9bd faa8 f2bc 5323 4bbd dadc 083d
00000170: f592 aebd 62d9 08bd 8250 623d 5870 9cbd
00000180: d2fb 85bd 185f 3f3c 4561 82bd cb0e 33bc
00000190: ece6 c2bd cf22 30bb 126b b6bd de73 e7bd
000001a0: 5645 403d 2413 0d3c 268a ebbd 0365 30bd
000001b0: 4254 03bd 0b5b 5abd 8fef 05bd ec64 42bd
000001c0: 65ff 8ebd 1ee5 99bd 4758 dcba 8cd1 183d
000001d0: 0843 94bd 71fe 8cbc 0510 69bd bd1b 163d
000001e0: 9a66 eebd 70d7 9f3c 9116 2abc 1c4c 0cbe
000001f0: 6bcc 833d 0c10 fdbc eae0 6abc 7c9c 5f3d
00000200: 94c7 b23d 3889 7e3d 2fb6 393c f3e2 55bd
00000210: 34b4 723d a4f1 3e3c 3c82 9cbd 3293 8a3d
00000220: c0cd 15bd 76db 94bc fe06 0cbd 09b8 39bd
00000230: fb10 773d d423 7c3d 155f 5b3c ae70 9dbd
00000240: 6be2 49bc 3719 7e3d f7c1 793c 0ff4 d2bc
00000250: cfe6 86bd 88d2 fa3b c4a7 45bd 2f67 a13c
00000260: 4a96 1bbd 91bd 87bb 8b30 d2bc f7d8 bc3d
00000270: d5c7 b63c dec2 473d 0c13 a03b f073 d6bc
00000280: ad00 45bc 9e16 b83c 5abb 4f3d f153 aa3d
00000290: 1f05 44bb 0e8e 9b3b 7274 4fbd 0f95 3cbd
000002a0: d853 db3c bce2 ae3d b6cf 6fbd 9e13 64bd
000002b0: 361e 9d3d 3da5 a4bc 60df 7dbd 5569 a4bd
000002c0: ef34 89bd 8b0e 873d 36d4 8d3d d2ed 49bb
000002d0: 71f6 6b3d 70e7 53bd b87b 963d 16cd 8f3d
000002e0: 18ad 50bb 5205 b9bb 2276 57bd eaf0 b5bd
000002f0: 334c 5c3b 6d5e 943d e500 08bd 25b4 a83d
00000300: 10d8 0abc 4d3f 0bbd da0c 1cbd 15da a2bd
00000310: 6dae 04bd 231c dbbc 3041 ccbc 7f20 4abd
00000320: a009 31bc 66a3 65bd 0d03 8fbd 3b8a 5fbd
00000330: 38eb 1abd a077 163d 2f4e 99bd fd9e 99bd
00000340: f9bc da3b c08a af3c 6b68 1ebd 5119 d6bc
00000350: a2a3 1fbc 2876 df3b ca05 93bd b3e5 41bd
00000360: 80a1 36bd 905f b03b c080 91bd 9cb8 d839
00000370: a723 bcbd 51af 58bd d60c 8c3d 885a ec3c
00000380: bf3a 51bc 88cc 803d 84f0 9b3d 18ca 293d
00000390: 4f22 213d 2ba9 10bc 4d62 27bd c20b 2a3d
000003a0: 6789 3dbd b799 123d 1b5b 7bbc e187 2abd
000003b0: 9bc0 383d bbf5 8dbd 6902 b73c 5872 db3b
000003c0: 9393 473d 13d4 1e3d 3c74 09bd 60ba 17bd
000003d0: e8e0 a13d a4ed 6e3d 1012 893b 1959 1d3d
000003e0: c6ec 833d 07bb e43c 03cd 8bbd de9f 4d3d
000003f0: e3b8 07bd eb7b 5ebd 79c3 aa3d 5c7d 193c
-0.12246906 -0.039418288 -0.12727702 -0.037805676 0.008747308 0.04263674 0.0179179 -0.11458451
-0.04113132 0.017017143 -0.12613562 -0.06454149 -0.06497307 0.010803175 -0.06753141 0.044612397
-0.09060307 -0.09252799 -0.05997995 -0.1150208 -0.009748111 -0.08343843 -0.1104931 -0.13736226
0.039762016 -0.119051024 0.06875449 -0.07816901 -0.10510439 -0.058142833 -0.09770631 -0.104095235
-0.024423774 -0.028388705 -0.09182757 0.023449063 -0.036212716 0.050026853 0.017942432 -0.012754673
-0.0055146916 0.017442705 0.02140228 -0.018833753 0.030504886 -0.044057753 0.059710536 -0.03944372
-0.07707816 -0.016254118 -0.068156995 -0.03317705 0.01782203 -0.115215525 -0.07372657 -0.0028059517
-0.1053963 -0.051036835 -0.03498099 -0.06352824 -0.025812943 -0.029160824 0.045459818 0.039054636
-0.025260545 -0.011443058 -0.072029404 0.023566931 -0.07132158 -0.12898691 -0.0015023071 0.045386128
0.048104744 -0.04494121 -0.070420615 -0.036434088 0.052565295 -0.04268451 -0.10247332 0.015661513
-0.08091309 -0.08072454 -0.12294401 -0.10777203 -0.050066434 -0.028278152 0.008659225 -0.002275047
-0.0827984 -0.02962159 -0.049594235 0.033413745 -0.085241236 -0.033410437 0.05525256 -0.07638615
-0.065421715 0.011680387 -0.06366209 -0.01092882 -0.09516701 -0.0026876216 -0.08907141 -0.11301397
0.046941124 0.0086105205 -0.11500959 -0.043065082 -0.032062776 -0.05330948 -0.032699164 -0.047459528
-0.069823064 -0.07514404 -0.0016810977 0.037309214 -0.07239348 -0.01721117 -0.056900043 0.036647547
-0.116406634 0.019511908 -0.010381357 -0.13700908 0.06435474 -0.03089144 -0.01433585 0.054592595
0.08729473 0.06214258 0.01133494 -0.05221839 0.059253886 0.011654291 -0.07642028 0.067663565
-0.03657317 -0.018171053 -0.034186356 -0.045341525 0.06031893 0.061557606 0.013389369 -0.076875076
-0.012322049 0.062035765 0.015243999 -0.025751142 -0.06586992 0.007654492 -0.048255697 0.019702522
-0.037985124 -0.004142471 -0.025657913 0.0922107 0.022312084 0.048769824 0.004885083 -0.02617833
-0.012024087 0.022471722 0.05071578 0.08316792 -0.002991028 0.004747159 -0.05064816 -0.04604059
0.026773378 0.0853934 -0.058547698 -0.05568277 0.07671778 -0.020098323 -0.061980605 -0.08027903
-0.066995494 0.06594571 0.06925242 -0.0030811918 0.05760807 -0.051734388 0.07347816 0.07021539
-0.0031841453 -0.005646386 -0.052602895 -0.08883841 0.0033614754 0.07244573 -0.033203978 0.08237485
-0.008474365 -0.033995915 -0.038098194 -0.07951752 -0.032392908 -0.026746815 -0.024933428 -0.049347397
-0.010805517 -0.056064032 -0.06983004 -0.054575186 -0.03782198 0.036735177 -0.074856155 -0.07501028
0.0066753593 0.021428466 -0.0386738 -0.026135119 -0.009743603 0.0068195052 -0.071788386 -0.0473382
-0.044587612 0.0053824857 -0.07104635 0.00041336275 -0.09186488 -0.05290157 0.06838386 0.028851762
-0.012770354 0.06289011 0.07614234 0.041452497 0.03933936 -0.008829395 -0.04086523 0.04151512
-0.046273615 0.035791125 -0.015341545 -0.04163349 0.045105558 -0.06931635 0.022340016 0.0066969804
0.048724722 0.03877647 -0.033558115 -0.037042975 0.079042256 0.0583321 0.0041830614 0.03841505
0.06441645 0.027921213 -0.06826212 0.05020129 -0.033135306 -0.054317396 0.08338065 0.009368267

policyHead.3.bias f4 [64]
00000000: d027 efbd 94f0 983d ceea 2abd 2b4e 643d
00000010: 7918 a1bd 7067 4abd 494f 983d 7968 7b3d
00000020: 0357 a73c 4197 613d df91 a63c 5fe1 5b3c
00000030: 7b85 dabd 5d9a 613d 08f4 c1bd 9f59 823d
00000040: f6e9 d63c 8e57 923d 9d3f 95bd b8d0 ef3c
00000050: 0aa7 ecbc 6a1c 39bd 9da1 87bc 2359 d2bc
00000060: f260 c7bc 2d84 793d a0b8 b23d f9a4 afbc
00000070: 18eb 02bd 2978 493d 4268 cbbd 280c 223b
00000080: 6119 16bd f2ae 4ebd 4c76 3d3d 1cc3 a83d
00000090: 8657 693d 1d33 6ebd a2fb 9c3d 1079 363c
000000a0: a2ed d1bc 2ab1 5b3d 8158 d4bb bfdc b83a
000000b0: ed7e 9d3d 1045 a53d 55af 653c 28af 5e3d
000000c0: 2e85 8ebd 109d 34bd 22c9 73bd 1402 3ebd
000000d0: fe69 58bc 7a84 98bc 69a9 67bd c0af be3d
000000e0: 7b57 0abd 62ca 1cbd c25e 97bd 81ee 453d
000000f0: a38a 9cbd 02c3 b63d 782b 273d 8c68 323d
-0.116775155 0.07467762 -0.041727833 0.05573861 -0.07865996 -0.049415052 0.074369974 0.06137893
0.020427233 0.055075888 0.020333229 0.013420432 -0.10669991 0.055078853 -0.094703734 0.0636475
0.026234608 0.07145606 -0.07287524 0.02927433 -0.028888244 -0.045193113 -0.016556555 -0.02567727
-0.02433822 0.06091707 0.08726621 -0.02144097 -0.031962484 0.04918686 -0.09931995 0.0024726484
-0.036645297 -0.05045981 0.046255395 0.08240339 0.056968234 -0.058154214 0.07665183 0.011137262
-0.025626007 0.053635754 -0.006480277 0.0014103873 0.07690225 0.08069813 0.014018853 0.05436626
-0.06958996 -0.0440951 -0.059517987 -0.0463887 -0.013208864 -0.018617857 -0.056558046 0.093108654
-0.033774834 -0.038278945 -0.073911205 0.04832316 -0.0764363 0.089239135 0.04081294 0.043556735

policyHead.4.weight f4 [64]
00000000: 32c0 7f3f ef7a 7c3f a68e 7f3f 8e9c 7a3f
00000010: fb06 7b3f 3ea8 7d3f bb19 813f 9543 803f
00000020: de7f 7a3f 4587 7e3f 1d02 7b3f 050c 7b3f
00000030: 87fb 7e3f f5ee 7d3f a65c 7b3f c618 7d3f
00000040: 036a 7f3f 97b9 7a3f 8290 7d3f 60f6 7d3f
00000050: 5503 7d3f 110a 803f adcb 7e3f 4215 793f
00000060: dca8 7f3f 92cb 7d3f 0d72 7d3f d28c 7f3f
00000070: 3c17 7b3f 3793 7c3f 08cf 7f3f 51f4 7a3f
00000080: 5646 7d3f 1126 7d3f 1f07 803f c8d5 7c3f
00000090: 4d8e 783f 50f8 7b3f 5db3 7d3f 7dd8 7e3f
000000a0: 9577 803f 3101 7b3f 8ff3 7d3f ebd4 7d3f
000000b0: ad3f 7b3f 43e3 7c3f de2b 7d3f 8138 7e3f
000000c0: 212b 803f 27c1 7f3f e04f 783f 1f67 7f3f
000000d0: 7d14 7d3f e818 7f3f e4ba 7c3f 9b4e 7b3f
000000e0: 468a 7a3f 47ff 7d3f e8c2 7a3f 5709 803f
000000f0: ada8 7d3f ea8a 7e3f 5427 7d3f e95b 7f3f
0.9990264 0.9862508 0.9982704 0.97895133 0.98057526 0.9908484 1.0085977 1.0020624
0.9785136 0.99425155 0.980501 0.98065215 0.9960255 0.99192744 0.98188245 0.98865926
0.99771136 0.9793944 0.99048626 0.99204063 0.9883321 1.0003072 0.99529535 0.9729806
0.99867034 0.9913875 0.9900215 0.9982425 0.9808233 0.9866213 0.9992528 0.9802905
0.9893545 0.9888621 1.0002173 0.98763704 0.97092134 0.9842577 0.9910181 0.99549085
1.0036494 0.9804869 0.99199766 0.9915301 0.98144037 0.98784274 0.9889506 0.9930497
1.0013162 0.999041 0.9699688 0.99766725 0.9885939 0.9964738 0.9872267 0.9816682
0.9786724 0.9921765 0.97953653 1.000285 0.99085504 0.99430716 0.98888135 0.9974962

policyHead.4.bias f4 [64]
00000000: 3c8d b9ba f06a 02bc 1fa8 8f3c 1123 6dbc
00000010: d3d6 a1bc be8c 18bb b727 463c 1413 73ba
00000020: 48dc f9bb adbf fd3b b409 09bc ff12 90bb
00000030: 45e2 babb e1e4 da39 6789 45bc 7eec acbb
00000040: 9efe b33a 7123 26ba c635 41bc df8f 07bc
00000050: 11df 16bb 0e08 02b9 94ae 04bc 524c 353b
00000060: 8bea f6b9 cffd cbb8 d701 cfbb f142 29bb
00000070: 099a b0ba e096 40bc 7264 a2b9 dd25 313b
00000080: d15c d8bb f255 6e3b c77c e637 085b c9bb
00000090: 1cc0 a5bc ddd4 a1bb fda9 18bc 833f 5b3b
000000a0: da29 6a3c bfd4 3ebc a181 b0bb fe14 5bbc
000000b0: ef40 7ebc 11d9 9abb 8386 76bc 3152 303c
000000c0: f643 373c 0c4a 56ba 7b73 14bc 2b21 c9bb
000000d0: eca6 8dbc 171c 55bb d798 67bb 87ac 94bb
000000e0: 1257 0ebc e88b 2ebc 90b5 80bc a593 143a
000000f0: 292e 6cbc dd61 bcbb fa40 1fbc ba51 b33b
-0.0014156471 -0.007960066 0.017536221 -0.0144736925 -0.019755756 -0.0023277248 0.01209443 -0.0009272557
-0.0076251365 0.007743797 -0.00836413 -0.0043967958 -0.005703243 0.00041750728 -0.012056685 -0.0052772155
0.0013732498 -0.00063376786 -0.011792606 -0.008274048 -0.0023021142 -0.00012400767 -0.008098263 0.0027663899
-0.00047095524 -9.72707e-05 -0.006317358 -0.0025827254 -0.001347364 -0.011754721 -0.00030973885 0.0027030625
-0.0066028615 0.0036367145 2.747624e-05 -0.006144885 -0.020233206 -0.0049387054 -0.009317872 0.0033454604
0.014292205 -0.011647402 -0.0053865467 -0.013371704 -0.015518411 -0.0047255834 -0.0150467185 0.010761783
0.011185637 -0.0008174486 -0.009060736 -0.006137987 -0.017291509 -0.0032517964 -0.0035338902 -0.0045371684
-0.008687751 -0.010653473 -0.015711576 0.00056677527 -0.014415302 -0.005748971 -0.009720081 0.005472389

policyHead.6.weight f4 [26, 64]
00000000: 2a6d 86bd 4a4b e93d d72f db3d b230 a0bd
00000010: e7ae 3fbd b1cf 853d ccea ecb9 bc67 353d
00000020: 2342 c6bc 5cfb 883d 3347 2c3d 8486 a23d
00000030: e404 ec3d a1f1 233c f471 98bd 43c6 84bd
00000040: b638 a7bd 0524 3cbd 9e50 e23d 71c8 02bd
00000050: 4e52 bfbc 8aa4 f13d 23b1 b03d e4a3 053d
00000060: 81f7 64bd ac4b 033e aae4 a0bd acbc a33d
00000070: 1956 dd3d 16e1 f13d ba20 31bd 5119 a3bd
00000080: ed67 d7bd d2a0 be3d 1680 a4bc c9d6 b5bd
00000090: fb31 1c3b f47e cfbb 5d95 a8bd ddf9 0fbc
000000a0: 9347 763d 37bc 66bd f37c e6bd 7f10 a93d
000000b0: 2c24 ce3c 7b2e 8b3c b7d5 11bd fb22 bd3c
000000c0: 1962 c63b 64be 2b3c 08eb 053d 22cd 74bb
000000d0: 0979 e03d 752f 5bbd 6eab 133d 0696 b8bd
000000e0: d66d bc3b 1e67 013d 5ab4 1e3b ab4d 6d3d
000000f0: 56d5 e43d 0c7b d2bd 621d 0cbd 8694 a23d
00000100: 4a36 3c3d 0580 bfbd 2310 2c3d 72ef 72bd
00000110: ad34 d53c 469d a9bd c21c fe3d fb09 eebd
00000120: 51c6 b1bb f7f9 abbd b088 a5bd 0d71 923d
00000130: f979 ca3d f51d 4ebd 4be6 d63d 749c d13d
00000140: 4642 eabc d6f5 de3b 1d80 bf3c 1007 d03c
00000150: b048 b4bd 22db 0b3b ddc1 b4bd 9a1b fd3c
00000160: 2a18 9c3d a330 ac3d 30e2 e03d ec90 5d3d
00000170: d785 d3bd 7aa7 dbbc 0b07 e8bd 46b3 aebd
00000180: a033 1c3d 68f1 e23d fd57 813d 0703 0b3d
00000190: 6e77 f9bc 8d73 d43d 7f1d 14bd cf5b 06bd
000001a0: e3dc f33d 3b17 ba3d 4edf ad3d e630 69bd
000001b0: 2837 843d 67dd a63d 17e5 e33d 5968 aabd
000001c0: 4791 9fbd d303 1bbc e73f 27bd 4678 b5bd
000001d0: fdd2 06bc 8324 ca3d f76a 913c b02f 36bd
000001e0: a7a4 7cbd 604c e33d 2149 2abc fc0a 193b
000001f0: 6894 b7bc f374 b8bd 2d93 e73c a70d c8bc
00000200: 3cf4 9b3d a3c6 6abd 4046 dc3d 8c09 b4bd
00000210: a58a 91bd 05ab 0abd 00ab 233c 7c24 fdbc
00000220: d792 ab3d 507a 97bd 1ac5 243d f3d0 013d
00000230: fa57 5d3c f006 963d 05d5 b23d a3a9 47bd
00000240: 8b91 debd 2618 843a 68a7 bc3d 0a1c 863d
00000250: 7118 03bc 081b 9a3d 2ef4 d03d a634 92bd
00000260: ea16 d5bd 3962 aebd 6809 c9bd 96dc 0cbd
00000270: 5035 60bc e7a3 9f3d 2c55 aa3d 0d60 113d
00000280: 4428 aabd b14a 3d3d 1cd2 d63d 0f59 033e
00000290: f37d 10bd 2b11 0fbd ec8a 983d 1f4a 95bd
000002a0: f6bd a83d 376a 58bd cdc9 26bb 6ce6 ad3d
000002b0: c6c5 e73d 5662 0cbd 447f d9bd 79f8 393c
000002c0: d480 813d 8e54 4d3c 3895 a03d 7f2e a93c
000002d0: 833a 33bc 5ccc ea3d c203 bb3c 1a7c 77bd
000002e0: 286a fa3c 3c10 f9ba d9fd 8e3d a458 b23c
000002f0: 08ad 3cbd 63f1 d83c dc85 cabd 6e24 fa3d
00000300: 49f4 fa3d 8082 efbb f6c1 58bd 7f43 de3d
00000310: b9cf c83d 4d6a e13d a84d e33c a7d5 d23d
00000320: b309 d2bd 8d70 0e3e b66c 59bd 0328 1bbd
00000330: 1641 ce3d 604a 313d 3108 a73c 6d6f 2a3d
00000340: e1bc 713d 5e8e e63c 0cce dbbd 0bb8 a4bd
00000350: 8df7 843d 1c1b 24bc b3ed 833d 524a b9bb
00000360: 9dea 22bd c09d 493d 0d92 e3bd 56bc fcbd
00000370: 94ca 3d3c c517 01bd ded6 dcbd 2df8 dd3d
00000380: 1d1f 8abd 373b 84bd cb7a c6bd 5ca8 08bd
00000390: d809 65bd adb2 4bbc 50f1 9f3d d0ff f83c
000003a0: 5480 ee3c bcd4 0a3d ed3b b4bd 174d 7cbd
000003b0: 1e88 d43d e9f8 d7bc c70b 8bbd 9036 063e
000003c0: cf3b d33c ac43 2abd 172c 033d 4581 0b3d
000003d0: 111f 4fbc e3b8 333d 8603 d83c a54e ec3d
000003e0: be9b 05bd e22e ea3d fe57 5bbd 5056 a0bc
000003f0: 7d9d 11bd 27b5 13bd fa53 dcbd 2c20 003e
-0.0656379 0.113913134 0.10702484 -0.07821788 -0.04679766 0.065337546 -0.00045188365 0.044288382
-0.024201458 0.06688568 0.04206009 0.07935813 0.1152437 0.010006339 -0.0744361 -0.06483128
-0.08165114 -0.04593279 0.11050533 -0.031929437 -0.023354676 0.117989615 0.08627536 0.032627
-0.0559001 0.12821835 -0.07856114 0.07994971 0.108074374 0.1181051 -0.0432441 -0.07963813
-0.10517869 0.09308018 -0.020080607 -0.08878858 0.0023833502 -0.0063322727 -0.08231614 -0.008787599
0.060126852 -0.05633184 -0.11254301 0.082550995 0.025163732 0.016989937 -0.035604205 0.023087969
0.0060541746 0.010482404 0.032694846 -0.0037353714 0.109605856 -0.053512055 0.03605216 -0.0901299
0.005750398 0.03159248 0.0024216385 0.057935398 0.11173503 -0.102773756 -0.03420771 0.07938485
0.04595021 -0.0935059 0.042007577 -0.059310384 0.026026094 -0.08281951 0.12407829 -0.116229974
-0.0054252525 -0.083972864 -0.08082712 0.07150469 0.09886546 -0.050321538 0.10493144 0.10234919
-0.028596055 0.0068042083 0.023376519 0.025393993 -0.088029265 0.002134033 -0.08826039 0.03089695
0.076217964 0.08407714 0.10980642 0.054093286 -0.10328262 -0.026813257 -0.11329468 -0.085302874
0.03813517 0.11081201 0.063156106 0.033938434 -0.030452456 0.10373602 -0.036160942 -0.0328024
0.11907365 0.09086462 0.084898576 -0.0569314 0.06455833 0.08147698 0.1112768 -0.08320684
-0.07791381 -0.009461361 -0.040832426 -0.08860831 -0.008229014 0.09870245 0.0177512 -0.044479072
-0.061680462 0.11098552 -0.010393412 0.0023352494 -0.022409633 -0.09006681 0.028268421 -0.024420572
0.076149434 -0.05731834 0.107555866 -0.087908834 -0.071065225 -0.033854503 0.0099895 -0.030901186
0.08377617 -0.07396376 0.040227033 0.03169341 0.013509745 0.07325542 0.087320365 -0.048745763
-0.10867604 0.0010077998 0.09211618 0.06548317 -0.008001433 0.07524687 0.102028236 -0.07138948
-0.10404761 -0.08514828 -0.09816247 -0.034390055 -0.013684586 0.07794934 0.083170265 0.03549199
-0.08308461 0.04621381 0.10489294 0.12826942 -0.035276365 -0.034928482 0.07448372 -0.07289528
0.08239357 -0.05283567 -0.0025449872 0.08491215 0.11317019 -0.034273468 -0.10619977 0.011350744
0.063234 0.012532366 0.07840961 0.020652054 -0.010939243 0.1146476 0.02282894 -0.060421087
0.030568197 -0.0019002031 0.06982011 0.021770783 -0.046063453 0.02648229 -0.09888813 0.1221398
0.12253625 -0.007309258 -0.05291935 0.108527176 0.09805245 0.110066034 0.02774699 0.10294657
-0.10255756 0.13910122 -0.05308219 -0.037879955 0.10071008 0.04328382 0.020389648 0.04161017
0.05901802 0.028144058 -0.1073266 -0.08042916 0.06492529 -0.010016229 0.06441822 -0.0056546116
-0.039774526 0.049222708 -0.11111841 -0.1234061 0.011583943 -0.03151681 -0.1078317 0.108383514
-0.06744216 -0.06456607 -0.0969139 -0.033363685 -0.05591759 -0.012432736 0.078096986 0.030395418
0.029113926 0.033894286 -0.088004924 -0.061596956 0.10377525 -0.026363807 -0.06789356 0.13106751
0.025785355 -0.041568443 0.03202447 0.034058828 -0.012641684 0.043877494 0.026368868 0.11538438
-0.03261923 0.114347234 -0.053550713 -0.019572407 -0.035550583 -0.036061432 -0.10758205 0.12512273

policyHead.6.bias f4 [26]
00000000: 53fc a3bc 1b64 b1bb 31fc 9ebd 895f 72bd
00000010: b7b6 d03c 63b2 e23d 997f a6bd e89b 43bd
00000020: 62cf 35bd 0645 91bd ba5c d23c 9542 153d
00000030: 11cf 28bc 316d cc3d 1958 71bd 0aa6 353d
00000040: 57b7 d9bc e43a 1ebc 68d4 08be 278f cf3d
00000050: 92e9 8cbd 15b8 a43d 24c9 0ebd 98e6 36bd
00000060: 7407 b73c 0229 50bd
-0.020017779 -0.005413545 -0.077629454 -0.05917314 0.02547775 0.11069181 -0.08129806 -0.047756106
-0.04438723 -0.07093243 0.025678981 0.03644045 -0.010303275 0.09981764 -0.058921907 0.0443478
-0.026576681 -0.009657595 -0.13362277 0.10134726 -0.068804875 0.08042923 -0.03485979 -0.044653505
0.022342421 -0.050820358

valueHead.0.weight f4 [64, 50]
00000000: 3cad 8c3d 0e20 b4bd 9157 87bd dc8e fb3d
00000010: 846d 293c cd0c cbbc 01f8 3fbd 7670 5dbd
00000020: eadc 463d 7605 c3bd bbd8 61bd d866 89bd
00000030: ccca 52bd 400f 983d 1a4d c0bd 60b0 093e
00000040: 756e 793c 781f 6cbd f102 6c3d 790e 2bbd
00000050: 504b 063e 25ec ba3c 5e27 37bd 275b aebd
00000060: f62c 983d d7f4 9f39 8f4c f4bd 6a5b 87bd
00000070: 18fc e03d 3dd5 8c3d 3785 bb3d 0981 fbbd
00000080: f8cc f63d 2b91 8e3d 9a91 9dbd 130e 0abe
00000090: 4664 dd3d c056 fd3d a92d 073e 5723 f7bd
000000a0: b24a d7bd 9b2a 0c3e 4c75 963b 9fa8 30bd
000000b0: 14e2 a23d 3af7 e0bd d28f 8abd 0ca4 19bd
000000c0: 520e 2ebc 8539 a73d f812 97bd 26c1 b43d
000000d0: 24f3 1e3d 6cd3 a2bb 0bb0 d9bd 860e 0c3e
000000e0: 94c6 78bd 0091 bd3d 9711 f9bd e672 f9bc
000000f0: bbb4 f43d 4213 e6bd f7f3 cabd ecf0 b9bc
00000100: 586b 95bc 7d79 dbbd 2eb3 0b3e d8ad e9bd
00000110: b938 8bbd a10f c4bc 3b3f f0bc 3ee5 9abc
00000120: f150 dfbd 4ec6 46bd 84bb f03d fb00 c5bc
00000130: 2c66 f23d d9e6 eabd f771 b2bd a668 7f3d
00000140: c486 d7bd 713f b2bc d168 193d c114 d93d
00000150: 3154 16bd 0fa6 d93d de7b 803d 132a 0d3e
00000160: ddcb 013e 22d1 9b3d 0e03 2c3d 5fb4 b5bc
00000170: 2a5b b9ba 97b0 403d 5463 32bd 5f93 a03d
00000180: b3ba 083e 4dd9 0b3e d61d 8fbd 8c95 b2bd
00000190: 7358 0ebe b0ec 023e 48b1 a83d 9bc7 af3d
000001a0: a30e cb3d 8baf 06be 029c e4bd c322 dabd
000001b0: 6fb0 41bd cc70 823d 0b81 d43d 0eb2 a8bb
000001c0: a550 10be 9490 e93d abcd a7bd deab a73d
000001d0: 8579 6ebd b504 d23c dd17 e03b 9c61 013e
000001e0: 471e f3bd b31b da3d c7c2 f1bd 63fd a03d
000001f0: 37e1 0b3e 4a93 b03c e412 0c3e 7181 5d3b
00000200: 0777 b3bd 61a4 363c fa2d 70bc 59f1 bf3d
00000210: 323b e53d 9bdf 2abd a33a 223d c22d fabd
00000220: b1ae 8ebd 9623 e43d af17 053e cdef ea3d
00000230: bfdc 7c3d ccc1 d2bc 2ad1 533d fdc6 f6bd
00000240: 8406 e13d 4eec 8b3d b9ac e63d b556 ebbd
00000250: c447 80bd 7047 d3bd 5833 81bc 9e2d a9bd
00000260: 39ec aabd 10b2 0f3e eb53 bb3b 4572 77bd
00000270: 8fb8 8abd 89cc 853d 9516 3bbd a4b8 7ebd
00000280: 2c4d c5bc 64ef f93a a8c7 1a3d 6717 053e
00000290: 6410 fabc 65b4 08bd 2d51 0bbe a7a5 043e
000002a0: 9937 f83d 95b6 9dbd 26b7 8e3d 6910 d13d
000002b0: ad05 cc3d 6a1e efbc 4b8d 343d 5f16 093e
000002c0: caa3 10bd fe6d cbbc 3240 0bbe 1bd1 723d
000002d0: 27a5 eebd 980e 6dbd 75d4 babd efd0 d03d
000002e0: efb5 c03d 0342 0e3e 2d72 013d 75a7 08be
000002f0: 38b5 493d 6f15 843d a88e ebbd b053 da3c
00000300: 3d87 b73c f81f 8ebd a4f6 74bd 6951 3ebb
00000310: 6767 f0bd 756c 293d afe1 04be 3bb1 0c3e
00000320: 6e6c 923d f271 7d3a 4b6d 26bd 94e6 c13d
00000330: acce 9a3d 2204 69bd a6b1 5c3d 66e2 c5bc
00000340: 39a7 10be d518 893c cd7b 933d f34a b9bd
00000350: c287 91bd d9e3 323d 4fe4 b5bd 261e 0e3d
00000360: 97da fb3d 7d9a d2bd 98f7 64bc a697 9b3d
00000370: f680 a0bd 06cc f0bd eda0 123d 2755 0d3e
00000380: a1e2 803d 7efe 733c 3a7e 053e dd97 0a3c
00000390: 538e 14bd feff b8bd 3644 abbd 953a 8fbd
000003a0: b5ec 5d3d 8aa9 64bd f644 b53d 4c9e e7bd
000003b0: 34d7 d33d 4454 0a3d fb64 03bc cfca 783d
000003c0: ade7 6bbd 79e2 193d 3038 f2bd 3b66 9e3d
000003d0: 9608 be3d a108 eabd 65d0 443d 494b 08be
000003e0: 6b4a 05be 65de d4bd 7aea 4f3c 72ff 0abe
000003f0: 4aaf e9bd 70d7 6d3c e90a 0a3d 6d3a c23d
0.06868979 -0.087951764 -0.06608499 0.12283108 0.010341052 -0.024786377 -0.046867374 -0.05406233
0.048550524 -0.09522526 -0.05513833 -0.06709069 -0.051462933 0.07424784 -0.09389706 0.13446188
0.015224089 -0.0576472 0.057619993 -0.04176185 0.13114667 0.02281768 -0.044715278 -0.0851348
0.074304506 0.00030509263 -0.11928665 -0.06609233 0.10985583 0.068766095 0.09156268 -0.12280471
0.120508134 0.06961282 -0.07693787 -0.13481931 0.10810141 0.12370062 0.13201012 -0.120672874
-0.10512294 0.13688128 0.0045916196 -0.04312956 0.07953277 -0.10984655 -0.06765713 -0.037509963
-0.010623531 0.08165268 -0.07376665 0.08825903 0.038806096 -0.004969051 -0.10629281 0.13677415
-0.060736254 0.09256172 -0.12161558 -0.030450296 0.11948534 -0.11234142 -0.09909814 -0.022697888
-0.018239662 -0.107165314 0.1364257 -0.11410111 -0.06797928 -0.023933234 -0.029327026 -0.01890814
-0.1090411 -0.04852896 0.11754516 -0.02404832 0.11835894 -0.11469812 -0.08713143 0.06235566
-0.105237514 -0.021758767 0.037453476 0.105996616 -0.036701385 0.10627376 0.06273626 0.13785581
0.12675424 0.07608248 0.0419951 -0.022180734 -0.0014141549 0.04704341 -0.043551758 0.07840609
0.1335247 0.13657112 -0.06988113 -0.0871993 -0.13900928 0.12785602 0.08236939 0.085829936
0.09914901 -0.13152902 -0.11162569 -0.106511615 -0.0472874 0.063691705 0.103761755 -0.005148179
-0.14093263 0.11404529 -0.08193525 0.08187078 -0.05822136 0.02563701 0.006838782 0.12634891
-0.11871009 0.106498145 -0.11804729 0.0786083 0.13660131 0.021554608 0.13679081 0.0033799077
-0.08762937 0.011147589 -0.014659399 0.09372205 0.11192931 -0.041717153 0.0396067 -0.12215759
-0.069669135 0.111396 0.12997316 0.114715196 0.061733957 -0.025727175 0.051713146 -0.12049673
0.10987571 0.06832181 0.11263413 -0.114911474 -0.06263688 -0.1031636 -0.015771553 -0.08260654
-0.08345837 0.14032769 0.005716791 -0.06041171 -0.06773483 0.065331526 -0.045675833 -0.062187806
-0.02408465 0.0019068536 0.037788063 0.12997209 -0.030525394 -0.033375163 -0.13605185 0.12953816
0.121199794 -0.077008404 0.069685265 0.10208208 0.0996202 -0.029189307 0.04408006 0.1338744
-0.03531245 -0.024832722 -0.13598707 0.05928145 -0.11652594 -0.057875246 -0.09122554 0.10196101
0.09409701 0.13892369 0.031603027 -0.1334513 0.04924509 0.06449401 -0.11501819 0.026651233
0.022403354 -0.06939691 -0.059805527 -0.0029040223 -0.117384724 0.0413632 -0.12976716 0.13739483
0.071495876 0.0009668163 -0.040631574 0.094678074 0.07558951 -0.056888707 0.053880356 -0.024155807
-0.1412629 0.016735474 0.072013475 -0.090474986 -0.07105972 0.043674324 -0.08881437 0.03469672
0.12297552 -0.102833726 -0.013975047 0.07597284 -0.07837097 -0.117576644 0.035798002 0.13802014
0.06293226 0.014892219 0.13036433 0.008459059 -0.036268543 -0.09033202 -0.083626196 -0.069935955
0.05418082 -0.055825748 0.08851044 -0.113094896 0.10343781 0.03377177 -0.008019681 0.06074029
-0.05759399 0.037569497 -0.11827123 0.07734343 0.092789814 -0.11427427 0.048050303 -0.13309969
-0.1301667 -0.10393981 0.012690181 -0.13574007 -0.11410387 0.014516696 0.03370181 0.094838

valueHead.0.bias f4 [64]
00000000: 1a51 b73c 688d 0f3d fb0e b03c 3c87 583d
00000010: 98d2 033c 8f5a 3cbd 23de bc3d 86e8 143c
00000020: ccc1 82bd 5a56 393d 96e0 bbbd cc5b cebd
00000030: 5843 d23d a7a6 32bc 6a10 e5bd 5b85 d33d
00000040: 6a60 e93d 7784 cb3c e966 88bd 6461 8a3d
00000050: c8b8 1e3d e465 68bd db4b 773d d44a ddbb
00000060: bc23 dabd be6d d2bb 1f8f 113d 5182 0c3d
00000070: 84aa c33d f341 9d3d a9e2 d5bc d1ee de3d
00000080: 4429 993d 0858 bb3d 2ec2 28bd 1071 cdbb
00000090: 540e ae3d eac3 a8bd 045b a63d 339e 393d
000000a0: 1b04 c9bd 5770 503c 9814 4bbc 4048 d7bd
000000b0: 44e0 c13d b46c 25bd f568 a2b9 27e3 b13d
000000c0: 2eef a13d ab2b 29bc f0e5 b73d 1894 663c
000000d0: 5661 143e 350c 64bd 3661 51bb b26c c13d
000000e0: c543 b9bd 12ba c43d 52e7 483d c4b9 bcbd
000000f0: d268 fa3d e749 4f3c 7f45 1fbc 9c87 d43c
0.02237754 0.035046965 0.021491518 0.052863345 0.008045815 -0.0459848 0.09222057 0.009088641
-0.0638462 0.045248367 -0.09173696 -0.100761026 0.10266751 -0.010903991 -0.11184771 0.1032817
0.11395343 0.024843438 -0.066602536 0.06756857 0.03875044 -0.056737795 0.060375076 -0.006753305
-0.10651347 -0.0064217737 0.03553688 0.034303967 0.09554008 0.076785944 -0.026109057 0.10885394
0.07478574 0.0914765 -0.04120081 -0.0062695816 0.084988266 -0.08240493 0.081228286 0.045316886
-0.09815236 0.012722096 -0.012395047 -0.105118275 0.094666034 -0.04038687 -0.00030977247 0.08685904
0.07906948 -0.010325353 0.08979404 0.014073394 0.14490256 -0.055675704 -0.0031948811 0.0944456
-0.09046129 0.096058026 0.04904873 -0.092151195 0.12227024 0.012651897 -0.009721159 0.02594357

valueHead.1.weight f4 [64]
00000000: 787f 803f f858 803f f0d9 7d3f 4795 803f
00000010: 648f 803f 7f87 7f3f 82ca 7f3f cbe6 7e3f
00000020: c85a 7f3f f865 813f 6dc3 7d3f 8935 7e3f
00000030: a589 813f 2da6 803f 4ce2 813f 98de 7d3f
00000040: 32b3 803f d0a8 7f3f c404 803f 6f82 7b3f
00000050: 72ef 7e3f 5a82 7b3f d47d 7d3f b6f5 7b3f
00000060: d278 7f3f dc3d 7e3f 3f74 803f a301 813f
00000070: c865 833f 7157 813f 87a0 7e3f 9d86 7f3f
00000080: 383b 7f3f d104 813f b4aa 7e3f 9cb2 813f
00000090: 7b2e 813f 685b 7f3f 30e5 803f b28c 813f
000000a0: 7948 823f e17a 813f efe1 7d3f 8cd2 803f
000000b0: 311b 803f 0552 7d3f 1088 803f 9659 803f
000000c0: c7a7 7e3f cb97 7f3f 0ad5 7f3f bf64 7d3f
000000d0: b14e 803f a9f9 813f 5999 7f3f fd21 7d3f
000000e0: c6f8 803f 3f4d 7f3f 63e4 7f3f 4ee2 813f
000000f0: 4567 7c3f a6b6 7f3f 2833 803f f94c 803f
1.00389 1.0027151 0.9916067 1.0045556 1.0043759 0.99816126 0.9991838 0.9957091
0.99747896 1.0109243 0.9912632 0.9930044 1.0120131 1.0050713 1.0147185 0.99167776
1.0054686 0.9986696 1.0001454 0.982459 0.99584115 0.98245776 0.99020123 0.984218
0.9979373 0.9931314 1.0035475 1.0078624 1.0265436 1.010481 0.99463695 0.9981478
0.99699736 1.0079595 0.9947922 1.0132632 1.009231 0.9974885 1.0069942 1.0121062
1.0178367 1.0115625 0.9917287 1.0064254 1.0008298 0.98953277 1.0041523 1.002734
0.9947476 0.9984099 0.99934447 0.9898185 1.0024015 1.0154315 0.99843365 0.98879987
1.007592 0.99727243 0.99957865 1.0147188 0.98595077 0.99888074 1.0015612 1.002349

valueHead.1.bias f4 [64]
00000000: ccfd 98ba 2c5f f53b 9cc7 0fbc 99be 2b3c
00000010: 3303 683b f2ce d73a cc13 0cbc 640c 0f39
00000020: 8e61 e8b9 6068 643c e46e 51bb e57c 7bbb
00000030: 35dc 033c 04de 5d3b d83f d63b ea26 183a
00000040: 56c5 d83b edb5 a73b 0f02 1b3b acb0 83bc
00000050: 0a4e 40bb b12f 09bc c719 f3bb 19d7 28bc
00000060: f744 5d3b def2 0ebb 4391 9b3b c9b2 983b
00000070: ddfb d23c 7ea4 903c 1e63 0abc ca07 29bb
00000080: b8b3 e6bb f60a 143b e2b6 513b 246d 793c
00000090: d275 993c 95aa 173a 7db4 013c b9c0 203c
000000a0: a98e 773c 65e9 4e3c 423c e6bb a983 253c
000000b0: 3588 bc3b 7d3d 8cb8 56ec 8f3b 07d3 5f3c
000000c0: 232b d0bb f8e2 b9bb 4d6f 513c 6e1e babb
000000d0: 97e1 9e3b 4cf6 6d3c 5042 d03b 5dec dabb
000000e0: a77d 7b3b fdaa dcbb 25bc 7cba d01a 453c
000000f0: 1e71 43bc 1a6e 3b3c dd2d a33b a1f4 d03b
-0.0011672317 0.007488152 -0.008775618 0.010482454 0.0035402298 0.0016464873 -0.008549642 0.00013642159
-0.00044323172 0.013940901 -0.0031956965 -0.0038374003 0.008048107 0.0033854255 0.0065383725 0.00058041385
0.006615321 0.005118123 0.002365235 -0.016075455 -0.002934339 -0.008373187 -0.0074188444 -0.0103051895
0.003376303 -0.002181224 0.004747541 0.0046599847 0.025754863 0.017656561 -0.008446483 -0.0025791996
-0.007040467 0.002258954 0.0031999876 0.015223775 0.018732939 0.00057856116 0.007916567 0.009811574
0.015109696 0.012628888 -0.0070262263 0.010102191 0.005753542 -6.687173e-05 0.004392187 0.013661153
-0.0063527985 -0.0056728087 0.012782884 -0.005679897 0.0048486697 0.014524054 0.0063555613 -0.0066810087
0.0038374455 -0.0067342506 -0.0009641073 0.012030318 -0.011928825 0.0114398245 0.0049798326 0.0063768183
