Yahtzee/ModelsNN2/version_2_model_7.pt (torch, 679526 bytes, 24 tensors)

policyHead.0.weight f8 [128, 50]
000000 d4 e4 63 35 e3 06 87 bf cd e7 47 c0 05 f9 c4 bf
       -0.011243605677452008 -0.1638495625373352
000010 4a 05 12 d6 59 ab c5 bf 95 79 77 c6 12 10 91 3f
       -0.1692917151704399 0.016662877429433804
000020 df fb 51 1d c9 1d b0 bf 0b 45 56 ea 04 b1 b9 3f
       -0.06295449224306492 0.10035734864347405
000030 d1 0e 60 f1 6b a6 b4 bf f0 83 c8 ba eb bf bb bf
       -0.08066439288091522 -0.10839722929132711
000040 b0 c4 4b 3e 60 dd c3 bf ac 3a 30 ca 34 0c c1 bf
       -0.15519335786624344 -0.13318500397186506
000050 c7 97 ba 20 41 f4 a6 bf 5a 75 57 a3 72 93 b2 3f
       -0.04483226322672312 0.07256237495262977
000060 27 46 63 fd 63 1d b5 bf c1 a8 a4 09 7e 9c a3 bf
       -0.08247971473908731 -0.03830331676211208
000070 ad f2 96 0c 45 4d bb bf ad c5 c9 54 7a 24 b0 3f
       -0.10664779240955609 0.06305660791419739
000080 b3 8d e0 6c c8 6d aa bf 13 b5 3c 4c b5 f8 a3 bf
       -0.05161882714335366 -0.039006867939273125
000090 d5 47 72 b7 f8 90 c2 bf dc 5f e8 ca ee 87 b5 3f
       -0.14504918057769936 0.08410541967202739
0000a0 83 b7 01 5f 5c 9f b0 3f 16 5e 1c 43 07 ce a6 bf
       0.06493165320872944 -0.04454062170242083
0000b0 69 fd 60 eb c4 78 c0 bf 5b 35 05 dc 80 a1 a4 3f
       -0.12868558400257804 0.04029467283053619
0000c0 ea 5a 30 90 4c 06 bd bf 6f fb 0a e6 2f e1 b6 bf
       -0.11337736625896935 -0.0893735825184032
0000d0 80 a4 ff 73 c1 a9 af 3f 0d c0 4c dd 80 b3 b3 3f
       0.06184200802801687 0.0769577541620949
0000e0 47 04 9f fa 62 ac a1 bf e2 63 c2 29 07 31 be bf
       -0.03451833066311188 -0.11793560761942914
0000f0 5d ee 92 26 80 30 b7 3f d2 6f 9a d9 da 99 c0 3f
       0.09058381025072877 0.12969527840766532
000100 89 ba 26 15 14 1f 8d bf e6 b0 5a 18 7d fa 79 bf
       -0.014219433684812504 -0.006342400219790023
000110 ab 7f 3c c5 e3 b3 ba bf 9d 51 4f 95 88 0c b2 3f
       -0.10430739941921156 0.07050374646434539
000120 ab 27 77 cd 60 62 a0 3f 77 5d 0e e8 c2 30 82 3f
       0.03200056560633809 0.008882067400732592
000130 7f 37 b1 ac 24 00 c7 bf ea 47 2f 79 b3 18 c0 3f
       -0.1796918719505207 0.12575381676884884
000140 6c dd 13 e1 51 98 91 3f 60 95 1e fd cd b5 b4 bf
       0.01718261657967217 -0.08089911870645983
000150 a2 e5 c1 b6 62 00 82 3f 8c 1a 48 aa 8a f8 72 bf
       0.008789797975839179 -0.004631559048454147
000160 82 07 b8 12 10 d7 a1 bf 3d d8 fc 63 70 3c 92 bf
       -0.034843923840539595 -0.017808681586039866
000170 54 d9 2f af 9f f6 a8 3f f8 fa 21 2c 53 fa b2 bf
       0.04875659001838764 -0.07413215472659462
000180 26 2b 13 6b ac 85 a2 bf 09 fe 09 27 52 f0 bb bf
       -0.036176097937263216 -0.10913575604535465
000190 b8 77 2f 5e 80 86 b1 bf ad fa c8 28 5e c4 d8 bf
       -0.06845857905815833 -0.3869853399554966
0001a0 a8 f9 6c 15 c0 66 c8 bf 70 15 b4 32 e3 90 d6 3f
       -0.19063569112945555 0.3525932307387256
0001b0 54 4e 9f fe b9 a5 a2 bf 6a ef 16 28 42 03 9c bf
       -0.036420643169233685 -0.02735617990195697
0001c0 19 be 8f 71 e8 2f a5 bf 97 f0 63 0a 34 9d e0 bf
       -0.041381133902060614 -0.5191898539483358
0001d0 6f 2e 19 0e dd ca a6 bf 72 c0 c2 e8 fd cc c0 bf
       -0.04451647564982585 -0.13125585427542635
0001e0 6a fa 31 d1 40 48 ad bf 5a 8c fa 3f 7c 64 d5 bf
       -0.05719187310841252 -0.33425813911362
0001f0 85 56 64 e3 9b b4 ca 3f dc b6 6e db 8d a9 cb bf
       0.2086367473900063 -0.2161118813941617
000200 50 be ad 3b 27 03 e0 bf 8d 16 60 c6 06 41 b4 3f
       -0.5003849187468834 0.0791172251047902
000210 e4 ad a8 5c d8 e2 b7 3f 93 5f 71 f2 39 43 a0 3f
       0.0933051325052286 0.031762896390033955
000220 ae 0b 92 80 ed 3c d9 bf 75 85 70 e4 21 83 de bf
       -0.3943437343188475 -0.47675368603275753
000230 53 43 a9 aa 05 a3 a0 bf 45 d2 f1 65 f5 bb a8 3f
       -0.03249376018778229 0.048309010214243865
000240 43 22 39 64 f6 3f a3 3f a4 9d cf b2 dc 29 8a bf
       0.037597369894289766 -0.012775158125761639
000250 d9 2b 48 17 bd bb b0 bf 9f 65 39 de 43 01 bf bf
       -0.06536466425329425 -0.12111305404086757
000260 05 51 65 48 71 3a b2 3f e4 34 06 cb c6 11 a2 3f
       0.07120426194643777 0.03529187420199678
000270 84 11 85 30 1e 5d b7 bf b9 b8 ad b9 8f ae ae 3f
       -0.09126461681905168 0.059925547996372903
000280 e7 79 60 1d 0b 20 a0 3f b2 2a a4 5d 4b a2 c0 bf
       0.031494471870462885 -0.12995283195808366
000290 7d 2f 73 be 3e d2 c0 bf 7a ae cb 7f 33 8c d2 bf
       -0.13141617106736794 -0.2898072002414903
0002a0 3b df 0d a0 85 cc b0 3f 94 ce 5c 1f 90 f3 e0 bf
       0.06562075765202462 -0.5297318089055403
0002b0 e3 8c db 59 f4 17 a7 3f 17 30 bc d8 7d 8f bc bf
       0.045104633301684925 -0.1115645078791093
0002c0 ce 18 6b 51 a5 c9 bb bf 49 ed eb fb d9 8e ad 3f
       -0.10854562032463663 0.05773049545492854
0002d0 19 4f 99 1d ff 0d c1 3f 4c e8 5e e1 43 ee b8 3f
       0.13323964066750518 0.09738563778128756
0002e0 8c 08 14 70 1a b3 ca bf c9 44 8f a4 bd 9f d4 bf
       -0.20859079811640802 -0.3222498042133109
0002f0 a7 95 b8 b4 52 3c e0 bf 6c 39 7b a2 c2 3a d5 bf
       -0.5073636560161291 -0.3317114435893902
000300 d9 0f b8 36 b2 43 d2 bf 61 46 30 18 40 19 ce bf
       -0.2853818449368624 -0.2351455801113387
000310 68 be f4 2d db 38 b4 3f b2 95 d5 61 de 0e d2 bf
       0.07899255630467794 -0.28215751222736707
000320 c6 ae 62 4b 57 7a bb 3f 91 24 48 94 71 a8 b7 bf
       0.10733552542177013 -0.09241399641190841
000330 e9 41 77 42 13 b8 94 3f 52 69 24 76 d6 08 c8 bf
       0.02023344128775931 -0.18776970642722773
000340 1f e2 ae e7 0d 36 be bf 38 76 8f f5 9d 19 af bf
       -0.11801230341269119 -0.060742317414888836
000350 b0 4e f0 3c 5f 03 c6 bf 3e 07 24 73 dc 1a c2 bf
       -0.17197790599367613 -0.1414447366915343
000360 cd 64 23 d2 53 92 91 bf f0 51 64 0d 0f fd c2 bf
       -0.01715975732881674 -0.14834774164104614
000370 9f df 57 0a cb b4 c0 3f c6 95 b0 58 32 23 7c bf
       0.13051736836473268 -0.00686950365619538
000380 c0 5e 92 5c 91 c7 be bf 75 dc de 22 d3 bc c7 3f
       -0.120232663250472 0.18544997408546107
000390 5d 2a b8 e6 71 e7 ab 3f 04 c9 30 c6 f9 9d 7f bf
       0.054500159658421345 -0.007719016724012432
0003a0 f0 68 69 c4 e7 c7 ad bf 95 dc a3 8e 03 0a c0 3f
       -0.058165781713528264 0.12530559983108405
0003b0 b2 8a 10 26 1b a7 af bf 90 9c db a1 f2 19 6d 3f
       -0.06182179298072778 0.003552411929252104
0003c0 41 bf c3 b9 67 53 9e 3f fa 3c 16 96 18 6a c1 bf
       0.029615040505574845 -0.13605029419384335
0003d0 bf c5 23 8e 47 59 b6 3f a7 de 70 e4 c4 47 c0 3f
       0.0872997972508278 0.1271902194437093
0003e0 69 da 43 a2 be 14 bd 3f b0 cd 7c 63 6f 90 b3 bf
       0.11359778844403369 -0.07642265490431188
0003f0 ae 2f 5e 7c b0 fe b5 bf b2 04 bc 88 3d 59 b4 3f
       -0.08591750179601718 0.07948669994586302
000400 e5 a0 e2 16 c6 50 b0 3f bb 03 6f 00 18 f6 b2 bf
       0.0637325101730571 -0.07406759272181677
000410 7c a2 4c 18 37 07 c2 bf 00 63 54 6f ac af b4 3f
       -0.1408451908730689 0.08080556600578959
000420 0d 35 08 2c 4f 05 67 3f bb 60 a6 20 c3 af d1 bf
       0.0028101488426332034 -0.2763526743742763
000430 5d 8c bd 82 83 c8 a3 bf d0 03 fa c8 3b 83 ca bf
       -0.03863917323067121 -0.2071299296694904
000440 a9 b2 3f 05 fe 51 c0 bf f7 32 98 6c 76 24 c4 bf
       -0.12750220543184312 -0.15736275007693454
000450 86 37 e7 84 9c 58 a0 3f 83 1d c4 59 47 0d c1 3f
       0.03192605135301023 0.1332177341757693
000460 01 0a ec ed 5e ba b4 3f 17 99 c6 a7 57 e8 9e 3f
       0.08096879299777272 0.030183190932484196
000470 20 39 19 68 fb 63 9c bf fe c8 f3 1c 97 8a 89 3f
       -0.027725151280088345 0.012471371241620673
000480 eb af 2e b6 e4 51 bf bf d7 68 85 b9 f0 2b b9 bf
       -0.12234334419071018 -0.09832672623943793
000490 8e b3 97 5f ea 16 af bf 76 35 96 3b a0 ce b7 bf
       -0.0607217065515676 -0.09299661116366117
0004a0 3f 86 f6 b0 a3 0e c5 bf cb 57 6b a4 07 dd 89 3f
       -0.1645092596127586 0.012628612237147415
0004b0 45 cf 0d 1d 98 23 c0 3f 01 c6 1a 53 b7 7e c1 bf
       0.12608624857568365 -0.13667956884232527
0004c0 a4 58 35 4d 18 e3 bb 3f db c3 17 36 f2 68 d2 bf
       0.1089339436051398 -0.2876554039240184
0004d0 9f 62 7b 98 cb 91 c5 bf 90 56 a8 ee c2 b8 9b bf
       -0.16851181931885592 -0.027071996513845564
0004e0 b8 c9 ec 1c 40 3d ba 3f c3 fd 05 6c dd e2 8f bf
       0.10249710756469355 -0.015569429263222362
0004f0 cf 02 a6 d3 f2 71 b6 bf e0 f1 44 d6 51 54 cc bf
       -0.08767621676635005 -0.221323232291879
000500 12 f2 9c 9c 53 d1 aa 3f 10 b0 2d 6a f0 a1 ca bf
       0.052378285281950224 -0.20806698975081916
000510 c5 84 ac e6 ed 35 d8 bf 0e 43 a1 1e d7 40 de 3f
       -0.37829158331630836 0.47270753852085157
000520 94 25 f9 5d db 34 d1 3f 90 7f e8 a0 20 00 b0 bf
       0.2688511293132134 -0.06250194481299176
000530 d0 dc ff 37 ee 2c be 3f 39 94 9c df df 33 bb bf
       0.11787308566259758 -0.10626029214161371
000540 ac 65 db 2a 48 54 cd bf 52 f6 67 39 b9 1f 76 3f
       -0.22913457958820282 0.0054013476678825435
000550 22 14 ec 52 3b 47 bd 3f 3b 90 9e 28 c1 77 b8 3f
       0.1143681600043043 0.09557730905231747
000560 da 37 60 16 1a 48 a3 3f 63 d2 43 f2 1b 85 b7 bf
       0.03765946887152412 -0.09187483467742079
000570 2d b1 ba 11 a8 1f 98 3f bd a3 3f 76 5a 01 a0 bf
       0.023558260042294044 -0.03126032536949406
000580 ff 2d fe 43 1e 2b 9c 3f e5 5f d7 b2 d7 68 ba bf
       0.027508232974964738 -0.10316227070086333
000590 da 49 c0 b8 7b 88 c1 3f 02 aa 86 02 8f 0e b7 3f
       0.13697763939906232 0.09006589709921545
0005a0 21 9c 9f e2 14 b5 b3 3f 55 eb 52 df 6e 2e c1 bf
       0.07698183567809781 -0.13422952560889692
0005b0 cb eb 34 79 b9 8e c7 3f 7d 47 77 8b 59 3c c3 3f
       0.18404310625359552 0.15027922925815665
0005c0 a2 70 79 5d 38 99 d7 bf a6 85 f4 1b 84 19 d2 bf
       -0.36872681740147517 -0.282807376193967
0005d0 44 3f a9 0e c2 25 a8 bf 28 b4 5e 49 b7 6d c4 bf
       -0.04716307095497865 -0.15959826548115186
0005e0 e9 f0 b1 de 9a 72 bb bf 65 30 ec b6 d6 0c a8 3f
       -0.10721748291865975 0.04697295172636088
0005f0 d6 bf 67 b0 1e 8a bd bf 97 4c f0 1f 5b 7e c6 bf
       -0.11538879210252104 -0.1757310777617007
000600 57 05 bd 78 00 25 ae 3f 5f da 0f a4 54 04 d1 bf
       0.058876051653451604 -0.2658893205802197
000610 65 1c 1b de 42 86 9a bf 51 95 bb f5 5a e0 c7 bf
       -0.025902790838497575 -0.18653428076428694
000620 db 2f 01 c7 29 a2 a6 bf c3 12 3d 96 b2 e3 9c bf
       -0.044205956976469195 -0.028212347431024975
000630 82 8a 54 8e 5d 18 ce bf fd ee 95 c6 6a 20 b6 bf
       -0.2351185746166103 -0.0864321455791774
000640 a7 52 eb e5 dd 88 bd 3f 01 9e 69 ea 8f 58 b7 bf
       0.11536967147123765 -0.09119510148013178
000650 a9 d3 df 89 74 7b 96 3f 20 0a 5a 46 8a b5 88 bf
       0.021955319323712228 -0.012065010330165882
000660 9f 50 a2 e5 09 f3 c2 bf 93 7c 37 5b 30 9d c0 3f
       -0.14804195129966488 0.12979702428763015
000670 dc 70 80 6f be 21 bb bf c8 52 e7 88 dd ae b0 3f
       -0.10598364088258755 0.06516823379872527
000680 c1 87 e5 78 03 e7 c4 bf 9f 72 de 42 4e ad c1 bf
       -0.1632999744716113 -0.138101370478485
000690 6d 44 d7 46 24 fb b7 bf 78 a2 a5 7f a1 29 b9 bf
       -0.09367586831582893 -0.09829148641950691
0006a0 16 37 65 b4 c5 c7 b7 bf 81 87 e1 63 ba ef a3 3f
       -0.09289203314002878 0.03893835515260858
0006b0 a5 51 f4 60 d9 f9 b3 bf 05 96 82 a0 81 e6 af 3f
       -0.07803114525842732 0.06230549892761065
0006c0 ca c7 2f 17 5d 5f c0 bf 5a 9f 0a 66 b2 5e a6 bf
       -0.12791026718292492 -0.043691229778515875
0006d0 d6 a2 5d 4e 80 63 a8 3f 0d db e0 18 25 42 c7 bf
       0.047634133878835236 -0.18170608248484435
0006e0 67 8d 0d 37 f4 12 aa bf e1 45 26 6e b2 4b 93 3f
       -0.050925857277230695 0.018843448613159345
0006f0 63 f3 67 7e 89 77 bd bf fd 54 68 7c b7 1b b2 bf
       -0.11510524116597547 -0.0707354239205706
000700 94 a5 76 ae 72 41 bb 3f 21 f2 02 81 10 15 b0 bf
       0.10646740683900752 -0.06282141828246114
000710 e3 86 43 be 02 9c b0 bf 77 36 f1 61 2c 61 ac 3f
       -0.0648805346022772 0.055428873973693386
000720 24 51 da 92 4d 75 c1 bf 3a a4 3b a8 30 f7 c0 bf
       -0.13639230413958459 -0.13254364218235698
000730 fe e2 0b 8f d1 10 64 3f 4b da a3 a0 73 01 b2 bf
       0.002449425978167218 -0.07033465072513782
000740 28 1c 44 7c 1e 88 ae 3f 26 26 98 cf 17 86 be bf
       0.05963225619239437 -0.1192335969755268
000750 fc 60 88 86 13 1d a9 bf 61 9c af b0 56 17 9f bf
       -0.04904995934720266 -0.030362467321449652
000760 5b ca 7b ce a4 e6 93 bf eb bc 5a 7e 60 c8 b8 bf
       -0.01943452368045438 -0.09680750927758523
000770 49 ac 04 c1 95 03 a6 bf f2 0f 8d f7 3e c9 b2 3f
       -0.04299610119991166 0.07338326972700296
000780 04 48 55 d2 87 f0 a6 3f c2 cf d0 99 c8 c1 97 3f
       0.04480385248702137 0.023200163257754765
000790 30 1b 23 a7 c2 09 b9 bf 49 40 1c 0b 0c 4b c2 bf
       -0.09780518131729532 -0.14291525404451225
0007a0 c8 17 70 3c e6 19 cb bf 04 85 7d fb 15 62 b8 bf
       -0.2117278857332947 -0.09524667158031624
0007b0 f8 6b f4 66 39 a8 ca bf f2 3a 4a 5f 3e 95 b5 bf
       -0.20825879599655628 -0.08430852724471175
0007c0 3b 4e 39 03 22 5b cb bf 27 09 49 4b ed 86 a7 bf
       -0.21371865422644185 -0.045951285781955335
0007d0 c1 6e 30 3d 94 9e b8 3f 7e bc 60 02 13 74 b8 bf
       0.09616972440602024 -0.09552115257314317
0007e0 81 15 0e 28 3a e8 8e bf c1 0c 4b c2 be 7f c4 bf
       -0.015091375682241505 -0.1601484726616942
0007f0 67 12 86 39 29 07 b2 bf b3 6a 2f 1a df ff c1 bf
       -0.07042176870715765 -0.14062107828688894

policyHead.0.bias f8 [128]
000000 ab 98 74 86 7a d7 c9 bf 00 f3 cc db fe 04 c1 bf
       -0.20188838544090024 -0.13296495182466828
000010 8f 62 61 b3 7a e7 b7 bf 27 d8 2f dc 0c e2 c7 bf
       -0.09337584380535645 -0.18658600570023617
000020 8a 3a 4d 23 8c e2 ae 3f c5 e1 7d ec e2 6a a2 3f
       0.060322169598852574 0.035971728676432536
000030 49 9e dc 7a 55 0a ce bf 8b ea 13 57 1d 37 97 3f
       -0.23469036578284122 0.022671183051878912
000040 87 c5 4a 7f 1f 24 c5 bf ab 8b b0 92 31 74 b6 bf
       -0.1651648875754683 -0.08771047431268524
000050 2e 9f 55 50 77 22 c8 bf 9c 05 e8 c8 1d 83 ad bf
       -0.18855182097035467 -0.05764096333951871
000060 36 b8 b8 43 db ca b7 bf 81 5c 36 04 35 12 a2 bf
       -0.09293909457548541 -0.03529515911503101
000070 94 ab c3 ce 93 ee a8 bf 1a a5 8b e1 bc fa c0 bf
       -0.048695200910365305 -0.13265191090548784
000080 d7 4e 9c 8d 30 15 cc bf 77 f7 6a f5 d4 08 c2 bf
       -0.21939665712908749 -0.14089452727597138
000090 77 71 95 27 95 26 c1 bf 7d 81 9a 01 ca b0 d4 bf
       -0.1339899485855189 -0.32329034954638997
0000a0 b8 bc d1 1c f7 74 b9 bf 01 6e 4c c3 35 fc c4 bf
       -0.0994409985885224 -0.16394683872282204
0000b0 57 09 a4 c5 7d 42 91 bf 75 52 af a1 99 3c 96 3f
       -0.01685520666888726 0.021715546124897196
0000c0 a3 fd 61 25 88 23 c9 bf 11 47 e5 03 01 2f c2 bf
       -0.1963968451054657 -0.14205944719520194
0000d0 64 f8 a2 69 16 26 87 3f 6b ff d1 8e 6e 8b a4 3f
       0.01130311498524978 0.040126280721778006
0000e0 7b 0c a4 a3 14 9a a9 bf 91 3c f0 ac 31 14 cc bf
       -0.05000366685455845 -0.2193662733484172
0000f0 52 1e b5 2c 5a c2 69 bf 2a 82 c1 f4 95 1d ba bf
       -0.0031444321845446677 -0.102013942961556
000100 43 21 72 4c 59 dc c8 bf 7d ae 29 4b 43 51 85 bf
       -0.19422451241212899 -0.01040890286568374
000110 f2 d8 b3 b6 9a fd c2 bf 5b 6e 27 1a 45 b3 c0 bf
       -0.1483643905737107 -0.13047088410427218
000120 55 4a 48 a0 60 ca c8 bf 4b 55 77 60 9a 39 d0 bf
       -0.19367606951034824 -0.25351581020853037
000130 70 fc 0b 5d 7b 04 c2 bf 77 3e 66 61 f7 c9 d0 bf
       -0.14076177638341703 -0.26232704650553934
000140 bc 02 28 06 f6 a0 c9 bf 4e db 5c 42 d8 0d c6 bf
       -0.20022464085197622 -0.1722975086247182
000150 83 5d a7 7f e8 fa 9f 3f 05 cb 9b ac 2a 55 cf bf
       0.031230576316230618 -0.24478658130791345
000160 6a 83 06 a6 57 00 b4 bf db 75 43 b7 3d 40 a6 3f
       -0.07813022425990615 0.04345887052634697
000170 36 9e e1 43 ef e6 a7 3f cf 93 f8 1f a0 fd 91 3f
       0.046683766399663915 0.01756906695495158
000180 42 4a ea 2b f2 ae cc bf 1c cb 68 41 f9 84 91 bf
       -0.2240889276914278 -0.017108816735524987
000190 42 0c fa 7d 6a fa b3 bf 8b 57 98 d8 5a b8 cb bf
       -0.07803979468921887 -0.21656356407100605
0001a0 18 93 82 31 b1 0b 9d bf 4a 04 e1 d1 ab b5 b0 3f
       -0.028364914557317794 0.06527208208082516
0001b0 2a 22 43 fb f2 05 b6 3f fc 58 2e bc 8b 4f a7 bf
       0.08602827677089722 -0.04552876159793759
0001c0 28 21 d2 bb ef b0 a8 bf b1 58 92 ab e5 44 b1 bf
       -0.04822491805777168 -0.06745753706704495
0001d0 70 98 95 f0 13 85 9e bf 1c 9d 76 12 b2 5d 6f 3f
       -0.029804526862243497 0.003828857228387895
0001e0 36 c8 df 4d 00 3d cb bf ab ea 70 31 fb 35 c0 bf
       -0.21279910852860134 -0.12664737619509955
0001f0 11 93 06 2e f7 fe 9d bf 58 8f 57 45 5a 02 97 bf
       -0.029292928871330896 -0.022469912035276124
000200 a5 4d f4 04 f7 34 b7 bf 81 b4 5d 6f d0 f9 96 bf
       -0.09065193053202465 -0.022437340543025378
000210 05 84 98 dd c9 1c c0 bf d9 ee 3b 68 49 53 cd bf
       -0.12587855644326865 -0.22910420980030358
000220 32 90 60 05 2c 23 b1 bf 88 84 ed 66 2a ae bb bf
       -0.06694293147353461 -0.10812630665670231
000230 16 40 04 a3 7a 4c b3 bf df 99 02 ec e0 0b d2 3f
       -0.07538572769067317 0.28197501228205896
000240 d0 4e e1 10 44 7e c3 bf 59 b5 9a 0e ff d5 c7 bf
       -0.15229082893585266 -0.1862181493101314
000250 e8 8d 12 2d cb db d4 bf 8c ff 5f 6f 3a f0 a7 bf
       -0.3259151401673237 -0.04675467118795415
000260 2e d9 a0 fc d2 ee c1 bf 75 27 51 44 67 07 c1 bf
       -0.14010083518378152 -0.13303843341628477
000270 72 95 5f 2f b3 02 b1 bf c0 7e f5 b3 e8 d1 c8 bf
       -0.06644744783951298 -0.19390591418322423
000280 73 42 04 43 40 2f cf bf 33 45 dc e3 e8 05 c5 bf
       -0.2436294867734606 -0.16424285055158236
000290 46 94 00 3b b8 7e c4 bf d0 6d da a4 ce 79 b3 bf
       -0.16011717682809684 -0.07607738041627177
0002a0 e1 91 f3 0f 04 1d c6 bf 04 2a f3 0c 24 e1 cc bf
       -0.17276049403075347 -0.22562075264279724
0002b0 95 94 e7 7c 58 0d 4a 3f 38 74 e2 ed d7 88 b9 bf
       0.000795047957407607 -0.09974431569794795
0002c0 96 b5 20 79 2f 20 a2 bf ee 7c 19 1f 05 6b cd bf
       -0.03540180543528064 -0.22982849138768507
0002d0 b3 79 b8 08 1c 49 bb bf 08 20 dc 2d 8a 49 c1 bf
       -0.10658431256204075 -0.1350567554402462
0002e0 1e 6d 69 ba 4f 5a c9 bf 53 a9 b7 f3 57 7b 9f bf
       -0.19806858636989316 -0.030743955850917114
0002f0 21 e3 41 2b a5 fb a3 3f 8e 48 e6 59 91 e9 8f 3f
       0.0390292754463586 0.01558221393205297
000300 48 10 b2 ae 3e 81 ac bf 20 c5 d4 33 8d c0 bb bf
       -0.055673559975759235 -0.10840685382278936
000310 5e 86 a6 1c 88 89 c1 bf d8 16 1d 68 b8 d5 c7 bf
       -0.13700963400792693 -0.18620972713158923
000320 e9 bd cf 49 a0 ce 89 bf 24 d1 77 84 ce b3 d0 bf
       -0.012601139309452019 -0.2609745305665163
000330 4d 21 fa 9e f2 a5 be bf 03 dd ab a9 57 24 aa bf
       -0.11971966153408183 -0.05105852075751651
000340 66 4a c3 3a c5 d7 9b 3f 81 f8 53 f1 ee cd b0 bf
       0.027190286361312842 -0.06564229385182509
000350 60 a2 b3 49 92 8e c7 bf 7b d2 c7 c4 e2 ea 92 bf
       -0.18403843497005123 -0.018474143276721904
000360 4c 70 8a 5c 1d b1 c4 bf d7 ee d5 6a 0f 3a c1 bf
       -0.16165511149017886 -0.13458435741983152
000370 e1 71 1c d1 3a 5f ba bf 63 b9 09 5b 93 89 b2 3f
       -0.10301559071780943 0.07241173718077713
000380 ba bd 1b fe 16 98 ce 3f 63 4d bb b2 9e b0 b1 bf
       0.2390164128077979 -0.06910125602307952
000390 c3 43 a0 c1 18 38 c0 bf 45 ce 5e 01 97 94 b0 bf
       -0.12671193556209745 -0.06476730140166705
0003a0 11 3b e4 d3 23 38 c4 bf bb 39 c4 8e 95 87 80 3f
       -0.15796325536981518 0.008071106356990812
0003b0 81 0a 9d e1 76 dd c5 bf cc 51 c5 31 9c 39 b9 bf
       -0.1708210565212376 -0.09853531088931006
0003c0 30 72 17 3e 08 94 7a bf 2b a0 b4 12 ef fc c4 bf
       -0.00648883075470201 -0.16396892941816196
0003d0 c4 6e a6 2a 01 17 d0 bf df 4e a8 9f b5 65 95 bf
       -0.2514040867333558 -0.020895803327291126
0003e0 38 44 23 b3 0b db c0 bf 62 ae 5d 64 04 3b d2 bf
       -0.13168474432907984 -0.284852121366134
0003f0 ce d2 e0 93 7f 47 b4 3f 6a 55 e6 6d cd 78 c2 bf
       0.07921597824390433 -0.1443115984554127

policyHead.2.weight f8 [128, 128]
000000 9d 13 77 0e a2 f8 ad 3f 83 f0 39 cb 68 18 c8 3f
       0.05853754450394109 0.18824491427574594
000010 f6 10 64 45 c0 1d ab 3f 1e ab 51 16 ae d2 d0 bf
       0.05296135756546676 -0.2628588884314683
000020 01 ae 4c 24 71 c0 9f bf a4 55 6b ca e6 e4 ab 3f
       -0.031007545319125644 0.054480755051979274
000030 5a 06 17 c8 46 7f bf 3f 62 45 ec c0 8b fa be bf
       0.12303583512314145 -0.12101052722961961
000040 8e 3a b2 0e a1 66 6f 3f 95 ce d3 c1 79 4b b5 bf
       0.0038331170704347167 -0.08318291647065686
000050 f4 f1 b1 2b e6 c4 a2 bf 6c 90 69 38 73 4f 9f 3f
       -0.036658470949053085 0.030576515501153187
000060 34 11 85 78 61 06 b1 bf ea 9c 8d 13 24 40 b3 bf
       -0.06650361244561936 -0.07519746281979037
000070 4d 1b 0c c4 61 ba b1 bf a9 b4 65 08 bd 08 bf bf
       -0.0692502120619853 -0.1212270875455085
000080 fd 47 89 2a 39 cc a8 3f c5 6e b7 dc fd 71 b1 bf
       0.04843310016862288 -0.06814562452876334
000090 46 f9 97 53 24 87 dc bf 16 9b ce 40 0a fc b7 bf
       -0.44574840701524854 -0.09368957597926583
0000a0 ba c1 bb ed 62 85 97 3f 21 31 4a 39 4a 35 a2 3f
       0.0229697663880317 0.03556281995142486
0000b0 9d 02 8d c5 f3 ca b9 3f 02 d8 82 f9 24 84 6b 3f
       0.10075305531519026 0.0033589098130404347
0000c0 37 c2 3f ea e6 ea ba bf f4 26 69 3a 04 56 a4 3f
       -0.10514682024928211 0.03971875393888338
0000d0 77 03 88 9b 83 af b0 bf 78 65 27 c4 bf 4f bb 3f
       -0.06517813250685643 0.10668562449372654
0000e0 a6 c4 51 4b c1 23 a4 3f bb 80 0a 22 39 c6 a7 3f
       0.039335289425147565 0.046434197812460686
0000f0 c8 4a c5 f4 c1 c8 b4 3f f2 41 8c 06 bf f9 a1 bf
       0.08118831849905483 -0.035108537244131
000100 31 55 62 41 81 f7 a9 3f cb b7 7f a3 c2 b6 b2 bf
       0.05071643756051925 -0.07310120097801513
000110 34 6a 61 73 97 d2 d5 3f cc cb 65 26 4a 3f b7 bf
       0.3409784914744336 -0.09080947339479833
000120 47 87 17 cd c4 f7 c5 3f 77 65 70 9c 81 ed bf 3f
       0.1716238023209888 0.12471780843079282
000130 ce 05 a8 14 7f 36 ce bf f5 13 3f a2 bb c9 ba bf
       -0.23603809841738016 -0.10464070044606884
000140 23 db 3e 21 3b 00 d9 bf aa 6b 9c 4f 36 b9 b6 bf
       -0.39063909765848076 -0.08876361316326489
000150 91 71 a0 f1 6f 3c c0 3f 41 ec 47 7d 23 df b3 bf
       0.12684439943485562 -0.07762357529274856
000160 05 bc fd 88 44 81 bd bf 57 09 57 08 62 2b d4 3f
       -0.1152537188006449 0.31514788450671943
000170 8f 26 65 a8 a3 a1 b1 3f 82 33 bb 20 7d b5 a5 3f
       0.06887266980370498 0.04240027451087426
000180 6b cd 83 37 e1 70 95 3f 2a d7 26 1e 11 01 bd bf
       0.020938414586408365 -0.1132975290882682
000190 af ed 04 e8 05 ec ab 3f 47 69 50 fe ac cb 7b bf
       0.0545350881315828 -0.006786037211919122
0001a0 51 5d 4a 6f 49 e4 84 bf 89 03 34 c8 22 22 b5 bf
       -0.010201047619644273 -0.08255212199948238
0001b0 23 87 5a 04 fb 45 d0 bf 21 f4 15 d2 c4 f1 9c bf
       -0.2542712728992333 -0.028266024897210088
0001c0 3c b1 33 6f c8 24 7f bf 16 11 fa 5c 78 94 e7 bf
       -0.007603438326651276 -0.7368737998918131
0001d0 ca 5d b7 9a 34 29 c3 3f 75 7f 5d 26 4e 0e 98 bf
       0.14969499163156136 -0.02349207028544194
0001e0 fd 79 ec 24 c5 f7 af bf 59 e8 11 29 0b 41 be 3f
       -0.06243721080521778 0.1181799865024983
0001f0 02 c6 dd 05 06 02 8a bf 13 ca cb f0 20 18 b3 3f
       -0.012699172071481083 0.07458692435083263
000200 b7 d7 fe 2e 73 f3 c5 3f 79 20 3f d0 3f ea 80 bf
       0.1714920024366486 -0.008259295027429158
000210 21 af aa a5 74 62 ca bf b1 bb 78 2c 90 eb ce bf
       -0.20612962807842286 -0.2415638177057793
000220 78 de a0 7a db 95 bc bf 88 3b 54 2a b8 3c ab bf
       -0.11166164153916636 -0.05319762722694238
000230 5a e4 70 18 bd b1 bc bf a7 82 32 95 6e f6 c9 bf
       -0.11208707663253517 -0.2028330067160102
000240 47 5b f7 4c 7b 22 bf bf 72 93 14 51 21 3e a8 bf
       -0.12161989811953076 -0.047349015376574224
000250 81 fb 42 85 b1 a6 ac bf 67 6a b6 b6 cc c0 b8 3f
       -0.05595927001694801 0.09669188938861738
000260 ad fc be aa 01 d7 b3 3f 99 ce e5 14 76 78 4b 3f
       0.07749948900799337 0.0008383347101656612
000270 44 e7 c6 94 cc 9f a7 bf e0 5c ef 11 1d 00 c0 3f
       -0.046141045724154256 0.12500346542103724
000280 34 f3 2c d1 be 3b 7b bf a4 13 08 8b 7e 36 96 3f
       -0.006648774508730072 0.021692254291355476
000290 6e 87 4b a7 2a 95 87 bf 5c 66 c0 d2 47 4e b9 3f
       -0.011514981489600475 0.09885071654607586
0002a0 c3 e6 aa 18 b4 6a b5 bf 4a 86 45 54 a6 b3 bd bf
       -0.08365941622005395 -0.1160224872342265
0002b0 a4 89 74 ae c6 c6 ad 3f 17 2f a4 fd db fe a2 3f
       0.05815716628628145 0.03710067244727904
0002c0 62 69 61 f4 e4 e1 9c bf 60 d3 e6 0d b4 f8 ce bf
       -0.02820546857433593 -0.24196482352058535
0002d0 06 86 7e 67 72 e5 b3 bf 28 1b ef ad ae 64 7b bf
       -0.07771983172144567 -0.006687815038225499
0002e0 67 df b5 c5 af 15 aa bf e1 a6 9c f3 80 b4 57 3f
       -0.05094670570809861 0.0014468440335328391
0002f0 27 86 74 f0 4f 06 b7 bf 39 ce 1e ed 26 be e0 3f
       -0.08994006748664472 0.523211920858052
000300 eb f2 88 00 dd e0 ac 3f 99 6e c7 fb dc 13 8a 3f
       0.05640307075052483 0.012733198579489001
000310 b8 77 28 c2 38 81 bd bf 28 c8 8a 2d b6 4c b2 bf
       -0.1152530168551199 -0.07148302661769945
000320 31 59 a2 a2 0d c3 c0 bf 5a ea 3d 4c 90 77 c6 3f
       -0.13095255318757773 0.17552379343745167
000330 c4 fa 07 90 02 25 a0 3f a5 cc 49 00 01 78 a7 3f
       0.03153236396973605 0.045837432179632466
000340 4d 35 de 67 f2 b4 a0 bf 3c 65 5e 9c c1 41 d0 bf
       -0.032630515269469564 -0.2540134455717469
000350 56 3d fe 35 99 e6 b4 bf 57 43 02 55 52 74 ab bf
       -0.08164365356627931 -0.05362183845239226
000360 79 a8 41 56 38 fb 99 bf ce cb b2 41 7c da bd bf
       -0.02537239099948649 -0.1166150722881831
000370 a3 3e 4c 02 a5 cd b4 3f d3 71 a6 b5 55 c2 93 3f
       0.08126288705920585 0.01929601594166448
000380 f1 fe 09 27 c5 8a dc bf ce 90 0b e8 51 56 78 3f
       -0.44596985638052816 0.005941696116426877
000390 ea 80 ee d1 7a 2f b9 3f a5 3e 5b a3 f1 79 b4 3f
       0.09838073373112236 0.07998571623033486
0003a0 b0 f0 b7 e6 fc 15 b0 bf b9 d4 df bb 68 2f e0 3f
       -0.06283550865913656 0.5057872456951805
0003b0 29 3e ae 78 e2 d8 c3 3f 2a 76 41 09 08 3b d0 bf
       0.15505629437073878 -0.2536029901874338
0003c0 67 3b 01 7a 15 38 95 bf 5a d0 fb 2f fb cc aa 3f
       -0.020721755572874836 0.05234513245332613
0003d0 df b5 06 10 0a bf a0 3f db db 2d ec 31 23 c5 3f
       0.03270751424438933 0.16513656646904348
0003e0 a5 af 89 f5 76 dd b8 3f f9 61 38 66 c1 70 b7 3f
       0.09712928289962848 0.09156426187144708
0003f0 89 ab 2c 7b ab 76 d1 bf d1 94 74 b8 68 86 6e bf
       -0.2728680327297118 -0.00372620061138438
000400 e2 13 a9 78 ec dc a7 bf 5e 75 ac c3 cd 3a 67 bf
       -0.04660738919168474 -0.0028356570086446728
000410 b2 46 51 19 f3 ec 83 bf c0 ea 1e 23 19 71 c0 bf
       -0.009729289255264593 -0.1284514829147465
000420 1a 82 5a 22 c3 90 a8 bf af 84 24 77 e2 b8 87 bf
       -0.04797944826464491 -0.011583108197159879
000430 ae 4c 09 c2 af ed 88 3f c4 7a 71 f6 9b b5 a7 bf
       0.012172101124781367 -0.04630744345990004
000440 7b f0 10 3a d6 06 8f 3f d8 8d 35 3c ce 21 a3 bf
       0.015149758955992567 -0.037367291307216
000450 07 c6 89 46 4e 1b c0 bf fd 1a 71 d8 a7 47 ab bf
       -0.1258333057808587 -0.0532810641967014
000460 d4 37 68 68 c2 b6 b4 3f 9e 45 95 81 62 bc b3 bf
       0.08091368721963416 -0.07709327376985306
000470 87 b8 4d d6 ae 05 c3 bf 88 d7 f1 03 6b 43 bf bf
       -0.14861093009989565 -0.12212246748262434
000480 c2 0d cd dc 6e b2 b2 3f cb a6 e8 15 26 b5 b9 3f
       0.07303517237328719 0.10042036089785282
000490 81 41 9a ae 8b 7e d2 3f 94 00 55 8a 53 75 c3 bf
       0.2889737324813027 -0.15201801542753357
0004a0 cb 9b 7f 37 ee fe 97 3f 5a 4c e9 66 2c cf 9e bf
       0.023433420312269065 -0.030087178975304198
0004b0 35 28 36 8e 35 0f 78 bf e1 59 b5 66 1b 35 b4 bf
       -0.005873879624582347 -0.07893534905938494
0004c0 ea bd 4f b3 64 43 a3 3f 7f 6b 08 7e 76 0a d0 bf
       0.03762354554043752 -0.2506386023321098
0004d0 11 f9 a1 f7 8d 58 c6 bf ec 3c 6c a5 06 ce b9 bf
       -0.17457747069779164 -0.10079995669024172
0004e0 75 0f 6b 2a 35 9a cb bf 19 15 7b c8 fd b0 b9 bf
       -0.21564354487611195 -0.1003569235281997
0004f0 42 92 c0 a1 01 14 b5 bf 1e 89 b8 13 fc 12 ae bf
       -0.082336523046771 -0.058738591582612396
000500 0d 8d 05 ed 0c 2c ce 3f e6 54 5f bc c3 4f c1 bf
       0.23571931432079687 -0.13524672220106665
000510 eb 84 72 2a 29 a7 a2 bf a4 2f a3 b6 3b b4 b8 3f
       -0.03643158572345747 0.09650014122888578
000520 7a df 58 ef e2 43 be bf 77 de 7b eb d7 4d 7d bf
       -0.11822336524426005 -0.007154315411518667
000530 a7 6e fa b0 b1 e4 c7 bf 4f 55 bd 66 e1 87 87 3f
       -0.18666669026867064 0.011489640186179399
000540 32 9d f8 b6 16 49 ba bf 20 b8 65 71 4b 15 8a bf
       -0.10267774550503786 -0.012735928915130812
000550 6c a2 d4 3d f3 a9 b7 bf dd 90 3d e6 1b 69 a8 bf
       -0.0924369836763021 -0.047676917892006655
000560 bd cc 79 18 db bb 91 bf 60 0d 5a c0 47 cf c7 bf
       -0.01731817566765125 -0.18601319210220435
000570 2f b3 98 5f b0 13 b0 bf 9f 65 a6 bb 77 bb 79 3f
       -0.0628004296674589 0.006282298762380205
000580 63 37 d6 b8 f1 37 9c bf 36 da 50 57 fe f4 b0 bf
       -0.02755716028837386 -0.06623830444082376
000590 6b ca ba 6e a4 2b ae 3f ed 54 b4 a2 32 7a 93 bf
       0.05892671443634331 -0.0190208350951097
0005a0 8e 52 90 27 1f 61 b4 bf e7 23 9d 48 6c d2 ba bf
       -0.07960695949470617 -0.1047732999114853
0005b0 a6 db d4 14 7d 11 c8 3f 4d c9 f8 5d 83 38 bc bf
       0.18803370968973104 -0.11023732227548529
0005c0 dd fa 96 76 93 64 c2 bf 97 08 49 4b 37 2c c7 bf
       -0.14369433680072677 -0.1810368650058691
0005d0 15 e1 53 5c 02 c9 ad 3f 63 01 79 06 e1 9c b4 bf
       0.05817420365377949 -0.08051878364586211
0005e0 b6 17 b7 5f 02 a0 b7 bf 87 ec c6 83 4f eb b4 3f
       -0.09228529774472247 0.08171555487835934
0005f0 0c fa 53 a8 b1 ea b2 bf 9b 9e 61 e3 8e 61 9a 3f
       -0.07389364585467478 0.025762779834990295
000600 ee ec 28 9e 59 a7 8e 3f b5 e5 c1 f1 17 24 c2 3f
       0.014967632426410717 0.14172648720322703
000610 7a 05 6d fe 86 f8 c8 bf b8 b3 bf f9 b2 c8 c8 bf
       -0.19508445189607554 -0.19362485117690453
000620 4c 3c 00 ee ad 6f c8 bf 90 8e a3 1d 86 8c a0 bf
       -0.1909081852067821 -0.032322112195996344
000630 fb bf 98 e1 4d ec af bf 46 ef e8 f3 e8 84 c1 bf
       -0.06234973315110889 -0.13686859044707428
000640 de f2 d7 d2 93 9d ba bf 5b 5c 5e ca f0 00 b5 3f
       -0.10396694085643385 0.08204560223235673
000650 0c 42 b1 ef 59 33 d0 3f 22 b8 22 c7 cd ab b9 bf
       0.2531342354532462 -0.10027776824674153
000660 93 0b bf 62 20 c9 b4 bf ae b3 8e 18 63 35 b2 bf
       -0.081193946941353 -0.07112712239786731
000670 43 7b e6 80 15 70 6b 3f 42 e6 a0 38 3b 90 a6 3f
       0.0033493442526401364 0.04406914774194749
000680 c8 cd 2b 56 3a 0c 8e 3f ba e6 29 cf 5d 7a b2 3f
       0.01467176032517771 0.07217966373164134
000690 60 6c 87 26 a4 df a2 3f 9c 72 7f dd 3b 48 a4 3f
       0.036862497046705966 0.0396136005290135
0006a0 71 7a f1 bc 50 ae af 3f 8a b6 5b ff 28 39 87 3f
       0.06187679583012063 0.011339493077197522
0006b0 42 d6 a8 7e e2 9c b0 bf 15 2e 5d 46 d0 44 be bf
       -0.06489387123368665 -0.11823751180525506
0006c0 40 57 2b 40 9f a2 70 bf 85 99 ef 58 cd ba a0 3f
       -0.004061338494201483 0.03267518721240762
0006d0 42 db 0c 33 39 94 af bf e3 44 35 54 26 0f c1 3f
       -0.06167773006602896 0.13327483283732197
0006e0 72 2a 57 2a 40 09 b0 bf a1 81 c0 c7 6c a4 69 3f
       -0.062641153656992 0.0031301617255083546
0006f0 4a 1d 5e 18 7a 2f 95 3f 38 47 a7 33 2c 65 c2 bf
       0.020688922631533026 -0.14371254465236816
000700 bd ed e5 d5 0b b1 a8 3f 32 3a 8c 0a 5d 8f c1 bf
       0.048225755558600515 -0.13718760504748811
000710 9f 87 2f 3b 79 ad 9f bf e9 5e fd 3b db 6e 96 bf
       -0.030935186612516593 -0.021907258545382034
000720 52 e5 3a 2e 21 ee 58 3f ea 18 c8 73 25 cb ba bf
       0.0015216182736551187 -0.10466226650905566
000730 07 9c 53 4a 92 c3 90 bf 28 e6 6d 76 87 6f ba bf
       -0.01637104586270868 -0.10326429978695073
000740 44 5d b8 81 86 87 aa bf 04 dd 12 12 c0 6e 97 bf
       -0.0518152268743344 -0.022883416274194893
000750 06 ce c4 de 31 ae c1 bf 51 bf 12 fe 23 3c 96 bf
       -0.13812850358372958 -0.021713793165587806
000760 21 96 cd 11 38 da ac 3f 90 b3 a9 83 1e d7 9f 3f
       0.05635237901041657 0.031094052110734405
000770 7b 56 fd cb cf aa 86 3f f1 33 3e 65 9b e5 a3 3f
       0.011067984974640446 0.03886113749386045
000780 d7 2c 96 a2 db 6b a4 3f 4e 28 84 1a 2b 76 a3 3f
       0.039885390851020545 0.038010928141446784
000790 99 0a 9f ad 41 06 b1 3f 10 fe e9 01 d8 0f 6f 3f
       0.06650171746063406 0.0037917345901517033
0007a0 58 e3 1b 75 47 c5 bb bf 12 43 34 2b d6 27 bf 3f
       -0.1084789906416409 0.12170160822666912
0007b0 e2 d8 d7 22 16 54 9d 3f dd 4a 3a 20 4c fb c7 bf
       0.028641076923997207 -0.18735648702257537
0007c0 8a 16 39 db 2a 63 b3 bf 9a 26 4a d9 15 ca b0 bf
       -0.0757319245541003 -0.0655835776798547
0007d0 a2 25 d9 01 39 93 be bf b7 5e ea 0c db 3f cf 3f
       -0.11943393988726439 0.24413622027053858
0007e0 9e 41 0a ef bd 74 63 3f 84 a0 e9 7c 0d 35 a8 3f
       0.002375002827030139 0.04727975988208846
0007f0 4e 7e 8b f7 45 a9 9a 3f f7 d5 02 c5 79 eb 6d bf
       0.026036351427022368 -0.0036523226081850396

policyHead.2.bias f8 [128]
000000 ef 8b 9e 22 a8 4c 84 3f 6c 23 4e e1 1e 44 c1 bf
       0.009911836201188932 -0.13489137650710903
000010 a7 8f ad fe b3 29 c0 bf 16 ad cd 31 20 50 bb bf
       -0.12627267775962744 -0.10669137206939569
000020 8a 21 41 69 8e 42 97 bf 29 b0 8d f2 e7 15 c1 bf
       -0.02271482961103425 -0.13348101943427196
000030 0d 30 6b a6 bc ff b3 bf d1 24 f8 99 5a c8 b8 bf
       -0.07812098563152876 -0.09680715807930375
000040 03 8f b2 5c 7e 0b 9e bf d8 76 99 78 2b b7 a0 3f
       -0.029340719611936638 0.032647474738707494
000050 cf 36 33 de cf 82 a8 bf a7 b0 00 72 96 f6 c1 bf
       -0.04787301623728767 -0.14033775869882456
000060 93 91 e2 a5 79 4f a3 3f f5 fc d8 67 33 fe b4 bf
       0.037715722560537256 -0.08200379643766438
000070 52 64 3d b5 62 60 ac bf f6 f1 58 b7 68 de be bf
       -0.05542286360168504 -0.12058119274383458
000080 9c 5c f8 e3 ae 19 95 bf ff be 62 01 f5 1e c7 bf
       -0.020605786003298307 -0.1806322342649693
000090 7a b2 b6 21 74 b4 cd bf 7b 6d 25 4d e5 bc cd bf
       -0.2320695080392346 -0.23232713953880677
0000a0 d9 38 40 a7 a6 b1 c1 bf bd 4b 4e 33 dc 43 b0 bf
       -0.13823397795244466 -0.06353546383461058
0000b0 3a 1a 07 99 53 6f c0 bf 43 2f 7b 8a fd 10 86 bf
       -0.12839741680200395 -0.010774594105349094
0000c0 d9 58 f5 73 7f fd 78 bf bf 8d ae a9 2b 8b b1 bf
       -0.006101129401335303 -0.06852982418654728
0000d0 17 bf 15 3e aa 22 ba bf 7d 5f 70 f3 0c aa c2 bf
       -0.102091446073015 -0.14581453215282272
0000e0 3c e4 3f 5c f6 a6 ba bf 0b f1 f4 48 3e fc c1 bf
       -0.10411014320551798 -0.14051035463661096
0000f0 75 d6 9e f7 50 b5 bd bf 03 1d 8b 74 54 c7 9e bf
       -0.11604791684552558 -0.030057258237119033
000100 fb e0 e4 3e 22 e0 c5 bf 53 a7 08 5e c0 2f c4 bf
       -0.1709025199031727 -0.15770725814337058
000110 f1 e7 dc 1b a6 2a b0 bf 06 bb a6 12 3b 27 a6 bf
       -0.06315076999899795 -0.0432680568950357
000120 71 26 84 4a eb 60 c7 bf 04 05 18 c7 eb 72 b9 bf
       -0.18264523638235944 -0.099409805399791
000130 fd 2f 7f d9 ef 0e be bf 24 47 e8 ff 09 b5 9c bf
       -0.11741541919690231 -0.02803435921129628
000140 78 4c a1 af f7 b1 c5 bf 02 6d 56 fa f3 0e 8b bf
       -0.16949363780676996 -0.013212114407727519
000150 c5 6e 8c 87 bf 72 cb bf 47 69 c4 42 28 f5 a9 bf
       -0.21443933600027357 -0.05069852652578049
000160 1a 25 47 3c cd ba b1 bf b6 dd 34 88 7e a0 bf bf
       -0.06925661775234851 -0.12354269814829064
000170 90 30 83 3c 0d ca b8 bf e8 c5 7b 7d 84 85 c0 bf
       -0.09683306434016203 -0.12907463194964852
000180 e4 d0 a3 ba d0 a3 cb bf 15 b7 5a 5b 17 c1 ba bf
       -0.21593674767758053 -0.10450883846598587
000190 11 9c 23 e5 45 ca c4 bf f1 3e 19 40 55 8c bd bf
       -0.16242288292343735 -0.11542256178767808
0001a0 ad 1b 16 fc 54 81 cc bf e3 0e 7b 10 10 fe c4 3f
       -0.22269689854530608 0.16400337986680488
0001b0 71 ce 61 44 51 ae 8f bf 3f d9 55 36 60 8d b0 bf
       -0.015469202899317499 -0.06465722395464456
0001c0 15 47 6b 0f 1c 09 be bf 2d 3c 9e 31 c4 0a cc bf
       -0.11732650162164433 -0.21907856390723293
0001d0 c3 28 15 83 dd cb c3 bf 3e be e9 7d a3 32 c9 bf
       -0.15465897465248277 -0.19685786865328397
0001e0 7d 3c 99 82 90 c8 be bf db 5a 6b b4 a7 f5 58 bf
       -0.12024787128869892 -0.0015234124891116338
0001f0 b1 aa 4a b2 ac 00 87 bf a2 57 12 53 4d 1d b0 3f
       -0.01123175543883312 0.06294711378208587
000200 36 06 92 e4 7a 9a bc bf 22 69 d8 5f e3 a9 a0 bf
       -0.11173217850048264 -0.03254614396083101
000210 84 95 04 67 de e4 c2 bf dc 03 53 ee 98 b5 c3 bf
       -0.1476095202462312 -0.15397941243102664
000220 ff b9 9c ef c3 95 a5 bf 43 ce 4f 53 ef 9b a5 bf
       -0.04215824413255475 -0.042205313606157556
000230 97 83 66 57 23 88 b6 bf 0d 81 3e a9 d7 50 bf bf
       -0.0880148018245691 -0.12232730752885264
000240 8a e2 22 6b 1d 01 b9 bf 63 6d fb af 64 36 b1 bf
       -0.0976732622683675 -0.06723622604788697
000250 22 9d c1 0c 38 f7 a3 3f 52 27 b3 90 d5 df b6 bf
       0.038995505864301686 -0.08935293944082659
000260 a7 0d b2 ea 80 3c c4 bf d6 6c d5 3b 37 ed c0 bf
       -0.15809642276518085 -0.1322392503887843
000270 8e aa 22 c8 f4 a7 b7 bf 18 40 c0 53 81 bd ad bf
       -0.09240655790442018 -0.05808643481589132
000280 80 91 0a c7 9b 62 ba bf 34 da 46 b3 94 b5 c5 bf
       -0.10306714639097514 -0.16960390809772863
000290 49 25 ab 94 7d ce c5 bf 93 07 68 ba 5e 2a c1 bf
       -0.17036409148412648 -0.13410553075669593
0002a0 25 8d 7e 90 df 9a 84 bf a3 11 d0 db 0e 76 8d bf
       -0.010061022374265047 -0.014385334094193796
0002b0 8c 52 fe 71 ba f7 d0 bf 76 6f ce 9b cd 45 d7 bf
       -0.2651201356141335 -0.3636354466959725
0002c0 f2 32 76 01 7e 71 b5 bf 10 e0 b7 50 92 3a 96 3f
       -0.08376300368963621 0.021707807709361815
0002d0 09 d7 6b 8e 15 7d 8d 3f 07 c5 d0 b1 f6 c2 99 bf
       0.01439873543629801 -0.025157789805409638
0002e0 e7 19 cb 31 8d 41 a4 3f 93 ff 86 e3 7a ee b5 bf
       0.03956261856869841 -0.08567016653887398
0002f0 00 d4 82 05 76 cd c5 bf a2 65 da 00 19 a3 ad 3f
       -0.1703326727780734 0.0578849614659689
000300 14 a6 17 3e a2 99 ae bf c7 28 74 7c 78 3d b1 bf
       -0.05976588256801221 -0.06734421766683162
000310 3a d4 b8 be f0 c0 b1 bf 6f 93 c1 34 d5 54 b6 3f
       -0.0693502870206694 0.0872319463538369
000320 e9 6d 5d f1 2a ab a5 bf 3c 0e 94 3d f4 b0 b7 bf
       -0.04232153126096334 -0.09254385474565024
000330 35 a4 2f e5 b3 21 cc bf 0f 69 10 14 05 de 7b bf
       -0.21977852526404865 -0.006803531491664807
000340 8e f4 1a 76 81 14 b7 bf 3d f6 ec e5 30 f6 a2 bf
       -0.09015664227895767 -0.03703453833302859
000350 df 44 74 35 18 2f ac bf fc 92 94 4b 9d b0 b8 bf
       -0.055046803021591144 -0.09644492240165542
000360 23 fa 4b f8 3f 5c b4 bf 7f b7 42 e2 0f f4 9a 3f
       -0.07953262149747124 0.026321647820331414
000370 de fb 38 80 ce a3 95 3f 97 68 3b 05 e2 5e 93 3f
       0.021132685257040033 0.018916637009944805
000380 f6 98 c0 77 b9 74 b9 bf 33 04 60 d6 a1 91 a6 bf
       -0.09943732427254645 -0.044079835337477745
000390 b2 38 e5 59 38 14 c0 bf 2b 3d db 42 ff 0a b1 bf
       -0.12561706914352083 -0.06657405264126186
0003a0 84 6a c3 9f 39 f0 70 3f f6 e0 a6 6f 79 2d c2 bf
       0.0041353465023471515 -0.14201276733161422
0003b0 b8 14 15 e1 d7 94 ba bf 0b c3 21 b7 24 9e bd bf
       -0.10383366818594453 -0.11569432707780096
0003c0 8e 21 9e 2a 23 53 cd bf a6 10 b2 dc 27 0d d1 bf
       -0.2290996511549221 -0.2664279608945982
0003d0 5f 19 db d1 24 0a 97 3f 3a 7b 23 33 43 11 af bf
       0.02249963312967773 -0.06067857741594769
0003e0 83 23 88 33 24 de 70 bf bf 3f c4 28 79 40 bf bf
       -0.004118100558579199 -0.122077534153731
0003f0 d5 d1 8a ff 7e 95 a9 bf cd f3 11 c5 6f 83 91 bf
       -0.049968689626812036 -0.017102953341680483
