Yahtzee/ModelsNN2/version_3_model_6.pt (torch, 679526 bytes, 24 tensors)

policyHead.0.weight f8 [128, 50]
0.1282525176902734 0.1580098469028078 -0.09915405546888703 -0.09677292892176177 -0.01875026138678972 0.01879755090207953 -0.04174161229777025 -0.20484733967704297
-0.017129482101377408 0.06362380745954177 0.019155288959186174 -0.03386243924268421 -0.009033716137150625 -0.0593946536844681 0.10230130570711732 0.11484769988800252
-0.09235577594529186 0.03723683751783267 0.26229680177562525 -0.026433065967376285 -0.05559804064178533 0.059904386970672616 0.01352086652804981 0.09679565787138647
0.10916131703473547 0.11783699717989586 -0.049704903472865755 0.04602252292938523 -0.04667056478004753 -0.13114342848684837 0.08722314353149974 -0.1371103467516551
-0.01152073851989052 -0.1039691906226249 -0.017000812076291675 0.14233167126917484 0.06166746747399968 -0.06872826555987636 0.08634908251323337 -0.08126186484160627
0.11548798372667368 0.14315698775293856 -0.007784678278990317 -0.11989939728646934 0.05376565793299309 -0.027873973770719773 0.0330342452877921 0.09921314599544084
-0.12455552126053333 0.053634575155391474 0.08475196395411258 -0.05922707225207418 -0.14707498785445636 0.1259344615438077 -0.15203628906804006 -0.1363767337365409
0.11396941636239347 -0.14698223693836138 -0.0896323453058559 -0.12373427751927271 0.11875610912981376 0.10766361107934011 0.007535415532975682 0.09668611346669576
0.03750063671777432 0.10870740348818217 0.14957036280486188 -0.27914906050912597 -0.03043774784818723 -0.1789732597221812 0.04346835607945535 0.021008743464892045
-0.1044562347427904 -0.13206547725524773 -0.04272976246044732 -0.04292558342516359 -0.07592203034131974 -0.05620504127197366 0.02030809617846114 0.07314395229895149
-0.11824354820196598 -0.11955876484518274 0.18063379345020597 0.12541209291766756 -0.15976325586057483 0.07763879165442103 0.06268388695047854 0.004589075399317658
-0.0031271318669690885 -0.02896357477584266 0.12449077478422985 0.09108016176661383 -0.08811073463738543 -0.010333741123419433 -0.05860350256991737 -0.1227081391022462
0.012727993081266178 -0.01007897459032037 -0.07527409665514749 -0.03543586687014559 -0.07524842518767111 -0.04443392880357336 -0.18532844484375852 0.040817257827432174
-0.06347629276107684 0.12506482171094138 0.07305476101746056 -0.13714246114632211 -0.0490616063061992 0.09566423193321139 0.07328323059859179 -0.038840421264723465
-0.2469389538700893 -0.020549178871862153 0.10384191858153198 -0.10178813666663916 -0.14126395127924088 0.0749902790166644 -0.22379912948898187 0.13512719471653734
0.09644820908125112 0.04458307459110188 -0.12392647323629638 0.0012357320860748207 -0.08332193470575082 -0.07783754993171882 -0.120903694209025 0.09056933132194595
0.12203151138342405 -0.0060338875362183336 0.04413332127808305 -0.10343622123152837 -0.004219461850300145 0.07669530617635992 -0.01992959205555352 0.08631325872090176
-0.12285812490529409 0.08207632964543095 0.05311825558130551 0.09382868515628119 -0.03434601676959132 0.09847351695175051 -0.1327586377948624 -0.03224401009610437
-0.252396276881721 0.09003287623537458 -0.11646909425864675 0.056323663077082864 0.12486223241692519 -0.09233278212115732 0.13176141721233722 0.034686176703572096
-0.08163554010021877 -0.07334438439390999 -0.048152915623691124 -0.10806971234074415 -0.10270536823628235 0.03260534923166637 0.06468364389540716 -0.043039412589353516
-0.07086754370248807 0.12067601872471574 0.054337633001885335 -0.2177104556390053 -0.17908264246407252 -0.13908124593486157 0.06355746551014609 -0.10785837400732536
-0.21725100811618697 0.005811126714218652 0.05908389098095796 0.09964498654536785 0.11638385352961496 -0.09096327941890582 -0.057908359090475925 -0.13380518766198463
-0.06456314177268106 -0.0968954390578865 -0.0809013027576505 0.014970415513705468 0.04621087295327767 0.04789499802533429 -0.04518320904843767 -0.006926158183076781
0.07923240252092208 -0.11698753202676056 -0.12522394485876173 0.09505425028144436 0.058620378551835564 -0.09528183378221346 0.0689809389898516 -0.0033237968147162397
-0.07977003694726992 0.012526697383013503 -0.008782205265200316 0.028096503854982836 0.1335898409746318 -0.022046371805108957 0.07548192471938434 -0.007287907807515813
-0.031975384247617575 -0.034441554406527485 -0.11214350076830465 -0.0009497476647604137 0.10907180783532996 0.05542661414130608 -0.22857161975393936 -0.21485349312221133
0.06280478775355783 -0.20791399308060862 -0.02695552149984521 0.03143809086284148 0.12276686614399279 0.062397160868428406 -0.13925067211881328 0.020239982367431474
-0.07460526701218595 0.1630625252058305 -0.07479328026137323 -0.19439528616822585 -0.12271814231795217 0.11089332906786101 -0.11592194377831744 -0.11011937382613801
0.10876020143573417 0.13719309426199863 -0.1013337029028937 0.038226902718390424 -0.10322436674152556 0.03680087627623553 0.06718680246734424 -0.13740177021397249
0.11702588054696388 0.009094605866603817 -0.13567337188546266 -0.1365019225719952 0.06108899392395035 -0.25182364277384084 -0.0865977889197219 0.133487837897159
0.09280858262619243 0.05973383071075234 -0.020524901046237755 0.03246599398482434 -0.05051583412455066 0.10056776345185232 0.08047376226022485 -0.25636683731229065
0.006248845886786971 0.09654927529438245 -0.08248045301191739 -0.22136545017861256 -0.2277332983761418 0.05759151868432641 -0.24006713319559436 -0.05827052724167572
00000000: 5a00 8e18 946a c03f 135f 72aa aa39 c43f
00000010: 1230 8101 2962 b9bf dd6a db54 1cc6 b8bf
00000020: 6575 cabd 4433 93bf d330 7a49 aa3f 933f
00000030: 3a08 6717 285f a5bf c1f1 4a08 7038 cabf
00000040: 38fb b015 648a 91bf c825 495c a649 b03f
00000050: 4223 80ae 719d 933f 1561 38ea 6a56 a1bf
00000060: 3299 f6da 4480 82bf 469a 43de f968 aebf
00000070: 8ca4 591a 6b30 ba3f eb2f 0aab a866 bd3f
00000080: 971f 48cd a0a4 b7bf ddec b0ee b410 a33f
00000090: 6b30 5e86 78c9 d03f e599 7307 4511 9bbf
000000a0: 4369 8eac 5877 acbf 6618 daad c9ab ae3f
000000b0: ab95 69fc d3b0 8b3f 22d1 f3a8 99c7 b83f
000000c0: b408 a7fe fef1 bb3f d380 25c1 902a be3f
000000d0: 96cc bbcd eb72 a9bf aee4 b89d 4390 a73f
000000e0: 1512 d54a 34e5 a7bf 9dd9 37d0 4ec9 c0bf
000000f0: 180f ec84 4154 b63f 0bec 9ef3 d48c c1bf
00000100: ef7d 5959 2f98 87bf 1909 8491 b99d babf
00000110: c111 7e2f a968 91bf de9f a498 ec37 c23f
00000120: 6552 0ed8 e092 af3f fbf5 e3f4 2c98 b1bf
00000130: e016 6f35 f91a b63f 9a1b e8db 93cd b4bf
00000140: 18e2 2fd9 9e90 bd3f 06df 4bda f752 c23f
00000150: fceb e3a9 d3e2 7fbf a6ce 2716 bab1 bebf
00000160: a7b4 f01c 2c87 ab3f 23eb 04b7 fe8a 9cbf
00000170: c276 5156 dde9 a03f a039 6261 0866 b93f
00000180: 3da8 59e2 dee2 bfbf 7d5b 74b4 fd75 ab3f
00000190: 3266 7401 4eb2 b53f d791 b8c4 0253 aebf
000001a0: 8f7e 726b 5ad3 c2bf 2390 e2d4 9e1e c03f
000001b0: 921c add4 ec75 c3bf 18b8 aaf5 ca74 c1bf
000001c0: c24b 0584 192d bd3f b220 5f5e 50d0 c2bf
000001d0: 449f c037 25f2 b6bf 22e7 56b3 0cad bfbf
000001e0: 73aa e9e4 cc66 be3f 6216 8ea8 d78f bb3f
000001f0: 2117 6ab4 74dd 7e3f 081a 51cf 6bc0 b83f
00000200: 9964 9090 4833 a33f f697 d096 3fd4 bb3f
00000210: 6f4f 5924 1f25 c33f ef21 6605 94dd d1bf
00000220: 4895 49ae 122b 9fbf 92c1 ae84 98e8 c6bf
00000230: 6556 8bff 7b41 a63f 8a72 72e8 5083 953f
00000240: be65 15d0 a4bd babf 43f7 de84 85e7 c0bf
00000250: 8bbc aae8 ace0 a5bf 7c12 f291 57fa a5bf
00000260: b1a4 5c4d a06f b3bf 7e54 443c e8c6 acbf
00000270: 72d8 b843 a5cb 943f b430 06e3 8fb9 b23f
00000280: b48d 7d8c 3545 bebf 9cd0 f538 679b bebf
00000290: 16e5 b515 021f c73f 8d59 cde2 800d c03f
000002a0: f006 8353 1f73 c4bf a283 0ec7 22e0 b33f
000002b0: 573f 701c 0d0c b03f 1da6 248c fecb 723f
000002c0: c848 2a23 129e 69bf a0fe bf99 a0a8 9dbf
000002d0: 9e1a 5a9e a0de bf3f 691c 1a8c 0751 b73f
000002e0: dbb0 b1d3 6c8e b6bf 7703 5d41 db29 85bf
000002f0: b90c f03d 4701 aebf b0ac 65f4 cc69 bfbf
00000300: 4ed6 3850 2211 8a3f c2ed f011 49a4 84bf
00000310: 4fab 5ec7 2945 b3bf 4618 a062 a624 a2bf
00000320: 44ad 4115 7b43 b3bf 8499 163e 0bc0 a6bf
00000330: 83ad cfac d7b8 c7bf a062 f6e6 ffe5 a43f
00000340: e3ea 7a79 fb3f b0bf c974 90c3 1f02 c03f
00000350: 4018 6381 b7b3 b23f 8819 c258 e28d c1bf
00000360: 9611 2655 9a1e a9bf 78d3 8c7b 737d b83f
00000370: 4224 c496 b0c2 b23f 3690 3046 e4e2 a3bf
00000380: 9280 7d15 b29b cfbf 0472 db0c d80a 95bf
00000390: 8df6 424c 6295 ba3f 549f 1a8e c90e babf
000003a0: c98d 6ce9 ef14 c2bf 35fd e41b 9032 b33f
000003b0: 21a4 032b 73a5 ccbf d0ca 0d11 d94b c13f
000003c0: a401 c36f d4b0 b83f afd7 a5be 97d3 a63f
000003d0: 4294 a835 a5b9 bfbf 5021 5d39 093f 543f
000003e0: 03c4 9918 9654 b5bf 1485 5b63 29ed b3bf
000003f0: 96e5 9764 8bf3 bebf 6c60 0c3c 8d2f b73f
00000400: 7027 7906 753d bf3f 5e3c 2c5a fdb6 78bf
00000410: a740 1b87 a498 a63f b646 69d3 cb7a babf
00000420: c2cb 752a 6d48 71bf 8abf c8b7 4da2 b33f
00000430: 35a7 6748 6c68 94bf a6de 6a2f a018 b63f
00000440: 8520 844c a173 bfbf cd53 9a4f f402 b53f
00000450: 48a5 15e5 5032 ab3f b943 2c1e 2805 b83f
00000460: 09e9 8b15 cd95 a1bf 5d72 d476 8f35 b93f
00000470: a893 cb2b 3cfe c0bf 4596 b571 4982 a0bf
00000480: adb4 b5b6 4227 d0bf 6fe9 fe02 650c b73f
00000490: cbeb d526 ebd0 bdbf 7861 d085 74d6 ac3f
000004a0: 897a bca4 f8f6 bf3f d51e 8f07 1fa3 b7bf
000004b0: d39a e6e0 8edd c03f 4f57 21f5 62c2 a13f
000004c0: e7f6 eb16 11e6 b4bf 372d 5194 b2c6 b2bf
000004d0: 4921 9fbb 7fa7 a8bf 410e 31e8 74aa bbbf
000004e0: ecce b225 e64a babf 32d4 3ff9 a5b1 a03f
000004f0: 19ec 1d77 1b8f b03f 3149 050b 4309 a6bf
00000500: 3acf 8c16 6024 b2bf 0d8a d5a1 9fe4 be3f
00000510: b2cb 5e69 24d2 ab3f a9bf 7bab efdd cbbf
00000520: c60c 5516 2eec c6bf 177a 630d 6acd c1bf
00000530: b160 c853 4d45 b03f 2111 f63c 9b9c bbbf
00000540: 22e7 708b e1ce cbbf db35 0c73 68cd 773f
00000550: 29a0 f766 3e40 ae3f 0c37 6c76 5582 b93f
00000560: c530 b10c 55cb bd3f 69b9 3d96 5e49 b7bf
00000570: 08d0 ea18 2aa6 adbf 0a8d 8544 8720 c1bf
00000580: 2fd0 70c6 3587 b0bf 649b e2b5 23ce b8bf
00000590: 6843 8ca1 f2b5 b4bf b8a8 4f28 cfa8 8e3f
000005a0: d59d 1b98 f3a8 a73f c553 5274 b185 a83f
000005b0: 64fb 61ea 4022 a7bf b4bd 216e 9a5e 7cbf
000005c0: dd61 9c21 9348 b43f 8d3d 1818 e5f2 bdbf
000005d0: 3718 ec95 5607 c0bf 6bfa 4db0 7955 b83f
000005e0: 82bf 8481 7d03 ae3f 215d ffe7 6364 b8bf
000005f0: a93f 021d bca8 b13f 99a6 c4d3 813a 6bbf
00000600: f8a4 e323 cf6b b4bf 4a09 b2dc 98a7 893f
00000610: add3 34a3 67fc 81bf 9aa0 c174 54c5 9c3f
00000620: 5d2d 08cf 7819 c13f 07f6 97f7 5293 96bf
00000630: 32e0 1b8e c852 b33f be5e 08db ecd9 7dbf
00000640: deb8 3ddb 135f a0bf 3b50 99cb 52a2 a1bf
00000650: fc41 42bc 6fb5 bcbf fcb7 6d94 0f1f 4fbf
00000660: a67e 9147 21ec bb3f 4a3d 218e e060 ac3f
00000670: 8086 d1b7 d541 cdbf c314 32bb 5180 cbbf
00000680: 620a 6f7d f913 b03f e7bb 54fc ec9c cabf
00000690: 1262 276d 3a9a 9bbf 968b 3548 a718 a03f
000006a0: 98f0 1e3b a66d bf3f e217 964a 85f2 af3f
000006b0: 1521 594d f7d2 c1bf 73e3 5b39 cab9 943f
000006c0: 503b edad 5419 b3bf f329 7b9a 3bdf c43f
000006d0: 99e3 ae04 a725 b3bf 5767 4bda f1e1 c8bf
000006e0: 8ea8 e1c7 746a bfbf 4ae7 b055 8163 bc3f
000006f0: e0a7 6a7d 0fad bdbf 3840 3d85 c830 bcbf
00000700: 88d9 4564 b5d7 bb3f 73d1 8b16 8b8f c13f
00000710: 8a54 f36b 01f1 b9bf ea76 0102 7a92 a33f
00000720: 1f1f 4e7f e96c babf 4222 2480 90d7 a23f
00000730: 2aef 517f 2733 b13f 68a2 bd96 6196 c1bf
00000740: ab1c bc79 68f5 bd3f 3df7 2256 31a0 823f
00000750: 63d2 97bb be5d c1bf 0fd8 a41e e578 c1bf
00000760: a90a 197e 0e47 af3f daaf 84e9 e01d d0bf
00000770: 07ed 50cf 452b b6bf 544d 1725 2116 c13f
00000780: 82e8 2aa3 4dc2 b73f 9126 bcc2 6e95 ae3f
00000790: 2a29 fdca 7a04 95bf 753d cbfc 619f a03f
000007a0: 847e fd1e 36dd a9bf e5bc 0e17 cfbe b93f
000007b0: a8ff 17b1 ed99 b43f 6341 8273 5068 d0bf
000007c0: 763d 8bcb 6398 793f 0485 d70b 74b7 b83f
000007d0: ced5 3e60 701d b5bf 6da0 7dfc b355 ccbf
000007e0: b22c 5e5e 5d26 cdbf 2c64 8db2 a27c ad3f
000007f0: f0b3 f512 85ba cebf a3b8 a571 a2d5 adbf

policyHead.0.bias f8 [128]
0.013582129507937517 -0.005265296948621932 -0.13987277476047483 0.019301702284291945 -0.17256502638777688 -0.06708324503312077 -0.04899126617197298 -0.07107149854092658
-0.03488400085513085 0.0591751492426001 0.0023661434178983308 0.04893848752783262 0.0623754148439641 0.03458701669923923 -0.033969638952527616 -0.13594986408784607
-0.0659958925944536 -0.02991217446822041 -0.04982702526360356 -0.0031882704317891964 0.0429681650677817 0.06462545952396886 -0.16518466427671666 0.012505154911718028
0.12296427784612422 -0.06220085581218874 -0.07730575418315368 -0.05072617963359008 -0.01748356884200441 -0.029821924387386036 -0.08160201070502257 -0.10126434891132745
-0.014796711429312688 -0.15735001274871743 0.0348344558901549 0.05401632380197111 0.006842859312879173 0.11482698357475837 -0.011229732996293222 -0.019924234415688923
0.12790087485897342 -0.05571796762740158 0.030380409365533656 -0.10761412552603418 -0.09117928302013036 -0.1187274359917088 0.050996294745180984 0.024380012641758774
-0.031499565770731326 0.04226657517075099 -0.11271811993196959 -0.16595860422982917 0.03701831373875575 0.005498158616201936 -0.0484310037219852 0.06956187247672432
0.09779292012325826 0.10468605639460939 -0.16003115164575896 -0.018681445168740183 -0.11647574210230066 -0.037721026631365784 -0.06009427555462121 0.026911644457635955
-0.08501249715643655 0.13250649083497548 -0.09741417001288824 -0.058675672524140784 0.12496043166848858 -0.1601439671382906 -0.000427746757168417 0.10054896456764957
-0.11420981907726785 0.0461480243490667 -0.056695008047419906 0.07466475510592914 0.03823918590124607 -0.058347968841797354 -0.08327032967286584 -0.09512232135852351
-0.04849964308219688 0.02707042205009748 -0.16790350310437738 -0.007182182768397729 0.042227528499555515 0.028459811242257604 -0.12949350260347595 0.11673036872000285
0.0834143647518822 -0.10340970432389167 0.06467173324781006 -0.058808878548345676 -0.05703843167531011 0.08868218129186876 0.04431158847715402 0.059730413991518364
-0.12364949193641099 0.012064027910034894 0.0013106854647961907 -0.015657931049516984 -0.06660591049926409 0.027803861259739653 -0.05527057836702609 0.013209848700550121
-0.02593183004101042 -0.1408427637947838 0.07256160843186686 0.04026461512806254 -0.12562037450143437 0.029940041586276195 0.11479695839112337 0.025238037441462073
0.0627555653020325 0.018292586388234642 0.001527086275379939 -0.0316794953339733 0.07331725532493072 0.07722485945026661 -0.10152350334394068 0.16632864170283532
0.044341060006129036 0.008857723934427077 -0.1642627445484541 0.1193302374666897 -0.0994474367175821 0.0037072682602091642 -0.09945344989349278 -0.14806971762921434
00000000: 9c7e 5f90 f2d0 8b3f be40 2b63 1091 75bf
00000010: be37 99e0 59e7 c1bf 5dcc 4550 d3c3 933f
00000020: 9e6a 625c 9c16 c6bf e6dc 8617 5e2c b1bf
00000030: 4a1b ff1b 6215 a9bf bb36 e9e1 bd31 b2bf
00000040: ec20 a7d5 50dc a1bf ea3c 7785 344c ae3f
00000050: 26e0 1e93 2962 633f d53e e526 770e a93f
00000060: 9a94 a89d abef af3f ddca 2db3 63b5 a13f
00000070: 3550 b7f0 7764 a1bf a993 131e ce66 c1bf
00000080: c80e 5d58 1be5 b0bf ad7d 5f0c 4ca1 9ebf
00000090: 29a4 ed87 ed82 a9bf 64e4 87a7 491e 6abf
000000a0: f472 785f ecff a53f 94f8 244b 4b8b b03f
000000b0: 2d43 6f65 c524 c5bf d297 047b 4d9c 893f
000000c0: 73e4 ec3f 967a bf3f 653d fe62 cad8 afbf
000000d0: e15e 0256 4fca b3bf a492 2725 c8f8 a9bf
000000e0: 5e39 9371 36e7 91bf b759 ca77 a389 9ebf
000000f0: ee12 448f dee3 b4bf a32b d3da 75ec b9bf
00000100: b100 6bfd bc4d 8ebf 55f5 6393 0b24 c4bf
00000110: 73f3 a461 d2d5 a13f 25f6 5b10 07a8 ab3f
00000120: 5fef 5b0f 4207 7c3f fee3 261b 4d65 bd3f
00000130: 29f4 b13f 9dff 86bf c356 dabc 0467 94bf
00000140: 0915 534d 0e5f c03f e4bf 84c1 1087 acbf
00000150: 20ff a7c2 0a1c 9f3f 15d2 b86d 998c bbbf
00000160: 81e9 a486 8657 b7bf 23ea b8d6 eb64 bebf
00000170: 22a3 4bb4 2f1c aa3f 33c2 e3f3 12f7 983f
00000180: c1a0 a509 b620 a0bf a704 25ec f6a3 a53f
00000190: 1240 c63e 18db bcbf 1216 d4ac 213e c5bf
000001a0: 10d8 b87d 10f4 a23f ecee 1db7 3c85 763f
000001b0: f55e 32d2 f2cb a8bf 9a07 568f cece b13f
000001c0: 29b1 b5f1 f408 b93f 19e3 8f94 b4cc ba3f
000001d0: bb72 5499 e67b c4bf 29c2 2a90 3a21 93bf
000001e0: 7451 1baf 5ad1 bdbf 70ab 819f 2b50 a3bf
000001f0: 8029 5e48 adc4 aebf 24fa 4ee3 b98e 9b3f
00000200: b0c6 0907 61c3 b5bf bd6c 5202 f9f5 c03f
00000210: 9a51 5f92 22f0 b8bf 36bd 1fdd bc0a aebf
00000220: 5869 4f27 68fd bf3f 345d c1f6 987f c4bf
00000230: ef09 4055 6608 3cbf bdf7 76b2 93bd b93f
00000240: 34a6 d1cd da3c bdbf ac60 b5be b6a0 a73f
00000250: f2fb d1ca 2007 adbf 3d04 58b9 3a1d b33f
00000260: 5e37 be29 1694 a33f fc55 edf3 c8df adbf
00000270: 8f0e ac4e 3451 b5bf f1bd 5abb ef59 b8bf
00000280: feb8 cff9 f1d4 a8bf 448b 9345 59b8 9b3f
00000290: 17cb 5bab dc7d c5bf cfa6 aa81 106b 7dbf
000002a0: e701 cbbb d89e a53f 80b0 249a 9124 9d3f
000002b0: 55fb 5c3b 3e93 c0bf 1739 1a9c 0ae2 bd3f
000002c0: 353e a0d0 a45a b53f 3bff 28f2 0e79 babf
000002d0: 1865 46a3 538e b03f cbbe 2884 321c aebf
000002e0: 8338 522d 2434 adbf eff2 621c e0b3 b63f
000002f0: 33b6 af2e 02b0 a63f f218 571d fc94 ae3f
00000300: bbad 083c 7ea7 bfbf 352e a76a 06b5 883f
00000310: 33a0 39cd 6979 553f 676f 1ff7 a108 90bf
00000320: 668c 50bf 150d b1bf 1e9e 408b 9d78 9c3f
00000330: 50e6 08dd 6c4c acbf 1455 3be1 c30d 8b3f
00000340: 6468 cea7 df8d 9abf 993c 30bc 2207 c2bf
00000350: 77f7 28c7 6593 b23f dd75 524a 909d a43f
00000360: 90f3 1814 5414 c0bf a8d4 d02d 9aa8 9e3f
00000370: 995b f85d 5563 bd3f ce88 b405 00d8 993f
00000380: a63d 9dac bf10 b03f 09d8 2fb1 4abb 923f
00000390: c56e 1967 1005 593f f18e d378 4b38 a0bf
000003a0: 1862 da6d ebc4 b23f 7aef c625 02c5 b33f
000003b0: e937 a3be 71fd b9bf 4f3a 40c6 414a c53f
000003c0: f14d 3115 dfb3 a63f 4142 ec94 ff23 823f
000003d0: 47b6 e4c5 8f06 c5bf 89e5 572b 6d8c be3f
000003e0: dc7f 5f20 6375 b9bf eb50 ec7d b45e 6e3f
000003f0: 4655 c402 c875 b9bf 426a 5fd1 f2f3 c2bf

policyHead.2.weight f8 [128, 128]
-0.12863495683027365 -0.04400832425024929 0.15628785153989266 -0.14755041291987406 0.09968778242876913 -0.028628968145206022 -0.22386478731240184 0.047067774473951
-0.13943365889746567 -0.11136009906605954 -0.023980422382379164 0.10929361490494093 -0.05786015218560813 -0.06112257453666023 -0.10744262624499358 -0.020291286193657734
0.07587897748867478 0.038620739257198194 -0.029351138455730372 0.00642235031975019 0.041347308487415295 0.13770660140161653 -0.011390019392395524 -0.08595042354591294
0.016035199043684174 0.09369423302232913 0.1390751336097689 -0.05275020029553634 0.14393876611612944 -0.06355590526661264 0.09441629857465825 0.02198807141266374
0.22360840427149412 -0.0771226091251456 -0.029869697386801928 0.049756976177713734 -0.11672639249250098 -0.06315352942835956 -0.0542186368559541 0.13983278419484038
0.12236469219545552 0.21583828026795496 0.014264395256853945 0.1491098288044917 0.11682201552670325 0.016788800084632308 -0.0328483137193939 -0.033266571510996205
-0.007780805437364669 -0.004806480280300746 -0.11625495787229871 -0.18955280774217126 0.06593348551479176 -0.16472057873364926 -0.12959563558846512 -0.0012558626598172897
-0.028403166922794973 -0.006816217271104053 0.11735077554524066 0.06554506287534755 0.18367295358171154 -0.04555238245244678 -0.0787976625262881 0.036959660484242665
-0.040337112788699316 -0.05945426454860085 -0.027558808482864666 0.07282916185757975 -0.1249120807755741 -0.1000226238223927 -0.09767883827551788 0.02719100908402815
-0.10305235661625445 0.01946370868546049 -0.1152730218408852 0.05421642416010241 -0.10515435051246826 0.023458796722142995 0.1757350236164763 0.1599873811107093
0.05688864748259523 0.009564821160823977 0.005131033253386389 0.021045289599045544 -0.03886134403400525 0.10885434942869927 0.04951101214598828 -0.03530917870357101
0.2168586391700884 0.06750146061281612 -0.17234316662038526 0.17121075775707417 -0.13255076020730674 -0.09638009607219472 -0.01649354871518641 -0.06465474833896967
0.017777377541780808 -0.00489110433537153 0.02499974996078113 0.07020865383248077 0.05759655943328673 -0.21954580148721262 -0.11043213637845715 0.10696385291979156
0.05100478037788332 0.03895626505179608 -0.14557854101767126 0.02037187642653199 -0.06828771806327744 -0.05432068161730608 0.10733447571846882 -0.11456856993054987
0.03412911337598153 0.0817236390786715 0.05333931854327846 0.007884987784875718 0.072607413821976 -0.03769109054017698 0.004380489780967674 -0.002566726415537519
0.020928350601920807 -0.2247172050473101 -0.09191399064686336 0.08655997752183778 0.06524147609504242 0.04084093556552552 0.13200609868811772 0.09912653705156693
-0.05877173076907927 -0.01971612238921291 -0.026433249258197077 0.048307064964281304 -0.06834032354102779 0.07397286217511301 0.01558537832096625 0.03623198278497646
0.026181495641757594 -0.10306732127851957 0.05258865018465909 -0.005595182774051333 0.07948741873725354 0.08664913940153665 -0.15094556431130537 0.04515924667403605
-0.2688208402085047 -0.04817660225084121 -0.0512896945047607 -0.1359443281481669 -0.1327352293059329 -0.006132417239579992 -0.16612213253498564 -0.07324355978692489
0.03763429969420148 0.04180076626980378 0.042964470932012735 -0.019475679574235544 -0.16438861589233247 -0.046478770286162485 0.06835688239929882 -0.08269205856110706
-0.1717559754568776 0.07707981434142444 0.02799170082428431 -0.358646461659051 -0.09227482297545161 0.1057227537107829 -0.0758612682399406 -0.06048474443301649
-0.12483523789151074 0.18250054697807616 -0.10038374280383205 0.036773618756877194 -0.12451891645983316 0.11131707701104394 0.018455614923189652 0.16059800538740565
0.03845192956743519 0.008334454795262373 0.07777928366507199 0.2322603780460792 0.12996297130912188 -0.024559159313495737 0.11843151107950961 -0.02353540289532689
-0.13541261879015246 -0.0467114021388595 -0.10534661535859485 0.03669843203293683 -0.06081200222650568 -0.08304447051358799 0.0899186975878034 0.07558155673751668
-0.08499538916251431 0.012995877792378095 0.12270271824078102 -0.18422981657717788 -0.003048657763102362 -0.018791947874796162 0.01703296745559861 0.07945036906261058
-0.20819416096155147 -0.0302293441381562 0.02144308491847458 -0.09982528887796673 -0.2660389183828387 -0.017638355933140525 -0.022831111789559246 -0.027442880025628322
-0.10023228147797231 -0.08322571418154928 0.004802409694847007 0.09194327570237447 -0.12203997279944077 0.03990386874125943 -0.06879673206237552 -0.12277541883132102
-0.0453834312680512 -0.08936753782338 0.05807378917318799 -0.2352183548501359 -0.19026308071468107 -0.08792026575686696 0.048189991592485264 -0.11830084141706512
-0.021373860456912516 -0.06259141410206806 0.12451447906475145 0.013933670556214285 -0.07495210313816059 -0.23427082081215472 0.033322899596639886 -0.005183732026492068
0.04490510189177373 0.006663079918081009 -0.22538034314398303 -0.07906641716124033 0.15290178048185368 -0.031928108683587274 -0.07186692707791874 -0.059085670653348014
-0.09208611603793249 -0.27409120234543055 0.03655539615074187 -0.11687025260929983 -0.12829348534197235 -0.06146193232660088 0.006891778921217709 -0.014853101386703819
-0.06587827807685315 -0.003557868175293324 0.015791493959847674 0.018375309147996993 -0.04350086805074416 -0.023870290086394342 -0.08965106883766227 0.09485454640029312
00000000: c2ac 5a3a 1c77 c0bf d52b d052 4288 a6bf
00000010: e01e 9085 3d01 c43f 9d46 0093 eee2 c2bf
00000020: bca2 5775 2385 b93f e987 9b87 e950 9dbf
00000030: 22cb 1df2 99a7 ccbf 894b 1f70 4419 a83f
00000040: da8e 764e f6d8 c1bf 746b 916f 1882 bcbf
00000050: 7a9f 81e7 528e 98bf a7a7 ad95 aafa bb3f
00000060: 1fee c18a d89f adbf 8c53 5d45 754b afbf
00000070: 4929 eb25 5c81 bbbf 44d4 612a 3dc7 94bf
00000080: 208d c4fe cd6c b33f 5c30 1df8 18c6 a33f
00000090: c927 128f 390e 9ebf be75 6389 524e 7a3f
000000a0: 0f4f 7673 792b a53f cd4b bbb2 5ea0 c13f
000000b0: 9a43 5486 a653 87bf dd00 35d2 d800 b6bf
000000c0: f2ee e8fd 876b 903f de9a a762 58fc b73f
000000d0: 8938 45c7 36cd c13f 10e9 4002 1302 abbf
000000e0: 0c35 8ce2 956c c23f 7478 9626 3345 b0bf
000000f0: 4668 96a2 aa2b b83f 125f 7a7e 0a84 963f
00000100: e178 ba3f 339f cc3f 6285 f9ab 4ebe b3bf
00000110: a9c1 ab75 2996 9ebf 47bd dc12 bf79 a93f
00000120: 9bd9 55e6 c7e1 bdbf 3c93 8567 d42a b0bf
00000130: 6492 4290 8bc2 abbf 7142 8369 0ae6 c13f
00000140: 6f22 2adf 4a53 bf3f 55e5 7cb9 96a0 cb3f
00000150: 73d4 00b9 a636 8d3f 1a1d 1de7 0716 c33f
00000160: b1d6 2330 0ce8 bd3f f4d6 354d 1531 913f
00000170: 719d 4e82 7ed1 a0bf 0f2a 61e9 5008 a1bf
00000180: da85 3d0e c4de 7fbf 14de cdb9 f5af 73bf
00000190: 9333 0f8a e2c2 bdbf 8e0d 0f33 4443 c8bf
000001a0: 6350 ff53 04e1 b03f dad1 515d 9015 c5bf
000001b0: f144 47fc 9696 c0bf aaf6 5643 7893 54bf
000001c0: 5c1a 2544 b815 9dbf 8d6c 3064 52eb 7bbf
000001d0: 0986 204f b30a be3f efc0 76ad 8fc7 b03f
000001e0: d486 6568 9882 c73f b4ba c651 a452 a7bf
000001f0: 1339 8d67 152c b4bf ea27 1a6a 60ec a23f
00000200: 7d2c 7ce8 10a7 a4bf 361d b013 ca70 aebf
00000210: 0b3f 9a54 6038 9cbf db96 5f94 eea4 b23f
00000220: 4d70 cef5 3cfa bfbf b162 2d2a 159b b9bf
00000230: 5495 e7f7 7a01 b9bf 3d68 0bbb f5d7 9b3f
00000240: 704a 71a5 a361 babf f03b 0d61 4bee 933f
00000250: 1aee ea62 8882 bdbf bfef 5851 41c2 ab3f
00000260: 29b1 7b40 65eb babf da84 e632 9505 983f
00000270: 20e7 9839 7c7e c63f df53 d26c 777a c43f
00000280: 6c20 e740 8220 ad3f 2664 9f90 b896 833f
00000290: 91a8 4940 4704 753f 6c41 407a e58c 953f
000002a0: d6c8 6853 a2e5 a3bf bdd8 d2ee e0dd bb3f
000002b0: 1df2 eae3 8159 a93f 1598 8f6f 0b14 a2bf
000002c0: 9898 8b1d 06c2 cb3f aea7 c395 c647 b13f
000002d0: d36c 2944 570f c6bf 1c1f a5ee 3bea c53f
000002e0: b53d 135e 6cf7 c0bf cc8b 9db0 5dac b8bf
000002f0: a98c 4e51 afe3 90bf d0a0 a5ad 368d b0bf
00000300: 2b35 9a9c 3b34 923f 7181 96d2 b108 74bf
00000310: 5e7c f5d1 8899 993f 0950 1bc0 31f9 b13f
00000320: 9894 41d6 4b7d ad3f bd4b aeaa 131a ccbf
00000330: 3742 2cce 4745 bcbf 5d08 25aa fb61 bb3f
00000340: aa49 536f 4c1d aa3f e358 be58 13f2 a33f
00000350: 26cc 5550 51a2 c2bf d159 0a7c 5ddc 943f
00000360: dcdc cccb 4d7b b1bf 60e4 159e ebcf abbf
00000370: 7cb2 f1ae 457a bb3f b04e 00a5 5d54 bdbf
00000380: 7b27 9503 5f79 a13f 1e2b 2725 d7eb b43f
00000390: 22f7 7789 4a4f ab3f 99bd 5225 0126 803f
000003a0: a801 d043 6696 b23f 16f7 7022 3f4c a3bf
000003b0: 4872 98c5 46f1 713f 8f81 66c0 d006 65bf
000003c0: 69f0 93d5 3d6e 953f a96b 438b 88c3 ccbf
000003d0: 5185 dfdf ac87 b7bf 324a 9970 cb28 b63f
000003e0: e3c4 2b56 aab3 b03f 6517 2f65 1ae9 a43f
000003f0: 3f77 5e6a 93e5 c03f c85d cd52 5b60 b93f
00000400: 103f 2a0b 5417 aebf 9760 7693 7630 94bf
00000410: f327 5d54 5111 9bbf 74ea 5f20 b4bb a83f
00000420: 7e55 9b5e c07e b1bf 8068 d5af e2ef b23f
00000430: e885 7911 3aeb 8f3f 47ec 429a ff8c a23f
00000440: 71b7 2a6e 52cf 9a3f ff74 2db6 9e62 babf
00000450: 8127 5e49 e6ec aa3f 679f 7970 f9ea 76bf
00000460: 9a82 eb97 4959 b43f eac5 f453 a32e b63f
00000470: c1be 182b 2f52 c3bf 226a 27df 1c1f a73f
00000480: f670 4b53 5c34 d1bf 2214 3386 9aaa a8bf
00000490: 5c20 0a91 a442 aabf 878d bcad 9f66 c1bf
000004a0: 86b1 72ce 77fd c0bf dcac d437 4e1e 79bf
000004b0: cc94 3073 7d43 c5bf 396e ed05 17c0 b2bf
000004c0: 6bf6 c98c cd44 a33f 3031 27f8 e866 a53f
000004d0: e2fb 156b 70ff a53f 98d8 5abb 6ef1 93bf
000004e0: a1cf 8ba8 af0a c5bf 08bb acbc 10cc a7bf
000004f0: b08b 5c2e d67f b13f d0ab 2887 4e2b b5bf
00000500: 506c bd8c 19fc c5bf 2236 c7b1 80bb b33f
00000510: 4e1c 663e dba9 9c3f 24b6 e949 10f4 d6bf
00000520: 267b eca2 529f b7bf 0981 a179 a510 bb3f
00000530: 1ca6 1fe2 a46b b3bf 9852 7e3e dbf7 aebf
00000540: 30e6 21c0 33f5 bfbf fcef 628c 2d5c c73f
00000550: 1c7d 64bc bfb2 b9bf 1a2d d5e3 fdd3 a23f
00000560: a9a7 edc1 78e0 bfbf e5ad 3fa5 467f bc3f
00000570: 9236 175a 07e6 923f e88a 78b6 798e c43f
00000580: 36a3 eba7 f8af a33f ef83 3496 a711 813f
00000590: a5d5 a5d7 57e9 b33f 27a8 ee43 b5ba cd3f
000005a0: 5e59 bb6b a0a2 c03f 035e 4648 0926 99bf
000005b0: c400 e70a 8751 be3f 2b38 ef26 aa19 98bf
000005c0: 8daf 9560 3355 c1bf 21cb 1291 8eea a7bf
000005d0: ec9e b5eb fef7 babf f9b8 ca0a 23ca a23f
000005e0: 18c4 8831 c022 afbf f030 f804 6742 b5bf
000005f0: 7b43 7069 e904 b73f a24f 5e1a 5059 b33f
00000600: dc87 c300 42c2 b5bf 3f01 cf30 959d 8a3f
00000610: 0676 f901 7269 bf3f c9d2 92b6 d794 c7bf
00000620: ef7f 74ac 7ff9 68bf 7298 3346 323e 93bf
00000630: ecd7 b318 1771 913f 566f c700 dc56 b43f
00000640: a225 4634 1ba6 cabf b0c7 cff1 70f4 9ebf
00000650: 0101 cd11 2df5 953f 316c 0b6f 268e b9bf
00000660: 69b8 7a19 c806 d1bf f65b 8d07 ca0f 92bf
00000670: 4ab2 def9 0961 97bf 3c5c df80 fc19 9cbf
00000680: 2c8c f3a2 d2a8 b9bf 4c93 98c8 474e b5bf
00000690: 7041 4d09 b1ab 733f 4793 3a32 9889 b73f
000006a0: af73 fafb 023e bfbf 2586 74a6 476e a43f
000006b0: 6492 47a2 a99c b1bf 1f1b a2b8 356e bfbf
000006c0: bd30 2742 7f3c a7bf 8e84 467c cae0 b6bf
000006d0: 46dd 8102 d9bb ad3f 6908 c092 a21b cebf
000006e0: 4223 a766 8a5a c8bf d0d4 144a f181 b6bf
000006f0: ffba c4cb 5bac a83f 6abf f9c4 f648 bebf
00000700: 0c59 9b7e 07e3 95bf a22a 94ac fd05 b0bf
00000710: 612a 764f 2ee0 bf3f f442 d19a 4189 8c3f
00000720: 70ac be9f 0f30 b3bf c2cb e514 96fc cdbf
00000730: 7b6f f3f7 b20f a13f 2f72 6678 893b 75bf
00000740: 4af1 1830 cdfd a63f 78b1 6be5 be4a 7b3f
00000750: 247a 7b59 43d9 ccbf 225f eb5b b23d b4bf
00000760: cdb9 5519 4992 c33f 0b00 3d8d e158 a0bf
00000770: 97b3 76f5 de65 b2bf 3f99 3c1e 7a40 aebf
00000780: d06f cca8 f492 b7bf f179 8cd3 b58a d1bf
00000790: be65 eb8d 63b7 a23f 270b d578 35eb bdbf
000007a0: 47b4 eac1 eb6b c0bf cc5b 953a f077 afbf
000007b0: ea0b 3fd1 8d3a 7c3f c2bb 9985 4d6b 8ebf
000007c0: 5c5c db19 66dd b0bf b988 9aee 6325 6dbf
000007d0: 5b3a 7338 a52b 903f 3bce 601f fad0 923f
000007e0: 1049 40eb be45 a6bf cd81 110d 7471 98bf
000007f0: 688e b558 5ff3 b6bf 588a aa36 6348 b83f

policyHead.2.bias f8 [128]
0.003343983977962924 -0.09203817880718466 -0.0027360445170928754 -0.017783669275552822 -0.08458553527599777 0.07047704673610229 0.017154011158246406 0.008142586357889335
0.04971222674028092 0.00596223965971378 -0.07514882068168142 -0.027892581186157485 -0.031214848562805486 -0.0026285557713430115 -0.038305964245064175 0.016438446749556752
-0.07622714269653307 -0.06650123659733953 0.009906812684121162 -0.07561169904197852 -0.05584807957286521 -0.06313196797338436 -0.09816134884980356 -0.006561324729579535
0.02867106182949611 -0.07299235477371448 -0.08198921880786467 -0.057737306787984964 -0.029861488312013885 -0.0922313757187892 0.0328630896817619 0.04952691551116094
-0.0818066159439147 -0.08242144469622965 -0.08248794413115555 -0.03501324743152194 -0.00638432102152373 0.057648041212698085 -0.10968187145118212 -0.0062347739419463645
0.04718771956609122 -0.007144965440092135 -0.06210363702546837 -0.036977803792945005 0.01888193895496469 -0.11570098872746185 0.0006314921390848461 -0.07912913481238544
-0.12188766986049958 -0.05101031057379877 -0.01193995031847864 0.027656841917635587 0.058532780187379764 -0.00966240111548048 0.037198020464671876 0.028700032428124536
0.0016987065539827225 0.04092887469965905 -0.04463222594488474 -0.07551752478762228 0.019110582369248383 -0.0368991956026745 -0.041295156353680564 0.00021924542430946614
0.050058680303732055 -0.0845016620091724 0.0614137850228501 -0.004046729874834836 -0.05067551414772432 0.03162377550258373 0.019310701797920066 0.07286029005576279
0.010899860776271253 -0.09267660621491564 -0.08085186457004476 -0.05763772050852851 -0.0675524636868957 -0.11574051510375444 -0.044441605425838915 0.06199762695800912
-0.11465199703618897 0.013217024718078393 -0.014489950630767804 -0.06452482296436907 0.007673768409548198 -0.05967687820216604 0.0426080319529093 -0.078448919975549
-0.03579192347465417 -0.02027415739018385 -0.05510094904730072 -0.08216057965105404 0.07050510619568479 -0.021130113126269244 -0.07691096626378843 -0.031082713349347726
-0.08218494536033787 -0.03270990202822506 -0.03615241573762824 -0.10481453752214778 -0.05075667280337605 -0.09322120223625933 -0.070921716573402 0.08013454634592795
-0.07982626162556665 0.02381731252014144 -0.08302508451690101 -0.06276630213243597 -0.05810187532590713 -0.036801461933377654 0.0359796634286186 -0.02242294010526129
-0.03756233788199162 0.07896775886725757 0.07108378399745853 -0.08607441182696243 -0.05729530768976404 -0.006076766072031188 0.005036864704879931 -0.05975648359399637
-0.01064833291892991 -0.03771966313714251 -0.030785792892532627 0.0013473359658827616 -0.060026485302638884 -0.06331515046504639 0.004943673858093347 -0.11003738428480915
00000000: 78bd 5bba d764 6b3f 7fd3 f567 d08f b7bf
00000010: 2001 15b7 e669 66bf f5f8 c3d7 e135 92bf
00000020: d89d b9cb 65a7 b5bf 35a8 d9a2 c80a b23f
00000030: f6f6 ad33 d290 913f 3f5b e570 0fad 803f
00000040: d826 1f88 e173 a93f 9314 9785 dc6b 783f
00000050: 8b29 29ff f33c b3bf 0a77 fb6f df8f 9cbf
00000060: 5049 e806 c9f6 9fbf e82d 5b22 7b88 65bf
00000070: 523d 59df d69c a3bf 62db be7c 3dd5 903f
00000080: 7ffa f23c 9f83 b3bf f841 549c 3906 b1bf
00000090: af1e e3e3 054a 843f 098e 94ce 495b b3bf
000000a0: 32a6 9e96 1e98 acbf 3e1e c7a9 6a29 b0bf
000000b0: 0989 0a27 1a21 b9bf 3797 1c32 0ce0 7abf
000000c0: c8dc 9863 f25b 9d3f 3973 9c80 a0af b2bf
000000d0: 9684 67d5 3efd b4bf 23b8 d388 be8f adbf
000000e0: 8a06 d78e 0294 9ebf f495 60b6 799c b7bf
000000f0: 437c db4e 6ed3 a03f 4ecd c884 975b a93f
00000100: f856 1344 47f1 b4bf dd99 7561 9219 b5bf
00000110: e78a 5b0e ee1d b5bf 2650 4aa1 41ed a1bf
00000120: e5eb e91f 7226 7abf 43be 5f47 0b84 ad3f
00000130: a7ce d872 1c14 bcbf ed98 db62 a289 79bf
00000140: fc4c 9e20 fd28 a83f 0306 570e 0a44 7dbf
00000150: 7c5d f943 0ccc afbf ceec ef33 c1ee a2bf
00000160: dcc2 2f79 c955 933f 3206 b37a 949e bdbf
00000170: 48ef e20a 57b1 443f 8d12 2e96 ce41 b4bf
00000180: 3f24 d6c3 0734 bfbf adb6 58ff 051e aabf
00000190: 52e1 1101 f973 88bf 1603 303e 1352 9c3f
000001a0: 5529 4c31 02f8 ad3f 14a7 5586 e1c9 83bf
000001b0: 0b50 be72 9e0b a33f b415 b192 8a63 9d3f
000001c0: a221 1246 e4d4 5b3f c71f 9824 a1f4 a43f
000001d0: 56da 8ffd 08da a6bf 5eda 3cd3 1d55 b3bf
000001e0: 0c3d 2279 b991 933f 7e71 b98c 73e4 a2bf
000001f0: 4566 0b84 a324 a5bf 89d9 bada a7bc 2c3f
00000200: 4f26 9295 4aa1 a93f 877b c9a2 e6a1 b5bf
00000210: efb7 64ac a071 af3f 3997 7dc7 4d93 70bf
00000220: 71e6 f117 24f2 a9bf 8a89 1ed3 fd30 a03f
00000230: e54f bd42 2fc6 933f 7971 f7d2 f8a6 b23f
00000240: c032 858c aa52 863f 041e cc70 a7b9 b7bf
00000250: 7622 2632 b5b2 b4bf b942 33f9 b082 adbf
00000260: 67a8 4c46 1e4b b1bf 9c5c 319f 2ba1 bdbf
00000270: 587c c5d3 0cc1 a6bf 1cb3 6d28 27be af3f
00000280: 7e07 b151 d559 bdbf 3e0a 5107 8711 8b3f
00000290: 626f a340 e8ac 8dbf fc82 69e4 b284 b0bf
000002a0: c088 b285 876e 7f3f ae4e 69c0 f78d aebf
000002b0: 10c0 914f b8d0 a53f c595 b379 3a15 b4bf
000002c0: bbb3 91a9 5153 a2bf b278 c7ab bfc2 94bf
000002d0: 0700 460c 3136 acbf 6f26 9fca 7908 b5bf
000002e0: b4bc 4f65 9f0c b23f a638 5ae3 21a3 95bf
000002f0: e685 cee4 6fb0 b3bf 97be 3995 25d4 9fbf
00000300: a3d3 8b94 120a b5bf fae4 ee2e 5abf a0bf
00000310: ba6d 87c6 9182 a2bf ba90 cd22 20d5 babf
00000320: 5211 7d53 c7fc a9bf 7306 e63e 58dd b7bf
00000330: 134a 42f5 ec27 b2bf 0ee7 d597 b283 b43f
00000340: 1b33 0b6f 7e6f b4bf e914 69c9 9063 983f
00000350: f56a bfc6 2141 b5bf 6a1d f3ce 7311 b0bf
00000360: 4cda b86c 87bf adbf 23cf e526 a4d7 a2bf
00000370: 5377 7e2b ed6b a23f 6da3 ba09 0af6 96bf
00000380: c466 87e9 5e3b a3bf 06f6 c525 3b37 b43f
00000390: f185 8bff 8b32 b23f aab9 d1ff f808 b6bf
000003a0: 68cc 7b81 cf55 adbf 5591 b778 f3e3 78bf
000003b0: dccc e812 89a1 743f a735 85dd 6698 aebf
000003c0: dd58 260d cbce 85bf f529 2edf fd4f a3bf
000003d0: cd92 9e96 4f86 9fbf e491 40fa 2213 563f
000003e0: a18d 899e cabb aebf 9db4 96f4 6b35 b0bf
000003f0: 767e ae58 d13f 743f 2934 d7f6 682b bcbf

policyHead.4.weight f8 [128, 128]
0.21619756944385882 -0.1487996772316723 -0.07577718383986548 0.007519791072695898 -0.0022400915573137395 -0.010055337983957685 -0.034175889712504626 -0.08084610633966532
-0.06920424601205562 -0.05044865140244037 0.16322832549379357 0.05339087384839036 -0.10477051686623785 0.06469680684795749 -0.08884665499236209 0.021441394051986105
-0.017563337069243477 -0.02972364830536056 0.03992638702488715 -0.15653770514332116 0.07694183675431489 0.11311746500367764 0.04189765149294464 -0.06822794316886609
0.0266176493290764 -0.07038492923712768 -0.02314680194112562 -0.09235445515624248 -0.09944972185438336 0.05028789528720288 -0.03152402944911396 -0.040589387512842065
0.0991395008290063 0.003898422053427046 -0.0597926631907206 -0.07392767036829981 -0.01641441014499541 0.12377093799428993 -0.001142469290013422 -0.09402214469509955
-0.014614330658438531 0.07280959777424208 0.02751167625662554 -0.1141399159849857 -0.2010578222186277 -0.04502801153393646 0.016511349137803343 0.13219826097453216
-0.020977919248106384 0.07530949217371692 0.13354496548791728 -0.07242030235354913 -0.018987799126541256 0.011445352888612733 0.11509736104899032 0.09103364804949116
0.15501478195216897 0.1286578990919003 -0.04813478404302719 -0.04270253283221001 -0.12081375330476968 -0.16579189009925463 -0.08503325920634826 -0.12984502046199076
0.027127804967745868 0.14524844382334026 -0.07627841062643156 -0.022333469088081266 -0.05691846587550557 0.12556787544390013 -0.08936240760895402 0.11665513946069564
0.17927010701272625 0.0006419341278063217 0.08052872554100551 0.04014326294900894 -0.00035967287032497914 -0.1625628128973123 -0.05814179766112611 -0.15578238271680436
-0.07802727885914137 0.2250891228265141 0.05311518216939225 0.13909598251131444 0.1712027944698246 0.006919635350104414 -0.018360057776883452 0.08272370716587639
-0.08970074305998711 -0.04562689248972807 0.04462791935742073 0.07716600752768227 -0.056071813526656036 -0.21189130152589225 -0.10624335065531829 -0.11081997717352375
0.03291675923928786 0.058745671431761945 0.18619636119487018 -0.06902226340225613 -0.016926962730994196 -0.040816458443895275 0.025229801884002773 0.029982773584192653
0.03190767500742253 0.012517733339362689 0.064275552534753 -0.08466402247789766 -0.15892174105058274 0.08785847199639281 0.19546508744850402 -0.04496272143384821
-0.08196623773044634 0.008445141198541777 -0.16196849077808895 -0.08499648192496118 -0.033082184013332155 -0.05845482562095743 0.16669069433712846 -0.029651607938653835
0.20994135777011766 -0.06561514140984778 -0.05622085311478899 0.08688780470710594 0.1494157347669843 0.041057146342424466 -0.05021401213600612 0.04745285601335292
0.05854164814570825 -0.11182779550990475 -0.005028571516376165 -0.0002584963571317161 -0.005939974284498293 -0.039301259042732545 0.20914735560764255 0.046950496918860114
-0.1121478569652411 0.04383738863742146 0.04514830503322716 -0.006603757390856665 0.11707274246310133 0.054400599102292765 -0.0004899121248854475 -0.013650897850121437
0.012517838609267558 -0.09324422717670593 0.09575991547730534 0.12460628201934179 0.018055138865999975 0.14185193130830895 -0.09754804567255011 -0.03596643588799129
-0.04547679907802515 -0.09380289390680857 0.011647862018123184 -0.051386889045904154 -0.10551518527738643 -0.012543541042164692 0.026988316941525044 0.05445995807549076
0.06706028083927919 -0.0003113294178514118 -0.019343673991534947 -0.04021294647489202 -0.09280025255656649 0.12305712024836353 0.04727136470994893 0.010126799948678293
0.006770118702513747 -0.005461988833381925 -0.011928834502145384 0.08653942598041028 -0.09834973121717501 -0.002000633938757149 0.04440660680979338 -0.012046490871139542
-0.04692960150549158 -0.06585376044939065 -0.05467172649760028 0.08619426739250226 0.1302284835936726 -0.08219845571428325 -0.001778596548371434 -0.01988378707490495
0.005202717098456305 -0.025606107791153958 0.007161275249758857 0.06859891331810103 0.08699691983827293 -0.028875550504251564 0.01127481236606433 0.04413728776097565
0.07407278447418346 0.02965749721090062 0.05837621513728758 0.1486308334421555 0.014075926535039595 -0.030219796098271218 -0.07214975563437734 0.03874451796182505
0.04361543716249606 -0.08133558807230688 -0.059248538569095614 0.06719636340257504 0.06784377497667601 0.0812102695809791 0.04934189666659228 -0.07401181217885874
-0.09155514909535913 -0.08830488802949645 -0.09107634961229974 -0.04756322314048363 -0.047759776739307 -0.06293448274939185 0.015128628396215827 -0.06842262631792384
-0.08615328499032983 -0.019715964883222536 0.07342267089694356 -0.098838966131468 -0.06806136712324312 -0.10887175081876024 -0.029274333513358612 -0.0261364530385217
-0.024650131007959923 -0.05961536356058446 -0.024415663588005326 0.01827226469119477 0.10098712988183776 -0.0943180367964075 0.0551768312047742 0.23342488783544513
0.03976846684055838 -0.10107716249940159 -0.0974355735777708 0.026081081582938953 -0.029274597604291054 0.012130080100090746 -0.030384242875969164 -0.006042932473567116
-0.07974214080706477 -0.07704697216157837 0.009096889929529962 0.033431791903071134 0.0009395399163752223 -0.004001155225952131 -0.08552653750903623 -0.031234280402756626
0.054060229223303606 -0.09403945490214168 0.05972708479488238 0.02258439927494756 0.09019307211910298 0.052924337503869955 0.05741424403081488 0.039076334441305795
00000000: 4c37 1ea9 5cac cb3f 0cc5 ae29 de0b c3bf
00000010: 3c0d 602e 2266 b3bf 3b01 ae8b 12cd 7e3f
00000020: e793 51ff cf59 62bf 1da2 549e e497 84bf
00000030: 60fa 4091 807f a1bf 84e0 bc96 54b2 b4bf
00000040: ddb9 5d95 5eb7 b1bf d033 cdd7 67d4 a9bf
00000050: 766a e36f aae4 c43f 80da 2a72 0c56 ab3f
00000060: b187 8697 3dd2 babf a54e 914d f88f b03f
00000070: cf1a 8d85 a7be b6bf 268b ef98 bbf4 953f
00000080: d6ba 4899 1ffc 91bf 60ac 8e45 e06f 9ebf
00000090: 7fe5 093d 3b71 a43f ee39 1772 6d09 c4bf
000000a0: e1cf 8dd0 75b2 b33f 9c16 cc24 44f5 bc3f
000000b0: 8cff e1e5 9b73 a53f 8b68 95f0 6277 b1bf
000000c0: c188 7535 a841 9b3f af69 3429 bf04 b2bf
000000d0: 0162 6095 cbb3 97bf ad34 89a4 8aa4 b7bf
000000e0: c6fb f576 8975 b9bf ad52 49c3 55bf a93f
000000f0: c64e 0be7 ea23 a0bf 065a ddd7 21c8 a4bf
00000100: 9c66 cdd1 3461 b93f f015 3767 95ef 6f3f
00000110: 5cc8 e3d9 249d aebf 3e56 807e ecec b2bf
00000120: f406 066b f0ce 90bf ce76 e1c2 73af bf3f
00000130: bbca 2f0f ddb7 52bf 13b3 90d4 d511 b8bf
00000140: 7eee d841 1eee 8dbf 0579 4659 a6a3 b23f
00000150: 2013 1f57 052c 9c3f 15de 5206 4638 bdbf
00000160: b959 8441 43bc c9bf d463 e259 e90d a7bf
00000170: d322 3de2 59e8 903f d5a1 bc63 dfeb c03f
00000180: 115b 6f54 3c7b 95bf 4de8 f69d 7b47 b33f
00000190: 7074 a85d 0018 c13f e8c7 2c0e 238a b2bf
000001a0: 4207 16a1 8971 93bf 113c c842 a970 873f
000001b0: 84b2 8f49 0577 bd3f 9448 352d fb4d b73f
000001c0: 17c9 703d 86d7 c33f 4963 7cae dc77 c03f
000001d0: 1297 8756 1fa5 a8bf ac00 f13b 1bdd a5bf
000001e0: fcda 596f a6ed bebf ab8b f52c ab38 c5bf
000001f0: 0d12 5d5b bdc4 b5bf c062 37fa c29e c0bf
00000200: f24d 982c 64c7 9b3f dd10 0242 8097 c23f
00000210: ae08 085f fb86 b3bf 52af 5bbd 95de 96bf
00000220: 6694 f2ca 6a24 adbf 2cd9 3aaf 9b12 c03f
00000230: 7b1a 2c6a 74e0 b6bf a2dd e478 1cdd bd3f
00000240: f791 62a7 52f2 c63f a307 e50a ef08 453f
00000250: 5651 96d2 879d b43f 109c 0a63 a88d a43f
00000260: a52d 1e37 4f92 37bf db48 78b6 dbce c4bf
00000270: 4a6a f8fe c2c4 adbf 81e3 8757 adf0 c3bf
00000280: ae58 e582 98f9 b3bf 86d3 9c6a b8cf cc3f
00000290: de5f adc4 e931 ab3f 060f f2ab e5cd c13f
000002a0: 8da8 9d21 f9e9 c53f f38d 7678 c357 7c3f
000002b0: 464a d19e facc 92bf 2f9e e180 612d b53f
000002c0: 699a debd a0f6 b6bf a17b 1f76 685c a7bf
000002d0: 11de 417c 78d9 a63f acbc b1c6 26c1 b33f
000002e0: 8217 a6da 71b5 acbf 8e27 2e11 411f cbbf
000002f0: c667 7ba4 c332 bbbf 0729 b4b1 b25e bcbf
00000300: a499 d828 77da a03f 1676 29a3 e913 ae3f
00000310: 7dab fb48 48d5 c73f cf32 026c 71ab b1bf
00000320: efa2 663d 4d55 91bf c365 4f14 e5e5 a4bf
00000330: 95c8 e757 d7d5 993f ff2d f3df cdb3 9e3f
00000340: e0ea 4be9 3356 a03f 853a 80ba e5a2 893f
00000350: 26b0 11d4 5c74 b03f b3bc b097 8aac b5bf
00000360: d7c2 3730 8c57 c4bf 7daa e68f e47d b63f
00000370: 01f1 0cff ff04 c93f 47f0 3194 5a05 a7bf
00000380: 7aad 6d46 bdfb b4bf fc0d 10aa af4b 813f
00000390: 58eb 6f2d 62bb c4bf 248c 2456 54c2 b5bf
000003a0: 9cc4 d5e4 25f0 a0bf e7b8 ab78 caed adbf
000003b0: 28dd 5ce4 1e56 c53f 5d38 7bb9 fd5c 9ebf
000003c0: afa9 d9c0 5bdf ca3f 4e4b 7a66 27cc b0bf
000003d0: e364 f6ca fac8 acbf ac64 a377 473e b63f
000003e0: 3b7f 2a07 0e20 c33f d897 9d39 7105 a53f
000003f0: d7a5 d9a7 a6b5 a9bf 40b9 5ba1 bd4b a83f
00000400: 4cc1 7ac0 2bf9 ad3f 71b2 7f14 bfa0 bcbf
00000410: 96bd 55e3 d698 74bf 7070 6766 d9f0 30bf
00000420: d7f0 a7b4 8354 78bf 3471 8f6c 4b1f a4bf
00000430: 3d9a 302e 57c5 ca3f c14b 9841 e509 a83f
00000440: 3871 fbd1 b8b5 bcbf 5d5c 14ad da71 a63f
00000450: 6ad2 2cbb ad1d a73f 3c23 64a0 8a0c 7bbf
00000460: 13ce 21b0 7af8 bd3f 2ee7 0d34 65da ab3f
00000470: 1d33 f346 ae0d 40bf ce53 9e7e 00f5 8bbf
00000480: b11a 8cdb f3a2 893f 6bc6 438a dade b7bf
00000490: e824 3ec9 b883 b83f aa33 2682 32e6 bf3f
000004a0: 031c d1db 0b7d 923f ebfb eb3e 3428 c23f
000004b0: 0dcb f3a1 e8f8 b8bf 4d03 c953 316a a2bf
000004c0: 9fa4 8829 bc48 a7bf 1493 9969 7703 b8bf
000004d0: 4341 7d93 d5da 873f df69 cadf 614f aabf
000004e0: e66c ff0d 0b03 bbbf b7c3 6a94 6db0 89bf
000004f0: 423e 8d4a d3a2 9b3f 2164 c0f5 2ce2 ab3f
00000500: 29b6 10d1 dc2a b13f 7711 ffaa 3d67 34bf
00000510: 4967 b6fc d3ce 93bf 2d8e f893 ca96 a4bf
00000520: 8c7e cae1 c1c1 b7bf 85b4 01e3 ab80 bf3f
00000530: 9adb eeca f333 a83f 8fdd bd14 5cbd 843f
00000540: f066 ade6 fbba 7b3f a660 9176 4f5f 76bf
00000550: 2265 8710 256e 88bf 8685 66a4 7227 b63f
00000560: 9ded 25af 722d b9bf eec6 d22a a263 60bf
00000570: b3e3 f277 76bc a63f 10b9 95a2 d4ab 88bf
00000580: 385d 5c1f 2807 a8bf 5ae1 72c3 cadb b0bf
00000590: c966 a5ba eefd abbf a1b0 8dd7 d310 b63f
000005a0: 8570 05b3 53ab c03f c415 133f f50a b5bf
000005b0: 29a0 8380 f923 5dbf 0e52 d45c 6a5c 94bf
000005c0: ec81 9cbc 714f 753f 6ed6 29ce 7c38 9abf
000005d0: 8b07 ed2f 2455 7d3f cc0c 3ec9 b28f b13f
000005e0: aee0 8e1d 6e45 b63f 526e 4764 8d91 9dbf
000005f0: cad7 0bb3 3f17 873f 4960 ef9e 2999 a63f
00000600: 3b1c d71a 6ff6 b23f 647a 68f2 885e 9e3f
00000610: 8800 c2bd 7ce3 ad3f 0ed8 67cc 5506 c33f
00000620: 66f9 07e1 d6d3 8c3f a846 bc2f f0f1 9ebf
00000630: e231 dd08 6878 b2bf 9934 174b 52d6 a33f
00000640: 5165 6d38 c354 a63f 1780 c5ba 68d2 b4bf
00000650: 2fe9 fa0e d355 aebf 9664 39e7 c733 b13f
00000660: de12 c3aa 355e b13f 301c f33b 32ca b43f
00000670: 50e1 0251 5743 a93f b66d d328 70f2 b2bf
00000680: d91c 2583 2870 b7bf 99e3 292e 269b b6bf
00000690: a21d 0697 c750 b7bf bbee c2ef 345a a8bf
000006a0: 23b5 512e f873 a8bf 4106 3369 791c b0bf
000006b0: 2788 8f21 c2fb 8e3f 8887 572e 2584 b1bf
000006c0: 99f7 7945 240e b6bf b3b4 8701 6c30 94bf
000006d0: 598f 4902 d4cb b23f 46e8 1aaf 824d b9bf
000006e0: 4456 ea41 786c b1bf e28e 39e1 04df bbbf
000006f0: 5e52 3544 17fa 9dbf 33b4 22ac 83c3 9abf
00000700: 8ed0 154a e23d 99bf 9ae9 a9a9 e785 aebf
00000710: 0b84 7b72 6b00 99bf f613 17ed f6b5 923f
00000720: 47ce 28e4 4ada b93f 99a7 7613 3a25 b8bf
00000730: 3bf7 0a3b 2340 ac3f b4b0 a9e1 dde0 cd3f
00000740: 5509 fc50 885c a43f 41b2 4e63 31e0 b9bf
00000750: 72c8 fba9 89f1 b8bf d8a9 c5c1 ffb4 9a3f
00000760: 9a86 41fd 28fa 9dbf 7a3b 9fca a7d7 883f
00000770: 5831 dd05 0c1d 9fbf efd5 8855 79c0 78bf
00000780: 681e e11e fb69 b4bf d596 b0b1 59b9 b3bf
00000790: c7ee f0e5 63a1 823f e4a0 bdc9 f81d a13f
000007a0: 4439 689b 6ec9 4e3f 8889 77ed 8363 70bf
000007b0: 059b 8a31 11e5 b5bf 1530 6013 e1fb 9fbf
000007c0: 3784 0e49 c8ad ab3f 1d9f 563f f812 b8bf
000007d0: ca45 c267 8c94 ae3f 1590 2461 5d20 973f
000007e0: 07cb 13a7 e416 b73f 63b1 7b15 e618 ab3f
000007f0: 14b3 df58 6665 ad3f b528 f234 d001 a43f
