Yahtzee/ModelsNN2/version_3_model_7.pt (torch, 679526 bytes, 24 tensors)

policyHead.0.weight f8 [128, 50]
0	0x3fc06a94188e005a	0.1282525176902734
1	0x3fc58e57d97b6169	0.1684064685748681
2	0xbfbaf53685c5a1e5	-0.1053041531173516
3	0xbfb38fc492ed9932	-0.07641247355568195
4	0xbf9ba7c04a0167d9	-0.02700710727399511
5	0x3f933faa497a30d3	0.01879755090207953
6	0xbf92f6c73e981c5f	-0.0185195095018823
7	0xbfced3661ae8a5cb	-0.24082638086228622
8	0xbf596f039825ee31	-0.0015523467160097999
9	0x3fad8b642c9b29cc	0.057704096264916765
10	0x3f939d71ae802342	0.019155288959186174
11	0xbfa5eb8e04fd04c1	-0.042812765225343614
12	0xbf43b40efad0a4d5	-0.0006012986319820177
13	0xbfb1c4c8d578bca3	-0.06940894328794171
14	0x3fbe2e8d614d2fba	0.11789783120656142
15	0x3fbd66a8ab0a2feb	0.11484769988800252
16	0xbfb50ead1a0b5e8e	-0.08225519071435825
17	0x3fa3757c4b529d53	0.03800571841685021
18	0x3fd0ab3fd66e76c6	0.2604522317941299
19	0xbfa52f2524714ca1	-0.04137531347137125
20	0xbfac7758ac8e6943	-0.05559804064178533
21	0x3faeabc9adda1866	0.059904386970672616
22	0x3f8bb0d3fc6995ab	0.01352086652804981
23	0x3fb8c799a8f3d122	0.09679565787138647
24	0x3fbbf1fefea708b4	0.10916131703473547
25	0x3fbe2a90c12580d3	0.11783699717989586
26	0xbfa972ebcdbbcc96	-0.049704903472865755
27	0x3fa790439db8e4ae	0.04602252292938523
28	0xbfa7e5344ad51215	-0.04667056478004753
29	0xbfc0c94ed037d99d	-0.13114342848684837
30	0x3fb6544184ec0f18	0.08722314353149974
31	0xbfc18cd4f39eec0b	-0.1371103467516551
32	0x3f143eb6cc8c35ec	7.722845760956665e-05
33	0xbfbaa4f09eecfeef	-0.10407928352378425
34	0xbf86118072fb9d8c	-0.010775569447516252
35	0x3fc0e61b5ff4e2f5	0.1320223063028362
36	0x3faee105748de3e9	0.06031052634984475
37	0xbfab3f34b67b7253	-0.05321659781995849
38	0x3fb607bdc9a26aad	0.08605562374797655
39	0xbfb4cd93dbe81b9a	-0.08126186484160627
40	0x3fb74439da23d11a	0.0908847959106577
41	0x3fc2987fc0fba787	0.1452789013194968
42	0x3f7f233ab769984e	0.007601956711914394
43	0xbfc0b4c175af6a90	-0.13051622625683423
44	0x3fb00d830fa2fa20	0.0627061761069645
45	0xbf9549d9ec1fe88c	-0.020789532696632793
46	0x3fa7822971935f01	0.04591493140622838
47	0x3fbdd0632f548005	0.11646099000472539
48	0xbfbd5d7b74af0b94	-0.11470767592167724
49	0x3f9ea97dd39ae4d3	0.02994343380007509
50	0x3fb5b24e01746632	0.08475196395411258
51	0xbfa38250480d6240	-0.03810358886284293
52	0xbfc3fe21cf30f45a	-0.15619299523123936
53	0x3fc0e0d7a20e42cd	0.13186164296032246
54	0xbfc41f1d33fc075f	-0.15719952619843533
55	0xbfc174caf5aab818	-0.1363767337365409
56	0x3fbdd1c29534e0ce	0.11648193495500722
57	0xbfc6ee62e5750e46	-0.17914997295348395
58	0xbfb3ac1e1376e984	-0.07684505439002548
59	0xbfb77b1dd7834948	-0.09172235976737853
60	0x3fbe66cce4e9aa73	0.11875610912981376
61	0x3fb18c39219861f8	0.06854588575550469
62	0x3fad2494f0f074a3	0.05691972199586217
63	0x3fb7fb708e7f9e7f	0.09368041495292266
64	0x3faa756222baccb6	0.05167681383081783
65	0x3fbbd43f96d097f6	0.10870740348818217
66	0x3fc50af7f93cca47	0.1643972365360062
67	0xbfd20282ee19ea95	-0.28140328647683904
68	0xbfa65101decc23db	-0.043586786696387235
69	0xbfcb4a3aecfa5fb3	-0.21320282527153508
70	0x3fa6417bff8b5665	0.04346835607945535
71	0x3f958350e872728a	0.021008743464892045
72	0xbfbabda4d01565be	-0.1044562347427904
73	0xbfc0e78584def743	-0.13206547725524773
74	0xbfa5e0ace8aabc8b	-0.04272976246044732
75	0xbfa5fa5791f2127c	-0.04292558342516359
76	0xbfb36fa04d5ca4b1	-0.07592203034131974
77	0xbfacc6e83c44547e	-0.05620504127197366
78	0x3f94cba543b8d872	0.02030809617846114
79	0x3fb2b98fe30630b4	0.07314395229895149
80	0xbfbe45358c7d8db4	-0.11824354820196598
81	0xbfbe9b6738f5d09c	-0.11955876484518274
82	0x3fc79192658c0f16	0.18413000067095514
83	0x3fc25bd04456cd77	0.1434269269644621
84	0xbfc6a33e77a9126a	-0.1768568119315604
85	0x3fba15cc71970338	0.10189512036505455
86	0x3fb18d8bc2660e6a	0.06856606956540082
87	0xbfa6b382d152fd73	-0.04433831029154591
88	0x3f85a0235b2c335c	0.010559345455044493
89	0xbf9da8a099bffea0	-0.02896357477584266
90	0x3fc163582f9eb924	0.1358442528266518
91	0x3fb1b62e6183ebe8	0.06918611412758902
92	0xbfb22cd7f8d0e3c9	-0.07099675964936049
93	0x3f83660ab9318015	0.009471973206189014
94	0xbfafd1df7d32116d	-0.062148078949607256
95	0xbfbf03b3f84326fb	-0.12115025340167655
96	0x3f964649e778677d	0.02175250506670733
97	0xbf91de56814567e6	-0.017449714317400743
98	0xbfb1a637d1529fc5	-0.06894253597658835
99	0xbf9f0b4d7972286d	-0.030316553628417276
100	0xbfb3437b1541ad44	-0.07524842518767111
101	0xbfa89119c4c483ac	-0.0479820301718584
102	0xbfc72d833076b650	-0.1810764300002341
103	0x3fa4a21de59b0cf5	0.0402993529110293
104	0xbfb518e2704240f3	-0.08241095772450872
105	0x3fc0021fc39074c9	0.12506482171094138
106	0x3fadfc7ea6668241	0.05856700688605488
107	0xbfc3be989da41135	-0.15425403306302035
108	0xbfa8f5311a353bc5	-0.048745665024959396
109	0x3fb6fd5a73ad9239	0.08980336498422838
110	0x3fb2c2b096c42442	0.07328323059859179
111	0xbfa87c53d6bf1623	-0.047823543514408116
112	0xbfceb8779ab46e34	-0.24000449232049592
113	0xbf9a3aa24cb7b4b3	-0.02561429589507176
114	0x3fb6f4770c85d1fe	0.08966774039965483
115	0xbfba0ec98e1a9f54	-0.10178813666663916
116	0xbfc19490478219f7	-0.13734630099879983
117	0x3faedba663c8bdb1	0.0602695462042634
118	0xbfcc85843ab80fce	-0.22282460086000672
119	0x3fbf95adf3261d72	0.12337767778637046
120	0x3fb8b0d46fc301a4	0.09644820908125112
121	0x3fa6d397bea5d7af	0.04458307459110188
122	0xbfbfb9a535a89442	-0.12392647323629638
123	0x3f543f09395d2150	0.0012357320860748207
124	0xbfb554961899c403	-0.08332193470575082
125	0xbfb3ed29635b8514	-0.07783754993171882
126	0xbfbef38b6497e596	-0.120903694209025
127	0x3fb72f8d3c0c606c	0.09056933132194595
128	0x3fbf3d7506792770	0.12203151138342405
129	0xbf78b6fd5a2c3c5e	-0.0060338875362183336
130	0x3fa698a4871b40a7	0.04413332127808305
131	0xbfba7acbd36946b6	-0.10343622123152837
132	0x3fa2c13a384609d5	0.03663045823033754
133	0x3fb1805ac7af3b8e	0.06836478591070103
134	0xbfa58f6c6ff7cfb4	-0.042109860103578894
135	0x3fb0af0e15e88dd5	0.06517112765191453
136	0xbfc125fc07d2dc4e	-0.13397169477477394
137	0x3fb757173823a49a	0.09117264862620048
138	0x3fa4d1feb3640658	0.040664634130746335
139	0x3fb805281e2c43b9	0.09382868515628119
140	0xbfad1f6893ad6338	-0.05688025286389692
141	0x3fb6a4fe789923ea	0.08845510906498047
142	0xbfc0fe0d789200c5	-0.13275307070944656
143	0xbfa2db21b6cd1a4a	-0.03682809215984102
144	0xbfd05bcff0a38a85	-0.25560377597700096
145	0x3fb40cab95375193	0.07831833260508451
146	0xbfbd16191779da88	-0.11361843894142443
147	0x3fad8790fbcc5e2a	0.057674914109324085
148	0x3fbd3700d5908d08	0.11412053312283288
149	0xbfc0d070994fad6b	-0.13136107908153902
150	0x3fc0dd8ee0e69ad3	0.13176141721233722
151	0x3fa712691e800e22	0.04506233689610563
152	0xbfba88d94e97e5f9	-0.10365064781935719
153	0xbfb32d81eec808ae	-0.07491314010261149
154	0xbfaa7a019ebb7087	-0.05171208441399338
155	0xbfbbaa74e8310e41	-0.10806971234074415
156	0xbfba69cb35d2d2c4	-0.1031767851262187
157	0x3fa09816532f8265	0.032410333303918994
158	0x3fadfcf2ccfadb95	0.05857046844669537
159	0xbfa9fa64e3e0f382	-0.05073848039362529
160	0xbfb22460168ccf3a	-0.07086754370248807
161	0x3fbed1e95e904903	0.1203904968136023
162	0x3fa5d8a14c792e37	0.0426683812953254
163	0xbfc9b758835c0661	-0.20090776838337646
164	0xbfc85f9e68b00711	-0.19041805373859025
165	0xbfc1cd6a0d637a17	-0.13908124593486157
166	0x3fb0987d8d30ce89	0.06482681939160718
167	0xbfc019b211879df8	-0.12578416686959293
168	0xbfcf5d43c7d0b2e6	-0.24503371483424202
169	0x3f8895ad6ae71838	0.012004237008010774
170	0x3fae403e66f7a029	0.05908389098095796
171	0x3fb98255766c370c	0.09964498654536785
172	0x3fbdcb550cb130c5	0.11638385352961496
173	0xbfb7495e963db969	-0.09096327941890582
174	0xbfada62a18ead008	-0.057908359090475925
175	0xbfc1208744858d0a	-0.13380518766198463
176	0xbfb08735c670d02f	-0.06456314177268106
177	0xbfb8ce23b5e29b64	-0.0968954390578865
178	0xbfb4b5f2a18c4368	-0.0809013027576505
179	0x3f8ea8cf284fa8b8	0.014970415513705468
180	0x3fa7a8f3981b9dd5	0.04621087295327767
181	0x3fa885b1745253c5	0.04789499802533429
182	0xbface4ac935b2320	-0.056432145107072396
183	0x3f34b5abddd6e186	0.0003160042377561501
184	0x3fb1da81dd549374	0.06974040654729469
185	0xbfbd52c3519f50e8	-0.11454411261303543
186	0xbfc03925f5a4c0f7	-0.12674402708353913
187	0x3fb4eb9ca0473da2	0.08172015107196853
188	0x3fac20a695ad1710	0.05493660523511157
189	0xbfb86463e7ff5d21	-0.09528183378221346
190	0x3fb393a368d6604e	0.07647153195864684
191	0xbf7a31a290321490	-0.006394991886854787
192	0xbfb3f200fa73b5a7	-0.07791143526602316
193	0x3f770840aff11a5f	0.005623104748400636
194	0xbf9a5aaa5149dbda	-0.025736485682923284
195	0x3f932d4609db2278	0.018727392531931092
196	0x3fc10a3ef3f0b9b6	0.13312518035077198
197	0xbf9e2c2e6f5dcbe8	-0.029465413615479635
198	0x3fb399341357405b	0.07655644867122773
199	0xbf8988a1abcadbd5	-0.012467635207355979
200	0xbfa05f13db3db8de	-0.031975384247617575
201	0xbfb0e73a34d063e7	-0.06602824963955777
202	0xbfba2f719f0d38ff	-0.10228643544289538
203	0xbf9ec644ad3bc0d2	-0.030053208421066575
204	0x3fbe2d159993dea2	0.11787543296292793
205	0x3fac60e08e213d4a	0.05542661414130608
206	0xbfcad8762960fe22	-0.20973088283970848
207	0xbfcba673b134daeb	-0.21601720955523915
208	0x3fb16bf1a949fc55	0.06805334456474672
209	0xbfcf1900410dc5f2	-0.24295046974616202
210	0xbf9b9a3a6d276212	-0.02695552149984521
211	0x3fa1fe98fb2491ab	0.03514555040081587
212	0x3fbaefbbab40b0fb	0.10522053652738698
213	0x3fb76ea4b7d1601d	0.09153203475705181
214	0xbfc6d268ceffea83	-0.17829618556409707
215	0x3f94b9ca395be373	0.020239982367431474
216	0xbfb77708ae430505	-0.09166006330908168
217	0x3fc66eb617561424	0.17525364055123405
218	0xbfb5e3f22d66d594	-0.08550943001212935
219	0xbfc4ff17b63a8a05	-0.16403480909237103
220	0xbfbf6a74c7e1a88e	-0.12271814231795217
221	0x3fbc638155b0e74a	0.11089332906786101
222	0xbfbdad0f7d6aa7e0	-0.11592194377831744
223	0xbfbc30c8853d4038	-0.11011937382613801
224	0x3fbbd7b56445d988	0.10876020143573417
225	0x3fc18f8b168bd173	0.13719309426199863
226	0xbfb9f1016bf3548a	-0.1013337029028937
227	0x3fa3927a020176ea	0.038226902718390424
228	0xbfba6ce97f4e1f1f	-0.10322436674152556
229	0x3fa2d79080242242	0.03680087627623553
230	0x3fb133277f51ef2a	0.06718680246734424
231	0xbfc1966196bda268	-0.13740177021397249
232	0x3fbe989d45ce9f28	0.1195162101199655
233	0x3f7fc5a1d7260d15	0.007756836117894812
234	0xbfc1c4797659e20c	-0.13880842474806376
235	0xbfc0fa37196a338d	-0.13263596287688664
236	0x3faf5ce10e0f0db1	0.06125548645607227
237	0xbfd025e7be9c660a	-0.2523135529932864
238	0xbfbb4b7d23cd6200	-0.10662061809615153
239	0x3fc1162125174d54	0.133487837897159
240	0x3fbf2496c313734e	0.12165205252263186
241	0x3fabc4c15af4c6b2	0.0542354987650361
242	0xbfa01bc48f291a4f	-0.031461851573614134
243	0x3f8293d30674b57b	0.009071015009420638
244	0xbfb0e35a40cdb0e3	-0.06596912462345332
245	0x3fbcf781d4e63775	0.11315165946709078
246	0x3fba7d71f451d5ac	0.10347664084277736
247	0xbfce1338f82c81f2	-0.23496162526954795
248	0x3f3226f24b760e25	0.0002769795932737482
249	0x3fb8d131bd6e4d84	0.09694205164696795
250	0xbfb51d70603ed5ce	-0.08248045301191739
251	0xbfcc6565e7ece529	-0.22184442352753678
252	0xbfcd264ffbf9d1e2	-0.2277317028380273
253	0x3fa90fc06206ab47	0.04894829937560146
254	0xbfcf0e3c6692645c	-0.2426219464148599
255	0xbfadd5a271a5b8a3	-0.05827052724167572

policyHead.0.bias f8 [128]
0	0x3f90182b55facdf0	0.01571719848898384
1	0xbf632de2c17f1dc5	-0.0023412159752955485
2	0xbfc393e6294f3e5b	-0.15295102135722768
3	0x3f897d2f48056af3	0.01244580210248134
4	0xbfc630bb4a184aea	-0.1733621703902693
5	0xbfb361715fd44977	-0.07570561017590714
6	0xbfb295de4db404f1	-0.0725993098931388
7	0xbfb398de66862c19	-0.07655134203939475
8	0xbfa130eb23db2c26	-0.033576343657465466
9	0x3fabb983e3258c66	0.05414974353586714
10	0xbf87f2f38455e7dd	-0.011693861461697647
11	0x3fa24dbeaf9f9569	0.035749396265411466
12	0x3fac6f2c71f9b8e0	0.05553568736364567
13	0x3f9f16ce7c90e8f4	0.03036043772974835
14	0xbfa45caa49037cbd	-0.03976947919158522
15	0xbfc1b4aac56b6a9a	-0.13832602157238655
16	0xbfb365ab19077dab	-0.07577008591714811
17	0x3f77df8e2db775e3	0.005828433404045682
18	0xbfaaddb9389e6d8d	-0.05247286621235068
19	0xbf736cb9bd493b5f	-0.004742360634351821
20	0x3f91afffbbf0bb8f	0.017272945257157665
21	0x3fbabce790dff7c1	0.10444495474800332
22	0xbfc43902998bec10	-0.1579898118723979
23	0x3f93fbe409ac9334	0.019515574541532035
24	0x3fbdb1933f7dab52	0.11599083232947052
25	0xbfaf6e79043241d7	-0.06138971496796202
26	0xbfb407e660177837	-0.0782455429648231
27	0xbfa9c5e9a051bca7	-0.050338078327393725
28	0xbf9e61693d800f0d	-0.029668468836475493
29	0xbf9826a9626c78eb	-0.023584982521350033
30	0xbfb646a65452c8ab	-0.08701552923847326
31	0xbfba4ad04ef6c02b	-0.1027040665419469
32	0xbfa642a1827476f3	-0.043477103399920745
33	0xbfc5f6971e6d0b63	-0.17158783898966154
34	0x3fa17978af787615	0.03412987844442853
35	0x3fb0cb3072b19fb4	0.06560042190687804
36	0xbf6423be9cb2c9e2	-0.002458450593246329
37	0x3fc057633b4bb853	0.12766685862829039
38	0xbf933d3968865da2	-0.018788239483539144
39	0xbf91eaa5ff0c1c37	-0.01749667519746031
40	0x3fc3959d503b405b	0.1530033723597651
41	0xbfb4ea8231fa3fcb	-0.08170331688074765
42	0x3f978d4c59620d61	0.022999947505480182
43	0xbfbc72783460fe22	-0.11112166670590587
44	0xbfb7fa5973e19328	-0.09366377905969314
45	0xbfbed772b6b18235	-0.12047497711456219
46	0x3fa630e44015be2c	0.0433417633274725
47	0x3f9729855996c706	0.022619327157094048
48	0xbfa80d059ae9bd78	-0.04697434917477045
49	0x3fa739b714d249c6	0.045362206737212626
50	0xbfbb4ac32aac6e72	-0.1066095332320687
51	0xbfc5145204dadacb	-0.16468262898498262
52	0x3fa6538e1facd6c0	0.043606225363345796
53	0x3f5ed001f20cc921	0.001880647563848266
54	0xbfa3437caf1cec17	-0.03762426030740345
55	0x3fb09ab9d4d8513a	0.06486092993174433
56	0x3fb185f5d179d358	0.0684503208556867
57	0x3fbb324ec0cb2ed9	0.10623638350369492
58	0xbfc4d2cff269a9de	-0.1626834806114194
59	0xbf9ccae82ec6df7c	-0.028117778639824106
60	0xbfbbfdbb4ec8e299	-0.10934038804487968
61	0xbfa35c7702f15b0e	-0.03781482611582564
62	0xbfb1c85c5cb55a1a	-0.0694635130251772
63	0x3f921f36b13e3f9f	0.0176971955948485
64	0xbfb31dcb8b5ce16b	-0.07467338707363573
65	0x3fbba56577b35df2	0.10799249813441472
66	0xbfba268552f7f80c	-0.10215028071976934
67	0xbfab0501d66961c6	-0.05277257673577966
68	0x3fc147df3386e115	0.13500585571251436
69	0xbfc46102d6b517aa	-0.1592105434776248
70	0xbf63b7747162532a	-0.0024068140292662537
71	0x3fbb1b010f47dd0d	0.10588080046715138
72	0xbfbd4125453de977	-0.11427529278254221
73	0x3fa69e358d6e03cd	0.044175790323613386
74	0xbfadf8a3eec3ef2c	-0.05853760041824638
75	0x3fb3c8675692633e	0.07727666724748603
76	0x3f9dd077f1ad864e	0.02911555683693328
77	0xbfac6f625d132a07	-0.05553729425590253
78	0xbfb4bb224e97f825	-0.08098043841161535
79	0xbfb72d55c5a1c65a	-0.09053550791738854
80	0xbfaafccb0ed418d0	-0.05270990901958472
81	0x3f97c10c77c96b7f	0.023197359858709184
82	0xbfc2b0a368c69fee	-0.14601557365426693
83	0xbf864617687c1020	-0.0108758763085533
84	0x3fa665ce010f3cb8	0.043745458249412505
85	0x3f9c46fccf145eb2	0.02761454595483199
86	0xbfbd127452c1ab4a	-0.11356284161017274
87	0x3fc07ae1a18d26de	0.12875004184961986
88	0x3fb75e1742d2f760	0.09127946263740006
89	0xbfb6b17e1ab6c9e6	-0.08864582206914626
90	0x3faf3187fb6590da	0.06092476791198616
91	0xbfab21800ba5326a	-0.05298996107248828
92	0xbfaa58ce3e1dbe5b	-0.05145878322843763
93	0x3fba4c960ecef827	0.10273111211333284
94	0x3f9adba0a99ecde9	0.02622843776016551
95	0x3fa962f252308750	0.04958302739420495
96	0xbfc005624179b2c1	-0.1251643008903525
97	0x3f91c8e747c379ef	0.01736794829855087
98	0xbf8127301218248a	-0.008375526001161999
99	0xbf9506305055a6ad	-0.020531420615418728
100	0xbfb3cf2e92c937bf	-0.07738009532587763
101	0x3fa1e6f79f54494b	0.0349652654641824
102	0xbfa3e442f9a360cd	-0.038850872968113494
103	0x3f876a1d0a671edd	0.01143286407467719
104	0xbf9df4c6b5f8ec96	-0.02925405965491431
105	0xbfc2a462c5f42ab1	-0.14564165750228633
106	0x3fafb6e8be455c5d	0.06194236109393423
107	0x3fabbdbd35b5f5de	0.0541819694580956
108	0xbfbf9cbbcfd71e30	-0.12348531555391484
109	0x3f9c661e1b2a18c3	0.027733297737108097
110	0x3fbccdf96bf899e5	0.11251791845334187
111	0x3f978ca7ca8c7384	0.02299749540098929
112	0x3fb0f067714d3659	0.06616827503349877
113	0x3f9ee14f22a7d7de	0.030156361093723542
114	0xbf9195df4282d1d7	-0.017173279222974926
115	0xbfa61c68cde278ad	-0.04318549645653156
116	0x3fb455b07bd9576f	0.07943251632363311
117	0x3fb686d667ac8f55	0.08799495726685554
118	0xbfbc77dd20ee3089	-0.11120397619214563
119	0x3fc6ecff8218a64d	0.17910760738714018
120	0x3f9ede29498979ae	0.03014435302099521
121	0x3f864a008fa7e75b	0.010883335479764325
122	0xbfc65185fac86c47	-0.17436289544352432
123	0x3fc01de6581b0103	0.12591246892953487
124	0xbfb899e457850eb7	-0.09609820496285236
125	0x3f85ef9d6effb9c5	0.010710935544889897
126	0xbfb72c1764503e48	-0.09051653098162504
127	0xbfc2682a07be5fa6	-0.14380383852107775

policyHead.2.weight f8 [128, 128]
0	0xbfc3c272b697fd46	-0.1543715850420801
1	0xbf90ba1f2055248f	-0.01633499750940764
2	0x3fc68b1810c78bd8	0.17611981219587736
3	0xbfc2a3b218d12f64	-0.14562059604429145
4	0x3fbcb7ee406c2851	0.1121815593034239
5	0xbfa84d8ecd769828	-0.04746671922775675
6	0xbfcbbf3e9ae215c3	-0.21677382052091163
7	0x3f96562d5f128632	0.021813115051037175
8	0xbfc48477bedaa5bf	-0.16029259509131852
9	0xbfbff3732236a80a	-0.12480849824228826
10	0xbfa039e2401147a7	-0.03169161827157945
11	0x3fbc57bc7524d160	0.11071374759632624
12	0xbfb1771752efe0b4	-0.06822343611554765
13	0xbfb1ad926e8e4e06	-0.06905474852674595
14	0xbfc290c76071ae43	-0.1450432988088882
15	0xbf94c81f6eed49ee	-0.020294657845917934
16	0x3fa1774f7c068e65	0.03411339177116871
17	0x3f97281b5dbef72d	0.022613933178710233
18	0xbfa66cd793f307c7	-0.043799149332258085
19	0x3f87964fbdd2f414	0.011517165165395617
20	0x3fa84033dca29bd9	0.047364826853758486
21	0x3fbcfde798468f4d	0.11324927776018719
22	0xbf8d336bbf027531	-0.014258233801508343
23	0xbfb599d9269169d3	-0.08437878791429591
24	0x3f7bed9e1f186122	0.00681840673635062
25	0x3fb7537a848ce6a7	0.09111753212064376
26	0x3fc1cd36c7453889	0.1390751336097689
27	0xbfa953afc57cfebe	-0.04946660314317118
28	0x3fc2849024399bb7	0.14467050331879047
29	0xbfb04bdafe468a52	-0.06365746219538806
30	0x3fb7ca742b7fffb1	0.09293294965755085
31	0x3f9118e37c3077d9	0.01669650502673634
32	0x3fcbb49257bb5474	0.2164481094720575
33	0xbfb2ca69149572da	-0.07340103867086203
34	0xbf9e962975abc1a9	-0.029869697386801928
35	0x3fab283f3cf70b8b	0.053041435424822835
36	0xbfbd7fe98c4e073c	-0.11523303676042657
37	0xbfb61a2eafd1157e	-0.08633701126480806
38	0xbfa843d72c9e12f2	-0.047392582127065
39	0x3fc3669d567377f3	0.15156904908411625
40	0x3fbccc0fefb135bd	0.11248874284611694
41	0x3fcb29fb6d2605d9	0.2122186930610457
42	0xbf7f22fff2da0a34	-0.007601737784741536
43	0x3fc31103ee0e701b	0.14895676730964244
44	0x3fba7599651db2f6	0.10335692137386929
45	0x3f97a864e4f5b552	0.02310331008395867
46	0xbfa74929ad422a0b	-0.04548006286593783
47	0xbfa6adb733b25758	-0.044294095097184794
48	0xbf8a841297fd2cb3	-0.012947221053443014
49	0xbf808d0cef1ba9ec	-0.00808153252315421
50	0xbfbc132b69b7c0ff	-0.10966750460625362
51	0xbfc7abbb7189e38c	-0.18492835086706483
52	0x3fb1f3a19bd4db02	0.07012376837233705
53	0xbfc406d356f6cd25	-0.15645829912464496
54	0xbfc2c715204b4fa4	-0.14670051648010685
55	0xbf72656ad7563ccb	-0.004491250370292475
56	0xbf8c2054bb21537f	-0.013733541451225182
57	0xbf94af479c058df3	-0.020199889085587185
58	0x3fb7ce305ecb63b1	0.09298994364088632
59	0x3fad7dd7e7d2e524	0.057600733803562926
60	0x3fc8402524bbd81c	0.1894575528492063
61	0xbfa7955aeb808f56	-0.04606136441023405
62	0xbfb124ad8d0f115e	-0.06696591085262102
63	0x3f9b1076901ecf56	0.026429989382179407
64	0xbf9a70b43c3c0eb5	-0.02582055680888003
65	0xbfa53cf739c0f0e3	-0.0414807565689175
66	0xbf956a1faef879cf	-0.020912642530783117
67	0x3fb0e743ec85afda	0.0660288288542569
68	0xbfbfba02b6866c6a	-0.12393204647234915
69	0xbfb75c82b488b9bd	-0.09125534923143781
70	0xbfb962745332a9d6	-0.09915854483794048
71	0x3f9460bc243d48d5	0.01990026446521472
72	0xbfbd75e981a96468	-0.11508044639175952
73	0x3f9754437ca1c0f7	0.02278237770264099
74	0xbfb9bb867a5406bd	-0.10051765905884742
75	0x3fb2c94c11a252cf	0.07338405066031871
76	0xbfba0f6ea8dfccc3	-0.1017979776659557
77	0xbf930f3146fa63a1	-0.018612642247351045
78	0x3fc6af8220a58227	0.17723108858173584
79	0x3fc47a776cd248dc	0.15998738111063104
80	0x3faf3c8fb58ddc88	0.06100892153966081
81	0x3f89a6cca87bd81b	0.012525175945011615
82	0xbf8540134d80254e	-0.010376120379094769
83	0x3f8c7db8b1ddfc37	0.013911669662546184
84	0xbfa26cac7c0b425a	-0.035985365049445675
85	0x3fb69b8109ffee66	0.08831030363210743
86	0x3faacac1d34f25d4	0.05232816414315847
87	0xbfa67e8816bd7475	-0.043934109474073425
88	0x3fcdb1fd0c267860	0.2319942769362937
89	0x3fb0b7741de70492	0.06529927949942962
90	0xbfc7713bbdcb1a24	-0.1831431080556324
91	0x3fc3aa93f70d6c7a	0.15364312708956956
92	0xbfbafca9f2c8dbd8	-0.10541784455641279
93	0xbfb7d7d387001274	-0.09313699766068756
94	0xbfa28a39f6b96c14	-0.03621083390017801
95	0xbfb1a8c704b4076a	-0.06898158898186826
96	0x3f828031f98ca98c	0.009033575466294484
97	0xbf934d76763a4a26	-0.018850184408231517
98	0x3f996c5a3f47bc4f	0.024827394592588366
99	0x3fae9250555849b8	0.05971003572280459
100	0x3fb0ae9f1a7356cd	0.06516451259389129
101	0xbfd1541efc54e505	-0.27075934068450663
102	0xbfb7867c2f27cba8	-0.09189582968956123
103	0x3fb83392223f6474	0.09453690849422164
104	0x3fb063fb5a517d4b	0.06402560191189825
105	0x3fa1b5cc5c1d7a0f	0.03459013580753744
106	0xbfc383656f3c951e	-0.15244739467122143
107	0x3f9f2d5ab40b2e76	0.030446450461381912
108	0xbfb1e7d6d311ea0c	-0.06994383481097816
109	0xbfb2d569a51a90b8	-0.07356891899923113
110	0x3fbaaa9c5c6e7b65	0.10416581398611198
111	0xbfbc25eff73f3745	-0.10995387827207732
112	0x3fa124a05b71d0e2	0.03348256222025882
113	0x3fb33bda7681fc22	0.07513203995948506
114	0x3fa8fbea512e6fc9	0.04879696122154049
115	0x3f759826e3d2b846	0.005272056497387883
116	0x3fb64711bd1307b2	0.08702193132469807
117	0xbfa2d4d8ac041640	-0.03678013896755461
118	0x3f75db1c6679d45f	0.0053359135996418885
119	0xbf8d20b0f360f7d9	-0.014222509791689862
120	0x3f9212c5e5398bd9	0.017649738422175296
121	0xbfceff66910beb07	-0.2421692093119747
122	0xbfb330aef739450a	-0.07496160064444637
123	0x3fb66055d2868698	0.08740745916159154
124	0x3fb29bba9570ef10	0.07268873356309435
125	0x3fb062c962928129	0.06400736481237303
126	0x3fc2127af9fdbcc7	0.1411889763507814
127	0x3fb70066bbc6246f	0.08984987339330684
128	0xbfb1a51d3dac3575	-0.06892569308930326
129	0xbfac658ed74642fe	-0.05546232583868081
130	0xbf94b230cc4fd480	-0.02021099326153264
131	0x3fadac49808bd716	0.05795507139366245
132	0xbfb18e92d48b74a5	-0.06858174981194283
133	0x3fb287ac12b63e18	0.07238269287903909
134	0x3f8feb3a11797bfe	0.015585378320961848
135	0x3fa71c1a60860c62	0.04513628414408612
136	0x3fa618f944c41635	0.04315928425243635
137	0xbfb87a5971306940	-0.09561690343290241
138	0x3fad8636786c088c	0.05766458721156295
139	0xbf7bd1da6a24a34f	-0.00679192846499961
140	0x3fb54f1ad9e85cb3	0.08323829479228344
141	0x3fb5cbc58c9fff00	0.08514055903651396
142	0xbfc2874ebb436017	-0.14475425857267574
143	0x3fa71f1cdf276a22	0.04515924667403605
144	0xbfd1345c534b70f6	-0.2688208402085047
145	0xbfa7e78c483e94bb	-0.04668844587221473
146	0xbfaa42a4910a205c	-0.0512896945047607
147	0xbfc339077b62eed2	-0.15017789387444808
148	0xbfc0df2e6bd8c3c3	-0.13181095376924476
149	0xbf7ae2c76b802ea9	-0.006563929542618454
150	0xbfc5829dc406284d	-0.16804859229552208
151	0xbfb80bcca7bde08d	-0.09393004508263143
152	0x3fa0bbc3f32fbad3	0.032682536540837547
153	0x3fa46c4371330482	0.039888484543106464
154	0x3fa5ff706b15fbe2	0.042964470932012735
155	0xbfa82527a129ac9d	-0.04715846865004745
156	0xbfc50aafa88bcfa1	-0.16438861589233247
157	0xbfaa10e44f474b08	-0.05091012447123516
158	0x3fb17fd62e5c9019	0.06835688239931449
159	0xbfb52b4e8728abd0	-0.08269205856110706
160	0xbfc62e9c8f4f7bbf	-0.17329747197706344
161	0x3fb76191e6f0f1b5	0.09133254898274042
162	0x3f9ca9db3e661c4e	0.02799170082428431
163	0xbfd7a521e2261ed8	-0.3694538792119437
164	0xbfb79f52a2ec7b85	-0.09227482297545293
165	0x3fbb102d53118d2c	0.10571559217492127
166	0xbfb45c22cf80f5f9	-0.07953088346490479
167	0xbfadef1ca34f165a	-0.05846490376965781
168	0xbfc01e4fc53add69	-0.1259250367199727
169	0x3fc772a9e9254332	0.18318675884304408
170	0xbfbad4826d087b95	-0.10480513727132597
171	0x3fa31bb2ff5aaca5	0.037320703192869766
172	0xbfbf50b4bc9b185f	-0.12232522587427884
173	0x3fbd0608f6f64486	0.11337333707185068
174	0x3f943d9c1a80183a	0.019766272656873897
175	0x3fc379da2e60df8f	0.15215613617487775
176	0x3fac85ec1bfe4379	0.05570924607957912
177	0xbf7ee829617988e1	-0.007545625346752711
178	0x3fb3e957d7a5d5a5	0.07777928366507199
179	0x3fcae105f78f05a7	0.20999216640306637
180	0x3fbfa1419c7d97e0	0.12355432577677972
181	0xbf942a86b7f013f2	-0.01969347474734557
182	0x3fbdb5d53f83dafe	0.11605580139790203
183	0xbf9517c8b70057d6	-0.020598541421428106
184	0xbfc158f413714352	-0.135527142995239
185	0xbfa02c3bfaa77a64	-0.03158748087638655
186	0xbfbd52a87fc05174	-0.11454251402785137
187	0x3f9b353c4772948e	0.026570264683546223
188	0xbfb05889def6997e	-0.06385099118651813
189	0xbfb8568e86d697be	-0.09507075111341032
190	0x3fb7d4edd74dafd1	0.09309278971130587
191	0x3fb54ed5038b04e0	0.08323413216114117
192	0xbfb5fc4f8b2c813d	-0.08588120601462364
193	0x3f9164a43e8218b6	0.016985479655453793
194	0x3fc21ed0017c96b1	0.14156532356826326
195	0xbfc7cf4d306205b3	-0.18601384031721366
196	0xbf8d23be9dce067d	-0.014228333655185605
197	0xbf936ea2724782b0	-0.018976724839265102
198	0x3f93cc3b65f1b71a	0.019333770844631372
199	0x3fb1f0d0a4eddde4	0.0700807955416774
200	0xbfcd84db6a90d821	-0.23061697677047824
201	0xbf9ef470f1cfc7b0	-0.0302293441381562
202	0x3f96e1f87aa29f05	0.022346384511052104
203	0xbfbb76df88a26524	-0.10728261075782491
204	0xbfd153c62c94bd4c	-0.2707381663667163
205	0xbf8fbd620009b63e	-0.015497937799604174
206	0xbf976109f9deb24a	-0.022831111789559246
207	0xbf9c19fc80df5c3c	-0.027442880025628322
208	0xbfb9278f23ced253	-0.09825987457481604
209	0xbfb3dec8497b52b4	-0.07761813920962873
210	0x3f683d19dfeb7d5f	0.00295882276201069
211	0x3fb84a5fdb8b2d58	0.09488486394837048
212	0xbfbee38cf4c27a5b	-0.12065964675500977
213	0x3fa347fca2a4750a	0.037658591131029054
214	0xbfb19a8ac1a3ce50	-0.06876437404189883
215	0xbfbfe22352b67a31	-0.12454434174876707
216	0xbfb401ee279746a9	-0.07815445391249888
217	0xbfb8d7fdebdc213b	-0.09704577453897383
218	0x3faf8f97af314070	0.061642398963727696
219	0xbfce1ba292c00869	-0.2352183548501359
220	0xbfc7a72761dd454f	-0.18478863028080147
221	0xbfb7f843f2852c7a	-0.09363197966483652
222	0x3fa4df9d3fd6819b	0.04076854137679505
223	0xbfbe2a8004274517	-0.11783599950219457
224	0xbf8bad29152c3ab5	-0.013513871153489768
225	0xbfb0329db833bb94	-0.06327234027024381
226	0x3fbf17304b2aeb41	0.12144758067271956
227	0x3f8beb5c7ad34e01	0.013632509706815734
228	0xbfb3415bba7efe69	-0.07521603873373696
229	0xbfd30f7f4bcaf0af	-0.29782087709078103
230	0x3fa2f31d368c6c75	0.03701106348872766
231	0xbf8d81484e3cb457	-0.014406742942435864
232	0x3fa6ac1ac100a096	0.04428180318819945
233	0x3f6b412c2513df58	0.0033269750789450096
234	0xbfc9a6e2af33ea8e	-0.20040544085334883
235	0xbfb52e713634b681	-0.08273990224253149
236	0x3fc3ab584a5f0388	0.15366653090861981
237	0xbfa1cad47a599aa9	-0.0347505950310752
238	0xbfacee81ae5bc81d	-0.05650716069602899
239	0xbfb16451c513202a	-0.06793700276750828
240	0xbfc065143ce8a000	-0.12808468793923566
241	0xbfd18aff60468d04	-0.27410873796380053
242	0x3fa2dbd099494a56	0.036833304130273234
243	0xbfbd89f9f86a5b5f	-0.11538660349684225
244	0xbfc0c09871201562	-0.13087754749009678
245	0xbfa9636187870cee	-0.04958634166134766
246	0x3f826f9c4a2e4e62	0.009001942647763165
247	0x3f7b0f3a30775e84	0.006606318761860689
248	0xbfa3f41e5e11c978	-0.03897185228642547
249	0xbf9541f65baf805b	-0.02075943884472085
250	0x3f902ba5387331e5	0.01579149395984016
251	0x3f9afed7408c2773	0.026362765612283078
252	0xbf88a8a37c7d99f3	-0.012040402638103997
253	0xbfa51635967c3ae5	-0.04118506872156561
254	0x3f8cd4374db5eb8a	0.014076644953765944
255	0x3fb62558c27287ba	0.0865073656773622

policyHead.2.bias f8 [128]
0	0xbf5a744ab878ce5d	-0.0016146402066511613
1	0xbfb6db91e23eb290	-0.08928787015492845
2	0xbfa222c8a5ca442b	-0.035421629179048196
3	0xbf96a9ba0fe48c96	-0.022131831378953658
4	0xbfb716e3d4de0242	-0.09019302317575131
5	0x3fb0eb909356b7b7	0.066094432803509
6	0x3f9646e112d3cbc3	0.021754757665757084
7	0x3f91512e68a8e362	0.01691124452392801
8	0x3fac53a50459e009	0.05532565763581949
9	0x3f9b60a15108f2c2	0.026735802241307345
10	0xbfb37cb51237f72d	-0.07612163252630628
11	0xbf9c8fdf6ffbe89c	-0.027892581186258356
12	0xbfa3ddc4c2c40288	-0.03880133512030165
13	0xbf7f929822bf8b63	-0.0077081625749738395
14	0xbfab3f4926ee5398	-0.05321720695716364
15	0x3f9429cc68440f99	0.01969069849384617
16	0xbfbabd419622e969	-0.10445032039107151
17	0xbfb30a19606eef20	-0.07437285045938014
18	0x3f80bef29688d0f9	0.008176703661867612
19	0xbfb4b8e125f73996	-0.08094603707215806
20	0xbfae665ce65626b1	-0.05937471687054819
21	0xbfb0c6ee2bb223ba	-0.0655354363135662
22	0xbfb7dab1de187c76	-0.09318076774842318
23	0xbf76bd165011b548	-0.005551421317347156
24	0x3f9f20807224e47a	0.030397421805194537
25	0xbfb61be113037c25	-0.08636290277671373
26	0xbfb4fd3ed5678496	-0.08198921880786467
27	0xbfb0187b06563bfb	-0.06287354378422087
28	0xbf99b92744f022e1	-0.025120366652148788
29	0xbfb8653cc79babf0	-0.09529476044887963
30	0x3f9a15ef99842a70	0.02547430395592659
31	0x3fa6cb3b5c55da41	0.044519286176115454
32	0xbfb7e1c8fd87bb9d	-0.09328895749761874
33	0xbfb57e36832a5868	-0.08395710661202005
34	0xbfb52eabf304a782	-0.08274340327321109
35	0xbfa4e340f0151b80	-0.040796307856502345
36	0xbf806157d78a044a	-0.007998167290908981
37	0x3fa9b8e58dd3ccc9	0.05023877483645262
38	0xbfbbcf4b04085534	-0.10863179062319689
39	0xbf8c370452f08ba4	-0.013776811390988027
40	0x3fa42976c14290ff	0.039378844348251
41	0xbf9128cee480deed	-0.01675723333047945
42	0xbfaf239accf0e812	-0.06081851722451871
43	0xbf96a6afd1dea6eb	-0.022120234665329013
44	0x3f965884e3d626a7	0.021822048574483912
45	0xbfbd75b5e077caff	-0.11507736902403208
46	0xbfa2702164043a18	-0.03601173730759316
47	0xbfb45fdc7a859cb6	-0.07958772650964616
48	0xbfbf3407c3d6243f	-0.12188766986049958
49	0xbfb09eb71a4acb79	-0.06492180244349112
50	0xbf7f46dfd5fb5c92	-0.007635950430731191
51	0x3f9df3b5576062bd	0.02924998613170503
52	0x3fa7aad2e730587a	0.0462251574719383
53	0xbf83c9e18655a714	-0.00966240111548048
54	0x3f984e699ebd3518	0.02373662024847531
55	0x3f91d870c2ce4961	0.01742721737861908
56	0xbf95ec2292d2663a	-0.02140859624032585
57	0x3fa2e62d2623c1ae	0.03691235628673738
58	0xbfa808de8d22968c	-0.04694266770210928
59	0xbfb3551dd33cda5e	-0.07551752478762228
60	0x3f9626fee0a419cc	0.021633131466865227
61	0xbfa24172d12688df	-0.03565558245760924
62	0xbf96f1647c311da6	-0.022405214386052606
63	0x3f61f039cbfbfd1a	0.002189743885423601
64	0x3fa2fa301a63b8c4	0.037065032216433674
65	0xbfb60e8dd3617d82	-0.08615957651772102
66	0x3fb0290677187dae	0.06312599570855212
67	0xbf742a5251878315	-0.0049231734815016375
68	0xbfa9f22417f1e671	-0.05067551414772432
69	0x3fa1a36d87d0e418	0.03444998057279508
70	0x3f7037a5cf92e218	0.003959319780897384
71	0x3fb471bf2ad09eee	0.07986063761984116
72	0xbf9187c7f26ffe33	-0.017119526073655144
73	0xbfbbdc29ac59b0c4	-0.10882816751262953
74	0xbfb4b2b532262e49	-0.08085186457008676
75	0xbfad82b0f93342b9	-0.05763772050852851
76	0xbfb47e894484a2b8	-0.08005578921132439
77	0xbfbda31ff67cecb8	-0.11577033775113221
78	0xbfa55d45bcc16647	-0.041727237025679424
79	0x3fae3ef9260fd4dc	0.05907419767019359
80	0xbfbd59d551b1077e	-0.11465199703618897
81	0x3f76e28ba9602447	0.005587144425597996
82	0xbf8dace859a6a89e	-0.014489951358730043
83	0xbfb492c1a979222d	-0.0803643263581157
84	0xbf6faf734b9909e0	-0.0038678409444241474
85	0xbfadc3db744a8ae8	-0.05813489718027204
86	0x3fa462eda2c684d0	0.03981726276402642
87	0xbfb4153a78351e84	-0.07844891962769834
88	0xbfa25351a991b3bb	-0.03579192347465417
89	0xbf94e8dc69cbec16	-0.020419544179258585
90	0xbfabae28a8a89bce	-0.054063101375781394
91	0xbfb43e4e5dc621cd	-0.07907571591761738
92	0x3fb0f45a8d03b6ce	0.06622854178177848
93	0xbf923f4122922b9b	-0.017819421515507732
94	0xbfb5b366da2e8740	-0.08476870371535217
95	0xbf9cebb830852b49	-0.02824294849532841
96	0xbfb639727ae726d2	-0.08681407452163661
97	0xbfa092ab2f315e09	-0.03236899329266058
98	0xbfa3dea2f5fa2560	-0.03880795719767138
99	0xbfbad52022cd8cfe	-0.10481453752213452
100	0xbfab66a83e46294f	-0.05351758728200428
101	0xbfb7dd583ee60673	-0.09322120223625933
102	0xbfb36f85bbca346d	-0.07592044672692717
103	0x3fb2cb80df5dc9b2	0.07341771558075186
104	0xbfb46f7e6f0b331b	-0.07982626162556665
105	0x3f91809f2b0b0cde	0.01709221554007178
106	0xbfb5b19f501dd9ed	-0.08474155145618285
107	0xbfb0db32e3b3d019	-0.06584470805302124
108	0xbfa5d0e00652c034	-0.04260921551883748
109	0xbfa4e0477e175b9f	-0.04077361501884202
110	0x3fa4fa7c39bd20ee	0.04097355084246766
111	0xbf935ec51874fab8	-0.01891620599530583
112	0xbf9e07680b00109c	-0.029325128241922557
113	0x3fb4023815a872ce	0.07815886048087892
114	0x3fb2050d09c73e57	0.0703895710823813
115	0xbfb1874b832744a0	-0.06847068740832407
116	0xbfa44bb8cb3eb55b	-0.039640211877989905
117	0xbf734cefb372ab96	-0.004712044078739283
118	0xbf752e9691134de3	-0.005171383048224484
119	0xbfa7ac72faa4f837	-0.04623755750297714
120	0xbf7ffd030b7f5120	-0.007809650320229872
121	0xbf9f7894094e9691	-0.030733407085469514
122	0xbfa0a2c483bf065e	-0.0324918185065257
123	0x3f7e23e687501846	0.007358456136904284
124	0xbfac50560efcc73c	-0.05530041630699009
125	0xbfb0356bf496b49d	-0.06331515046504639
126	0x3f6710a6175f0f36	0.0028155559511747986
127	0xbfbc2b68f6d73429	-0.11003738428480915

policyHead.4.weight f8 [128, 128]
0	0x3fcb6fbe162091cc	0.21434761124068158
1	0xbfc30c11fe44bd9d	-0.1488058558984279
2	0xbfbb61d173367549	-0.10696133673487397
3	0x3f7497e2676ea7ce	0.005027660742522101
4	0xbf7b29ee06814e30	-0.006631784235725344
5	0xbf8797cd8243a773	-0.011520009553766397
6	0xbf9ee285246fc9d5	-0.030160980557363565
7	0xbfb55f6d5eb3307d	-0.08348735391627034
8	0xbfb432c49e35c07c	-0.07889965879962973
9	0xbfa92df272c1cc67	-0.04917867327540009
10	0x3fc50938bffeec00	0.1643439233283459
11	0x3fab560c722ada80	0.05339087384839036
12	0xbfbcc8d7a736c157	-0.1124396117436438
13	0x3faf37b2d5f58839	0.06097182142072239
14	0xbfbb52a04d6fbca3	-0.10672952547587271
15	0x3f95d985fca9f19e	0.021337598368050707
16	0xbf91fc1f9948bad6	-0.017563337069243477
17	0xbf937cf913f2c8fd	-0.01903142151122327
18	0x3fa2638172d056d0	0.03591541792427011
19	0xbfc73f78e55515f0	-0.18162451932782586
20	0x3fb3ab31fd90556c	0.07683098259470506
21	0x3fbce944753e5141	0.11293437826526988
22	0x3fa3ce71b620ae19	0.03868441913831706
23	0xbfb4249980e7e70e	-0.07868346593013717
24	0x3f8c4f38e7131a3d	0.013822979499662153
25	0xbfb00ef5d1227dde	-0.06272827487781948
26	0xbf97b3cb95606201	-0.02314680194112562
27	0xbfb590dc184c9aa2	-0.084241634304457
28	0xbfbe076b1c423a6c	-0.1173006957999207
29	0x3fa8af48692f9ff9	0.04821230205544675
30	0xbfa16315d474159a	-0.033959085640201184
31	0xbfaf9f3fb918b258	-0.06176184782484445
32	0x3fba4204fc19e8d1	0.1025698771935908
33	0x3f6fef95673715f0	0.003898422053427046
34	0xbfae6e13410c0786	-0.05943355721502912
35	0xbfb46d30cc000867	-0.07979111652824288
36	0xbf92393e8fa49bf7	-0.01779649497725796
37	0x3fbef9f2935b59a4	0.12100139710978525
38	0x3f48f4c807777b66	0.0007616020874897488
39	0xbfb94cf9b57462d6	-0.0988308017734981
40	0xbf8c86078ad3d5c6	-0.013927515911272514
41	0x3faf92c32eca79cd	0.06166658350160823
42	0x3f9d6d7b34979109	0.028737950406040578
43	0xbfc0ebd5b7e2b2d7	-0.13219710806642723
44	0xbfc9b858e4e28a28	-0.20093833137532724
45	0xbfa70de959e2b916	-0.045028011534087906
46	0xbf7c48a9f56432b9	-0.006905235195756526
47	0x3fc0e32f11164f5a	0.13193310102780736
48	0xbf957b3c546f5b11	-0.020977919248106384
49	0x3fb26a15c8f72a22	0.07193123012908889
50	0x3fbdae67f0188f58	0.11594247447697847
51	0xbfb3f38a4c8336a9	-0.07793487899763342
52	0xbf92d9d417d296cc	-0.018409074739472328
53	0x3f8770a942c83c11	0.011445352888612733
54	0x3fb8ce8dc5e69955	0.09690176087915366
55	0x3fb6608a6f360dd0	0.08741059508434224
56	0x3fc1c5f1a90fdb7a	0.1388532710550086
57	0x3fbfd2aa04b4a743	0.12430822958836267
58	0xbfa8a51f56879712	-0.04813478404302719
59	0xbfa5dd1b3bf100ac	-0.04270253283221001
60	0xbfbe7478ba52a3b3	-0.11896471547028291
61	0xbfc510272f9edc39	-0.16455545258733809
62	0xbfb893dd024537b3	-0.09600621514729717
63	0xbfc09ec2fa37d1fc	-0.12984502046278112
64	0x3f94e3cdef2480d2	0.02040025493727244
65	0x3fc283159640b59c	0.1446253760963544
66	0xbfb3e40ae6ab3ba1	-0.07769840365948123
67	0xbf9d78a8d58a2d52	-0.02878059199660516
68	0xbfad246acaf29466	-0.05691846587550557
69	0x3fc0071d85ec2faf	0.1252171424788435
70	0xbfbbfb5e8823d14f	-0.10930434058883985
71	0x3fbd9c34c87edbf6	0.11566476721678484
72	0x3fc49cfb39608328	0.16104069043742553
73	0x3f59592e0d03fe3d	0.0015471410479789415
74	0x3fb49d87d2964cfb	0.08052872554099004
75	0x3fa48da8630a9c10	0.04014326294900894
76	0xbf8cb51d0f68975d	-0.01401732161782448
77	0xbfc4cedbb6783cbe	-0.16256281289722624
78	0xbfaef6657040f8d1	-0.06047360415731052
79	0xbfc5a59ad9249311	-0.16911635973624375
80	0xbfb3f99882e558ae	-0.07802727885914137
81	0x3fcd9f9eeea445fa	0.23143374111582188
82	0x3fab31e9c4abefb5	0.05311518216873826
83	0x3fc092928306e225	0.12947303197667384
84	0x3fc4fd12d1e82669	0.16397319077832442
85	0x3f7c57c3771aab0b	0.006919635330329364
86	0xbfa1e32dba457135	-0.03493636034792972
87	0x3fb52d6180e1a1be	0.08272370716588903
88	0xbfb6f6a0bdde9a69	-0.08970074305998711
89	0xbfa75c68761f7ba1	-0.04562689248972807
90	0x3fa458ebbea18448	0.03974091245687156
91	0x3fb46518262ddd61	0.07966757709606533
92	0xbfacb571daa63874	-0.05607181352671456
93	0xbfcddf7eb48d497a	-0.2333830243683897
94	0xbfbfccca1749a92a	-0.12421858852909354
95	0xbfbe32e5164b1458	-0.1179640941073371
96	0x3f9f105ed0b9d045	0.030335885514844802
97	0x3fade51ee8d07de3	0.05838867752049361
98	0x3fc775b03d1493a1	0.18327906591835322
99	0xbfb1ab716c022f75	-0.06902226340224422
100	0xbf9a558b1a1ad85c	-0.025716947048487135
101	0xbfa4e5e5144f65c3	-0.040816458443895275
102	0x3f99d5d757e7c895	0.025229801884002773
103	0x3f8f450afc11debb	0.015268407647666895
104	0x3fa05633e94beae0	0.03190767500742253
105	0xbf6a42bc4515e225	-0.0032056500573925
106	0x3fb0745cd411b026	0.064275552534753
107	0xbfb5af2d01301c36	-0.08470422057153901
108	0xbfc7c0d189d29528	-0.18557185392016007
109	0x3fb680d92c19510c	0.08790356947548988
110	0x3fc83539c130422a	0.18912431653053946
111	0xbfabe6e52a01dd65	-0.05449596536430582
112	0xbfb4f68368ce3a93	-0.08188649471979152
113	0xbf8a5dba4133d460	-0.012874083628483912
114	0xbfc59edd7c9cb4f9	-0.16891068062378858
115	0xbfba86c699cc76f6	-0.10361901526308856
116	0xbfa24c99c1e63699	-0.035740666312546306
117	0xbfb23c7e56f66fea	-0.07123555777656035
118	0x3fc533d8e48e90c4	0.1656447521210166
119	0xbfa252da8add7eb5	-0.03578837342388167
120	0x3fcadf53dfd1c467	0.2099404185169391
121	0xbfb06e3e1a703dcd	-0.06418216844053078
122	0xbfadbb59a174561c	-0.05806999297980672
123	0x3fb6f5f0369c7bef	0.08969022115023483
124	0x3fc0e57574b457b4	0.13200252722225303
125	0x3fa50571399d97d8	0.041057146342424466
126	0xbfaa6a4a73e9a869	-0.05159218468618649
127	0x3fa84bbda15bb940	0.04745285601335292
128	0x3fa1c70d1e5d2e27	0.03472176547674293
129	0xbfb117c32af26207	-0.06676883505350172
130	0x3fa6e26ccf36ffe5	0.044696235937862906
131	0x3fbb668ed9527856	0.10703366094318886
132	0xbf847ed0eef454b2	-0.010007507602987385
133	0x3fb13afbc8b03fc9	0.06730626725789003
134	0x3fd0d594428ae2a2	0.2630358362035087
135	0x3fbc5be8e4721dc4	0.11077743127145029
136	0xbfbcf001822dfb37	-0.1130371992894482
137	0x3fb15913bc368038	0.06776545853654248
138	0x3f7ced9c8cf71f4f	0.00706254150959025
139	0xbf7b0c8aa064233c	-0.006603757390856665
140	0x3f96bbee1046c5e2	0.022201270812450498
141	0x3fb5f7c44eab0abd	0.08581187172516543
142	0x3fb32789d2bcae56	0.07482205767581127
143	0x3fb3ca53cbc61425	0.07730602002091354
144	0x3fa33753747c94cf	0.03753147885280727
145	0xbfb84a6a4a0699b0	-0.0948854857184418
146	0x3fb1ef80836c1510	0.07006076057958333
147	0x3fbc4fbcc62fc806	0.1105916961530796
148	0x3f628b7f977e4424	0.002263783648182487
149	0x3fc2283441dba473	0.14185193267556748
150	0xbf8201eb8dbcc227	-0.00879272486017253
151	0xbf918b497d26814d	-0.017132900489401682
152	0xbfa762f2f7859a2a	-0.04567679664142006
153	0xbfbc4f3f6b8073a3	-0.11058422445826337
154	0x3f87dad5937d4143	0.011647862018123184
155	0xbfb226850bed6e40	-0.07090026417920914
156	0xbfbb9f365b0ef013	-0.10789813731292978
157	0xbf8bfae4f395190c	-0.013662136729760486
158	0x3fa2301f91197734	0.035523401701296115
159	0x3fb6ff1c780f4310	0.08983018809454912
160	0x3fad30f9abe02110	0.057014276724716706
161	0xbf4e7f4a483c3506	-0.0009307015138532444
162	0xbf937a75b053854d	-0.01902183426580466
163	0x3f9cfde9cc8ee1f2	0.02831235228561186
164	0xbfb1987ee3206451	-0.06873314900475803
165	0x3fc208ce34ff01c0	0.14089372241688913
166	0xbfb44bcfa9041d5b	-0.07928178669327705
167	0x3faf816c71c02f20	0.06153429878767569
168	0x3f7037548a040430	0.0039590170201800196
169	0xbf74528f01385eea	-0.004961546528214214
170	0x3f837abe42532762	0.009511457823822848
171	0x3fbe731330fa29d9	0.11894340463383148
172	0xbfb66e2f2d69e966	-0.08761877878888455
173	0x3f979f5f4fc92744	0.023068894619689986
174	0x3fac13974bb18177	0.054836967458643686
175	0xbf6fe8282e013387	-0.003894880748737287
176	0xbfa807281f5c5d38	-0.04692960150549158
177	0xbfb09c1f4f505ede	-0.0648822373044555
178	0xbfb8dad8090fce58	-0.09708929272874778
179	0x3fba6f751a063169	0.10326320538860546
180	0x3fbe57b75c989437	0.11852594385762037
181	0xbfb50af53f1315c4	-0.08219845571428325
182	0xbfb4ae3b51b99f48	-0.08078356499902128
183	0xbfa26e3f3abf8f5b	-0.035997367783947985
184	0xbf66e912a7ced7d2	-0.002796684681437769
185	0xbf9cebe65800286f	-0.028243636246806533
186	0x3f6e56111daf0dbb	0.0037031492515511
187	0x3fb18fb2c93e0ccc	0.06859891331810103
188	0x3fbbcb101fa8c349	0.10856724522524276
189	0xbfa58b00deaba35c	-0.04207613676209718
190	0xbf907ae03739dd32	-0.016093734141091783
191	0x3fa699299eee471a	0.044137287760476165
192	0x3fb469fa5fc48d10	0.07974209631042961
193	0x3f9e6ccad1f07d22	0.02971188455933061
194	0x3fbc6cb8afce2a04	0.11103395740625649
195	0x3fc372e235fb8e4e	0.15194347034331418
196	0x3f8cd3d6e107f966	0.014075926535039595
197	0xbf9cb6fb6334f889	-0.02804177086840601
198	0xbfb7ee5a9de67584	-0.09348074297891712
199	0x3fae6bac74f1cd5d	0.059415234828430676
200	0x3fa2c0718a737deb	0.03662447753026384
201	0xbfb4ef712b04b90f	-0.08177859592681024
202	0xbfae55d30efae92f	-0.059248538569095614
203	0x3fb133c7e7396496	0.06719636340257504
204	0x3fc474d810c9b570	0.15981579608652963
205	0x3fb4cb84983056ef	0.08123043742702028
206	0x3fb8c01503bb6e55	0.0966809400664997
207	0xbfbb8bdf324851a6	-0.10760302522277829
208	0xbfb7702883251cd9	-0.09155514909535913
209	0xbfb6f27b7aca6125	-0.08963748691383396
210	0xbfb750c797192213	-0.09107634962959592
211	0xbfac628670403b17	-0.05543918724298729
212	0xbfabf8209d21b348	-0.05462743681059706
213	0xbfadd6d5794e6dc8	-0.058279677446275324
214	0x3fb1bb7d82945b7c	0.06926712453819833
215	0xbfb184252e569038	-0.06842262631704521
216	0xbfb60e244579f799	-0.08615328499032983
217	0xbf94306c02d6366c	-0.01971596495928056
218	0xbf7937cf51539ef1	-0.006156740030952555
219	0xbfc0dbd2584be0be	-0.13170842467639504
220	0xbfb1575abdb4a11a	-0.06773917323574033
221	0xbf7a36155c1df2f2	-0.00639923423466081
222	0xbf85c9a648ad8bed	-0.010638522236780157
223	0xbf91da1795576627	-0.017433517923427424
224	0xbf98b65510da2b3d	-0.024133042481973666
225	0xbfb1cbc285f1b8bb	-0.06951537866709405
226	0x3f8b9c61c8617102	0.013481868674880552
227	0x3f92b5f6ed1713ca	0.01827226469119462
228	0x3fbed931b9abe8b0	0.12050162108417584
229	0xbfb8253a1376a799	-0.0943180367964075
230	0x3faf4a797f126bde	0.061115071069444346
231	0x3fd046d2ea477eba	0.2543227470286912
232	0x3fa45c8850fc0955	0.03976846684055838
233	0xbfc15c5381d35269	-0.1356300720132311
234	0xbfb8f189a9fbc881	-0.09743557357777101
235	0x3faebf97dbcc59ea	0.06005549009403295
236	0xbfa307dedc6ca976	-0.03716942253807336
237	0x3f8507b20a618402	0.010268584195900491
238	0x3fb0be7e9762e3df	0.06540671535448393
239	0x3fb0f8fd51b69858	0.06629927868797958
240	0xbfa6dc47bdc3fb97	-0.044649354853383
241	0xbfb6fc024a6c9d89	-0.08978285138129229
242	0x3f792f150fcdd9a9	0.006148416778947321
243	0x3fc559c0df07fe06	0.1668015564937237
244	0x3fc104f5cdbfdcdc	0.13296387239800012
245	0xbf98c4b1396fa82c	-0.024187821512818328
246	0xbfbd29b2ebe646cd	-0.1139175249029691
247	0xbfa07d3de09e42c7	-0.03220551840707269
248	0x3fabc0c42b7468bf	0.054205065063983586
249	0xbfb1627edb089e3d	-0.06790917251111579
250	0x3fad81f72de86df2	0.05763218341254718
251	0x3f9cb8ade8c46bb1	0.028048245746599757
252	0x3fbc28e6355809a8	0.1099990730508923
253	0x3fab18e6157bb163	0.052924337503869955
254	0x3fb17e7c09330e34	0.06833625053973763
255	0x3fa401d034f228b5	0.039076334441305795

policyHead.4.bias f8 [128]
0	0x3fa5fbd291b7d56a	0.042936878478864696
1	0xbfa3c38b69856081	-0.038601261740667255
2	0xbf54c276d026d160	-0.0012670669826607348
3	0x3fb20f5de291dbbb	0.07054697782028445
4	0xbfb5fe65f21cbcc7	-0.0859130588621496
5	0xbfb2699ef69460fb	-0.07192414779672511
6	0xbfb908503970ab18	-0.09778310205789997
7	0x3fb67485260c192e	0.08771545580757298
8	0xbfb748fbdb4a4dd0	-0.09095739463582864
9	0x3fb2d5f10f1ec779	0.07357699031015653
10	0x3fa729209dfd6561	0.04523565224253435
11	0x3fb37a1c27fff133	0.07608200050885187
12	0xbfb43db4449c5924	-0.0790665309435537
13	0xbfb62f45546bc5a8	-0.08665879546221922
14	0x3fb617d696f7ec16	0.08630124269249992
15	0xbfb02e10095446ed	-0.06320286014331673
16	0x3fae47ba0d522f32	0.059140981794455164
17	0x3fab9da5517c65f2	0.05393711681081105
18	0x3f964f289912868f	0.021786341040416487
19	0xbfa31ee1cc371455	-0.037344986132247605
20	0x3faa9f7163495081	0.05199770295135498
21	0x3f99a5a9272155db	0.025046008122748247
22	0xbfb36d4352307bd5	-0.07588597065522092
23	0xbf9092e32e69dc09	-0.016185331065994322
24	0x3fb40aea33895c23	0.07829154737679338
25	0xbfb07ea64f3f8bfc	-0.06443252024432405
26	0xbfb32e97a9bb64bf	-0.07492969411704829
27	0xbfb64ac537ff193b	-0.08707840554334194
28	0xbfa7da65f6b83750	-0.046588121764314594
29	0xbf81f87417a2e0d6	-0.008774668666191959
30	0x3f85573df8ab6676	0.010420307303707004
31	0x3f94c538e5299df4	0.02028359316537194
32	0xbfa765a6ea841045	-0.045697418334413466
33	0xbf9f99e443ffc585	-0.030860487604461823
34	0xbfa2dbd37133fd14	-0.03683338887094059
35	0xbfb5d247f8fbc55e	-0.08523988560388804
36	0xbfb11df2a73e763d	-0.06686321814637437
37	0x3fb3fc1772ee999d	0.0780653625102787
38	0x3f980f98a3f4c1ee	0.02349699497898599
39	0xbf8324254b3a6d1d	-0.009346286161692913
40	0x3f78ae1b84a3e817	0.006025416844062568
41	0x3fb1d0466985f003	0.06958427501916735
42	0x3fb050779ac91c69	0.06372783211655676
43	0xbf7124b0ed24c963	-0.004185382002378143
44	0x3faf22d19eaf7134	0.06081252157284425
45	0x3f8504e96942db58	0.01026327469331327
46	0xbfa115d8c2f770be	-0.03336980228388729
47	0xbf93adbcaf2def11	-0.019217441742042377
48	0x3f8c6a10b19b3825	0.01387417833339206
49	0x3fa04f6ae3fbb5a2	0.03185590775488413
50	0x3f9f0f6e99122ae6	0.030332305996618646
51	0x3fb1eacd3aed407d	0.06998903931276064
52	0xbfaa4f9a199471ff	-0.051388564703504606
53	0x3fb1be89d85c48ae	0.06931363613355998
54	0xbf82f90952f7260b	-0.009264061779407326
55	0xbf767cc7a3ed8a11	-0.005490093083468498
56	0x3f8a471e441bdc3b	0.012830959752575413
57	0xbf6160d89da49d6b	-0.0021213751580437166
58	0x3fa6ee4b970a0aa0	0.04478679865589652
59	0xbfb4991429a2c2a6	-0.08046079651354407
60	0xbfb9e1fa81f22921	-0.10110440895565322
61	0x3fb988aaa76cda22	0.0997416170838297
62	0xbfb1375f32d8ecd9	-0.06725115767851565
63	0xbf715b3de0df35a6	-0.004237405502818181
64	0xbfac05f06f38c218	-0.05473281247794065
65	0xbf85fa278097a8de	-0.010731037723378408
66	0xbfb00a04375d87b8	-0.06265283919995468
67	0x3fab6e3d9714943b	0.053575443928175
68	0xbfb5dea9b9611677	-0.08542881751881191
69	0xbfa22b225ddd3513	-0.035485338171023305
70	0xbfb374704c9cef56	-0.07599546308932523
71	0x3fa210bbc0082a65	0.035283915702241576
72	0x3fa5ecd6b62a653f	0.04282256101323378
73	0xbfa22205fc92447e	-0.03541582782885032
74	0x3fb2d74fea11c39e	0.07359790291390175
75	0xbfab9a3257392d1f	-0.053910802028065634
76	0xbf6a4676ef821f5f	-0.003207428260854003
77	0x3f94a87bb8d31893	0.020173962741659123
78	0x3fb4ffd924d42706	0.08202893399370845
79	0x3f9577f6cda80d5a	0.020965439131044185
80	0xbfb0cd4f3c2cc77c	-0.06563277453531485
81	0xbfadc5f725dc887c	-0.05815098130393978
82	0xbf5cba22567967c2	-0.001753362210271878
83	0xbf406737b712a724	-0.00050058575120213
84	0xbfaf42f3e0075bd5	-0.06105768308378116
85	0xbfaa7a6403aeb772	-0.05171501679374914
86	0x3f54298aecdf3ca4	0.0012306076709938463
87	0xbfb5425026a93b66	-0.08304310745118712
88	0x3fb4ca81c09719fe	0.08121500923071065
89	0x3fb637eab17c9056	0.086790722209629
90	0x3faa2df9d4964e0a	0.05113201828057974
91	0xbfabac1902b921cd	-0.05404737623445364
92	0xbfb45bcbaa783383	-0.0795256892381087
93	0xbfb76551149880c6	-0.09138972046685287
94	0xbf95d1a2ee2e10bb	-0.021307512080526374
95	0x3f950aee361bba78	0.020549509098538782
96	0x3fac368493c6d966	0.05510343841472114
97	0xbfb1427f3fbcb653	-0.06742091470797477
98	0x3fb59220b1a5ed27	0.0842609819136909
99	0x3faa507972e941a5	0.05139522102092834
100	0xbfa4e14defcd7682	-0.04078143646505074
101	0x3fa680a4b4fe657d	0.04395022115131562
102	0x3fbd61f4e508c4fa	0.11477594939858085
103	0x3fb316d514beb7dd	0.07456714397878224
104	0xbfb868ef1ff9cba1	-0.09535116701753889
105	0xbf60bab2542b9486	-0.002042148874681407
106	0x3fb4f2263bd5441e	0.08181990586059881
107	0x3f882f15bc535054	0.01180855732892653
108	0x3fb889194f667cf3	0.0958419627045151
109	0x3fb31541a21ea734	0.07454309661866604
110	0x3fa0f5e7572c1542	0.03312609614480745
111	0x3faf2c6653b76ad8	0.060885617942138814
112	0xbfa8e1437c2f9600	-0.04859362498227071
113	0xbfb322ac8afd62fc	-0.07474783318810901
114	0x3fafa22e34f9b94d	0.06178421398805032
115	0x3f50c11ebe41b9ab	0.0010226059175938256
116	0xbfb37ccbcf55eca9	-0.07612298786073048
117	0x3fb026d845a83acf	0.06309272480596494
118	0xbfb4c1bd18e30ff6	-0.0810812173613725
119	0xbf95c2b2eb5d762e	-0.021250529876274786
120	0xbfb27b4136a0a0f4	-0.07219321807554363
121	0x3fb32628bebe97a9	0.07480101258133111
122	0xbfa0020389413483	-0.03126536417458061
123	0xbfaa375cb6b38aca	-0.051203629782113305
124	0x3f618bac14a9ae39	0.002141796202797666
125	0x3f9125d16cd9a9f7	0.016745826977436064
126	0x3fa97483d2897449	0.04971706337958232
127	0x3fa5ed906efdeb87	0.04282809595948494
