Yahtzee/ModelsNN2/version_3_model_2.pt (torch, 679526 bytes, 24 tensors)

policyHead.0.weight f8 [128, 50]
0	0x3fc06a94188e005a	0.1282525176902734
1	0x3fc0a93a91fbddc6	0.13016445282094774
2	0xbfb4d3583953c42f	-0.08134986304845947
3	0xbfb71a97b6c9c796	-0.09024952137568074
4	0xbf4988288cd685d6	-0.0007791707991381912
5	0x3f933faa497a30d3	0.01879755090207953
6	0xbf82e09c21deb22f	-0.009217471870067133
7	0xbfc5856a5bcd94d8	-0.16813401682444495
8	0xbf9b0a4a7cf65abc	-0.02640644443234906
9	0x3fa9adcf95d8530d	0.05015419677889641
10	0x3f939d71ae802342	0.019155288959186174
11	0xbfa97fc5d47e5566	-0.04980295390047722
12	0x3f7b81a1f4bbf6c7	0.006715424194906289
13	0xbf078bfc6407204a	-4.491199479478342e-05
14	0x3fadec33a83200c3	0.05844270160832956
15	0x3fbd66a8ab0a2feb	0.11484769988800252
16	0xbfaeb5ce71878e20	-0.05998082290514284
17	0x3fad27d027d00fc6	0.05694437490458841
18	0x3fc7043f845c9147	0.1798171421334109
19	0xbfa71b22cf2ffe0d	-0.04512890605110096
20	0xbfac7758ac8e6943	-0.05559804064178533
21	0x3faeabc9adda1866	0.059904386970672616
22	0x3f8bb0d3fc6995ab	0.01352086652804981
23	0x3fb8c799a8f3d122	0.09679565787138647
24	0x3fbbf1fefea708b4	0.10916131703473547
25	0x3fbe2a90c12580d3	0.11783699717989586
26	0xbfa972ebcdbbcc96	-0.049704903472865755
27	0x3fa790439db8e4ae	0.04602252292938523
28	0xbfa7e5344ad51215	-0.04667056478004753
29	0xbfc0c94ed037d99d	-0.13114342848684837
30	0x3fb6544184ec0f18	0.08722314353149974
31	0xbfc18cd4f39eec0b	-0.1371103467516551
32	0xbfa1dbd1c85b3594	-0.034880214412264327
33	0xbfa907d0ae2b0dee	-0.04888774992062027
34	0xbf9799264463f37e	-0.02304515640661319
35	0x3fbdf6735aaed5c8	0.11704178775729368
36	0xbf78d9acae26856d	-0.006066965610814418
37	0xbfaa843e705b3489	-0.05179019090210441
38	0x3fb63612dfcf2865	0.0867625996026234
39	0xbfb4cd93dbe81b9a	-0.08126186484160627
40	0x3fc3015524e77e65	0.1484781675526278
41	0x3fbe85b74a8f848e	0.1192278439553027
42	0x3f7b0b3ed52df94d	0.006602521362650227
43	0xbfc0dd647d8330ce	-0.13175636414087538
44	0x3fa8498228ea016d	0.047435824865717936
45	0x3f9accaf952c2465	0.026171439628374666
46	0x3f867c9a72e4cb89	0.010979849463728335
47	0x3fbe5614e9804cac	0.1185010023184982
48	0xbfbf15ae1103aff1	-0.12142455973997791
49	0x3fa96510b5eb1d7b	0.0495991918629057
50	0x3fb5b24e01746632	0.08475196395411258
51	0x3f78b88086ad6599	0.006035329871190064
52	0xbfc050ddc0711a42	-0.12746784111569026
53	0x3f9cd61bc8b3d88d	0.02816050922862039
54	0xbfb76293ad1dd480	-0.09134791351773863
55	0xbfc174caf5aab818	-0.1363767337365409
56	0x3fc08bf36991a5e6	0.12927096037610325
57	0xbfc21b8317ff99b0	-0.14146460220145007
58	0xbfbd6d68e6daa224	-0.11495071064076307
59	0xbfbc2e04c6eb7b3f	-0.11007718903009066
60	0x3fbe66cce4e9aa73	0.11875610912981376
61	0x3fc504d970846a90	0.16421049112326047
62	0xbfb341f352facec6	-0.07522507453796398
63	0x3fc099bbee270544	0.12969159248863538
64	0x3fa429940f63854f	0.03937971771098125
65	0x3fbbd43f96d097f6	0.10870740348818217
66	0x3fbbc8ff16b9e32c	0.10853571228825548
67	0xbfbe0d8a65ac0ca8	-0.11739411337116457
68	0xbfad9adbb46f9726	-0.057822099471918784
69	0xbfbeb8b727df4b58	-0.12000603412097399
70	0x3fa6417bff8b5665	0.04346835607945535
71	0x3f958350e872728a	0.021008743464892045
72	0xbfbabda4d01565be	-0.1044562347427904
73	0xbfc0e78584def743	-0.13206547725524773
74	0xbfa5e0ace8aabc8b	-0.04272976246044732
75	0xbfa5fa5791f2127c	-0.04292558342516359
76	0xbfb36fa04d5ca4b1	-0.07592203034131974
77	0xbfacc6e83c44547e	-0.05620504127197366
78	0x3f94cba543b8d872	0.02030809617846114
79	0x3fb2b98fe30630b4	0.07314395229895149
80	0xbfbe45358c7d8db4	-0.11824354820196598
81	0xbfbe9b6738f5d09c	-0.11955876484518274
82	0x3fa287e5641b2b2b	0.036193054647432575
83	0x3fc395016892d89e	0.15298478704580004
84	0xbfb31af02a76fd4d	-0.07462979351747841
85	0x3faa44e98cf92b10	0.051307009180694974
86	0x3f9fbcd971cb8285	0.03099384076165503
87	0x3f9303333f72683f	0.018566895244113587
88	0xbf8bac80bb2374f5	-0.01351261683560743
89	0xbf9da8a099bffea0	-0.02896357477584266
90	0x3fc1ca056e0b76b6	0.13897769807129173
91	0x3fbeda9d7c0f2163	0.12052330282961558
92	0xbfaef414acee39ae	-0.06045593844384044
93	0xbfb03684381164e7	-0.06333185547682128
94	0x3f624ac9b2cd00c3	0.002232927267329017
95	0xbfb60f4890fc8d21	-0.08617070712766807
96	0xbfb1b06462bcc272	-0.06909778032855643
97	0x3f714450f55eae1e	0.004215542072340676
98	0xbfad9c089e2f998a	-0.057831067380720816
99	0xbfa3a9e3aceeba43	-0.03840552793495935
100	0xbfb3437b1541ad44	-0.07524842518767111
101	0xbf9b257ba70ce483	-0.026510173865265784
102	0xbfc47deb40c59989	-0.16009274161042367
103	0x3fad3a69d0c01bef	0.05708628342841126
104	0xbfb42a0be6042d61	-0.07876657834656477
105	0x3fc0021fc39074c9	0.12506482171094138
106	0x3fb61faecb73bb52	0.08642094103900647
107	0xbfa5f96d5bbae051	-0.04291860337019727
108	0xbfba3cd5f516fb37	-0.10249078019749623
109	0x3fba9d06fcf3d29b	0.10395854640575879
110	0x3fb2c2b096c42442	0.07328323059859179
111	0x3f9006708f43a56c	0.015649565452723932
112	0xbfc70b295e01cc67	-0.18002812471567894
113	0xbfc15ce03414d755	-0.13564684432065613
114	0x3fc1d67a956a6a32	0.13935787482917444
115	0xbfba0ec98e1a9f54	-0.10178813666663916
116	0xbfb33d65f3f40c9c	-0.07515561300174273
117	0x3f86a71334239a6c	0.01106085780015783
118	0xbfc4b6205246c7a4	-0.16180805222898897
119	0x3fc1487ff1f6bb20	0.1350250178779442
120	0x3fb8b0d46fc301a4	0.09644820908125112
121	0x3fa6d397bea5d7af	0.04458307459110188
122	0xbfbfb9a535a89442	-0.12392647323629638
123	0x3f543f09395d2150	0.0012357320860748207
124	0xbfb554961899c403	-0.08332193470575082
125	0xbfb3ed29635b8514	-0.07783754993171882
126	0xbfbef38b6497e596	-0.120903694209025
127	0x3fb72f8d3c0c606c	0.09056933132194595
128	0x3fbf3d7506792770	0.12203151138342405
129	0xbf78b6fd5a2c3c5e	-0.0060338875362183336
130	0x3fa698a4871b40a7	0.04413332127808305
131	0xbfba7acbd36946b6	-0.10343622123152837
132	0x3f9c4900f1ea5736	0.027622236981719804
133	0x3fa54b9e62fd5d9d	0.041592549880699915
134	0xbf7ffc768c888bd0	-0.007809126932019475
135	0x3fab9a05ead067d4	0.05390947810538163
136	0xbfacb5257728cf6e	-0.056069536968066255
137	0x3fbe9b3f7e4f949b	0.11955639680634748
138	0x3f926ffa5e5a3761	0.01800528717881578
139	0x3fb805281e2c43b9	0.09382868515628119
140	0xbfac5672e8ba87a9	-0.05534705248761835
141	0x3fbc9f59c843c3c9	0.11180649890208295
142	0xbfb4e68aba6ebd06	-0.08164279033256969
143	0xbf92d4a1fde3d2f8	-0.018389254685604123
144	0xbfcd61bce4182915	-0.2295452226392817
145	0x3faffaf268a39b6e	0.06246144797642371
146	0xbfba52a5924633ac	-0.10282358952663512
147	0x3fb25b65e7159971	0.07170712367733302
148	0x3fbf53c276735613	0.12237182037218756
149	0xbfb491850adff4f0	-0.08034545436381157
150	0x3fc0dd8ee0e69ad3	0.13176141721233722
151	0x3fb1d87fd55f2fe0	0.06970976790688566
152	0xbfa8a47f92c7defa	-0.04813002268559603
153	0xbfb18708692b37cf	-0.06846668784711983
154	0xbfa9bcbd82d5754c	-0.05026809904186766
155	0xbfbbaa74e8310e41	-0.10806971234074415
156	0xbfbaa4a8efbdfcdc	-0.10407501080588893
157	0x3f8544e1cb378601	0.010385288252055426
158	0x3fbda459dc04b33b	0.11578904744665135
159	0xbfa83a096b3385f7	-0.04731778558358351
160	0xbfb22460168ccf3a	-0.07086754370248807
161	0x3fc0179fb40c0653	0.1257209424148181
162	0x3faee9c1507ba2a8	0.06037716014345068
163	0xbfc99187229ffd19	-0.1997536582057158
164	0xbfbef6ec17c81721	-0.12095523434262791
165	0xbfc1cd6a0d637a17	-0.13908124593486157
166	0x3fb2de2a939fbdec	0.07370248893834458
167	0xbfc0b4733116cf3d	-0.1305068959896917
168	0xbfc102f0d682518f	-0.1329022452743058
169	0x3f9337d0ad3b03fe	0.018767605374481626
170	0x3fae403e66f7a029	0.05908389098095796
171	0x3fb98255766c370c	0.09964498654536785
172	0x3fbdcb550cb130c5	0.11638385352961496
173	0xbfb7495e963db969	-0.09096327941890582
174	0xbfada62a18ead008	-0.057908359090475925
175	0xbfc1208744858d0a	-0.13380518766198463
176	0xbfb08735c670d02f	-0.06456314177268106
177	0xbfb8ce23b5e29b64	-0.0968954390578865
178	0xbfb4b5f2a18c4368	-0.0809013027576505
179	0x3f8ea8cf284fa8b8	0.014970415513705468
180	0x3fa7a8f3981b9dd5	0.04621087295327767
181	0x3fa885b1745253c5	0.04789499802533429
182	0xbf7c471968c99b17	-0.006903743033581453
183	0x3f8556f4f7541adf	0.010419763372295275
184	0x3fbc5a14c2c256a4	0.11074952845441516
185	0xbfba9161961bccff	-0.10378084101448691
186	0xbfbf772f4c405bab	-0.12291236507040419
187	0x3fb97daec28e06cf	0.09957401513932072
188	0x3fae0d230e4fe6cf	0.058693976876339364
189	0xbfb86463e7ff5d21	-0.09528183378221346
190	0x3fb1e0ab87cb50a3	0.06983444276130739
191	0x3f458b469ad2aa0d	0.0006574721097838979
192	0xbfab1963d6556ac5	-0.05292808524491969
193	0x3f9ca82bb2c98b75	0.02798527029734595
194	0xbf867ad9312ae6c0	-0.01097650224015767
195	0x3fab24e8284bc312	0.053015952032984384
196	0x3fc0dffc8e423f96	0.1318355269072497
197	0x3f932f8a8b5b6ba8	0.018736042743380615
198	0x3fa608acb935ea40	0.04303493271705294
199	0x3f886e259ab286e9	0.01192883852337752
200	0xbfa05f13db3db8de	-0.031975384247617575
201	0x3fa087d80048ca1d	0.03228640559645533
202	0x3f9498df2998ffa4	0.02011440936462318
203	0xbf78d5126f3960a6	-0.006062576303144029
204	0x3fb81c53ec78b6dc	0.09418224833708727
205	0x3fac60e08e213d4a	0.05542661414130608
206	0xbfc622751e35fc9e	-0.17292655921116745
207	0xbfc11548885f9aa1	-0.13346201571331043
208	0x3fa5bfa4576e3c49	0.04247773711460263
209	0xbfbd8a555ff4ed1e	-0.11539205162710117
210	0xbf9b9a3a6d276212	-0.02695552149984521
211	0x3fb4044b3fc12614	0.07819052034860646
212	0x3fb2dc14dddaf82e	0.07367067734136931
213	0x3fbea288e0f0713d	0.11966758243255966
214	0xbfb3cb7b7fd5e9ff	-0.07732364531504031
215	0x3f94b9ca395be373	0.020239982367431474
216	0xbf9ebf4a183159e2	-0.030026586271867724
217	0x3fb8df0bbd68e9a0	0.09715340971243913
218	0xbf6bf07db43fd3d2	-0.003410573497598859
219	0xbfa6de580f0c2e75	-0.04466509994207694
220	0xbfbf6a74c7e1a88e	-0.12271814231795217
221	0x3fbc638155b0e74a	0.11089332906786101
222	0xbfbdad0f7d6aa7e0	-0.11592194377831744
223	0xbfbc30c8853d4038	-0.11011937382613801
224	0x3fbbd7b56445d988	0.10876020143573417
225	0x3fc18f8b168bd173	0.13719309426199863
226	0xbfb9f1016bf3548a	-0.1013337029028937
227	0x3fa3927a020176ea	0.038226902718390424
228	0xbfba6ce97f4e1f1f	-0.10322436674152556
229	0x3fa2d79080242242	0.03680087627623553
230	0x3fb133277f51ef2a	0.06718680246734424
231	0xbfc1966196bda268	-0.13740177021397249
232	0x3fc09921c03414b3	0.12967321286138186
233	0xbfa55a0dd59d572a	-0.04170268280601726
234	0xbfb6c959f867da70	-0.08900987925140114
235	0xbfab7e0447226cce	-0.053695806201369586
236	0x3fbf6b9eacc36263	0.12273589818813373
237	0xbfc34bce84170c9d	-0.15075093698223876
238	0xbfbbd9bd440d9a5f	-0.10879118834928068
239	0x3fc1162125174d54	0.133487837897159
240	0x3fbc755ab3f46cd5	0.11116568463733086
241	0x3fa56ff1b107388c	0.04186969076145983
242	0x3f687669b188df75	0.002986151154143297
243	0xbf8b01a73f78638c	-0.013186747192820446
244	0xbfa227f28ee7a0fa	-0.03546102518504486
245	0x3fb867509edd3be8	0.09532646063347239
246	0x3fab7274683e7be3	0.053607595181567345
247	0xbfc7f7da7be7bfc9	-0.18725138711988468
248	0xbf8815fbff29279f	-0.011760681843174412
249	0x3fbe12c7bd0f6e36	0.11747406354646092
250	0xbfb51d70603ed5ce	-0.08248045301191739
251	0xbfc4ec867ba1f414	-0.16346818005322972
252	0xbfc6568e7b439ee4	-0.17451649683720583
253	0x3f809779de6c8cf8	0.008101417637198058
254	0xbfcb1670f24aa0a2	-0.2116223509849578
255	0xbfadd5a271a5b8a3	-0.05827052724167572

policyHead.0.bias f8 [128]
0	0x3f9907c1f8c2b867	0.02444365578474397
1	0x3f855d96e5ba3b8c	0.010432413945890472
2	0xbfc0200ee5ec3ca8	-0.125978338496201
3	0x3fa5412c16388033	0.04151284953354697
4	0xbfc3c602d0a67378	-0.15448031604764956
5	0xbfb49ba2a4fc1757	-0.08049980667064226
6	0xbf9a4286d64fbc30	-0.025644404249700326
7	0xbfb57fdbe06d15fc	-0.08398222188142052
8	0xbfa67d002b01c917	-0.04392242932307704
9	0x3fa0707732ff5472	0.03210804460074081
10	0x3f9f003e83b13963	0.03027436903749371
11	0x3faf23ba2218954d	0.06081945100985795
12	0x3fb55ebb336395ce	0.08347673420538301
13	0x3fb42716675d14eb	0.07872142814183618
14	0xbfa8ac54591d53ef	-0.04818976962875598
15	0xbfb857c10e23014f	-0.09508902163634513
16	0xbfaaa197fc2ce326	-0.05201411202728527
17	0xbf90f704fdbd65e4	-0.016567304598856483
18	0xbf9b86256ef9333a	-0.026878914736062166
19	0xbf950b85de108f5b	-0.020551768950226684
20	0x3f991129704960b3	0.02447952983706676
21	0x3fb0225d566402cd	0.06302436217448389
22	0xbfc23757f436b5ac	-0.1423139517259363
23	0x3f96fb0eaa7ccaed	0.022442082553605514
24	0x3fbfe3fd8f5b5756	0.12457260847017201
25	0xbfaac49ba281b7e9	-0.05228124960636633
26	0xbfa9dc77d949e137	-0.05051016356896059
27	0xbfa036475c4efaeb	-0.03166411401570265
28	0xbf9123c56c856449	-0.01673801874980921
29	0xbfa04d558b6c3ebf	-0.03184001280726311
30	0xbfa6525dbeb15554	-0.04359715416709756
31	0xbfbecf7072b21b97	-0.1203527717608338
32	0xbf5b589981afd7ec	-0.0016690730178630054
33	0xbfc2b4389573cb6b	-0.1461249093768758
34	0x3fa801c10b9e5e4c	0.0468883825953382
35	0x3fa5b92b42307c5b	0.042428352193603934
36	0xbf86308119ff0626	-0.010834702115860639
37	0x3fbc7d3933fdef43	0.11128575820287971
38	0xbf58c3563762f070	-0.0015114156681610667
39	0xbf7827dd38214f02	-0.005897392404296433
40	0x3fbdb34c31101799	0.11601711461852772
41	0xbfb0a2435201dc80	-0.0649759364331306
42	0x3fa380a299e62fc5	0.03809078339244779
43	0xbfbb8b1655ad96ce	-0.10759105293035562
44	0xbfb76f66de05b22e	-0.09154360695328798
45	0xbfb9a25c0d61fb54	-0.10013366057135659
46	0x3fb2738aa31ff559	0.0720755241636274
47	0x3fa278d181c4d244	0.03607802113620953
48	0xbfa31a07751ce75a	-0.037307961507805756
49	0x3f9afef85b7aa7d3	0.026363258918230614
50	0xbfb8fae5b71c207a	-0.09757838936286758
51	0xbfc2451edfb2576a	-0.14273439333617982
52	0x3fa254450232a112	0.03579917575672388
53	0xbf830d2b9c887b4e	-0.00930246421290595
54	0xbfa6c460f8e2fbe8	-0.04446700132529441
55	0x3fb793965cbd8cd6	0.09209575428171787
56	0x3fb6ee55abe15291	0.08957419821065062
57	0x3fbb3c9e7cf9b66e	0.10639372397573663
58	0xbfc0c2bd291e68d0	-0.1309429598594023
59	0xbf7968decb1c1344	-0.0062035277239871935
60	0xbfc08e4f08199e92	-0.12934291739951626
61	0xbfa4b957e38dc432	-0.040476557281074924
62	0xbfae158abdd80d97	-0.058758102106391145
63	0x3fa358f98a4f177c	0.037788198598305706
64	0xbfb79e3d5ee22ccb	-0.09225829664699174
65	0x3fc0bada497c250d	0.130702291375464
66	0xbfb15a8e9abbf7c4	-0.06778804090205798
67	0xbfaa2b09b9d51c84	-0.05110960381949162
68	0x3fbb9f7dd06b443a	0.10790239656786663
69	0xbfbe6a4a6421760b	-0.11880936569783544
70	0x3f98a19e7410403a	0.024054027399017942
71	0x3fc0b4b5072dedd6	0.13051474428708215
72	0xbfbf8be1406578f2	-0.1232281477182118
73	0x3fb0ab473e687457	0.06511349938996723
74	0xbfbaa272232e72f0	-0.10404122694894702
75	0x3fb451467424f5a5	0.07936516128116596
76	0x3fa0e7d859e1d95f	0.03301883790202242
77	0xbfab539047783910	-0.05337191460067647
78	0xbfa905b7fcdbb585	-0.04887175523422641
79	0xbfb1e71075286843	-0.06993201122568941
80	0xbfa969220920419d	-0.049630225767148796
81	0x3f990b12d9b54954	0.024456305063105546
82	0xbfc2602d0df29ba5	-0.14356005841292788
83	0x3f9438727e9480ad	0.019746579147181965
84	0x3fa9dd4f448438c8	0.050516583551244276
85	0x3f8011e8de681937	0.007846659934341289
86	0xbfc18ad5457f0259	-0.13704934972158148
87	0x3fbb1fda1f3a0676	0.10595477354402213
88	0x3fb1c00a6318897c	0.06933655661899779
89	0xbfb8f4409dc1f1bb	-0.09747699595931796
90	0x3fae69ab078283fa	0.05939993349716839
91	0xbfaca647f52ed190	-0.05595612400012151
92	0xbfa5f69e94b97b11	-0.042897182135439256
93	0x3fba6d42850c715c	0.10322967289215995
94	0x3f9c2b31e3bf447f	0.02750852539594861
95	0x3fb0ad9fab1beb4d	0.06514928748576417
96	0xbfc008d9009f215f	-0.12527000933028895
97	0xbf811f26164d996b	-0.008360192828786158
98	0x3f93406f2beb0926	0.018800484710262876
99	0x3f959f3721410e86	0.021115170864745035
100	0xbfb2aa2d56ed04cd	-0.07290919658864255
101	0x3f80a7fe8078a4d0	0.008132923408157217
102	0xbfa5db3013755655	-0.04268789517906827
103	0x3f989c83fab521d4	0.024034559418653803
104	0xbf8f874af51f13a8	-0.015394769292365343
105	0xbfc0bbecc1d18143	-0.13073501075542468
106	0x3fa4bc1893b1cd0d	0.04049755862151914
107	0x3fa078f3044938dd	0.03217276980704906
108	0xbfbaf6548eba6bf4	-0.10532120213103707
109	0x3fa24816ccbf9624	0.03570624589319163
110	0x3fbe466a4da0005e	0.11826195140020121
111	0x3f91bd073727c042	0.017322647801791165
112	0x3fa812fb60637c44	0.047019820705593435
113	0x3f9f396d32428498	0.03049250239621823
114	0x3f8d5522ac5c17c5	0.014322539219857941
115	0xbf9f624f74dea01c	-0.03064846182647339
116	0x3fb34f9a8489ef10	0.07543340431032797
117	0x3fb3fdf2536b73bb	0.07809366737951866
118	0xbfb919f9d4e2e19a	-0.09805261084955533
119	0x3fc174934640aeb2	0.13637009554201068
120	0x3faa5b9979377ed1	0.051480098769159384
121	0xbf6df4c17cd58934	-0.003656747727903165
122	0xbfc399e8719c9b80	-0.1531343989128935
123	0x3fc07768528e6564	0.12864402800623076
124	0xbfb700c76d7ecbfd	-0.0898556368181715
125	0xbf75dd0ceb84fc7f	-0.005337763279668838
126	0xbfbd4c50c7866f04	-0.11444573279589682
127	0xbfc01a63ac121584	-0.12580533887755163

policyHead.2.weight f8 [128, 128]
0	0xbfa538c0d22b7ddb	-0.04144861760664372
1	0x3f9067522a3bf3eb	0.01601913817193072
2	0x3fbe99dd2c62b159	0.11953527768736673
3	0xbfb343a2181eccfd	-0.07525075043558967
4	0x3f840ad9e54214dc	0.009786321934607427
5	0xbf86811bc553276c	-0.010988442382217044
6	0xbfc83cbe70c32469	-0.18935375696154047
7	0x3fb6fedecc82df15	0.0898265122694933
8	0xbfb52eaf4b7d219f	-0.08274360268581525
9	0xbfb7429c8cbd7e21	-0.09086016117134267
10	0xbf98694ee200877f	-0.023839218658515456
11	0x3fbbb0dc06f0bd57	0.10816741151278585
12	0xbfb0ba0560de636b	-0.0653384553428517
13	0xbfad6a03d6e2b272	-0.05744945524324842
14	0x3f9a55d3122cc7ac	0.02571801947050971
15	0xbf6c9477e13f9249	-0.003488763943084093
16	0x3fba487575a1d132	0.10266813394429589
17	0x3fb75a0e73748b59	0.09121790236217232
18	0x3f846cb0e4b512ef	0.009972936610787879
19	0xbfa04c96d394c76e	-0.031834328964022926
20	0x3fa7592a283cd9ad	0.04560214749510592
21	0x3fc18d488ed724d7	0.13712412809971994
22	0x3fa272fe44988c1a	0.03603357875206133
23	0xbfb6959bf5b2b6aa	-0.08822035549629939
24	0x3f9aa40a2057fa27	0.026016386245823277
25	0x3f73bcaa4d1ee819	0.004818597068089425
26	0x3fc529072a402310	0.16531457484259038
27	0xbfaae80c9576c1af	-0.05255164455900584
28	0x3fbca84be7247eac	0.11194300072792868
29	0x3f3f873751fa7593	0.00048108196822645963
30	0x3fa4a09b766c491a	0.04028783627122064
31	0x3fae2f4d2298e4a8	0.05895463034944132
32	0x3fc2d022dc229d7b	0.14697681187429254
33	0xbfb0016c368d4316	-0.06252170879203009
34	0xbf81ae65cac3b2e1	-0.008633418321971788
35	0x3fa8fa79a6a2fbdb	0.04878597411288129
36	0x3f73d6a8eb5f2601	0.004843387452589721
37	0x3f9d4fc2560695d4	0.028624569416612136
38	0xbf52bf0c03013a06	-0.001144181947910662
39	0x3fbe0003ed89ace1	0.11718773412001184
40	0x3fb2db8e29971f6f	0.07366264834774737
41	0x3fc701be30d487fb	0.1797406900814734
42	0x3f8327e7a3c9cfb7	0.00935345619766524
43	0x3fc3f0d74eb6bbdc	0.15578738540122472
44	0x3fb36d2cad2fa6fa	0.07588462093522344
45	0x3f9c1b4d635ef40e	0.02744789999973212
46	0x3f8976a6ae0912d1	0.012433340250149002
47	0x3f7f447d10bb0c3d	0.007633675133266013
48	0x3f9658617409f913	0.021821520526367055
49	0x3fbcb07e95ec3eed	0.11206809196687191
50	0xbfa9209d205d1834	-0.049076948357239664
51	0xbfc0fe04809c0842	-0.132752001569374
52	0x3fbd338644a4219f	0.11406745124634775
53	0xbfa553648aed4965	-0.04165186115155243
54	0xbfb0532c303801fc	-0.06376911332336727
55	0xbf95fdea0f0b9699	-0.021476418655672267
56	0xbf8216341759503f	-0.00883141227965478
57	0x3fae428a0bd8f40d	0.05910140413877949
58	0x3fb638eb4f639dac	0.0868060177632432
59	0x3fbc9f5a9f4f69a9	0.11180654897126509
60	0x3fc0cda65660d4db	0.13127593248069655
61	0xbf9fa6d7656b0914	-0.030909886899061226
62	0xbfa506df5870fa38	-0.04106805758100446
63	0x3f925aa94aa66809	0.01792397039535135
64	0x3f84cd77fb1d6068	0.010157525397218772
65	0xbfa3b89cd6e0eaf9	-0.03851785777120215
66	0xbf97ae3d2e26857d	-0.023125606481362738
67	0x3fb8f47c786d74ee	0.09748056354642973
68	0xbfb9fbbaff8532be	-0.10149735201157292
69	0xbfbb1bc4c9470839	-0.10589246667862619
70	0xbfa7cb266bb1cd49	-0.04647178711538886
71	0xbfa52e3b4d2264d3	-0.041368344465078664
72	0x3f7f368db11cc273	0.007620385631341808
73	0x3f82ca14210d5cae	0.009174496897385555
74	0xbfbbabf9470608e4	-0.10809286102270083
75	0x3fa5c24a0c6e94e3	0.042497934358189736
76	0xbfa40163029cbaec	-0.0390730801285509
77	0xbf4c59a3193628ed	-0.0008651777629194148
78	0x3fc88b26e251497e	0.1917465786996892
79	0x3fc628385d5a4497	0.17310242231591097
80	0x3fb9e59e4e28c4f0	0.10115994842705667
81	0x3f9ad7b3c1958d01	0.026213463488045544
82	0x3f84186c391c26ff	0.009812207692010853
83	0x3f9bc05beb281017	0.027100979068578192
84	0xbf956b961fe9f62b	-0.020918222139235148
85	0x3fb9d6c7b02392da	0.10093353319423262
86	0x3fa9ae786cb97ef2	0.05015922858433254
87	0xbf90511e9f95c7c5	-0.015934446802425634
88	0x3fb268f54ae9f6b5	0.07191403464272635
89	0x3fb18f50f789aa91	0.06859308284189526
90	0xbfbad26762e131cb	-0.10477300800375315
91	0x3fb244d01c7b446d	0.07136250205373225
92	0xbfb913a671c4a11e	-0.09795608785191631
93	0xbface312237d0f37	-0.05641991313180344
94	0xbf6c2943d92ebf35	-0.0034376454509227558
95	0xbfb1e9dbc2b84664	-0.06997464660551028
96	0xbfa766de79812707	-0.045706703502743244
97	0x3fb11537ef1dddae	0.06673001849946189
98	0x3f9a03ebcc74eac6	0.025405582765624123
99	0x3fb8a828df468f70	0.09631591273369877
100	0x3fae86f8a3e695c3	0.05962349892369503
101	0xbf925581deb79945	-0.017904309481218367
102	0xbfa26b55a35b8931	-0.03597514742956987
103	0x3fbb93ca49a9ee60	0.1077238492816206
104	0x3f9d53412df8cb45	0.028637903624438427
105	0x3fa465ff71432003	0.039840681625321415
106	0xbfba15cb3d57d05f	-0.10189504859573749
107	0x3fa4f5c7e1656728	0.04093765856187154
108	0x3f916327f6faf00a	0.016979813050724636
109	0xbf9a41bd8f0f065e	-0.025641404968843033
110	0x3fb9f4c604859540	0.10139119730373114
111	0xbfb666c84675204d	-0.08750583381800077
112	0x3f9a418ddd03ae16	0.02564069425072376
113	0xbfa14eaccdfdc4a2	-0.03380336775342953
114	0x3f9813e9b5b26e09	0.023513461794761912
115	0xbf78b7772cf54ef9	-0.006034341363676304
116	0x3fb46c3f2ef2d34f	0.0797767152424289
117	0xbf9158ff33dd06dc	-0.016941058674325812
118	0x3fb0f5d22d408c35	0.06625093083180007
119	0x3f8d3d3df79736ab	0.014276966207855088
120	0x3f7a8be134f30f63	0.006481055940813582
121	0xbfb913eabce8ca60	-0.0979601584629477
122	0xbf80f01ae75bc44b	-0.00827046412038803
123	0x3fb5bf890c9bbd9b	0.08495384748288475
124	0x3fae6120356c5a50	0.059334761163132854
125	0xbfb3b19474edd560	-0.07692840437615223
126	0x3fb331a75b212364	0.07497640585746762
127	0x3fbc52aaa4702439	0.11063639177895447
128	0xbf99580f0105404f	-0.024749979436194555
129	0x3f92c82838a453ea	0.01834166379656558
130	0x3f7eba84178e6c5d	0.007502094253960837
131	0x3fb0064abdbd6caf	0.06259600765536065
132	0xbfb43b675a028d5f	-0.07903142879017853
133	0xbf7aad9ab49dbed1	-0.006513218229755772
134	0x3fa62be55bdb0a72	0.04330364939007304
135	0x3fb018efcc5b2e97	0.06288050402798216
136	0xbfac5e5c15f04fa8	-0.05540740745359979
137	0xbfa54ef9948ea5f7	-0.0416181558460486
138	0x3fb1dac6dcdf335a	0.06974451916103189
139	0xbf90e25da0b39062	-0.01648851674407615
140	0x3fada6f6da8d0e89	0.05791446130618023
141	0x3fb06e3dab0faaff	0.06418214250849628
142	0xbfc29b1ada05d791	-0.1453584255756906
143	0x3fabf07494629fb0	0.054568904031213505
144	0xbfccb5b489db949a	-0.22429520350775506
145	0xbfa806530462179c	-0.046923250470214145
146	0xbfa58218bd0d2313	-0.04200818355326965
147	0xbfc2ac94c4b4cbaa	-0.14589175801083104
148	0xbfb0107f9e7ed7ee	-0.06275174731749164
149	0xbf7200250c0d210e	-0.00439466926111033
150	0xbfbe146f4c2129a2	-0.11749930962211022
151	0xbfa2650acd43ae11	-0.03592714076679838
152	0x3fa20f0c4a171003	0.03527105717105885
153	0xbf944f27ff9c2a7f	-0.019833207107732505
154	0x3f97f7f65fdaf9cf	0.023406838989780184
155	0xbf851109cbfcf2df	-0.010286404168817707
156	0xbfbf41fe312c4a14	-0.12210072231781793
157	0xbfa255dfcfc0d979	-0.035811418638718125
158	0x3fb76398fe9ccfeb	0.0913634893047967
159	0xbfa2d712a73f66d7	-0.03679712573621224
160	0xbfa31de1fba5605b	-0.037337362259393735
161	0x3fb03d4e32472b4c	0.06343544700136511
162	0x3f94d590c2ad78a8	0.020345937616519066
163	0xbfd1f3d3fda21ef3	-0.2805070855033442
164	0xbfaf91c0cbc4b4b5	-0.0616588829746915
165	0x3fb67355d7879e5f	0.08769737731892623
166	0xbfa6e0048d52fd00	-0.04467787003658863
167	0xbfaf5d5f5a5fce2c	-0.06125925043297928
168	0xbfa316eadbc5ab77	-0.03728422100797151
169	0x3fbd17117bc1b2f6	0.11363324424173613
170	0xbfb271b0d6a78792	-0.07204728355966797
171	0x3faefbb1e5be7c1b	0.06051402978413752
172	0xbfa274cd3ecb5738	-0.036047376551933075
173	0x3fafe742a8c12cbd	0.062311251735616115
174	0x3f9a353ecc48319d	0.02559373971784994
175	0x3fbf791e431ce140	0.12294186724182499
176	0x3faad6aa26bff191	0.05241901133556149
177	0x3f84e14741a3044b	0.010195309343887035
178	0x3fbbeeb4f985dcfd	0.10911112872951274
179	0x3fc585f0d71478e6	0.16815004827453278
180	0x3fc526b1c93e4b3b	0.16524336172423112
181	0xbf8f724eb20a8486	-0.015354742821104727
182	0x3fb96b3bfc91cf5e	0.0992925159096649
183	0xbfa1e2c3b9a4ecf8	-0.034933201228762145
184	0xbfaf6ea226085cc2	-0.061390940802249286
185	0xbf8c830c71ac5549	-0.013921830386190453
186	0xbfb67d40aef73aba	-0.08784870406746395
187	0x3f9b28d127b00cec	0.026522892043442534
188	0xbfbab5a1aeba8453	-0.10433397785028946
189	0xbfadea0b3af608ff	-0.05842623800983126
190	0x3fb6fe7e86cf5390	0.08982077399498523
191	0x3fab3bc754766041	0.053190449772217104
192	0xbfb2a4d565bd2795	-0.07282766088351729
193	0x3f7602c17ef0be24	0.005373721926886375
194	0x3fbbe77a081fa3ce	0.10900080393152153
195	0xbfc2aa731e71b87e	-0.14582671152624366
196	0xbf4a42c756c11612	-0.0008014176687615746
197	0xbfa4c63820ae825b	-0.040574792851889106
198	0x3fb0720bbe1873bf	0.06424020186427891
199	0x3fa901e5fc9efbf9	0.04884260853531681
200	0xbfc1826a4832034a	-0.1367924549595279
201	0xbf9db9e25bdea85a	-0.02902940450409406
202	0x3f9da0af4e03f380	0.028933276306804867
203	0xbfb40c4af6dad3fb	-0.07831257368782467
204	0xbfcd6f3271c24c09	-0.2299559646095022
205	0xbfa626a0d9acdf2b	-0.04326346070450734
206	0xbfb06c000a363bde	-0.06414795159638184
207	0xbf6044cddbf734b8	-0.0019859333694741375
208	0xbf96256e1ac090f6	-0.02162715948374313
209	0xbfbd3603b1b1ba52	-0.11410544479597576
210	0x3f8e3741d1bb682f	0.014753832066549758
211	0x3fb6a723f2649600	0.08848786037250278
212	0xbfb42416ef4d245f	-0.0786756834251192
213	0x3fa35b9c5a989529	0.037808309611401754
214	0xbfadd9d84861844f	-0.058302649341165684
215	0xbfacd2152c55f84b	-0.056290303861701384
216	0xbfa865f7c281b6ba	-0.04765295266484544
217	0xbfb1cdd720b28ba2	-0.06954712436940594
218	0x3fa56b93775abc2e	0.041836365050919574
219	0xbfc736b00f4b7bfc	-0.18135643717593541
220	0xbfc258d2afd2b305	-0.14333566269979073
221	0xbfb284b956f0c0cd	-0.0723377072579325
222	0x3fb1739c64cb6666	0.06817033253482804
223	0xbfbeb04daf3363d2	-0.11987767722474921
224	0x3f944fcd4dbf9f3f	0.019835670347588815
225	0xbfbfc32ce77dc45a	-0.12407189036982072
226	0x3fbbac0aa70a381c	0.10809389665720953
227	0xbfa13c3533fd90c8	-0.033662474247451224
228	0xbfb59c15e4a6922d	-0.08441292602817248
229	0xbfcbaf74061d361f	-0.21629190729656586
230	0x3fb2229c8e297de9	0.07084063025239797
231	0x3f9240fd78e7280b	0.017826042656260237
232	0x3fa652f88ecb1bd3	0.043601767950853486
233	0xbf3500cc2991ea55	-0.00032048210557148366
234	0xbfceb8ac553f1d4b	-0.24001077806881663
235	0xbfa9924205c83b71	-0.049943984227971756
236	0x3fc3d41fc6d57792	0.1549110146397053
237	0xbfac836309a0cac2	-0.055689902234367775
238	0xbfa5af1c2434ddc7	-0.04235160772298801
239	0xbf9d181b20e6bfa5	-0.028412269480838543
240	0xbfbc62e959111643	-0.11088426994782545
241	0xbfd2763e00250b66	-0.2884669305241715
242	0x3fb5c63c14cc9260	0.08505607135573134
243	0xbfbeeda332b31b21	-0.120813560369339
244	0xbfb0c41a1a56ffa8	-0.06549227850973571
245	0x3f96a748059a679a	0.0221225026531112
246	0x3fa2a7bdbbcfd531	0.03643601338982661
247	0xbfb0953fd335ee8e	-0.0647773638392499
248	0xbf7e6b95c00a0697	-0.007426819764647561
249	0xbfa4dfeb6519569c	-0.040770870295699896
250	0x3f9421635cf4526c	0.019658615635381002
251	0x3fad8ed17c7b34f3	0.057730242200344416
252	0xbf9a5f84a10300e5	-0.025754997565628285
253	0xbf8a6e2ca3b0dcd7	-0.01290545343918696
254	0xbfaa2ba06af7f42f	-0.05111409478920625
255	0x3fb9a0521603c91d	0.10010254895658872

policyHead.2.bias f8 [128]
0	0x3fa1eb8a15b35514	0.035000147961605915
1	0xbfb16eb956ec051b	-0.06809576389425269
2	0x3f935401fd8bf7f4	0.018875151729837072
3	0x3f511ee614e46f88	0.0010449644938210507
4	0xbfb2342eb60c2b0f	-0.07110874123115372
5	0x3fb29139b63005c2	0.07252846429766804
6	0x3fa51b287f5d3389	0.04122282557236818
7	0x3f9fc44888b66048	0.031022199005377865
8	0x3fb194a389418372	0.06867429829573071
9	0x3fa013c0873d65fb	0.031400696285981376
10	0xbfad7c4aae9a8855	-0.057588895620270954
11	0xbf8471388bfc8ca8	-0.00998157670216522
12	0xbf80d336f89f6668	-0.00821536012874731
13	0x3f967e3abbc57d3f	0.02196590205255444
14	0xbfa0e05110e969cd	-0.032961400331902625
15	0x3fa26f0f86db9686	0.03600357552731474
16	0xbfafa7a913437d99	-0.061826022721784564
17	0xbfb14c0bc5a1edfc	-0.06756661963475347
18	0x3f93a632b4a3b8bc	0.019188682818758393
19	0xbfb224dd72a29f34	-0.07087501572334248
20	0xbf978f5e95349fbb	-0.023007848603043373
21	0xbfaa443b000355df	-0.051301807166662654
22	0xbfb10baa06a589fb	-0.06658423101684001
23	0xbf5dd9a59ae07afa	-0.001821910594578645
24	0x3fa1fce6c334d574	0.03513260968103796
25	0xbfb00e02595bb996	-0.06271376306151519
26	0xbfa929e1edc89c8e	-0.04914766337997732
27	0xbf8d9d4f218d46eb	-0.014460199557706463
28	0xbf9de82cefce5eef	-0.029205991875271783
29	0xbfab0d0d107034b2	-0.05283394647276775
30	0x3fabddc78839b655	0.054426417712289656
31	0x3faa04ec44c6fcdc	0.050818808932939524
32	0xbfafb361ebf2c656	-0.06191545491436716
33	0xbfa3673c775db9f2	-0.03789700467210712
34	0xbfad0bcf6534728f	-0.05673072920237587
35	0xbfa39941325903f0	-0.03827861537548205
36	0x3f8d3ee62c666361	0.014280126790980398
37	0x3fb57c12133175c3	0.0839244171961218
38	0xbfb6473317bf1bf9	-0.08702391938923872
39	0x3f8738e424cb8bb2	0.01133898007669196
40	0x3fb4ea0783dc6c3c	0.0816960045744261
41	0xbf876e2b6bcd9c8a	-0.01144060061206022
42	0xbfb357091d230d09	-0.07554680787420777
43	0xbfa0fb12a02cfe11	-0.03316553311605842
44	0x3fa73e49adb3ad97	0.04539709325203061
45	0xbfb6f5b2362fbe06	-0.08968652556335863
46	0xbf752520871ee88f	-0.005162360250262079
47	0xbfb216fc49464cd8	-0.07066323079043302
48	0xbfb76a91d4cd11ec	-0.09146987386072397
49	0xbfa5f94a5deecbbf	-0.042917560545354665
50	0xbf90e28510528b11	-0.016489104386560764
51	0x3faec1337403bd0f	0.06006775656885043
52	0x3fb1e0fa714bf0d7	0.06983914629012432
53	0x3f8bbcf293a5fe3f	0.013543982630607519
54	0x3f99cc39c3fa254a	0.025193121515745966
55	0x3fa72c00fb02b30e	0.04525759758084834
56	0x3f994f503a1b943c	0.024716619059194964
57	0x3fb1ffe943fb053a	0.07031114492112503
58	0xbf9a55fb2d9a95a2	-0.02571861711353097
59	0xbfb292a1cd79645c	-0.0725499273916212
60	0x3fa12e1d74e47e2f	0.03355495502387062
61	0xbf9382a56e8ba01a	-0.019053063270718075
62	0xbf7bf2094024d887	-0.006822620520600015
63	0x3f9b3726294f10c6	0.026577564498226257
64	0x3fb1f1698b4143c2	0.07008990907458126
65	0xbfb15b67902a15c5	-0.06780097264898817
66	0x3fb78afb034ba68c	0.09196442442375935
67	0x3f8b3d784ab208f2	0.013300838260196877
68	0xbfa9f22417f1e670	-0.05067551414772431
69	0x3fb1e13e2dea9a62	0.06984318371778778
70	0x3fa0e33dddda58df	0.03298371632733831
71	0x3fb57329768a37c3	0.08378848213234762
72	0x3f9fca3f6d9a3a2e	0.031044951500513722
73	0xbfb59a562afe637c	-0.08438623952532781
74	0xbfac60ead57396d3	-0.05542692046746613
75	0xbf916a850b54712f	-0.017007902924079218
76	0xbfa95011cce58509	-0.049439007055079705
77	0xbfb256c31428fd87	-0.07163638345899957
78	0xbf7f1851b00c1563	-0.0075915518689318754
79	0x3fb2d266a2e5b71a	0.07352296330438116
80	0xbfbb769edb6f6664	-0.10727875573447815
81	0x3fa1c189e54f3afc	0.03467970775783688
82	0x3f9104bcc086b7b7	0.016619633913869083
83	0xbfa8ecc4acdaf727	-0.048681398487572296
84	0x3f9388d97684013d	0.019076726778622478
85	0xbf916d38ab9f2ac5	-0.017018208956680398
86	0x3faadd56c625b059	0.05246993225850422
87	0xbfabd2718e89890f	-0.05433993210751186
88	0xbf9856975c57cead	-0.0237678194152539
89	0x3f7e660a1c2b3906	0.007421531193086977
90	0xbfb0230bc09d7062	-0.06303475811495354
91	0xbfb0f66fc298e873	-0.06626032353315896
92	0x3fb6ef8d370792b6	0.08959276765342392
93	0xbf93605d30482f94	-0.018922287055871914
94	0xbfae468f93daced7	-0.05913208656184359
95	0xbf82f19363a2d7d4	-0.00924983165564789
96	0xbfb014eb2bbd5144	-0.0628191930566731
97	0xbf861c2bd7e969bb	-0.010795919920543953
98	0xbf9343395420327f	-0.018811126479749248
99	0xbfb5af631e52de0f	-0.08470744600605705
100	0xbf92d8fd2184c70f	-0.01840587155419998
101	0xbfb7dd583ee19eb8	-0.09322120223225283
102	0xbfab6a61df140c06	-0.05354600761531718
103	0x3f9c7a323b11659d	0.02780989156267354
104	0xbfb239235e23ab22	-0.07118435905765044
105	0x3fa5ab2c8ca03918	0.04232157913803486
106	0xbfb7638a6261da99	-0.09136261846456718
107	0xbf9c1886f4301b0c	-0.027437313703582197
108	0xbfa87d6e2ad52c1a	-0.04783195755825194
109	0xbf760cb45c8c196c	-0.005383209740790523
110	0x3faffee37380a38d	0.0624915197843797
111	0xbf35b695e0d1c234	-0.000331317511899551
112	0xbf90f03d6757e81a	-0.016541442329959556
113	0x3fb857b350820792	0.095088202624565
114	0x3fb286fe7c829632	0.07237234630391567
115	0xbfb66809cf446e27	-0.0875249987624832
116	0xbfa34190009bd268	-0.037609577249814674
117	0xbf8191526bf798a7	-0.00857796089162506
118	0x3f916e2f34b79151	0.017021882622331678
119	0xbf9cd466aaa72562	-0.028153995672061234
120	0xbf6e5fce0c7b1bac	-0.0037077927007404723
121	0xbf7a020c976c7191	-0.0063496105056199
122	0x3f88efbb5845f179	0.01217600215090252
123	0x3f9974bbf0447a34	0.024859367885364317
124	0xbfaddfaffcb1a939	-0.05834722480433858
125	0xbfa6579a01af080c	-0.04363709707787686
126	0x3f997a04ab7cffa8	0.024879525152982446
127	0xbfb5de7c519e4a4f	-0.08542611115107344

policyHead.4.weight f8 [128, 128]
0	0x3fb5dbc4b10fa5fa	0.08538464854031949
1	0xbfbda7f14a3f5543	-0.11584384977989708
2	0xbfaef0436d22b095	-0.06042681414814514
3	0xbf936d3178b9f84e	-0.018971226686055602
4	0xbf8cf8c5828bfc04	-0.014146369024727441
5	0xbfa1f1da5fdecef2	-0.03504831714908886
6	0xbfb1fddb168f2a05	-0.0702797823024995
7	0xbfb5a5197594608a	-0.08455046768756538
8	0x3fa15c58c8d6eb99	0.03390767528204392
9	0xbfb355dd87388942	-0.0755289511803641
10	0x3fa2dce7bec5cedd	0.036841623342210396
11	0x3faa50204201cf4e	0.05139256292105064
12	0xbf80bb99ac766c77	-0.00817031915248932
13	0x3fae7cb42010f420	0.059545163072904694
14	0xbfb285ec15ac81c0	-0.07235599068781706
15	0x3f964c38d83395cc	0.021775139041798217
16	0xbf86f4bcbd170c0d	-0.011208986778802577
17	0xbfb41f79817a1b75	-0.07860526476916425
18	0x3fa431e7d9f62adf	0.03944325004257165
19	0xbf8afdeb828c3c94	-0.013179626389982858
20	0x3fa568ad18ecd74e	0.04181424073469363
21	0xbf7ca84819f57e0c	-0.006996423383810246
22	0xbf62c9e49f5d98a7	-0.0022935357364302802
23	0xbf3c7925ff9e3614	-0.00043446710298486566
24	0x3f899f0d5b747deb	0.012510399201857111
25	0xbf8e7b0bc709e1a1	-0.014883129131008145
26	0x3f81f8f7314057bc	0.008775645437747552
27	0xbfb326680b2784e2	-0.07480478546451111
28	0xbfa3f696b504f4d9	-0.03899069747647283
29	0x3f93895a0b2f0a10	0.01907864278087784
30	0xbfa6bd9e2d777cde	-0.04441541962636973
31	0x3f9c2c9497188c7a	0.027513810846482724
32	0x3f7585d8355bd062	0.0052545972482570275
33	0x3f53e3544d7c8057	0.0012138674991959608
34	0xbfb0608364551210	-0.06397267531890116
35	0xbfb11bf84840ed50	-0.0668330360794489
36	0xbfb1cfe3e1e1a0c9	-0.06957840218240387
37	0x3facb18fd86aab50	0.056042189758349736
38	0x3fa6d2378d38d6a7	0.04457257841970135
39	0xbfb7acaff06c348a	-0.09247874850935225
40	0xbfb6e080be340b9c	-0.08936314242968851
41	0x3f815c77b6e574a4	0.008477149266293012
42	0xbfa29d3ed189285d	-0.036355937078568636
43	0xbfb0cc2117f695a8	-0.06561476550139977
44	0xbfb42d729ca261b1	-0.07881847690658252
45	0xbfa1e409cadfa2ad	-0.03494291879161913
46	0x3fac7ce881a0927d	0.05564047415126525
47	0x3fad1db9c005341d	0.05686741322515607
48	0xbf915d37625cb8e6	-0.016957154635002157
49	0xbf8f7608fc7b79a1	-0.01536185284151942
50	0x3fb174dd796bfe1c	0.06818947042847195
51	0xbfb40ff299a3776f	-0.07836834193173357
52	0xbf4a00479340b4ee	-0.0007934903610526103
53	0x3f8dd937a0b6008c	0.014574465362557264
54	0x3f950138abb9f1d9	0.02051247165808143
55	0x3f8d41e02ea144b0	0.014285804198296809
56	0x3fae818b50367b6f	0.059582093755344505
57	0x3faf756bee30d31c	0.06144273073770121
58	0xbfaff93f5feda9fc	-0.06244848295212432
59	0xbfa60dbd2209c2d6	-0.04307356873039729
60	0x3f8867c5458bc4c0	0.011916676697611428
61	0xbfb1f23a539a5098	-0.0701023534878139
62	0xbf45f2c8599812c3	-0.0006698110839243532
63	0xbfbb57b6d51b1dd0	-0.10680716231137599
64	0x3fb0571000bbcb0b	0.06382846849355077
65	0x3fae2f212464aef8	0.05895331925634467
66	0xbfaf713a58a01d54	-0.06141073543408973
67	0xbf917803195f3428	-0.017059372352196928
68	0xbfad246acaf29466	-0.05691846587550557
69	0x3fb610805e345fb3	0.08618929195324547
70	0xbfb6c1496ee41597	-0.0888868232469434
71	0x3fb3986d665d8d3f	0.07654460667759098
72	0x3fbb6fc544810967	0.10717423365080024
73	0x3f9ef13b2ad1a57e	0.030217098701915905
74	0x3f9553966b16f30a	0.020826673780663753
75	0xbf6a582a0e57fea5	-0.0032158681303825092
76	0xbf8c8a24bee7bc74	-0.01393536288830275
77	0xbfb4d5b5b185a7f4	-0.08138595184360026
78	0xbfb58974fdbb2eec	-0.0841286773167515
79	0xbfa2677d4736b37e	-0.03594581121738026
80	0xbfb0630f9b6340b2	-0.06401155036587872
81	0x3fa4e493f2ba4e09	0.0408064111517455
82	0x3fafcb68d3bc2bdc	0.06209876618057539
83	0x3f454bce602e0397	0.000649905938516426
84	0xbf550c786a42d03d	-0.0012847114494834021
85	0xbf90d12e8578644c	-0.016422964950923366
86	0xbfa03da3a00ea24e	-0.03172026947806171
87	0x3fb2d4c3bc5370f5	0.07355903003503157
88	0xbfb43386f896804f	-0.07891124314346708
89	0xbfa9e9237ab49278	-0.050606831291848786
90	0xbf9bb25a4fa018c9	-0.02704754935259571
91	0x3fab460073ba13fe	0.05326844608956803
92	0xbfaf93073e7c5442	-0.06166861188663876
93	0x3fb73c4e12cc74fc	0.0907639308829466
94	0xbfaad91b6c599d13	-0.05243764588959201
95	0xbfad4c3ee6363476	-0.057222333528536604
96	0x3f39a22871d9e01c	0.00039113509578880975
97	0xbf701ffed3224280	-0.0039367631999459585
98	0x3fa61bcc27d1bb97	0.043180827961683814
99	0xbfb4ea45241cfe36	-0.08169967776938666
100	0xbf9cfc9efb0c0bfd	-0.02830742270726815
101	0xbfa4e5e5144f65c3	-0.040816458443895275
102	0x3f9ae60c8de59e24	0.026268192444517294
103	0x3fa27bd2d9f1652f	0.03610094938694385
104	0x3f9c823ea3192981	0.027840594010095202
105	0x3f90195dc47a97d7	0.01572176467620764
106	0xbfac29bd54f02ba5	-0.05500594770281645
107	0xbfa26a014ad8e383	-0.03596500433599827
108	0xbf9a4e44e57d2810	-0.025689198023691573
109	0x3fa964e87d5b2a8e	0.049597993185291775
110	0x3fb3f552d6ee196c	0.07796209094349188
111	0xbfa699155b4051dd	-0.04413668383509493
112	0xbfb7ecbdcdea5d7c	-0.09345613744004838
113	0xbf9cf1c2ecdbc97e	-0.028265996653269003
114	0xbfaf355ef9345a61	-0.060954063339683236
115	0xbfb5f406d25ac4a5	-0.08575480113610696
116	0x3fa41d0adb78f916	0.039284076014597755
117	0x3f902354f4726397	0.015759780330515474
118	0x3fbb8380b0274179	0.10747532177561493
119	0x3faa4ef5211087aa	0.05138364819164505
120	0x3f9a8d3642fa8058	0.025929305875820624
121	0xbf889e775b7b89d4	-0.01202100036556867
122	0xbfa95ef5d9da1ea8	-0.0495526150162367
123	0x3f9e4873308b43d3	0.029573249662295197
124	0x3fa1baccaeb15b96	0.03462829239349856
125	0x3fab165df55558ad	0.05290502185623445
126	0xbfa5e39eba4e2a0d	-0.042752228014325856
127	0x3fac9a2fb29c16ca	0.055863848259873075
128	0xbf945ed3019273dd	-0.019892975779487777
129	0xbfb5c2712d8abc71	-0.08499820100654333
130	0x3fa5f4c1f1b4414c	0.0428829772519089
131	0xbfa27daab75c6e8d	-0.036115012057249186
132	0xbfab25c5d857447b	-0.053022558840560806
133	0xbfb7f06049710cb7	-0.0935115985203535
134	0x3fbdd901606d863a	0.11659248928256086
135	0x3fb023bf150ed716	0.06304544700728018
136	0xbfb71e0c8e90a6fb	-0.09030226212112417
137	0x3fb04e25d00ff34d	0.06369243936201237
138	0x3f6a641ff181fc64	0.003221571340020145
139	0xbf7de921264cd7b3	-0.007302407732643279
140	0x3fbd3845c1cbc84d	0.11413990002964276
141	0x3fb299e46365f742	0.07266070772854241
142	0x3fabfe2b8c6f9e50	0.0546735390597034
143	0xbfa1bb59c25f45cb	-0.034632496811933665
144	0x3f8f94cbcad8859b	0.015420524719106867
145	0xbfb3d557b09a7f7b	-0.07747409879311633
146	0x3faad96ee553827c	0.05244013356582841
147	0x3fb3c782e394e64d	0.07726305061523782
148	0x3f92fc7eade9a3c0	0.01854131638029677
149	0x3fb7fc3df9f96094	0.09369265892871886
150	0xbfb1ce9c639c51d2	-0.06955888206386554
151	0xbf9e6c2f8edaf0a3	-0.02970957097453265
152	0xbfaf641eb20ea32e	-0.061310729251380244
153	0xbfb762f519548a4f	-0.09135372036374999
154	0x3f82e3487629f741	0.009222570520474373
155	0xbf998256640a6435	-0.02491126046752275
156	0xbfb3fb0cccd1568a	-0.07804946899826795
157	0xbf953cb86c52080a	-0.020739442454676328
158	0x3f9417013dcaebea	0.0196190065350769
159	0x3faa90071a063c7e	0.05188009445839102
160	0x3f740e29cdb0aec5	0.004896319670517795
161	0x3f75ee308708d086	0.005354108391248618
162	0xbf97e67e573d4a12	-0.023340200495406256
163	0xbfa9950ec0ff9ec5	-0.049965344485654074
164	0xbfb9076c1b30174e	-0.09776950515523916
165	0x3fac4bbf23e087fc	0.05526540101006103
166	0x3fb024766f565839	0.06305637567706492
167	0x3f4c0287f7c98547	0.0008547939210751609
168	0x3f826435ae17e1c8	0.00898019731083445
169	0xbf87a157e10a1d2f	-0.011538206629906426
170	0x3fb049ac0c229e9e	0.06362414642591793
171	0x3fb084b58a673cbf	0.06452498082147694
172	0xbfb5afa04cc896dd	-0.0847110927066654
173	0x3f301df10a380dd4	0.0002459252811776978
174	0x3fb88116845a50a2	0.09571972590703351
175	0xbf8226a5b6b60fe9	-0.00886277641144058
176	0xbf811ca0670e0e19	-0.008355382103906671
177	0xbfaec59b28b3df86	-0.06010136482103605
178	0xbf9c10976001766b	-0.02740704081985827
179	0x3f98bfbffb80014b	0.024168967938750268
180	0x3fbc3d15d489bbca	0.11030708731571717
181	0xbfb42b11ba293c58	-0.07878218455265207
182	0x3f7929b09e12e7e7	0.006143274223342466
183	0xbfb8c8b4f79e413a	-0.09681254430166045
184	0x3f80ea428027d63a	0.008259315048216743
185	0xbfa4a9ead91a4d07	-0.040358866693305066
186	0x3f8b5478b650b4d1	0.01334471041090027
187	0x3fb19786200bbf31	0.06871832163210169
188	0x3fadc297b6bc2e0c	0.05812524896290591
189	0xbf7aaac4e05252dd	-0.006510514304996132
190	0x3f8b1b117731e57e	0.01323522229198448
191	0x3fab54457e54ec16	0.05337731520781845
192	0x3fa6f03ed6218ada	0.04480167735962022
193	0x3fa4ba31ad2a88e2	0.040483047855802715
194	0x3f9f72e780e50f16	0.030711762659179596
195	0x3f9b42df3f0614f7	0.026622284146942978
196	0x3f8cd3d6e107f966	0.014075926535039595
197	0xbf90eb51e95540ea	-0.016522674433247987
198	0xbfaa902169a9f3f3	-0.05188087859003323
199	0x3f7d76f8c207270c	0.0071935383898080844
200	0x3fa7acfc3ef8035a	0.04624164837514995
201	0xbf8264c11ad2d9bd	-0.00898123610600698
202	0xbfaef23c0ed16399	-0.060441853340939385
203	0x3f9b3a5a4fdf6f1d	0.026589785695121926
204	0x3fb29bcdee8684a4	0.07268988679290317
205	0x3fa13346248b8d65	0.03359431453807352
206	0x3fb033fc58596f94	0.06329323918310897
207	0xbfb9cd8a3411e431	-0.10079253932225708
208	0xbfb77028831d6a1e	-0.09155514908835768
209	0xbfa3cb2988f07243	-0.03865937992688775
210	0xbfb6082e34c044bf	-0.08606232440822036
211	0xbfa13033f8e1d11f	-0.03357088482963121
212	0xbf9f827f3f2dbefa	-0.030771244269486943
213	0xbfa7e305748a3d75	-0.046653910137247324
214	0x3fb7bb4fd03a741c	0.09270190080356183
215	0xbfb0eea06bf42175	-0.0661411536749535
216	0xbfb447310b8ed7ad	-0.07921129734208306
217	0xbf90a2dd3a971fa7	-0.01624627752406096
218	0x3f88e85a6b9e6f12	0.012161928567187928
219	0xbfb2602c8bd935a8	-0.07177999891538056
220	0xbfb478fd342d0b77	-0.07997114681078964
221	0xbfb7104dd1817834	-0.09009252896200409
222	0xbf6fa73859870801	-0.003863916452446326
223	0x3f764e8425a4ab4f	0.005445972632780307
224	0xbfa07d9345c89dcd	-0.03220806338168423
225	0xbfb0dcfad576a686	-0.06587188445578293
226	0xbfad418b8ebf12a7	-0.057140694785208716
227	0x3f8b4030f278f024	0.013306028747244687
228	0x3fb460d4055ff2d6	0.07960248118611032
229	0xbfb8253a13783bdc	-0.09431803679784373
230	0x3fafdd6f138f643d	0.06223628152628933
231	0x3fca3277cd8cd9b9	0.20466516052847597
232	0x3f9903263d620cb3	0.024426076408883456
233	0xbfb2acc5d2da6d0c	-0.07294880292686318
234	0x3f6aa2021a17d561	0.003251079659771492
235	0x3f98a5d47a7883c7	0.024070091223737735
236	0xbf961f492f4c9743	-0.021603721153176336
237	0x3f6a08be1633e051	0.0031779968863894577
238	0xbf9bdc7281f45eac	-0.02720812719516512
239	0xbf9cb05532d38551	-0.028016406275928777
240	0xbfb3efbe29601af9	-0.07787693510190853
241	0xbf98a3e663ebb5ec	-0.024062728737524283
242	0xbf67fe95c13a29c3	-0.0029290127657237443
243	0x3f996539eca2f7c2	0.02480021006407874
244	0xbf99e3e709a189a0	-0.025283441508131
245	0x3fb371c4ce9a1ad2	0.07595472377770854
246	0xbfa9d3a0d80f5e98	-0.05044272077037454
247	0xbf90d84e02394f2b	-0.016450137029394057
248	0x3f735b920a93d1c2	0.004726000284098255
249	0xbfb7b5b49136be8a	-0.09261635346660504
250	0x3fb1d5a03d7211eb	0.06966592311989188
251	0x3f91a5d66252c405	0.01723418212049312
252	0x3fa8322e2ed48408	0.04725784608513811
253	0x3fab18e6157bb163	0.052924337503869955
254	0x3fb0aea3d8014bc1	0.06516479514657104
255	0x3fa401d034f228b5	0.039076334441305795

policyHead.4.bias f8 [128]
0	0x3fa0b01a69c80974	0.032593560612457134
1	0xbfa09d57e0cdca47	-0.03245043391406859
2	0x3f64ce62f06d2aa9	0.0025398189931469983
3	0x3fb6d9e3461ba37c	0.08926220380420874
4	0xbfb5fe65f21cbcc7	-0.0859130588621496
5	0xbfb26376b7cc8166	-0.07183019625927542
6	0xbfb31541c2f6de66	-0.07454310426589358
7	0x3fbaa00bd3defe78	0.10400461123117022
8	0xbfb2703fc19d47af	-0.07202528454698041
9	0x3fb56e86e975f924	0.08371775817611088
10	0x3fa71c72866f0e8b	0.04513891116178311
11	0x3fb908da53ad09b1	0.09779133360738147
12	0xbfa87f5a06f3724e	-0.047846616123682226
13	0xbfb6fe47483c5666	-0.08981748117033703
14	0x3fad46209080bf2c	0.0571756531138575
15	0xbfb02e10095446ed	-0.06320286014331673
16	0x3fb67fb044e1b4c6	0.08788587266618028
17	0x3fa672794e10f2d6	0.043842116145673835
18	0x3fa37ff569fe99ab	0.03808562201384132
19	0xbf97bd67eb128a53	-0.02318346378582199
20	0x3f5679448fbe5252	0.0013716859384419644
21	0x3fa6a98ea28dd903	0.044262368529347305
22	0xbfabe6233de038be	-0.0544901860267699
23	0xbf86ae52180423eb	-0.011074677808680952
24	0x3fba367d6c374187	0.10239395038593645
25	0xbfb07ea64f3f8bfc	-0.06443252024432405
26	0xbfaab2942da2ebb7	-0.052143698283053146
27	0xbfb64ac537ff193b	-0.08707840554334194
28	0xbf82e8a05c6db86d	-0.009232762165734177
29	0xbf972bb28bc9a0c9	-0.02262763002582416
30	0x3f889caef74539ca	0.012017599984258793
31	0x3fa12ca4c15643e3	0.03354372844763256
32	0xbfa40f92d4162b04	-0.039181316747166434
33	0xbfa0e2e4b7f8439d	-0.03298105951046824
34	0xbf9ac55def4ae494	-0.02614352009797878
35	0xbfb03917293b5569	-0.06337113148341235
36	0xbfb11df2a73e763d	-0.06686321814637437
37	0x3fbba0080d25a585	0.10791063614819592
38	0x3fabc194624f88bf	0.05421127033311412
39	0x3f709fe0eb053f7c	0.004058722101333841
40	0x3f83a91072dba98f	0.009599808221044252
41	0x3fb7470d5493aaf3	0.0909279185758967
42	0x3fa24652e4c3f774	0.035692778039431966
43	0x3f9661e84fdfe052	0.021857862353471376
44	0x3fb5af64d13fcb93	0.08470754727004097
45	0x3fa56aeab799d4e5	0.041831335937709636
46	0xbf88393d473536c5	-0.011827925429908412
47	0xbf9d26c3e487e4d3	-0.02846819002477192
48	0x3f93e6c7ad6cb904	0.019435043296817348
49	0x3fb335fd43deb205	0.07504256159763407
50	0x3fa6b95c9053fd31	0.04438294660394105
51	0x3fb6ad5b4089f885	0.08858270955713195
52	0xbf8fdcb3d1e76d58	-0.015557675212156383
53	0x3fb5b898d280eda4	0.08484797610520062
54	0x3f98ada0c4f4f443	0.024099838277141804
55	0xbf92be6b6ca25715	-0.01830451822805575
56	0x3fab0844334becc0	0.05279744268588038
57	0xbf7f5c857e0ce431	-0.007656594709993179
58	0x3fb1cd3e6c6a944f	0.06953802248843143
59	0xbfb4991429a2c2a6	-0.08046079651354407
60	0xbfb4bb7a7218a6e4	-0.08098569188646426
61	0x3facb23eb6ea93f9	0.05604740126481284
62	0xbfb0818a7e49b166	-0.06447663863372596
63	0x3f9feb498af3a4c2	0.03117098723024437
64	0xbfaa19fc943ad61e	-0.050979512304746274
65	0x3f9e301d7d881588	0.02948041990932418
66	0xbfb00a04375d87b8	-0.06265283919995468
67	0x3faef9bfc3ca536a	0.060499184274852194
68	0xbfb5dea9b9611677	-0.08542881751881191
69	0xbf7267901459370f	-0.004493296442502417
70	0xbfae5b27850c2ca8	-0.05928920268169097
71	0x3fb1884d70917981	0.0684860610794882
72	0x3fa57c22116b0b9e	0.041962685228575256
73	0xbf96ecb63048e21e	-0.02238735837656424
74	0x3fb749e0ed800149	0.09097104833927462
75	0xbf917d130af3cea0	-0.01707868341777774
76	0x3f8a22c5419610a8	0.012761632026702621
77	0x3fa3aeb15995ec3e	0.03844217508864077
78	0x3fa9c22e5111016c	0.05030960788326663
79	0x3fa88bd3ce8fc52d	0.047941798176802976
80	0xbf8d4f7fd57a34ef	-0.014311789228737186
81	0xbf9a092ef0eec3f6	-0.025425656752933144
82	0xbf8fe3bb4ba807d6	-0.015571082350110215
83	0x3f5d9e3fc9edf2ac	0.0018077490746854314
84	0xbfa0e7b6d9849ab9	-0.03301783948181964
85	0xbfaa7a6403aeb772	-0.05171501679374914
86	0x3f990450e74043ad	0.024430526842539702
87	0xbfb09edf5ac9f7b3	-0.06492420164610628
88	0x3fb8df17a59ec806	0.09715411942923433
89	0x3fbb1d9ca33511fa	0.10592059120705946
90	0x3fb2113f4555e42e	0.07057567065011547
91	0xbf97f153ff2fb006	-0.02338153119119115
92	0xbfb45bcbaa783383	-0.0795256892381087
93	0xbfb6b9c24b691925	-0.08877195683553347
94	0x3f1a9f727814d9e0	0.00010155807651277644
95	0x3fa60dedf4a15c86	0.04307502375802934
96	0x3fb4974f0acd9689	0.08043378843066241
97	0xbf81be959da826a5	-0.008664292215161249
98	0x3fa8c85bbdcf13b6	0.04840361301425082
99	0x3faebc1098c6b2c8	0.060028570794519676
100	0xbfa3258ffbee2164	-0.03739595365829265
101	0x3fb3687f83585aeb	0.07581326443355933
102	0x3faecc959023d29f	0.060154603810507405
103	0x3fb802780900af80	0.09378767223159734
104	0xbfaef9a42a7a5920	-0.06049836176423384
105	0x3f98337f82e3f18b	0.02363394962684277
106	0x3fb9a252e75c4f13	0.1001331152768297
107	0x3f7b009519621661	0.006592352312627976
108	0x3fbd1a7df002b13c	0.11368548497802505
109	0x3fb5a0bb96fc996c	0.08448383747290727
110	0x3fa4274e61f68635	0.039362382372257455
111	0x3faf066f273d6a27	0.06059596399309824
112	0xbfa2d8316652a5ba	-0.036805671444493496
113	0xbfabf24f440bef4f	-0.05458305078170033
114	0x3fb3ae6926d86873	0.07688004682896281
115	0x3f938d75ea5b0dca	0.01909431689160871
116	0xbfad826c1c3e9297	-0.057635668227964114
117	0x3fb485d901b486db	0.08016735355024755
118	0xbfb40e7cace331b6	-0.07834605427632976
119	0x3f71b70b752a606e	0.004324955708078544
120	0xbfac9b2d3a5e8f4c	-0.05587140405194066
121	0x3fb6c735a58d780f	0.08897719661533209
122	0xbf916694295e5005	-0.016992869400908734
123	0xbf9e071e5c4998cb	-0.02932403028753398
124	0x3f924765fe68741c	0.017850488331635814
125	0xbf793261e1fa9c95	-0.006151563982405813
126	0x3fb4fffc617e9152	0.08203103428110595
127	0xbfa8e1c7786f87ae	-0.04859755845224299
