Yahtzee/ModelsNN2/version_4_model_0.pt (torch, 679526 bytes, 24 tensors)

policyHead.0.weight f8 [128, 50]
00000000: caf5 b176 2a91 b33f 34ca f6b0 809b b13f
00000010: d5cd d71c 39ce b43f 560c a0c2 dac6 b53f
00000020: e8d1 423a b51a c13f cc2d 08c4 518f 92bf
00000030: 20b5 a20f 8461 b2bf 0ae3 1fe8 7908 bb3f
00000040: daf5 8e1e 10a2 b7bf 97a5 bf14 ebaf c23f
00000050: 4ed2 151e 5d70 bbbf d839 c9c8 15ef 9d3f
00000060: 84bd 844f 1769 9fbf bbfc 4d9a 2844 c33f
00000070: 53bd cc1d 53e0 693f ee43 daf5 ee7c 25bf
00000080: 99da a360 3da0 ad3f 4018 ae2c b9e9 b9bf
00000090: 9336 a54f 9e2f 9ebf caaa edc1 7325 aebf
000000a0: a6a3 4d60 790b b83f 7d22 0918 8c52 903f
000000b0: f72b 32b1 a8f8 bdbf 2793 c999 b6a5 bb3f
000000c0: 509b f0ce e164 af3f 9e91 1e07 36b4 c1bf
000000d0: 11b8 5efa f4d8 a7bf bc00 5c50 d441 76bf
000000e0: 84cd 1a02 13b7 70bf d3a0 d4e0 98a3 b33f
000000f0: 9ebf 95c5 0b34 ba3f cf9e a061 9650 693f
00000100: e28f cb11 61c1 9ebf dea6 4172 0669 b63f
00000110: f8dd cabe edc3 6bbf b5b6 9ded 1e2c bb3f
00000120: 3817 1793 becc 993f 56a4 03a2 b734 b03f
00000130: 432b a142 a4eb b2bf 8c29 fdca aec7 ac3f
00000140: 6c58 1b69 8e77 ae3f 40c5 4288 cccf 31bf
00000150: 338e 18a5 5f33 b0bf 9242 16c9 bd4a bb3f
00000160: dd92 b1da 51b3 c33f 3215 1927 83ad 67bf
00000170: 37ad c45e bb6c babf 390e c477 27d3 67bf
00000180: db22 867c 2a37 87bf c790 528a 20dc c13f
00000190: f58f c459 212a a9bf e4e8 0490 da97 b5bf
000001a0: 5671 7b6f 78fd b53f 8647 8d30 6ab9 ad3f
000001b0: 29da 4bec 42f0 9d3f c93a ef3e dc96 bc3f
000001c0: d816 3739 0864 783f 6426 becb 1a3f a7bf
000001d0: f9ed a7c5 0753 9dbf e13d 4a3c 284c c0bf
000001e0: b711 4691 1b3b c03f 226b 0caf 0e57 9dbf
000001f0: 2e02 53c0 6316 b63f 4542 485c 5907 b23f
00000200: 0041 62d0 493d bebf 12a6 8b9b 4e57 bb3f
00000210: b4e5 ecba 1371 a7bf 39b9 2080 90b8 6e3f
00000220: 507a d660 6902 acbf 90fa 4888 3fa3 b4bf
00000230: 821c b816 f9d7 a8bf 06f2 6dfd 4af4 9d3f
00000240: 2599 1dc0 aaa4 b53f 6a3e 5f46 a58a 9b3f
00000250: 360b daef efc0 a23f 599f 91be bd57 a6bf
00000260: 36c9 3f83 6aea bb3f b8f1 71de 3c12 b1bf
00000270: 89df 500d f0c7 b53f 70e2 28d1 aa92 b63f
00000280: 9db5 539a 12b6 b13f f959 f348 82a8 bdbf
00000290: 5a76 b521 d21b babf 53d0 ef87 db2a b0bf
000002a0: 5ea1 0f8e c7b7 b33f 0015 7815 bc0b 99bf
000002b0: 72c4 4556 6020 bfbf a238 7397 e4fa b73f
000002c0: 652a 628d 4288 c23f 7e5e 3ac5 c1ed a23f
000002d0: e26a 7c02 2795 743f 1499 4d2e 78d5 963f
000002e0: 3c8d 8076 69be 99bf 95e2 7ed0 5c4a bf3f
000002f0: 2146 eb88 1ffa bcbf e5a8 07bf d21b a63f
00000300: 7f76 188f 1731 93bf e436 304f a6b2 aabf
00000310: c941 7f0d 8aa6 9fbf 5462 4d92 52f7 b13f
00000320: dd35 ead9 290e 913f ec87 2df5 9b6c 973f
00000330: 4d13 ffe7 9464 a63f 0145 a62c c440 a1bf
00000340: 0cf0 1747 9597 7cbf b5bf a00c fcdd a23f
00000350: 25e0 c42e c081 c23f bcab 6e1e ab8d 843f
00000360: b7e5 1d30 ea96 b5bf a4f8 6f20 aa32 a5bf
00000370: 4f3f 814d 722c 7dbf c1b4 5e2c 763f 753f
00000380: 90c2 b9a8 4ded bbbf 611c 9aaa 3d93 b83f
00000390: 7077 b5a5 aea9 b6bf c650 5c7e e075 b13f
000003a0: 0315 64b0 aaaf a43f 0295 396a 4aa3 b4bf
000003b0: a841 5f64 cff5 bbbf 5391 e211 b944 b43f
000003c0: abfc 7f31 f88f b3bf 71d0 fb53 0443 b73f
000003d0: 70da 154f 460c b0bf dbd7 570d 81f7 af3f
000003e0: 7400 4de3 4c8c a9bf 7c44 b5d0 b4ec b4bf
000003f0: 1b38 1291 5dab ac3f db1c 8fed 3985 bdbf
00000400: 6f7d cd8a bd12 bc3f 8832 a739 ae03 b03f
00000410: 5ec2 c284 161b 823f d5b9 f432 3824 a33f
00000420: aa77 bddc 84cb b0bf dfe6 a2c7 58ec a33f
00000430: d351 973b 8198 c0bf c30d 34d3 6e9c 8e3f
00000440: 276d 8681 c5b8 b33f 6293 d375 f5bf a03f
00000450: 8768 474d e195 a0bf b93a 081e 75be bf3f
00000460: 403e 71e3 1fc9 babf 2b4c cf2f 2048 833f
00000470: 5c2c 8f41 4d3e 97bf bdc0 0fbe fc54 babf
00000480: 52b9 16d8 4882 853f 9edb 9ee7 a97d bf3f
00000490: 00ea d0f5 8357 be3f 2d3c 2557 a1df 933f
000004a0: 2fc3 8d8f efc1 ba3f 0616 ce87 1ecf a6bf
000004b0: a933 9746 d428 acbf d64d c8da 1d05 be3f
000004c0: 869e 530e 232a c23f 1ff5 dadf c18b b23f
000004d0: 67f2 cc1f 54b7 b63f a225 010f ba91 b83f
000004e0: 60d7 32b0 edc8 893f 605f 0b68 dbb2 71bf
000004f0: ed6a bc7a 3686 ba3f 8371 93b4 530f bf3f
00000500: 0359 6a50 18c2 a1bf c7b2 2cd2 597a bcbf
00000510: d2f8 f7a2 3228 a23f f6e4 15c8 f729 9b3f
00000520: 2c37 5fe3 92e2 a0bf 491a 27c7 41ad 883f
00000530: 9a6a 2a69 e976 84bf 589c 3e43 51de b6bf
00000540: d8df fb4a 1dcc a43f d893 34c1 a37d a5bf
00000550: e569 e28e 8734 b9bf 3d07 8326 f2db 8bbf
00000560: b2bc f549 7396 b3bf 035c 3525 aff6 bf3f
00000570: 3c9c e7fc e2f3 b4bf 1efa 19e9 599b 95bf
00000580: c4cd 7aaa 671e b8bf 3b4a 8ded a0b4 a53f
00000590: 5764 0c1a 36db b6bf f253 685b d1a1 b73f
000005a0: 867f 08fc f124 803f fa1d a91b 9d6c b0bf
000005b0: f8ec 2af2 98a2 bc3f e27a 1bca ebef a6bf
000005c0: 9a4a 4c04 e563 b33f b566 c9bf a40d b6bf
000005d0: 8c43 3e3d 9354 b93f c6d5 a1ef 18af c23f
000005e0: bc33 4351 8e86 ae3f a30e b79f 4793 b0bf
000005f0: d54a f928 2afb 9a3f d8af 0f08 469f c33f
00000600: 24c2 cb29 66aa b63f f660 dfcd c159 a03f
00000610: 9572 42e4 dd4f c03f efab ad63 aa9d c23f
00000620: 1d4f ad05 17f5 a83f ca64 77dc 792a b13f
00000630: 73a9 45ef 9637 b83f 40de 1d72 b3c6 b2bf
00000640: f793 01f9 77c0 c13f 711d cb31 8f80 a33f
00000650: 0cce 44ce 0835 c1bf 9c91 a046 2564 7e3f
00000660: 7097 9197 a6ff 98bf a004 e58f 58a0 a6bf
00000670: ebf2 e44c 36d6 7a3f 3db2 1987 f8b7 b63f
00000680: c94d 9bba 9e61 a1bf 3a8c 780c b47d c13f
00000690: 85c9 c875 111c bc3f 0a40 aa38 fc51 823f
000006a0: 00bc ae67 66bf b8bf adfc 7aa6 68c1 a83f
000006b0: 502c c456 1a86 b8bf 25c2 8460 a03f b53f
000006c0: 807b a58b ec42 b1bf 903e 52a2 8148 a3bf
000006d0: 0ebb 5ab3 5506 c1bf c7b7 6500 0de3 9c3f
000006e0: 118a 2131 b4c0 8fbf 23fd 7206 b47c c1bf
000006f0: 5c3d f148 7279 bb3f 0d02 8310 7b9a b0bf
00000700: f2d3 2609 cc0d b0bf 71a0 7bda d1e9 acbf
00000710: b227 81d3 1ce5 07bf db7e 01be e1c3 a23f
00000720: 4812 ae9b ae55 ac3f 616b 7dd7 fa86 b63f
00000730: 6622 c607 45dc a3bf 46cd a487 9e79 a1bf
00000740: ac15 72a6 ac41 bcbf d6e2 c67d 765a b53f
00000750: d915 63b4 22ef b9bf 967d 6844 b79b b5bf
00000760: f968 ee18 2b28 8f3f a410 21c9 c10c bdbf
00000770: 308a 5e76 bdde b73f a3b9 c7b5 850b 91bf
00000780: 0549 b7e3 c2dd 9e3f 44da 13e7 e4fd c0bf
00000790: 88ba 9d52 fb33 b2bf ad2b debd 278e 9abf
000007a0: 7d60 95d2 9bae bcbf d5df 3096 7f23 993f
000007b0: d3f6 e49c b495 94bf 5039 daee 2a38 bb3f
000007c0: 0055 19d1 ee4e c23f 427a 8e02 457b b03f
000007d0: 11f2 0d2e ad88 a4bf b3e0 8742 4b0d 743f
000007e0: 3061 354d ccdf bcbf e5a3 66f4 9557 913f
000007f0: dd20 9c84 e963 b9bf 13ef be66 6882 b13f
0.0764338054450128 0.0687790329018661 0.08127171472715784 0.08506552936164388 0.13362756104255813 -0.01812484511360228 -0.07180047399261413 0.10559808652022809
-0.0923166346173824 0.14599360001674874 -0.10718328461172996 0.029232349758155113 -0.030674328068184945 0.15051753553777822 0.003158724152306705 -0.00016394059177973714
0.05786315731704867 -0.1012225851137325 -0.029478524790923343 -0.05887948744096645 0.0939250812640596 0.015939892737409245 -0.11707548452447712 0.10799733404708133
0.06131654406663378 -0.1383121046793691 -0.04657712513231627 -0.005433873511492656 -0.0040808432110454075 0.07671504487064178 0.1023566586861748 0.003090184892261628
-0.030034558020716313 0.08754005708183452 -0.0033893245184477526 0.10614198018239558 0.025195100524590702 0.06330440240312049 -0.07390810610483549 0.0562109587468341
0.05950589211504184 -0.0002717851969108072 -0.06328389912283043 0.10660921248769231 0.1539099042739939 -0.0028903543068589327 -0.10322161735227985 -0.0029083033424528696
-0.01133568947331425 0.1395302462962091 -0.049149553497301136 -0.0843483544930766 0.08589890214665749 0.05805522768663622 0.02923683707464356 0.11167694603430357
0.005954773066553641 -0.04540332543463135 -0.028637048186267198 -0.12732413238380416 0.12680382340853466 -0.028652409967530386 0.08627913899818715 0.07042463782296078
-0.11812268579001639 0.10680095002648951 -0.045784584587134886 0.0037501165652634974 -0.05470589930631731 -0.08061596944114968 -0.04852274324735452 0.029252216070277746
0.08454386892626482 0.026896078510445433 0.03662824442746741 -0.043638162148282596 0.10904565529179852 -0.06668453627384607 0.0850820572385357 0.0881754646915256
0.06918445842503336 -0.115852492151454 -0.10198701212854058 -0.06315395420807705 0.07702300279891491 -0.02445882683789069 -0.12158777338278684 0.09367207238685407
0.14478332427491405 0.03697019131248867 0.005025055295642318 0.022298696352117522 -0.025140426500127364 0.12222843256211953 -0.11319157688856098 0.04318102437885488
-0.018741958721980808 -0.05214423863081466 -0.03090873439197298 0.07018009254296348 0.016655591893643396 0.02287524875590201 0.04373612720477258 -0.033697252703072784
-0.0069804984245784955 0.03684985784673193 0.14458467754025253 0.010035836092205368 -0.0843340270493148 -0.04140216489757734 -0.007122465605860231 0.005187474836856499
-0.10908971184995608 0.09599671759689123 -0.08852664514185249 0.06820490918136377 0.04040273097238336 -0.08061661809331969 -0.10921951485148063 0.07917362867971649
-0.07641555031294682 0.09086634683973373 -0.06268729620738056 0.0624351815021524 -0.04989853167217087 -0.0817368516484453 0.055994914969332586 -0.1153141217210875
0.10966095579850842 0.06255616099879024 0.008840728689706253 0.03738570806523326 -0.06560545338785909 0.03891255795447334 -0.1296540776226168 0.014946809597410465
0.07703813945993386 0.032714529641259885 -0.032393494304146 0.12399990065771761 -0.1046314173011007 0.009414912661588634 -0.02269859993593247 -0.10285930290388286
0.010502404303079391 0.12301122574613862 0.118522880090417 0.019407769149719357 0.10452172522287805 -0.0445489445474259 -0.054999002091427336 0.11726557341926677
0.1419109172777448 0.07244502749650338 0.08873487259274669 0.09597361437149357 0.012590271892218119 -0.0043209620059413145 0.10361042496189628 0.12132762106506871
-0.03468395215638689 -0.11124192601409809 0.03546293486941611 0.026527282321215893 -0.03297862077270816 0.012049211397323083 -0.009992431184675344 -0.08932979480469905
0.04061976948099727 -0.04197417958702204 -0.09845778692616809 -0.01360310726193214 -0.07651444011365774 0.12485785158547462 -0.08184641527587727 -0.02110043034780961
-0.09421394264318567 0.04239371204188954 -0.08928239952037252 0.09231289369229481 0.00788296747583651 -0.06415731358821822 0.11185604011818728 -0.04479920236712133
0.07574302058155027 -0.08614568407338193 0.09894676442332989 0.14596854878224813 0.05962033025716759 -0.06474731110852842 0.026348742247430963 0.15329814332596814
0.08853758354576563 0.031934791928223946 0.12743734021650668 0.1454365717612229 0.0487448877744596 0.06705438263397237 0.09459822980503478 -0.07334443603564811
0.13868617685798743 0.03809020502881822 -0.13443098136632192 0.007419725045143013 -0.024412730217953038 -0.0441920924809065 0.00655194483834685 0.08874467180584929
-0.03394790676034238 0.1366486607449547 0.10980328679651137 0.008945436934737944 -0.09667053252518087 0.04835059196693101 -0.0957962476569929 0.0830021129265864
-0.06742742928825685 -0.037662554802520565 -0.1330058217767704 0.028209880017520363 -0.015504272221908118 -0.1366181403627503 0.10732187538927945 -0.06485718873137376
-0.06271052573613625 -0.05647140304591936 -4.557604046391497e-05 0.036650709575722216 0.055341202262785105 0.08799712906822556 -0.03878989906212808 -0.03413100629623016
-0.1103771120416101 0.08341160364842479 -0.10130516914349331 -0.08440728588219878 0.015213333795874183 -0.11347590599422347 0.09324249400973694 -0.016645516605359522
0.030142827175787996 -0.13274823458751162 -0.07110567824359226 -0.02593290420876897 -0.11203931704710786 0.02454947809403037 -0.020102331234048542 0.10632580119474722
0.14303384027395083 0.06438094437042088 -0.04010525881946959 0.004895490631035826 -0.11278988728497974 0.016935675661134204 -0.09918078887506306 0.06839611538356065

policyHead.0.bias f8 [128]
00000000: 3725 f6cc 939a b73f e064 b55d 435f 893f
00000010: adcc 7f2d 57bd af3f 9dcf 629a 1a6b a2bf
00000020: d579 a8ca f109 b9bf 6bf2 c061 3601 a33f
00000030: 8a9a 67fb 773e b2bf f279 a13a 7d96 973f
00000040: 8f5d dada eeab a0bf 0dd7 8a65 637b 873f
00000050: db98 a4f0 0468 91bf 1de0 05aa 09a4 8b3f
00000060: a450 81a8 0897 b8bf 1857 3ccc 6980 b4bf
00000070: 37e3 88a3 0616 b0bf 3b0c 076e d91f b0bf
00000080: ee7d e04e 775c b23f 1310 0813 7bea c13f
00000090: b592 ca37 1025 ad3f 3dd9 534b 493a c0bf
000000a0: e17b a491 583c b43f 7f7e f138 2a26 b33f
000000b0: 48c1 6971 e2b0 b7bf 544e ac07 e80d b0bf
000000c0: 239a 203d e5e0 c03f a504 af34 7780 af3f
000000d0: 2cce f036 bcf3 b63f ded2 5910 e7fe b83f
000000e0: f45f fd4b 92d8 b63f 305c 19e7 3c54 a33f
000000f0: 28b8 4a3f 8df7 b33f 0a72 2229 ce74 b03f
00000100: c990 4505 c41e ba3f 00a0 6392 c345 a0bf
00000110: 7b9d cd00 1546 bc3f 1467 1c18 04dd 943f
00000120: 5ee3 bf17 a527 a6bf c717 7d60 a99b 8bbf
00000130: 3050 262a 570c 903f eb6c 7ff9 e568 8bbf
00000140: bf01 743b 2087 ba3f cd10 4d2f d9af b6bf
00000150: 5ba3 ce42 74cd bfbf 45df 8610 ac45 a2bf
00000160: dbbb ae44 eed4 bfbf 5fe5 2257 ee97 bebf
00000170: 3adf b29f 0622 bdbf 020a 62c5 4f00 86bf
00000180: 2d36 a4e2 ce92 9d3f 59d1 6a08 b3c8 bd3f
00000190: bdf2 b617 81a3 b13f 3aae c571 8030 b23f
000001a0: f81f 0ac9 dc34 bc3f ffd1 a3cc 7f91 b3bf
000001b0: 5782 c6c1 7ee8 bb3f 8185 10da 7849 84bf
000001c0: c556 1e9f ebf6 bfbf a71e a2eb 2674 a33f
000001d0: 5b97 33b2 354c 90bf 0e8e 258c 4f2a c23f
000001e0: 7bda a299 f73a c23f 6953 35a6 f694 b93f
000001f0: fb95 7626 6645 abbf d579 2ee2 e867 a43f
00000200: 96ad 3948 ea07 c13f f76d 3b4d 384f bdbf
00000210: 0e6a 384c 74dd a93f 8741 7584 64b8 83bf
00000220: 7b90 5a22 4f89 60bf d100 fb71 f649 73bf
00000230: 9a45 7994 2bc0 b73f 29fe c285 d96f c13f
00000240: 1609 a942 1cca 82bf 0cea af8f f9da a0bf
00000250: 0e0e 4294 1620 903f fde2 c435 416e b2bf
00000260: e0a2 83dd cb47 bb3f c93a 59e9 67ed 963f
00000270: 7296 3276 fb43 c13f d08a a8de f05d c03f
00000280: 20a4 91c6 c98f c13f 7fe4 9311 ef6e a13f
00000290: 4f1c 568a 1868 b9bf 1144 5329 5c65 b13f
000002a0: cbf4 8fc8 b975 813f e26c 5faf 7876 9e3f
000002b0: 3270 fd97 61cb 65bf 1961 18ab 8dc4 b4bf
000002c0: 7093 f8f8 8ee5 b73f 6e79 645a e102 b63f
000002d0: f847 6136 fe98 b5bf dcf2 0f55 d883 9abf
000002e0: d410 4973 1186 b83f 7079 2f81 58c2 9b3f
000002f0: 930b 4c70 e034 b33f 68e3 c853 6e34 b8bf
00000300: 6dd8 79b9 9411 b53f 2ef1 47a4 9dc6 92bf
00000310: b27e 3533 469f afbf eeda 77ce d935 b43f
00000320: ee32 9a3a 0f2d a0bf 8c5d 1717 0f3f b13f
00000330: 48d3 56c3 5716 913f 429c 12df 7d50 bc3f
00000340: 1998 d3a5 7f45 c03f 554d 9374 3cf4 963f
00000350: c9da 4245 5e9d aa3f 6440 286a cc78 c33f
00000360: 31c4 bae8 f2fb b13f 77f1 9091 6aa9 a1bf
00000370: 8324 87ef cd0b 933f f84f c9cb f054 f83e
00000380: bc73 d5d4 1ef7 bcbf 1651 d6bb c0ed a2bf
00000390: 8ba6 02ab e3a4 c13f ed61 3f23 35bf aabf
000003a0: 1a9d 184f 92a9 9dbf 16bc b071 9c33 a6bf
000003b0: f9b9 c39f 9bc0 bebf 6b00 7872 37a7 a13f
000003c0: e51e 259f fe5a bfbf 522f 3f3b 7a94 bcbf
000003d0: 0f78 b84a 6a4c bfbf 792d 0c34 51ab c33f
000003e0: d254 a2d0 2c5c a73f 937d cc84 4e15 823f
000003f0: a88f 0e62 543e 9d3f e064 cd23 35f7 c13f
0.0922024131197262 0.012388731286295529 0.06199142866525995 -0.03597338804811943 -0.09780799100597133 0.037118625099968515 -0.07126569640932182 0.023035008147752785
-0.032561744895413296 0.011465813194586194 -0.01699836462753344 0.01349647092932576 -0.09605459321875515 -0.08008443104003182 -0.06283608906313708 -0.06298598228663448
0.07172341991144268 0.13996828488609533 0.05692339592977672 -0.12677875688650345 0.0790458064625308 0.07480110063760924 -0.09254279393076559 -0.06271219432192626
0.13186326489194852 0.06152699010954991 0.08965660420727123 0.09763950490180259 0.08924211840837853 0.037752059183440045 0.07799608988963824 0.06428230766545809
0.10203194740967371 -0.03178225671746304 0.11044436711892118 0.020374359103789777 -0.04327121653472575 -0.013480494744395955 0.015672075221644544 -0.013383671452109577
0.10362435771458588 -0.08862073330698479 -0.12422873145136519 -0.035687806146084834 -0.12434281517810979 -0.11950578334189775 -0.11380044363874911 -0.010742781840467511
0.02888034113225595 0.11634367900371013 0.06890112713785874 0.07105257775918342 0.11018161686126848 -0.07643889185039397 0.10901634436459894 -0.00990576186638026
-0.12486145624856267 0.03799554468519988 -0.015915717126424905 0.1419162210760167 0.14242453576817468 0.09992925222225114 -0.05326384753724863 0.039855268106510224
0.13305405165315837 -0.11449005017805534 0.050517687134021924 -0.009629044811533273 -0.0020185990895971707 -0.004709208180145378 0.09277603506895674 0.1362258818753486
-0.00917455748015476 -0.032920645513474595 0.015747406767799225 -0.0719948536178769 0.1065642753416216 0.022390006654229553 0.1348871543061026 0.1278668486784995
0.13720056720492924 0.03404948319980238 -0.09924462678292055 0.0679528809444181 0.008525325234581512 0.029748807624724878 -0.002660456288067458 -0.08112416674737623
0.09334653452294872 0.08598144966933827 -0.08436573817860438 -0.02589357394389223 0.0957957178553131 0.027108557591298987 0.0750255846178745 -0.09455003304982557
0.08229951408597609 -0.018335784103315315 -0.06176204085454397 0.07894669810034902 -0.03159377661095229 0.06736845315696466 0.016686793611103284 0.1106032056437565
0.12712092968939784 0.022416061988065412 0.051981874422769865 0.1521239775033819 0.0702506845652955 -0.03449566866808856 0.018599717850325447 2.3204612022389965e-05
-0.11314575859201076 -0.03697016041692984 0.1378445229541295 -0.052240047981914596 -0.02896717651142664 -0.04336251151868724 -0.1201264634180247 0.034478886340367186
-0.12248221764923135 -0.11164058634238685 -0.12225975345833738 0.15366568604836653 0.04562511488726674 0.008829701831529124 0.028558081135670627 0.14035667656097583

policyHead.2.weight f8 [128, 128]
00000000: 373a b9df 778c a63f 49d9 5643 86cd 913f
00000010: 4498 cad7 ea0e a83f 253b e76a 7b9a b13f
00000020: d69d 9125 7273 a23f 9fad 7544 dc6e 9ebf
00000030: 2c40 c32b 74c0 b53f ab0c 9ade 8234 a13f
00000040: a68d e331 a295 a23f b75f ee99 5119 a53f
00000050: 85b6 6260 edb8 a33f 5bb8 adbf 5167 b33f
00000060: 79db 334e afe9 a3bf 452f 5c47 cc8c a8bf
00000070: 90cf 6537 2fbc a73f 2338 e918 2cce b4bf
00000080: f662 d27b 9a70 b23f 7c1c e1ad 9226 ab3f
00000090: c685 b201 2502 b03f 7f36 4b9d 0b65 abbf
000000a0: f19c 855d 0ac3 a2bf e32f 7e21 6081 acbf
000000b0: 550a b6f3 6b91 b23f e4d0 39f8 6b6e 8ebf
000000c0: 8860 7f92 781e 7bbf 516f 6fe8 a5c7 abbf
000000d0: 21bb 937d c4fc 99bf 8dc3 dedd ccce b13f
000000e0: 1611 cee8 5677 86bf 88fa 2cc9 76a3 b73f
000000f0: d23f 81f7 175e 47bf ea02 30f6 5d9d 9d3f
00000100: 2069 b3fa 9025 88bf 2d4b b202 677f af3f
00000110: 2ff7 bb02 1c26 70bf dc5a 4e15 a844 b63f
00000120: 5e7f 0441 c6e7 863f e312 c739 aabf 923f
00000130: 5ca5 22ec 9222 a2bf 1185 8c1f d510 b4bf
00000140: 485f 6f6d 2351 8dbf 79a4 3d3c 95fa b33f
00000150: 11e5 b13c 2d02 8e3f dc52 0883 b191 953f
00000160: c566 4abd 19dd adbf 2b11 9f20 5ee1 8abf
00000170: 74c6 3929 aada b33f 41ff 9438 fd01 aebf
00000180: e705 4239 352c b1bf 98ff cb00 7c04 aabf
00000190: 627b c419 7ed1 ae3f b1d7 d0f0 9c30 b0bf
000001a0: da4c 0a86 f287 b4bf 8e4f 3ea1 4b03 b33f
000001b0: 3a31 3879 66d8 88bf bab2 2b0c 5647 afbf
000001c0: 7c73 c8ba aa48 afbf 7d38 97e8 a883 a8bf
000001d0: d62e bdb4 6795 b43f b77b c3be 4aee b4bf
000001e0: cfb7 6294 d6de a13f 5a7c 8593 a8b3 fcbe
000001f0: bae3 cf68 b377 9ebf ac2d 7218 f167 b0bf
00000200: bebe 286f 107d 963f 167a 19a2 f185 b13f
00000210: 158b ae68 aaf5 8cbf ad5d 8e8a e08c aabf
00000220: abdf f239 7cf1 b03f 4d9f eebf f6e6 af3f
00000230: 43ec 1932 f195 b3bf 57c5 64c2 96c7 b0bf
00000240: eabc 9703 c085 9bbf cd05 c2cb 05b3 a13f
00000250: d0a0 29ae b789 ac3f 2219 c422 081d ab3f
00000260: 6d38 bb2d 6c32 b0bf f087 3fc5 0b0d abbf
00000270: 6803 2385 e146 b2bf 2d91 7bda 2e88 9b3f
00000280: 1f43 bca9 f8ce 823f 885a 7bb2 fcfd b13f
00000290: 3602 00e8 04b2 aa3f 145d 3fd3 9127 a3bf
000002a0: bb6d 69e7 d1e1 a9bf 4af6 5a20 1c42 b5bf
000002b0: 58e2 848e 0671 563f 163e c216 3e62 b3bf
000002c0: 0efd db76 cc5f 9dbf ffaa 90cf fe00 803f
000002d0: b57d b66a 1c52 99bf 4dd0 0ed6 7957 ae3f
000002e0: fcf8 2cde 9236 b63f 3fd2 41f0 3779 af3f
000002f0: fa0f 8b41 246c b73f 02a6 12eb bab6 af3f
00000300: 01a1 5810 60e5 b33f 21e5 7192 4828 76bf
00000310: f495 bb30 a5b7 903f bfee 3240 19b5 acbf
00000320: 8492 0772 79d5 b5bf 0ce5 ff0b 809b 7f3f
00000330: dfd0 463e d1e1 a2bf f87e ac25 5216 78bf
00000340: 7821 fcd7 cb8f ab3f 87c6 7945 6479 713f
00000350: 99d7 9f29 b806 afbf b6d1 6460 9f6b 9fbf
00000360: b31c f93b e29d ad3f 23fe 52df ad6f 943f
00000370: 6f7e bd02 52c7 b43f 5632 0e5f e46f 8ebf
00000380: af2b e882 5b7a af3f 281c c501 353b 963f
00000390: 4e8f 684c 8b3f b03f 53d2 df8a 98da 9b3f
000003a0: 92c7 5bc8 8138 a7bf 9357 58a6 baac 89bf
000003b0: 089d 2091 61a6 a1bf 53ff 86a5 5172 8c3f
000003c0: b18c 6ea6 ec4a ae3f f573 1be9 fc33 a53f
000003d0: 0cba e1da b353 a4bf 7d14 a6bf b9fe a3bf
000003e0: 0e35 92fd 1ea0 903f 5ca6 02a8 8fb9 9f3f
000003f0: 6628 496f 8576 b1bf 0b2c 5151 54f7 86bf
00000400: 2152 87a0 cc1d b03f ae73 34d4 337d 8c3f
00000410: ee5f 20cf b9bc b4bf 2063 5c8b 7450 a6bf
00000420: 7b25 c64e 6127 93bf a931 31e8 6a52 a53f
00000430: b135 12d2 557f abbf 3c8c 150e 4361 8dbf
00000440: e0e2 b61c d2bd b33f e6a1 f1e0 9716 afbf
00000450: dd47 b592 0004 a8bf 22c6 3e8f 3821 a1bf
00000460: c22b 47a0 cdbe a6bf 2b13 c8ee 7cd2 55bf
00000470: 5ce5 08ad b9c9 82bf e401 618b c56d 9fbf
00000480: 33a8 c4da 0703 9bbf 67d9 9052 07a1 993f
00000490: 85c8 2a5a 2836 a63f 520e 12b6 b2c6 a9bf
000004a0: 6854 4b17 86a8 ac3f b3f9 58a5 1582 a23f
000004b0: c25e 15f5 277d b43f 3f37 c3f9 874b 913f
000004c0: a5b7 f285 657f a03f ca92 dcd3 f98f a3bf
000004d0: 884a 50e0 c6e5 b5bf ca75 b8c2 f50e 943f
000004e0: fdea 6979 a458 a6bf 2234 2f49 86e2 acbf
000004f0: 045e ef87 ca78 b23f 109b 2f0a 52ba 82bf
00000500: d0d5 b4f3 97a0 a0bf 65c9 aacb b03a 8e3f
00000510: a3ef 8a9a eb25 b53f b167 e3e0 ee29 983f
00000520: 6e36 082e 580e ad3f 04d0 e585 de3e a7bf
00000530: 02eb d3e4 5a27 b03f 4ff7 7c72 1c85 a8bf
00000540: bd0e 34da f890 9e3f ffbf 1bed 0b42 97bf
00000550: 2931 a2be d4f1 b1bf 1623 f2c2 1d7a 9dbf
00000560: 973b c634 9225 5a3f 8065 8fc0 08c5 b0bf
00000570: 7c22 41fc a1cc b43f 346c 96d6 f7d2 a53f
00000580: 934f 4747 4d6c b3bf 0ef9 646b fd03 a43f
00000590: 4aaf 3154 7d8b 50bf 5abb 558f a785 a73f
000005a0: 7330 e2a3 ed1e 943f a37c c5b9 c2fa a3bf
000005b0: 0ef4 bb62 8629 b2bf 25dc f6a6 fcf5 9d3f
000005c0: 770b f6f3 2721 a43f 0506 b7ee 87a5 733f
000005d0: d377 5f8b 379c 353f a94b cc74 670c 9c3f
000005e0: 7d83 794a fc3c b43f 8611 fb6e 47a9 b03f
000005f0: 30d4 b2a9 21ae 86bf b1e1 6df1 6c71 883f
00000600: 02ba c4ca bdff a1bf b513 cd44 cae4 903f
00000610: c7d8 5250 6236 b13f 3b0a bd29 af8d abbf
00000620: a7e7 852d eef9 69bf bc64 4de4 b9e5 adbf
00000630: 232f 86f6 d9a5 a0bf 1ee4 8c93 de27 a5bf
00000640: e763 fb96 9d49 90bf cf07 3711 f6ba a43f
00000650: b3f0 3587 2a72 b7bf c856 21c3 59e1 acbf
00000660: b980 0ea0 b4f9 b5bf 7e62 55a1 4a64 b23f
00000670: 9887 1ea0 0aba 953f 31e5 b90a 7cb4 a33f
00000680: 6b16 4b0c f75f 81bf bf84 7b4b 9ea9 b3bf
00000690: 37d4 9a20 91fa b0bf 2894 eda1 b52f 983f
000006a0: d43a ddc2 aa82 863f 6ed0 49e6 e066 b4bf
000006b0: 8f1a 14b2 38d2 ac3f 9de2 082e 04f4 9ebf
000006c0: fd89 5810 30ce 8c3f e226 26ed 5add 8b3f
000006d0: 4dec 05e9 29e3 b1bf 4902 d419 8a4f aa3f
000006e0: dc07 f84e 7f66 8ebf 54be 6b25 720f ac3f
000006f0: b45c ec0b 8622 943f 6943 9f69 3aa0 64bf
00000700: 8726 c383 b728 a0bf d31d 3e1f 959f 933f
00000710: c964 8d00 caf6 adbf 9f28 3de6 f228 b6bf
00000720: d11e fec6 fa18 a13f 0dd0 d119 ad96 a53f
00000730: 571d acfd 5b13 a2bf c12b 263d a0ca abbf
00000740: aa11 22f6 8fec ae3f 9f27 b066 df70 8d3f
00000750: 52cf 55ae 59c1 aebf f583 a89f ea92 b7bf
00000760: de65 a270 1f71 b73f 987f 5dfe 006c a73f
00000770: 0057 66c3 b728 93bf b96a f30e fa44 8cbf
00000780: 93db 7e43 07f6 983f f13d 9ce5 731c b33f
00000790: 3b33 0873 006e 9d3f 1098 f12c 3103 79bf
000007a0: 80f7 8a77 4cf0 a7bf bf61 2e92 098f 8ebf
000007b0: 81e3 4476 9be2 b33f 14d1 a68d a9e1 743f
000007c0: 858c f7b5 ebb2 aa3f 5f6c 912b c5fe a73f
000007d0: 98a7 beb0 f84b a1bf 71c3 9b5f 4567 63bf
000007e0: 473b 619e d1bd a2bf 13e6 4b27 9874 8ebf
000007f0: 3f05 f83b 229c b6bf a3e4 0fce c15f a3bf
0.04404043775558757 0.017385576114713506 0.046988810388299856 0.068763459777284 0.036037032209431594 -0.029719773939559265 0.08496786182809107 0.03360375373179044
0.03629786356921309 0.041208791771338786 0.03852025796491624 0.07579527787831479 -0.038892248436176176 -0.04794920321555066 0.04635760833016811 -0.08127093895129227
0.07203069231981005 0.05302866337347553 0.06253272334517765 -0.0535052899846109 -0.03664429084420274 -0.05567455681656932 0.07253145885446462 -0.014859050286056115
-0.006620856271148175 -0.05425756895394208 -0.025378294148079242 0.06956177155258399 -0.010969809512751765 0.0923380128051382 -0.0007131211305111357 0.028920620108695262
-0.011790402079374263 0.061518878058583894 -0.00394259397194023 0.08698511619727917 0.011184262141398168 0.018309268738238137 -0.0354200280429022 -0.07838184375988912
-0.014314915444557777 0.07804234238359865 0.01465258923984661 0.0210635887361431 -0.05832748828579563 -0.01312516724636533 0.07755530840383945 -0.05860892596910939
-0.0670808090963174 -0.05081546315886881 0.0601920515493848 -0.06324177626888063 -0.08019939205614737 0.07426903425795059 -0.012131500791860195 -0.06109112642829957
-0.06110127954546038 -0.04787948455087674 0.08040474093030112 -0.08176104695620166 0.03490324555728785 -2.737216093018041e-05 -0.02975349738332842 -0.06408602568460847
0.021961457047096948 0.06845007140643874 -0.014140445060382182 -0.05185605708464478 0.06618477263225368 0.06230898945733419 -0.07650668595481229 -0.06554548498094924
-0.02687740346840154 0.03456895935324731 0.0557382011509745 0.05295586990728142 -0.06326938740241568 -0.05283390791716147 -0.07139405727776948 0.0268866844989059
0.009183829002297693 0.07028178555933995 0.05213942844421064 -0.037411267315912294 -0.05055099439479301 -0.08304000654148883 0.0013697208433553123 -0.07571781211503778
-0.0286857554956415 0.007814398488411365 -0.024727291119800394 0.05926113832484301 0.08677022861681744 0.06147169883562186 0.09149386024643028 0.06194099540273258
0.07771873854710877 -0.005409511074611546 0.016325551127826146 -0.056069172941958005 -0.08528861078191069 0.00771665590581817 -0.036879099704863576 -0.005880661856991536
0.05383145343336343 0.004266158757319289 -0.06059813984022284 -0.030683985002910773 0.05784518224805293 0.019957272296549654 0.08116638724231405 -0.014861854697096149
0.0614803883837206 0.02171023200324043 0.06346960654678677 0.027201064563956056 -0.045352988918138895 -0.012536485864113966 -0.03447251221251163 0.013889921058648424
0.059165377918611546 0.041412261443589594 -0.039701099842989945 -0.03905277695143015 0.016235813357117705 0.030981297139680883 -0.06821474043786821 -0.011213930827713289
0.06295470160632323 0.01391067973468715 -0.08100472742842132 -0.043582574855639544 -0.018704910691246007 0.041644421428461094 -0.053705865758370115 -0.014345668666186133
0.07711518479380741 -0.06071924801728183 -0.04690553465719891 -0.03345658062552227 -0.04442446309584326 -0.0013319225355427715 -0.009173822968579763 -0.030692183143630106
-0.026378748633909942 0.025028337873857078 0.043381939894417555 -0.05034407112637197 0.05597323450425834 0.036148716386822065 0.08003473027690247 0.016889690989777547
0.03222195873364279 -0.03820782386018136 -0.08553736664206657 0.019588317880438834 -0.04364503843404142 -0.056415745195046677 0.07215562647558477 -0.00914444058976252
-0.032475231646838076 0.014760380950381966 0.08260986826911547 0.023597462154476726 0.05675006448664709 -0.045401529164252025 0.06310051046959234 -0.047890557265857774
0.029849899595332675 -0.022712885233829635 -0.07009629873408997 -0.02878614904742268 0.0015958717150146068 -0.06550650311637263 0.08124744804912071 0.04262518400647544
-0.07587130537223023 0.03909294067351442 -0.0010098194041132263 0.045941578146872344 0.019649232032449903 -0.03902252690999688 -0.07094612036230805 0.029258678141300138
0.03931546071091579 0.00479653452515683 0.00032974582734179614 0.027391067985330562 0.07905556505421703 0.06508299312105778 -0.011074316970146908 0.011935092084727513
-0.03515427684975593 0.016497765015873706 0.0672360845663632 -0.053815339894317714 -0.0031709339056619937 -0.058393296355185836 -0.032515345900803426 -0.041319804679410974
-0.01590582117100672 0.04048890075820532 -0.09158578682940081 -0.05640678889237233 -0.0858414545787153 0.07184282721335397 0.021217504523185576 0.03848636275228968
-0.008483820021307062 -0.07680692046007474 -0.06632334753051415 0.02361949730711302 0.010991415092261127 -0.07969480154298633 0.05629136251268562 -0.03022772341702994
0.014065146921955035 0.013605795252050471 -0.06987249316255024 0.051388087895251795 -0.014843935582579286 0.05480534273908391 0.01966294715665802 -0.0025178089972332407
-0.03156064494539828 0.019163446456813404 -0.05852347618810822 -0.08656232949320718 0.033393704215141214 0.042165192987255386 -0.035303950038776115 -0.054280288185587285
0.0603985774951384 0.0143754437649653 -0.06006889584651155 -0.0920855178633387 0.09156986713278267 0.0457458792213849 -0.01871001367688674 -0.013803437787307403
0.024376023764229492 0.0746529040882178 0.028739935894964246 -0.006106559841191142 -0.046755208580619545 -0.014921259664149809 0.07767650258473503 0.005098020856554326
0.05214630695606907 0.046865617340437586 -0.03378274114159224 -0.0023685793829532555 -0.03660445268962192 -0.014870823573335057 -0.08831991161425366 -0.03783994331747322

policyHead.2.bias f8 [128]
00000000: ee91 0b56 8ca3 acbf 2ca9 0191 c112 973f
00000010: 15a0 afa6 f2ce 99bf 179c f2aa 56e3 84bf
00000020: b083 4299 0ecc adbf b74d bcfd a215 b5bf
00000030: bf92 89c3 c6cd 98bf a8f8 f8a2 255b b23f
00000040: 9951 2f11 acd5 b93f 706b b5c9 c78e 8b3f
00000050: 3a39 f56f dfd7 a0bf 86d8 a3fa da5a a1bf
00000060: d500 0306 22d2 b13f b903 3eb1 54bd a63f
00000070: a80f 3dff c311 8e3f 7f56 f992 0fc5 a93f
00000080: 8905 987f 277b b23f 8c73 beb1 c1b3 88bf
00000090: 7c09 48e5 7d0f a23f 7df4 e539 e9aa 793f
000000a0: 3abd c83f 1965 b83f 245e b295 cee3 b03f
000000b0: 72c3 6a7a 4822 b1bf 9048 4d00 430a a4bf
000000c0: 710c b10d 2f05 82bf a103 ec11 95a2 b53f
000000d0: 4e56 a462 7b60 91bf cf2d 0e3d aa29 b53f
000000e0: 51e5 f1e5 a458 a4bf 4ee5 c3e7 c360 b43f
000000f0: e01a 8e58 4b54 99bf c486 5767 5555 613f
00000100: fb42 4f8e 3c13 b83f 23bf 23c8 3529 b73f
00000110: dddc 0052 d979 a83f dbf7 6d84 d73c b43f
00000120: c1b1 6aee 3229 a2bf 39e4 b233 27e3 a1bf
00000130: 0bd2 e4b4 d9df a2bf 1931 6cf2 2964 b0bf
00000140: df26 9a7b 0d71 923f 3c67 e8e7 41c7 a23f
00000150: 6d68 0dd3 cd65 b0bf 104f 983c 5142 b73f
00000160: 4bba c812 a9b2 b4bf bbb8 2073 a565 b13f
00000170: dac3 16ea fdf6 9d3f 4d14 780b 5758 aabf
00000180: 2f54 5458 3185 b43f 6980 ac4a 7098 a1bf
00000190: 2d40 3c58 fdb2 b63f 4476 420c 8a9b b1bf
000001a0: c901 6148 cec2 b7bf 3feb 0994 ca79 93bf
000001b0: 3194 eff7 088b 923f d39c 51be dbfa a73f
000001c0: 8745 cefc 8114 b03f 9ae9 c2a6 0bdc a4bf
000001d0: a719 1d64 64f8 b0bf 11ec c7b3 c6f2 99bf
000001e0: afc2 4600 5eb7 863f c75f b0f1 6350 9fbf
000001f0: 23c3 1f01 8554 adbf 8f9e 95df ba32 b53f
00000200: ac8c 1db0 4fcc a8bf 8df5 b51d c139 96bf
00000210: 5e1b 4185 d370 b13f 3b6b af8d 17eb b0bf
00000220: 86f7 3b7b ca16 b73f f022 c18f a618 a4bf
00000230: 68ee ae34 1267 a63f bf29 aa8e 2c7a a5bf
00000240: d835 0bbd 65fb 81bf 6a42 3b07 229a a0bf
00000250: 1466 ca09 5d02 b73f 1314 0136 ad45 aabf
00000260: 33e3 cbc6 f1ad a3bf 8ea1 1130 d465 80bf
00000270: 9181 2b90 40ee a5bf 2a03 7d2b 7432 a53f
00000280: c10d f7eb e6c3 b33f b6bf 120f faaf b13f
00000290: 78f5 56b3 13ad ad3f bdd8 1b0b a5be 9e3f
000002a0: 634b cda7 0cd1 b4bf 2ceb b9aa 199c ae3f
000002b0: 0df0 c25c b42f a8bf 2670 a5ab 0b72 94bf
000002c0: c469 741a a456 a8bf 0d88 d765 ee2e 9dbf
000002d0: e9e6 c1e5 c3e1 b53f ca04 2df5 aa68 a23f
000002e0: 5d12 6800 bb7c aa3f e1d3 39d2 b6d7 a53f
000002f0: 76a3 c166 ca38 833f 4925 755e 03bc b5bf
00000300: 1b59 4031 b8ab 91bf 9b6e 7cdd eb63 a3bf
00000310: 114c 7c1c ae42 b0bf 9660 c5be c32e a6bf
00000320: ae86 0d3d db66 9abf e1da 8e80 a6c6 853f
00000330: 7a03 999a 9cca a4bf 8fe9 eea6 c383 b53f
00000340: 440b f8f5 c4ff 9ebf 00e5 bae1 e8cf ae3f
00000350: 97c4 cd0c 465d 94bf 4ac9 3cf4 3eda a2bf
00000360: 6e91 6fee 554d ba3f fccd 7509 5a74 a13f
00000370: 3bb8 cf4c 01a8 883f 6a26 7f8d 1517 93bf
00000380: 8c04 a103 a6d6 943f a8c7 f181 a52f 8c3f
00000390: 613d 6ed9 e48a b93f 6f27 d942 09e4 acbf
000003a0: 5d20 f17e 8848 72bf d7d3 de57 c99c b1bf
000003b0: 8354 b288 307d a1bf fcc8 37f2 2366 b53f
000003c0: eebc 2bf9 00ae b33f 34a5 26a0 3489 b93f
000003d0: e909 b8a2 28d7 a73f 9741 83b4 87cd 91bf
000003e0: 1fb3 e090 db74 72bf 3e17 9591 bc0f 96bf
000003f0: 6d7b 606b 3726 a3bf 7605 5e40 d447 b43f
-0.05593527365070715 0.022532486415380124 -0.025203505920131947 -0.010199238864812483 -0.058197456558679916 -0.08236139960018006 -0.024222474751143915 0.07170329312154655
0.10091662807037095 0.013455925791893114 -0.032896978775726685 -0.033896296592431915 0.06961262366076267 0.04441322959519973 0.014682322718392829 0.05033157986751479
0.07219168534358834 -0.012061608540358447 0.03527444290013457 0.006266509093959202 0.09529264266233364 0.06597605852800165 -0.06692936886498815 -0.03914079073605692
-0.00879894981893001 0.08451205909297112 -0.01696961202204355 0.08266700735673925 -0.03973880106873174 0.079601520617776 -0.02473561981198713 0.0021158855476962352
0.09404352640491347 0.0904725659963757 0.0478046333886881 0.07905337317603715 -0.0354705730472662 -0.03493616586769872 -0.036864093143240316 -0.06402837914010141
0.018009386700703508 0.03667646366029806 -0.06405340578695169 0.09085567216271451 -0.08085114201160441 0.06795724926698458 0.02926251164689462 -0.05145523085597201
0.08015736013869977 -0.034366139522035884 0.0886686649721475 -0.06877959060008104 -0.0928162504869824 -0.0190192845206909 0.0181085015609776 0.046835772497439664
0.06281292364135115 -0.040741314036000634 -0.06629016346150839 -0.025340180132825966 0.011091932662425334 -0.030580102564357305 -0.057285457980361686 0.08280532797436478
-0.048433771370377826 -0.021704690397645932 0.0681278419807376 -0.06608721932518062 0.09019151219032837 -0.03925056938948568 0.043755120211668 -0.041947739043354464
-0.00878028376737465 -0.032425940878629 0.08987981308964549 -0.051312840311347106 -0.038436465756552705 -0.008006723133988893 -0.04283334503066095 0.04140055685866735
0.07720797787538115 0.069091442756643 0.057961097375918536 0.030024126818681596 -0.08131484123923154 0.05978470048008541 -0.047238956759855545 -0.019966299392180663
-0.04753601859029602 -0.028499340978562816 0.08547615393936393 0.035954801968281894 0.05173286800348784 0.042661393320407866 0.009385663281322936 -0.08490010315030817
-0.017256620412887985 -0.03787171438872613 -0.06351745791862153 -0.04332553580997105 -0.025782991029137996 0.010632801817206996 -0.04060830485514706 0.08404181314009505
-0.03027255774760397 0.0601799750851999 -0.019887060672264836 -0.036821334184781465 0.10274254866778218 0.03409081807594913 0.012039194256399202 -0.01864274669768521
0.02035006901883611 0.013762753513422002 0.09977560337414594 -0.05642727795618795 -0.00446370428750961 -0.06879862208627628 -0.03415824574145978 0.08358978904269415
0.07687383731148476 0.09974984083114152 0.04656340586008751 -0.017385597603437466 -0.00450597541752698 -0.02154440535129897 -0.03740094362023325 0.07922102519480298

policyHead.4.weight f8 [128, 128]
00000000: 1986 be67 833e a5bf 7155 9cb9 ecc8 82bf
00000010: 66b0 5364 e2fa b4bf 659e 74cd 0b5f 83bf
00000020: 822b f4d2 5d98 a23f 60ef 3fd7 b4fc a63f
00000030: bc9a 88b1 c43d a73f 8a92 49c4 760f b1bf
00000040: 0206 1a57 82a5 86bf 12ec d884 be02 9fbf
00000050: 3358 4228 a21d b23f 9689 8bd9 2f2f 95bf
00000060: 0daf 51d6 7286 973f 7a33 fdb4 e5ea b3bf
00000070: 25e3 b74f dbf4 b03f b037 2a8a 5f60 a1bf
00000080: 8724 8885 ac44 94bf 7449 ab9b 8662 b73f
00000090: 8aa2 a513 cf86 63bf f885 fd11 2845 acbf
000000a0: fa5a 260b a7ee b33f 8973 1360 67f5 a13f
000000b0: fc03 35cc 7846 983f 5741 0051 43df b33f
000000c0: 5835 f4c1 0393 94bf 186a a24a f6f6 aabf
000000d0: f0a6 cad3 ce44 993f 663f 1ec9 2cd9 a33f
000000e0: cd21 d0d5 aa14 a23f 94bd 2838 8721 98bf
000000f0: 9c6e 5358 6ede 94bf 2fe2 b9a6 fe88 b0bf
00000100: da10 ce4e edfc a1bf 4899 3ff7 d1c1 3dbf
00000110: 2393 8cb8 31fa b03f c67d ec2e 7cbd afbf
00000120: 7984 4b53 e4a4 b23f 56f5 10a3 3916 aabf
00000130: 27d0 4978 8a81 833f 1ef2 0d5f b87b 943f
00000140: 60fb b541 f7ca b43f ac67 e72a 04b0 afbf
00000150: 5f42 d14c 75ac 70bf 219e f863 8aed a73f
00000160: d0bb 7fb2 2f00 9cbf 7c8f e3ba a789 7abf
00000170: 37e8 e89a d475 54bf 5992 32ef aad1 a63f
00000180: 6c0d ec1e 8b41 8ebf a2ea 74ac 8d87 a33f
00000190: 37cd 0ebb 6610 b0bf 0faf a55b 8b19 a2bf
000001a0: 4d9a c125 82b1 b4bf cead e624 1174 aebf
000001b0: 8ca6 1752 5edf b23f cceb 9692 c78e a93f
000001c0: cf2b 5212 b325 b83f 0c60 a890 30ce b0bf
000001d0: 0bc4 d22e ae27 a0bf 4dcc c800 eaaa a03f
000001e0: a7e0 33b8 c1ac b73f 4c01 7b97 779f a5bf
000001f0: 5bf3 04b4 21fc b7bf 022c 6336 737b b33f
00000200: 3fa9 98fc 4985 98bf 4cb4 50e2 22b2 8bbf
00000210: 4273 e0c6 8dd5 a23f 48e4 713b e593 b4bf
00000220: d480 81b8 eaca 99bf 8842 3b2a 6119 a1bf
00000230: a6b0 4283 9fe1 86bf a4ee c21d d93d a83f
00000240: 3561 af02 7df8 adbf ade5 5dcb a293 b4bf
00000250: 3590 2216 c9d1 afbf cc63 03f4 bf39 773f
00000260: 0dce 1f4c 945a adbf 2c65 571f a466 b33f
00000270: d238 6ffd 9090 913f 145b fd45 d56d b2bf
00000280: 6613 6ca4 3c42 ab3f 5445 ed5a aac9 61bf
00000290: 86c8 c08e ecba 813f 67e3 7dd4 0d77 b13f
000002a0: 7c9d 8c5b 38ba 77bf 2428 787d afbd a6bf
000002b0: c974 130d c3ca b43f 7e29 84f7 1193 a93f
000002c0: 85ee 94f4 ae23 a4bf ec28 1fd2 7e64 9dbf
000002d0: bec4 665f 03a6 b0bf 3ba8 3ef4 a46a a93f
000002e0: 120c fc85 faf9 93bf 1297 b63f 97ea a63f
000002f0: d48c 81bf 4966 b73f 0438 9c2d c938 b33f
00000300: 6c8a d845 404f b13f 0c0d 3e8e 7ce9 b73f
00000310: 9db7 987e 75dd 903f 8988 8136 8fb8 a8bf
00000320: 7874 6346 2c38 b4bf c1de a9e1 ad51 b5bf
00000330: 6859 7138 6333 b3bf 1023 12a6 42b0 aa3f
00000340: 5af7 4a0b 29ef 983f 0889 576b 27be b0bf
00000350: 32f0 9824 ef8e 9bbf 2bbd 5897 85d7 b53f
00000360: 1dec 3eec 788a b13f c0d3 362d 7743 7ebf
00000370: 6849 fa31 13a5 a93f 8dff 71b8 c012 74bf
00000380: 785a f160 f166 923f 9c80 a1f3 f056 b43f
00000390: c497 f9ff 47fb ab3f b9a8 6153 b181 a8bf
000003a0: 1221 8afb 6f54 6bbf e0d4 f9c1 71c9 b03f
000003b0: a9f1 820f 4a5b b2bf 8fb5 a1e7 e457 b23f
000003c0: 4ed7 c65c 4e2a a33f 2e90 34fd 56d0 a8bf
000003d0: 52f7 346f ad8d b53f 91b5 4208 09c9 b0bf
000003e0: d0ff 7706 d2f0 a1bf a644 5907 025f a6bf
000003f0: c803 997b e2e8 7b3f ee62 3a1e f863 a13f
00000400: fcb9 4ebb 26ad a53f d7ee a1c4 4a5a 9bbf
00000410: 8aa0 547f eee8 943f 5131 8624 0568 91bf
00000420: 6f65 58df 2b06 a0bf 5b7e a8ab 8e37 8fbf
00000430: fdca c0b8 3815 8fbf cb45 7533 2312 7d3f
00000440: c36c 72d1 029b b13f cece 779d e0a7 a53f
00000450: 6a29 b34b b345 b2bf 5dfc ab9c c459 793f
00000460: aa27 20f2 7696 b43f 2750 2eec 51ec 9bbf
00000470: 33cc 1a8e cdf8 92bf cfb8 0d37 c79b 8bbf
00000480: c480 3920 1356 b13f 39f0 8297 88e8 833f
00000490: d504 86c0 0a3c 8dbf f9c9 2d71 efdc a73f
000004a0: 1070 e540 582a 923f 680f b764 d974 9abf
000004b0: 004e 1047 9771 b83f 2419 cbf7 e6d3 983f
000004c0: d48e 8f11 bedb 26bf 48b5 0a97 58f6 9ebf
000004d0: 802c 12b9 4939 b63f 46eb 302b ec0d 9abf
000004e0: f05e 8ea5 814e b33f a991 8129 92db 78bf
000004f0: f2f8 e34f 0ff2 b03f 985b 6387 200a 97bf
00000500: 28c7 3606 2a69 b93f b0c7 2262 ce91 a63f
00000510: de96 5e65 e1f4 aa3f a8d4 02dc adbb b43f
00000520: d6b9 0645 9c82 a63f 0764 fa43 5e19 a3bf
00000530: a907 3143 6462 b03f 9b66 101c e8bc 96bf
00000540: 9702 8722 69f7 b33f 8353 415c 372a 7e3f
00000550: 3c7d 0548 8ee5 a6bf 1575 1fe5 8481 a8bf
00000560: 0211 36ad 4c86 b13f 5eb4 856c 6bd1 a83f
00000570: 4e73 0845 f34b 21bf eb8b 24a8 7f6b 993f
00000580: 8e19 6f75 da20 b33f d7e5 2529 fcd8 95bf
00000590: f3c9 1af1 aab3 b73f 1f93 6842 9bfd a93f
000005a0: 189d e773 6258 b13f 6a23 cd19 60bc a7bf
000005b0: b0ce 803f 43f5 9ebf f69d 322b 7049 a93f
000005c0: 9a40 9648 2034 94bf 1d03 ea2b fe97 a9bf
000005d0: c566 0808 7719 b1bf 359b 3766 8931 a3bf
000005e0: 4dc6 33aa e07e ac3f 54f9 ddac 53a9 adbf
000005f0: 2a5b 7b58 bba0 adbf e040 0da0 efe4 b83f
00000600: 1ca2 ec6f acab a6bf fff5 0b8b b1b3 b2bf
00000610: 5165 3894 201e ac3f 0715 c1bd c321 b33f
00000620: 3042 9784 f976 a3bf 23ad 308d 6077 b73f
00000630: d798 dbfd 8441 b23f 2504 26e1 7457 a33f
00000640: 06fc 3ef5 a521 abbf 06e7 c319 e955 90bf
00000650: e3a9 b5d1 0c0c abbf 505a 78a9 11b5 b23f
00000660: bfc5 2d07 6eab 8f3f cbf8 e104 ae16 873f
00000670: 6e95 2f4e 97b4 b13f 749c b9ce 95ce 9e3f
00000680: 9f00 6d04 63e0 a5bf 8e83 e53c 0238 9b3f
00000690: 0c20 1219 6d3b ad3f 5ee4 a4e6 2304 b1bf
000006a0: 383d f7f8 9827 dd3e 3e2d 1621 70c1 92bf
000006b0: 280d dc98 5484 a83f 24eb b3ea e4ee b03f
000006c0: 35c2 6c57 95fe 983f ab9e 89ae 98b6 96bf
000006d0: e2ab 29f3 bf2c acbf 90df 234b d5f9 ac3f
000006e0: 1762 691c f022 ad3f 4e3f d30b 804e b0bf
000006f0: 4d80 7f39 fa38 713f 0aef f503 081f 8b3f
00000700: 76f7 cc6e 9111 b63f 5d42 4857 880d b23f
00000710: f8e7 6875 9527 aa3f 012d 3ecb ddf5 b23f
00000720: 48b8 c8e5 e511 b23f 080a 6dbb 356d 92bf
00000730: 1288 8545 660c 90bf d9db 02c2 6520 a0bf
00000740: accf 9000 a38f a7bf 4a56 3873 999e 6f3f
00000750: ca61 f0e7 1330 ac3f 2a2a 5ab3 c48f a73f
00000760: b93b 3d69 c60b b73f 22c1 deb6 515d 813f
00000770: 5b4d d549 5510 82bf 84ff 7abd 8c37 82bf
00000780: dc33 f556 2319 b53f 984a b920 2c8f b53f
00000790: b39a 18b2 4786 94bf 194c 52fc e455 a03f
000007a0: 6eac 812e 734d a43f a196 ecf5 8f21 b0bf
000007b0: 422c e355 7383 a53f 775b ebb6 73c9 983f
000007c0: daa5 0c9d 4251 6bbf f975 5d14 2e97 acbf
000007d0: 6d55 3e25 29a0 a2bf 111f 6643 2511 91bf
000007e0: a847 6e0b cd9c 573f 37e3 22d0 322f 963f
000007f0: 28d1 bb07 d5cc 953f 88d5 6586 3669 87bf
-0.04149256364258864 -0.009172295965565099 -0.08195319127452336 -0.009458629806047012 0.03631871414298528 0.044896746898273276 0.045393129989226705 -0.06664221088574088
-0.011057871134883438 -0.030283905847891708 0.07076467020883186 -0.020687816288850046 0.022973818140982028 -0.07780299824407946 0.06623621650932117 -0.03393839418013955
-0.019793220186362006 0.09134713459505922 -0.0023836178271959317 -0.055215122409901285 0.07786029836857358 0.03507540748407851 0.02370632883435418 0.07762547233165172
-0.02009206649113557 -0.05266542111458622 0.024676543881162638 0.038766288328701035 0.03531392917654195 -0.023565399935419132 -0.02037975706194449 -0.06459037371121988
-0.035132804746383875 -0.00045405746572981355 0.06631766086190942 -0.06199253151703092 0.07282855065888495 -0.05095081439547282 0.00952442340460642 0.02000320511023023
0.08122201303738796 -0.061889772641463864 -0.004070718959227364 0.04673416586257085 -0.02734446074458302 -0.006478934474419048 -0.0012487961026992464 0.04456838769809641
-0.014773451691786753 0.038143565465778254 -0.06275026385155945 -0.035351138055231705 -0.08083356305869778 -0.059479270700957806 0.07372083191116924 0.0499174467508606
0.09432524869241309 -0.06564620525057324 -0.0315527374417642 0.0325539709050636 0.09247980830321244 -0.04223226284148271 -0.093690973711046 0.07610244825188775
-0.023945957224136945 -0.013523361713021619 0.03678553631491478 -0.08038170529643296 -0.025188128959030845 -0.03339675560494465 -0.011172529404881292 0.04734686363505361
-0.058536440446632566 -0.08037774529466075 -0.06214741130068583 0.005670308892342168 -0.057331690113553525 0.07578492894335359 0.01715303942528907 -0.0719884200928898
0.053239722319665714 -0.0021713568925540248 0.008657310587384847 0.06822287023341077 -0.005792827746325609 -0.04441593557938031 0.08121890134084987 0.04995018145025919
-0.03933474288575404 -0.028703672003566646 -0.0650331600106879 0.04964175683501578 -0.019508280208366875 0.04475853588819069 0.09140454221192168 0.075085233340559
0.06761552529546017 0.09340647194590107 0.01646979890045196 -0.04828307667118376 -0.07898213118046893 -0.08327757605899945 -0.07500286224362684 0.05212600972396875
0.024349824251422937 -0.06540151949551298 -0.026912438019494007 0.08531985230432741 0.06851917045325746 -0.0073885588966974836 0.05008754715994962 -0.004900696577465069
0.017970820943754323 0.07945161769885306 0.05465149879164202 -0.04786447661247579 -0.0033361613425918557 0.06557379708995681 -0.0717054641599534 0.07165365843839865
0.03743214495209078 -0.04846450653920474 0.08419307675373247 -0.06556755496668233 -0.035040438928262696 -0.043693602940615237 0.006813893030597158 0.033965829553556634
0.04233666454762283 -0.026711624385355428 0.020419813653604048 -0.016998367647418636 -0.03129708386786489 -0.01524268590315996 -0.015177195680825312 0.0070973753966696125
0.06877153027965037 0.042296427938621414 -0.07137604330197225 0.006189125075933691 0.080420908081719 -0.027268676796282556 -0.01852723293150067 -0.0134807170558954
0.067719645850505 0.00972086632133805 -0.014274677276946349 0.04660747772767943 0.01773965736479971 -0.025836369297180722 0.09548326001122831 0.02424584281359289
-0.00017439551518726745 -0.030236610621320353 0.08681164520582918 -0.025443735252547194 0.07541666309259276 -0.006068774171670213 0.06619353962375721 -0.022499569190440022
0.09926092769344719 0.04408116290996078 0.05264953958912398 0.08098875638354974 0.04396522848707078 -0.03730291919527678 0.06400133743684812 -0.02220499678887809
0.07799393742517179 0.0073644793047450445 -0.04472012166183467 -0.04786315247450027 0.06845549801625242 0.048472744939183285 -0.00013196320152610925 0.02482413734209025
0.07472005240479104 -0.021335544597126912 0.09258526216834877 0.05076298890734265 0.0677548916788634 -0.04635906519849338 -0.030232477904248156 0.04938841368976547
-0.019730095320085718 -0.049987738476380474 -0.06679481454957699 -0.037487310149848 0.05565549924530142 -0.05793248639291684 -0.057866911459930684 0.09724328668130822
-0.044278515494003495 -0.07305440563865061 0.05491735276536736 0.07473395712539253 -0.03801707976856894 0.09166530081772754 0.07131224820804803 0.037776615604350895
-0.05299109095312109 -0.01595272273787087 -0.052826309775656964 0.07307539355711268 0.015463695139007137 0.011273726963051086 0.06916185053667842 0.03008493494271787
-0.042727560320146234 0.026580843893842458 0.05709401064910943 -0.06646942501983363 6.9510168851504925e-06 -0.01831603242821455 0.04788460126840227 0.06614523630188934
0.02440865846728198 -0.022180925038269333 -0.05502891391082422 0.05659357588041225 0.05690718027898727 -0.06369781769467162 0.004204728546000136 0.013242781277532884
0.08620556788534181 0.07051899081148734 0.051083250601052954 0.07406412326797708 0.0705856023784871 -0.01799472767312163 -0.01567230033231943 -0.031497173245433614
-0.04601773626237046 0.0038598057815402475 0.05505430418287778 0.046018740552501505 0.09002342290226197 0.008478773492101303 -0.008820215526305011 -0.008895015270695479
0.08241482613557544 0.08421588705940974 -0.020043487782596524 0.031905322838746204 0.039653396060054344 -0.06301212076194897 0.04201851294927696 0.024205978431236255
-0.0033346463245791215 -0.055840911851856086 -0.036378179355930886 -0.016666967619612786 0.0014411928548025785 0.02166442294467005 0.02128918513968006 -0.011431146599288025
