Quixx/diffRules/ModelsNN2/version_3_model_2.pt (torch, 642022 bytes, 23 tensors)

policyHead.0.weight f4 [128, 122]
000000 7a 5c 86 be f6 49 c8 3c da 84 6d 3d da 2d ea 3d
       -0.2624243 0.02444933 0.057988025 0.11434527
000010 92 95 24 3d 3f 90 73 bd de 0c f9 be d5 e9 ff 3d
       0.040181704 -0.059463736 -0.4864263 0.12495772
000020 96 76 0e 3e 66 b4 57 3e ed 5f 8a bd bc c9 ed bd
       0.13912424 0.2106491 -0.06756578 -0.116107434
000030 48 d0 b5 3c 69 15 44 be 54 9f b8 3d 84 31 3d bd
       0.022194043 -0.19148792 0.090147644 -0.0461898
000040 a5 33 ad bd 89 74 c8 3d ca b5 38 be 32 ff 31 3e
       -0.08457116 0.09787852 -0.18038097 0.17382506
000050 ec 42 09 bd 0f 56 8c be 3c 9c 70 bd fc b7 79 3d
       -0.033511087 -0.27409407 -0.058742747 0.060966477
000060 d2 00 31 be fe ac b1 3d f7 b4 f9 3c e7 6c ec 3d
       -0.17285469 0.08675574 0.030481799 0.11544209
000070 e0 de 31 be 6e 4a bd 3d 92 91 fe 3c 1a 67 b1 3d
       -0.17370176 0.09242712 0.031075273 0.08662243
000080 f8 71 0c 3c 07 5e 8a 3d 26 13 98 be 76 d1 5f be
       0.008572094 0.067562155 -0.2970211 -0.21857247
000090 bf a9 44 be 23 f6 ca bd 8a a8 9b bd f1 36 65 3c
       -0.19205378 -0.09910228 -0.07600506 0.01399015
0000a0 34 38 b5 3c a7 5d e7 bd 3f c4 32 3d 28 4f f4 bd
       0.022121526 -0.1129716 0.043644186 -0.1192916
0000b0 76 ce bd 3c 65 c6 58 bd b9 d6 41 3e 9f e1 ea 3d
       0.023169737 -0.05292358 0.18929566 0.11468815
0000c0 48 b2 24 3e 32 87 24 3c 51 4a fa bc eb 68 29 be
       0.16083634 0.010041999 -0.030553015 -0.1654393
0000d0 1b c0 5e 3d db 0c 6d 3c 9d db 8e bd da 07 fd bd
       0.054382425 0.014468397 -0.06975482 -0.12355013
0000e0 6b 5e e4 3d 74 13 27 3e 4c 3c 03 3c a5 42 cd bd
       0.11150821 0.16316015 0.008009981 -0.10022477
0000f0 6e e1 a2 bd 43 2e 21 3e 4b cb 4a bd 25 0e c2 bd
       -0.079531536 0.15740304 -0.04951028 -0.09475354
000100 94 6c 7e 3d aa 63 cd 3d 0f 0c 3c bc 7e 00 c5 bd
       0.062115267 0.10028775 -0.011477484 -0.096192345
000110 50 ae e2 3d d7 8e 89 3e 02 1f 74 be 49 c6 8d be
       0.11068404 0.2686679 -0.23839954 -0.27690342
000120 05 d9 1e bd 37 02 0a be 03 ed c4 3d 0c 65 56 bd
       -0.038781185 -0.13477407 0.09615519 -0.05234246
000130 86 de b5 be 86 35 8d be 3b b3 5d be c0 99 9d bd
       -0.35521334 -0.27579898 -0.21650402 -0.07695341
000140 4a 95 30 3d 4b 5f 26 3d e3 35 8c 3d 78 7f bb bb
       0.043111123 0.040618222 0.068462156 -0.0057219826
000150 e9 d2 45 3e 0b 2c 79 bc 02 b0 07 3e 49 95 32 3e
       0.19318737 -0.015208255 0.13250735 0.1743976
000160 06 2c 56 3d bd 40 07 3d e6 a3 0d 3e 88 ff 96 bc
       0.052288078 0.033020724 0.13832054 -0.018432394
000170 8b b0 24 3e 5c 45 3f 3d 50 be 13 3d c4 73 ab bc
       0.16082971 0.046697006 0.036070168 -0.020929225
000180 35 a1 f7 3d 42 51 09 3c 16 a8 f0 bb 27 7c 32 3d
       0.12091295 0.00838119 -0.007344256 0.043575432
000190 28 f1 25 be 29 51 42 3d 6d af 4a bd 8e 7a 81 3d
       -0.16205275 0.04744068 -0.049483705 0.063222036
0001a0 1d 14 d9 3d 42 d0 67 3e b7 24 86 3d 9a 1a 4c bd
       0.105995394 0.22638038 0.065499716 -0.049830057
0001b0 94 16 4f bd 09 ed f9 bd d2 b5 60 be 33 53 1e bd
       -0.05055864 -0.12203414 -0.21944359 -0.038653564
0001c0 ba 0c ba bc 32 7c 72 bc 31 a0 24 3d 72 6f 30 3d
       -0.022711147 -0.014800118 0.040191833 0.043075033
0001d0 65 ec ab bc 63 53 b2 3d c4 c8 b5 3d 80 65 3f bd
       -0.020986745 0.08707311 0.08876184 -0.046727657
0001e0 01 13 e0 bd f4 18 1b be 1d 1a 3e bd 17 df 75 3c
       -0.10941125 -0.15146238 -0.046411622 0.015006802
0001f0 69 48 00 be 69 75 0c be c2 3f df 3d b9 ca 50 3d
       -0.12527622 -0.13716663 0.10900833 0.05097458
000200 b0 69 0d 3e 9a 18 62 3d 97 0a 14 bc 85 01 b2 bd
       0.13809848 0.055199243 -0.009035728 -0.08691696
000210 56 17 14 bd 51 2e a3 3c 35 5c 12 be ba 4e 11 be
       -0.036155067 0.019919546 -0.14292987 -0.14190188
000220 43 2e f6 3d ca 43 12 be 22 b4 48 3e 07 57 be 3d
       0.120205425 -0.14283672 0.19599965 0.09293943
000230 e4 05 b2 3d 8a 6a 77 be 02 72 4d be 5c 16 40 be
       0.0869253 -0.24161735 -0.20063022 -0.1875853
000240 e0 ac 81 3d 45 7a 8e 3e 23 f7 9e bd 3c 7b 55 3d
       0.063318014 0.2782766 -0.07761981 0.05211948
000250 ef b6 b2 3d 6f dd b6 3b 93 0f bf bd fc 34 27 3c
       0.08726298 0.005580596 -0.093291424 0.010205504
000260 76 d5 0f 3e b0 cb 75 3d d0 5f ee bd 4a fa e1 bc
       0.14046273 0.060008705 -0.116393685 -0.027585167
000270 6c bf 89 3e 43 d3 b7 3c 52 81 86 bc 6a 12 95 bc
       0.26903856 0.022439605 -0.016419087 -0.018197257
000280 bd 4e 5c bd 34 d3 8e 3b 8b da c9 bd fc f9 97 bd
       -0.05378603 0.0043586735 -0.09856137 -0.074207276
000290 8f ad c1 bd dd cc 75 bd 9d 5b 94 bd 6b cc d5 bd
       -0.09456932 -0.060009826 -0.07244036 -0.1043938
0002a0 9b 44 81 be 75 f5 8f 3e 51 c7 d8 bc 0c ce a0 bd
       -0.25247654 0.28116956 -0.026462229 -0.078518
0002b0 7e 22 06 3e f9 96 90 bd 6c 2e 02 bd 7a 4b e7 bd
       0.13099095 -0.07060046 -0.031782553 -0.11293693
0002c0 83 2e 6a bd 2e 31 d0 3d 4e d6 6d 3b 18 63 d3 3d
       -0.057173263 0.1016563 0.0036291066 0.10321635
0002d0 ac 89 b8 3d dc 69 0c bd 00 e7 aa 3d 36 33 15 3e
       0.09010634 -0.034280643 0.08344841 0.14570317
0002e0 14 9d 63 3d 99 78 d3 bd a4 1e 3c be cc 16 d4 bd
       0.055569723 -0.103257366 -0.18371063 -0.10355911
0002f0 4e aa dd bd e6 cc 75 bb d1 06 f9 bd 1e b4 1e 3e
       -0.10823499 -0.0037506162 -0.12159503 0.15498397
000300 27 71 e5 bc 09 24 0a be bc c2 17 bd 52 4b 28 be
       -0.028008057 -0.13490309 -0.037050948 -0.16434982
000310 6b 44 24 bd 67 65 90 3c 08 e1 2b bd cd fa db bd
       -0.04010431 0.017626477 -0.041962653 -0.10741196
000320 72 4c b8 bd 3c a6 09 3a 01 c1 b4 bd 9f d9 e9 bd
       -0.08998956 0.0005250906 -0.08825875 -0.11418461
000330 b4 f0 84 3d 40 d7 c4 3d f0 e4 c3 3d e8 c7 fb bc
       0.06491223 0.09611368 0.09565151 -0.030734971
000340 87 9a 16 be 06 89 6e be e0 cb 22 be 0d b5 c1 bd
       -0.14707385 -0.23294458 -0.15898085 -0.09458361
000350 26 70 92 bc ea da c1 3d f8 7b e1 3a 44 52 e6 bd
       -0.017875742 0.09465583 0.0017203083 -0.1124616
000360 17 0e 41 bd 34 a9 4e bd 67 0b 24 be e6 b3 ae 3c
       -0.047132578 -0.050454333 -0.16019975 0.021326017
000370 b8 15 49 bc d0 98 af 3d 63 98 14 3c 2d 4a 50 be
       -0.012273245 0.085740685 0.009069535 -0.20340796
000380 43 3c f0 bb 7b 9b 0a be f0 f0 c6 bd 4d 9e 98 bd
       -0.0073314025 -0.13535874 -0.09713924 -0.074520685
000390 0c 0e 49 bd 28 9e 2e be 42 39 c2 bd 94 b0 8e 3d
       -0.04908566 -0.1705252 -0.09483577 0.06967273
0003a0 ed da 01 3c cb 3f 26 3d 98 27 74 bd 38 fb 90 3b
       0.007925731 0.04058818 -0.059608072 0.004424479
0003b0 8b 74 08 bd 34 d9 f7 3b d1 c0 a3 bc 3a 4c 9c bd
       -0.03331427 0.0075637344 -0.019989403 -0.076317266
0003c0 ed c6 08 3c 29 4a 3d be cc 8a bf 3d c7 a4 11 bd
       0.008348209 -0.18485321 0.09352645 -0.035557535
0003d0 4e 31 1b be 33 fd 6e 3d 53 81 94 3e 79 40 63 bd
       -0.15155527 0.05834694 0.29004917 -0.055481408
0003e0 38 fc 1d 3d c5 80 2d be dc e4 e2 3b e7 f9 2e 3e
       0.038570613 -0.16943653 0.006924255 0.17087518
0003f0 d1 54 4c be 0d c7 db bd 57 c4 37 be 0d 57 c2 3d
       -0.1995423 -0.10731325 -0.17945991 0.0948926

policyHead.0.bias f4 [128]
000000 02 36 c8 bd fd 9b cb bc 19 1f 60 bd 90 a5 15 be
       -0.09775926 -0.024854654 -0.054717157 -0.14613938
000010 74 85 1c bd 4b 69 93 bc 21 6d 16 be 5f c6 e5 bc
       -0.03821321 -0.017994544 -0.14690067 -0.028048692
000020 25 7e 55 bd 10 a1 bd bd 27 f0 84 bd 9e 4d e2 ba
       -0.052122254 -0.09259236 -0.06491118 -0.0017265563
000030 34 a3 9b bd 05 b0 70 bc c6 63 05 3d 3b 3c 03 be
       -0.07599488 -0.014690404 0.032565854 -0.12815945
000040 7c 0a ef bc 02 60 48 bd a0 a7 3b bd f5 b1 aa bb
       -0.029179804 -0.048919685 -0.045814157 -0.0052092024
000050 a0 ec 2f bd f5 a5 68 bd 8a 0b ee bc 7c 11 0a 3d
       -0.042950273 -0.056798894 -0.029058237 0.03370808
000060 f9 5f 02 bd 7f 51 54 bd 9b 82 df bc 71 36 e0 bd
       -0.031829808 -0.051835533 -0.027283957 -0.10947884
000070 2a db 40 bd b4 fd 32 3d 8e 13 2f bd be 53 b3 bd
       -0.04708401 0.04369898 -0.04274326 -0.08756207
000080 08 7a 36 bd bf 14 43 bc fd 28 ba bd a5 12 e4 bd
       -0.04454997 -0.011906802 -0.09089849 -0.11136369
000090 51 94 7e bc b1 ca 9d bd cc 5f 61 bd cd ca 1a bd
       -0.015538291 -0.07704676 -0.055023 -0.037791062
0000a0 11 9e 25 bc e4 d1 df bc a2 0a e0 bc a6 58 f8 bd
       -0.010108487 -0.027321763 -0.02734882 -0.12126283
0000b0 f8 08 b8 bc 16 6b 4f bd 55 9f 20 bd 9a 23 75 bd
       -0.022465214 -0.050639234 -0.03921445 -0.059848405
0000c0 8e 2c 81 bd ee 88 0b be 51 83 0c be e6 0c da bd
       -0.06307326 -0.13626453 -0.13721968 -0.106469914
0000d0 da 75 42 3b 54 37 33 bd b8 51 1c bd ff 42 89 bd
       0.0029672296 -0.043753937 -0.03816387 -0.067022316
0000e0 42 cf 5f 3c e2 74 9b 3d 0c 73 ea bc c4 a8 4e bd
       0.013660254 0.07590653 -0.028619312 -0.050453916
0000f0 58 b6 e3 bc 35 14 85 3c a7 c8 9d bd 14 d1 fa bd
       -0.02779691 0.016244987 -0.07704287 -0.1224691
000100 5f d8 b1 bd fd 27 d5 bd c1 91 45 3b 49 1e 81 bc
       -0.08683848 -0.10408018 0.003014669 -0.015761511
000110 a7 d8 5b bd 13 9f 43 3b 5c 08 89 3c 93 6e f6 3c
       -0.053673413 0.0029849454 0.016727619 0.030082023
000120 03 f0 66 bd ed 49 50 be 89 10 bf bd 0f 43 72 bd
       -0.056381237 -0.203407 -0.09329326 -0.059145983
000130 ac 20 bc bd 3f 1b 22 3c c3 fc 4a bc b1 bc 36 bd
       -0.09185919 0.009894191 -0.012389365 -0.044613544
000140 05 f4 17 bd 07 79 61 bd 67 64 91 3c d7 7b 18 3d
       -0.03709795 -0.05504706 0.01774807 0.037227478
000150 07 98 93 3c ae 70 ac 3c 6e 51 ce bc 68 29 5a bb
       0.018016828 0.021049824 -0.025185313 -0.003328884
000160 5a 14 de bd d9 a5 18 be 05 71 81 bd 56 f9 39 bd
       -0.108437255 -0.14907016 -0.06320385 -0.0454038
000170 57 73 76 3c 9c d6 9a bd 17 b7 ce 3c 4e 9d 2b bd
       0.015042148 -0.07560465 0.025233788 -0.041898064
000180 32 47 8c bd 70 16 04 be 0c b1 c5 3c 3c f5 09 3d
       -0.06849517 -0.12899184 0.024132274 0.03368114
000190 bf 4a c2 bd cf 79 5a 3c 09 92 4b bd 0b c3 b0 bc
       -0.09486913 0.0133347055 -0.049699817 -0.021577379
0001a0 94 74 bf 3d 20 f2 24 3d ed 34 2e bc 3a d9 cd bd
       0.093484074 0.04026997 -0.010632736 -0.10051198
0001b0 dd e9 42 3d 28 6f 67 bd 0f db 1e bd b8 74 c9 bc
       0.04758631 -0.05650249 -0.03878313 -0.024591789
0001c0 c0 5b 9c bd ca 93 bb bd 28 db d8 3c 40 fa 9e bc
       -0.076346874 -0.09159048 0.02647169 -0.019406438
0001d0 60 20 17 bd e3 67 96 3c d1 1a 11 3d 07 69 a5 3d
       -0.03689611 0.018360084 0.035425965 0.08076673
0001e0 87 74 a6 3c a8 42 58 bd 7d de 9e bc 29 ba 9d ba
       0.020319236 -0.052797943 -0.0193932 -0.001203363
0001f0 ff 19 5a 3d 48 e8 42 bd a7 31 8d bd 4f 09 9d 3c
       0.053247448 -0.047584802 -0.06894236 0.019169478

policyHead.2.weight f4 [128, 128]
000000 dd fa c7 3b 20 7c a9 3b 61 03 5a be a6 f3 17 be
       0.0061029033 0.0051722676 -0.21290351 -0.14839038
000010 4d 69 3c 3e 73 d2 a8 bd d3 4c 8d 3c 53 ab 02 3e
       0.18399544 -0.08243265 0.017248547 0.12760668
000020 65 3e 33 3e 6c bd 87 be c7 29 de 3d b3 bc 11 be
       0.1750427 -0.26511705 0.10847812 -0.1423214
000030 bc 2e 0d 3e 58 0b ce 3c 59 53 c8 bd ac 7f 4f be
       0.13787359 0.025151893 -0.09781522 -0.20263547
000040 f5 c2 8a bd 86 ee 9e bd 0c fa 33 3e d3 ca bf 3c
       -0.06775466 -0.077603385 0.17575854 0.023412144
000050 c8 71 93 bd d5 69 16 be 0b 12 35 3e 85 f8 64 bd
       -0.071994364 -0.14688809 0.17682664 -0.05590107
000060 18 e2 62 3e 79 58 4d be 3e 6e d4 3d 00 a4 a7 3d
       0.2215656 -0.20053281 0.103725895 0.081855774
000070 b9 e4 ac 3c 5b 18 b3 bd 5e 95 43 bd fe ab e7 bd
       0.021105157 -0.0874488 -0.04774987 -0.11312102
000080 12 2f 88 bd 62 8d 04 3d 90 e4 3d 3e ed 63 5f be
       -0.06649603 0.032361396 0.18544221 -0.21815462
000090 a4 de 62 3d 02 07 a1 3d 09 c4 92 3c 3f 17 1e 3e
       0.055388108 0.07862665 0.017915742 0.15438555
0000a0 cf 96 29 3e 39 04 14 bd 6d e0 25 3d e1 ab f9 bb
       0.16561435 -0.03613684 0.040497232 -0.0076193665
0000b0 06 38 14 3e 51 ff 83 3b 42 ab 51 3b 39 9e b2 bd
       0.14474496 0.004028239 0.0031992947 -0.08721585
0000c0 ef 54 3f be 77 9a f7 bc 8a 5a 56 be a0 34 fb 3d
       -0.18684743 -0.030225022 -0.20932975 0.12265897
0000d0 ce 30 61 3e ee 1f 2a bd dd b3 96 3d 4e a4 0b be
       0.21991274 -0.041534357 0.07358525 -0.13636896
0000e0 f7 40 9a 3d 49 27 df b8 da 1b c8 3c 23 2d d8 3d
       0.07531922 -0.00010640786 0.024427343 0.10555484
0000f0 85 1e f0 3c f8 94 5a bd d2 a4 81 be 18 c7 d8 3d
       0.029311428 -0.053364724 -0.2532106 0.10584849
000100 9a bd 64 3e af 13 1d bd 91 68 38 be 72 4e 0c 3e
       0.22337952 -0.03834885 -0.18008639 0.137018
000110 76 76 d3 3c 3c e6 fb bd 6d 16 35 3e 69 45 4d bc
       0.025813323 -0.12299773 0.17684336 -0.012528756
000120 13 f5 66 be d8 6d 93 bd a8 57 5a 3d cd 76 3c 3d
       -0.22554426 -0.071986854 0.05330625 0.046011735
000130 d3 96 38 3e 83 50 a2 be b6 11 45 bd 4a e7 b8 3d
       0.18026285 -0.3170205 -0.048112594 0.0902849
000140 67 52 d8 3d f3 db 9c 3d 48 65 05 be 93 7f a7 bb
       0.10562592 0.076591395 -0.13026917 -0.0051116436
000150 11 79 a8 bd 86 d8 9a 3d 8e b1 8c bd c6 76 88 bd
       -0.082262166 0.0756083 -0.06869803 -0.06663279
000160 f4 18 cb bd 08 08 ad 3b 3a 42 95 3c 2d 77 23 be
       -0.09916869 0.0052804984 0.018220056 -0.1596343
000170 b1 40 f6 3c 6c dd 27 bc 9c 9e 67 bc 59 8f 8b 3d
       0.030060144 -0.010245662 -0.0141369365 0.06814451
000180 94 6a 16 3d 80 62 a7 bd 72 0b 6c 3c 81 3b d7 bc
       0.036722735 -0.08173084 0.014407026 -0.02627349
000190 c2 af 97 3d 13 10 9d bd 01 9f 64 3e 92 59 26 be
       0.0740657 -0.076690815 0.2232628 -0.16245106
0001a0 10 0d 82 bd bf 8e d2 3c 4f 70 12 bd 57 01 eb 3c
       -0.06350148 0.025702832 -0.035751637 0.028687162
0001b0 82 96 dc 3c 01 d7 03 3e 6f bb 57 be 9b a6 04 be
       0.026927236 0.12874986 -0.21067594 -0.1295418
0001c0 d1 d4 5a bd 11 4f 13 3e 4c 48 e7 bd 2d 4d 6e bd
       -0.053425614 0.1438563 -0.112930864 -0.05817907
0001d0 e9 21 07 be bb 5f 1a 3d 49 ba 44 bc b1 6c a4 3e
       -0.1319653 0.037688952 -0.0120073045 0.32114175
0001e0 8d bc 41 be 9e f4 97 bb 0e d0 00 be d5 9e a2 3a
       -0.18919583 -0.004637315 -0.12579367 0.0012406955
0001f0 e0 9b b8 bd a0 f2 a2 3e cf 76 e2 bc 8d d8 1e be
       -0.09014106 0.31825733 -0.027644543 -0.15512295
000200 9b 9f ed 3d 7a ca 23 bd e2 d3 b4 bd 7e d0 9e bd
       0.11602708 -0.03998802 -0.08829476 -0.077546105
000210 4e 34 5b 3c c0 d0 07 bd 61 31 84 bd f6 1a dd bd
       0.01337917 -0.033158064 -0.06454731 -0.10796158
000220 6f 3a 42 3e 19 2f 55 be 26 67 6c bd 64 30 df bd
       0.18967603 -0.20818748 -0.057715558 -0.10897902
000230 80 22 b0 3d ad 3d 8d bd 39 f8 36 3c 16 97 93 bd
       0.0860033 -0.06896529 0.011167579 -0.07206552
000240 0a 7b 00 3b d2 e1 11 bd 26 4c 51 bd 03 de 86 be
       0.0019604587 -0.03561575 -0.05109801 -0.26341256
000250 68 8b 21 bd c7 12 97 3d e4 87 91 bc cf ef cf 3d
       -0.03943959 0.07376628 -0.017764993 0.10153162
000260 0c d2 96 3b 11 6e 72 be 01 86 8d 3d f1 f0 9e bc
       0.0046026763 -0.236748 0.06910325 -0.019402
000270 98 77 16 3c ca 60 8a 3d d9 1e be bd 4c ea 43 bd
       0.009183787 0.06756742 -0.092832275 -0.047830865
000280 ec 3a 21 be 2c 62 4c bd 0c a3 e7 3d 17 2e 6c bd
       -0.15745133 -0.04989831 0.113103956 -0.057661142
000290 13 65 e3 bd 20 a2 e1 bd 61 2b 27 be c9 99 d8 bd
       -0.11103263 -0.11017251 -0.16325141 -0.10576207
0002a0 9c 0e 59 bd 9f e4 5d be b2 b9 60 3b 31 87 60 bd
       -0.05299245 -0.21669243 0.003429037 -0.05481643
0002b0 ec c9 f3 bd 42 d6 04 bd 63 08 43 be 93 8d 7b bd
       -0.11903748 -0.032430895 -0.19046168 -0.061414313
0002c0 13 b2 5c be 8e 75 af 3c d2 2b 21 be 19 f1 06 be
       -0.21552305 0.02141836 -0.15739372 -0.13177909
0002d0 72 95 6c 3e f8 17 ab bb 9d 46 18 bd 06 8c 08 3d
       0.23103884 -0.005221363 -0.037176717 0.03333666
0002e0 c1 c6 86 3d 79 94 2b be 2c 71 d0 bd 50 96 6a 3c
       0.06580878 -0.16755857 -0.10177836 0.014318064
0002f0 8f c6 b6 bd 71 7d 33 bd 9b a7 35 be f7 d0 ec 3b
       -0.08924591 -0.043820802 -0.17739718 0.007227059
000300 60 79 0f be 78 59 cf bd 32 7b 73 bd e1 b3 04 be
       -0.14011145 -0.10124487 -0.05944366 -0.12959243
000310 2f 60 c7 bd 15 48 cf 3c ac 35 5e 3e 9c 48 d0 bd
       -0.097351424 0.025302926 0.21700162 -0.10170099
000320 5a 10 d9 bd c6 55 18 be 33 65 df 3b f5 e7 40 be
       -0.10598822 -0.1487647 0.006817484 -0.18838485
000330 8c 50 84 3d 55 68 a8 3d d3 80 04 be 34 3d f4 bd
       0.064606756 0.08223025 -0.12939768 -0.11925736
000340 ba 54 97 3c ef 9d e6 bd 7a 8b 4a bd 47 50 0d be
       0.018473018 -0.11260592 -0.04944942 -0.13800155
000350 19 fa 74 3d 6e 68 70 bd 21 d5 3e bd bf 99 a1 3d
       0.059808824 -0.058693342 -0.046589974 0.07890653
000360 8a ea 8a 3d 5f 45 86 3c e4 d8 37 3c 2a ed 49 be
       0.06783016 0.0163905 0.011221144 -0.19719377
000370 2f 6b 3e be a3 9a 33 be 7d 65 04 bd 92 f6 84 3d
       -0.18595575 -0.17539458 -0.03232335 0.06492342
000380 42 33 8f bc b8 34 6a bd b2 58 a0 bd 50 96 c6 3d
       -0.017480496 -0.057179183 -0.07829417 0.096966386
000390 3d 93 d3 bd 3f b4 02 3d 1a ad 50 be 51 86 01 3e
       -0.10330818 0.031910177 -0.20378533 0.12648894
0003a0 42 66 4b 3c a7 d0 9f bc af 4b c7 3d 60 26 6f 3d
       0.012414517 -0.019508673 0.097312324 0.058386207
0003b0 f1 e5 39 bc ec 20 ae 3c 31 6a 3b 3c dc 4a 72 bd
       -0.011346326 0.021255933 0.011438892 -0.059153423
0003c0 21 91 3c 3e 1c 64 18 be 06 f2 93 bd 3a cd 03 bd
       0.18414737 -0.14881939 -0.07223897 -0.03217814
0003d0 8f 8e e5 bd e0 20 92 bc 19 76 15 be dc 14 5d be
       -0.112088315 -0.017837942 -0.14595832 -0.21589988
0003e0 0d 6d 05 3d 12 6a 2d be f8 67 1f be 6b 1f 67 3d
       0.032574702 -0.16934994 -0.15567005 0.056426447
0003f0 a1 68 46 3d d7 46 2e 3d ac 31 75 bc 19 04 20 be
       0.048439626 0.042548027 -0.014965456 -0.15626563

policyHead.2.bias f4 [128]
000000 31 c7 55 3d 20 ee d5 bd 08 6a 4d 3d 37 f6 32 3d
       0.052191917 -0.10445809 0.050149947 0.04369184
000010 c5 c9 b8 bc 6f 75 75 bc 43 74 a8 bc 4f e5 76 bd
       -0.022557149 -0.014981612 -0.02056325 -0.06027728
000020 51 7a dc bd b4 6a d0 bd c3 46 40 bd c6 cd 15 3d
       -0.107655175 -0.10176602 -0.046942484 0.036573194
000030 aa b3 7c bc bc fb 6c bd c5 93 7e bd f3 0d a4 bd
       -0.015423695 -0.05785726 -0.062152643 -0.08010473
000040 0d aa 12 3d b9 30 44 3d fc ff 89 bc 59 1d e2 bd
       0.035806704 0.047898028 -0.016845696 -0.11040754
000050 dc 6a a5 bd 57 02 75 bd 5b 10 54 3d a0 e6 ec bc
       -0.080770224 -0.059816685 0.05177341 -0.028918564
000060 9f df 38 bc 9e 6f 31 be 33 0a d9 3d 89 f3 b6 bb
       -0.011283784 -0.17327735 0.105976485 -0.005583231
000070 67 25 78 3d 7e 92 7d 3d 3c 46 3f bd 5a d3 96 3d
       0.060582545 0.061907284 -0.04669784 0.07364531
000080 38 ce 99 bc 55 3b 73 3d 9e fa ac bc 2d eb d9 bd
       -0.01877509 0.059382755 -0.021115597 -0.10640559
000090 f1 46 c3 3d 2a 46 a4 bd ea 49 91 3d da 5f ad bd
       0.095350154 -0.08021195 0.07094176 -0.08465548
0000a0 d2 cf 6c bd e9 81 89 bd c5 05 c9 bc 54 6e 46 bc
       -0.05781538 -0.067142315 -0.024538884 -0.012111265
0000b0 38 58 8c bc f6 fd 65 bd b9 0f be bc 8e 4e 65 bc
       -0.01713191 -0.0561504 -0.023200857 -0.01399578
0000c0 ab a0 22 be 72 dc fb bd f5 be ef bc 46 53 1b be
       -0.15881602 -0.12297906 -0.02926586 -0.15168485
0000d0 cf df 05 bd b2 cb e7 bd 77 72 b5 bc 50 d9 74 bd
       -0.032684144 -0.11318149 -0.022149308 -0.059777558
0000e0 aa 39 16 bc df 14 32 3d 1b ee 93 bd 7c e5 31 3d
       -0.009169022 0.043476935 -0.072231494 0.043431744
0000f0 c2 ff 42 3d 74 9b b6 bc 3b 94 8f bd 35 ea b4 3c
       0.04760719 -0.022290923 -0.070106946 0.022084335
000100 3e f5 4d bd 4e b1 b5 bd 73 ff 1d be 5e cb 12 3d
       -0.05028271 -0.08871709 -0.15429477 0.035838477
000110 36 af a2 3c f7 3e 06 3c 54 35 c4 bd f7 aa 9a 3a
       0.019858938 0.008193723 -0.09580484 0.0011800219
000120 e8 a8 20 3d cc 3e 39 bc 70 00 b2 bd 28 93 c6 bd
       0.03922358 -0.011306476 -0.0869149 -0.096960366
000130 91 8f c5 bc 7b 67 37 bc e0 b9 c1 bd ad 7c 2c bd
       -0.02411631 -0.011194105 -0.09459281 -0.042111088
000140 f0 62 8d bd aa c7 15 bd 45 e5 83 3b 9a 1c cf bc
       -0.069036365 -0.036567368 0.004025134 -0.025282193
000150 5c e3 e9 bd ef 14 cf bd cf 2f b5 bb c5 85 32 be
       -0.114203185 -0.10111415 -0.005529381 -0.17433842
000160 3d cd c6 bc c6 09 8b bd 1a f0 aa bd 90 ff de bd
       -0.024267787 -0.067889735 -0.08346577 -0.108885884
000170 98 8c dd bc 3a 10 1c be 8c 10 fa bc 3c 28 f4 bd
       -0.02704458 -0.15240565 -0.030525468 -0.119217366
000180 7d 15 47 bd 9a 48 c7 bd 19 2d 98 bd 8b db d2 bd
       -0.048604477 -0.097306445 -0.07430477 -0.10295781
000190 5a 60 76 38 7c 9a aa 3c 0a 6c 87 bc 88 7c 03 3d
       5.8740705e-05 0.020825617 -0.01653101 0.032101184
0001a0 38 d8 76 bd e4 fd 12 be da c1 99 bb 56 31 2f 3d
       -0.060264796 -0.14354664 -0.0046922984 0.04277166
0001b0 70 10 c6 3c 7e 86 cd bd 1e 35 44 bc cc 84 32 bd
       0.02417776 -0.10035418 -0.011975555 -0.043583676
0001c0 ff 76 8b bd ce 26 23 bd a7 80 b5 bd d8 af 42 3c
       -0.06809806 -0.03983193 -0.08862429 0.011882745
0001d0 58 c9 9a bd 7a cf 29 bb 6b 71 aa 3d 3a bc 5d 3c
       -0.075579345 -0.002591102 0.08322414 0.013533646
0001e0 d2 8a a7 bc 7f 1b e2 bd 28 ee 34 be 21 6d b2 bc
       -0.020451937 -0.11040401 -0.17668974 -0.021780552
0001f0 0b be 1e be 1a da 92 bd bb f3 a0 bd 98 80 6a b9
       -0.15502183 -0.07170506 -0.07858988 -0.00022363884

policyHead.4.weight f4 [128, 128]
000000 af e1 82 3d f8 77 97 3d 8a 6e 3b 3e 4f 59 0b be
       0.06390702 0.07395929 0.18303886 -0.13608287
000010 2b a1 1c 3e 5e ad 24 3e a7 3d 3a bd 97 e3 01 be
       0.15295856 0.1608176 -0.045468953 -0.12684475
000020 f5 09 c8 3c 96 e9 a9 3c 68 9d db 3c c8 bf 66 be
       0.02441881 0.020741265 0.026808456 -0.22534096
000030 d6 4b 3d be 54 27 97 be c6 df 99 3e 89 c0 b1 3d
       -0.1848596 -0.29522192 0.30053538 0.08679301
000040 a0 b3 a5 3d aa 22 38 bd 11 62 d9 3c 75 10 51 3c
       0.080909014 -0.044954933 0.02653602 0.012760271
000050 5c 60 32 bd 6f da 7a be 0e 82 23 be 04 b9 bd 3d
       -0.043548927 -0.24497388 -0.1596758 0.092638046
000060 f1 d6 29 bb 69 63 cc bd 25 78 d6 3d e2 3e 55 3d
       -0.0025915469 -0.099798985 0.104721345 0.052061923
000070 58 51 b1 3d 8b 45 12 3e ec 2b 72 bd b9 28 c7 3d
       0.08658093 0.14284341 -0.05912392 0.09724564
000080 fe 12 a3 bc 34 ba 3d be 2a 95 19 3e 54 1f 24 be
       -0.019906517 -0.18528062 0.14998308 -0.16027576
000090 91 0d 23 3c 9e 58 6f be 33 5b 2b 3e c4 a0 b2 bd
       0.009951965 -0.23373649 0.16734008 -0.0872207
0000a0 d4 6c f1 bc 0f b3 d2 3d 9f 95 c9 3d 16 9f 16 3e
       -0.029470839 0.10288059 0.09842991 0.14709124
0000b0 88 e1 6b 3e 3f ba 0e 3d de 84 14 be 67 51 77 be
       0.23035252 0.034845587 -0.1450381 -0.24152146
0000c0 97 db cf 3a 60 f8 a9 3d 2b 18 15 be d4 f4 69 be
       0.001585829 0.08299327 -0.1456 -0.22847301
0000d0 e8 27 4f 3d 73 d9 4a be 2a b1 d5 3d f4 e5 7f 3e
       0.050575167 -0.19809513 0.10434182 0.24990064
0000e0 2a 5d 4d 3b cd f8 4b be b5 ac 27 3d 6a d7 be 3d
       0.0031336048 -0.19919129 0.04093619 0.09318431
0000f0 66 16 93 3c aa b2 5c be ce 1f 9f 3a c8 64 89 3d
       0.017955016 -0.2155253 0.0012140216 0.067086756
000100 91 1d c4 bd 63 f9 27 bb c1 af 05 bb e0 71 20 be
       -0.09575952 -0.0025630824 -0.0020398947 -0.1566844
000110 bc c4 5e be e2 60 69 3d 8b 58 55 be 6d 0d 1e 3d
       -0.21754736 0.05697716 -0.20834558 0.038587023
000120 29 7b 95 3c 4c de a7 bb 00 ef 91 3d 86 c2 f6 bd
       0.018247204 -0.0051229354 0.07125664 -0.12048821
000130 b3 c0 17 be c2 83 f0 3d c7 c8 c9 3d 85 93 17 be
       -0.14819603 0.11743881 0.09852748 -0.14802368
000140 82 d8 d9 bd 2f 4b 7a 3d be b8 92 bd 7c 9b 6e be
       -0.10636999 0.061106857 -0.07164143 -0.233015
000150 9a de 22 3e 48 c7 ea bd 5c ae a0 bb 0c ef 44 bd
       0.15905228 -0.11463791 -0.0049035978 -0.048079535
000160 e9 0f b6 bd 4a d3 5b bd 07 1d b0 bd 7d 05 82 bd
       -0.08889753 -0.053668298 -0.085992865 -0.06348703
000170 a3 8f 6b 3d 39 40 d5 bc 2c 64 2a be 80 37 d4 bd
       0.05751003 -0.0260316 -0.16639775 -0.10362148
000180 16 50 c2 bd 93 6c 68 bd 1d 55 8c 3d 83 bc df bc
       -0.094879314 -0.05674417 0.068521716 -0.02731157
000190 72 81 51 3d 44 55 d2 3d 89 c0 85 3e 13 bb 6b bc
       0.05114884 0.102701694 0.26123455 -0.014387864
0001a0 99 0e 9a 3d f2 2a 18 be d2 93 1c bd cd cc 18 be
       0.075223155 -0.14860132 -0.03822691 -0.14921875
0001b0 5c 0f d6 3d 37 62 22 3e 32 76 a9 bd b7 89 0b bc
       0.10452148 0.15857778 -0.08274497 -0.0085167205
0001c0 e1 46 4a 3c 58 33 18 3e 77 22 89 3e 6b 9a 83 bd
       0.012346 0.14863336 0.26784107 -0.06425937
0001d0 24 53 35 bd 23 25 54 3d c5 23 60 bd 3b 8b 25 be
       -0.044268742 0.05179323 -0.054721612 -0.16166393
0001e0 a8 fa 55 3e e3 d3 f0 3d 86 c8 af bd 64 02 94 3d
       0.20896399 0.11759164 -0.08583169 0.072270185
0001f0 09 f2 14 3d b5 88 dc bd 99 e0 46 bd 9a b1 6e bd
       0.036363635 -0.10768262 -0.048554037 -0.058274843
000200 ef 8c 9e 3d dc 11 11 3d b0 00 d2 bd 88 b5 e1 bd
       0.07741725 0.035417423 -0.102540374 -0.110209525
000210 5b 1a ad bc a3 70 88 3d f1 ad 87 bc 1f df 5b 3d
       -0.021130731 0.06662109 -0.016562434 0.05367958
000220 2a ee dc 3b a0 32 21 bd 57 6d 22 3e 3e f4 40 be
       0.0067422586 -0.03935492 0.15862022 -0.18843171
000230 56 0a 8b bd ea 3b 2e 3e 8b 62 5d bd 67 77 20 be
       -0.06789081 0.17015043 -0.054049056 -0.15670548
000240 f4 49 c3 bd 35 80 c0 bd 46 51 fd bd b4 ca 70 bd
       -0.0953559 -0.093994536 -0.12369017 -0.058787063
000250 99 0b 6f be 50 1b 38 3e 93 01 38 3e bf 6a df 3c
       -0.23344268 0.17979169 0.1796935 0.02727258
000260 8e b7 d0 bd 15 44 60 3c 32 e9 97 be 3b 21 40 bd
       -0.1019126 0.013688107 -0.296701 -0.04690669
000270 9b e3 cc 3c d9 56 28 bd 34 1c 7f 3d 70 45 97 3d
       0.025010874 -0.04109845 0.062282756 0.07386291
000280 10 18 35 3d 37 b5 73 3d 11 ad a3 3d c9 50 10 be
       0.0442124 0.05949899 0.07991994 -0.14093317
000290 d5 da 00 be 6b 70 a9 bd 8d 8f 61 bd d2 ae 58 bd
       -0.12583478 -0.08273395 -0.05506854 -0.052901097
0002a0 6a 7b 55 3e 94 a5 9b bc 40 c4 e5 bb 57 fc 35 bd
       0.2084786 -0.018999852 -0.00701192 -0.044430103
0002b0 21 f4 c8 bd 57 93 a0 bc 3b 4f 49 3b 9c c4 43 3d
       -0.09812189 -0.019601507 0.003071739 0.047794923
0002c0 22 45 9c bd 8a 75 a7 3d 96 22 0d bd 07 ce da 3c
       -0.076303735 0.08176716 -0.03445681 0.02670957
0002d0 0b d8 75 be 04 f6 6b bd 43 f0 52 bb f7 e1 20 bb
       -0.24008195 -0.057607666 -0.0032186664 -0.0024548748
0002e0 ea 9b 3e 3e 1a 6b 3a bc 58 9d e0 bd c5 08 94 bd
       0.18614164 -0.011378074 -0.10967511 -0.07228235
0002f0 86 ea ce 38 20 3e 04 be 1f e9 ee 3d 6a 5e f6 3d
       9.866529e-05 -0.12914324 0.11665558 0.12029727
000300 8d 6c 49 3d 2f 7c 88 bd 79 63 ae 3d b4 bc 34 3d
       0.049175788 -0.06664311 0.08515067 0.044125274
000310 a7 83 18 3e 97 25 f3 bd 4d 16 9c 3d fb 3b d6 3d
       0.14893971 -0.11872404 0.07621441 0.10460659
000320 f3 c4 4d be 51 1d 85 bc 48 f1 92 bb 84 ec 60 bd
       -0.20094661 -0.01624933 -0.0044843294 -0.05491306
000330 39 81 b2 bd 68 f4 1e 3e 80 b3 63 3d a5 b6 13 bc
       -0.087160535 0.15522921 0.055591106 -0.009015714
000340 53 ad 37 be f1 d6 c3 bd 1e 3f 10 3e d6 58 dd ba
       -0.17937212 -0.09562481 0.14086577 -0.0016887437
000350 29 c9 20 3e ad b8 52 3c 96 76 d1 bd d5 5b 05 bd
       0.15701737 0.012861413 -0.102276966 -0.03255828
000360 d9 aa 47 be 02 23 b6 bc b6 00 a5 3c 12 a7 1b 3e
       -0.19498767 -0.02223349 0.02014194 0.15200451
000370 07 61 24 bd 22 5c 33 3d 8b 0d 36 bd 69 92 36 3c
       -0.040131595 0.043789037 -0.04444651 0.011143305
000380 ad 83 cd bd 80 5b 90 bd 96 19 bb 3d 38 22 7f bc
       -0.10034881 -0.07048702 0.091357395 -0.015572123
000390 3b 99 ac 3d 21 70 52 be df 7d 8e bd c3 74 dc bd
       0.08427664 -0.20550586 -0.06957602 -0.10764458
0003a0 55 68 21 3c ca 1d df 3c af 14 8b bd 89 c3 52 bc
       0.009851535 0.027235884 -0.067910545 -0.012864002
0003b0 af f6 8a bb cd 85 83 bd d4 37 91 bd 37 4c a0 39
       -0.0042408328 -0.06422005 -0.070907265 0.00030574363
0003c0 59 8f cd bb 61 43 0c 3d 93 8b d6 bd aa c1 29 3e
       -0.006273192 0.034243945 -0.104758404 0.16577783
0003d0 0b ab b4 bc 24 4a cf 3d 50 da 64 bd 87 52 ae bd
       -0.022054216 0.10121563 -0.05587226 -0.085118346
0003e0 47 7e a2 3d 7c a0 20 be 04 2b d8 bd 31 2a 47 3e
       0.07934242 -0.1568622 -0.105550796 0.19449688
0003f0 58 50 ca ba a0 67 b9 bb 74 f7 8b 3d 02 4f 3e be
       -0.0015435321 -0.005658105 0.06834307 -0.18584827

policyHead.4.bias f4 [128]
000000 71 26 8b 3d ae 4f 24 3d e9 8d 2e be fc f6 e4 3b
       0.067944415 0.04011505 -0.17046322 0.0069874506
000010 68 4f e7 3d 8b d5 eb 3d d1 b0 6c 3d 3c e7 25 be
       0.112944424 0.115153395 0.057785813 -0.1620149
000020 f6 ef 8a 3d 36 cc 82 bd d0 6f 68 3c fb a8 91 3d
       0.0678405 -0.063866064 0.014186814 0.071123086
000030 16 b2 c5 bb 6c d3 61 bd 85 00 a9 bd dc fb b0 3d
       -0.0060331924 -0.05513327 -0.08252052 0.08641788
000040 96 f3 be 3c e6 bb b8 3c 41 ac 9a 3d 4d 0f dc 3d
       0.02330951 0.022550534 0.07552386 0.10745106
000050 7b 18 82 bd 91 43 a6 bd dd 34 6b 3d 9a 1c 30 be
       -0.063523255 -0.08118356 0.05742346 -0.1719841
000060 10 71 62 bd 01 3c 96 3c 8e b1 0f 3d 98 47 57 bb
       -0.055283606 0.018339159 0.03508144 -0.003284907
000070 eb 99 10 3c 9f 6f 7c bd 1d d1 e4 3b 81 d3 a1 3c
       0.008825759 -0.061629888 0.006982936 0.019754173
000080 58 bb f1 3c ed 11 55 bd 93 aa ee 3d 66 1d 33 3d
       0.029508278 -0.05201905 0.11653628 0.04372921
000090 82 c2 29 3d 82 45 32 3d e0 da 69 bc 45 ea 23 3d
       0.041445263 0.04352332 -0.014273375 0.04001834
0000a0 c2 f9 3c 3d 35 d2 f1 3c a5 28 b4 3c b4 df b0 3d
       0.046136625 0.02951918 0.021992037 0.08636418
0000b0 c9 55 07 bd c1 fe 94 bd 66 4d 97 3d 06 e2 ba 3c
       -0.033040795 -0.07275153 0.073878095 0.022812854
0000c0 0d 9d 09 bd 0e 0f 2f bb a3 0c e2 bc e2 69 10 3e
       -0.03359704 -0.0026711854 -0.027593916 0.14102891
0000d0 98 53 cb 3d 7d ee 03 3e 45 d1 8f 3d d7 ba af 3d
       0.099280536 0.12883945 0.07022337 0.08580559
0000e0 1a 71 3f bc 64 ff 18 bd 95 79 82 3b bb 9b 8c bd
       -0.01168468 -0.037352934 0.003981779 -0.06865641
0000f0 ed f7 8f 3d 41 53 9f 3d b0 05 8a 3d 42 23 fb bd
       0.0702971 0.07779551 0.06739366 -0.12262584
000100 5f 50 ff 3d 23 af 1f bd 3c 39 e4 3c f0 34 b8 bd
       0.124665014 -0.038985383 0.027859323 -0.08994472
000110 54 38 e6 3c 96 93 4c 3d 3a 49 cd bd 07 0e df bd
       0.028103031 0.049945436 -0.100237325 -0.108913474
000120 b6 23 f9 bd c4 ff 20 3d bd f2 81 bb 1b 7a c0 3d
       -0.121650144 0.039306417 -0.0039657042 0.0939829
000130 02 44 b5 3d ef 2d 6d bd bf fc 83 3d 6f 43 a4 3d
       0.08850862 -0.057905134 0.06444692 0.080206744
000140 a3 2c c6 bd 94 df 00 3e b3 78 68 3c 46 28 17 be
       -0.096764825 0.12585288 0.014188933 -0.14761457
000150 14 f0 33 bd cb 66 ec 3d b2 00 5d bd 75 d9 90 bd
       -0.04393013 0.11543044 -0.05395574 -0.07072727
000160 de 53 8a bd 4c 56 87 bc a0 65 93 bd 9b c2 36 3d
       -0.06754278 -0.016520642 -0.07197118 0.044619184
000170 98 9e 03 3d 3a da b8 bd cf e8 be 3d 86 5b bc 3d
       0.03213367 -0.090259984 0.093217485 0.09197144
000180 d0 a9 5e bd e4 d0 c6 bc 0e 47 c9 bd 2f 06 96 3d
       -0.054361165 -0.024269529 -0.09828006 0.07325398
000190 d6 d7 ef bd fa 9d b3 bd 34 54 09 be da 93 1d bd
       -0.11711089 -0.08770366 -0.13411027 -0.03847108
0001a0 7c 9b c5 bd ff 8f 27 bd 1e 4c 6e bd dd 1c 2c 3d
       -0.09648797 -0.04090881 -0.05817806 0.042019714
0001b0 9d a6 81 bd d4 e4 04 3e 70 84 d1 bd d3 f6 56 3d
       -0.06330607 0.12977916 -0.102303386 0.052481484
0001c0 17 6d 25 3b 34 ea ff bd de 64 8d 3a 65 62 6f 38
       0.0025242025 -0.124958426 0.0010787507 5.7073677e-05
0001d0 de 1a ca 3c f8 d3 d4 3d b9 ec d5 3c 35 df 44 bd
       0.024671014 0.10391992 0.026113855 -0.04806443
0001e0 a9 22 23 3c 83 c7 86 3a b3 e6 0c 3d 41 e1 00 be
       0.009956994 0.0010282848 0.0343997 -0.12585928
0001f0 47 a6 4b 3c 43 8b 54 ba 2f 03 b9 3d 0c 1c 63 bc
       0.01242978 -0.000810791 0.0903381 -0.013861667

policyHead.6.weight f4 [128, 128]
000000 db 34 ac bd ca d8 9c 3c 7d 84 2e 3d f4 8d 22 3d
       -0.08408519 0.019146342 0.04260682 0.03968616
000010 4f 05 39 3e 69 b3 6e bc 2b e2 aa 3d 3e 5e 07 bd
       0.18068431 -0.014569142 0.08343919 -0.03304886
000020 29 4a a2 3d 98 6d 44 3d ff ed fa bd 82 8e 8a 3d
       0.07924301 0.04795608 -0.122524254 0.067654625
000030 a7 17 c3 bc a9 3a 86 bc 4d 77 06 bd 12 59 da 3d
       -0.02381499 -0.016385393 -0.032828618 0.1066152
000040 43 ed cf bd e1 c5 02 3e 4b 53 e2 3b 7f 33 ce bc
       -0.10152676 0.12770797 0.006906902 -0.02517104
000050 df 7c 01 be 14 3a 9f 3c 5d 8c db 3d 5d 0a 16 bd
       -0.12645291 0.019436873 0.107201315 -0.036630977
000060 22 4d 7a bd db d0 65 3d d5 60 0e 3e b5 b2 11 be
       -0.061108716 0.056107383 0.13904126 -0.14228328
000070 6b 06 e2 3d 02 68 fe 3c bb 93 cc 3d d8 d0 b4 3c
       0.110363804 0.031055454 0.09989115 0.02207224
000080 0b f8 6f bd ad 74 5e bd 4d 24 b4 bd 91 12 b5 3c
       -0.05858616 -0.05431049 -0.08795986 0.02210358
000090 4d 27 e5 3d 48 d8 35 3d 16 72 0a 3e 1a fe 20 3e
       0.11189137 0.044395715 0.13520083 0.15721932
0000a0 fd c5 eb 3d c6 02 cc 3d e7 28 93 bd 37 2b 50 3d
       0.11512373 0.099614665 -0.07185536 0.050822463
0000b0 31 58 b7 bc 1e ff b3 bd 84 2e a1 bd 99 76 ca 3d
       -0.02238092 -0.08788894 -0.078702 0.09885902
0000c0 19 1e 94 bc 7f a3 f4 3c 8c 6f e3 3d dd 06 9b bb
       -0.018080758 0.029863117 0.1110526 -0.004731043
0000d0 e4 fc 89 3d 44 85 04 be 13 35 c7 bd ca 76 12 be
       0.06737688 -0.12941462 -0.0972692 -0.14303127
0000e0 0d bc 60 bd 71 f5 b1 3d 01 0f 29 be ff 17 4e bc
       -0.05486684 0.08689392 -0.1650963 -0.012578963
0000f0 18 95 7c bd cf aa 4f 3d 0e b8 b9 3c 11 83 0b 3d
       -0.061665624 0.050700005 0.022670772 0.03406054
000100 a2 a5 54 3d 45 b5 07 3e 77 bc 7e 3d 57 30 8e 3d
       0.051915772 0.13252743 0.062191453 0.06942814
000110 1f ef d6 3d 84 2f a3 bd 39 8e a9 bc f7 4d 52 3b
       0.104948275 -0.07968047 -0.0206977 0.0032089928
000120 df ec 80 3d 8f dd 4d 3d c7 e5 9a be 2b a9 ac bd
       0.062951796 0.050260123 -0.3025343 -0.08430704
000130 ff 81 dd 3d e1 d8 55 3d be 36 22 be 63 9b b5 bd
       0.108158104 0.052208785 -0.15841195 -0.08867528
000140 23 ad 85 bc 7f 86 81 3d 48 c0 90 bc 6d df b2 3d
       -0.01631791 0.06324481 -0.017669812 0.08734021
000150 9f 8e 0a bd 43 e8 33 3e d8 41 91 3b 36 7d 87 bd
       -0.03382742 0.1756907 0.004432898 -0.06615679
000160 34 58 79 bd 68 71 2c bd 0b 25 66 3d 5f 63 0c bc
       -0.060875133 -0.04210034 0.05618767 -0.008568614
000170 5e bd 6b be 4e 8b 6b bc bb 98 ae 3c cb 1b 15 3d
       -0.23021457 -0.014376475 0.021313062 0.03640346
000180 e0 e7 bc 3d 7c f9 5b bd de 1c cd bd 99 e6 27 3e
       0.09223914 -0.053704724 -0.100152716 0.1639656
000190 54 e8 9a 3b b3 30 bc 3a f4 07 02 3e e2 db ce 3d
       0.0047274027 0.0014357775 0.12698346 0.10100533
0001a0 12 e8 92 3c 64 a2 bb 3c c1 80 b2 bd 4c 38 51 3b
       0.017932925 0.022904582 -0.08715964 0.0031924425
0001b0 db 51 8d bd 97 ab 2b bd e6 dc a8 3d 21 df 1d 3d
       -0.06900378 -0.041911688 0.08245258 0.03854287
0001c0 1b f0 00 3d 5e c2 26 3b 1c 26 d1 3d 73 82 cd 3c
       0.031478982 0.0025445442 0.10212347 0.025086617
0001d0 c1 d1 41 3d 2e 9a 0c 3e 4b 9e ed bc 99 7a 8f 3c
       0.047319178 0.1373069 -0.029006144 0.017514514
0001e0 7d 45 1a be 05 61 54 3e 17 63 bb 3d f7 4c 14 bc
       -0.1506557 0.20740135 0.09149759 -0.009051553
0001f0 09 e5 a1 bc c9 53 a4 be 0c a4 05 be 59 da b9 3d
       -0.019762533 -0.32095173 -0.1305086 0.0907485
000200 4a 74 bb 3d 29 22 b0 bb 50 4a a7 3d 5c 2f 66 bd
       0.0915304 -0.005375166 0.08168471 -0.05619751
000210 1d ef 20 bd 57 00 06 be 61 c6 3f 3e 06 87 ee 3d
       -0.039290536 -0.13086067 0.1872802 0.116468474
000220 ac f7 9f 3a f6 a5 89 3d 4e 37 84 3d be 39 84 bd
       0.0012204549 0.06721108 0.06455861 -0.06456326
000230 c0 81 05 3d eb 9c 04 bd 8f c9 aa 3d 5a 76 9b bc
       0.032594442 -0.03237621 0.083392255 -0.018977333
000240 a1 10 f2 bc 13 fc 04 3e 2f b5 26 3e ec c1 f5 bc
       -0.029548945 0.12986784 0.16280054 -0.029999696
000250 6d 00 77 bd e0 a8 36 3e 15 92 b6 bc ad 94 91 be
       -0.06030314 0.17837858 -0.022286454 -0.28433743
000260 ab a0 0f bb ef 60 bd 3c ad 5a 03 3e a9 d4 00 be
       -0.0021915834 0.02311751 0.12827559 -0.12581123
000270 e0 e4 8d bc 98 a0 a8 3d 3e 1a e5 3a ff 85 a7 bd
       -0.01732105 0.08233756 0.0017479134 -0.081798546
000280 f1 76 34 bd fb 58 be 3b 1a 41 4e be 73 4c e9 3d
       -0.044058744 0.005808947 -0.20142022 0.11391535
000290 4c 65 7e bc 67 82 50 3d 45 02 c1 3d 14 b8 4a 3d
       -0.015527081 0.05090561 0.09424261 0.049491957
0002a0 9f 80 0b bd 6c fd 0d 3e 1e cc 22 3e b7 37 b0 3d
       -0.03405821 0.13866204 0.15898177 0.08604377
0002b0 a7 93 80 bd 70 8e d3 3c cc 0b 37 be 5c 7a 91 3d
       -0.062781624 0.025824755 -0.17875594 0.07103416
0002c0 bc 94 47 3d f2 fd 95 bc bc 5c a5 bd 88 c5 77 3e
       0.04872583 -0.018309567 -0.08074328 0.24196446
0002d0 d1 da 4b 3d c4 ff de be 3a 5b 0c be c6 70 a2 3d
       0.049769226 -0.4355451 -0.13706675 0.07931666
0002e0 8c 70 84 bd 42 b4 94 3c 28 79 9e 3d ab b1 0b bc
       -0.06466779 0.01815236 0.077379525 -0.008526246
0002f0 f0 dd 1c 3e 24 0f 62 be 40 7b ec 3d b5 6e aa bd
       0.15319037 -0.22076088 0.115469456 -0.08321897
000300 91 7f af 3d fe c0 03 bd dd 9e 85 be 78 2f b0 3d
       0.08569253 -0.032166474 -0.26097766 0.08602804
000310 42 2e c8 3d c6 2c 36 3d 9f 4a 56 bd 01 a8 c5 bd
       0.09774448 0.044476293 -0.052317258 -0.09651185
000320 7d 7d 20 3d 35 ca 8c bd d8 42 8b bc e7 9c d5 bd
       0.039182175 -0.068745054 -0.016999647 -0.10430317
000330 5f 9a b5 ba f6 b2 c7 bd a2 28 a8 3d ea 1d 4f be
       -0.001385521 -0.09750931 0.08210875 -0.20226255
000340 21 eb 53 bd 14 7c 9f 3d ec 09 56 bd 43 ae e3 3c
       -0.05173791 0.07787338 -0.052255556 0.027793055
000350 a3 6a 71 bd c0 00 03 3e 15 e9 22 bc a5 98 5d bd
       -0.058939587 0.12793255 -0.009943266 -0.05410065
000360 7f 69 aa bc 35 18 b8 bc 35 1b a6 3d 90 09 b0 bc
       -0.020802258 -0.02247248 0.08110658 -0.021488935
000370 d3 06 da bd 84 86 cb bd 97 4f 54 be 4f 31 b7 3d
       -0.10645833 -0.09937766 -0.20733486 0.08944952
000380 49 df e6 bd 1c bf 57 3d 57 83 22 bd b0 0b 69 3b
       -0.11273057 0.05267249 -0.039676037 0.0035559945
000390 35 51 06 be 93 97 15 3c 9a 7c 05 bd ef 2d b8 bd
       -0.13116916 0.009130376 -0.032589532 -0.08993136
0003a0 ed 6e b1 3d 0d c1 1d 3d 00 1f 27 bc a6 fb b9 3d
       0.086637355 0.038514186 -0.010200262 0.09081201
0003b0 15 a6 64 bc 11 99 e1 3d ac c6 12 3e bc 2e 90 bd
       -0.013955613 0.11015523 0.143336 -0.07040164
0003c0 17 a7 a4 bd e5 d7 ad bd 7c 39 1b be 55 d9 44 3d
       -0.08039682 -0.08488444 -0.15158647 0.048058826
0003d0 b5 09 39 bd 13 a8 39 3d 8e 88 cc bd 3b 4d 38 3d
       -0.045175273 0.045326304 -0.09986983 0.044995528
0003e0 5b 22 7f 3d b9 61 7f 3c 3f 65 3e bd 8c 86 fe bd
       0.062288623 0.015587264 -0.046483275 -0.124280065
0003f0 52 f9 f2 bd 78 22 59 be 47 ac b3 bd ce 4e 44 bd
       -0.1186396 -0.21204555 -0.08773094 -0.047926717

policyHead.6.bias f4 [128]
000000 fb 7f b1 3d 96 0e 22 3e ce cd b6 bd 7d a7 62 3b
       0.086669885 0.15825877 -0.08925973 0.0034584694
000010 f8 2c a4 bd b7 c7 13 bd bd 56 45 bc 80 a8 a3 3b
       -0.080163896 -0.036079135 -0.012044606 0.004994452
000020 e5 18 4f 3d 17 96 1f 3e bc 36 0e be 34 0b c8 bb
       0.05056085 0.15584598 -0.13888067 -0.006104851
000030 52 f0 13 3e 3b 0c 04 be 94 c5 1c 3d 7a 65 b8 3d
       0.14447144 -0.1289529 0.038274363 0.0900373
000040 b3 19 04 3c b1 59 98 bd ef 63 03 be a6 95 55 bc
       0.008062768 -0.07438982 -0.1283109 -0.013036167
000050 9f 4c 51 3d 90 76 aa bb fb 4a 7f bc f1 b7 0c 3d
       0.051098462 -0.005202122 -0.015581842 0.034355108
000060 bf b4 03 3e ac 92 23 3e 2d f3 39 3e a8 44 c6 bc
       0.12861918 0.1597392 0.1815917 -0.02420266
000070 17 7d a4 bd f1 27 d3 bd 61 72 9d bd 8d de 9d 3b
       -0.080316715 -0.103103526 -0.07687832 0.00481779
000080 6c a5 2a 3e 0d 06 e8 3c f2 5e c3 3d 7a b1 f2 bd
       0.16664666 0.028323198 0.09539594 -0.11850257
000090 c6 94 91 3d 88 f3 db bd 7f 70 c9 bd 74 32 05 bd
       0.071084544 -0.10739809 -0.0983591 -0.03251882
0000a0 54 85 5b bd ff 31 c9 bd f3 95 0b 3e cc ae 4c bc
       -0.05359395 -0.09823989 0.1363142 -0.012492847
0000b0 d2 ff eb bd 23 ad c2 3d 8f 9e 8e bd b6 c5 d1 3d
       -0.11523403 0.095056795 -0.069638364 0.102427885
0000c0 5d 19 0c bd 02 86 f3 bd 85 92 d4 bd dc 2c b3 bd
       -0.034203876 -0.11890794 -0.10379509 -0.087487906
0000d0 93 43 28 3d 71 cf e2 bd 5b ae f6 3c b7 b9 17 bd
       0.04108007 -0.110747226 0.030112436 -0.037042346
0000e0 c9 49 36 bc 10 69 cb bd e0 e5 b2 3d 45 fa ea 3c
       -0.01112599 -0.099321485 0.087352514 0.028683791
0000f0 c8 8f f7 bd dc aa e3 bd 3b 79 a3 bd 41 aa 8c 3d
       -0.12087971 -0.11116573 -0.07982107 0.06868411
000100 3d bb 18 be cf fd 7a 3c 13 3a 47 bd 82 26 0b 3e
       -0.14915176 0.015319302 -0.04863937 0.13588908
000110 90 fa c3 bd 98 44 83 3c b8 ea d8 bd 5c d6 ec bd
       -0.095692754 0.016023919 -0.10591644 -0.11564323
000120 e2 19 07 3e f6 5b 67 bd fc 4c c5 bd 92 cf 10 3d
       0.13193467 -0.056484185 -0.09633824 0.035354204
000130 56 07 5a bb 8f 12 a1 3d 19 d5 bc 3d ae 08 ca bd
       -0.0033268533 0.07864868 0.09220333 -0.09864937
000140 de 6b 8b 3d dc a8 ca bd e3 2b e4 3d a3 9c bd bd
       0.068076834 -0.098954886 0.11141183 -0.09258392
000150 0f 61 ee bd 07 e5 bc bd 5d 61 18 3e 16 01 e7 bc
       -0.11639606 -0.09223371 0.14880891 -0.02819876
000160 c0 6d 18 3e f7 9c 81 bd ea 6b 42 bd 5a 24 0d bc
       0.14885616 -0.06328767 -0.047466196 -0.008614624
000170 b7 7e da bd 76 79 92 bb ab 3b d8 bd c2 6a aa bd
       -0.106687 -0.0044700457 -0.10558256 -0.08321144
000180 13 1d a1 3d 07 3d 9e 3d 7a 40 1b 3d 14 bf aa 3d
       0.078668736 0.07726484 0.037903287 0.083372265
000190 dd e2 be bd 57 d5 ae bd 9f 0a a9 bd 83 69 af bb
       -0.093206145 -0.08536785 -0.08253979 -0.005353154
0001a0 5c 74 31 3e e7 6a 3d bd a7 07 ea 3d 4d 60 9b bb
       0.17329544 -0.04624453 0.11427241 -0.0047417046
0001b0 82 8f df bc ad 9b 33 bc c8 0b 00 be c5 24 44 3b
       -0.02729011 -0.010962409 -0.12504494 0.0029929143
0001c0 c1 44 25 3d 48 93 13 3e 5f 59 0a 3e 91 51 1c 3e
       0.040348772 0.14411652 0.13510655 0.1526549
0001d0 22 fc f9 3d d6 fc eb bb 75 7c 8c 3b c3 05 a1 3d
       0.12206294 -0.0072017713 0.0042872974 0.07862427
0001e0 9c fc 8d 3d 37 46 e2 bd 43 38 cf 3d 51 5f c8 3d
       0.06932947 -0.11048549 0.10118153 0.09783805
0001f0 7f 9f f8 bd 1c 54 54 3e e3 83 d7 bd 00 8f f9 bd
       -0.121397965 0.2073521 -0.10523202 -0.12185478

policyHead.8.weight f4 [128, 128]
000000 7d cb 14 bd e8 a7 17 3c ce 89 17 bd 46 8d 05 bc
       -0.036326874 0.009256341 -0.036996655 -0.008151358
000010 48 bd 89 bd 56 8f 9a 3d a9 69 17 bd 18 0a 91 bd
       -0.06725556 0.075468704 -0.036966 -0.07082003
000020 f5 8b b6 3c f0 9c 04 bd 87 40 b2 3d 37 51 13 3d
       0.022283534 -0.03237623 0.08703714 0.035966124
000030 5a 4a a2 3c 1b 8e 9c 3b a3 ac 7c 3c c2 26 4a bd
       0.019810844 0.0047776825 0.015422019 -0.04935337
000040 28 49 9c 3d ca 66 a5 3b 5f b2 06 3c a9 a0 43 3c
       0.07631141 0.005047654 0.008221238 0.01194016
000050 f4 b5 50 bd 91 f8 17 bc a0 67 2a 3d 1d 7e 83 3d
       -0.050954774 -0.009275571 0.04160273 0.064205386
000060 72 cf b6 bc 8a 18 af bd d0 18 68 bd 22 9a 09 3d
       -0.022315715 -0.08549602 -0.056664288 0.033594258
000070 c2 5c b4 bd 5f b2 73 bd d3 00 7b 3c b7 ec e1 3c
       -0.08806755 -0.05949628 0.015320021 0.027578695
000080 92 6d fa 3c 41 61 80 bd db 7b 11 3d 50 67 2d 3d
       0.030569825 -0.0626855 0.03551851 0.042334855
000090 fd 7b a3 3d 72 b1 a8 bd 96 39 69 bd f3 dd 38 3d
       0.07982633 -0.0823697 -0.056939684 0.045133542
0000a0 b9 db 22 bd 6c 15 05 bc 73 5b a1 bd a3 d4 14 3d
       -0.039760325 -0.008122783 -0.07878771 0.0363356
0000b0 48 94 2c bc b3 80 07 bd c2 b8 8a 3c 92 b9 68 bc
       -0.0105334 -0.03308172 0.016933803 -0.0142044
0000c0 0e 24 69 3c 43 c7 fa 3c e6 e3 11 3d 2a 9b 1e bd
       0.0142297875 0.030612594 0.03561773 -0.038722195
0000d0 04 c3 b4 bd ae bb 05 bc 3b 3a bb bb c4 a3 89 bd
       -0.08826259 -0.008162422 -0.0057137287 -0.06720689
0000e0 62 19 a1 bd 8c 32 11 3d 38 b2 9a bd e6 78 fa bc
       -0.078661695 0.035448596 -0.07553524 -0.030575227
0000f0 24 66 93 bd 0f fd 96 3d fc ad 6f bd 7d aa c2 bc
       -0.07197216 0.07372486 -0.058515534 -0.023762936
000100 df 21 6c bd c5 04 92 bd 46 f8 9b bd 9e d7 89 bd
       -0.05764949 -0.07129816 -0.07615714 -0.06730579
000110 c4 dc 12 bd de 80 e4 3c 90 6b cf bb b6 e0 7b 3b
       -0.03585507 0.02789348 -0.006329961 0.0038433499
000120 90 8c 3f bd 54 6d 54 bd 32 e1 06 bd 4a 1d 8d bd
       -0.04676491 -0.051862076 -0.032929607 -0.06890352
000130 fb 43 87 3d e6 94 af bc 6e b4 8f bd d6 ab 9a bc
       0.06604763 -0.021433305 -0.07016836 -0.018880766
000140 58 b6 36 bd 54 31 e2 ba de 6b 35 3c a2 1d 48 3d
       -0.04460749 -0.0017257133 0.011073081 0.048856385
000150 38 6d b0 3d b0 c8 17 bd f1 11 21 bc 7f a0 64 bd
       0.08614582 -0.037056625 -0.009830938 -0.055817124
000160 1a dc 7a bd 12 7e a7 3d 9d d9 a8 bd 70 1e af bc
       -0.06124506 0.08178343 -0.082446314 -0.021376818
000170 4d fc d3 bc ce 52 14 3d 0b 97 b7 3c d0 0f 63 bd
       -0.025877142 0.03621178 0.02241089 -0.055435
000180 ba ce 66 bc 21 18 1c 3d 37 e8 22 bd 44 05 ac bd
       -0.014087373 0.03810895 -0.03977224 -0.08399442
000190 46 a3 2d bd da c5 10 3c f5 75 9b 3d c9 72 96 bc
       -0.042392038 0.008836234 0.07590858 -0.01836528
0001a0 d2 40 3c bb 2d 5d 04 bd 11 80 f0 bc 23 77 00 bc
       -0.002872516 -0.03231542 -0.029357942 -0.007840904
0001b0 85 86 99 bc ea c2 2d 3d 9e 97 a1 3d 79 67 6f bd
       -0.018740902 0.042422213 0.07890247 -0.05844829
0001c0 14 02 91 3d f1 08 2f bd 31 61 48 bd 4d 12 91 bc
       0.070804745 -0.042733137 -0.048920814 -0.017708922
0001d0 c8 49 46 bd 2f 7f e9 3b 6a 31 b8 bc 7d 21 fa 3c
       -0.048410207 0.007125757 -0.0224845 0.030533547
0001e0 cd 5d 37 3d 5d 9f 22 bd 17 50 ee 3c 3c 93 bd 3c
       0.04476719 -0.039702762 0.029090924 0.023141496
0001f0 33 65 88 3d bd 89 fb 3c 62 01 6a 3d c0 02 dd bc
       0.06659927 0.030705327 0.057130225 -0.02697885
000200 dd b9 38 3d 2f 49 6a bd ea 09 85 3c 93 37 82 3d
       0.045099128 -0.0571987 0.016240079 0.06358256
000210 9c 0f a1 bd db 24 fd bc 06 66 ca 3c c1 d8 d8 bd
       -0.078643054 -0.030901363 0.024706852 -0.105882175
000220 48 11 8e bd f8 2d 5d 3d a5 83 f2 3c f8 a3 93 bd
       -0.0693689 0.053998917 0.029603789 -0.07209009
000230 92 ee b8 bd c5 54 91 bd af f6 de 3c 1a 68 66 bd
       -0.09029879 -0.07096247 0.027217237 -0.056251623
000240 fa d7 45 bc 2c f4 a4 3d c4 62 bb bc d4 00 b0 bb
       -0.012075419 0.080543846 -0.022874244 -0.0053711925
000250 63 85 6c bd 00 90 d5 bc 29 38 b3 bd 5b 25 00 bc
       -0.057744395 -0.026069641 -0.08750946 -0.007821406
000260 3f 04 94 bd 37 f3 99 bd f0 6f 0c 3a da be c6 bd
       -0.072273724 -0.07517093 0.0005357256 -0.09704371
000270 84 ce 6a 3d 76 5a 18 3c 5c 8a 9e 3c 6d ad 01 bd
       0.057325855 0.009298911 0.019353084 -0.031659532
000280 07 c5 f0 bb cc bf 91 bd 9f 62 ad bd 8e 02 bf 3b
       -0.0073477062 -0.071166605 -0.08466076 0.005829162
000290 78 93 18 bd 13 2b 2f 3d 73 1e 8c bd ff 16 ed 3c
       -0.037250012 0.04276569 -0.06841745 0.02894163
0002a0 0b 2f b3 bd 3e 74 a4 bd 1f cc 92 bc 11 9f 4a 3b
       -0.08749207 -0.08029984 -0.017919598 0.0030917565
0002b0 7b 83 10 3d f3 5c 2e bd 8c 65 eb bc ab 52 0d 3c
       0.03528164 -0.042569112 -0.028734945 0.008625667
0002c0 f2 cf 68 3d 55 74 94 3d 0a 9c 95 3d a9 76 9d bd
       0.056838937 0.07248751 0.07305153 -0.07688648
0002d0 1f 04 97 bd 0a c0 84 bc 68 c4 8c 3b 25 73 51 3d
       -0.07373833 -0.016204853 0.0042958744 0.0511352
0002e0 26 29 82 3c 87 ab 4a 3d 46 5b e2 bd d5 72 c9 3c
       0.015888762 0.049479987 -0.11052565 0.024590889
0002f0 84 e8 b2 3d cd bd 79 3d 56 6d b0 3d 9d 89 94 bb
       0.08735755 0.060972024 0.08614604 -0.0045330063
000300 af 05 f7 bc 76 dd 56 bd 90 a3 da 3a 9e 35 8c 3d
       -0.030154077 -0.052457295 0.0016680826 0.06846164
000310 68 87 5c 38 e7 35 cc bc af e6 65 bd 59 39 99 3d
       5.2578194e-05 -0.024928046 -0.0561282 0.07481641
000320 8b 01 3a bd ba de 1a 3c a5 ea 83 3c 61 89 99 bd
       -0.045411628 0.009452516 0.016103098 -0.07496906
000330 70 31 0f bc 5c c9 a0 bd 3c 8e 0f 3d 7b fc ae 3d
       -0.008739814 -0.07850906 0.035047755 0.085442506
000340 91 3b 8d bc 26 46 95 bc 67 4e 9b bd b0 36 01 bd
       -0.017240318 -0.018221926 -0.075833134 -0.031546295
000350 4b 25 0c bd 87 aa a4 3d af 79 81 3d ee 5e 60 bd
       -0.034215253 0.08040338 0.063220374 -0.054778032
000360 7b 64 30 3c 36 ca 63 bc 4e 13 9f 3d 2f 96 1f bd
       0.010766144 -0.013903191 0.07767354 -0.038961586
000370 31 3f 01 bd d3 bf 35 bd 00 8a da bc 23 1f b0 bd
       -0.031554405 -0.04437239 -0.026677132 -0.08599689
000380 ae 27 fb bc 5f a8 8a bc f0 26 a6 bc 7b 54 78 bb
       -0.03065857 -0.016925989 -0.020282239 -0.003789215
000390 d6 c9 8d 3d 07 70 4f 3c 50 61 ac bd d6 c4 72 3d
       0.06923263 0.012660987 -0.084169984 0.05926975
0003a0 72 c8 40 bd 6d 7e 6a 3d 1f 53 5f 3d 90 1f 1e 3b
       -0.04706616 0.057249475 0.05452263 0.00241277
0003b0 37 0a 5e bd 83 43 57 3c ac 09 10 3c c0 3b 68 3d
       -0.05420896 0.013138655 0.008791368 0.056697607
0003c0 b9 a4 20 3c 75 04 2f bd d7 9f 1c bd 0b 75 69 3d
       0.009804898 -0.04272886 -0.038238373 0.056996386
0003d0 f7 2a e9 bd 0d f9 63 3b ce b2 b8 3c 17 f3 72 bd
       -0.11385148 0.0034785897 0.022546198 -0.05931386
0003e0 1b 34 91 3d 37 3b b2 3b 5c a3 13 bd 84 ac 86 bd
       0.070900165 0.005439188 -0.036044464 -0.065758735
0003f0 a1 47 04 bd 20 ae d6 bd b4 57 93 bc 9d 71 fe bc
       -0.032294873 -0.104824305 -0.017986156 -0.031060034
